TrainedModel/DQNwithrewardhelper/2700_0-023_DQNwithrewardhelper.pth (torch, 740948 bytes, 26 tensors)

fc_layers.1.weight f4 [816]
00000000: 62a1 6e3f c288 763f 78db 853f cfa3 803f
00000010: 09f5 7a3f a07d 703f fa00 803f 2630 7c3f
00000020: e35e 773f dfbd 793f 3e77 863f 664e 833f
00000030: 89db 7d3f 6574 7a3f bf4b 823f b6f2 7b3f
00000040: 107d 763f b7f0 7d3f 7aec 7e3f 8818 813f
00000050: 56c8 7f3f 12fc 753f 20f4 7e3f 0096 813f
00000060: 9011 793f 0d44 753f 5ca9 813f 0f6d 833f
00000070: cc53 773f b678 7c3f d1a3 803f e64d 823f
00000080: b588 733f e471 7b3f 24af 7e3f 10fb 7e3f
00000090: 420b 7b3f 626a 773f e7b8 823f 5ce6 803f
000000a0: ba92 783f 00e4 773f 376e 893f b5c7 7c3f
000000b0: 8a22 7a3f 043a 793f 9403 813f aac6 803f
000000c0: df00 7e3f 1f4a 743f e987 7d3f dd69 823f
000000d0: 8a2a 7b3f 7445 753f 1e90 853f 4481 7f3f
000000e0: c522 7f3f edc7 7d3f 3e2e 893f b3dc 803f
000000f0: 401c 803f b100 7a3f 3498 873f 2da4 813f
00000100: 251d 7c3f e298 7e3f c2af 823f 5268 7f3f
00000110: 9330 7c3f cdc4 7c3f bdbc 8a3f ccba 7d3f
00000120: 66e3 7c3f 01d8 763f d3bd 833f 516c 803f
00000130: 97ad 7d3f 0f9d 743f 317f 863f f129 823f
00000140: 6b7b 783f ccd3 753f b0a6 7b3f 7b7d 803f
00000150: 3832 793f 7788 793f 0a5b 863f 86a2 833f
00000160: 8246 813f 3c50 763f 13ab 853f 1f06 7d3f
00000170: b04e 7e3f c208 7b3f 317a 823f 20c5 803f
00000180: 9f4d 7c3f 97f0 783f 0f5c 893f e4da 7e3f
00000190: 68f6 773f 48ac 733f b8e6 813f 03e1 803f
000001a0: 7c0d 783f da90 7a3f 3a04 893f d4af 813f
000001b0: 5a2b 803f be8d 7b3f 5619 8a3f 956c 813f
000001c0: 0e13 7b3f d41e 763f 1141 7a3f 7e42 7d3f
000001d0: c3a4 7b3f 5296 7e3f fb58 883f b59e 7f3f
000001e0: 54c8 813f 2a4d 7a3f 6638 873f 4cf1 813f
000001f0: 94c4 743f c1a1 793f 7390 873f 5317 813f
00000200: e04c 7f3f 7222 753f ae60 803f f8bf 7f3f
00000210: 98d7 763f 9432 7b3f ca7b 8a3f 1112 803f
00000220: f4a2 763f d131 763f 5565 7b3f 24e3 803f
00000230: 429a 7a3f 6821 783f 0712 7c3f 4b05 7b3f
00000240: 114c 763f 3e57 7a3f cc57 7a3f ac42 7e3f
00000250: ce47 793f 4362 743f 62a2 7c3f 68d9 833f
00000260: ebb8 773f 1e82 763f 4fb3 7b3f 6d18 803f
00000270: 639a 753f a4d6 783f e4e8 7b3f 3f59 7e3f
00000280: 4040 753f 02f0 793f d565 7a3f 7e26 813f
00000290: 40ee 7d3f 1178 753f 73b1 793f f3a1 813f
000002a0: cad3 773f 989a 773f 9086 7c3f 338f 803f
000002b0: 2b06 753f f27e 763f 79be 7d3f 92fc 7e3f
000002c0: 6c42 783f 3346 803f f0e5 783f aa14 7f3f
000002d0: 689d 763f 0d60 783f c50b 773f faec 7f3f
000002e0: 637f 7a3f 7053 743f 2d16 763f af6e 813f
000002f0: 40b2 743f 4c40 743f 14ad 7e3f d76c 7e3f
00000300: 56bc 773f ab82 773f b436 7e3f 78a0 7f3f
00000310: 5ca3 743f 985a 743f 8f36 7f3f ceaa 813f
00000320: f764 7d3f d65c 7c3f e082 7a3f 9f3e 7f3f
00000330: f644 783f e768 723f 0e77 7f3f 2c56 823f
00000340: bada 743f 3969 753f a2ff 7b3f 30fe 7f3f
00000350: cb63 793f 9b7c 773f c9fe 7c3f b09b 7f3f
00000360: 83d5 763f ed9a 773f ae72 793f 0220 7e3f
00000370: 2f01 763f e53a 7b3f 26bf 7c3f 45c6 803f
00000380: b1ad 723f b664 773f dea7 7c3f d861 803f
00000390: 00a0 773f dd53 7a3f 5046 813f bc7d 803f
000003a0: ceee 773f f95b 7a3f fd24 7a3f 2b8d 7f3f
000003b0: c800 7a3f c02a 783f 6824 803f 1ac8 7f3f
000003c0: 5d19 733f ea0a 773f a051 743f 4b15 803f
000003d0: a536 783f eae5 793f 4479 7e3f b314 823f
000003e0: ac50 7b3f 63a8 773f f3e8 7b3f 1672 803f
000003f0: 16ef 733f e469 7c3f 2dc5 7d3f 1df1 7c3f
0.93215 0.96302426 1.0457602 1.004999 0.98030144 0.9394169 1.0000298 0.9851097
0.9662916 0.97555345 1.050514 1.02583 0.9916311 0.97833854 1.0179366 0.9841722
0.9628458 0.99195427 0.99579585 1.0085611 0.99915063 0.96087754 0.99591255 1.0123901
0.97292423 0.9580696 1.0129809 1.0267657 0.9661224 0.9862169 1.0049993 1.0180023
0.95130473 0.9822066 0.99485993 0.9960184 0.98064053 0.966467 1.0212678 1.00703
0.97098887 0.96832275 1.073676 0.9874223 0.9770895 0.9735415 1.0079217 1.0060627
0.9922008 0.954256 0.9903551 1.0188557 0.98111784 0.958091 1.0434606 0.9980662
0.9966243 0.9913319 1.0717237 1.0067352 1.0008621 0.97657305 1.0593324 1.0128227
0.9848197 0.9945203 1.0209887 0.99768555 0.9851162 0.98737794 1.0838848 0.99113154
0.9878448 0.96423346 1.0292305 1.0033056 0.99093 0.9555215 1.0507566 1.016905
0.9706332 0.960263 0.9830122 1.0038294 0.9734225 0.97473854 1.0496533 1.0283973
1.0099642 0.9621618 1.0442833 0.98837465 0.9933882 0.9806024 1.019354 1.0060158
0.9855594 0.9724211 1.0731219 0.9955275 0.9686036 0.95184755 1.0148535 1.0068668
0.96895576 0.97877276 1.0704415 1.0131783 1.001323 0.98263156 1.0788982 1.0111262
0.9807595 0.9614079 0.97755533 0.98929584 0.9829828 0.9944812 1.0652155 0.9985154
1.013926 0.97773993 1.0564086 1.0151763 0.95612454 0.9751244 1.0590957 1.0085243
0.99726677 0.95755684 1.0029504 0.99902296 0.9642272 0.9812405 1.0819027 1.0005513
0.96342397 0.96169764 0.98201495 1.0069318 0.9789163 0.96925974 0.9846501 0.9805495
0.9620982 0.9778937 0.9779022 0.99320483 0.9737519 0.95462435 0.98685277 1.0300722
0.9676654 0.96292293 0.9832048 1.0007454 0.959387 0.97202516 0.9840224 0.9935493
0.9580116 0.9763185 0.97811633 1.0089872 0.99191666 0.9588633 0.9753639 1.0127548
0.9680754 0.96720266 0.98642826 1.0043701 0.95712537 0.96287453 0.99118763 0.9960414
0.9697635 1.0021423 0.97225857 0.99640906 0.9633393 0.9702156 0.96502334 0.9997097
0.97850627 0.95439816 0.9612759 1.0111903 0.9558449 0.9541061 0.99482846 0.99384826
0.9677175 0.9668376 0.9930222 0.9985423 0.95561767 0.95450735 0.99692625 1.013025
0.98982185 0.98579156 0.9785595 0.9970493 0.96980226 0.9469132 0.9979104 1.0182548
0.9564625 0.9586368 0.9843694 0.99997234 0.97417897 0.9667451 0.9882627 0.99846935
0.96419543 0.96720773 0.9744061 0.9926759 0.96095556 0.9813674 0.9872917 1.0060507
0.9479628 0.9663805 0.98693645 1.002986 0.96728516 0.97784215 1.0099583 1.0038371
0.9684876 0.9779659 0.9771269 0.9982478 0.9765744 0.9694023 1.001111 0.99914706
0.94960576 0.9650103 0.9543705 1.0006498 0.9695838 0.97616446 0.99403787 1.0162567
0.9816997 0.9674131 0.9840233 1.0034816 0.9528669 0.98599076 0.9912899 0.9880541

fc_layers.1.bias f4 [816]
00000000: d045 af3c ff0a b0bc dce4 7dbb 5405 5f3d
00000010: 5b53 0ebd 98e6 adbd f562 a53c 85d8 f9bc
00000020: 4131 073c 00b6 013d a844 b7bc 0cdd fe3c
00000030: 7c8e a8bd fe4b 0f3c 529f e9bb b8cf bc3c
00000040: c2ee a2bd 8146 79bc d4ff 5f3d 13ba 973c
00000050: fb99 6f3c 3e76 a1bc dc59 7e3c 257f cfbc
00000060: f9db 78bd 0fc9 b8bd 15fe b1ba b7c3 d73c
00000070: 0961 093d 2343 ffbc 69e5 d93b 2be9 c83c
00000080: 5966 f8bc 462d 87bd f513 84bc a062 e63c
00000090: daeb e2bc e2cf 9a3c 109a 08bc 6466 db3c
000000a0: e334 673c 2501 ad3c 11d8 af3b 2655 d53c
000000b0: 4791 63bd f4e3 e9bb 3904 393c ef45 cabc
000000c0: 8633 ca3c db31 903a a8e0 da3b 1bb8 d9bc
000000d0: 4263 5b3d cb9b 633d c457 c8bb 43e5 a23c
000000e0: 2659 4bbd 5efe ef3a f6ec 3dbc a79f d1bc
000000f0: 6ec6 99bd e635 65bb 339e 67bb 8392 d4bc
00000100: 7400 ebbb 3f6b 01bd def5 eb3c acac d13c
00000110: 9cf8 0d3c 6d63 213d 91cd bebc b9ac dabc
00000120: 77a9 38bd e886 04bd 0516 a6bd 0caf ff3c
00000130: 3148 5abd 5fdf df3c 5634 99bc 54a1 013d
00000140: b3af 08bd 6859 83bd c755 3cbd 1fb8 e9bc
00000150: 35d3 02bd 71e8 a63b 752a 8ebc 39c0 ba3c
00000160: c774 333b 9a79 abbb ab02 9f3b 5e20 7c3c
00000170: 5aa3 81bd ea1a d93c 16f9 32bc 258c ca3c
00000180: 04c4 0ebd 86d2 623b 10cf d83c 469a cabc
00000190: 3a3b d6bc 30ff 1ebd b589 64bb 596b 7d3d
000001a0: efae 89bc 2f1a 343d e020 99bc a2f4 d3bc
000001b0: 6006 34bd 0002 a63d 0368 3cbc f6ef 9abc
000001c0: 4f15 60bd 9cff 8cbd 92fb 4bbd 4f17 dd3c
000001d0: 472b 543c eae0 e73c e565 22bc d719 dfbc
000001e0: 3b1b 81bb 1335 b9bb f187 2d3b 0c3e ccbc
000001f0: 174f 0cbd d143 283d 8820 9dbc 7a4a f6bc
00000200: d501 8cbd fc56 acbd 133e e8ba d9ea ecbc
00000210: 2873 14bd 2dce 913d 1637 f939 db99 e5bc
00000220: 81d4 133d 5ba5 64bd 00a7 f5bc 29bc b2bc
00000230: 94da 453d 307d 4bbc 8ced 323b a803 c43a
00000240: 8cfc a03d 46b9 27bc 37f1 863c 8b7e a43a
00000250: 39af ab3d 3a75 263b 7ed1 6f3c f394 d23c
00000260: 6626 9abc 7926 aebc 7224 4abd 06f0 c7bc
00000270: 8067 7bbc 41d6 1bbd 8956 1e3d 9596 f33c
00000280: bfcf 283d dc12 543b 8ce3 c63b 41e7 b23d
00000290: 7a9c b6bb a839 39bd 702f 9fbc 004f e23c
000002a0: 479e c53b b5c7 abbc 6d98 48bd 11ff 82bc
000002b0: db99 0a3d 08a6 82bb 1b9e 01bd 760f 8b3b
000002c0: ddc6 d4bc 828c 34bb 20c3 a43c f385 b73d
000002d0: 2ecc d83c 6d12 04bc 269a 89bc c978 673d
000002e0: 429d 5a3c ffc8 d1bc e654 233c c096 bcbc
000002f0: a785 6b3d 813b 16bc cb7e 23bd b7b0 84bc
00000300: f17f 81bc 962e 82bc 5b4d d3bc e37b 04ba
00000310: 7d13 94bb a478 713b 6e43 5f3d 6086 abbc
00000320: 12e0 97bb 5c76 423b 88a9 2f3a 568d 103d
00000330: fe60 a43d 879c e1bb 56bf 8bba b022 613d
00000340: 2ae5 c93c f0d8 03bd 9865 10bc 1697 03bd
00000350: a301 22bc d97e 653c 4262 82ba eba3 8c3d
00000360: 8959 d3bc abd6 b13c c77f ff3c fabb 143c
00000370: 38d4 9cbc cf9d 2fbc 598b 1a3d 0765 15bd
00000380: efb9 2e3d bff8 efbb 9068 423c 224d f33c
00000390: aadb c03c f176 713d 8b20 edbc 5e7d e73c
000003a0: 3624 513b 195f 0bbd d790 fcba 1bcb 70bb
000003b0: c941 c73d 6b76 66bc 0088 89b9 5f6a 423d
000003c0: 78fe 16bd 1196 92bc 0913 993c 0981 c53b
000003d0: bf4b 263c 642d 97bc e3ea 95bc 37f5 963d
000003e0: bdec 8d3d 533a ffbc d4dc b2bc f604 d03b
000003f0: 6368 073c 6412 a9bc da2f 24bd 6886 3b3b
0.021395594 -0.021489618 -0.0038741147 0.05444844 -0.034747463 -0.08491248 0.020188788 -0.030498752
0.008251489 0.03166771 -0.022371605 0.031111263 -0.08230302 0.008746145 -0.007129588 0.023048267
-0.07955696 -0.015214563 0.054687336 0.018521344 0.014624114 -0.019709703 0.015524354 -0.025329182
-0.060756657 -0.09022724 -0.0013579751 0.026338441 0.033539806 -0.031159943 0.0066496623 0.024525246
-0.03032224 -0.06600432 -0.016122798 0.0281232 -0.027700353 0.018897954 -0.008337513 0.026782222
0.01411173 0.02111871 0.0053663333 0.026041579 -0.05555847 -0.00713777 0.011292511 -0.02469155
0.024682771 0.0011001186 0.006679613 -0.026577046 0.053561457 0.055568498 -0.006113978 0.019884711
-0.049645565 0.001831006 -0.01159214 -0.025588823 -0.075085506 -0.0034974753 -0.0035342097 -0.025948768
-0.007171685 -0.03159642 0.028803762 0.025595032 0.00866523 0.03940146 -0.023291381 -0.026693689
-0.04508349 -0.03235522 -0.08109669 0.031211399 -0.053291503 0.027328191 -0.018701714 0.031647995
-0.033370685 -0.06413537 -0.04598024 -0.028530179 -0.031939704 0.005093627 -0.01735423 0.022796737
0.0027382837 -0.005233002 0.004852613 0.015388576 -0.06329985 0.026502091 -0.0109236445 0.02472503
-0.034854904 0.0034610345 0.026465923 -0.024731766 -0.026151288 -0.038817585 -0.003487212 0.061869953
-0.016807048 0.043970283 -0.018692434 -0.025873486 -0.043951392 0.0810585 -0.011499408 -0.01891325
-0.05470782 -0.06884691 -0.049800463 0.026988653 0.012949771 0.02830549 -0.009911989 -0.027234001
-0.0039400137 -0.005652079 0.0026478732 -0.02493193 -0.034255113 0.0410803 -0.019180551 -0.03006481
-0.06836287 -0.084150285 -0.0017718695 -0.028920578 -0.036242634 0.07119403 0.00047534023 -0.028027466
0.03609133 -0.055821758 -0.029986858 -0.021818237 0.048304155 -0.012419984 0.0027302234 0.0014954703
0.078606695 -0.010237044 0.016472442 0.001254992 0.083830304 0.0025399462 0.014637349 0.02570579
-0.018817138 -0.02125858 -0.049351163 -0.024406444 -0.015344501 -0.038046125 0.038656745 0.029734889
0.041213747 0.0032359874 0.006069606 0.087355144 -0.0055728527 -0.045221 -0.0194318 0.02762556
0.006030831 -0.020969251 -0.04897349 -0.015990766 0.033838134 -0.0039870776 -0.03164492 0.0042437864
-0.025973732 -0.002754957 0.020112574 0.08961096 0.026464548 -0.008061034 -0.016797137 0.056511674
0.013343157 -0.025608538 0.009968972 -0.023021102 0.057500508 -0.00916946 -0.03991584 -0.016197545
-0.015808078 -0.015891355 -0.025793722 -0.0005053861 -0.0045189247 0.003684559 0.054507665 -0.020938098
-0.0046348656 0.0029672598 0.00067009823 0.03529104 0.08026312 -0.0068851146 -0.0010661881 0.05496472
0.024645407 -0.03218931 -0.008813284 -0.03212651 -0.009888086 0.014007294 -0.0009947496 0.06867202
-0.02579953 0.021708807 0.031188859 0.00907802 -0.019144163 -0.010718777 0.03773055 -0.0364733
0.04265779 -0.007323354 0.01186575 0.029699866 0.023542244 0.058951322 -0.028946182 0.028258022
0.0031912453 -0.03402624 -0.001926924 -0.0036742154 0.097293444 -0.014066319 -0.00026232004 0.047464725
-0.036863774 -0.017893823 0.018685834 0.006027345 0.010149895 -0.018454261 -0.01830048 0.0737099
0.0692992 -0.03115574 -0.021833815 0.0063482476 0.008264634 -0.020638652 -0.040084697 0.0028614048

fc_layers.1.running_mean f4 [816]
00000000: e222 873e 3d16 903d 91e8 423c 4a2c d030
00000010: 8eea 843e 60b0 a13d 3c19 103c 3ee3 9e34
00000020: de39 983e 75fc bf3d cd95 623c 33ed c42d
00000030: 10bf 9c3e 77e5 6f3d bc53 5c3b 31fe 061b
00000040: 2c93 973e e4f3 a93d 6591 613c bee7 303a
00000050: 612a 8d3e 0300 8e3d f5fe 183c b26d ca36
00000060: 8bb3 8f3e ea05 913d 5add d53b 54bd 2b26
00000070: 566a 6d3e 8481 7e3d f79e 343c 2562 d539
00000080: d83d 443e bd6a 413d 8e05 c13b 45df 4331
00000090: a149 583e 8f31 913d cd59 133c 0aa8 583b
000000a0: b3a2 663e cdcd 153d 04b3 863b 0400 0000
000000b0: e929 853e 55bb 8c3d 5231 0b3c 67be a624
000000c0: 0679 833e 71a8 8e3d 16dd 143c de4b c53a
000000d0: e536 8f3e 34ff 643d b9f1 093c f958 a128
000000e0: f258 883e a644 983d 4bc3 5f3c d264 4431
000000f0: ba2b 6c3e 8886 813d d84f 373c a8b3 803a
00000100: 61ca 493e 6733 463d 6bb7 863c 4933 103b
00000110: bcf0 2a3e 8dbd 353d 9d1e f53b 3352 d730
00000120: 3826 4a3e eb48 7b3d b031 293c 94d1 8e3a
00000130: e83a 563e 2679 653d ecd9 7a3b 0400 0000
00000140: b7b9 823e 24bf 743d a7ee 183c 974c 153b
00000150: 7baa 723e 1a34 8a3d e698 143c 66b2 1237
00000160: 5c63 633e 20b7 673d cb3e 483c 1ed9 7530
00000170: 843c 453e 3842 413d 7e4b 003c ea30 c739
00000180: ba75 493e 0d30 413d 2e15 0e3c 8442 861e
00000190: 430e 473e cfa2 863d 6c0c 993c 14a1 5a11
000001a0: dc24 1d3e 0a95 113d 09db 0b3c 919e 083a
000001b0: ec7f 8d3e c595 933d dd4d e43b fa39 b53a
000001c0: eaa1 933e 9e59 ab3d fb42 113c feb3 5835
000001d0: 6b6b 8b3e 31e4 873d a1de a63b 0400 0000
000001e0: 2385 543e dace 493d 2771 fc3b ea30 d030
000001f0: 8c88 653e 5dae a93d b841 b13c ad77 8631
00000200: daa7 363e 2b56 233d 9d24 9a3b bc08 9624
00000210: a054 0d3e c073 073d 9ed3 fa39 a414 b535
00000220: 94a7 263f fb2a a13e 8d05 0e3e 8daa 273d
00000230: 3aa7 223f 2734 a23e 227f 053e 1406 0d3d
00000240: dbf7 1c3f 1e89 983e 9f73 e13d 4972 c03c
00000250: a3a6 283f eb6b b23e 1963 053e 5d90 063d
00000260: a60d 253f cf80 a53e c841 d43d 7557 083d
00000270: 307f 273f d91f ac3e 3383 073e 7cea 183d
00000280: 3b8f 243f aa45 a63e 2bdb 1d3e b0ee 5b3d
00000290: b49d 233f 09fe ae3e ec05 083e 1a06 0d3d
000002a0: f7ca 2b3f fcaf c73e 2c02 2d3e 60e5 3a3d
000002b0: a366 2b3f 1e5e b13e d409 0e3e d7fa 203d
000002c0: cb92 2e3f 7553 c43e bed7 373e 8931 3b3d
000002d0: b68e 283f 5806 ac3e a032 013e af23 443d
000002e0: 98b8 243f 39c0 b83e e7d5 163e 4163 563d
000002f0: 3ee2 253f 6b7b b03e 8a6f 043e 30d1 033d
00000300: e930 243f 83d7 be3e 3723 1b3e 3a0d 233d
00000310: 67b0 283f f4fc c23e 70b8 323e ae70 603d
00000320: 21b7 2a3f 4ef5 c73e 5a4c 2b3e 2c95 463d
00000330: 54d2 363f edb7 d43e 3a47 243e 7a6e 543d
00000340: 8537 2d3f fbab b73e 631c 173e 2068 393d
00000350: 072e 303f db4f bc3e 048b 123e 3aff 2e3d
00000360: fbc0 2d3f e1ed ac3e 5355 103e 18d2 163d
00000370: 3f43 313f 3ce4 be3e 596f 163e 4350 343d
00000380: d161 283f 2a76 ba3e 8ff0 173e 23fa 2d3d
00000390: 8f0b 2c3f 515e c83e 1b59 273e d67b 2a3d
000003a0: 4f2f 2e3f 4010 b73e 67fd 273e 94e0 3b3d
000003b0: 68cd 2d3f 42d6 b13e f0f4 1b3e e781 1b3d
000003c0: c785 2e3f 2551 c63e 852e 203e 8035 133d
000003d0: 3d4e 1d3f 7f84 af3e 80e6 0d3e 0a15 563d
000003e0: 1851 1d3f 9d3d a53e 5917 ec3d c62b ac3c
000003f0: 34ef 203f 1b3b b33e b52e 223e 1792 003d
0.263938 0.070354916 0.011896268 1.514658e-09 0.259602 0.07894969 0.008795079 2.9595134e-07
0.2973165 0.09374324 0.013829661 2.2387958e-11 0.3061452 0.058568444 0.0033619246 1.1166354e-22
0.2960447 0.082984716 0.013767575 0.00067483995 0.27571395 0.06933596 0.00933813 6.0328393e-06
0.28066668 0.07081206 0.0065266313 5.958413e-16 0.23185095 0.062135234 0.011024228 0.0004069965
0.19164217 0.047220934 0.0058905547 2.8503149e-09 0.21121837 0.07089531 0.008993578 0.0033059143
0.22523002 0.03657322 0.004110696 6e-45 0.26008537 0.06871668 0.008495646 7.231358e-17
0.2567827 0.069657214 0.009085914 0.0015052517 0.2797157 0.055907443 0.008419448 1.7913176e-14
0.2663036 0.07434969 0.013657401 2.8579064e-09 0.23063555 0.06324488 0.01118847 0.0009819167
0.19706108 0.048388865 0.016444882 0.0022003225 0.16693395 0.044370223 0.007480456 1.5666671e-09
0.19741142 0.061348837 0.010326788 0.0010896199 0.20920908 0.05602374 0.0038276864 6e-45
0.25532314 0.0597526 0.009334243 0.0022781247 0.23697846 0.06748219 0.009069657 8.743815e-06
0.22205871 0.056571126 0.012222002 8.9439023e-10 0.19261366 0.04718229 0.007830499 0.00037992682
0.19673815 0.047164965 0.008672042 1.4215312e-20 0.19439034 0.06574022 0.018682681 1.7246804e-28
0.15346092 0.035542525 0.008536109 0.00052116165 0.2763666 0.07206301 0.00696729 0.0013826482
0.28834468 0.083667025 0.008866067 8.0728194e-07 0.2723039 0.06635321 0.0050924574 6e-45
0.20753913 0.049269535 0.0077039185 1.5147894e-09 0.2241537 0.0828521 0.021637782 3.913519e-09
0.17837468 0.039877098 0.0047040717 6.506693e-17 0.13801813 0.033069372 0.00047841383 1.3491558e-06
0.65099454 0.31478104 0.13869305 0.040934134 0.6353642 0.31680414 0.13036779 0.034429625
0.613157 0.29792112 0.11008381 0.023491995 0.6587927 0.3484796 0.13026084 0.03285252
0.6447395 0.32324836 0.10364109 0.03328653 0.6542845 0.33618048 0.13233642 0.037332997
0.6428105 0.32475024 0.15415637 0.053694427 0.6391251 0.34178188 0.13283509 0.034429647
0.67106575 0.39001453 0.1689536 0.045628905 0.66953486 0.34642118 0.13870937 0.03930172
0.6819274 0.38344923 0.17953393 0.045701537 0.6584276 0.3359859 0.12616968 0.047885593
0.6434417 0.36084154 0.14730035 0.05234075 0.64798343 0.3446916 0.12933174 0.03218192
0.6413713 0.37273797 0.15150152 0.039807536 0.6589417 0.38083613 0.1745317 0.05479496
0.6668568 0.3905434 0.16728345 0.048482105 0.71414685 0.41546574 0.16042796 0.05186317
0.6766284 0.35873398 0.14756922 0.045265317 0.6882023 0.36779675 0.14310843 0.04272387
0.6787259 0.33775237 0.14095049 0.036821455 0.69243234 0.37283504 0.14690913 0.044021856
0.65774256 0.36418277 0.1483786 0.042474877 0.67205137 0.39134458 0.16342585 0.041622005
0.6804094 0.35754585 0.16405259 0.04586847 0.6789155 0.34733778 0.15230155 0.03796568
0.6817288 0.38733783 0.15642746 0.035939693 0.6144751 0.34280774 0.1385746 0.05226616
0.61451864 0.3227357 0.11527891 0.021016967 0.62864995 0.3500603 0.1583813 0.031389322

fc_layers.1.running_var f4 [816]
00000000: 9603 443e f7d7 853d edd5 413c 4a2c d030
00000010: 0b5a 413e 141e 923d 2910 0e3c 3ee3 9e34
00000020: 783f 563e 9139 ae3d 527d 623c 33ed c42d
00000030: 0947 5a3e fc49 623d cd8b 583b 31fe 061b
00000040: a636 593e 72f8 9c3d 1ee1 603c bce7 303a
00000050: a1ea 4d3e baeb 853d eb71 183c af6d ca36
00000060: c17b 4f3e 6b51 863d 92c3 d53b 54bd 2b26
00000070: 3128 373e cdaf 6b3d a97a 343c 2562 d539
00000080: 01fc 1f3e 54f4 383d 8b05 c13b 45df 4331
00000090: aa01 283e e674 883d 4af1 103c 0aa8 583b
000000a0: 0176 323e 77de 0b3d e0a4 853b 0400 0000
000000b0: 62bc 473e 2a2d 843d 188a 073c 67be a624
000000c0: bf4c 433e d5f3 853d 0045 143c de4b c53a
000000d0: 2a8b 4d3e 7587 5a3d d90c 093c f958 a128
000000e0: 3c37 4a3e 3989 8d3d 3e2c 5e3c d264 4431
000000f0: a8ac 343e a74a 723d e0b1 353c a8b3 803a
00000100: cf3c 233e b269 3c3d b603 853c 2932 103b
00000110: 434d 0e3e 37c5 2f3d f6b0 f43b 3352 d730
00000120: 6ba2 223e 0c5a 6c3d 305c 253c 94d1 8e3a
00000130: 8b0c 2b3e bc96 583d 78bb 753b 0400 0000
00000140: f00a 453e 0ed9 663d d1cd 153c 974c 153b
00000150: 560e 393e 1704 7e3d a896 143c 61b2 1237
00000160: de22 303e b081 5c3d 933c 483c 1ed9 7530
00000170: c643 203e 53e2 3a3d 07b0 ff3b ea30 c739
00000180: 9be3 223e 10dc 393d c2c6 0d3c 8442 861e
00000190: 2c0c 203e 59fe 7e3d 8706 973c 14a1 5a11
000001a0: 7798 053e dc4f 0c3d 1b5f 0a3c 919e 083a
000001b0: d0ce 4b3e d6b8 873d 3371 e13b fa39 b53a
000001c0: ed1c 533e 3695 9e3d ab8d 0e3c feb3 5835
000001d0: e4a4 483e 2098 7a3d 82be a63b 0400 0000
000001e0: 0131 2b3e fc87 403d 2371 fc3b ea30 d030
000001f0: dd89 343e 99cd 9c3d dd0c ae3c ad77 8631
00000200: e758 153e 821f 1e3d 9d24 9a3b bc08 9624
00000210: 5c08 f53d 5129 023d 9ed3 fa39 a414 b535
00000220: b3e2 663e 2b53 5d3e 2965 f63d 3c4e 223d
00000230: 4512 6e3e b4a1 5c3e 83d2 e33d 8ccc 073d
00000240: c7a7 743e 1b36 583e 2caf c93d f6d9 bc3c
00000250: a3e6 633e aab1 6a3e 3b11 e83d 229b 033d
00000260: 7e35 673e fe83 5f3e e4bd c03d 3409 063d
00000270: 664d 683e a25a 663e 67ab eb3d 7d85 133d
00000280: 4d2f 6d3e 6cf5 643e 9d0f 063e 0b05 543d
00000290: 5f7b 6e3e 8939 693e e721 ee3d 364c 083d
000002a0: b961 613e 357b 763e 72c9 113e f606 333d
000002b0: 1fef 623e fdd9 693e 1b20 f63d b1f3 1b3d
000002c0: 75cc 5c3e d82d 733e bfc4 173e 75a6 343d
000002d0: bbb8 653e 3716 663e 8368 e13d 55f9 383d
000002e0: 25cb 683e 3290 6b3e 44e7 003e 7398 4b3d
000002f0: f57c 6a3e b621 683e 6add e23d 06f9 fe3c
00000300: 2bc4 6c3e 70b3 703e b29e 033e 1b77 1c3d
00000310: d598 663e b2c5 733e d7a0 153e 1430 563d
00000320: 4511 643e 80a9 763e 40f8 103e 215d 3e3d
00000330: dfd4 503e 6e07 7a3e 6460 093e 6a1a 4a3d
00000340: c659 5d3e a8d0 6a3e f085 033e c489 2e3d
00000350: 0b83 5b3e 1878 6f3e 5fdf fb3d 78c6 263d
00000360: 7a2c 623e 0ff3 673e 65f8 f93d 2bd6 0f3d
00000370: 813e 583e b9aa 6e3e 6c74 003e 5da7 2c3d
00000380: ec45 663e d5e5 6b3e 95a7 023e f526 283d
00000390: a8b5 623e e793 723e fa3d 0e3e a143 223d
000003a0: d92c 5a3e 19c0 6b3e c816 0d3e ec0c 333d
000003b0: 939f 603e 798f 673e d671 033e bcfa 153d
000003c0: b18e 5f3e 93fa 743e 3781 093e 8c0d 0e3d
000003d0: 9ef7 743e 520c 663e 85d6 f43d 6ca6 4c3d
000003e0: eda9 743e a856 603e bb63 d33d 41dd a73c
000003f0: 265f 703e fa52 683e 8393 0a3e c7db fc3c
0.19141993 0.06535333 0.011830789 1.514658e-09 0.18882005 0.07134643 0.008670845 2.9595134e-07
0.20922649 0.08507074 0.013823824 2.2387958e-11 0.2131616 0.05524634 0.0033042312 1.1166354e-22
0.21212253 0.07664575 0.013725547 0.00067483983 0.20109035 0.06539102 0.009304504 6.032838e-06
0.20262052 0.06558498 0.006523558 5.958413e-16 0.17886426 0.057540704 0.011015573 0.0004069965
0.15623476 0.045154884 0.0058905534 2.8503149e-09 0.16406885 0.066629216 0.00884659 0.0033059143
0.17427827 0.034147706 0.0040784925 6e-45 0.19505456 0.06453927 0.00827267 7.231358e-17
0.19072245 0.06540648 0.009049654 0.0015052517 0.20072618 0.05335184 0.0083648795 1.7913176e-14
0.19747633 0.06910939 0.013560353 2.8579064e-09 0.17643988 0.059153225 0.011089772 0.0009819167
0.15941165 0.045999236 0.016237121 0.0022002554 0.1389666 0.042912688 0.0074673845 1.5666671e-09
0.1588227 0.057703063 0.01009278 0.0010896199 0.16704004 0.052878127 0.0037495773 6e-45
0.19242454 0.056359343 0.009143309 0.0022781247 0.18071875 0.06201562 0.009069122 8.74381e-06
0.17200801 0.053834617 0.012221473 8.9439023e-10 0.15650854 0.045625996 0.0078029665 0.00037992682
0.15907137 0.045375884 0.008653345 1.4215312e-20 0.15629643 0.062254284 0.01843573 1.7246804e-28
0.13046442 0.034255847 0.0084455265 0.00052116165 0.19903111 0.066270515 0.0068799495 0.0013826482
0.20616503 0.077433035 0.008700768 8.0728194e-07 0.19594151 0.061180234 0.0050886283 6e-45
0.16717912 0.047004685 0.0077039166 1.5147894e-09 0.17630716 0.07656402 0.021246368 3.913519e-09
0.14584695 0.038604267 0.0047040717 6.506693e-17 0.11964485 0.031777684 0.00047841383 1.3491558e-06
0.22547416 0.21613757 0.120310135 0.03962539 0.23249157 0.2154606 0.11124136 0.033154055
0.23892127 0.2111439 0.098478645 0.02305315 0.2225595 0.22919336 0.113314115 0.032130368
0.22579 0.21827695 0.09411219 0.03272362 0.22685775 0.22495511 0.11507302 0.036015976
0.23162575 0.22359246 0.13091893 0.05176262 0.2328925 0.22775854 0.1162756 0.033275805
0.22009934 0.24070437 0.14237002 0.04370781 0.2216153 0.22837062 0.120178424 0.0380742
0.21562369 0.23747957 0.14821146 0.04410406 0.2243375 0.22469412 0.11006262 0.045159657
0.22733743 0.23004225 0.12588221 0.049705934 0.2289923 0.2266911 0.11077388 0.031124603
0.23121707 0.2350595 0.12853506 0.038199525 0.22519238 0.23805884 0.14612137 0.052291945
0.22272213 0.24088097 0.141572 0.046475533 0.20393704 0.24416897 0.13415676 0.049341597
0.21616277 0.22931159 0.12844062 0.042611852 0.21436708 0.23385656 0.12298464 0.04071662
0.22087279 0.22651313 0.122055806 0.035116356 0.21117593 0.23307313 0.12544411 0.042151798
0.2248761 0.23036893 0.1275924 0.041052777 0.22139609 0.23689233 0.1389083 0.039615277
0.2130617 0.23022498 0.13778222 0.043713495 0.21935873 0.22613324 0.12836394 0.036616072
0.21831776 0.23923711 0.13428198 0.034680888 0.23922583 0.22465637 0.11954979 0.0499634
0.23892947 0.21908057 0.103217565 0.020491244 0.23473796 0.22687903 0.13532834 0.030866517

fc_layers.2.weight f4 [64, 816]
00000000: a75a 5b3c e55e bcbd cf32 043d 3730 98bd
00000010: 7b24 4bbd 7da3 ecba 839d 533d 5e35 8abb
00000020: d3c0 b1bc bcc4 20bd 40cf d7bc 6ac8 483c
00000030: 3567 fb3c ec67 ccbd 52c6 58bd ad60 99bd
00000040: 08d7 ab3c 7b3a 1cbd c81b 0c3c 1b27 8fbc
00000050: 8e7a 88bd 7e1f 953d 997c c33c 09c7 42bc
00000060: 7ab5 95bd 8536 26bb 7deb bbbd 47f0 5ebd
00000070: 6312 c53d 08dd 15bd 34bb 99bd f932 5cbd
00000080: 3da6 063d 0e02 34bd 7b8b 65bd 84bd 1d3d
00000090: 006f 80bd 4060 49bd e4cd eabd cb73 c03c
000000a0: cf26 2739 e1c0 86bc 383a 0d3e fdb1 f8bc
000000b0: e9fb 223d 588d 983c a655 8abd 8ec2 b13d
000000c0: 4074 9abd 267d 2c3c 07f7 87bd 92f0 f53d
000000d0: 4427 433d f4cc 373d c896 303c 458e a1bd
000000e0: e223 95bb a976 d3bc c20d 113c a9ab b63d
000000f0: b0b9 ccbc 0e0d 8cbd 050d 36bd d33f d8bb
00000100: 6844 f9bc dbf9 fbbc 8522 a3bd e0d7 27bd
00000110: 8a5d f23c a7dd b9bb f045 ff3d 40ed ca3d
00000120: 5697 0abd 50f0 92bd b865 753d c9f2 4ebd
00000130: dc8c 05bd 1b80 113d 0a06 c33d 92ff 8ebc
00000140: d027 473c 79db d6bc 1f56 e03c 1eca 613d
00000150: dba4 3f3d ba3a febc 522c a73c 219d 99bd
00000160: 67a2 aa3c 7fc3 24bd 9e8e c93d ee75 8c3d
00000170: 0bb3 68bd a558 153d ea5f c7bc 7a5a c6bd
00000180: 6a3f c1bc 650d 593d e3d2 e63a e36f 543c
00000190: cb53 5ebd f512 653d 3643 94bd f076 c63a
000001a0: fedb 0dbd c25d 41bc 37dc d13d a349 a73d
000001b0: 4e77 663c 3e3e 643d 937a d53c 2b6a 32bd
000001c0: 7d98 293d a30e 113d d8fe 723d a80f 493d
000001d0: 69ca 5b3c 6035 aa3b 6272 063e b953 973c
000001e0: ba4c 46bd 24ad 1b3d 9f72 d93d d705 ee3d
000001f0: a38c 5abd 3def 72bc c49d fa3d 5c10 c53c
00000200: 81cb 023d 3c92 82bc 154e da3c 2fd4 f6bc
00000210: 0ec4 bdbc cb6c a0bc ec1a 693b 426c 6cbd
00000220: 1a74 8fbd 850a a43c a472 7ebc a76c 9c3d
00000230: 4df9 de3c f8b0 013d 6189 6a3c ef8a 72bd
00000240: f666 01bd 8f96 91bd fd71 9f3d 56d0 9a3d
00000250: 7e15 333d cdb5 1ebd ddf0 c23c 8a79 5f3d
00000260: 76d7 353d c3cc 8abd 635a a1bb 4546 823d
00000270: 0965 6c3d bb95 37bc f32f 863d bae6 02bd
00000280: a5aa 3a3c 9681 f43c 84fa f83c 1e1b 853d
00000290: 2582 b93b 6d6a 7ebc 489a d63c ff34 983b
000002a0: 8547 a6bb 5a3b 723d 7755 7d3d 87f8 7e3d
000002b0: 93c9 5e3d ae69 36bd a2ed da3b a4cc 863d
000002c0: c15d b5bc 8e88 6abc 3234 13bd a2f0 1cbc
000002d0: 129a 09bd e6a9 253d 9eb1 b23c 2ae5 a23d
000002e0: 72af 91bd da8f 9fbb 2e56 493d 7e5e 0abd
000002f0: 7022 8c3c b5d3 923d 5109 463d 4b4e 40bd
00000300: 7f9f 193d 80f9 5d3d f87a 133c 0b1e 793c
00000310: 56e1 8d3d 3809 593c 911f 543d 618c 79bd
00000320: 4bbe 743d 2378 56bc 908d 833c ec6e 553c
00000330: a6fd 35bd c118 8a3d ee41 a6bc f28f f2ba
00000340: 24fd 403a fd9d c0bc b97e 84bc d957 72bc
00000350: c652 39bd c8f3 6a3d ec94 62bd d2f7 883d
00000360: 2ca7 0b3d 8701 b53d c8b9 6fbd 74b2 af3d
00000370: 8a03 23bc cbb0 e43c 521b ae3d f744 95bd
00000380: 3456 2fbc 5bc5 0fbc 4911 243b 4437 ac3b
00000390: 2fd4 803c 2853 cabc d540 023d a18b b93d
000003a0: f453 9b3d 30b3 a33c 90f9 91bb 0489 1d3c
000003b0: 3a21 babc 5a16 74bd 3187 893c f001 59bb
000003c0: 9cd4 86bd 7070 183d 0b07 b1bb 59bd b33d
000003d0: 6b26 e93c 5b19 773b 5cc0 a7bc 940e 4b3c
000003e0: a93d 943c 594d 05bd 665e 893d fcb8 a73d
000003f0: f9a5 8c3d 1739 b53c 2cba 043c 71fb 2bbd
0.013388312 -0.09197787 0.032275017 -0.07431071 -0.049595337 -0.0018054094 0.051663887 -0.0042177876
-0.021698391 -0.03925012 -0.026343942 0.012254814 0.030688861 -0.09980759 -0.052923508 -0.074891426
0.020976558 -0.03814171 0.008551545 -0.017474702 -0.066640005 0.07281397 0.023863124 -0.011888274
-0.073100045 -0.0025362086 -0.09175775 -0.054428365 0.096226476 -0.036587745 -0.07506409 -0.05375955
0.03287338 -0.043947272 -0.056041222 0.038510814 -0.062711716 -0.049164057 -0.11465052 0.023492714
0.00015940818 -0.016449394 0.1379174 -0.030358309 0.03979102 0.018622085 -0.067546174 0.086796865
-0.07541704 0.010527885 -0.066389136 0.12008776 0.04764487 0.044873193 0.010778137 -0.07888464
-0.0045513967 -0.025813418 0.008853378 0.0891946 -0.024990886 -0.068384275 -0.04444601 -0.0065994053
-0.030428126 -0.030758789 -0.079655685 -0.04097736 0.029585619 -0.005672175 0.124645114 0.09908533
-0.03383573 -0.07174742 0.05991146 -0.050524507 -0.032605037 0.03552256 0.09522636 -0.01745585
0.012155488 -0.0262277 0.027384816 0.055124395 0.046788078 -0.031033862 0.020406876 -0.07500673
0.020829393 -0.040225502 0.09841655 0.06858431 -0.056811374 0.03646149 -0.024337728 -0.09685226
-0.023589808 0.05299129 0.0017610457 0.012966129 -0.05427913 0.055926282 -0.07239382 0.0015141647
-0.03463363 -0.011802139 0.10247081 0.08168342 0.01406653 0.05572342 0.026059425 -0.04355828
0.04140519 0.03541435 0.05932507 0.049087197 0.013414958 0.005194351 0.13129571 0.01847254
-0.048413016 0.038006917 0.10617565 0.116222076 -0.053356778 -0.014827547 0.12237123 0.024055652
0.031932358 -0.01593887 0.02664856 -0.030130474 -0.023164775 -0.019583127 0.0035569025 -0.05772043
-0.070045665 0.020024547 -0.015530262 0.07637911 0.027218485 0.03166291 0.01431498 -0.05921453
-0.03159233 -0.07108795 0.077854134 0.07559268 0.04372167 -0.038747597 0.023796493 0.054559268
0.044394933 -0.067773364 -0.004924105 0.06361059 0.057713542 -0.011205132 0.06552114 -0.03195832
0.011393224 0.029846948 0.030392893 0.06499313 0.0056612664 -0.015528304 0.026196614 0.0046449895
-0.0050744438 0.059138633 0.061849084 0.062248733 0.054391455 -0.044534378 0.00668116 0.06582001
-0.022139432 -0.014314784 -0.03593845 -0.009578856 -0.0335942 0.04044523 0.02181321 0.07953866
-0.07113542 -0.0048694434 0.049154453 -0.03378152 0.017106265 0.07169286 0.04834873 -0.046949666
0.037505623 0.05419302 0.009001486 0.015204917 0.06927745 0.013246827 0.051787917 -0.06092489
0.05975179 -0.013090166 0.016058713 0.013026934 -0.04443135 0.06743003 -0.02029511 -0.0018506034
0.00073619396 -0.023512835 -0.016173707 -0.014791452 -0.045244955 0.057361394 -0.055317804 0.06687893
0.034094974 0.08838182 -0.058526784 0.08578959 -0.009949574 0.027916333 0.08501305 -0.072885446
-0.010701705 -0.008775081 0.0025034717 0.0052556116 0.015726177 -0.024697855 0.03180011 0.09059835
0.07584372 0.019982904 -0.004454799 0.009615187 -0.022720922 -0.05959163 0.016788097 -0.0033112727
-0.06583521 0.037216604 -0.005402451 0.087763496 0.028460702 0.0037704322 -0.020477466 0.012393612
0.018095808 -0.032544468 0.06707458 0.0818958 0.06867594 0.02212195 0.008101027 -0.04198784

fc_layers.2.bias f4 [64]
00000000: b0a1 6f3c 867f 413d 5cd2 b2bc 6f51 983c
00000010: 3b57 bbbc 7d7f e13c b270 34bc 6d61 0ebd
00000020: 132e 763c 2d3e 59bc 6483 2c3d acd5 38bc
00000030: 1895 b2bc 3587 3b3d 8081 8e39 1b54 61bc
00000040: efa1 c53c 5725 88bd 01f2 d33b cfc2 143d
00000050: 5211 803c 2fb2 fb3c f798 8e3c 2989 4a3c
00000060: cc1f f3bb 0b68 d73c c6c6 e13c 85d9 3dbc
00000070: d45e 01bc 75d9 15bd f6a9 1c3d 4c65 253c
00000080: 9929 05bd 7af8 7abd 4806 913c 5d11 c4bc
00000090: 93bd 9f3c e073 4d3a e234 a2bb 7cf1 acbc
000000a0: 3f66 003d 1faf a13c e543 963d 2490 a2bb
000000b0: 060c 953c d29a 513c 60cc c4bc 49b9 d93c
000000c0: 2c48 a739 8d34 71bb e35d 0abc 87a5 bcbb
000000d0: ead8 ec3c 6a65 babb 254c 9fba 474f 423c
000000e0: 851d 9c3c e62e 89bc a46e eebc ba5c 06bd
000000f0: 916a 6d3c e728 edba ac7c 97ba 1bc7 27bd
0.014625952 0.047240756 -0.021828823 0.018593518 -0.022868743 0.027526611 -0.011013197 -0.03476088
0.015025633 -0.013259453 0.04211749 -0.011281412 -0.021799609 0.04578324 0.00027180836 -0.013752962
0.024125068 -0.06647747 0.006468058 0.036318596 0.015633259 0.030724613 0.017406924 0.012361803
-0.007419562 0.026294729 0.027560603 -0.011587505 -0.007896144 -0.036584336 0.038248025 0.010094952
-0.032510374 -0.061272122 0.01770319 -0.02393406 0.019499576 0.0007837396 -0.004950152 -0.021111242
0.03134751 0.019736825 0.073371686 -0.0049610306 0.01819421 0.01279326 -0.024023235 0.026577609
0.00031906494 -0.0036805004 -0.008445236 -0.005757037 0.028912026 -0.005688359 -0.001215343 0.0118597215
0.019057045 -0.016745996 -0.029105492 -0.032803275 0.014490739 -0.0018093855 -0.0011557541 -0.040961366

fc_layers.4.weight f4 [64, 64]
00000000: 752e 073e 5e9c 00be 4fbb 28bc 184b b9bd
00000010: b070 c43c 4013 55bd 0288 583e cbc8 933d
00000020: 4887 5f3e e824 473e 4d5f 8dbd c50b abbd
00000030: aaeb edbc 90c5 41be 5365 8c3e 2806 59be
00000040: 1ca9 363e 33a3 f6bd a904 dd3d 8464 4d3a
00000050: 338b cfbd a644 403e 082c ec3c cf85 f73d
00000060: da99 1e3e bc6e cf3d e9bb d23b de6c 8bbe
00000070: ab00 77be 97b7 d2bd 4c0f 103c 6141 173e
00000080: 51c7 933d e671 153e a7ef df3d 923a d7bd
00000090: 8f7c 3a3e 9b77 c03d 006f 293e 27a0 0abe
000000a0: ce4b 9fbe b74a 863e 19b0 66be b0d9 1bbd
000000b0: d4d3 d7bc bee7 95bd ca5c 383e bbc7 fabd
000000c0: 1202 a33e 3801 e83d 8779 8abe f7ce b0bc
000000d0: 7165 72be 8411 6ebd b13d 65be 5968 e93c
000000e0: 94b5 613d 3a6a 1e3e a2e0 563e ef3f 7d3e
000000f0: cbf2 1dbe dfc3 b4bc bfcb ca3d 532c 85bd
00000100: 2ec7 b23d a4f1 5a3e 44b7 4f3e 4fb8 56bd
00000110: d40f 183e 79b6 453e 52af f43d 642c 90bd
00000120: be7e 013e ae02 09bd ee10 5b3d 227e 0d3e
00000130: 80a5 5d3e 1d66 0d3d c5f7 8d3d 7a0d 1b3e
00000140: 7dae 2dbe 6dad 11be 63d0 923e 8797 ea3d
00000150: 43c3 763d 1de4 753d fa6c 913d b77b 6f3e
00000160: 8f40 04be 2ad3 d63d 0196 55be 9ad5 39bd
00000170: 3878 d83d 35d0 3abe 82ee 07be 9ab8 04be
00000180: 41bb 423d 92b7 3dbd 9fc6 62be 396f e6bd
00000190: 2051 093e c8ed c8bb 3b65 90be 1a17 ffbc
000001a0: c90d c23d 6d6b b5bc 93dd 4ebd ff76 5cbe
000001b0: f20c 5a3d 8d3a 5dbe 96b2 e0bd fb40 26bc
000001c0: b304 80be a8f9 88be 9c74 7c3e 69e6 d73d
000001d0: fa92 13be fcd1 4cbc 9b98 4a3c 3c4b 33bd
000001e0: 8a80 b03d 0c4a 52be 51bc 1c3e 2fd8 67be
000001f0: 94de 2d3d 25c3 9fbd 49af 88bd 3534 443e
00000200: 3583 7f3e c646 50be f79f 673e 09f1 913b
00000210: 8cee abbd aacf 363d 66ec 4dbe b7c5 d73d
00000220: 2c57 d63d c94b 57bd e699 373e a16b e73d
00000230: e55c 753e 2ffa 01be e1c1 ecbd abdb d4bc
00000240: 9027 f3bd 27d3 683e 2b9f b93d d22d ddbd
00000250: bc34 35bd c6f2 60be be89 53be 43a1 d33d
00000260: a935 41be 0ec8 b7bd ad31 a53d 90ad 5cbd
00000270: 631e 3d3c f703 3fbe 64cb 49be d167 55be
00000280: e0b6 82bd d05b 8e3d 1f41 4a3d 6d61 863d
00000290: 834f 853d 0867 80be ea7f 2dbe e69b 713d
000002a0: 8b01 bdbc 1aa4 8dbe b6d3 2a3e 8765 edbd
000002b0: 65d8 a33e f167 8dbe 670e f73d 650f 083e
000002c0: aa17 2abe c402 7cbe 1052 b43c 8477 b43d
000002d0: 7d60 b4bd fd26 4d3d c8d5 8a3e 2887 5abe
000002e0: b2ab 23bd 6876 b63c 9052 0e3d 7250 aabd
000002f0: 6c28 dfbc 761e afbc dee0 a93d 7f0c 81bd
00000300: 109d b0bd 67ef 32bd b4cf e23d e674 00bd
00000310: 1dc5 53be aed7 96bd f2d8 d6bb 7b62 2abc
00000320: d6b7 2d3e 8bce 023e 55de babd 154d babc
00000330: bac9 c73d dcc1 00be a5f4 c43d 463a 3dbe
00000340: 68dd 33bd a59b 523e a7cc 85bc 537d a23d
00000350: 87d8 813d 8919 753e 34c8 b1bd 3185 e53b
00000360: cdea 733e 3677 ae3d 8d11 933e 313d fd3c
00000370: 5b93 c3bd 2d5a 8a3e af28 bf3c 9b8e a4bd
00000380: 5adc d93d 053e 0fbe ca99 37bd b3c5 e53d
00000390: 9573 3c3d b1bb 813d 71c4 603e b0ee 7bbd
000003a0: c378 61be 67b4 7c3e 4928 cf3c 5492 433e
000003b0: 9310 bcbd 5fa9 8d3e 432b 793e d998 503e
000003c0: 5a69 b73c 92ce b7bd 4792 623d 545c 213e
000003d0: f2be 58bd b01d 243e e592 6bbe a27a be3a
000003e0: e2b6 abbd 7682 133e 8f6a 7d3e 2fe7 183e
000003f0: 98cc 47be d6b0 0ebc bfef 91be 849a a13d
0.13201316 -0.1255965 -0.010298564 -0.09047526 0.023979515 -0.05202031 0.21145633 0.072160326
0.2182895 0.19447672 -0.06902943 -0.08351854 -0.029043037 -0.1892302 0.27421054 -0.21193755
0.17837948 -0.120428465 0.107919045 0.00078351074 -0.10133972 0.18776187 0.02882959 0.12086069
0.15488377 0.10128543 0.006431092 -0.27231497 -0.24121349 -0.10288923 0.00879271 0.14771034
0.07215751 0.1459423 0.10934382 -0.10509218 0.18211578 0.09397813 0.1654625 -0.13537656
-0.31112522 0.26228878 -0.22528113 -0.0380494 -0.026346125 -0.07319592 0.18004146 -0.12245127
0.31837517 0.113283575 -0.27045843 -0.021583064 -0.2367151 -0.058122173 -0.22386815 0.02849214
0.055104807 0.1547021 0.20984128 0.2473142 -0.1542465 -0.022066055 0.09902143 -0.06502595
0.08729397 0.21381241 0.20284754 -0.052421864 0.14849788 0.19307889 0.11947502 -0.07039717
0.12646005 -0.03344982 0.053482942 0.13817647 0.21645164 0.03452121 0.06932024 0.1514186
-0.16961093 -0.14226313 0.2867461 0.11454683 0.06024481 0.060032 0.07100864 0.23387037
-0.12915252 0.10489495 -0.20858003 -0.045369722 0.10569805 -0.18243487 -0.13274577 -0.12961045
0.04754186 -0.046317644 -0.2214608 -0.11251683 0.13409853 -0.0061318614 -0.28202233 -0.031138945
0.094752856 -0.022145951 -0.05050428 -0.21529768 0.053235 -0.21604367 -0.109715626 -0.0101473285
-0.25003585 -0.26752973 0.24653858 0.10541994 -0.14411536 -0.012501236 0.012365486 -0.04377292
0.08618267 -0.20536059 0.15306212 -0.22641061 0.042448595 -0.07800893 -0.06674058 0.1916054
0.24952395 -0.20339498 0.22619615 0.0044537825 -0.083951086 0.044631638 -0.2010971 0.10535758
0.104658455 -0.05256251 0.17929801 0.112998255 0.23961218 -0.12693094 -0.11560417 -0.025983652
-0.1187278 0.22736798 0.09063562 -0.10799755 -0.044239745 -0.2196761 -0.20658013 0.103334926
-0.18868126 -0.08973704 0.080661155 -0.05387646 0.011542889 -0.18653856 -0.19706494 -0.20840384
-0.06382537 0.069511056 0.04937851 0.06561551 0.06509306 -0.25078607 -0.16943327 0.058986567
-0.023072025 -0.27664262 0.16682324 -0.115916304 0.32001033 -0.27618363 0.12063294 0.13287123
-0.1661059 -0.2461043 0.022011787 0.08811858 -0.08807466 0.05008601 0.27116227 -0.2134062
-0.039958663 0.022273257 0.034746706 -0.08316125 -0.027240954 -0.02137683 0.08294843 -0.063012116
-0.08623707 -0.043685343 0.110747725 -0.031361483 -0.20680661 -0.073653564 -0.0065566236 -0.010399456
0.16964659 0.12774102 -0.09124438 -0.022741834 0.09755273 -0.12573951 0.09616975 -0.18479261
-0.04391232 0.20567186 -0.016332937 0.0793406 0.063401274 0.23935522 -0.08680764 0.007004403
0.23820038 0.085188314 0.28724328 0.030912967 -0.0954959 0.27021924 0.02333483 -0.08035012
0.10637732 -0.13988502 -0.0448244 0.11219349 0.046008665 0.063346274 0.21949936 -0.061506927
-0.22018723 0.24678193 0.025287764 0.19098788 -0.09182849 0.27668282 0.2433291 0.20370807
0.022389103 -0.08974947 0.055315282 0.15757877 -0.052916475 0.1602695 -0.23005255 0.0014532397
-0.083844915 0.14405236 0.2474768 0.1493194 -0.1951164 -0.008709153 -0.28503224 0.078908

fc_layers.4.bias f4 [64]
00000000: ee55 063e 5f0d 20be 2c72 8dbc 6f77 61bd
00000010: 3cd2 f13d d977 0b3e 491a 2e3d 3a0f 58bd
00000020: e030 c23c c5b6 123d dca1 0b3e 95df a4bd
00000030: de7a 7e3d a747 2a3e ab54 a9bd 0d46 50bd
00000040: 4338 8c3d 54b2 d23d 7f0f 48bd 57b3 c23c
00000050: a95b 9a3d bbc7 1abd ac55 a4bd 85e0 3bbc
00000060: aa7e c63c ae70 0cbe 02b7 14be 86f5 99bd
00000070: 2d69 48be 1847 d2bd e5cb bb3c ad4e 9f3d
00000080: a84b df3c f525 14bd a26d 19bd f0ae febd
00000090: a9cc 1a3e 3582 523c 3230 333e 8145 8cbd
000000a0: 10f4 b73c b786 03bd 13ff fc3b 9982 33bd
000000b0: c3c6 443d 5714 803d da39 013e fe62 b6bd
000000c0: 433c b43c c465 533d 49ad 273e d612 02be
000000d0: 6e4c 0fbe 2f0b 0cbe a998 b4bd 413c c13d
000000e0: 9986 a5bd 92cc 4ebd 482b 5e3d 4ac0 c5bd
000000f0: 8741 2fbe 6ad6 9fbd a31e 7c3c d3a6 49bd
0.13118717 -0.156301 -0.017266355 -0.05504554 0.11807677 0.13619937 0.042505536 -0.052748896
0.023704946 0.035818834 0.13635963 -0.080504574 0.062128894 0.16628896 -0.08268102 -0.050848056
0.068466686 0.1028792 -0.048842903 0.023767157 0.07537014 -0.037788134 -0.08024153 -0.011467104
0.02423032 -0.13714859 -0.14522937 -0.07517533 -0.19571371 -0.10267466 0.022924373 0.07778678
0.027257755 -0.03616901 -0.03745807 -0.124357104 0.15117134 0.012848427 0.17498854 -0.06849194
0.022455245 -0.032110896 0.007720837 -0.04382572 0.048041116 0.062538795 0.12619725 -0.089056
0.022001391 0.051610723 0.16374697 -0.12702498 -0.13994 -0.13676141 -0.0881818 0.09435321
-0.08082313 -0.050488062 0.054240495 -0.09655817 -0.1711484 -0.07804568 0.015388164 -0.04923136

fc_layers.6.weight f4 [38, 64]
00000000: aaf7 963e c59e 81be 4cfd 1a3b a72e 233d
00000010: cfdd 853e 2317 7fbe 8a36 aa3e 31cf 97be
00000020: d284 7f3d b18c b73e c96a 253e b267 68be
00000030: bc17 a93d 3e51 01be 8b41 893e cc36 0f3e
00000040: 1e8f 52bd 44ca 2abc 8aa6 2e3e cd9e 9a3e
00000050: 5fa1 25be 886f 0e3b 1b2d 4c3d 401a 8fbe
00000060: e9f5 503d 760a 20be 81c9 9cbe fa04 b73e
00000070: fab0 75bd 96ce 423e 0aa6 1b3e 352b 563c
00000080: db59 bdbd 7046 b1be 93c5 40bd c383 14bd
00000090: e253 d63d 5ab7 b73e 4283 683e 4066 703b
000000a0: e2a5 b73e e499 d53d 6c2e 8abe 1055 8fbe
000000b0: d4e7 f1b7 c122 823e 111b a0be f425 2e3d
000000c0: 8cfd 8f3e 6514 853e 62a7 9a3e 406a 7b3e
000000d0: 229a 5bbe e70d adbe 8fc8 febd f438 283e
000000e0: 58ed 5dbd 1944 8abe a4e0 16bd 691a 8a3e
000000f0: b36a d53d d60d b83c 4cd1 9b3e 91b0 3abe
00000100: 1226 d4ba baba 3fbe 0636 05be c42b 8ebd
00000110: ac15 3a3d ee57 9a3a 4383 643e 6149 55be
00000120: ddf8 a03e 8426 953d 3587 d5bc b6c0 0b3e
00000130: 39ce 3cbe 4ac0 11be bc3b a73e 6aca bf3e
00000140: cc10 ba3e a785 ec3b fe00 e93d 6473 be3e
00000150: 7437 a8be b11b 803d 9825 1bbd 27b7 b4be
00000160: f05f 973e 693b 1cbe 3be7 b7be a997 de3b
00000170: 7ed3 2dbe 50c6 593e 8ead 94bd 07a9 99be
00000180: 73f5 ab3e 1cb7 bfbd b323 833e 5f71 d9bd
00000190: d7a4 6a3e e484 543d d65b f93b 4652 0dbe
000001a0: a761 8c3e 3bb7 85be 92e5 54be 79d4 1bbe
000001b0: 2431 af3d f39f b83e cc66 f7bd 8563 95be
000001c0: 3ae2 933e cee3 3d3e 6f07 20bd 4305 d4bd
000001d0: a1cf 5ebe db70 97be 594d a9bd c259 2f3e
000001e0: 095b 58bd 9306 7ebd f0ab 56be 6da7 8f3e
000001f0: 766a 743d 7a2a ed3d 714c 383e c31e a2be
00000200: ab4f 7f3e 62da 08be 0941 b5be 17e5 83bb
00000210: f428 a13e f27c 81bb d0bc aa3e 96ee 8f3d
00000220: 744a a93e 9560 9cbc cb2c 483e 2b31 d63d
00000230: 8f88 61be b46c fa3d bb90 c03c 7aee a13e
00000240: 39f2 843e 00ea 87be 994d c13e 9136 7e3e
00000250: 2f72 b0be 926b b2be 8280 873e e59d 92be
00000260: 54cb 8dbd 69ca dc3c 286c 9abe a7ea 843e
00000270: ba4a bcbd 8fec 0d3e 8336 8a3e 9fab b7be
00000280: 51fb 633e 261c 01be 15cd 4bbd 8009 aabe
00000290: 5fd5 713e 0678 f03d ee18 c9bd 8198 81be
000002a0: 25c4 b33e 5531 a5bd e41f a3bd e1ca cd3d
000002b0: 5d59 03be 1f3e 463e 6255 303c 26ba 8cbd
000002c0: 49b5 003e f779 dd3d cbf5 633e 77ed b9bd
000002d0: 9948 4cbe 681d b0be 3807 fabd 221a d03c
000002e0: a30a 543d 7168 563d 82d3 80be 64e0 bc3e
000002f0: f6c6 adbe 0756 3abe 0627 af3d cf59 df3d
00000300: 6975 143e 450e bdbe 0b6b 25be 786c 8f3c
00000310: 6bdc 62bd 94bd e8bb 7b72 a13e f17d 85be
00000320: 2b59 073e fe7a a43e 1e25 2abd 8b38 50be
00000330: cc05 0dbd 1b9c 8fbd 9046 a23e 8829 e53d
00000340: 110a 693d e3c3 afbe fe59 373e edc4 14bd
00000350: 735f b5be d9c6 00be 216e 853e 92b6 5dbe
00000360: 4c9f 453e 92ac 5abe 96a2 82be d9ae 5d3d
00000370: f9df 3fbb 7963 5a3e a688 513d 343c 9cbe
00000380: a9e6 97bc 81e5 b33d 23cb 903e f72e 183d
00000390: 3373 8d3e 2f01 853d eba4 803e bb7b 123c
000003a0: 3a6f 36bc 0c62 5ebe 75fe 99be 3aa2 49be
000003b0: 208e 8fbb 78e0 203e 2d64 04be 9264 14be
000003c0: 7c24 55bc c603 6b3e 7710 603e 6027 8e3e
000003d0: 7b42 a1be 372e 8eba 16cf c03d 7c43 323e
000003e0: 11bc 873e 24c7 22be 25d6 b7be 182d 42bd
000003f0: 910a 8bbd d6ef 57bd 4de3 ad3e dd74 85bd
0.29485828 -0.25316444 0.0023649512 0.039839413 0.2614579 -0.2491117 0.33244735 -0.29650262
0.062382527 0.35849527 0.16154017 -0.22695807 0.0825648 -0.12628648 0.26807818 0.13985747
-0.05140602 -0.0104242 0.17055717 0.3019928 -0.1617484 0.0021733958 0.049847703 -0.27949715
0.05101577 -0.1562899 -0.30622485 0.35745984 -0.05998323 0.19024119 0.15200058 0.013071825
-0.09245654 -0.34624052 -0.04706342 -0.03625847 0.10465218 0.35882074 0.22706321 0.003668204
0.35868746 0.10429743 -0.26988542 -0.27994585 -2.8837392e-05 0.2541714 -0.3127065 0.042516664
0.28123128 0.25992122 0.30205828 0.2455225 -0.21445516 -0.3379967 -0.12440597 0.16427976
-0.054181427 -0.2700508 -0.036835328 0.26973274 0.10420742 0.022467535 0.30433118 -0.18231417
-0.0016185662 -0.18723574 -0.1300889 -0.069419414 0.045430824 0.0011775473 0.22315697 -0.20828773
0.31439868 0.07282737 -0.026065448 0.13647732 -0.18438043 -0.14233509 0.3266276 0.37459117
0.3634094 0.007218081 0.11377142 0.3719741 -0.32854807 0.06255282 -0.03787765 -0.35295984
0.29565382 -0.15257038 -0.35918602 0.0067929816 -0.16975209 0.21267056 -0.072596654 -0.3001177
0.335857 -0.09361097 0.25613174 -0.10617327 0.22914444 0.051884547 0.0076098246 -0.13800916
0.27418253 -0.26116356 -0.20790699 -0.1521777 0.08554295 0.36059532 -0.12080154 -0.2917749
0.28883535 0.18543932 -0.03906959 -0.10352566 -0.21758892 -0.2957829 -0.08266706 0.17124084
-0.052821193 -0.06201799 -0.20964026 0.28057423 0.05967184 0.115803674 0.1799791 -0.31664094
0.24932735 -0.13364556 -0.3540118 -0.0040251124 0.31476557 -0.003951662 0.33347178 0.070279285
0.33064616 -0.019089023 0.19548337 0.10458597 -0.22024749 0.12227765 0.023506513 0.31627256
0.2596605 -0.26545715 0.37754515 0.24825503 -0.34462115 -0.34847695 0.2646523 -0.2863609
-0.069235474 0.026951985 -0.30160642 0.25960276 -0.091939405 0.13859771 0.26994714 -0.35873124
0.22263838 -0.12608394 -0.04975613 -0.33210373 0.23616551 0.11741643 -0.09819208 -0.25311664
0.35110584 -0.0806605 -0.07965067 0.10048462 -0.12827058 0.19359635 0.010762544 -0.068714425
0.12569155 0.108142786 0.22261731 -0.09078496 -0.19949569 -0.34397435 -0.12208408 0.025403086
0.051767956 0.052345697 -0.25161368 0.36889946 -0.33940858 -0.1819688 0.08552365 0.109058015
0.14497913 -0.3692495 -0.16154115 0.017507777 -0.05538599 -0.0071026776 0.31532654 -0.26072648
0.13217609 0.32125086 -0.041539304 -0.2033407 -0.034429356 -0.07012197 0.3169446 0.11189562
0.056894366 -0.34329137 0.17905423 -0.036320616 -0.35424384 -0.12575854 0.26060584 -0.21651676
0.19299048 -0.21354893 -0.25514668 0.054121826 -0.0029277785 0.21327008 0.05115571 -0.3051468
-0.018542605 0.08784009 0.2827998 0.037154164 0.27626953 0.064943664 0.25125822 0.008940632
-0.011134917 -0.2171709 -0.30076948 -0.19690791 -0.0043809563 0.15710628 -0.12928839 -0.1449149
-0.013009187 0.22950658 0.21881281 0.27764416 -0.31496033 -0.0010847513 0.094144985 0.17408556
0.2651067 -0.15896279 -0.35905567 -0.047406286 -0.06789125 -0.05271896 0.3396248 -0.065164305

fc_layers.6.bias f4 [38]
00000000: 835d 6f3c 76df 7c3d 3938 133e d365 c03d
00000010: a901 2c3d 908b 703d f332 f03b 2738 743e
00000020: 5671 163e 8b8b e738 801c 213d fbb2 063e
00000030: 63af 1f3e b6fe 933d c935 4b3d 45f5 5f3e
00000040: 4838 e33d 075e 1c3e 8957 393e 1669 ef3d
00000050: 5d20 193e 0e28 11bc 4556 3f3d 397a 1d3d
00000060: 448b 853c 9793 083e abde 6f3d 4bf8 b13d
00000070: 6cd8 213e cbc6 613e b1f2 573c 6677 263e
00000080: 40b1 2d3e 8226 353e 37a2 8b3e 9c29 eebd
00000090: 969e e83d 7e97 87bd
0.014609697 0.061736546 0.14376916 0.093944214 0.04199377 0.058726847 0.0073302924 0.23849545
0.14691672 0.0001104093 0.03933382 0.13154213 0.15594248 0.07226317 0.04961184 0.21870907
0.11094719 0.15270244 0.18099798 0.116899654 0.14953752 -0.008859647 0.046713132 0.03844664
0.016301759 0.13337551 0.058561962 0.08689936 0.15805215 0.2204849 0.013180421 0.16256484
0.16962147 0.17690471 0.27272198 -0.1162903 0.11358373 -0.06620692
