TrainedModel/DQNwithrewardhelper/3000_0-037_DQNwithrewardhelper.pth (torch, 740948 bytes, 26 tensors)

fc_layers.1.weight f4 [816]
0.9236334 0.9583624 1.0590868 1.0041207 0.98345834 0.92766416 1.0040052 0.9925638
0.9610339 0.9657135 1.0590913 1.0272746 0.9891841 0.97592896 1.0194757 0.98374605
0.96047777 0.99102145 0.9963646 1.0161171 1.0009773 0.9533016 0.9962237 1.0165231
0.97136605 0.954584 1.0115274 1.022955 0.95891607 0.98271656 1.0088792 1.0175694
0.9457182 0.9756038 0.9916144 0.9962114 0.9805956 0.9652063 1.029597 1.0039035
0.96963054 0.9687052 1.0753531 0.9874223 0.97643346 0.9719703 1.0091361 1.0053546
0.9889967 0.9514517 0.99076647 1.0205503 0.97747 0.95668983 1.0551695 1.0007937
0.99288255 0.98851174 1.0759254 1.0074855 0.99886185 0.97155005 1.0649008 1.0118709
0.9761248 0.99160486 1.0207218 0.996525 0.98359567 0.98303854 1.0874485 0.989949
0.9855457 0.96006495 1.027847 1.0033203 0.9874813 0.95381707 1.0489361 1.016905
0.96417093 0.9558272 0.9798638 1.0046844 0.9692083 0.9720793 1.0510515 1.0368278
1.004049 0.9584637 1.0486327 0.9878502 0.9861203 0.97808146 1.023167 1.0056679
0.98612094 0.96881026 1.0725862 0.9940202 0.9676003 0.9459181 1.0160227 1.0054507
0.9677633 0.9763648 1.0769541 1.0101521 0.9956846 0.9838826 1.0754944 1.0073556
0.97544724 0.95826554 0.97829014 0.9862487 0.98320293 0.9894364 1.0685351 0.99821764
1.0148714 0.97820765 1.0669798 1.0152242 0.9529576 0.97107387 1.0585682 1.0063877
0.9956037 0.9520121 1.0096262 0.9977965 0.960904 0.98133093 1.0895777 0.99993914
0.960855 0.9608781 0.9760959 1.0058515 0.9774106 0.9659873 0.9781064 0.9788551
0.95256907 0.9722353 0.97943974 0.98972803 0.9712013 0.9507224 0.98518807 1.0307891
0.9599135 0.9575298 0.98501164 1.000084 0.9528313 0.96605635 0.9803091 0.9981583
0.953718 0.9739947 0.97911954 1.0082765 0.98850256 0.9555251 0.97552407 1.0087723
0.96428365 0.96466535 0.9833414 1.008553 0.9484424 0.9604492 0.9932697 0.99697965
0.9636702 0.99795306 0.9707744 0.99895644 0.96095884 0.96484154 0.95829695 1.0050099
0.97682875 0.94823235 0.9591307 1.0115155 0.94940937 0.94609886 0.9929883 0.9929847
0.96217257 0.96243405 0.9912984 0.9935948 0.9528881 0.948321 0.9943187 1.0111942
0.98379064 0.98175716 0.9804469 0.9953651 0.96278006 0.93930376 0.993398 1.0230948
0.95146686 0.96092856 0.9821953 1.0014497 0.96952415 0.9691471 0.9889008 1.0002973
0.9652012 0.9631046 0.9737482 0.99262744 0.9622139 0.98180103 0.98777014 1.0073242
0.94182366 0.9626828 0.986185 1.0044016 0.96331424 0.9768063 1.0089182 1.0055854
0.96279985 0.9695331 0.981268 0.9961593 0.97638273 0.9653734 0.9996503 0.9988027
0.944352 0.9575777 0.9590702 0.9974832 0.9659989 0.9773711 0.9938174 1.0169685
0.97966415 0.96210426 0.98282397 1.0028965 0.95087296 0.9797838 0.9887765 0.98999876
00000000: 3d73 6c3f 3d57 753f 2890 873f 0787 803f
00000010: edc3 7b3f 667b 6d3f 3e83 803f a918 7e3f
00000020: 5106 763f 0039 773f 4e90 873f bc7d 833f
00000030: 2b3b 7d3f 7bd6 793f 2e7e 823f c8d6 7b3f
00000040: dfe1 753f 95b3 7d3f c011 7f3f 2010 823f
00000050: 0620 803f 930b 743f 8408 7f3f 6e1d 823f
00000060: 72ab 783f 9e5f 743f bb79 813f 30f0 823f
00000070: 867b 753f 5093 7b3f f422 813f b73f 823f
00000080: 971a 723f 2cc1 793f 71da 7d3f b607 7f3f
00000090: 5008 7b3f c317 773f d6c9 833f e97f 803f
000000a0: b539 783f 10fd 773f 2ca5 893f b5c7 7c3f
000000b0: 8bf7 793f 0cd3 783f 5f2b 813f 76af 803f
000000c0: e32e 7d3f 5792 733f dfa2 7d3f 64a1 823f
000000d0: 793b 7a3f a0e9 743f cb0f 873f 021a 803f
000000e0: 8d2d 7e3f 1b0f 7d3f ecb7 893f 49f5 803f
000000f0: 69b5 7f3f 81b7 783f ab4e 883f fc84 813f
00000100: 51e3 793f d1d9 7d3f 03a7 823f 431c 7f3f
00000110: edcc 7b3f 6aa8 7b3f 8331 8b3f 4c6d 7d3f
00000120: b94c 7c3f d1c6 753f 7e90 833f cd6c 803f
00000130: 93cb 7c3f 5b2d 743f 8a43 863f f129 823f
00000140: e8d3 763f 17b1 743f 5bd8 7a3f 8099 803f
00000150: 091e 783f 30da 783f db88 863f c6b6 843f
00000160: ad84 803f e15d 753f 9939 863f c0e3 7c3f
00000170: 6172 7c3f 8c63 7a3f 23f7 823f bab9 803f
00000180: 6c72 7c3f f303 783f 814a 893f 1c78 7e3f
00000190: a7b4 773f b027 723f 080d 823f 9cb2 803f
000001a0: 56bf 773f 0bf3 793f a2d9 893f aa4c 813f
000001b0: 30e5 7e3f bbdf 7b3f cda9 893f 07f1 803f
000001c0: e9b6 793f e450 753f 3971 7a3f cb7a 7c3f
000001d0: 30b3 7b3f b44b 7d3f c2c5 883f 318b 7f3f
000001e0: 4ee7 813f d16b 7a3f cb92 883f def2 813f
000001f0: 07f5 733f 4c98 783f 2a7f 873f 50d1 803f
00000200: e2df 7e3f 11b7 733f 6e3b 813f 976f 7f3f
00000210: cefd 753f 8138 7b3f 4877 8b3f 03fc 7f3f
00000220: 98fa 753f 1bfc 753f 6ce1 793f bebf 803f
00000230: 9537 7a3f f24a 773f 2e65 7a3f 3f96 7a3f
00000240: 91db 733f 6ae4 783f 90bc 7a3f d15e 7d3f
00000250: a6a0 783f 8b62 733f 4935 7c3f e6f0 833f
00000260: e4bc 753f ac20 753f b929 7c3f c102 803f
00000270: c1ec 733f 784f 773f 8af5 7a3f 4d87 7f3f
00000280: dd26 743f b757 793f 94a7 7a3f 340f 813f
00000290: 810e 7d3f 4b9d 743f f2bb 793f 731f 813f
000002a0: 4bdb 763f 4ff4 763f 43bc 7b3f 4418 813f
000002b0: 1fcd 723f 00e0 753f ec46 7e3f 0f3a 7f3f
000002c0: 17b3 763f da79 7f3f ac84 783f 9cbb 7f3f
000002d0: 6601 763f dbff 763f f352 753f 2aa4 803f
000002e0: 7311 7a3f 5bbf 723f 9789 753f 5779 813f
000002f0: 7e0c 733f 8933 723f 7b34 7e3f 3f34 7e3f
00000300: f150 763f 1462 763f bbc5 7d3f 3b5c 7e3f
00000310: 79f0 733f 2ac5 723f ac8b 7e3f d06e 813f
00000320: b4d9 7b3f 7054 7b3f 91fe 7a3f 3fd0 7e3f
00000330: c178 763f 3676 703f 554f 7e3f c5f4 823f
00000340: 5593 733f 6aff 753f 2771 7b3f 812f 803f
00000350: bc32 783f 061a 783f 9a28 7d3f be09 803f
00000360: 6d17 773f 068e 763f 9047 793f d51c 7e3f
00000370: a653 763f 5057 7b3f 81de 7c3f 00f0 803f
00000380: 5b1b 713f 6172 763f 9f76 7c3f 3b90 803f
00000390: c39b 763f fa0f 7a3f 3b24 813f 06b7 803f
000003a0: 0d7a 763f 5233 783f 6134 7b3f 4c04 7f3f
000003b0: 38f4 793f b622 773f 15e9 7f3f 89b1 7f3f
000003c0: 0dc1 713f d023 753f a085 753f 0f5b 7f3f
000003d0: b44b 773f fe34 7a3f d16a 7e3f 062c 823f
000003e0: 45cb 7a3f 774c 763f 5a9a 7b3f ea5e 803f
000003f0: 696c 733f 1cd3 7a3f 7520 7d3f 8f70 7d3f

fc_layers.1.bias f4 [816]
0.019188385 -0.022117529 -0.0035862378 0.056378983 -0.035395555 -0.09107943 0.022060765 -0.030306708
0.012101493 0.033612005 -0.021734424 0.030843375 -0.082729846 0.008296911 -0.0077196145 0.022538435
-0.07971377 -0.011228487 0.05471245 0.017857729 0.013657791 -0.021506835 0.01575735 -0.025231577
-0.06426262 -0.09166691 -0.0016996205 0.026055358 0.03947054 -0.032333445 0.0068529705 0.024164755
-0.032568812 -0.0659717 -0.01697728 0.02796606 -0.029317966 0.018283596 -0.009109647 0.026765727
0.014853928 0.02302057 0.0059409984 0.025825102 -0.054368477 -0.007712344 0.010777972 -0.024408663
0.023687849 -0.0009638118 0.0061972337 -0.026017368 0.054706324 0.056490857 -0.005533041 0.019720132
-0.050144866 0.002881328 -0.011174641 -0.025408229 -0.07136681 -0.002596444 -0.0030651735 -0.02550081
-0.0125499815 -0.03210312 0.028218398 0.024990734 0.008642203 0.03955467 -0.022835545 -0.02632469
-0.046415955 -0.03262289 -0.081426464 0.030711211 -0.05349766 0.030957801 -0.018413844 0.031732
-0.03389512 -0.06065687 -0.047844693 -0.028196095 -0.028688995 0.0037648717 -0.016892388 0.022631845
0.0039080377 -0.0045002294 0.005108726 0.01188578 -0.06568239 0.02635634 -0.011256283 0.024254203
-0.034866806 0.0020064544 0.026892193 -0.024758087 -0.026812881 -0.041840073 -0.0037355628 0.062289402
-0.0152116595 0.043682408 -0.018075325 -0.025615495 -0.044119515 0.08263659 -0.0109718805 -0.018639699
-0.05489091 -0.070928216 -0.051299505 0.027349332 0.012385946 0.028766152 -0.0093216635 -0.02738197
-0.00467076 -0.005017475 0.0031224987 -0.024621407 -0.035116535 0.041360594 -0.018564379 -0.030018331
-0.0695325 -0.08557904 -0.0022908065 -0.02903512 -0.03619236 0.0715461 0.0009440398 -0.02822861
0.036589812 -0.0566446 -0.02928575 -0.018247731 0.0500835 -0.011495495 0.0006758685 0.0018407245
0.07800957 -0.006415628 0.016743531 0.0013715624 0.086042814 0.003222092 0.013834671 0.026610855
-0.017425532 -0.02069308 -0.048556384 -0.022306334 -0.0068403585 -0.039674453 0.041381627 0.03051808
0.041180976 0.004731037 0.009919253 0.08972761 -0.005142731 -0.047437042 -0.018768247 0.031941142
0.005831697 -0.021125179 -0.04107667 -0.011768215 0.04059994 -0.0012402418 -0.03077914 0.006100837
-0.029118309 -0.0036244143 0.02179117 0.092667684 0.02065493 0.0005169185 -0.014028432 0.06061204
0.018590745 -0.029145975 0.011063325 -0.021839892 0.058322806 -0.003681261 -0.03433093 -0.01622316
-0.01541024 -0.017386632 -0.025796115 -0.00064533285 -0.004226863 0.005607712 0.05805365 -0.020160917
-0.005307846 0.0035944022 0.0014290792 0.037698187 0.07873692 -0.0053885984 0.004521285 0.059075885
0.027304932 -0.03537087 -0.00584996 -0.02916011 -0.012130631 0.012052046 0.001315494 0.07549944
-0.02698672 0.024221372 0.034101125 0.008670689 -0.020165073 -0.010569611 0.04063564 -0.03252495
0.042110037 -0.011274158 0.021230284 0.032627556 0.025870752 0.05835951 -0.025622819 0.030666789
0.0024355059 -0.030960575 -0.0015274341 -0.002438693 0.0973895 -0.013888362 0.0047977674 0.046538174
-0.035699155 -0.015008188 0.021078983 0.0084475735 0.010365938 -0.019370435 -0.011532832 0.0821908
0.06991293 -0.030811485 -0.019535208 0.008798322 0.0043726517 -0.022856068 -0.0393538 0.0031261556
00000000: f630 9d3c d22f b5bc 1607 6bbb a6ed 663d
00000010: eefa 10bd da87 babd c7b8 b43c c645 f8bc
00000020: 5745 463c beac 093d 640c b2bc 3fab fc3c
00000030: 446e a9bd c4ef 073c d2f4 fcbb 86a2 b83c
00000040: f940 a3bd b0f7 37bc 291a 603d 5f4a 923c
00000050: edc4 5f3c 1a2f b0bc 8f15 813c 74b2 cebc
00000060: 1f9c 83bd dcbb bbbd cdc5 deba 0c72 d53c
00000070: dcab 213d 1370 04bd e28e e03b 2af5 c53c
00000080: e066 05bd 2c1c 87bd f013 8bbc 1419 e53c
00000090: 3b2c f0bc 7bc7 953c a140 15bc cc43 db3c
000000a0: e45d 733c a295 bc3c b5ac c23b 2a8f d33c
000000b0: 7bb1 5ebd d5b7 fcbb 1796 303c adf4 c7bc
000000c0: 050d c23c 51a8 7cba 2a12 cb3b 6022 d5bc
000000d0: bd13 603d f562 673d 834e b5bb 1d8c a13c
000000e0: b464 4dbd aad4 3c3b d715 37bc eb24 d0bc
000000f0: c328 92bd 1a29 2abb 14e1 48bb 13e7 d0bc
00000100: 709e 4dbc 907e 03bd 452a e73c 5eb9 cc3c
00000110: 0798 0d3c 1404 223d 9c11 bbbc e0a6 d7bc
00000120: a81e 3ebd 949f 05bd ebc2 a6bd 1496 fb3c
00000130: 5d20 5bbd 379b fd3c a1d8 96bc 6af9 013d
00000140: 9cd5 0abd 5773 78bd ccf8 43bd 7ffb e6bc
00000150: 2f05 ebbc 11bc 763b e861 8abc 6b66 b93c
00000160: ff0e 803b a976 93bb 1a67 a73b 93bc 423c
00000170: 7d84 86bd 40e9 d73c 466c 38bc c0b0 c63c
00000180: 7fd0 0ebd b87e 033b 044d dc3c 79d1 cabc
00000190: b0a6 dbbc 7f60 2bbd 58d0 74bb 2c23 7f3d
000001a0: 533a 79bc 53ec 323d b412 94bc 96d7 d1bc
000001b0: aab6 34bd 5f3d a93d 67c3 33bc 48b2 98bc
000001c0: 4ad5 60bd d042 91bd 6e1f 52bd b50b e03c
000001d0: 6cee 4a3c fea6 eb3c e4b9 18bc 2750 e0bc
000001e0: 2d0d 99bb a269 a4bb d6a2 4c3b d5b2 c9bc
000001f0: 5bd6 0fbd ba69 293d 5314 98bc 01e9 f5bc
00000200: 0e67 8ebd 1044 afbd 5b21 16bb 0fdb edbc
00000210: 713e 14bd c386 923d 7079 773a b03f e7bc
00000220: 33df 153d 2b04 68bd abe8 efbc 447c 95bc
00000230: 5b24 4d3d 9a57 3cbc c42c 313a 7744 f13a
00000240: 7bc3 9f3d 303a d2bb bb29 893c ffc5 b33a
00000250: 3737 b03d bc29 533b d1aa 623c 02ff d93c
00000260: fdbf 8ebc 8984 a9bc 0fe3 46bd c6bb b6bc
00000270: 1625 e0bb ae81 22bd c87f 293d 0d01 fa3c
00000280: 62ad 283d d106 9b3b 5d84 223c 1cc3 b73d
00000290: 5b84 a8bb 584d 42bd debf 99bc b7d4 023d
000002a0: d217 bf3b b60e adbc 0340 28bd 79cf 40bc
000002b0: 1f4c 263d 9c8f a2ba 8924 fcbc 88e9 c73b
000002c0: 8589 eebc 9587 6dbb 6583 b23c 8ec8 bd3d
000002d0: 8734 a93c d081 073a 82d7 65bc 5544 783d
000002e0: 9e4b 983c 8ac3 eebc f342 353c 93e9 b2bc
000002f0: e5e3 6e3d 5041 71bb 979e 0cbd 6fe6 84bc
00000300: 3b7b 7cbc 696e 8ebc 6052 d3bc 8e2b 29ba
00000310: 7f81 8abb e6c0 b73b aac9 6d3d 8228 a5bc
00000320: 70ed adbb 1090 6b3b f14f bb3a 6a69 1a3d
00000330: d340 a13d d792 b0bb 4a27 943b 8ef9 713d
00000340: 98ae df3c 0ce1 10bd 05b1 bfbb 2fe1 eebc
00000350: 8ebf 46bc f275 453c a76c ac3a 739f 9a3d
00000360: 4113 ddbc e66b c63c 9fad 0b3d 810f 0e3c
00000370: 3931 a5bc 292c 2dbc 8f71 263d e238 05bd
00000380: 937b 2c3d 3fb7 38bc 22eb ad3c 79a4 053d
00000390: e6ee d33c 620a 6f3d f2e6 d1bc eb38 fb3c
000003a0: 029d 1f3b 08a1 fdbc 2f34 c8ba 7bd2 1fbb
000003b0: 2574 c73d 038c 63bc 9736 9d3b d09e 3e3d
000003c0: 4739 12bd e7e4 75bc d5ad ac3c b167 0a3c
000003d0: e5d5 293c bfae 9ebc 34f4 3cbc a653 a83d
000003e0: 832e 8f3d 5e68 fcbc 4d08 a0bc d626 103c
000003f0: 7648 8f3b a63c bbbc 7331 21bd 30e0 4c3b

fc_layers.1.running_mean f4 [816]
0.257923 0.06511595 0.000496788 6e-45 0.2871156 0.08482674 0.010222002 3.4452637e-06
0.31471464 0.081030995 0.010530201 6.4084655e-16 0.3249662 0.058192056 0.0069701183 3.7950025e-11
0.34281835 0.10152175 0.012401352 0.0027767885 0.29378128 0.09244906 0.011628811 0.00082231587
0.2703401 0.07374971 0.009736227 0.0006926742 0.24338706 0.055939 0.0031402372 6e-45
0.227312 0.05100497 0.0038858666 2.87034e-36 0.22558197 0.06663739 0.005169084 1.14278655e-05
0.24802893 0.048497945 0.0075696833 6e-45 0.29614282 0.067294635 0.0033168008 1.0996292e-23
0.27295238 0.05645742 0.0076693036 0.00010549842 0.25184387 0.06174499 0.009649341 6e-45
0.23206134 0.0646743 0.01113526 1.0507338e-06 0.22185507 0.06879525 0.007386966 0.0018583754
0.2407376 0.074704915 0.010605959 0.00079940655 0.19441585 0.049050495 0.014542858 1.02262576e-14
0.19809297 0.03386418 0.0032543684 6e-45 0.21141909 0.042514034 0.005694579 6e-45
0.21748565 0.045538753 0.0067031602 7.703223e-06 0.22250195 0.046334818 0.0019536777 0.00012661384
0.23271415 0.054408878 0.0036382086 5.615649e-06 0.22459388 0.07037677 0.013888212 6e-45
0.22417325 0.027532753 0.009437919 6e-45 0.18073663 0.053476963 0.012184272 6e-45
0.1652925 0.058230016 0.017217172 0.00015045164 0.29278228 0.06303623 0.0030610494 0.00034193415
0.29366007 0.084810145 0.01228395 6.179923e-06 0.23372035 0.05292833 0.011656233 6e-45
0.19818202 0.035654217 0.00225222 1.0708089e-11 0.21130273 0.07464852 0.018786194 0.0005211633
0.19344597 0.03072918 0.0022793908 6e-45 0.16178457 0.047675822 0.0026894545 1.6105529e-05
0.640909 0.31184927 0.11989863 0.034690395 0.64640915 0.31874406 0.12745126 0.0346947
0.62459433 0.32578856 0.11684335 0.04322768 0.63871 0.3204657 0.11243236 0.03609632
0.63040996 0.3321777 0.13004702 0.030373296 0.6014786 0.3207357 0.116894096 0.037348207
0.62210524 0.32021865 0.12678638 0.0415315 0.63420516 0.34421906 0.13793929 0.03554142
0.66274315 0.39139673 0.12680727 0.03269251 0.6475745 0.33068147 0.14854428 0.039931037
0.64005667 0.33259708 0.12785798 0.034742765 0.60711396 0.2845271 0.12584671 0.03892246
0.60970956 0.34635255 0.12119284 0.04327566 0.64930874 0.3375037 0.13848759 0.03100667
0.60413754 0.32799283 0.13128726 0.037868336 0.6461546 0.3456344 0.16319987 0.057143893
0.65580493 0.35676077 0.14062963 0.028236972 0.6968592 0.42557132 0.1605582 0.037403893
0.6678982 0.36976287 0.13997206 0.04033529 0.688543 0.3745345 0.17753227 0.052785624
0.677918 0.343867 0.1589709 0.05260552 0.66481405 0.3885803 0.14686663 0.03534421
0.6624181 0.35187054 0.15664193 0.049299795 0.66253155 0.33698806 0.14423218 0.051021833
0.6523353 0.34046245 0.13505769 0.045038894 0.63388395 0.32187 0.1189426 0.044718176
0.65871245 0.38079357 0.1634755 0.04662417 0.60861766 0.34034106 0.18097025 0.043510687
0.62443614 0.32214558 0.11236024 0.02685465 0.6406548 0.34485695 0.14709859 0.033607114
00000000: 7c0e 843e 835b 853d e13a 023a 0400 0000
00000010: d100 933e a4b9 ad3d 2f7a 273c 2e35 6736
00000020: 4722 a13e 94f3 a53d dd86 2c3c 21b6 3826
00000030: f861 a63e cb5a 6e3d 9765 e43b eee7 262e
00000040: e385 af3e a3ea cf3d 0a2f 4b3c c8fa 353b
00000050: 806a 963e ef55 bd3d c586 3e3c af90 573a
00000060: 056a 8a3e 170a 973d b284 1f3c 9494 353a
00000070: 753a 793e 4b20 653d 70cc 4d3b 0400 0000
00000080: 7ac4 683e 96ea 503d 06aa 7e3b 782e 7404
00000090: f6fe 663e 2f79 883d 6b61 a93b 4fba 3f37
000000a0: 4cfb 7d3e c8a5 463d 1b0b f83b 0400 0000
000000b0: 08a0 973e c5d1 893d af5e 593b 00b3 5419
000000c0: 6ac0 8b3e e53f 673d c84e fb3b 083f dd38
000000d0: aef1 803e 51e8 7c3d 4518 1e3c 0400 0000
000000e0: 7da1 6d3e f673 843d aa70 363c f006 8d35
000000f0: fa2d 633e 86e4 8c3d 5d0e f23b bb94 f33a
00000100: eb83 763e e4fe 983d 9ec4 2d3c 448f 513a
00000110: f314 473e 2ce9 483d 2b45 6e3c 4a38 3828
00000120: e2d8 4a3e 2bb5 0a3d 3e47 553b 0400 0000
00000130: 3f7e 583e 3223 2e3d 9799 ba3b 0400 0000
00000140: 8fb4 5e3e d886 3a3d 2fa6 db3b 173d 0137
00000150: 8dd7 633e 94c9 3d3d 4609 003b a5c3 0439
00000160: 9e4c 6e3e d8db 5e3d 036f 6e3b 0f6e bc36
00000170: f0fb 653e b221 903d 628b 633c 0400 0000
00000180: ac8d 653e 5e8c e13c 80a1 1a3c 0400 0000
00000190: 0613 393e a90a 5b3d 8aa0 473c 0400 0000
000001a0: 7042 293e 9982 6e3d 070b 8d3c 8ec2 1d39
000001b0: 8fe7 953e 2419 813d e39b 483b a045 b339
000001c0: 9d5a 963e f1b0 ad3d 9f42 493c 225d cf36
000001d0: 6354 6f3e 60cb 583d c9f9 3e3c 0400 0000
000001e0: 3af0 4a3e 280a 123d fb99 133b f260 3c2d
000001f0: be5f 583e 53e1 983d 81e5 993c ad9e 083a
00000200: b316 463e c3bb fb3c d561 153b 0400 0000
00000210: dbaa 253e b947 433d 8f41 303b 5c1a 8737
00000220: 9d12 243f b5aa 9f3e 6a8d f53d 8417 0e3d
00000230: 127b 253f 6c32 a33e 9582 023e 081c 0e3d
00000240: 6ae5 1f3f c2cd a63e 914b ef3d 820f 313d
00000250: 8082 233f 1514 a43e f042 e63d bcd9 133d
00000260: 8c62 213f 3213 aa3e 0c2b 053e 6bd1 f83c
00000270: 80fa 193f 7837 a43e 2c66 ef3d 6ffa 183d
00000280: 4a42 1f3f b3f3 a33e 4ad4 013e ef1c 2a3d
00000290: 455b 223f 7b3d b03e f53f 0d3e e193 113d
000002a0: 89a9 293f 2765 c83e c4d9 013e 95e8 053d
000002b0: 71c7 253f 154f a93e fe1b 183e ba8e 233d
000002c0: c1da 233f 2a4a aa3e 34ed 023e 6e4e 0e3d
000002d0: d26b 1b3f 89ad 913e f6dd 003e 286d 1f3d
000002e0: ed15 1c3f 1f55 b13e f433 f83d d241 313d
000002f0: 1939 263f 49cd ac3e b1cf 0d3e b301 fe3c
00000300: c2a8 1a3f adee a73e 2b70 063e d41b 1b3d
00000310: 636a 253f fef6 b03e de1d 273e b70f 6a3d
00000320: d5e2 273f 59a9 b63e 3701 103e 3951 e73c
00000330: 5d65 323f 7ce4 d93e 5e69 243e d334 193d
00000340: 60fb 2a3f 8f51 bd3e d654 0f3e 9e36 253d
00000350: 5b44 303f fcc2 bf3e 05cb 353e bd35 583d
00000360: 098c 2d3f 560f b03e 45c9 223e e378 573d
00000370: 4131 2a3f fff3 c63e 3564 163e 17c5 103d
00000380: 3c94 293f 6028 b43e be66 203e 95ee 493d
00000390: ab9b 293f b389 ac3e 9ab1 133e 45fc 503d
000003a0: 72ff 263f 1851 ae3e 904c 0a3e b47a 383d
000003b0: 3846 223f 25cc a43e 2e98 f33d 682a 373d
000003c0: 61a1 283f 60f7 c23e 1f66 273e fcf8 3e3d
000003d0: 5ece 1b3f 2f41 ae3e 4450 393e 4338 323d
000003e0: 0cdb 1f3f 44f0 a43e 201d e63d 48fe db3c
000003f0: f401 243f 1791 b03e 03a1 163e 9da7 093d

fc_layers.1.running_var f4 [816]
0.19267592 0.061254453 0.0004967863 6e-45 0.20486334 0.07783526 0.010074974 3.4452637e-06
0.21567394 0.074287556 0.010502763 6.4084655e-16 0.22108516 0.055743046 0.006956238 3.7949994e-11
0.22670606 0.09003877 0.012198246 0.0027767883 0.2095536 0.085357435 0.011614005 0.00082231587
0.19861789 0.06949868 0.009570434 0.00069267413 0.1823877 0.053334095 0.0031402372 6e-45
0.17723335 0.048239835 0.0038675894 2.87034e-36 0.17580414 0.06268516 0.0051354594 1.14278655e-05
0.18519542 0.04621706 0.0075472617 6e-45 0.20720005 0.06380399 0.0033168003 1.0996292e-23
0.1989624 0.052780278 0.007475496 0.00010549842 0.18750079 0.057968274 0.00959244 6e-45
0.1791049 0.060544066 0.0110572595 1.0507338e-06 0.17279986 0.06405461 0.007320661 0.0018583752
0.18463817 0.069367535 0.010547663 0.00079940644 0.15726566 0.04666119 0.014076032 1.02262576e-14
0.16163175 0.032828998 0.003254006 6e-45 0.16592051 0.041141674 0.005694578 6e-45
0.17030585 0.043783728 0.0067031593 7.703223e-06 0.1737923 0.044500183 0.0019469773 0.00012661384
0.17890687 0.051501635 0.0036210772 5.615649e-06 0.17637788 0.06536464 0.013768777 6e-45
0.17603973 0.026860813 0.009437457 6e-45 0.1490452 0.05097981 0.012155421 6e-45
0.13935158 0.054904934 0.01719709 0.00015045164 0.2074053 0.05926202 0.0030366438 0.00034193412
0.20787485 0.07759553 0.012268978 6.179923e-06 0.17876686 0.049626216 0.011469663 6e-45
0.160166 0.034443285 0.002252186 1.0708089e-11 0.16678034 0.06927397 0.018280314 0.00052116317
0.15552005 0.029847188 0.0022545985 6e-45 0.13720612 0.045812674 0.0026894545 1.6105529e-05
0.2313994 0.21502382 0.10591031 0.032809705 0.22587015 0.21726869 0.112817526 0.032703806
0.23045285 0.22089434 0.10378045 0.041597415 0.22795428 0.21822786 0.099251226 0.03417643
0.23491044 0.21832924 0.11252684 0.030041093 0.23609102 0.21487215 0.10278147 0.035818327
0.23469248 0.21895385 0.11307403 0.04004866 0.23258139 0.22630724 0.119268395 0.03422348
0.22423288 0.23924145 0.11136469 0.03132128 0.22581683 0.21833894 0.12514152 0.038194604
0.23399001 0.22529912 0.11195594 0.034030985 0.23867427 0.19684549 0.10553036 0.037522852
0.24100503 0.22584757 0.10641124 0.041685637 0.22730444 0.22377823 0.119064026 0.030212337
0.23907562 0.21532288 0.11515181 0.036507003 0.22803742 0.22965658 0.13684916 0.05421113
0.2272681 0.23273818 0.120355316 0.027298132 0.21228535 0.24577118 0.13409092 0.03607875
0.2202206 0.22982217 0.121393256 0.038806535 0.21632585 0.23566844 0.14739326 0.050505195
0.2200796 0.22799988 0.13507576 0.05032805 0.22499454 0.23392522 0.1254186 0.034442544
0.22114222 0.2278761 0.13208827 0.04707631 0.22369164 0.22436947 0.12357565 0.048005845
0.22916605 0.2229334 0.117349654 0.04285691 0.23340285 0.21980664 0.105449885 0.04294617
0.2207581 0.22932428 0.13602594 0.044110186 0.23873444 0.2211836 0.14776625 0.04221092
0.23637775 0.21490532 0.09852027 0.026329828 0.23184942 0.22627321 0.12528889 0.032669492
00000000: d64c 453e f3e5 7a3d c43a 023a 0400 0000
00000010: b2c7 513e 1868 9f3d 8111 253c 2e35 6736
00000020: a1d9 5c3e 1324 983d c813 2c3c 21b6 3826
00000030: 2664 623e d252 643d 27f1 e33b e5e7 262e
00000040: a225 683e 3f66 b83d 27db 473c c7fa 353b
00000050: 3895 563e e1cf ae3d ab48 3e3c af90 573a
00000060: 7d62 4b3e 5355 8e3d 4fcd 1c3c 9394 353a
00000070: d7c3 3a3e da74 5a3d 70cc 4d3b 0400 0000
00000080: a97c 353e 2297 453d 6277 7d3b 782e 7404
00000090: 0006 343e 1461 803d 5b47 a83b 4fba 3f37
000000a0: dea3 3d3e 1a4e 3d3d 054f f73b 0400 0000
000000b0: 402c 543e abab 823d ad5e 593b 00b3 5419
000000c0: cdbc 4b3e 2230 583d 01f5 f43b 083f dd38
000000d0: 3500 403e 2470 6d3d 9c29 1d3c 0400 0000
000000e0: 4667 373e 0efd 773d 8229 353c f006 8d35
000000f0: 72f2 303e 102f 833d 28e2 ef3b b994 f33a
00000100: ca11 3d3e 9110 8e3d 1bd0 2c3c 428f 513a
00000110: 400a 213e ce1f 3f3d 289f 663c 4a38 3828
00000120: cb82 253e b377 063d 2941 553b 0400 0000
00000130: 11e7 293e 2c84 283d 9599 ba3b 0400 0000
00000140: a864 2e3e 9156 333d 2da6 db3b 173d 0137
00000150: 9cf6 313e d345 363d b831 ff3a a5c3 0439
00000160: 5d33 373e 61f3 523d 984f 6d3b 0f6e bc36
00000170: 679c 343e e5dd 853d 7096 613c 0400 0000
00000180: c243 343e 350b dc3c 909f 1a3c 0400 0000
00000190: 4e9f 183e 35d0 503d 8827 473c 0400 0000
000001a0: 2eb2 0e3e ffe3 603d e9e0 8c3c 8ec2 1d39
000001b0: 0e62 543e bbbc 723d 6e02 473b 9f45 b339
000001c0: 25dd 543e 68ea 9e3d d303 493c 225d cf36
000001d0: a90e 373e dc44 4b3d 41eb 3b3c 0400 0000
000001e0: 8e02 243e 6714 0d3d 6999 133b f260 3c2d
000001f0: 77c8 2a3e 83df 8d3d 99c0 953c ab9e 083a
00000200: a640 1f3e 1782 f43c e3c1 133b 0400 0000
00000210: c37f 0c3e 12a6 3b3d 8f41 303b 5c1a 8737
00000220: f7f3 6c3e 342f 5c3e 81e7 d83d 7863 063d
00000230: 814a 673e af7b 5e3e e00c e73d 6df4 053d
00000240: d5fb 6b3e 2032 623e d88a d43d 0d62 2a3d
00000250: d96c 693e 2077 5f3e 3a44 cb3d 96fc 0b3d
00000260: 5d8c 703e b391 5f3e 7974 e63d bd18 f63c
00000270: d8c1 713e 7207 5c3e 177f d23d 3db6 123d
00000280: 3a53 703e 7035 603e 5b93 e73d 100a 243d
00000290: d129 6e3e 16bd 673e fd42 f43d eb2d 0c3d
000002a0: 4e9d 653e b6fb 743e 2c13 e43d be4a 003d
000002b0: 873c 673e 3e94 5f3e 1925 003e f271 1c3d
000002c0: 149b 6f3e d0b4 663e 2849 e53d 1364 0b3d
000002d0: 0767 743e dd91 493e 4d20 d83d 90b1 193d
000002e0: 06ca 763e 9644 673e 23ee d93d 8fbe 2a3d
000002f0: 7fc2 683e 1f26 653e d7d7 f33d dd7f f73c
00000300: 3dd0 743e 9a7d 5c3e b6d4 eb3d 5e88 153d
00000310: a482 693e 182b 6b3e 3022 0c3e 7d0c 5e3d
00000320: f8b8 683e eb52 6e3e d97c f63d 55a0 df3c
00000330: 5561 593e 71ab 7b3e 214f 093e 50c7 133d
00000340: 8281 613e 8156 6b3e 079d f83d 9af3 1e3d
00000350: 8684 5d3e 1153 713e 42ee 163e 89de 4e3d
00000360: 8c5c 613e cd78 693e 4d51 0a3e c924 4e3d
00000370: f864 663e 188a 6f3e bc6d 003e a013 0d3d
00000380: 1b73 623e 5a58 693e 2642 073e 17d3 403d
00000390: 6c0f 653e 1cc1 653e 3b15 fd3d c7a1 443d
000003a0: 81aa 6a3e a748 643e 0455 f03d ba8a 2f3d
000003b0: 2801 6f3e fe14 613e 1cf6 d73d 53e8 2f3d
000003c0: 690e 623e fcd3 6a3e 624a 0b3e e2ac 343d
000003d0: cd76 743e f47d 623e 0950 173e 5ce5 2c3d
000003e0: 020d 723e 2410 5c3e ffc4 c93d a7b1 d73c
000003f0: ef69 6d3e 2ab4 673e bb4b 003e 72d0 053d

fc_layers.2.weight f4 [64, 816]
0.01484907 -0.08495715 0.046111476 -0.072991624 -0.05487312 -0.0034983763 0.055166516 0.00073299505
-0.02015885 -0.03802165 -0.01983265 0.0104027465 0.031258803 -0.097902134 -0.053760786 -0.073349364
0.017330656 -0.039042614 0.008674042 -0.024502704 -0.0666919 0.07719704 0.023665199 -0.008050857
-0.075501874 -0.0027148959 -0.08780932 -0.0503407 0.092635855 -0.032752268 -0.07378077 -0.051838458
0.03206173 -0.040582854 -0.053646322 0.039837692 -0.064879395 -0.051043794 -0.12264852 0.02720578
-0.0017457313 -0.01849017 0.13699065 -0.028925376 0.038238153 0.019037884 -0.066844925 0.08603252
-0.0742925 0.009050949 -0.069743 0.11794436 0.047340263 0.04523839 0.023002608 -0.079599425
-0.00080822466 -0.02398764 0.012331795 0.089533396 -0.020804575 -0.06982647 -0.040740006 -0.008929114
-0.03097201 -0.027488105 -0.07921986 -0.04005996 0.02653408 -0.007180544 0.12769951 0.09714134
-0.033143815 -0.06958229 0.059941165 -0.04925133 -0.031285547 0.036784295 0.09360794 -0.016065968
0.015776336 -0.026173376 0.026280055 0.054096293 0.049161337 -0.030980328 0.020737434 -0.08177856
0.02452875 -0.03857185 0.10333343 0.06912726 -0.05870399 0.035839625 -0.028453736 -0.09518957
-0.026921757 0.04893035 0.0014226988 0.011095231 -0.057335187 0.054851215 -0.07687653 0.003003804
-0.034508966 -0.011914696 0.10855178 0.079258546 0.015096637 0.05693851 0.022092331 -0.048235003
0.040630754 0.032467302 0.053787697 0.0540162 0.011798978 0.004573337 0.13781919 0.01698019
-0.050868865 0.039297238 0.11397868 0.11489358 -0.053468093 -0.0150566455 0.121850505 0.022203213
0.03361822 -0.011634429 0.018916726 -0.032050584 -0.022818638 -0.018866189 0.008943821 -0.059450224
-0.07181532 0.017462619 -0.018499285 0.076417714 0.025276551 0.031201338 0.015232547 -0.05655556
-0.0309723 -0.0669023 0.08033813 0.074370615 0.04407923 -0.03811532 0.025579149 0.055989817
0.042531796 -0.070698574 -0.007980461 0.062058933 0.058603734 -0.010236501 0.06789908 -0.026006421
0.01390203 0.031723816 0.030120682 0.06365243 0.0022032615 -0.013961954 0.028955463 0.0033542423
-0.007932771 0.055871926 0.062206876 0.06309014 0.056434948 -0.048308283 0.004744914 0.06567655
-0.016550481 -0.010801078 -0.03617502 -0.010721028 -0.030474834 0.041137397 0.018454405 0.07936304
-0.07157883 -0.0048701484 0.053913686 -0.032335408 0.011919695 0.07030998 0.046699945 -0.044755995
0.031674024 0.04985228 0.009860365 0.01262689 0.06804628 0.009816666 0.05058061 -0.06032518
0.053306114 -0.011205057 0.019637896 0.014883766 -0.048868507 0.06560921 -0.019355189 -0.001746996
0.00067626743 -0.024968667 -0.01748995 -0.012234181 -0.045481984 0.05225959 -0.057529286 0.06545608
0.02939472 0.08608557 -0.05969147 0.08392865 -0.013370309 0.024955787 0.08550069 -0.06897283
-0.0089721335 -0.009078151 0.0018291608 0.0044770823 0.015076275 -0.027095655 0.031049687 0.0917917
0.07419987 0.02337192 -0.00550954 0.008441548 -0.023485852 -0.05379103 0.01931982 -0.0009895624
-0.065034255 0.03559108 -0.009844384 0.08582692 0.025052305 0.000373752 -0.024537709 0.014088051
0.016785555 -0.035163827 0.066367105 0.08337865 0.06503654 0.02090542 0.0063341805 -0.03720206
00000000: 8449 733c 04fe adbd 63df 3c3d a27c 95bd
00000010: a3c2 60bd 0445 65bb 49f6 613d 7726 403a
00000020: 2c24 a5bc 97bc 1bbd 1578 a2bc 4870 2a3c
00000030: 3b09 003d ea80 c8bd 4534 5cbd 3138 96bd
00000040: 05f9 8d3c 26eb 1fbd 921d 0e3c e5b9 c8bc
00000050: c395 88bd 7b19 9e3d 85dd c13c bee7 03bc
00000060: baa0 9abd 65ec 31bb 5fd5 b3bd 0d32 4ebd
00000070: deb7 bd3d 3e27 06bd 5f1a 97bd 9054 54bd
00000080: 2953 033d 353a 26bd 3fbc 5bbd d92c 233d
00000090: 7ddf 84bd 4c13 51bd 262f fbbd a8de de3c
000000a0: 06d1 e4ba b278 97bc 4747 0c3e e9f4 ecbc
000000b0: 9c9f 1c3d 56f5 9b3c fee5 88bd d131 b03d
000000c0: ab26 98bd 6e4a 143c 6bd5 8ebd d08c f13d
000000d0: dde7 413d e44b 393d f76f bc3c 0605 a3bd
000000e0: 0adf 53ba ba81 c4bc 4c0b 4a3c 495d b73d
000000f0: 5b6e aabc 2e01 8fbd fede 26bd 6b4b 12bc
00000100: 03b9 fdbc bc2e e1bc 063e a2bd ea15 24bd
00000110: 005e d93c c54a ebbb a9c3 023e 0af2 c63d
00000120: cfc1 07bd 2981 8ebd de84 753d c3bb 49bd
00000130: 4625 00bd 21ab 163d 85b5 bf3d c79c 83bc
00000140: 603d 813c 8c69 d6bc 4549 d73c 1394 5d3d
00000150: 665d 493d 75ca fdbc 8de1 a93c 857b a7bd
00000160: 84f0 c83c 84fd 1dbd 7aa0 d33d 9892 8d3d
00000170: 9873 70bd 92cc 123d cf17 e9bc c0f2 c2bd
00000180: 048b dcbc 316b 483d da79 ba3a c6c8 353c
00000190: 4dd8 6abd abab 603d 7171 9dbd 78db 443b
000001a0: 4659 0dbd db35 43bc 6550 de3d 4e52 a23d
000001b0: e357 773c 5b38 693d fafa b43c 1192 45bd
000001c0: 6f6c 263d 6ffc 043d 7d50 5c3d 1740 5d3d
000001d0: 8050 413c eedb 953b 7920 0d3e 0a1a 8b3c
000001e0: df5b 50bd 24f6 203d a76d e93d 534d eb3d
000001f0: 5c01 5bbd 26b0 76bc c28c f93d 83e3 b53c
00000200: 42b3 093d 559e 3ebc 40f7 9a3c 7947 03bd
00000210: 27ee babc 448d 9abc 1b89 123c 1482 73bd
00000220: e913 93bd c40d 8f3c d08b 97bc e480 9c3d
00000230: c510 cf3c f399 ff3c ef91 793c cea6 67bd
00000240: 9fb9 fdbc 1304 89bd 5188 a43d 9f4f 983d
00000250: 6c8c 343d cf1e 1cbd 5d8b d13c 9455 653d
00000260: d235 2e3d 6aca 90bd 7bc0 02bc 8231 7e3d
00000270: 780a 703d ffb6 27bc ac0e 8b3d 6b0b d5bc
00000280: 57c5 633c d5f0 013d a6bf f63c 355c 823d
00000290: 9864 103b aec0 64bc 0234 ed3c d9d2 5b3b
000002a0: 74f8 01bc f6d9 643d a3cc 7e3d 6735 813d
000002b0: 5528 673d e8de 45bd 397b 9b3b 6d81 863d
000002c0: e094 87bc 01f7 30bc 422c 14bd 40a7 2fbc
000002d0: 5ca6 f9bc b07f 283d b12d 973c 1789 a23d
000002e0: ec97 92bd c495 9fbb 99d4 5c3d 2272 04bd
000002f0: d34a 433c aefe 8f3d 7148 3f3d 1052 37bd
00000300: 9fbc 013d e831 4c3d 5e8d 213c 04e1 4e3c
00000310: d95b 8b3d 15d6 203c 9d2d 4f3d 8917 77bd
00000320: 8357 5a3d 6a95 37bc a7df a03c 0adb 733c
00000330: 582a 48bd 1f5e 863d c68e 9ebc 75fb e4ba
00000340: 8a47 313a 178b ccbc 1547 8fbc e071 48bc
00000350: 514b 3abd 270e 563d d4a3 6bbd d60d 863d
00000360: 32cd f03c a24d b03d 0b7f 74bd c9e2 ab3d
00000370: 240f 5bbc 1470 cc3c fc1a af3d a141 8dbd
00000380: dbff 12bc 86bc 14bc 74c0 ef3a 7db4 923b
00000390: 7b02 773c b5f7 ddbc ea5b fe3c 49fd bb3d
000003a0: 1af6 973d 7876 bf3c 5f89 b4bb 6b4e 0a3c
000003b0: 6765 c0bc fc53 5cbd 9944 9e3c 34b4 81ba
000003c0: ae30 85bd f4c7 113d 574a 21bc 06c6 af3d
000003d0: 7e3a cd3c 25f4 c339 4e03 c9bc 92d1 663c
000003e0: dc81 893c f207 10bd 7aeb 873d 6dc2 aa3d
000003f0: e131 853d d841 ab3c f58e cf3b 3061 18bd

fc_layers.2.bias f4 [64]
0.01609421 0.056602087 -0.023305995 0.019015111 -0.02127884 0.02965621 -0.010296194 -0.03503914
0.015168505 -0.011986514 0.04183513 -0.0109170545 -0.020795666 0.047724687 -0.00046239677 -0.013282958
0.023699451 -0.07153395 0.0064581847 0.03539965 0.016717007 0.031002212 0.015969904 0.013893327
-0.007977145 0.025596851 0.025306381 -0.009800278 -0.00770937 -0.038130682 0.039817587 0.011778615
-0.034462757 -0.064075574 0.018130817 -0.022823347 0.018868163 -0.0016436772 -0.0044101984 -0.02122531
0.032089386 0.019194283 0.07445669 -0.007414402 0.018359223 0.010494709 -0.025245672 0.024390023
0.00096856215 -0.00251775 -0.009149 -0.007755567 0.029544516 -0.007388295 -0.0012616182 0.011186742
0.019193236 -0.018062504 -0.02883121 -0.031718943 0.014179251 -0.0021199035 1.3608696e-05 -0.040669672
00000000: 01d8 833c 97d7 673d 37ec bebc 94c5 9b3c
00000010: f650 aebc 95f1 f23c 5eb1 28bc 3485 0fbd
00000020: 5285 783c 1563 44bc 505b 2b3d 72dd 32bc
00000030: ac5b aabc f67a 433d d86d f2b9 c4a0 59bc
00000040: 5a25 c23c 6480 92bd 2e9f d33b 39ff 103d
00000050: 1bf2 883c 5af8 fd3c 51d3 823c d6a0 633c
00000060: 92b2 02bc 7db0 d13c 544f cf3c 5891 20bc
00000070: e29e fcbb eb2e 1cbd c417 233d 18fb 403c
00000080: d228 0dbd 0e3a 83bd 1487 943c 07f8 babc
00000090: 6891 9a3c a870 d7ba 6d83 90bb b4e0 adbc
000000a0: 2970 033d 543d 9d3c c07c 983d 83f4 f2bb
000000b0: 1566 963c 00f2 2b3c 03d0 cebc 96cd c73c
000000c0: 1be7 7d3a d600 25bb b0e5 15bc 6922 febb
000000d0: 5707 f23c 8319 f2bb e25c a5ba 9948 373c
000000e0: 223b 9d3c d1f7 93bc 6e2f ecbc b9eb 01bd
000000f0: 1750 683c 14ee 0abb e750 6437 3e95 26bd

fc_layers.4.weight f4 [64, 64]
0.12595557 -0.12402918 -0.018974135 -0.09652069 0.013616169 -0.061567556 0.21032545 0.06275497
0.22350499 0.20383438 -0.07360877 -0.08843057 -0.036262713 -0.19285245 0.28106993 -0.2189309
0.1899209 -0.12815885 0.10285431 -0.002110557 -0.10977835 0.19700396 0.041791793 0.11909736
0.1606894 0.104862176 0.012969577 -0.27608597 -0.24899495 -0.100278966 0.016822632 0.15793638
0.06308293 0.14533353 0.11423221 -0.095768586 0.18327492 0.09915532 0.17730555 -0.14788346
-0.32014447 0.26812252 -0.22782218 -0.034183532 -0.038131323 -0.07169439 0.18214923 -0.11423908
0.32390368 0.11701208 -0.28212795 -0.0178222 -0.24003181 -0.057929248 -0.22704129 0.036310542
0.046316765 0.15920709 0.21453519 0.2534227 -0.1551188 -0.0241545 0.09176727 -0.072625406
0.090661876 0.20946631 0.2108746 -0.04823511 0.1541599 0.19634841 0.11971319 -0.06430185
0.12014494 -0.03970894 0.057651285 0.13953105 0.21978012 0.033242658 0.06181134 0.15698905
-0.17824 -0.13075812 0.28586242 0.1161233 0.06793384 0.050156217 0.059735622 0.23701942
-0.13433821 0.09523479 -0.21380214 -0.042222165 0.11078369 -0.18327415 -0.14190911 -0.13875456
0.053755343 -0.043447852 -0.22070101 -0.117825925 0.12949911 -0.009693185 -0.29161054 -0.022860967
0.1035361 -0.027335221 -0.047119886 -0.21988182 0.06441022 -0.21818297 -0.117198266 -0.013400205
-0.25498688 -0.2705343 0.2540737 0.10376162 -0.13545133 -0.01701986 0.017231725 -0.05177824
0.09288721 -0.21032351 0.14629075 -0.2327233 0.046717297 -0.07250781 -0.06378364 0.19603792
0.2531771 -0.20101269 0.2326654 0.012759524 -0.07539295 0.050588626 -0.20009701 0.11136403
0.10320951 -0.059389573 0.17970848 0.11512853 0.24444102 -0.12614802 -0.118049905 -0.019302154
-0.12863801 0.2358577 0.09314 -0.104306825 -0.035248734 -0.2282467 -0.21676609 0.10338595
-0.19283596 -0.09771172 0.07207061 -0.049399637 0.015981805 -0.18295489 -0.20365654 -0.21678062
-0.055356342 0.06765526 0.050592147 0.06092614 0.0626933 -0.24818914 -0.17905249 0.066111475
-0.015327992 -0.2836123 0.16428615 -0.11894519 0.32601634 -0.27755743 0.11593366 0.13033034
-0.17022109 -0.24570309 0.03179408 0.084942445 -0.08063221 0.048362628 0.2757941 -0.22266506
-0.035472468 0.016022962 0.030272504 -0.091234274 -0.025008457 -0.01714104 0.08668148 -0.055238806
-0.095122546 -0.046339914 0.10186274 -0.041966647 -0.21413708 -0.08431387 -0.007757535 -0.020552518
0.17471327 0.13403443 -0.09706527 -0.029760564 0.0863703 -0.12940863 0.103127636 -0.19227675
-0.036351945 0.20132396 -0.02578003 0.075162 0.050363388 0.24820381 -0.073455706 0.0043018316
0.24320614 0.091046594 0.2929394 0.025613492 -0.10184299 0.2736459 0.02850592 -0.071451284
0.10063668 -0.13620465 -0.042025838 0.1177236 0.056157675 0.06872368 0.22821268 -0.06811044
-0.22618333 0.2523241 0.020324275 0.20052652 -0.10168749 0.28282318 0.24982019 0.20805973
0.028917853 -0.08524899 0.0455627 0.16569117 -0.062174883 0.16200034 -0.23502101 0.008494326
-0.09040347 0.1496799 0.25359333 0.16047746 -0.20103171 -0.014132773 -0.28900933 0.07235094
00000000: 7ffa 003e 0303 febd a56f 9bbc a4ac c5bd
00000010: 5a16 5f3c 432e 7cbd 8e5f 573e ad85 803d
00000020: 7ede 643e f6b9 503e 32c0 96bd 161b b5bd
00000030: 3688 14bd 1d7b 45be 66e8 8f3e 6c2f 60be
00000040: a07a 423e 133c 03be 48a5 d23d 4551 0abb
00000050: 79d3 e0bd 68bb 493e df2d 2b3d 51e9 f33d
00000060: c38b 243e fbc1 d63d 597e 543c 245b 8dbe
00000070: 88f8 7ebe 0f5f cdbd 9ecf 893c 13ba 213e
00000080: a031 813d 50d2 143e 94f2 e93d 5222 c4bd
00000090: 6cac 3b3e f211 cb3d 968f 353e c36e 17be
000000a0: fae9 a3be 5b47 893e 384a 69be 0804 0cbd
000000b0: 972f 1cbd 82d4 92bd 5485 3a3e 2ef6 e9bd
000000c0: b4d6 a53e 08a4 ef3d 1373 90be ddff 91bc
000000d0: e6ca 75be 3847 6dbd 837d 68be 5dba 143d
000000e0: a6b6 3d3d 2f07 233e 1daf 5b3e 9fc0 813e
000000f0: 76d7 1ebe a8df c5bc 7af0 bb3d a1bc 94bd
00000100: efac b93d 567e 563e 83ef 573e 2e92 45bd
00000110: 18dc 1d3e 8f0f 493e 302c f53d b0b0 83bd
00000120: 8d0e f63d d7a5 22bd c123 6c3d 3ae1 0e3e
00000130: 0a0e 613e 7429 083d e32d 7d3d bdc1 203e
00000140: 8c84 36be 75e5 05be 8f5c 923e 0dd2 ed3d
00000150: e620 8b3d 9b70 4d3d 57ad 743d 38b5 723e
00000160: f58f 09be 750a c33d f3ee 5abe 26f1 2cbd
00000170: 8fe2 e23d 38ac 3bbe 9f50 11be ad15 0ebe
00000180: 902e 5c3d 60f6 31bd 72ff 61be b84e f1bd
00000190: 6a9b 043e 2ad0 1ebc fa4d 95be ec46 bbbc
000001a0: bc0a d43d 1dee dfbc c800 41bd b328 61be
000001b0: 81e9 833d 5b6b 5fbe a505 f0bd 898c 5bbc
000001c0: a48d 82be 7983 8abe f315 823e f980 d43d
000001d0: c1b3 0abe 3c6d 8bbc 8c29 8d3c 6b15 54bd
000001e0: a63b be3d 0c5f 57be 3ecd 153e 044f 6ebe
000001f0: a35a 3f3d fa7e 94bd ffa0 82bd 2abe 483e
00000200: 6ea0 813e 45d6 4dbe d73f 6e3e 530d 513c
00000210: 9e67 9abd 0536 4f3d 3be6 4cbe d312 e43d
00000220: 825f d33d 7b42 73bd 8005 383e 82c8 eb3d
00000230: bf4e 7a3e f22c 01be 26c4 f1bd 8d1f 9ebc
00000240: afb9 03be ae84 713e 2fc0 be3d d19e d5bd
00000250: fa60 10bd 81b9 69be eef7 5dbe 03bc d33d
00000260: ca76 45be 151d c8bd c299 933d 4657 4abd
00000270: 46ec 823c 8758 3bbe 578b 50be bdfb 5dbe
00000280: 55bd 62bd d78e 8a3d b639 4f3d b08d 793d
00000290: 5865 803d 4b25 7ebe 8959 37be 7465 873d
000002a0: 4222 7bbc a235 91be a13a 283e 8999 f3bd
000002b0: 9deb a63e 021c 8ebe a06e ed3d 5175 053e
000002c0: 704e 2ebe 9799 7bbe 823a 023d 4ef6 ad3d
000002d0: 8022 a5bd e417 463d e234 8d3e 4f02 64be
000002e0: 944b 11bd 9642 833c 0bfe f73c 09d9 babd
000002f0: 89de ccbc 5e6b 8cbc 0f86 b13d 1642 62bd
00000300: 9ccf c2bd ecce 3dbd 6a9d d03d 38e5 2bbd
00000310: c046 5bbe c0ac acbd ec32 febb c15d a8bc
00000320: 09e8 323e 5240 093e 28ca c6bd 6dcc f3bc
00000330: e9e2 b03d b283 04be 9534 d33d 32e4 44be
00000340: c7e5 14bd de27 4e3e a430 d3bc 89ee 993d
00000350: d749 4e3d 2429 7e3e f26f 96bd 61f6 8c3b
00000360: 080b 793e a376 ba3d 27fc 953e 63d3 d13c
00000370: 0f93 d0bd 511b 8c3e 3f85 e93c 0d55 92bd
00000380: 9b1a ce3d 3b79 0bbe 4923 2cbd 1219 f13d
00000390: 9705 663d 00bf 8c3d 96b0 693e 7d7d 8bbd
000003a0: 9a9c 67be a030 813e 187f a63c d356 4d3e
000003b0: 8841 d0bd 33ce 903e ddd0 7f3e 9c0d 553e
000003c0: 22e5 ec3c 0697 aebd f49f 3a3d f2aa 293e
000003d0: 17ab 7ebd 6be3 253e 59a9 70be c92b 0b3c
000003e0: 7425 b9bd b045 193e fcd6 813e 3454 243e
000003f0: 42db 4dbe 258d 67bc 08f9 93be bb2c 943d

fc_layers.4.bias f4 [64]
0.1311951 -0.15585484 -0.017985674 -0.06108139 0.116047956 0.141517 0.040240675 -0.050733905
0.029885769 0.033139665 0.14020923 -0.08775662 0.06188081 0.17145135 -0.086048774 -0.049604
0.065238014 0.10752288 -0.048103176 0.022324128 0.07917686 -0.034926295 -0.08475621 -0.010969062
0.029619213 -0.13816218 -0.14684884 -0.074668236 -0.20412453 -0.10558027 0.017620841 0.078188114
0.029979484 -0.031333428 -0.041461967 -0.12708347 0.15246688 0.011226114 0.1856258 -0.07335031
0.021395402 -0.03349008 0.008874623 -0.041047115 0.05241188 0.06280827 0.12855923 -0.08306099
0.016712531 0.047449253 0.16880116 -0.13025996 -0.14418639 -0.13445064 -0.08221812 0.09743277
-0.08176103 -0.05458592 0.048478227 -0.100822195 -0.17748491 -0.07822605 0.016373863 -0.04796899
00000000: 0258 063e 6998 1fbe b156 93bc 7b30 7abd
00000010: 8daa ed3d d5e9 103e 68d3 243d 5bce 4fbd
00000020: 00d3 f43c 75bd 073d 0293 0f3e beb9 b3bd
00000030: bb76 7d3d f190 2f3e 573a b0bd 902d 4bbd
00000040: 829b 853d f534 dc3d d607 45bd 17e1 b63c
00000050: 7a27 a23d e00e 0fbd aa94 adbd 95b7 33bc
00000060: fea3 f23c 637a 0dbe 8b5f 16be a9eb 98bd
00000070: 0506 51be 783a d8bd 9559 903c 1721 a03d
00000080: 8997 f53c 7b57 00bd 06d4 29bd 2b22 02be
00000090: 4720 1c3e bced 373c b114 3e3e b038 96bd
000000a0: 6945 af3c e52c 09bd de66 113c 0521 28bd
000000b0: d7ad 563d 9fa1 803d 08a5 033e e11b aabd
000000c0: b8e8 883c 265a 423d 36da 2c3e de62 05be
000000d0: 99a5 13be 6ead 09be f961 a8bd d58a c73d
000000e0: 5472 a7bd 7c95 5fbd 1b91 463d de7b cebd
000000f0: 9bbe 35be fb34 a0bd 7b22 863c 227b 44bd

fc_layers.6.weight f4 [38, 64]
0.30356592 -0.260323 -0.005832958 0.043351855 0.26930076 -0.2557398 0.34082595 -0.30280033
0.07037 0.365022 0.17009385 -0.23264958 0.075647525 -0.1252361 0.27274215 0.14615957
-0.04156844 -0.017182505 0.17706785 0.30915216 -0.17055029 -0.0049122744 0.05655598 -0.28379774
0.06080751 -0.16417134 -0.3126809 0.36617 -0.06923818 0.19656949 0.15852244 0.0066221836
-0.08307582 -0.3534208 -0.041420057 -0.044898286 0.111152 0.3659697 0.23606864 -0.0033358682
0.36723533 0.09432094 -0.2753079 -0.28683752 -0.0061424617 0.2610178 -0.31987295 0.035705194
0.28781876 0.26739034 0.310601 0.25100678 -0.22244377 -0.34511796 -0.12995961 0.17306243
-0.046363566 -0.27777326 -0.045907747 0.2783797 0.09873562 0.013484185 0.31226933 -0.18875869
0.00891851 -0.19758245 -0.1399705 -0.057459697 0.055202026 -0.009050115 0.2335176 -0.21796373
0.32398304 0.084360234 -0.015036182 0.12616384 -0.19608779 -0.14578047 0.3366463 0.38625893
0.3732505 -0.0027177096 0.12124742 0.38178128 -0.33752394 0.050621558 -0.024415156 -0.36249065
0.3069573 -0.16330947 -0.36762974 0.017871669 -0.18189217 0.22352079 -0.06216692 -0.30955717
0.3431069 -0.102223046 0.26885608 -0.11596235 0.24282974 0.06294494 0.017510653 -0.14659059
0.28407404 -0.26997337 -0.22060697 -0.16066825 0.07478963 0.36889446 -0.12821585 -0.30050218
0.30120584 0.19487484 -0.030947914 -0.09396331 -0.22681093 -0.30595413 -0.091877155 0.1801034
-0.04118069 -0.07190614 -0.21982877 0.29131183 0.05030062 0.10550667 0.18996978 -0.3254853
0.25105926 -0.13483013 -0.35704303 -0.0018246177 0.31831723 -0.0077910414 0.33518124 0.068399824
0.33093685 -0.016706355 0.19544561 0.101799615 -0.22282863 0.12196773 0.024547497 0.31984332
0.26114464 -0.2663676 0.3786937 0.25076362 -0.34793186 -0.35169044 0.26617977 -0.28907388
-0.06698542 0.0249229 -0.30194446 0.26181564 -0.09209473 0.14288105 0.27080896 -0.36150584
0.2264036 -0.12910886 -0.045527097 -0.33390015 0.23689641 0.12082579 -0.09727058 -0.25370932
0.35484448 -0.08220533 -0.08206934 0.09937084 -0.13173153 0.1958922 0.005748235 -0.07000104
0.12851094 0.11118964 0.22307952 -0.08853926 -0.20140156 -0.3459642 -0.12316271 0.025195727
0.05512736 0.04857264 -0.25445104 0.37081146 -0.3384278 -0.18459001 0.08836363 0.10801866
0.15599194 -0.37440163 -0.1684058 0.026058385 -0.04702189 -0.016244968 0.32370314 -0.26825032
0.14092337 0.32913578 -0.03252991 -0.20760457 -0.043816753 -0.07669305 0.3259746 0.119254015
0.06523826 -0.35045993 0.18706076 -0.028786315 -0.36293164 -0.13356493 0.26836655 -0.22652249
0.20033695 -0.2228015 -0.2632973 0.06115893 -0.00918606 0.22135179 0.060232963 -0.31540295
-0.011030891 0.07995152 0.28987432 0.028689653 0.28213793 0.07563679 0.2584087 -0.00049394154
-0.004612808 -0.22474407 -0.30870396 -0.20361619 -0.011699053 0.16505192 -0.13694721 -0.1530677
-0.005467788 0.23739283 0.224426 0.28657097 -0.3227848 -0.0074136527 0.08414516 0.1809559
0.27398124 -0.1675428 -0.36868057 -0.039466325 -0.07333071 -0.059978772 0.34796277 -0.07564916
00000000: fe6c 9b3e 0e49 85be 6622 bfbb b791 313d
00000010: cae1 893e 54f0 82be bd80 ae3e a508 9bbe
00000020: 261e 903d 2ae4 ba3e 152d 2e3e b13b 6ebe
00000030: 17ed 9a3d e43d 00be dca4 8b3e dbaa 153e
00000040: ab43 2abd 53c2 8cbc 4651 353e 3149 9e3e
00000050: bca4 2ebe 25f7 a0bb 3ea7 673d f04d 91be
00000060: 4c11 793d 881c 28be b617 a0be a27a bb3e
00000070: bfcc 8dbd 8349 493e b553 223e e7fe d83b
00000080: a823 aabd 92f3 b4be 14a8 29bd 44e7 37bd
00000090: a9a3 e33d 6160 bb3e fabb 713e 959e 5abb
000000a0: 4506 bc3e 562b c13d 28f5 8cbe 5edc 92be
000000b0: b446 c9bb 20a4 853e 63c6 a3be 9c3f 123d
000000c0: fb5c 933e 63e7 883e 1807 9f3e f683 803e
000000d0: 4dc8 63be 4db3 b0be 2214 05be 4737 313e
000000e0: b9e7 3dbd 4c38 8ebe c309 3cbd c987 8e3e
000000f0: e735 ca3d c5ec 5c3c c4e1 9f3e f549 41be
00000100: f11e 123c 0e53 4abe 6d54 0fbe dc5a 6bbd
00000110: 851b 623d ef46 14bc 3d1f 6f3e e231 5fbe
00000120: 1be1 a53e 0fc5 ac3d 515a 76bc 1831 013e
00000130: 3dcb 48be 7a47 15be e75c ac3e bbc3 c53e
00000140: b11a bf3e 9a1b 32bb 9150 f83d d678 c33e
00000150: f0cf acbe 8d58 4f3d 4b02 c8bc 6098 b9be
00000160: 8229 9d3e 993a 27be f739 bcbe 9b67 923c
00000170: f141 3abe a2e2 643e bea2 7ebd 477e 9ebe
00000180: b5ab af3e 515a d1bd 81a7 893e ab7d edbd
00000190: 5ca8 783e 47e9 803d 8072 8f3c d81b 16be
000001a0: 2772 913e f339 8abe cbe6 61be 3886 24be
000001b0: 4e2b 993d bcdf bc3e 044b 03be 6cdb 99be
000001c0: a737 9a3e 458d 473e 7b86 fdbc d66f c0bd
000001d0: 2041 68be 05a6 9cbe 172a bcbd 076d 383e
000001e0: 15ad 28bd 8743 93bd cb1a 61be d326 953e
000001f0: 0608 4e3d e213 d83d 7087 423e 02a6 a6be
00000200: d78a 803e e910 0abe 58ce b6be 0328 efba
00000210: 7afa a23e fe4b ffbb e09c ab3e 3515 8c3d
00000220: 8e70 a93e c4db 88bc e522 483e 517c d03d
00000230: 302d 64be 38ca f93d d517 c93c 81c2 a33e
00000240: c0b4 853e 5661 88be 24e4 c13e 1764 803e
00000250: 2024 b2be c510 b4be b748 883e 7e01 94be
00000260: a72f 89bd 1c2b cc3c 7798 9abe b30c 863e
00000270: 299c bcbd 694f 123e 79a7 8a3e 4b17 b9be
00000280: 58d6 673e 1d35 04be 9f7a 3abd f6f4 aabe
00000290: f994 723e 8373 f73d cc35 c7bd 30e6 81be
000002a0: 2dae b53e 455b a8bd f813 a8bd f082 cb3d
000002b0: a1e4 06be f797 483e b15b bc3b b55c 8fbd
000002c0: 5f98 033e 65b7 e33d f56e 643e 1254 b5bd
000002d0: 363c 4ebe 3822 b1be bb3c fcbd 4567 ce3c
000002e0: 3acd 613d 1bf4 463d 6847 82be 00db bd3e
000002f0: 6946 adbe 2a05 3dbe fef7 b43d e338 dd3d
00000300: 5abc 1f3e 92b1 bfbe 9272 2cbe 6578 d53c
00000310: 069a 40bd 2b14 85bc 6bbc a53e 1b58 89be
00000320: 374e 103e 7c84 a83e 153e 05bd 4b96 54be
00000330: 3279 33bd 3f11 9dbd 25e6 a63e 733b f43d
00000340: a39b 853d 7c6f b3be db8c 3f3e 47d1 ebbc
00000350: 2dd2 b9be 3fc5 08be 5767 893e 83f5 67be
00000360: 2125 4d3e 1426 64be e7ce 86be c981 7a3d
00000370: 2181 16bc 0baa 623e d7b6 763d 7f7c a1be
00000380: e9ba 34bc 9fbd a33d 686a 943e 9006 eb3c
00000390: 6274 903e 76e7 9a3d 254e 843e db7b 01ba
000003a0: 0a27 97bb 4f23 66be 720e 9ebe c380 50be
000003b0: 63ad 3fbc 5f03 293e e43b 0cbe c7bd 1cbe
000003c0: 212b b3bb 1b17 733e eecf 653e 6eb9 923e
000003d0: 0d44 a5be 3aee f2bb 4c54 ac3d 814c 393e
000003e0: 4547 8c3e 5790 2bbe b3c3 bcbe 71a7 21bd
000003f0: 692e 96bd 4dac 75bd 2d28 b23e f2ed 9abd

fc_layers.6.bias f4 [38]
0.025050897 0.068689644 0.14131716 0.096260846 0.044947498 0.058583573 0.01085155 0.24285936
0.15191023 0.0055717337 0.040407415 0.13942553 0.15943156 0.0800846 0.048419777 0.22609533
0.110540114 0.15606847 0.18732283 0.120795965 0.15108867 -0.0043592653 0.051305562 0.042532027
0.019444162 0.13632524 0.06525973 0.09340251 0.16161405 0.22616574 0.018656973 0.17023258
0.17308742 0.18195371 0.31864765 -0.1162903 0.14479509 -0.06620692
00000000: 8a37 cd3c 28ad 8c3d 72b5 103e 6824 c53d
00000010: de1a 383d 54f5 6f3d b3ca 313c 20b0 783e
00000020: 5b8e 1b3e 1793 b63b 3f82 253d 91c5 0e3e
00000030: 0742 233e 6503 a43d d153 463d 8985 673e
00000040: db62 e23d 6ad0 1f3e 8ed1 3f3e e063 f73d
00000050: fdb6 1a3e 2bd8 8ebb c825 523d 1036 2e3d
00000060: 5d49 9f3c d898 0b3e e5a6 853d d149 bf3d
00000070: 277e 253e fe97 673e 82d6 983c 7351 2e3e
00000080: d43d 313e 1352 3a3e c925 a33e 9c29 eebd
00000090: 2a45 143e 7e97 87bd
