TrainedModel/DQNwithrewardhelper/4200_0-0355_DQNwithrewardhelper.pth (torch, 740948 bytes, 26 tensors)

fc_layers.1.weight f4 [816]
0	0x3f677aeb	0.9042193
1	0x3f714eee	0.9426106
2	0x3f874ab1	1.0569669
3	0x3f81881e	1.0119665
4	0x3f78e7e1	0.9722882
5	0x3f6b0250	0.91800404
6	0x3f865f35	1.0497805
7	0x3f830874	1.0236955
8	0x3f718351	0.94341
9	0x3f75cbe3	0.9601423
10	0x3f8931eb	1.0718359
11	0x3f835c4f	1.0262545
12	0x3f7c48ff	0.98548883
13	0x3f75bfda	0.9599587
14	0x3f828702	1.0197451
15	0x3f7b0333	0.98051757
16	0x3f74a406	0.9556278
17	0x3f7b792c	0.9823177
18	0x3f805fc4	1.0029225
19	0x3f85dcb3	1.0457977
20	0x3f7ccfb3	0.98754424
21	0x3f6d6213	0.92727774
22	0x3f7dc180	0.9912338
23	0x3f830a81	1.023758
24	0x3f756b21	0.9586659
25	0x3f7452af	0.95438665
26	0x3f803a4f	1.0017794
27	0x3f819a90	1.0125294
28	0x3f720884	0.94544244
29	0x3f788409	0.9707647
30	0x3f833507	1.0250558
31	0x3f819bd1	1.0125676
32	0x3f6ce2f3	0.925338
33	0x3f75319f	0.9577884
34	0x3f7b805e	0.9824275
35	0x3f7dc82b	0.9913356
36	0x3f7517ee	0.9573964
37	0x3f74555a	0.95442736
38	0x3f8425a1	1.0323983
39	0x3f801d1a	1.0008881
40	0x3f755618	0.95834494
41	0x3f77b044	0.96753335
42	0x3f8a0a2e	1.0784357
43	0x3f8197fa	1.0124505
44	0x3f782359	0.96928936
45	0x3f75f559	0.96077496
46	0x3f7d29c0	0.9889183
47	0x3f7f1b7c	0.9965131
48	0x3f7bbbe6	0.98333585
49	0x3f6f32e8	0.9343705
50	0x3f7da8a6	0.9908546
51	0x3f84f651	1.038767
52	0x3f7681f8	0.96292067
53	0x3f71c106	0.94435155
54	0x3f88bacd	1.0682007
55	0x3f8318fe	1.0242002
56	0x3f7b740a	0.98223937
57	0x3f77112b	0.9651057
58	0x3f8d3e6a	1.1034672
59	0x3f801e43	1.0009235
60	0x3f7cf281	0.9880753
61	0x3f7841c8	0.96975374
62	0x3f8acb61	1.0843316
63	0x3f814669	1.0099612
64	0x3f72daf8	0.9486537
65	0x3f7ccdbb	0.9875142
66	0x3f81503b	1.0102609
67	0x3f7dba82	0.99112713
68	0x3f7788bf	0.9669303
69	0x3f77f17d	0.96852857
70	0x3f8a502c	1.0805717
71	0x3f7d0e20	0.9884968
72	0x3f78acef	0.97138876
73	0x3f74e12a	0.95656073
74	0x3f820c26	1.0159957
75	0x3f8099e9	1.004697
76	0x3f7b1292	0.9807521
77	0x3f6eef65	0.9333404
78	0x3f86e75a	1.0539353
79	0x3f850df3	1.0394882
80	0x3f736f9d	0.95092183
81	0x3f70b28e	0.9402245
82	0x3f7d084e	0.98840797
83	0x3f829122	1.0200541
84	0x3f72e4f8	0.9488063
85	0x3f7800d1	0.96876246
86	0x3f8903c4	1.0704274
87	0x3f86f3d9	1.0543166
88	0x3f7fa5b5	0.99862224
89	0x3f721472	0.9456245
90	0x3f88c165	1.0684019
91	0x3f7d84c7	0.9903073
92	0x3f792d45	0.973347
93	0x3f77c258	0.9678092
94	0x3f81096e	1.0081003
95	0x3f80cf00	1.0063171
96	0x3f76cbad	0.96404535
97	0x3f729930	0.94764996
98	0x3f895e2d	1.0731865
99	0x3f7c20ea	0.9848772
100	0x3f74ec69	0.95673233
101	0x3f6fc9b1	0.9366713
102	0x3f821029	1.0161182
103	0x3f80488d	1.0022141
104	0x3f73b43e	0.951969
105	0x3f7767fb	0.96643037
106	0x3f8a6bd6	1.0814159
107	0x3f806621	1.0031167
108	0x3f7d49a1	0.98940474
109	0x3f78e5da	0.97225726
110	0x3f8975ed	1.0739113
111	0x3f7f758a	0.99788725
112	0x3f77300d	0.96557695
113	0x3f74f8ae	0.95691955
114	0x3f7c6f8c	0.9860771
115	0x3f7d5663	0.9895994
116	0x3f79be10	0.9755564
117	0x3f776f88	0.9665456
118	0x3f89a316	1.0752895
119	0x3f7ebda3	0.9950811
120	0x3f800ef2	1.0004561
121	0x3f750016	0.95703256
122	0x3f8af160	1.0854912
123	0x3f8126dd	1.0089985
124	0x3f728e82	0.947487
125	0x3f758a01	0.959137
126	0x3f89b16a	1.0757267
127	0x3f806e23	1.0033611
128	0x3f7bceee	0.98362625
129	0x3f706575	0.9390481
130	0x3f801ea7	1.0009354
131	0x3f7db715	0.99107486
132	0x3f74bcdf	0.95600694
133	0x3f775380	0.96611786
134	0x3f8b9af7	1.0906667
135	0x3f7f9601	0.9983826
136	0x3f735a2d	0.9505947
137	0x3f759782	0.9593431
138	0x3f76f939	0.96474034
139	0x3f81d9a4	1.0144544
140	0x3f7393a1	0.9514714
141	0x3f76bfc5	0.9638637
142	0x3f7b0bed	0.9806507
143	0x3f7dee21	0.9919148
144	0x3f71287a	0.9420239
145	0x3f77906e	0.9670476
146	0x3f7a6536	0.97810686
147	0x3f7ea7fd	0.9947508
148	0x3f76bfec	0.963866
149	0x3f6e549a	0.9309784
150	0x3f7bb369	0.98320633
151	0x3f855bd0	1.0418644
152	0x3f70657a	0.9390484
153	0x3f7278f0	0.94715786
154	0x3f7bdf1a	0.983873
155	0x3f7fe75a	0.9996239
156	0x3f6da450	0.92828846
157	0x3f7413b0	0.9534254
158	0x3f7a7e3e	0.9784888
159	0x3f800fd9	1.0004836
160	0x3f727ba7	0.9471993
161	0x3f75801d	0.9589861
162	0x3f7d8750	0.99034595
163	0x3f81f7a9	1.0153705
164	0x3f790fce	0.9728974
165	0x3f70c67c	0.94052863
166	0x3f7b2ff0	0.9812002
167	0x3f81de7c	1.0146022
168	0x3f73b487	0.9519734
169	0x3f757d18	0.95894
170	0x3f7ccd2f	0.98750585
171	0x3f830d43	1.0238422
172	0x3f695533	0.9114563
173	0x3f75bc78	0.95990705
174	0x3f7d637f	0.98979944
175	0x3f7f5a1e	0.9974688
176	0x3f725456	0.94659936
177	0x3f7c2977	0.9850077
178	0x3f77e1a3	0.9682867
179	0x3f81dcb9	1.0145484
180	0x3f727752	0.9471332
181	0x3f75e253	0.9604847
182	0x3f7642e8	0.9619584
183	0x3f814cb2	1.010153
184	0x3f7552c9	0.95829445
185	0x3f71baf0	0.9442587
186	0x3f774c05	0.9660037
187	0x3f82d61e	1.0221593
188	0x3f6e8a6d	0.9317997
189	0x3f70c937	0.9405703
190	0x3f7c20bc	0.9848745
191	0x3f7d4d71	0.9894629
192	0x3f717b99	0.9432922
193	0x3f72e20d	0.94876176
194	0x3f795b85	0.9740527
195	0x3f81d707	1.0143746
196	0x3f704747	0.9385876
197	0x3f6dc331	0.92875963
198	0x3f7dc2d9	0.9912544
199	0x3f8050b6	1.0024631
200	0x3f794488	0.97370195
201	0x3f7ab2df	0.97929186
202	0x3f7bb23b	0.98318833
203	0x3f7fc889	0.9991537
204	0x3f72986a	0.94763815
205	0x3f6c7bfc	0.92376685
206	0x3f7f9145	0.9983104
207	0x3f850702	1.0392764
208	0x3f710403	0.94146746
209	0x3f702c5c	0.9381769
210	0x3f7d5ece	0.98972785
211	0x3f815ec7	1.0107049
212	0x3f744e24	0.95431733
213	0x3f735ce7	0.9506363
214	0x3f7db511	0.9910441
215	0x3f826890	1.018816
216	0x3f7326d1	0.94981104
217	0x3f73bf4c	0.9521377
218	0x3f781555	0.9690755
219	0x3f7d1425	0.98858863
220	0x3f72694a	0.9469191
221	0x3f7977db	0.9744851
222	0x3f7cd5af	0.98763555
223	0x3f81145a	1.0084336
224	0x3f6ec60c	0.93270946
225	0x3f71bf43	0.9443247
226	0x3f804c38	1.002326
227	0x3f80f81c	1.0075717
228	0x3f72ff0b	0.94920415
229	0x3f79584c	0.97400355
230	0x3f81b01d	1.013187
231	0x3f81ded3	1.0146126
232	0x3f725439	0.94659764
233	0x3f75c87a	0.9600903
234	0x3f7c3f52	0.9853412
235	0x3f80af20	1.0053444
236	0x3f73f554	0.95296216
237	0x3f722330	0.9458494
238	0x3f808d24	1.0043073
239	0x3f80c919	1.006137
240	0x3f6fbb19	0.93644863
241	0x3f70d75f	0.9407863
242	0x3f74cc31	0.9562407
243	0x3f816fa7	1.0112199
244	0x3f74612d	0.9546078
245	0x3f77603c	0.96631217
246	0x3f7cea0c	0.9879463
247	0x3f83346a	1.025037
248	0x3f781f5b	0.96922845
249	0x3f7498c1	0.95545584
250	0x3f7ca822	0.9869405
251	0x3f8078cc	1.0036864
252	0x3f7090fc	0.9397123
253	0x3f762f2b	0.9616572
254	0x3f7e3d2e	0.993121
255	0x3f7ec1fd	0.9951475

fc_layers.1.bias f4 [816]
0	0x3c2ddd23	0.010611805
1	0xbcd81238	-0.026375875
2	0xb983ac7b	-0.00025114775
3	0x3d91cfcb	0.071197115
4	0xbd25a038	-0.040436
5	0xbdd110fe	-0.10208319
6	0x3cde85f4	0.027163483
7	0xbce3c3db	-0.027803352
8	0x3d02ee8f	0.03196579
9	0x3d0ab1f3	0.03386111
10	0xbc918768	-0.017764762
11	0x3ce6d3c2	0.028177146
12	0xbdb4376a	-0.08799632
13	0x3c6ce119	0.014457964
14	0xbc47812d	-0.012176794
15	0x3ce30497	0.02771215
16	0xbda45e09	-0.08025748
17	0xbbd819ce	-0.006594873
18	0x3d6dd149	0.058060918
19	0x3c626eca	0.0138203595
20	0x3bf35f1c	0.0074271094
21	0xbc51e5e8	-0.012811162
22	0x3c84bae8	0.016202405
23	0xbcbfaa12	-0.023396526
24	0xbd97836b	-0.07398113
25	0xbdc347a5	-0.095351495
26	0xbba0d696	-0.004908393
27	0x3cbdc4fd	0.02316522
28	0x3d36c7db	0.04462419
29	0xbd288e4e	-0.041151337
30	0x3bcc83e7	0.00624131
31	0x3ca9fdb4	0.020750858
32	0xbd37e249	-0.044893537
33	0xbd88f6ce	-0.06687699
34	0xbcc881f6	-0.024476033
35	0x3cdc4b3e	0.026891347
36	0xbd27b2d7	-0.04094204
37	0x3c671400	0.014103889
38	0xbc609593	-0.013707536
39	0x3cd22af2	0.025655244
40	0x3c81033e	0.015748616
41	0x3d4d64e1	0.050145034
42	0x3c28647c	0.010277864
43	0x3cbf50a0	0.023353875
44	0xbd5c5094	-0.053787783
45	0xbc574f57	-0.013141475
46	0x3bb940cf	0.0056534777
47	0xbcad2b4b	-0.021138808
48	0x3c9009f5	0.017582873
49	0xbc5e7ffd	-0.0135803195
50	0x3b25cf6c	0.0025300635
51	0xbcbb4a94	-0.02286271
52	0x3d75b977	0.059991326
53	0x3d8a243c	0.067451924
54	0xbab4081b	-0.0013735326
55	0x3c8c706b	0.017143449
56	0xbd6a16c6	-0.057150625
57	0x3c122f61	0.008922429
58	0xbbf3e443	-0.0074429824
59	0xbcbcb93c	-0.023037545
60	0xbda5b330	-0.08090818
61	0x3a329c63	0.00068134646
62	0x3a2d401a	0.0006608978
63	0xbcbca9cb	-0.023030182
64	0xbcaa76a5	-0.020808527
65	0xbd17ff03	-0.037108433
66	0x3cc98ed1	0.024604233
67	0x3cd6ae63	0.026206201
68	0x3c194187	0.009354002
69	0x3d529238	0.051408976
70	0xbc9c020d	-0.019043947
71	0xbcc209a1	-0.023686232
72	0xbd6141f4	-0.05499454
73	0xbd39866c	-0.04529421
74	0xbdad67f6	-0.084670946
75	0x3cee64c9	0.029100792
76	0xbd6adf83	-0.057342064
77	0x3d5860fe	0.052826874
78	0xbc7af93f	-0.015318214
79	0x3ced6650	0.02897945
80	0xbd0f189e	-0.034935586
81	0xbd7e0144	-0.062012926
82	0xbd74528a	-0.059649028
83	0xbccc8099	-0.024963664
84	0xbcb693cb	-0.02228727
85	0x3b16df05	0.0023021114
86	0xbc58e6c3	-0.013238612
87	0x3c9f4d8e	0.01944616
88	0x3b9eb11a	0.0048428895
89	0xbcacdb0c	-0.021100543
90	0x3c0bf028	0.008541144
91	0x3c2c991d	0.010534552
92	0xbd835b5f	-0.06413912
93	0x3cc484c5	0.02398909
94	0xbc783b6d	-0.015150887
95	0x3caa624d	0.020798827
96	0xbd0c4b5c	-0.034251556
97	0xbd130d84	-0.03590156
98	0x3cfe9975	0.031079033
99	0xbcc29167	-0.023750974
100	0xbd0b32e7	-0.03398409
101	0xbd59c663	-0.053167712
102	0xbbc5ef07	-0.006040457
103	0x3d8a5353	0.06754174
104	0xbc57bd2f	-0.0131676635
105	0x3d0a895b	0.0338224
106	0xbc667155	-0.014065106
107	0xbcbc7b4f	-0.023008017
108	0xbd3f3ecc	-0.046690747
109	0x3db9bda4	0.09069374
110	0xbbdb785b	-0.006697697
111	0xbc837c56	-0.016050499
112	0xbd68bb6b	-0.05681936
113	0xbdad8463	-0.084725164
114	0xbd611340	-0.05495
115	0x3ce98a57	0.028508348
116	0x3c0498e6	0.008093094
117	0x3cf6b9d9	0.030117916
118	0xbbb0cc52	-0.0053954506
119	0xbce27140	-0.027641892
120	0xbc1761e1	-0.009239645
121	0xbab0ddc7	-0.0013493829
122	0x3be64f58	0.0070285015
123	0xbcb13c74	-0.021635272
124	0xbd25ed77	-0.040509667
125	0x3d2bc19e	0.041932695
126	0xbc701c42	-0.014655175
127	0xbcf0825b	-0.029359033
128	0xbd989590	-0.07450402
129	0xbdc80df3	-0.097682856
130	0xbbdbd5a6	-0.0067088185
131	0xbce4bd35	-0.027922252
132	0xbd21b3a1	-0.039477948
133	0x3d9dacdb	0.07698985
134	0x3ba5fcd1	0.0050655385
135	0xbced1f32	-0.02894554
136	0x3d1b0776	0.037848912
137	0xbd32b494	-0.043629244
138	0xbcec711a	-0.028862525
139	0x3b154afe	0.0022780295
140	0x3d43d990	0.047814906
141	0x3cbb2183	0.022843128
142	0xbbf09ffb	-0.00734329
143	0x3c16667c	0.009179708
144	0x3dc5e963	0.096636556
145	0x3aad6446	0.0013228736
146	0x3c823de9	0.015898662
147	0x3bb644c1	0.0055623953
148	0x3ddd8cf2	0.10817899
149	0x3bb3a226	0.005481976
150	0x3c8ed34e	0.017434742
151	0x3d4b2b5e	0.049601905
152	0xbc511c58	-0.012763105
153	0xbcd9af14	-0.026572742
154	0xbd4d150c	-0.0500689
155	0xbc5302a4	-0.012879048
156	0x3c908ab2	0.01764426
157	0xbd08b80a	-0.03337864
158	0x3d96adb6	0.073573515
159	0x3d269d87	0.040677574
160	0x3d3b2a47	0.045694616
161	0x3bdf8e52	0.006822386
162	0x3d3b1644	0.04567553
163	0x3def1544	0.11673978
164	0xbbac3e53	-0.005256453
165	0xbd4787c7	-0.04871347
166	0xbb23441a	-0.0024912418
167	0x3d2f809b	0.042847257
168	0xbb2c1570	-0.0026257895
169	0xbc9d5372	-0.019204829
170	0xbc694d33	-0.014239597
171	0x3c4b54e0	0.0124103725
172	0x3d85fc8f	0.06542312
173	0x3c978851	0.018497618
174	0xbcd1b750	-0.025600106
175	0x3c90eb96	0.017690461
176	0xbd2e9571	-0.042622987
177	0xbb76e8e5	-0.0037675437
178	0x3cf06502	0.02934504
179	0x3dc9a102	0.09845163
180	0x3bf0fd09	0.007354383
181	0x3c7814bc	0.015141662
182	0x3c282a90	0.010264054
183	0x3da617ac	0.08109984
184	0x3c34c393	0.011032957
185	0xbccf3364	-0.02529306
186	0x3c68d0bf	0.014209925
187	0xbc4374f0	-0.011929736
188	0x3d8e2d90	0.06942284
189	0x3ca8e8b4	0.020618774
190	0xbce529ca	-0.027974028
191	0xbc6b6b44	-0.014368836
192	0xbbdd32b1	-0.0067504277
193	0xbd09c4bd	-0.03363489
194	0xbc24bb10	-0.010054365
195	0x3cc5c7c7	0.024143113
196	0x3bc61c7c	0.006045876
197	0xbc056d26	-0.008143699
198	0x3d950927	0.07277136
199	0xbc46ed8c	-0.0121415965
200	0xbc56d55e	-0.013112394
201	0x3c9ee814	0.019397773
202	0x3c805557	0.015665693
203	0x3d445eae	0.047941856
204	0x3d883d0c	0.06652269
205	0x3ca21506	0.019785415
206	0x3c75e2d6	0.015007695
207	0x3d9fb1a8	0.07797557
208	0x3ca56c31	0.020193191
209	0xbd3b1646	-0.04567554
210	0x3b20813e	0.0024491097
211	0xbc39c1a3	-0.0113376705
212	0xbcc39426	-0.023874354
213	0x3c45f114	0.012081403
214	0x3c8e0aad	0.017339075
215	0x3dcaa610	0.09894955
216	0xbd394cdd	-0.04523932
217	0x3d32a0f7	0.04361054
218	0x3d49cdbd	0.049268473
219	0x3cbe8ecc	0.02326145
220	0xbcb40d97	-0.021979136
221	0xbc1e8221	-0.00967458
222	0x3d6edecb	0.05831794
223	0xbcab5b86	-0.020917665
224	0x3d503e13	0.05084045
225	0x3c0e82da	0.00869819
226	0x3d959af0	0.073049426
227	0x3d256b7b	0.040385704
228	0x3d0e5f9a	0.03475914
229	0x3d5e682c	0.054298565
230	0xbbb79663	-0.0056026443
231	0x3d56577c	0.052329525
232	0xbb389bb4	-0.0028168978
233	0xbbbb809b	-0.005722118
234	0x3c6688bb	0.014070685
235	0x3c490b8e	0.012270821
236	0x3dd26e74	0.102749735
237	0xbce3fa5c	-0.027829342
238	0x3cfd78c8	0.030941382
239	0x3d4c1781	0.049827103
240	0xbcee3464	-0.029077716
241	0x3b43fc81	0.0029905143
242	0x3cf201ef	0.029541938
243	0x3cf43ba6	0.029813599
244	0x3c485442	0.01222712
245	0xbc82565a	-0.015910316
246	0x3b1a72d9	0.002356699
247	0x3deebbb8	0.11656898
248	0x3d8d6ed4	0.069059044
249	0xbd0b73ea	-0.03404609
250	0xbb57119f	-0.00328169
251	0x3c59707a	0.013271445
252	0xbb07be75	-0.0020712886
253	0xbcfda810	-0.030963928
254	0xbcd81508	-0.026377216
255	0x3cad46ef	0.021151988

fc_layers.1.running_mean f4 [816]
0	0x3e7e262e	0.24819252
1	0x3d7c390b	0.061577838
2	0x3c41748b	0.011807571
3	0x362883db	2.51107e-06
4	0x3e8e24df	0.27762505
5	0x3d5ec47e	0.05438661
6	0x3c8374e4	0.016046949
7	0x3b4e1bc2	0.003144965
8	0x3e852685	0.2600595
9	0x3d9f7d80	0.07787609
10	0x3c225e03	0.009910109
11	0x00000004	6e-45
12	0x3e876dbc	0.26450908
13	0x3d9e2052	0.07721008
14	0x3c812043	0.015762454
15	0x388bafb7	6.660766e-05
16	0x3e901921	0.28144172
17	0x3d5b22f2	0.053500123
18	0x3bfd3b7a	0.0077280374
19	0x37a3bd04	1.9519131e-05
20	0x3e87fcd9	0.26560095
21	0x3d6ecd8b	0.05830149
22	0x3c3d6aa1	0.011561067
23	0x392ed30f	0.00016672559
24	0x3e881d69	0.26584938
25	0x3dacd1b4	0.08438435
26	0x3cc56e7b	0.024100533
27	0x39a84620	0.00032095704
28	0x3e81fbe9	0.25387505
29	0x3d821efa	0.063535646
30	0x3b1aaf14	0.002360289
31	0x00000004	6e-45
32	0x3e6a51bf	0.22882746
33	0x3d99a670	0.075024486
34	0x3cd8589f	0.026409445
35	0x00000004	6e-45
36	0x3e57b85b	0.2106642
37	0x3d9be9b3	0.07612934
38	0x3c907386	0.01763321
39	0x3ad306d2	0.0016100055
40	0x3e5d217f	0.21594809
41	0x3d3bd70d	0.045859385
42	0x3bd1ebf9	0.006406304
43	0x073c2ca2	1.4156664e-34
44	0x3e60c53a	0.21950236
45	0x3d5b0555	0.053471882
46	0x3c1b5dda	0.009482825
47	0x3ac4726f	0.0014987717
48	0x3e6b93f8	0.23005664
49	0x3d49d1fc	0.049272522
50	0x3be7bfa2	0.007072405
51	0x00000004	6e-45
52	0x3e7ab330	0.24482417
53	0x3d3eac9d	0.046551336
54	0x3c292b76	0.010325303
55	0x3b63bcd4	0.0034750002
56	0x3e5c43fc	0.21510309
57	0x3d05cde0	0.03266704
58	0x3b8dc563	0.004326509
59	0x0401c49f	1.5254161e-36
60	0x3e5b4b8c	0.21415538
61	0x3d52f819	0.051506136
62	0x3bc55e2a	0.006023188
63	0x30a930c2	1.2310226e-09
64	0x3e6133fa	0.21992484
65	0x3d584aa9	0.052805576
66	0x3c597ada	0.013273919
67	0x3130478d	2.5652043e-09
68	0x3e328123	0.17432074
69	0x3d1fd4a1	0.039021138
70	0x3c0887c7	0.008333153
71	0x3b16c0ce	0.0023003104
72	0x3e282cbd	0.16423316
73	0x3d09b9a1	0.033624295
74	0x3b125b53	0.0022332266
75	0x00000004	6e-45
76	0x3e50e173	0.20398502
77	0x3d432f71	0.047652666
78	0x3bf2fc68	0.007415343
79	0x2ca22e8c	4.6094847e-12
80	0x3e64a24f	0.22327541
81	0x3d218ceb	0.03944103
82	0x3a931ed2	0.0011224395
83	0x098ab806	3.3395346e-33
84	0x3e76a25d	0.24085374
85	0x3d4b6664	0.049658194
86	0x3c81e693	0.015857017
87	0x371f8dcb	9.510152e-06
88	0x3e9395ba	0.2882517
89	0x3d887abc	0.06664035
90	0x3c29b432	0.010357903
91	0x2c6c75f8	3.3603103e-12
92	0x3e6a250d	0.22865696
93	0x3d295de5	0.04134931
94	0x3c1665c6	0.009179538
95	0x00000004	6e-45
96	0x3e6435ac	0.22286099
97	0x3d4b42df	0.04962432
98	0x3c3b6dad	0.011439723
99	0x2bfb5475	1.7858064e-12
100	0x3e771791	0.24130084
101	0x3db0b545	0.086283244
102	0x3c9f47a9	0.01944335
103	0x0a82b96b	1.2588291e-32
104	0x3e58ab82	0.21159175
105	0x3d8826a7	0.06647997
106	0x3bd4cc5c	0.006494088
107	0x3844f6b6	4.695981e-05
108	0x3e952d01	0.29135898
109	0x3d62baf8	0.05535409
110	0x3c19782f	0.009367033
111	0x358bb01e	1.0407564e-06
112	0x3e8e93c5	0.27847114
113	0x3d887293	0.06662478
114	0x3c1ba47b	0.009499664
115	0x3b5f3836	0.0034060604
116	0x3e9e7800	0.30950928
117	0x3d60e95e	0.054910056
118	0x3c1875eb	0.009305458
119	0x00000004	6e-45
120	0x3e881b2d	0.26583233
121	0x3d7d93a3	0.061908375
122	0x3c13a5a8	0.0090116635
123	0x396c0941	0.00022510161
124	0x3e2ffb48	0.171857
125	0x3d0394df	0.032124396
126	0x3a30a6c5	0.0006738718
127	0x00000004	6e-45
128	0x3e53c2b2	0.20679739
129	0x3d77ffbe	0.06054663
130	0x3be8f849	0.007109676
131	0x0401c49f	1.5254161e-36
132	0x3e4a23e2	0.1974025
133	0x3d84244a	0.06452234
134	0x3c8e3269	0.017358022
135	0x373f6c59	1.1409714e-05
136	0x3f2bf277	0.67166847
137	0x3eb03357	0.3441417
138	0x3e19bd27	0.15013562
139	0x3d319d2a	0.043362774
140	0x3f2e5b86	0.68108404
141	0x3ec54873	0.38531837
142	0x3e0edc29	0.13951172
143	0x3d2be64d	0.04196768
144	0x3f1d382a	0.61413825
145	0x3eb04884	0.34430325
146	0x3e0e8b74	0.13920385
147	0x3d5275b9	0.0513818
148	0x3f22e0ac	0.6362407
149	0x3e9e9fd0	0.30981302
150	0x3e0508bc	0.12991613
151	0x3d06cef4	0.03291221
152	0x3f291769	0.66051346
153	0x3eb0f6db	0.34563336
154	0x3e0b29c1	0.13590147
155	0x3d2c294c	0.04203157
156	0x3f210dc3	0.62911624
157	0x3eadd2f1	0.33949998
158	0x3e0dadc7	0.13835822
159	0x3d351f67	0.0442194
160	0x3f24a222	0.64309895
161	0x3eb313ff	0.34976193
162	0x3e159d63	0.1461082
163	0x3d2abb91	0.041682784
164	0x3f27b2e6	0.6550735
165	0x3eb8f548	0.36124635
166	0x3e1f2397	0.1554092
167	0x3d0295a4	0.03188099
168	0x3f267000	0.6501465
169	0x3ea7810a	0.32715636
170	0x3e15b234	0.1461876
171	0x3d648d82	0.055799015
172	0x3f2ffb80	0.68743134
173	0x3ebe1d26	0.37131613
174	0x3e01348f	0.12617706
175	0x3d213558	0.039357513
176	0x3f31a53c	0.6939275
177	0x3ebea0c0	0.37232018
178	0x3e09b552	0.13448074
179	0x3d04bf76	0.032409154
180	0x3f2ec69b	0.682718
181	0x3eb299c1	0.3488293
182	0x3e217bb5	0.15769847
183	0x3d409d87	0.04702523
184	0x3f2286de	0.6348704
185	0x3ec65c9d	0.38742533
186	0x3e40dff0	0.18835425
187	0x3d4ba95d	0.049722064
188	0x3f2b70af	0.66968817
189	0x3ec337c0	0.3812847
190	0x3e0d3abe	0.1379194
191	0x3d1b5cd4	0.037930325
192	0x3f318b4a	0.69353163
193	0x3ec0aefa	0.37633497
194	0x3df689c7	0.12037998
195	0x3d0e25fa	0.034704186
196	0x3f22ff4f	0.6367082
197	0x3eb832f0	0.35976362
198	0x3e282e52	0.1642392
199	0x3d6d42e0	0.057925105
200	0x3f274aa9	0.653483
201	0x3eb6e9dc	0.35725296
202	0x3e28a86b	0.16470496
203	0x3d4dba1e	0.050226323
204	0x3f305666	0.68881834
205	0x3ec869e1	0.3914328
206	0x3e282fc5	0.16424473
207	0x3d07e1c7	0.033174302
208	0x3f2c80c0	0.67383957
209	0x3ec5635a	0.38552362
210	0x3e32c6ec	0.17458695
211	0x3d4e50c8	0.050370008
212	0x3f344108	0.7041173
213	0x3ec5c471	0.38626435
214	0x3e27204a	0.16320911
215	0x3d621a8f	0.05520111
216	0x3f3038fa	0.6883694
217	0x3ec2f698	0.3807876
218	0x3e151449	0.1455852
219	0x3d2edd3f	0.042691465
220	0x3f2aed79	0.66768605
221	0x3eba0866	0.36334532
222	0x3e2b497b	0.1672725
223	0x3d5cc271	0.05389637
224	0x3f22ff66	0.6367096
225	0x3ea67f05	0.32518783
226	0x3e06e513	0.13173322
227	0x3d2686f4	0.040656045
228	0x3f2e903d	0.6818884
229	0x3ebfa973	0.37433967
230	0x3e1edfde	0.15515086
231	0x3d340ed5	0.043959457
232	0x3f34e6d9	0.70664746
233	0x3ec27461	0.37979415
234	0x3e0e11a1	0.13873912
235	0x3d005465	0.031330485
236	0x3f2a8d58	0.66621923
237	0x3ec0c946	0.3765356
238	0x3e13a76c	0.14419335
239	0x3d23feda	0.040037967
240	0x3f2cc99d	0.6749514
241	0x3ecb9fcf	0.39770362
242	0x3e330559	0.17482509
243	0x3d4e299b	0.050332647
244	0x3f1b7d5f	0.60738176
245	0x3eb4bb30	0.35299063
246	0x3e1a3d12	0.15062359
247	0x3d4986ac	0.0492007
248	0x3f25828d	0.6465233
249	0x3eadb48b	0.33926806
250	0x3e1512df	0.1455798
251	0x3d4eed3f	0.050519224
252	0x3f24e1c2	0.6440698
253	0x3ec27ab0	0.37984228
254	0x3e28d248	0.16486466
255	0x3d371ad5	0.044703323

fc_layers.1.running_var f4 [816]
0	0x3e3fe077	0.1873797
1	0x3d6e62db	0.058199745
2	0x3c406366	0.011742448
3	0x362883db	2.51107e-06
4	0x3e4bdf54	0.19909412
5	0x3d55278c	0.052039668
6	0x3c81ac06	0.015829097
7	0x3b4e1bc2	0.003144965
8	0x3e442a8b	0.19156854
9	0x3d93741c	0.071998805
10	0x3c1f0883	0.009706619
11	0x00000004	6e-45
12	0x3e49dd87	0.19713412
13	0x3d944c6f	0.07241141
14	0x3c7e914f	0.015537574
15	0x388bafb4	6.660764e-05
16	0x3e4c27af	0.19937013
17	0x3d4bcb97	0.049754705
18	0x3bfc056f	0.0076910774
19	0x37a3bd04	1.9519131e-05
20	0x3e453687	0.19259082
21	0x3d6040a2	0.05474914
22	0x3c3cf18e	0.0115322005
23	0x392ed307	0.00016672547
24	0x3e483500	0.19551468
25	0x3da0836e	0.07837568
26	0x3cc20f34	0.02368889
27	0x39a8461f	0.000320957
28	0x3e41e3d6	0.18934569
29	0x3d73c08e	0.059509806
30	0x3b1aaf12	0.0023602885
31	0x00000004	6e-45
32	0x3e31b3c3	0.1735373
33	0x3d8fdd9c	0.070246905
34	0x3cd2e254	0.025742687
35	0x00000004	6e-45
36	0x3e281f68	0.1641823
37	0x3d8fd0ef	0.07022273
38	0x3c8e0867	0.01733799
39	0x3ad306d2	0.0016100055
40	0x3e29e959	0.16592921
41	0x3d32b466	0.043629073
42	0x3bd15706	0.006388548
43	0x073c2ca2	1.4156664e-34
44	0x3e2e6c99	0.17033614
45	0x3d4ca2a1	0.049959783
46	0x3c185be5	0.009299253
47	0x3ac4726f	0.0014987717
48	0x3e34c582	0.17653468
49	0x3d3f2e1f	0.046674844
50	0x3be6f1f8	0.007047888
51	0x00000004	6e-45
52	0x3e3e058f	0.18556808
53	0x3d385dce	0.045011334
54	0x3c2796a4	0.010228787
55	0x3b63bcd4	0.0034750002
56	0x3e2d2c53	0.1691144
57	0x3d011185	0.03151085
58	0x3b8d7ca1	0.0043178354
59	0x0401c49f	1.5254161e-36
60	0x3e2d025e	0.16895434
61	0x3d48a7f6	0.048988305
62	0x3bc559d6	0.006022672
63	0x30a930ba	1.2310217e-09
64	0x3e306234	0.17224962
65	0x3d4e2484	0.050327793
66	0x3c5924ed	0.013253433
67	0x3130478d	2.5652043e-09
68	0x3e111c5f	0.14170979
69	0x3d1b34f8	0.03789231
70	0x3c04fd53	0.008117038
71	0x3b16c0cc	0.00230031
72	0x3e0d3142	0.13788322
73	0x3d061783	0.032737266
74	0x3b11b08e	0.002223048
75	0x00000004	6e-45
76	0x3e2811e2	0.16413072
77	0x3d386cc2	0.045025595
78	0x3bebee0d	0.0072000087
79	0x2ca22e8c	4.6094847e-12
80	0x3e31b3d7	0.1735376
81	0x3d1c0caf	0.038098034
82	0x3a931e37	0.0011224215
83	0x098ab806	3.3395346e-33
84	0x3e39c0b1	0.18139912
85	0x3d40f9ad	0.04711311
86	0x3c7c8d67	0.015414572
87	0x371f8dcb	9.510152e-06
88	0x3e51fe11	0.20507075
89	0x3d810a6b	0.06300815
90	0x3c28f2be	0.0103117805
91	0x2c6c75f8	3.3603103e-12
92	0x3e32ceda	0.1746172
93	0x3d1d65f5	0.038427312
94	0x3c150618	0.009095691
95	0x00000004	6e-45
96	0x3e2efb68	0.17088091
97	0x3d43991a	0.04775343
98	0x3c3af975	0.011412014
99	0x2bfb5475	1.7858064e-12
100	0x3e3ab6e0	0.18233824
101	0x3da32972	0.079668894
102	0x3c9cc32f	0.01913604
103	0x0a82b96b	1.2588291e-32
104	0x3e292104	0.165165
105	0x3d7d2ff3	0.061813306
106	0x3bd3ae20	0.0064599663
107	0x3844f6b6	4.695981e-05
108	0x3e5182d9	0.2046007
109	0x3d52d871	0.051475946
110	0x3c18f5be	0.009335933
111	0x358bb01a	1.0407559e-06
112	0x3e500d89	0.20317663
113	0x3d804b6b	0.06264385
114	0x3c1b5135	0.0094798105
115	0x3b5f3835	0.0034060602
116	0x3e5a0b0e	0.2129328
117	0x3d555894	0.052086428
118	0x3c173414	0.009228725
119	0x00000004	6e-45
120	0x3e463c3c	0.19358915
121	0x3d6ec9d2	0.05829794
122	0x3c137da9	0.009002128
123	0x396c0941	0.00022510161
124	0x3e1343ee	0.14381382
125	0x3d00f9b7	0.031488147
126	0x3a30a6c5	0.0006738718
127	0x00000004	6e-45
128	0x3e26de7d	0.1629581
129	0x3d6b5685	0.05745556
130	0x3be47f82	0.006973208
131	0x0401c49f	1.5254161e-36
132	0x3e2382c4	0.15967852
133	0x3d78d639	0.060751174
134	0x3c8abc1e	0.016935404
135	0x373f6c52	1.1409707e-05
136	0x3e6122a9	0.21985878
137	0x3e69b646	0.22823438
138	0x3e048ee8	0.1294514
139	0x3d2bbafe	0.041926377
140	0x3e5ffa70	0.21872878
141	0x3e6cda7a	0.23130217
142	0x3df12222	0.117740884
143	0x3d22f2fb	0.039782505
144	0x3e725a85	0.23667343
145	0x3e5fcf0e	0.21856329
146	0x3df6c32d	0.120489456
147	0x3d47238d	0.04861789
148	0x3e7057fe	0.23471066
149	0x3e5ef7b2	0.21774176
150	0x3de9059c	0.11378023
151	0x3d04b761	0.032401446
152	0x3e6742d4	0.22584087
153	0x3e67f9c5	0.22653873
154	0x3df2cda4	0.11855629
155	0x3d27a0a3	0.04092468
156	0x3e6fa7dd	0.23403879
157	0x3e6272fd	0.22114177
158	0x3df5d6aa	0.120038345
159	0x3d2cffa0	0.04223597
160	0x3e6df20b	0.23236863
161	0x3e690acb	0.22758023
162	0x3df8c1ab	0.12146314
163	0x3d201355	0.039080936
164	0x3e6a3ab5	0.22873957
165	0x3e6cbf40	0.23119831
166	0x3e062257	0.13099037
167	0x3cfdc0d8	0.030975744
168	0x3e690e31	0.2275932
169	0x3e61dbe7	0.22056542
170	0x3dff980b	0.12480172
171	0x3d58ea3c	0.05295776
172	0x3e5ca768	0.21548235
173	0x3e729b9e	0.23692176
174	0x3de13c4f	0.10997831
175	0x3d1ae774	0.037818387
176	0x3e5aaa83	0.21354108
177	0x3e71d6de	0.23617122
178	0x3def6537	0.11689227
179	0x3d016535	0.03159066
180	0x3e5f604e	0.21814081
181	0x3e6ab0d5	0.22919019
182	0x3e094a65	0.13407286
183	0x3d36a333	0.044589233
184	0x3e6db9ac	0.2321536
185	0x3e71fb02	0.23630908
186	0x3e189b89	0.14903082
187	0x3d4015d2	0.04689581
188	0x3e6499fd	0.22324367
189	0x3e714b06	0.23563775
190	0x3df72d28	0.1206916
191	0x3d1831a4	0.037156716
192	0x3e57bdd0	0.21068501
193	0x3e7048cb	0.23465268
194	0x3dd7da52	0.10539688
195	0x3d083be3	0.033260237
196	0x3e6fa69a	0.23403397
197	0x3e6c26ab	0.23061626
198	0x3e0b11ed	0.13581057
199	0x3d5f7528	0.05455509
200	0x3e679692	0.22616032
201	0x3e661fc6	0.22473058
202	0x3e0b5d6a	0.13609853
203	0x3d423b8d	0.047420073
204	0x3e5bd325	0.21467264
205	0x3e763189	0.24042334
206	0x3e0e37d0	0.13888478
207	0x3d038269	0.03210679
208	0x3e62b40d	0.22138996
209	0x3e73379f	0.23751687
210	0x3e12dbcc	0.14341658
211	0x3d44ddc1	0.048063044
212	0x3e57279f	0.21011208
213	0x3e730698	0.23732984
214	0x3e0cfb44	0.13767725
215	0x3d53f194	0.05174406
216	0x3e5dbc70	0.21653914
217	0x3e73ce85	0.2380925
218	0x3dfcf7f7	0.12351983
219	0x3d25ff8c	0.04052691
220	0x3e61fb66	0.22068557
221	0x3e6dc706	0.23220453
222	0x3e0e6353	0.13905077
223	0x3d5465b0	0.05185479
224	0x3e6e64c7	0.23280631
225	0x3e5e9a40	0.21738529
226	0x3de668b0	0.11250436
227	0x3d1e1548	0.038594514
228	0x3e5a4caa	0.21318308
229	0x3e6c06f7	0.23049532
230	0x3e06822e	0.13135597
231	0x3d2ec9de	0.042672984
232	0x3e4f0ec6	0.2022048
233	0x3e714047	0.23559676
234	0x3df766f7	0.12080186
235	0x3cf708a3	0.030155485
236	0x3e63c5e4	0.22243458
237	0x3e6d729f	0.23188256
238	0x3dfd0cea	0.12355979
239	0x3d1da424	0.038486615
240	0x3e602b9e	0.21891639
241	0x3e797b43	0.24363427
242	0x3e159c4f	0.14610408
243	0x3d4366c8	0.04770544
244	0x3e73ab13	0.23795728
245	0x3e63adca	0.22234264
246	0x3e017103	0.12640767
247	0x3d3f0da1	0.046643857
248	0x3e69facc	0.22849578
249	0x3e625497	0.22102581
250	0x3dfac8bd	0.12245319
251	0x3d442447	0.04788616
252	0x3e6ce70a	0.2313501
253	0x3e6e0b35	0.23246463
254	0x3e0ef2e9	0.1395985
255	0x3d2d22c4	0.042269483

fc_layers.2.weight f4 [64, 816]
0	0x3c975550	0.018473297
1	0xbdb7bdb1	-0.08971728
2	0x3d444fb8	0.04792759
3	0xbd8f4618	-0.06995791
4	0xbd3c1bbb	-0.045924883
5	0x3c02c4fe	0.007981537
6	0x3dc7fd13	0.09765067
7	0x3ce0500d	0.027381921
8	0xbcb277a9	-0.021785574
9	0xbd2b3154	-0.04179509
10	0xbc7b1042	-0.0153237
11	0x3c368b99	0.011141681
12	0x3cefe524	0.029284067
13	0xbdbc5f69	-0.091978855
14	0xbd6c020e	-0.057619147
15	0xbd844d2f	-0.06460034
16	0x3c967818	0.018367812
17	0xbd0791bd	-0.03309797
18	0x3c392af1	0.011301742
19	0xbd40e2f0	-0.047091424
20	0xbd501819	-0.05080423
21	0x3d86105b	0.06546088
22	0x3c9bea8c	0.01903274
23	0xbc26f4a7	-0.010190166
24	0xbd98d6f0	-0.07462871
25	0xbc0c060f	-0.008546366
26	0xbd98eacd	-0.0746666
27	0xbd13d134	-0.036088184
28	0x3db0dd0f	0.086359136
29	0xbd094222	-0.033510335
30	0xbdb5b04e	-0.08871518
31	0xbd22ca2f	-0.0397436
32	0x3cd58f87	0.026069416
33	0xbd15f299	-0.036608312
34	0xbd37609e	-0.044769876
35	0x3d4d03a6	0.050052308
36	0xbd4c8958	-0.04993567
37	0xbd425118	-0.04744062
38	0xbe031de9	-0.12804379
39	0x3d0d325a	0.034471847
40	0x3b7228fa	0.0036950693
41	0xbca2b6f5	-0.019862631
42	0x3e0ce1cb	0.13758008
43	0xbd3e1fff	-0.046417233
44	0x3d02a89e	0.031899087
45	0x3ce4bfd1	0.027923496
46	0xbd468d4b	-0.04847459
47	0x3d95cbf3	0.07314291
48	0xbd912493	-0.07087054
49	0x3c2a12d4	0.010380466
50	0xbd88d1d6	-0.06680648
51	0x3e08d008	0.13360608
52	0x3d33ad4e	0.043866448
53	0x3d1bb8a1	0.038017873
54	0x3d27e84e	0.040993027
55	0xbdb7ed97	-0.089808635
56	0x3bd6ad79	0.0065514413
57	0xbcc041fa	-0.02346896
58	0x3d1a083d	0.037605513
59	0x3da16b2c	0.078817695
60	0xbce9ce4b	-0.028540751
61	0xbd922b8b	-0.071372114
62	0xbd087a6a	-0.03331987
63	0xbc930e22	-0.017951075
64	0xbcba3709	-0.022731321
65	0xbcbc5b18	-0.022992656
66	0xbd8de6a4	-0.06928757
67	0xbcf0fcc4	-0.029417403
68	0x3d03dca6	0.03219285
69	0xbb8c84a8	-0.004288275
70	0x3e0b2f55	0.13592274
71	0x3dbbf1f6	0.0917701
72	0xbd07b636	-0.033132754
73	0xbd9530d7	-0.07284706
74	0x3d623a9d	0.05523168
75	0xbd357ab3	-0.04430647
76	0xbd07a3a7	-0.033115055
77	0x3cf07161	0.029350938
78	0x3dce7495	0.1008083
79	0xbd04fe89	-0.032469306
80	0x3c927efc	0.017882816
81	0xbcc96b79	-0.02458738
82	0x3d1faecb	0.038985055
83	0x3d88c6ed	0.06678567
84	0x3d195dc7	0.03744295
85	0xbce9ab0e	-0.028523948
86	0x3d0df33e	0.034655802
87	0xbdc3c6eb	-0.09559425
88	0x3c91dc83	0.017805343
89	0xbd296872	-0.041359372
90	0x3e0196db	0.12655203
91	0x3d9e0396	0.07715528
92	0xbd848c83	-0.06472113
93	0x3cfad9ce	0.030621435
94	0xbc9b0f56	-0.018928211
95	0xbdb15871	-0.08659447
96	0xbce3dcc9	-0.02781524
97	0x3d11b7ad	0.035575558
98	0x3ac17f4a	0.0014762667
99	0xbaefc803	-0.0018293861
100	0xbd6c26e3	-0.057654273
101	0x3d3f78c6	0.046746038
102	0xbda8656d	-0.082224704
103	0x3c3e6287	0.01162017
104	0xbd05e3dc	-0.032688007
105	0xbcb6c23c	-0.022309415
106	0x3deea079	0.116517015
107	0x3d8ee459	0.069771476
108	0x3c346e24	0.011012588
109	0x3d457701	0.048209194
110	0x3c95939b	0.01825886
111	0xbd79921f	-0.060930368
112	0x3d2a1243	0.041521322
113	0x3ca94fb9	0.020667898
114	0x3d1f6549	0.038914952
115	0x3d7cf78e	0.061759524
116	0x3c75ec90	0.015010014
117	0xb98792c7	-0.00025858564
118	0x3e14a27f	0.14515112
119	0x3be44247	0.0069659087
120	0xbd218222	-0.039430745
121	0x3ce0c49d	0.027437503
122	0x3e0810b6	0.13287625
123	0x3dd56105	0.10418896
124	0xbd69a0c8	-0.0570381
125	0xbc9b3489	-0.01894595
126	0x3e077cea	0.13231245
127	0x3c4b3ddf	0.012404888
128	0x3d302ad9	0.043009613
129	0xbc5ea3a3	-0.013588819
130	0x3cc763d4	0.024339594
131	0xbd309a88	-0.043116122
132	0xbcc59af1	-0.024121733
133	0xbce37f08	-0.027770534
134	0x3c1e9213	0.0096783815
135	0xbd856329	-0.06513054
136	0xbda027a1	-0.078200586
137	0x3cbc0b3b	0.022954574
138	0xbcad1a04	-0.02113057
139	0x3dab8696	0.083752796
140	0x3ca704b3	0.020387983
141	0x3ce72b44	0.028218873
142	0x3c6d9f18	0.014503263
143	0xbd488520	-0.048955083
144	0xbce117c1	-0.027477147
145	0xbd82de72	-0.06390084
146	0x3d9fdbd7	0.07805603
147	0x3d9d759d	0.076884486
148	0x3d319f85	0.04336502
149	0xbcfe5f4d	-0.031051302
150	0x3d255730	0.04036635
151	0x3d80ee49	0.06295449
152	0x3d2d7349	0.042346273
153	0xbd8f5027	-0.0699771
154	0xba31f37b	-0.00067882956
155	0x3d7c4415	0.061588366
156	0x3d53eaa8	0.051737458
157	0xbc293b8e	-0.01032914
158	0x3d76a8bf	0.060219523
159	0xbcdecc11	-0.027196916
160	0x3c96b85c	0.018398456
161	0x3d04bd5d	0.032407153
162	0x3cebba1f	0.028775273
163	0x3d869760	0.06571841
164	0xba8db217	-0.0010810521
165	0xbc8f4360	-0.017488182
166	0x3cd92cf7	0.026510699
167	0x394359c5	0.00018630091
168	0xbc880491	-0.01660374
169	0x3d4060eb	0.04696743
170	0x3d6c3ae2	0.057673343
171	0x3d957fe4	0.07299784
172	0x3d4d2040	0.050079584
173	0xbd6ae12e	-0.057343654
174	0x3c2e2014	0.010627765
175	0x3d8d4540	0.06897974
176	0xbc78019a	-0.015137101
177	0xbbc670ea	-0.006055941
178	0xbd2fc584	-0.042912975
179	0xbc5efa69	-0.013609507
180	0xbcfefe90	-0.031127244
181	0x3d281685	0.0410371
182	0x3cd4108c	0.025886796
183	0x3d9d78d2	0.0768906
184	0xbd79ab21	-0.060954217
185	0xbbc604e6	-0.0060430644
186	0x3d37a29c	0.04483281
187	0xbcc4e7f9	-0.024036394
188	0x3b88946c	0.004168084
189	0x3d7191cd	0.058976937
190	0x3d332c29	0.043743286
191	0xbd29d2dc	-0.041460857
192	0x3cb8887a	0.022526015
193	0x3d267113	0.04063518
194	0x3bd2ca37	0.0064327973
195	0x3cac430c	0.021028064
196	0x3d8d26d0	0.068921685
197	0x3bc62825	0.006047266
198	0x3d5298be	0.051415198
199	0xbd8b4617	-0.06800478
200	0x3d33cc85	0.043896217
201	0xbc07e07b	-0.008293266
202	0x3c28a199	0.010292434
203	0x3c8ece60	0.017432392
204	0xbd77f378	-0.060534924
205	0x3d81ab06	0.06331448
206	0xbc403ba7	-0.011732972
207	0xbb5f740d	-0.0034096271
208	0x3bb23f5a	0.005439681
209	0xbcae8a38	-0.021306142
210	0xbc304ee5	-0.010760997
211	0xbb9dfabc	-0.0048211496
212	0xbd35f74c	-0.044425294
213	0x3d688269	0.056764994
214	0xbd51487b	-0.051094513
215	0x3d98b805	0.07456974
216	0x3d01d632	0.031698413
217	0x3daf73f7	0.085670404
218	0xbd66a824	-0.056312695
219	0x3dabf1c9	0.08395726
220	0xbc57e5df	-0.013177364
221	0x3cf6157a	0.030039538
222	0x3db77a78	0.08958906
223	0xbd8b19e0	-0.06792045
224	0xbbe87d4b	-0.007095014
225	0xbc1a7325	-0.009426867
226	0x3b7a78e9	0.003821904
227	0x3c0f3d60	0.00874266
228	0x3c426c69	0.011866667
229	0xbcf14923	-0.02945382
230	0x3ce08472	0.027406905
231	0x3dac7e80	0.084225655
232	0x3d8fc9dc	0.070209235
233	0x3d00224e	0.031282715
234	0xbbc58be3	-0.0060286387
235	0x3c532ef8	0.012889616
236	0xbc982371	-0.018571587
237	0xbd4d1e2e	-0.05007761
238	0x3c952f82	0.01821113
239	0xbbe3b4c0	-0.0069490373
240	0xbd70b39e	-0.058765046
241	0x3d1da320	0.038485646
242	0xbbafcf2c	-0.005365273
243	0x3db1ca75	0.08681194
244	0x3cd24a49	0.025670188
245	0x3bd9bfa2	0.006645159
246	0xbc9917a5	-0.018688032
247	0x3cb95dcd	0.022627736
248	0x3aefce0d	0.0018295661
249	0xbd41aa9c	-0.047281846
250	0x3d710452	0.05884201
251	0x3da992c0	0.082799435
252	0x3d88e692	0.06684603
253	0x3c99a749	0.018756526
254	0x3b74f985	0.003738017
255	0xbd2b2ace	-0.04178887

fc_layers.2.bias f4 [64]
0	0x3ccdacd2	0.025106821
1	0x3da625a2	0.08112647
2	0xbcae5e4a	-0.021285195
3	0x3cc40e85	0.023932705
4	0xbc8829a8	-0.016621426
5	0x3d0f7d2c	0.035031483
6	0xbc85f0bd	-0.016350145
7	0xbd15f35b	-0.036609035
8	0x3c3925d2	0.011300521
9	0xbc15ec16	-0.009150526
10	0x3d605224	0.054765835
11	0xbc03d8e0	-0.0080473125
12	0xbc38a4c3	-0.011269751
13	0x3d6b2900	0.057412148
14	0xbba96adf	-0.0051702107
15	0xbc23e724	-0.010003839
16	0x3cb31db4	0.02186475
17	0xbd98fadb	-0.07469722
18	0x3bc0d8d4	0.005885223
19	0x3d280548	0.04102066
20	0x3cb4ea61	0.022084417
21	0x3cfbef4b	0.030753752
22	0x3c8789d3	0.016545212
23	0x3cae054f	0.021242766
24	0xbc59fa33	-0.013304281
25	0x3cb6a853	0.02229706
26	0x3c811ca1	0.015760722
27	0xbb6eea29	-0.0036455488
28	0xbbfad51a	-0.007654798
29	0xbd2c4b8a	-0.042064227
30	0x3d2a4c2a	0.041576542
31	0x3c608192	0.013702767
32	0xbd17c2f3	-0.037051152
33	0xbd9fd620	-0.07804513
34	0x3c34d073	0.011036026
35	0xbcb627de	-0.022235807
36	0x3c5db771	0.013532505
37	0xbc6d1071	-0.014469252
38	0xb91abaab	-0.00014756124
39	0xbcc1133e	-0.023568746
40	0x3d0223c0	0.031772375
41	0x3c9353d9	0.017984318
42	0x3d9ac8af	0.075578086
43	0xbc8473c2	-0.016168479
44	0x3ce08d88	0.027411237
45	0x3b4d73f8	0.003134964
46	0xbd0d9766	-0.034568213
47	0x3c96cc99	0.018408107
48	0xb9c55633	-0.00037638991
49	0xbb4556fa	-0.0030111657
50	0xbc17ce73	-0.00926553
51	0xbc9b3138	-0.018944368
52	0x3d2a7569	0.041615877
53	0xbc04537e	-0.008076547
54	0x3b2c5196	0.0026293746
55	0x3afbd635	0.0019213619
56	0x3cde3c9d	0.027128512
57	0xbcd479c7	-0.025936974
58	0xbce2da0c	-0.027691863
59	0xbcfc2dda	-0.030783582
60	0x3cae9744	0.021312363
61	0xbbb7e306	-0.00561178
62	0x3bf9d79d	0.00762458
63	0xbd1fb5e0	-0.03899181

fc_layers.4.weight f4 [64, 64]
0	0x3ddac80c	0.10682687
1	0xbdf2bf74	-0.11852923
2	0xbd200ad0	-0.03907281
3	0xbdf17555	-0.117899574
4	0xbb1dde33	-0.002408874
5	0xbd919030	-0.0710758
6	0x3e57542a	0.210282
7	0x3d1b64b9	0.037937853
8	0x3e7b0bce	0.24516222
9	0x3e71e873	0.23623829
10	0xbdb43b7e	-0.0880041
11	0xbdd8234b	-0.105536066
12	0xbd152cae	-0.036419563
13	0xbe4c4915	-0.19949754
14	0x3e991729	0.29900482
15	0xbe72fb6a	-0.2372872
16	0x3e50b7df	0.20382641
17	0xbe1345d0	-0.143821
18	0x3daa1686	0.08305077
19	0xbc88c955	-0.016697565
20	0xbdf8ed25	-0.12154607
21	0x3e701ae2	0.23447755
22	0x3d9b254c	0.07575473
23	0x3de1c52f	0.11023938
24	0x3e3d594c	0.18491095
25	0x3df13171	0.11777008
26	0x3d15486c	0.03644602
27	0xbe94dd73	-0.29075202
28	0xbe91a5d3	-0.28446826
29	0xbd9a70f9	-0.07541079
30	0x3d4367b9	0.04770634
31	0x3e483665	0.19552
32	0x3cfda22b	0.030961117
33	0x3e0e4bdb	0.13896124
34	0x3e1a2d99	0.15056457
35	0xbd80fb0f	-0.062978856
36	0x3e47451d	0.19459958
37	0x3deb7cde	0.11498426
38	0x3e4823c5	0.19544895
39	0xbe31d0df	-0.17364834
40	0xbeb128f8	-0.3460157
41	0x3e985dda	0.29759103
42	0xbe804a87	-0.2505686
43	0xbc5f1e4c	-0.013618063
44	0xbd551853	-0.05202515
45	0xbd8517cb	-0.06498679
46	0x3e40538f	0.18781875
47	0xbdb1b62a	-0.08677323
48	0x3eacf7f3	0.3378292
49	0x3e1ba717	0.15200458
50	0xbe9d7c06	-0.30758685
51	0xbca5acde	-0.020224031
52	0xbe78f1ab	-0.24310939
53	0xbd42149f	-0.047382947
54	0xbe72a6c3	-0.23696427
55	0x3d5a38cf	0.053276833
56	0x3d09d739	0.033652518
57	0x3e3792d6	0.17927107
58	0x3e628ad2	0.22123268
59	0x3e8ae3ad	0.27126828
60	0xbe21eae9	-0.15812267
61	0xbd5da29b	-0.05411015
62	0x3d9aecca	0.07564695
63	0xbda98ffe	-0.082794175
64	0x3dcc1e45	0.09966711
65	0x3e420ebf	0.18950938
66	0x3e779978	0.24179637
67	0xbd3008e2	-0.04297722
68	0x3e234ff4	0.15948468
69	0x3e4b066a	0.19826666
70	0x3de82a47	0.11336189
71	0xbd67c305	-0.05658247
72	0x3dd44293	0.103642605
73	0xbd4dc752	-0.050238915
74	0x3d99d864	0.07511976
75	0x3e1eaeeb	0.15496413
76	0x3e61c144	0.22046381
77	0x3cead3c0	0.028665423
78	0x3d2dd01a	0.04243479
79	0x3e2c161d	0.1680531
80	0xbe41b7a4	-0.1891771
81	0xbdcfb302	-0.10141565
82	0x3e912eb6	0.2835595
83	0x3df1a137	0.117983274
84	0x3dbb57d6	0.09147613
85	0x3c3c56f1	0.011495338
86	0x3d0b35fa	0.033987023
87	0x3e7c1579	0.24617566
88	0xbe1ea3d3	-0.15492181
89	0x3d9830cd	0.07431183
90	0xbe7378c1	-0.23776533
91	0xbcafe228	-0.021470144
92	0x3e0e3983	0.13889126
93	0xbe4d90c2	-0.20074752
94	0xbe2e53e4	-0.17024189
95	0xbe28552a	-0.16438738
96	0x3d99638e	0.07489692
97	0xbd2c1cff	-0.04201984
98	0xbe7a0d4c	-0.24419135
99	0xbe0ba764	-0.13638073
100	0x3dedd3a6	0.11612634
101	0xbccdde5b	-0.025130441
102	0xbe9fdc77	-0.3122289
103	0xbbd30c35	-0.006440664
104	0x3e032677	0.12807642
105	0xbd4eff4a	-0.05053643
106	0xbcdb690d	-0.02678349
107	0xbe7584b0	-0.23976398
108	0x3da8ae49	0.08236367
109	0xbe61318f	-0.21991561
110	0xbe0a1aae	-0.1348674
111	0xbc9b2d0c	-0.018942378
112	0xbe87c13f	-0.26514623
113	0xbe94624c	-0.28981245
114	0x3e850e31	0.2598739
115	0x3dc5a54f	0.09650671
116	0xbdf624e3	-0.12018754
117	0xbd19177f	-0.037375923
118	0x3cee8f89	0.029121177
119	0xbd97715a	-0.07394667
120	0x3ddb6c11	0.107139714
121	0xbe5d8fe4	-0.21636921
122	0x3e05775e	0.13033816
123	0xbe84121d	-0.2579507
124	0x3d73c47a	0.059513547
125	0xbd419f3d	-0.047271002
126	0xbd6c6a2d	-0.057718445
127	0x3e4f4345	0.20240505
128	0x3e87f9a7	0.26557657
129	0xbe50abc3	-0.20378022
130	0x3e826be6	0.25472945
131	0x3cdcf739	0.026973354
132	0xbd9199cc	-0.071094126
133	0x3d6b99c5	0.057519693
134	0xbe4dcc8a	-0.20097557
135	0x3df64e0a	0.120266035
136	0x3dc0a022	0.09405543
137	0xbd94e398	-0.072699726
138	0x3e385ece	0.18004915
139	0x3dfd7a46	0.123768374
140	0x3e7c695e	0.2464957
141	0xbde44f4b	-0.111479364
142	0xbe05650b	-0.13026826
143	0xbbe35997	-0.00693817
144	0xbe179a86	-0.1480504
145	0x3e846a9e	0.25862592
146	0x3dc7171b	0.09721204
147	0xbdd76315	-0.10516945
148	0xbc0366d5	-0.008020123
149	0xbe803699	-0.25041655
150	0xbe67d682	-0.22640422
151	0x3dca2217	0.09869783
152	0xbe5dbda1	-0.21654369
153	0xbdf2fc48	-0.11864525
154	0x3d3eafb8	0.046554297
155	0xbce2ecc3	-0.027700787
156	0x3d15b91b	0.036553483
157	0xbe47993d	-0.1949205
158	0xbe664a00	-0.22489166
159	0xbe752b19	-0.23942222
160	0xbcca9ba8	-0.024732426
161	0x3d6c0b87	0.05762818
162	0x3d206a7c	0.03916405
163	0x3d0417de	0.032249324
164	0x3d4d0780	0.05005598
165	0xbe86260a	-0.26200897
166	0xbe426a1d	-0.18985792
167	0x3d9431ad	0.072360374
168	0x3c02c668	0.007981874
169	0xbe9a1028	-0.3009045
170	0x3e365030	0.17804027
171	0xbe10d303	-0.14142995
172	0x3eae4678	0.34038138
173	0xbe929f4c	-0.2863716
174	0x3dd95ee0	0.10613799
175	0x3dfaf345	0.12253431
176	0xbe358515	-0.17726548
177	0xbe841c9d	-0.2580308
178	0x3d2cb9b8	0.042169303
179	0x3db0c7ad	0.08631835
180	0xbd989b19	-0.074514575
181	0x3cf7911e	0.030220564
182	0x3e912e01	0.2835541
183	0xbe6d0195	-0.23145135
184	0xbc693b5d	-0.014235345
185	0xbb604122	-0.003421851
186	0x3cb7f9d1	0.022457989
187	0xbde9e53e	-0.114206776
188	0xbb373b28	-0.0027958844
189	0x3b988ba6	0.0046553193
190	0x3dbbed70	0.09176147
191	0xbd4082a0	-0.046999574
192	0xbdfbe75d	-0.122999884
193	0xbd87feb7	-0.0664038
194	0x3d917c3a	0.071037725
195	0xbd7c0f4a	-0.06153802
196	0xbe671a42	-0.2256861
197	0xbdde83f9	-0.108650155
198	0x3c103e1c	0.0088038705
199	0xbd0f35eb	-0.03496353
200	0x3e3ccaf8	0.18436801
201	0x3e1c9a22	0.15293172
202	0xbdf34382	-0.118781105
203	0xbd6d8a62	-0.0579933
204	0x3d794980	0.06086111
205	0xbe121ff7	-0.14270006
206	0x3e04fd39	0.12987222
207	0xbe569e89	-0.20958914
208	0xbcccc7a0	-0.024997532
209	0x3e35d6b8	0.1775769
210	0xbd526eed	-0.05137532
211	0x3d8672eb	0.065648876
212	0x3ba07e11	0.004897841
213	0x3e8cf64e	0.27531666
214	0xbd46fcde	-0.048580997
215	0xbbd7500c	-0.0065708216
216	0x3e8a5e55	0.27025095
217	0x3dfe3f09	0.12414367
218	0x3ea6ba6f	0.32564113
219	0x3c0a77a9	0.008451381
220	0xbdf2248b	-0.11823376
221	0x3e99bbe1	0.30026153
222	0x3d59a8a4	0.053139344
223	0xbd461fe0	-0.048370242
224	0x3d989b41	0.07451487
225	0xbdf1fc82	-0.1181574
226	0xbc5ce249	-0.013481685
227	0x3e0e7bf0	0.13914466
228	0x3dbeaa3d	0.09309814
229	0x3dc6d615	0.09708802
230	0x3e7a7e4a	0.24462238
231	0xbdafd406	-0.08585362
232	0xbe784750	-0.24245954
233	0x3e8596ba	0.26091558
234	0xbc0adbc3	-0.008475247
235	0x3e741cc4	0.23839098
236	0xbe030a93	-0.12797002
237	0x3e9abb73	0.30221137
238	0x3e87a5c0	0.26493645
239	0x3e5e5542	0.21712211
240	0x3d29b769	0.04143468
241	0xbd844808	-0.06459051
242	0x3cf35601	0.029704096
243	0x3e404621	0.18776752
244	0xbdaa145f	-0.08304667
245	0x3e323cc7	0.17405997
246	0xbe7d51d2	-0.24738243
247	0x3cdd1897	0.026989264
248	0xbde2af3f	-0.11068582
249	0x3e2cb46b	0.16865699
250	0x3e8307ab	0.25591788
251	0x3e42ae06	0.19011697
252	0xbe66e4c9	-0.22548212
253	0xbd00b143	-0.03141905
254	0xbe9f1c8c	-0.31076467
255	0x3d5b0f7f	0.053481575

fc_layers.4.bias f4 [64]
0	0x3e02becd	0.12768097
1	0xbe210534	-0.15724641
2	0xbc936674	-0.01799319
3	0xbd957574	-0.07297793
4	0x3ddeaa4c	0.10872325
5	0x3e13e9d8	0.14444673
6	0x3cd40790	0.025882512
7	0xbd0dee35	-0.034651
8	0x3d4611c6	0.048356794
9	0x3d0ede69	0.034880076
10	0x3e1bc877	0.1521319
11	0xbdcdb267	-0.10043793
12	0x3d8882bb	0.0666556
13	0x3e46b1c3	0.19403748
14	0xbdc86a62	-0.09785916
15	0xbd5bfdc7	-0.053708818
16	0x3d5e7f02	0.054320343
17	0x3df99f7b	0.121886216
18	0xbd28c04c	-0.041199014
19	0x3bf44194	0.0074541066
20	0x3dbed273	0.09317484
21	0xbcc1a965	-0.023640344
22	0xbdb540dc	-0.088502616
23	0xbbfe2b72	-0.007756644
24	0x3d25e067	0.04049721
25	0xbe131b5f	-0.1436591
26	0xbe126057	-0.14294563
27	0xbdafd8fd	-0.08586309
28	0xbe6d43e8	-0.23170435
29	0xbdfdaf9a	-0.12387009
30	0x3c1a255c	0.009408321
31	0x3d9b189c	0.07573053
32	0x3d10f7bd	0.03539251
33	0xbc892ef6	-0.016746026
34	0xbd60f470	-0.054920614
35	0xbe16eecf	-0.14739536
36	0x3e1e180a	0.15438858
37	0x3c01b238	0.007916026
38	0x3e6e411b	0.23267023
39	0xbdb5abf6	-0.088706896
40	0x3c5eba33	0.013594198
41	0xbd2aeb14	-0.041728094
42	0x3ca04d7c	0.019568197
43	0xbd23c8dc	-0.039986476
44	0x3d8bdcc2	0.068292156
45	0x3d7b2dee	0.0613231
46	0x3e0e27ce	0.13882372
47	0xbd6edf58	-0.058318466
48	0xbb14b8fa	-0.0022693262
49	0x3d03d120	0.03218186
50	0x3e3e224f	0.18567775
51	0xbe13fab0	-0.14451098
52	0xbe212c29	-0.15739502
53	0xbe01c658	-0.12673318
54	0xbd91ba33	-0.07115593
55	0x3dd017fb	0.10160824
56	0xbdbb4498	-0.091439426
57	0xbd338578	-0.043828458
58	0x3d06d76f	0.032920297
59	0xbdf71475	-0.12064449
60	0xbe4f8483	-0.20265393
61	0xbd9a2a86	-0.07527642
62	0x3c5d67a5	0.01351348
63	0xbd286f6a	-0.041121878
