TrainedModel/DQNwithrewardhelper/5400_0-035_DQNwithrewardhelper.pth (torch, 740948 bytes, 26 tensors)

fc_layers.1.weight f4 [816]
0	0x3f633664	0.8875487
1	0x3f6b0b16	0.9181379
2	0x3f88efc5	1.0698172
3	0x3f835c16	1.0262477
4	0x3f75e263	0.96048564
5	0x3f68786b	0.90808743
6	0x3f890937	1.0705937
7	0x3f81b170	1.0132275
8	0x3f6e56a7	0.9310097
9	0x3f723c17	0.9462294
10	0x3f8bb061	1.0913202
11	0x3f837792	1.0270865
12	0x3f7b0fd3	0.9807102
13	0x3f70f67f	0.94126123
14	0x3f808f0a	1.0043652
15	0x3f7cfb24	0.9882071
16	0x3f736799	0.9507995
17	0x3f779b95	0.96721774
18	0x3f81663e	1.0109327
19	0x3f85bbb0	1.0447903
20	0x3f7ba9d3	0.98306006
21	0x3f6bf91d	0.9217699
22	0x3f7abaf2	0.97941506
23	0x3f848da8	1.035573
24	0x3f725cdb	0.94672936
25	0x3f71e2cc	0.9448669
26	0x3f7c7523	0.98616236
27	0x3f8198e5	1.0124785
28	0x3f70c07f	0.94043726
29	0x3f75c31d	0.96000844
30	0x3f829d6d	1.0204293
31	0x3f83a316	1.0284145
32	0x3f6d8699	0.92783505
33	0x3f741f44	0.9536021
34	0x3f7bc62b	0.98349255
35	0x3f7d4d0a	0.9894568
36	0x3f71447e	0.94245136
37	0x3f746789	0.9547048
38	0x3f834647	1.0255822
39	0x3f80aafd	1.0052181
40	0x3f727ba1	0.9471989
41	0x3f7462a5	0.9546302
42	0x3f8b699c	1.0891604
43	0x3f83e9e1	1.0305749
44	0x3f76a849	0.9635053
45	0x3f74766c	0.954932
46	0x3f7e6b62	0.99382603
47	0x3f7d6465	0.98981315
48	0x3f797620	0.9744587
49	0x3f6be925	0.92152625
50	0x3f7c7b84	0.9862597
51	0x3f851583	1.039719
52	0x3f752d7e	0.9577254
53	0x3f6cb02e	0.9245633
54	0x3f88f6cf	1.070032
55	0x3f84dd96	1.0380123
56	0x3f77f53c	0.9685857
57	0x3f73563c	0.9505346
58	0x3f8ca192	1.0986807
59	0x3f805755	1.0026652
60	0x3f7b9d5d	0.9828699
61	0x3f76e62c	0.96444964
62	0x3f8ba79e	1.0910528
63	0x3f81a3d7	1.0128125
64	0x3f6db2ab	0.9285075
65	0x3f78f8a1	0.9725438
66	0x3f7b6797	0.9820494
67	0x3f809f59	1.0048629
68	0x3f73bf6a	0.9521395
69	0x3f748ef9	0.9553066
70	0x3f8b35ca	1.087579
71	0x3f7beaa2	0.98404896
72	0x3f73fe52	0.95309937
73	0x3f726264	0.9468138
74	0x3f82ec79	1.0228416
75	0x3f81342a	1.0094044
76	0x3f789622	0.97104084
77	0x3f67db01	0.9056855
78	0x3f882c44	1.0638509
79	0x3f85123d	1.0396191
80	0x3f7181f4	0.9433892
81	0x3f6e4d49	0.9308668
82	0x3f7eb029	0.9948755
83	0x3f8224ec	1.0167518
84	0x3f703eab	0.93845624
85	0x3f74259c	0.9536989
86	0x3f8a0ea0	1.0785713
87	0x3f88cb9d	1.0687138
88	0x3f7b729e	0.98221767
89	0x3f6c6a07	0.92349285
90	0x3f87d668	1.0612307
91	0x3f7bd21a	0.98367465
92	0x3f7543e7	0.95806736
93	0x3f7634b0	0.96174145
94	0x3f7f0392	0.9961482
95	0x3f80c2ee	1.0059488
96	0x3f75b218	0.95974874
97	0x3f709253	0.93973273
98	0x3f898669	1.0744144
99	0x3f7ad07b	0.97974366
100	0x3f735a80	0.9505997
101	0x3f6d0bb5	0.9259599
102	0x3f80888f	1.0041674
103	0x3f8248fd	1.0178524
104	0x3f72bc80	0.9481888
105	0x3f74eae1	0.95670897
106	0x3f8a1a1f	1.0789222
107	0x3f7f95ca	0.99837935
108	0x3f7a94bc	0.978832
109	0x3f725261	0.9465695
110	0x3f897423	1.0738567
111	0x3f7f0a0a	0.99624693
112	0x3f72f158	0.9489951
113	0x3f73fc8a	0.9530722
114	0x3f7cc648	0.98740053
115	0x3f7bf643	0.9842264
116	0x3f77b1a8	0.96755457
117	0x3f75bd2f	0.95991796
118	0x3f89ddb2	1.0770781
119	0x3f7f36a9	0.9969278
120	0x3f7dcc36	0.99139726
121	0x3f70d2b5	0.94071513
122	0x3f8c801b	1.0976595
123	0x3f80be69	1.0058109
124	0x3f70703a	0.93921244
125	0x3f73bf7e	0.9521407
126	0x3f8bc5df	1.091976
127	0x3f7f7a96	0.99796426
128	0x3f76a8ff	0.9635162
129	0x3f6db9b8	0.9286151
130	0x3f7d8af1	0.9904013
131	0x3f807ce1	1.003811
132	0x3f71955a	0.9436852
133	0x3f76f30e	0.9646462
134	0x3f8baddd	1.0912434
135	0x3f7f54c1	0.997387
136	0x3f703d8c	0.93843913
137	0x3f745ce7	0.9545426
138	0x3f75b515	0.95979434
139	0x3f831080	1.023941
140	0x3f71ab10	0.94401646
141	0x3f777556	0.96663415
142	0x3f79c5ee	0.9756764
143	0x3f7dcfcf	0.99145216
144	0x3f6e428b	0.93070287
145	0x3f766d50	0.9626055
146	0x3f7bccd2	0.98359406
147	0x3f7cff81	0.9882737
148	0x3f72ebf3	0.9489128
149	0x3f6c726a	0.9236208
150	0x3f78f746	0.9725231
151	0x3f8672e2	1.050381
152	0x3f6de2d0	0.92924213
153	0x3f6ecf28	0.93284845
154	0x3f7962c4	0.9741633
155	0x3f80f28d	1.0074021
156	0x3f6850f9	0.90748554
157	0x3f728013	0.94726676
158	0x3f78e7d6	0.97228754
159	0x3f805599	1.0026122
160	0x3f70830e	0.93949974
161	0x3f77c35d	0.96782476
162	0x3f7fcf1c	0.999254
163	0x3f8320eb	1.0244421
164	0x3f76bdfa	0.9638363
165	0x3f6d714b	0.92750996
166	0x3f7b4caa	0.98163855
167	0x3f825270	1.0181408
168	0x3f737f30	0.9511595
169	0x3f72e058	0.9487357
170	0x3f7ed693	0.99546164
171	0x3f82bbdc	1.021358
172	0x3f6499cb	0.8929717
173	0x3f7553a1	0.9583073
174	0x3f7d898a	0.9903799
175	0x3f7f33a9	0.996882
176	0x3f70d939	0.94081455
177	0x3f79ddfa	0.97604334
178	0x3f75418e	0.95803154
179	0x3f82b893	1.0212578
180	0x3f704839	0.93860203
181	0x3f745d5a	0.95454943
182	0x3f76ee56	0.9645742
183	0x3f81c002	1.0136721
184	0x3f72bac2	0.9481622
185	0x3f6ee495	0.9331754
186	0x3f7566e5	0.9586013
187	0x3f84151d	1.0318943
188	0x3f6b562f	0.9192838
189	0x3f6dc34b	0.9287612
190	0x3f7d14f4	0.98860097
191	0x3f7cfdf0	0.9882498
192	0x3f6faea0	0.9362583
193	0x3f715daa	0.94283545
194	0x3f7917be	0.9730185
195	0x3f822e1b	1.017032
196	0x3f6fabbf	0.9362144
197	0x3f6a4c3e	0.91522586
198	0x3f7b52f7	0.9817347
199	0x3f80e6d2	1.0070441
200	0x3f76005b	0.9609429
201	0x3f76e7ff	0.9644775
202	0x3f7993dc	0.9749124
203	0x3f818fa4	1.0121961
204	0x3f704d44	0.938679
205	0x3f6b7498	0.9197478
206	0x3f7c79ac	0.98623157
207	0x3f84a1d8	1.0361891
208	0x3f70b8e6	0.9403213
209	0x3f6e9b76	0.93205965
210	0x3f7c5b4d	0.98576814
211	0x3f8166d3	1.0109504
212	0x3f72544f	0.94659895
213	0x3f716ced	0.9430683
214	0x3f8063bf	1.003044
215	0x3f8333a4	1.0250134
216	0x3f71a863	0.9439756
217	0x3f70a3ae	0.93999755
218	0x3f74d567	0.95638126
219	0x3f7ec0a4	0.99512696
220	0x3f6e818c	0.9316642
221	0x3f788501	0.9707795
222	0x3f7bab5b	0.9830834
223	0x3f82a09e	1.0205266
224	0x3f6e97a9	0.93200165
225	0x3f6f3ff4	0.9345696
226	0x3f80b777	1.0055989
227	0x3f80fda5	1.0077406
228	0x3f6d4a56	0.9269155
229	0x3f760f73	0.96117324
230	0x3f82a752	1.0207312
231	0x3f81f854	1.0153909
232	0x3f6fbcfb	0.93647736
233	0x3f730e2f	0.9494352
234	0x3f7cb567	0.987143
235	0x3f82972b	1.0202383
236	0x3f720e37	0.9455294
237	0x3f7221a4	0.9458258
238	0x3f81687e	1.0110013
239	0x3f81cc92	1.0140555
240	0x3f6d43c2	0.92681515
241	0x3f6f518f	0.93483824
242	0x3f72965a	0.9476067
243	0x3f818cf9	1.0121146
244	0x3f701c60	0.93793297
245	0x3f77b96f	0.96767324
246	0x3f7aecc0	0.980175
247	0x3f82b7fa	1.0212395
248	0x3f7887b2	0.97082055
249	0x3f6fca93	0.9366848
250	0x3f8041c8	1.0020075
251	0x3f80bf35	1.0058352
252	0x3f6e452a	0.93074286
253	0x3f767119	0.96266323
254	0x3f7dac38	0.9909091
255	0x3f7f42c9	0.9971128

fc_layers.1.bias f4 [816]
0	0xbb8e7c57	-0.0043483186
1	0xbd162e44	-0.036665216
2	0x3b2c9e65	0.0026339528
3	0x3dc92b9b	0.0982277
4	0xbd2c5d3f	-0.042081114
5	0xbdcea2b5	-0.10089628
6	0x3cf561f1	0.029953929
7	0xbccfb7c1	-0.025356175
8	0x3d0a763d	0.033804167
9	0x3d0c0a8e	0.034189753
10	0xbc74a2da	-0.014931405
11	0x3cd81804	0.026378639
12	0xbdbd05b2	-0.09229602
13	0x3d028dbe	0.031873457
14	0xbc79cfed	-0.015247327
15	0x3d1e9690	0.038717806
16	0xbda88f9f	-0.082305185
17	0xbbecde23	-0.007228629
18	0x3d46c27d	0.048525322
19	0x3c2c2273	0.01050626
20	0x3b8ee8d4	0.0043612514
21	0xbc2f308e	-0.010692729
22	0x3c910061	0.017700376
23	0xbcb0ee07	-0.021597875
24	0xbdb30056	-0.087402984
25	0xbdcb0d07	-0.09914594
26	0xbb9533f3	-0.004553312
27	0x3cadb5c9	0.021204846
28	0x3d351367	0.044207957
29	0xbd42413a	-0.047425486
30	0x3bbc017b	0.005737481
31	0x3c93091e	0.017948683
32	0xbd501d44	-0.05080916
33	0xbd89ed40	-0.06734705
34	0xbd0351a8	-0.032060295
35	0x3ce0b123	0.027428215
36	0xbd4d793d	-0.05016445
37	0x3c4bdc6a	0.0124426875
38	0xbc85846c	-0.016298495
39	0x3ccf3ff8	0.025299057
40	0x3ca3775c	0.019954376
41	0x3d65b2a8	0.056078583
42	0x3c5ea87e	0.013589976
43	0x3ca701ef	0.020386664
44	0xbd5bed82	-0.053693302
45	0xbcfd633d	-0.03093111
46	0x3ab28b60	0.0013621859
47	0xbc9e687a	-0.019336928
48	0x3c53fbdf	0.012938469
49	0xbcb1bdf8	-0.02169703
50	0xb9886933	-0.0002601832
51	0xbca6fd0e	-0.020384338
52	0x3d76ec64	0.060284033
53	0x3d9f7321	0.07785631
54	0x3af7a123	0.0018892627
55	0x3c72a6dd	0.014810291
56	0xbd7edc69	-0.06222192
57	0x3bf88c52	0.007585087
58	0xbb954c18	-0.00455619
59	0xbcb113ad	-0.021615827
60	0xbdab7614	-0.08372131
61	0x3af6dea8	0.0018834667
62	0x3b640e83	0.0034798689
63	0xbcaf5b47	-0.02140583
64	0xbcfdf5f7	-0.031001074
65	0xbd26bd5c	-0.04070793
66	0x3cb3bc08	0.021940246
67	0x3d07f637	0.033193793
68	0x3c26ec87	0.010188228
69	0x3d95cfd3	0.0731503
70	0xbc836f32	-0.016044233
71	0xbcafa358	-0.021440193
72	0xbd709baf	-0.05874222
73	0xbd4fb4cd	-0.050709534
74	0xbdb2c6ab	-0.08729299
75	0x3cde7c63	0.027158922
76	0xbd747aa2	-0.059687264
77	0x3d861cec	0.06548485
78	0xbc5467ef	-0.012964233
79	0x3cdf85a5	0.027285406
80	0xbd0cd5fe	-0.034383766
81	0xbd6b0f08	-0.05738738
82	0xbd6e5273	-0.0581841
83	0xbcbb0461	-0.022829236
84	0xbcf515ce	-0.029917624
85	0x3a2e9098	0.00066591194
86	0xbc29f4f8	-0.0103733465
87	0x3c8c6f17	0.017142816
88	0x3bc0d3f6	0.0058846427
89	0xbd202658	-0.039099067
90	0x3c351c16	0.0110540595
91	0x3c9e5326	0.019326758
92	0xbd891a4d	-0.066944696
93	0x3ca313e7	0.019906951
94	0xbc868af0	-0.016423672
95	0x3c9b17e9	0.0189323
96	0xbd10badb	-0.03533445
97	0xbd75a075	-0.059967477
98	0x3d0b8b39	0.03406832
99	0xbcb38f35	-0.021918872
100	0xbd2ac00a	-0.04168705
101	0xbd654501	-0.05597401
102	0xbbf57a28	-0.007491369
103	0x3d9897ab	0.07450803
104	0xbc90d8e0	-0.017681539
105	0x3cdfff88	0.027343526
106	0xbc374dca	-0.01118798
107	0xbca1e899	-0.019764232
108	0xbd3d4c42	-0.046215303
109	0x3dc9df5a	0.09857054
110	0xbb842970	-0.00403326
111	0xbc7f4581	-0.015580536
112	0xbd76c204	-0.06024362
113	0xbdbc1e2d	-0.09185443
114	0xbd67a493	-0.056553435
115	0x3d0db401	0.034595493
116	0x3bc2d4a8	0.0059457608
117	0x3c680449	0.014161178
118	0xbb14ce93	-0.0022706136
119	0xbce90c27	-0.028448178
120	0xbc341c9b	-0.010993148
121	0x3bb77a32	0.0055992836
122	0x3c20c11e	0.009811668
123	0xbc9e39d3	-0.019314682
124	0xbd372736	-0.04471513
125	0x3d0e5bdf	0.034755584
126	0xbc464baf	-0.012103005
127	0xbcf0618b	-0.029343387
128	0xbda093b0	-0.07840669
129	0xbdd461a2	-0.103701845
130	0xbc23423f	-0.009964525
131	0xbcdff4f3	-0.02733848
132	0xbd1e2be4	-0.038616076
133	0x3d8fad3f	0.07015466
134	0x3c029396	0.007969758
135	0xbcf477e7	-0.02984233
136	0x3d23c07f	0.0399785
137	0xbce9c4da	-0.028536249
138	0xbd01299d	-0.031533826
139	0x3c7ed43b	0.015553529
140	0x3d4d1e85	0.050077934
141	0x3d4f5e56	0.050627075
142	0xbb6ce304	-0.0036146054
143	0x3caba2ef	0.020951716
144	0x3dea09be	0.114276394
145	0x3bc61221	0.0060446416
146	0x3cb8ec7e	0.022573706
147	0x3ca747dc	0.020420007
148	0x3e0271f7	0.12738787
149	0x3c09a722	0.008401664
150	0x3d17eb36	0.03708955
151	0x3d86ed43	0.06588223
152	0xbc203233	-0.009777593
153	0xbd1005d0	-0.035161793
154	0xbd11215e	-0.035432212
155	0xbc2a6bdd	-0.010401693
156	0x3d0c8af4	0.034312204
157	0xbc9ce97b	-0.0191543
158	0x3db64b37	0.08901065
159	0x3d2e2cfe	0.042523377
160	0x3d4b2e2d	0.049604584
161	0x3c84c89c	0.01620894
162	0x3d6b5ba5	0.057460446
163	0x3e09003d	0.13378997
164	0xbc15fbec	-0.009154301
165	0xbd519624	-0.051168576
166	0x3c65605f	0.014000027
167	0x3d48548f	0.048908766
168	0xbc30103f	-0.010746061
169	0xbccea7fd	-0.025226587
170	0x3c16ae1e	0.009196786
171	0x3cda8ffd	0.026679987
172	0x3d9ae6ec	0.07563576
173	0x3ce61f9d	0.028091246
174	0xbbe72439	-0.0070538786
175	0x3cefdfe6	0.029281568
176	0xbd4b36b1	-0.049612705
177	0x3c34b6a0	0.011029869
178	0x3d29dbb6	0.0414693
179	0x3de06d8c	0.109583944
180	0xbbd235ba	-0.006415096
181	0x3d161050	0.03663665
182	0x3ca19f4a	0.019729275
183	0x3dae6313	0.08514991
184	0x3a388d2c	0.0007040079
185	0xbcf60ffc	-0.030036919
186	0x3cf92e2f	0.03041753
187	0xb98e0365	-0.0002708688
188	0x3d8c5de5	0.068538465
189	0x3cfb15b7	0.030650003
190	0xbc9c3a63	-0.01907081
191	0xbc6ef4af	-0.014584704
192	0xbbfb7705	-0.0076741003
193	0xbd18c76f	-0.03729957
194	0x3c8a8889	0.016910808
195	0x3d26967a	0.04067085
196	0x3c3e37b8	0.011609964
197	0xbc16c6ca	-0.009202668
198	0x3db22055	0.08697573
199	0xbc65656f	-0.014001234
200	0xbcc2e61f	-0.02379137
201	0x3cfd6455	0.030931631
202	0x3cff30c7	0.031151189
203	0x3d90c7c9	0.07069356
204	0x3d8e69d9	0.069537826
205	0x3d0a279f	0.033729192
206	0x3cfa660c	0.030566238
207	0x3dd05dab	0.10174116
208	0x3c98dfea	0.018661458
209	0xbd3547e1	-0.044258002
210	0x3bfaba45	0.0076515996
211	0x3ac93663	0.0015351292
212	0xbd0a7e32	-0.033811755
213	0x3c2cd65d	0.010549155
214	0x3d03f19f	0.03221285
215	0x3e049bca	0.12950054
216	0xbd51bb03	-0.05120374
217	0x3d65beaa	0.056090035
218	0x3d613c40	0.0549891
219	0x3d36a5fb	0.044591885
220	0xbcd9d67c	-0.026591532
221	0xbc151380	-0.009098887
222	0x3dbc43a2	0.091925874
223	0xbc7b30a3	-0.01533142
224	0x3d58d715	0.052939493
225	0x3b9e9b75	0.0048403093
226	0x3dc1934e	0.09451924
227	0x3d4e041c	0.050296888
228	0x3d4b313d	0.049607504
229	0x3d4d8256	0.050173126
230	0x3c3de23a	0.011589581
231	0x3d90d44f	0.07071745
232	0xbb292aa7	-0.0025812776
233	0x3c812f46	0.015769612
234	0x3cc49bae	0.024000015
235	0x3d1f15cb	0.038839143
236	0x3dd74b42	0.10512401
237	0xbcdf621d	-0.027268464
238	0x3d3edc9b	0.046597105
239	0x3d528aa9	0.051401768
240	0xbcba111a	-0.022713233
241	0x3c4331c6	0.011913722
242	0x3d2ae2ba	0.04172013
243	0x3d513640	0.051077127
244	0x3c85b9e6	0.016323995
245	0xbc535ec1	-0.012901009
246	0x3c77d9c8	0.015127607
247	0x3e149176	0.14508614
248	0x3d825838	0.06364483
249	0xbd0e9c5a	-0.034817077
250	0x3cc263e3	0.02372927
251	0x3d051e6a	0.03249971
252	0xba616c98	-0.00085992506
253	0xbcbc6439	-0.022997009
254	0xbccc08d1	-0.024906548
255	0x3ca2f9b9	0.019894468

fc_layers.1.running_mean f4 [816]
0	0x3e880cc6	0.26572245
1	0x3d97075b	0.0737445
2	0x3c9fe67b	0.019519081
3	0x35ac6d43	1.2846798e-06
4	0x3e8bb5e8	0.2728722
5	0x3d72d912	0.059289046
6	0x3bbf0c37	0.0058303135
7	0x00000004	6e-45
8	0x3ea00e4c	0.31260908
9	0x3d7f3a2a	0.06231133
10	0x3c7219f9	0.0147767
11	0x38fa0875	0.00011922504
12	0x3e89e398	0.26931453
13	0x3d9feb82	0.078085914
14	0x3c375624	0.011189971
15	0x344f0af3	1.928236e-07
16	0x3e8bcf85	0.27306762
17	0x3d972634	0.073803335
18	0x3c7b5289	0.015339502
19	0x379380c7	1.7583732e-05
20	0x3e8f98bf	0.28046224
21	0x3da68640	0.08131075
22	0x3bf13cdb	0.007361991
23	0x358c62b2	1.0459537e-06
24	0x3e8e1f72	0.27758366
25	0x3d92ac69	0.07161791
26	0x3c0e5821	0.008688004
27	0x00000004	6e-45
28	0x3e7cc8cd	0.24685974
29	0x3d9573e2	0.072974935
30	0x3c4c225e	0.012459366
31	0x3a1bc518	0.000594215
32	0x3e6d1a9f	0.23154686
33	0x3d930680	0.07178974
34	0x3c5637dc	0.013074841
35	0x358bf1cd	1.042668e-06
36	0x3e72d316	0.23713335
37	0x3d8ad3a7	0.06778651
38	0x3c92f299	0.017937945
39	0x39e8597a	0.00044317154
40	0x3e543d21	0.20726444
41	0x3d7bb930	0.061455905
42	0x3be8a264	0.0070994366
43	0x3a738374	0.00092893024
44	0x3e99a284	0.30006802
45	0x3d753c6f	0.059872087
46	0x3c401b07	0.011725194
47	0x00000004	6e-45
48	0x3e9ab72e	0.3021788
49	0x3db29b93	0.0872108
50	0x3c4ce954	0.012506802
51	0x1d3322b6	2.3708398e-21
52	0x3e8d5acf	0.27608344
53	0x3db39e72	0.087704554
54	0x3c714b7e	0.014727471
55	0x35112b44	5.407967e-07
56	0x3e809f3d	0.2512149
57	0x3d7ef98c	0.062249705
58	0x3b325ee1	0.0027217197
59	0x252e447a	1.5115295e-16
60	0x3e7489a2	0.23880628
61	0x3da27f3c	0.07934424
62	0x3c0141cb	0.007889221
63	0x38e569ed	0.00010939301
64	0x3e47e102	0.19519427
65	0x3d1cef70	0.038314283
66	0x3bae3c77	0.0053172666
67	0x39ab45c7	0.0003266765
68	0x3e4be1de	0.1991038
69	0x3d3111be	0.04322981
70	0x3c128c9c	0.008944657
71	0x367741f8	3.6844267e-06
72	0x3e3e8918	0.18606985
73	0x3d53471e	0.051581495
74	0x3b063b44	0.0020482102
75	0x00000004	6e-45
76	0x3e520bc6	0.20512304
77	0x3d567e09	0.05236629
78	0x3c0ad151	0.0084727565
79	0x331a40a5	3.5914713e-08
80	0x3e7ff4ba	0.249957
81	0x3d89c177	0.067263536
82	0x3c7a0282	0.015259387
83	0x3b181d6d	0.0023210899
84	0x3e8331fa	0.25624067
85	0x3d8fa723	0.07014301
86	0x3c53a4c9	0.012917706
87	0x202b812b	1.4527001e-19
88	0x3e6faddd	0.23406167
89	0x3d55b8c5	0.052178163
90	0x3c251825	0.010076557
91	0x00000004	6e-45
92	0x3e6e7cbe	0.23289773
93	0x3d328fc2	0.04359413
94	0x3bbc6981	0.0057498817
95	0x28d77d74	2.3924202e-14
96	0x3e4c9bee	0.19981357
97	0x3d5f2d83	0.054486763
98	0x3b8f55c0	0.004374236
99	0x00000004	6e-45
100	0x3e30cb5e	0.17265078
101	0x3d544880	0.051826954
102	0x3c2bd5ca	0.010487983
103	0x0007885a	6.91762e-40
104	0x3e18864b	0.14894979
105	0x3d03ad2f	0.032147583
106	0x3aef0d42	0.0018238204
107	0x00000004	6e-45
108	0x3e8a14ed	0.2696909
109	0x3d549c02	0.051906593
110	0x3c006472	0.007836448
111	0x00000004	6e-45
112	0x3e854258	0.2602718
113	0x3d87cccf	0.06630861
114	0x3c11d48f	0.008900776
115	0x3b3851ea	0.0028124996
116	0x3e74bb3f	0.23899554
117	0x3d79b770	0.060965955
118	0x3c160e0f	0.009158625
119	0x32c97978	2.3454717e-08
120	0x3e4c9b39	0.19981088
121	0x3d80140c	0.06253824
122	0x3b6393e8	0.003472561
123	0x00000004	6e-45
124	0x3e335de4	0.17516285
125	0x3d28c498	0.04120311
126	0x3c494a9a	0.012285853
127	0x00000004	6e-45
128	0x3e56e289	0.20984854
129	0x3d75dd5d	0.06002556
130	0x3c2f7a03	0.010710242
131	0x304753da	7.251494e-10
132	0x3e1e0f05	0.15435417
133	0x3d3d196c	0.046166822
134	0x3ba81117	0.0051289904
135	0x3a0945af	0.0005236519
136	0x3f26c85d	0.6514948
137	0x3eaaa628	0.33329892
138	0x3e1b9d30	0.15196681
139	0x3d270ed1	0.040785614
140	0x3f2e57d1	0.6810275
141	0x3ea9f144	0.33191884
142	0x3e15196e	0.14560482
143	0x3d3ff36c	0.046863005
144	0x3f208263	0.62698954
145	0x3ea8d4af	0.32974765
146	0x3e0a1335	0.1348389
147	0x3d19798c	0.03746943
148	0x3f283da5	0.6571906
149	0x3eabca4f	0.33552787
150	0x3dfcae84	0.12337974
151	0x3d148897	0.036263075
152	0x3f290005	0.66015655
153	0x3eaedca8	0.34152722
154	0x3df43dec	0.11925873
155	0x3cf93a2c	0.030423246
156	0x3f29903a	0.662357
157	0x3eb368f2	0.35041004
158	0x3e12467e	0.14284703
159	0x3d44949e	0.047993295
160	0x3f29f425	0.6638816
161	0x3eb61c0b	0.3556827
162	0x3df84298	0.12122077
163	0x3d052769	0.032508288
164	0x3f1fc898	0.62415457
165	0x3ea277eb	0.31732115
166	0x3e04d93b	0.12973492
167	0x3d2b46eb	0.04181568
168	0x3f292b6a	0.6608187
169	0x3eb3083f	0.3496723
170	0x3e06e0c4	0.13171679
171	0x3d07054e	0.032964043
172	0x3f2593fe	0.64678943
173	0x3ebd132d	0.36928692
174	0x3e25bf46	0.16186246
175	0x3d4e4200	0.05035591
176	0x3f2731a7	0.6531014
177	0x3ea4b85a	0.321719
178	0x3e22cbfb	0.15898125
179	0x3d19e79b	0.03757439
180	0x3f259d1e	0.64692867
181	0x3eab6a82	0.33479697
182	0x3de5bd3c	0.11217734
183	0x3cf624bc	0.030046813
184	0x3f1d859d	0.61532
185	0x3eb43124	0.3519374
186	0x3e1edf81	0.15514947
187	0x3d4121b8	0.047151297
188	0x3f23081b	0.6368424
189	0x3eb3b7d5	0.3510119
190	0x3e15046e	0.14552471
191	0x3d42680d	0.04746251
192	0x3f2ab942	0.6668893
193	0x3eb4bec0	0.3530178
194	0x3e1b7d3f	0.15184496
195	0x3d391834	0.045189098
196	0x3f1df657	0.6170401
197	0x3ea69883	0.32538232
198	0x3e12a1f0	0.14319587
199	0x3cd18d00	0.02557993
200	0x3f2d6c2e	0.67743194
201	0x3ec1fdb5	0.37888876
202	0x3e28cdd4	0.16484767
203	0x3d08fa2f	0.03344172
204	0x3f333173	0.6999733
205	0x3ec80a73	0.39070472
206	0x3e2ee800	0.17080688
207	0x3d44220e	0.04788404
208	0x3f30db0b	0.69084233
209	0x3ed55ed2	0.41673905
210	0x3e35449c	0.17701954
211	0x3d6bb453	0.057545017
212	0x3f259724	0.6468375
213	0x3eb748c0	0.3579769
214	0x3e2273c4	0.15864474
215	0x3d55a4cb	0.052159112
216	0x3f2660ed	0.64991647
217	0x3eb30ed4	0.3497225
218	0x3e1bb3a7	0.1520525
219	0x3d68aef0	0.05680746
220	0x3f1fd61f	0.624361
221	0x3e9f922b	0.31166205
222	0x3e06e2d0	0.1317246
223	0x3d2a9d51	0.041653935
224	0x3f25c2f9	0.6475063
225	0x3ead17fb	0.33807358
226	0x3e087ac6	0.13328084
227	0x3d06aeba	0.032881476
228	0x3f2a031f	0.6641101
229	0x3ebb7ae9	0.3661721
230	0x3e176b1b	0.14786951
231	0x3d47c894	0.04877527
232	0x3f2a4250	0.66507435
233	0x3ec7047e	0.38870615
234	0x3e12a45b	0.14320509
235	0x3d17c2e6	0.037051104
236	0x3f294c6e	0.6613225
237	0x3ebeb7cd	0.37249604
238	0x3e1914f5	0.149494
239	0x3cf09bef	0.02937123
240	0x3f3335ea	0.7000414
241	0x3ecd097e	0.40046304
242	0x3e185da8	0.14879477
243	0x3d59877a	0.053107716
244	0x3f1f1b03	0.6215059
245	0x3eafdb05	0.34346786
246	0x3e15ea83	0.1464024
247	0x3d38cfa1	0.045119885
248	0x3f231587	0.63704723
249	0x3ea6a24c	0.32545698
250	0x3dfd183f	0.1235814
251	0x3d06d24b	0.032915395
252	0x3f26b65d	0.65122014
253	0x3eb3ddec	0.3513025
254	0x3e220d01	0.15825273
255	0x3d047537	0.032338347

fc_layers.1.running_var f4 [816]
0	0x3e482a0e	0.19547293
1	0x3d8d2da6	0.068934724
2	0x3c9b40fb	0.018951884
3	0x35ac6d43	1.2846798e-06
4	0x3e4bd38d	0.19904919
5	0x3d60acf7	0.054852452
6	0x3bbcc52e	0.0057608103
7	0x00000004	6e-45
8	0x3e5c60fe	0.21521375
9	0x3d6dbeb6	0.058043204
10	0x3c6d28d7	0.014475069
11	0x38fa0875	0.00011922504
12	0x3e492eea	0.19646803
13	0x3d92b7f2	0.07163991
14	0x3c360be1	0.011111231
15	0x344f0af3	1.928236e-07
16	0x3e49d724	0.19710976
17	0x3d8adbfc	0.0678024
18	0x3c78e76b	0.015191893
19	0x379380c3	1.7583725e-05
20	0x3e4fd69a	0.20296708
21	0x3d983c2b	0.07433351
22	0x3bf13cdb	0.007361991
23	0x358c62b2	1.0459537e-06
24	0x3e4c3316	0.19941363
25	0x3d894c4f	0.06704008
26	0x3c0e5759	0.0086878175
27	0x00000004	6e-45
28	0x3e3fc9f6	0.18729386
29	0x3d8ad98c	0.06779775
30	0x3c487f3b	0.012237365
31	0x3a1bc514	0.00059421477
32	0x3e362185	0.17786224
33	0x3d882ab6	0.066487715
34	0x3c562730	0.013070866
35	0x358bf1cd	1.042668e-06
36	0x3e3b08a0	0.18265009
37	0x3d82e2c2	0.06390907
38	0x3c92b9d3	0.017910874
39	0x39e85978	0.00044317148
40	0x3e28b54b	0.16475408
41	0x3d6b091e	0.05738174
42	0x3be6806a	0.007034351
43	0x3a738374	0.00092893024
44	0x3e59b74c	0.21261328
45	0x3d678d63	0.05653132
46	0x3c3e1d15	0.011603613
47	0x00000004	6e-45
48	0x3e57ddd5	0.21080716
49	0x3da33ac2	0.079701915
50	0x3c4b6d77	0.012416235
51	0x1d3322ab	2.3708376e-21
52	0x3e4b4d5b	0.19853728
53	0x3da591c2	0.08084442
54	0x3c6d5e06	0.014487749
55	0x35112b40	5.4079646e-07
56	0x3e41ac2d	0.18913336
57	0x3d6ed0e8	0.058304697
58	0x3b322173	0.0027180582
59	0x252e447a	1.5115295e-16
60	0x3e3c9cf6	0.18419251
61	0x3d979f28	0.074034035
62	0x3bfd101d	0.007722868
63	0x38e569ed	0.00010939301
64	0x3e20ae60	0.15691519
65	0x3d166b4f	0.03672343
66	0x3bacb94c	0.0052711125
67	0x39ab45c7	0.0003266765
68	0x3e21af3c	0.15789503
69	0x3d288e97	0.04115161
70	0x3c0fdf2c	0.008781236
71	0x367741f8	3.6844267e-06
72	0x3e1ae603	0.15126805
73	0x3d488a05	0.04895975
74	0x3b063a16	0.00204814
75	0x00000004	6e-45
76	0x3e274369	0.16334309
77	0x3d4d7daf	0.05016869
78	0x3c0a551b	0.008443142
79	0x331a40a5	3.5914713e-08
80	0x3e413e73	0.18871479
81	0x3d7fd8ca	0.062462606
82	0x3c772f1e	0.015086917
83	0x3b181d6c	0.0023210896
84	0x3e44f737	0.1923493
85	0x3d85649f	0.065133326
86	0x3c50a276	0.012734046
87	0x202b812b	1.4527001e-19
88	0x3e38e262	0.18055108
89	0x3d4c46af	0.049872097
90	0x3c23ec3b	0.010005052
91	0x00000004	6e-45
92	0x3e361c6f	0.17784284
93	0x3d28a37d	0.04117154
94	0x3bbc5f0f	0.0057486366
95	0x28d77d6e	2.3924191e-14
96	0x3e237925	0.15964182
97	0x3d54038b	0.05176119
98	0x3b8e7149	0.0043470007
99	0x00000004	6e-45
100	0x3e1396d4	0.14413005
101	0x3d4aca43	0.049509298
102	0x3c294978	0.010332458
103	0x0007885a	6.91762e-40
104	0x3e039267	0.12848817
105	0x3d00b9d9	0.031427238
106	0x3aef0b39	0.0018237598
107	0x00000004	6e-45
108	0x3e4b7e12	0.19872311
109	0x3d4ceae7	0.050028708
110	0x3bfbf6a8	0.007689316
111	0x00000004	6e-45
112	0x3e47056c	0.19435662
113	0x3d7c9d12	0.06167323
114	0x3c106586	0.008813268
115	0x3b3851ea	0.0028124996
116	0x3e3ab08d	0.18231411
117	0x3d6a8c40	0.05726266
118	0x3c160d58	0.009158455
119	0x32c97978	2.3454717e-08
120	0x3e271606	0.16316995
121	0x3d74cf70	0.05976814
122	0x3b6279ac	0.0034557385
123	0x00000004	6e-45
124	0x3e14f683	0.14547162
125	0x3d240454	0.04004319
126	0x3c47b623	0.012189421
127	0x00000004	6e-45
128	0x3e28b99e	0.16477057
129	0x3d695866	0.05696907
130	0x3c2f5639	0.010701709
131	0x304753da	7.251494e-10
132	0x3e067341	0.13129903
133	0x3d36d21b	0.044633966
134	0x3ba8110d	0.0051289857
135	0x3a0945af	0.0005236519
136	0x3e68eee7	0.22747384
137	0x3e6665b5	0.22499736
138	0x3e06850c	0.13136691
139	0x3d22931e	0.039691083
140	0x3e6097b6	0.21932873
141	0x3e6635ea	0.22481504
142	0x3dfba4df	0.12287306
143	0x3d394a43	0.045236837
144	0x3e734ab6	0.23758969
145	0x3e65bdda	0.22435704
146	0x3df1d013	0.11807265
147	0x3d159917	0.03652295
148	0x3e68b7af	0.2272632
149	0x3e66a861	0.22525169
150	0x3dde89e4	0.10866144
151	0x3d1139c2	0.035455473
152	0x3e5dcf70	0.21661162
153	0x3e646f5a	0.22308102
154	0x3dd58bf5	0.10427085
155	0x3ced65df	0.02897924
156	0x3e65d886	0.22445878
157	0x3e6ae101	0.22937395
158	0x3dfda966	0.12385826
159	0x3d3b97fb	0.045799237
160	0x3e65960b	0.22420518
161	0x3e6c7dfd	0.23094936
162	0x3dd9f353	0.106421135
163	0x3d00e8fd	0.031472195
164	0x3e733315	0.23749955
165	0x3e5f4bc2	0.21806243
166	0x3de95a8c	0.113942236
167	0x3d258c7d	0.040417183
168	0x3e696b47	0.2279483
169	0x3e6ae06c	0.22937173
170	0x3ded3f3b	0.11584326
171	0x3d03aa24	0.03214468
172	0x3e6cf2ba	0.23139468
173	0x3e6fdd51	0.2342427
174	0x3e0c5349	0.13703646
175	0x3d43f7ea	0.04784385
176	0x3e665515	0.22493394
177	0x3e63b0e1	0.22235443
178	0x3e093b3f	0.13401507
179	0x3d13ee3c	0.03611587
180	0x3e6ca551	0.23109938
181	0x3e62539e	0.2210221
182	0x3dca9a60	0.09892726
183	0x3cef3df3	0.029204344
184	0x3e76a936	0.24087986
185	0x3e6c9e67	0.231073
186	0x3e089a57	0.13340126
187	0x3d39f4c7	0.045399453
188	0x3e6c1354	0.23054248
189	0x3e6a70d5	0.22894605
190	0x3dff0829	0.12452728
191	0x3d3a781a	0.045524694
192	0x3e65467a	0.22390166
193	0x3e6cc9ea	0.23123899
194	0x3e03de26	0.12877712
195	0x3d307697	0.043081846
196	0x3e6f910e	0.23395178
197	0x3e5c8eeb	0.21538894
198	0x3dfc5753	0.12321343
199	0x3ccc3279	0.024926411
200	0x3e61b92d	0.22043295
201	0x3e74fb25	0.23923929
202	0x3e0cdb4f	0.13755535
203	0x3d05baa0	0.032648683
204	0x3e58ea7d	0.211832
205	0x3e6fddb6	0.2342442
206	0x3e107751	0.14108016
207	0x3d3bcb80	0.04584837
208	0x3e5cd4ce	0.21565554
209	0x3e7c114d	0.24615975
210	0x3e1648f7	0.14676271
211	0x3d5f6d38	0.05454752
212	0x3e6aeb24	0.22941262
213	0x3e6e2b55	0.23258717
214	0x3e0a63ac	0.13514584
215	0x3d4cc579	0.049993012
216	0x3e69d126	0.2283369
217	0x3e65a1f4	0.22425061
218	0x3e0491c6	0.12946233
219	0x3d5ba608	0.053625137
220	0x3e708034	0.23486406
221	0x3e5d930b	0.21638124
222	0x3def344f	0.11679899
223	0x3d260948	0.040536195
224	0x3e69c1df	0.22827862
225	0x3e639383	0.2222424
226	0x3decd874	0.11564723
227	0x3d02c98d	0.031930495
228	0x3e66012c	0.22461385
229	0x3e6fd344	0.23420435
230	0x3e0287d7	0.12747131
231	0x3d3e8eae	0.04652279
232	0x3e6404d7	0.22267471
233	0x3e75c2fd	0.24000163
234	0x3df94e3e	0.12173127
235	0x3d103bef	0.035213407
236	0x3e670fcb	0.22564618
237	0x3e73d76b	0.23812644
238	0x3e03f04f	0.12884639
239	0x3ce9a35e	0.028520282
240	0x3e5ad0c8	0.21368706
241	0x3e770edd	0.24126764
242	0x3e0201f3	0.12696056
243	0x3d4fac14	0.050701216
244	0x3e756a45	0.2396632
245	0x3e6a0f8a	0.2285749
246	0x3e01e3d8	0.12684572
247	0x3d3259ac	0.04354255
248	0x3e6d1187	0.23151217
249	0x3e6348c5	0.22195728
250	0x3ddf5b24	0.109060556
251	0x3d03765a	0.03209529
252	0x3e6b89f0	0.23001838
253	0x3e6b4fd1	0.22979666
254	0x3e065ad5	0.13120587
255	0x3cfe0b8d	0.031011367

fc_layers.2.weight f4 [64, 816]
0	0x3c4bfadf	0.012449949
1	0xbdb7a97b	-0.08967873
2	0x3d79e7e4	0.061012164
3	0xbd9010f3	-0.07034483
4	0xbd248f3a	-0.040175654
5	0x3b67ec23	0.0035388551
6	0x3df5a607	0.11994558
7	0x3c81659c	0.015795521
8	0xbce7651e	-0.028246459
9	0xbd20f133	-0.039292526
10	0x3a80590b	0.0009792162
11	0x3c80eca3	0.015737837
12	0x3cf2a0e2	0.02961773
13	0xbdbe4bd3	-0.09291806
14	0xbd2a779a	-0.041617967
15	0xbd48e3f5	-0.04904552
16	0x3c237da7	0.009978688
17	0xbd1b890f	-0.037972506
18	0x3ad7d653	0.0016467072
19	0xbd391149	-0.0451825
20	0xbd55ea3b	-0.052225333
21	0x3d83942f	0.06424748
22	0x3d0202c0	0.031740904
23	0xba9cd0ef	-0.0011964123
24	0xbd936148	-0.07196289
25	0xbbdedbe6	-0.0068011163
26	0xbd615766	-0.05501499
27	0xbcd462c2	-0.025925998
28	0x3d9c997a	0.07646461
29	0xbd059c17	-0.032619562
30	0xbdacddb8	-0.08440727
31	0xbd4953de	-0.049152248
32	0x3c9641ab	0.01834186
33	0xbd0ba2cc	-0.034090802
34	0xbd04a17f	-0.032380577
35	0x3d6c879d	0.05774652
36	0xbd5ec1d2	-0.05438406
37	0xbd59e6d9	-0.05319867
38	0xbdff6bcf	-0.12471735
39	0x3d037260	0.0320915
40	0x3b31a40b	0.0027105834
41	0xbcd93a21	-0.026516976
42	0x3e131bea	0.14366117
43	0xbd8440f3	-0.064577006
44	0x3ce780f9	0.028259741
45	0x3cd7d827	0.026348187
46	0xbd6ba0fe	-0.05752658
47	0x3d817de4	0.0632284
48	0xbd79d0d4	-0.06099017
49	0x3c0bf37c	0.008541938
50	0xbd845b8a	-0.06462772
51	0x3e04abc1	0.12956144
52	0x3d36bb32	0.044612117
53	0x3d1555a9	0.036458645
54	0x3d36101c	0.044448957
55	0xbdd2c50b	-0.10291489
56	0x3c2ceb80	0.010554194
57	0xbcad14c0	-0.021128058
58	0x3cf39eeb	0.029738864
59	0x3d921336	0.071325704
60	0xbcfefffa	-0.031127919
61	0xbd9bdfd8	-0.07611054
62	0xbd093fde	-0.033508174
63	0xbcb0e535	-0.02159367
64	0xbcb2f70d	-0.021846319
65	0xbc0969eb	-0.008387069
66	0xbd3c1f45	-0.04592826
67	0xbc2c1dfb	-0.010505195
68	0x3d0ced75	0.034406144
69	0xbb5c7dc0	-0.0033644289
70	0x3e12763d	0.14302917
71	0x3da7ec50	0.0819937
72	0xbd003657	-0.031301823
73	0xbd842781	-0.06452847
74	0x3d456772	0.048194356
75	0xbd3e61ba	-0.046479918
76	0xbce41d13	-0.027845895
77	0x3cbeda30	0.0232974
78	0x3ddaee16	0.106899425
79	0xbcf7c9a4	-0.030247517
80	0x3c84f2de	0.01622909
81	0xbc986a5d	-0.018605405
82	0x3d2702c3	0.04077412
83	0x3d7818e8	0.060570627
84	0x3d12b8fc	0.035820946
85	0xbcf1ac29	-0.029501038
86	0x3d28ed9e	0.041242234
87	0xbdd9566f	-0.10612189
88	0x3ce0813f	0.02740538
89	0xbd2fbfa4	-0.042907372
90	0x3e04bd3a	0.12962809
91	0x3d94bb2f	0.07262265
92	0xbd72e012	-0.05929572
93	0x3d06e7da	0.032935955
94	0xbc441990	-0.011968985
95	0xbda1d5ed	-0.07902131
96	0xbd01b68c	-0.03166823
97	0x3d078679	0.033087227
98	0x3b828880	0.003983557
99	0xbc398160	-0.011322349
100	0xbd5a1153	-0.053239178
101	0x3d3826ab	0.04495875
102	0xbd90a2ea	-0.070623234
103	0x3cc48cc0	0.023992896
104	0xbd0a697d	-0.033792008
105	0xbc802f46	-0.015647542
106	0x3df987c6	0.121841
107	0x3d83ae16	0.06429689
108	0x3c41409e	0.011795191
109	0x3d12e645	0.035864133
110	0x3c995414	0.01871685
111	0xbd8d8c25	-0.06911496
112	0x3d39c5d1	0.045354668
113	0x3c8aaf8d	0.016929412
114	0x3d14cbe7	0.03632727
115	0x3d94da31	0.07268179
116	0x3c9d1264	0.019173808
117	0x3bb36d91	0.005475708
118	0x3e13d8f4	0.1443823
119	0x3b165094	0.0022936212
120	0xbd0aa1d8	-0.033845752
121	0x3d0ff483	0.035145294
122	0x3e1b6421	0.15174915
123	0x3dc32e85	0.09530357
124	0xbd54f51a	-0.05199156
125	0xbcdcb70b	-0.02694275
126	0x3e15ffae	0.14648315
127	0x3b0262be	0.001989528
128	0x3d21c0cc	0.039490506
129	0xbc55a013	-0.013038653
130	0x3d136d06	0.035992645
131	0xbd09f1b1	-0.03367776
132	0xbc8b54ee	-0.017008271
133	0xbccdd343	-0.025125152
134	0x3c77e54b	0.015130351
135	0xbd94bfa4	-0.07263115
136	0xbda3cd65	-0.0799816
137	0x3cde320c	0.027123474
138	0xbc7ceea7	-0.0154377585
139	0x3dc640fc	0.096803635
140	0x3cbca3c4	0.023027308
141	0x3d10681b	0.035255533
142	0x3ce9c367	0.028535558
143	0xbd1e0c67	-0.038586047
144	0xbcd3d72f	-0.025859443
145	0xbd91354a	-0.07090242
146	0x3da4ab87	0.08040529
147	0x3d9a1083	0.075226806
148	0x3d2ad508	0.04170707
149	0xbcde5f51	-0.02714506
150	0x3d2aca00	0.04169655
151	0x3d81d1e0	0.063388586
152	0x3d241ec7	0.040068414
153	0xbd934a3a	-0.07191892
154	0xb97b1229	-0.0002394399
155	0x3d68edbd	0.05686735
156	0x3d5c7ea9	0.05383173
157	0xbbe5864e	-0.0070045358
158	0x3d84897f	0.06471538
159	0xbce10618	-0.027468726
160	0x3c96760a	0.018366832
161	0x3d268488	0.040653735
162	0x3d089c91	0.03335244
163	0x3d8e384b	0.06944331
164	0xbb954735	-0.0045556077
165	0xbc87575e	-0.016521152
166	0x3cd3587c	0.025799029
167	0x3a675808	0.00088250684
168	0xbc77f259	-0.015133464
169	0x3d303b41	0.04302526
170	0x3d7401bd	0.05957197
171	0x3d86aa0d	0.06575403
172	0x3d4843bb	0.048892718
173	0xbd65b357	-0.056079235
174	0x3c1955bb	0.009358819
175	0x3d89fedc	0.06738064
176	0xbc776d79	-0.015101784
177	0xba3263be	-0.0006805024
178	0xbd1fa403	-0.038974773
179	0xbb8851ff	-0.0041601653
180	0xbcd608b2	-0.026127193
181	0x3d2d4c81	0.042309288
182	0x3cf2cfbf	0.029640077
183	0x3d903931	0.070421584
184	0xbd809da9	-0.06280071
185	0xbc30dc98	-0.010794781
186	0x3d605918	0.054772466
187	0xbc9003b1	-0.017579885
188	0xba92ac67	-0.0011190296
189	0x3d6ba37c	0.057528958
190	0x3d1d1f8d	0.038360167
191	0xbd39bb16	-0.045344435
192	0x3c96f966	0.01842947
193	0x3d42be2b	0.04754464
194	0x3c79bb15	0.015242358
195	0x3d070e85	0.03297283
196	0x3d843286	0.06454949
197	0x3bb6904f	0.005571402
198	0x3d5b4433	0.053531837
199	0xbd7a336f	-0.061084207
200	0x3d27afab	0.040939014
201	0xbbefe3f2	-0.0073208744
202	0x3c266ae7	0.010157323
203	0x3cf8aa4d	0.030354643
204	0xbd3fc0f0	-0.04681486
205	0x3d788d93	0.06068189
206	0xbc6188be	-0.013765512
207	0xbac50d80	-0.001503393
208	0x3c306d6c	0.010768276
209	0xbcc7a0f3	-0.024368739
210	0xbc97f1ad	-0.018547857
211	0xbc2b918e	-0.010471715
212	0xbd3d5099	-0.046219442
213	0x3d649c31	0.05581302
214	0xbd4443eb	-0.047916334
215	0x3d9b11ca	0.07571752
216	0x3d07f066	0.033188246
217	0x3db79fc6	0.08966021
218	0xbd49e4f9	-0.04929063
219	0x3dbcb50e	0.09214221
220	0xbc674010	-0.014114395
221	0x3cedcd66	0.029028606
222	0x3dbd653e	0.09247826
223	0xbd7e94f3	-0.062153768
224	0xbbc6482a	-0.006051083
225	0xbc327d9f	-0.010894208
226	0x3b7123d7	0.0036795044
227	0x3c8aba00	0.016934395
228	0x3bb21dc6	0.005435678
229	0xbcc8a75d	-0.024493868
230	0x3cbbe08f	0.022934226
231	0x3daeafbc	0.085296124
232	0x3d94e7eb	0.07270797
233	0x3cfe6b02	0.031056885
234	0xbbe0318d	-0.0068418444
235	0x3ca3eff6	0.020011883
236	0xbcb95c7b	-0.022627106
237	0xbd4f695a	-0.05063758
238	0x3cb3b438	0.021936521
239	0x3b66a3d4	0.0035192864
240	0xbd85e01f	-0.06536888
241	0x3d1410e2	0.036148913
242	0xbbf81469	-0.0075707925
243	0x3da1c14d	0.07898197
244	0x3cd06bef	0.025442092
245	0x3b798fe7	0.0038080157
246	0xbcc067b8	-0.023486957
247	0x3c4869b9	0.0122322375
248	0xbac66708	-0.0015136907
249	0xbd24e94c	-0.04026155
250	0x3d6dd0a8	0.05806032
251	0x3da98d44	0.082788974
252	0x3d7a9876	0.061180554
253	0x3ccdfee6	0.02514596
254	0x3c0d8fe5	0.008640264
255	0xbd17e792	-0.037086077

fc_layers.2.bias f4 [64]
0	0x3d08c81e	0.03339397
1	0x3db71b2f	0.08940732
2	0xbca17a34	-0.019711591
3	0x3cc4af49	0.024009364
4	0xbc38271c	-0.011239793
5	0x3d074fb5	0.033035
6	0xbca010be	-0.019539233
7	0xbd1f8ae5	-0.03895082
8	0x3c2deb37	0.010615162
9	0xbc00f3e4	-0.007870648
10	0x3d7cae1c	0.06168948
11	0xbc03343e	-0.008008061
12	0xbb6709c9	-0.0035253635
13	0x3d7834d1	0.060597245
14	0xbc1d5381	-0.009602428
15	0xbb969ed5	-0.004596571
16	0x3c891f2f	0.016738502
17	0xbd951254	-0.072788864
18	0x3bbf2299	0.005832982
19	0x3d2b5616	0.041830145
20	0x3ce2c7db	0.02768319
21	0x3cf36f2f	0.029716102
22	0x3c890945	0.016728053
23	0x3ccc9641	0.02497399
24	0xbca65201	-0.020302774
25	0x3c9960f9	0.018722998
26	0x3bf1d2c3	0.007379861
27	0xbb5a5c94	-0.003331934
28	0xbbef766c	-0.007307818
29	0xbd454531	-0.04816169
30	0x3d20d1a3	0.039262425
31	0x3c767069	0.015041449
32	0xbd196454	-0.037449196
33	0xbdb81cd7	-0.08989876
34	0x3c018fd9	0.007907831
35	0xbcb7f64d	-0.022456313
36	0x3c604c97	0.013690135
37	0xbcbc0861	-0.022953214
38	0x3a96a6a8	0.0011493759
39	0xbcda75d9	-0.026667522
40	0x3ce9b28f	0.028527526
41	0x3c7c1581	0.015385986
42	0x3d9db3c0	0.077003
43	0xbcc27f20	-0.023742259
44	0x3d00b8b7	0.031426158
45	0xbad55d3c	-0.0016278396
46	0xbd241d5c	-0.04006706
47	0x3c520584	0.012818698
48	0xbb83a60c	-0.004017597
49	0xbaf14c39	-0.0018409557
50	0xbbf0dc03	-0.007350446
51	0xbc9fd2b9	-0.01950966
52	0x3d400b12	0.046885557
53	0xbbec413a	-0.007209924
54	0x3c173caa	0.009230772
55	0xbb04e01f	-0.0020275188
56	0x3d06af68	0.032882124
57	0xbcf91582	-0.030405764
58	0xbcd94a10	-0.026524574
59	0xbd0e719f	-0.034776326
60	0x3cd1bd79	0.025603043
61	0xbc2c97a1	-0.010534198
62	0x3c5e4da2	0.013568314
63	0xbd1bf1bd	-0.038072336

fc_layers.4.weight f4 [64, 64]
0	0x3dcb78c2	0.09935142
1	0xbdcd3772	-0.10020341
2	0xbd7c5c76	-0.061611615
3	0xbe0a4309	-0.13502134
4	0xbc9d30ba	-0.019188274
5	0xbdacf623	-0.08445384
6	0x3e5bb096	0.21454081
7	0x3bf2af46	0.007406148
8	0x3e878463	0.2646819
9	0x3e836807	0.25665304
10	0xbdbf0af7	-0.09328263
11	0xbdf530f3	-0.11972227
12	0xbd1642c5	-0.03668477
13	0xbe4ad89a	-0.1980919
14	0x3e9e5d8a	0.3093074
15	0xbe8054e7	-0.25064775
16	0x3e5f9b91	0.21836688
17	0xbe207606	-0.15670022
18	0x3d4c363e	0.049856417
19	0xbd33fe95	-0.04394396
20	0xbe010e49	-0.12603106
21	0x3e7daff3	0.2477415
22	0x3dd029f2	0.101642504
23	0x3dbf515c	0.0934169
24	0x3e4ce1e1	0.20008041
25	0x3df270c4	0.118379146
26	0x3d38331e	0.044970624
27	0xbe998b0f	-0.29988906
28	0xbe9d0569	-0.3066819
29	0xbd7bcf74	-0.06147714
30	0x3d8dee71	0.06930245
31	0x3e6a1897	0.22860943
32	0xbbf0a211	-0.0073435386
33	0x3e140a46	0.14457044
34	0x3e229c8e	0.15880033
35	0xbd2aeb0a	-0.041728057
36	0x3e4e68e2	0.20157197
37	0x3e04f193	0.12982778
38	0x3e6004aa	0.21876779
39	0xbe3da3a3	-0.18519454
40	0xbebd8081	-0.37012103
41	0x3ea4b6bb	0.32170662
42	0xbe87edd4	-0.26548636
43	0xbc1fe339	-0.009758764
44	0xbd84d075	-0.064850725
45	0xbd741c17	-0.0595971
46	0x3e40b206	0.1881791
47	0xbd8badcd	-0.06820259
48	0x3ebde1e1	0.37086394
49	0x3e276751	0.16348006
50	0xbeb04aca	-0.3443206
51	0xbcd7d245	-0.026345382
52	0xbe77fed3	-0.24218301
53	0xbd009991	-0.031396452
54	0xbe78fbb6	-0.2431477
55	0x3d89a9ea	0.06721862
56	0x3cdcea40	0.026967168
57	0x3e3f3665	0.18673094
58	0x3e812404	0.2522279
59	0x3e8e2ae9	0.27767113
60	0xbe18d0a5	-0.14923342
61	0xbd95abeb	-0.073081814
62	0x3d85b9dd	0.06529591
63	0xbdc44d8f	-0.09585106
64	0x3de04f11	0.10952581
65	0x3e386bdc	0.18009895
66	0x3e8d8b85	0.27645507
67	0xbce066e3	-0.02739281
68	0x3e316228	0.173226
69	0x3e51adc2	0.2047644
70	0x3dcbff8f	0.09960853
71	0xbd250799	-0.04029045
72	0x3db61bca	0.08892019
73	0xbd88570a	-0.066572264
74	0x3db02375	0.08600513
75	0x3e30797c	0.17233843
76	0x3e6489ea	0.22318235
77	0x3d130476	0.035892926
78	0x3cae93f5	0.021310786
79	0x3e36bd8b	0.17845742
80	0xbe48a325	-0.19593485
81	0xbda0852b	-0.078379
82	0x3e97cfec	0.2965082
83	0x3e0a5c8d	0.13511868
84	0x3de3d96f	0.111254565
85	0xb96ccf45	-0.00022583928
86	0x3bfa1b72	0.0076326663
87	0x3e81fc2c	0.25387704
88	0xbe3098ed	-0.17245837
89	0x3d8a9e8c	0.06768522
90	0xbe7d9108	-0.24762356
91	0xbc58b510	-0.013226762
92	0x3e2467cb	0.16055219
93	0xbe557e29	-0.20848908
94	0xbe3dad4f	-0.18523143
95	0xbe3b2488	-0.18275654
96	0x3dd44147	0.10364013
97	0xbd4473ca	-0.047961988
98	0xbe8253bc	-0.2545451
99	0xbe1f47f4	-0.15554792
100	0x3dd07d6d	0.10180173
101	0xbd4044ac	-0.04694049
102	0xbea95c9c	-0.33078468
103	0x3b46276d	0.0030235902
104	0x3e11a021	0.1422124
105	0xbd8a50e1	-0.06753708
106	0xbc9d2004	-0.019180305
107	0xbe7b8a89	-0.24564566
108	0x3dcb8fc0	0.099395275
109	0xbe67b44d	-0.22627373
110	0xbe165c71	-0.14683701
111	0xbcdab20c	-0.026696227
112	0xbe92c83c	-0.28668392
113	0xbe94f406	-0.29092425
114	0x3e8e0762	0.27740008
115	0x3dcf66e8	0.1012705
116	0xbde65ad0	-0.1124779
117	0xbd4afb13	-0.04955585
118	0x3d1505f2	0.036382623
119	0xbdb74450	-0.089485765
120	0x3dde3164	0.10849264
121	0xbe62592d	-0.2210433
122	0x3dc198cd	0.094529726
123	0xbe8e7be4	-0.27828896
124	0x3d8783f8	0.06616968
125	0xbd1a110a	-0.037613906
126	0xbd8bace9	-0.06820089
127	0x3e592f6c	0.21209496
128	0x3e8cb077	0.27478382
129	0xbe4fb302	-0.2028313
130	0x3e8dca19	0.2769325
131	0x3d411db3	0.047147464
132	0xbd5f634a	-0.05453805
133	0x3d8b832c	0.068121284
134	0xbe5787b2	-0.21047857
135	0x3e0b79f1	0.13620736
136	0x3da831ef	0.08212649
137	0xbdb8e5fb	-0.0902824
138	0x3e4074d1	0.18794562
139	0x3e032e48	0.12810624
140	0x3e7a56d6	0.24447188
141	0xbdc9e33e	-0.09857796
142	0xbe0e8ce2	-0.1392093
143	0x3b2780a6	0.0025558858
144	0xbe260750	-0.16213727
145	0x3e8de4aa	0.2771352
146	0x3e014753	0.12624864
147	0xbdc1bd83	-0.094599746
148	0x3ba56485	0.0050473833
149	0xbe8428ec	-0.2581247
150	0xbe726462	-0.23671106
151	0x3de16776	0.11006062
152	0xbe748ce5	-0.23881872
153	0xbe0231a5	-0.1271425
154	0x3d210216	0.03930863
155	0xbcc82df2	-0.024435971
156	0x3d4a4e9e	0.04939138
157	0xbe4e0d0a	-0.20122162
158	0xbe77e487	-0.2420827
159	0xbe835472	-0.25650364
160	0x3bc59136	0.0060292734
161	0x3d5130fe	0.051072113
162	0x3d057a30	0.03258723
163	0x3cad1b18	0.021131083
164	0x3d14350e	0.03618341
165	0xbe8ba947	-0.27277586
166	0xbe53b4e0	-0.20674467
167	0x3d8a4b03	0.067525886
168	0x3c8bcd8a	0.017065782
169	0xbea253b3	-0.31704482
170	0x3e3e7ac1	0.18601514
171	0xbe149bee	-0.14512607
172	0x3eaf69f3	0.3426052
173	0xbe9500d9	-0.2910221
174	0x3dcb7e6c	0.099362224
175	0x3dee45aa	0.11634381
176	0xbe4e5cf5	-0.20152648
177	0xbe85f453	-0.26162967
178	0x3d7ff8c1	0.06249309
179	0x3dbf4b04	0.0934048
180	0xbd8af851	-0.06785644
181	0x3c3ac40c	0.01139928
182	0x3e93cd0f	0.28867385
183	0xbe6a606e	-0.22888348
184	0xbb7953a0	-0.003804423
185	0xbc4790d0	-0.012180522
186	0xbb9a65ac	-0.0047118273
187	0xbe08aa87	-0.13346301
188	0x3ab56941	0.0013840572
189	0x3c94a156	0.018143337
190	0x3dbd6106	0.092470214
191	0xbd0f84d4	-0.035038784
192	0xbe172693	-0.14760809
193	0xbda85dfb	-0.0822105
194	0x3d385c46	0.045009874
195	0xbdb4f5ad	-0.088359214
196	0xbe7fdc8d	-0.24986477
197	0xbdf73e29	-0.12072403
198	0x3ccf978a	0.025340814
199	0xbd49282c	-0.049110577
200	0x3e41346c	0.18867654
201	0x3e288528	0.16457045
202	0xbe10f810	-0.14157128
203	0xbda6f563	-0.081522726
204	0x3d1a2ec5	0.03764226
205	0xbe2400a0	-0.16015863
206	0x3e1d5699	0.15365066
207	0xbe5f72dc	-0.21821159
208	0xbc080eba	-0.008304292
209	0x3e1bc83a	0.15213099
210	0xbda7544e	-0.08170377
211	0x3d6a1d5b	0.0571569
212	0xbcd1a9fc	-0.02559375
213	0x3e95202e	0.29126114
214	0xbcf35a90	-0.02970627
215	0xbd167de0	-0.036741138
216	0x3e924d93	0.2857481
217	0x3e184f66	0.14874038
218	0x3eb1ec7d	0.3475074
219	0xbbf9e4e6	-0.007626164
220	0xbe03cbb6	-0.12870678
221	0x3ea4f9e8	0.32221913
222	0x3d9ebe4d	0.07751141
223	0xbd006ce3	-0.031353842
224	0x3d3f864b	0.04675893
225	0xbdc8b635	-0.09800378
226	0x3b173d26	0.0023077219
227	0x3e29d354	0.16584522
228	0x3df01577	0.11722844
229	0x3def8b49	0.116964884
230	0x3e887d44	0.2665807
231	0xbdbbe792	-0.09175028
232	0xbe7f4bc4	-0.24931246
233	0x3e89f007	0.2694094
234	0xbc5eda3b	-0.013601835
235	0x3e8537dc	0.2601918
236	0xbe18c9b3	-0.14920692
237	0x3ea17d6b	0.31541
238	0x3e8bffad	0.27343503
239	0x3e68df93	0.22741537
240	0x3d733718	0.059378713
241	0xbd6f88dd	-0.058480132
242	0x3b6a13cd	0.0035717369
243	0x3e442985	0.19156463
244	0xbdd31343	-0.10306408
245	0x3e33d7ff	0.17562865
246	0xbe85f0cc	-0.26160276
247	0x3d0af126	0.033921383
248	0xbe05ea41	-0.13077642
249	0x3e3cf93c	0.1845445
250	0x3e8a86d6	0.27055997
251	0x3e58b50b	0.21162812
252	0xbe6ed105	-0.23321922
253	0xbd2a32ec	-0.04155247
254	0xbea1480f	-0.3150029
255	0x3cefdcc1	0.029280068

fc_layers.4.bias f4 [64]
0	0x3e02616c	0.12732476
1	0xbe1eff4e	-0.15527079
2	0xbc2b25e0	-0.010446042
3	0xbda30993	-0.079608105
4	0x3dcf6802	0.1012726
5	0x3e11431f	0.14185761
6	0x3ca62574	0.02028153
7	0xbcc13326	-0.02358396
8	0x3d728f8f	0.05921894
9	0x3d3eb4af	0.046559032
10	0x3e1d9605	0.15389259
11	0xbde54b54	-0.11196008
12	0x3d9264df	0.07148146
13	0x3e42a894	0.1900962
14	0xbdd1e903	-0.102495216
15	0xbd612c16	-0.054973684
16	0x3d3fcb21	0.04682458
17	0x3e06af16	0.13152727
18	0xbd021705	-0.031760234
19	0xbad8a952	-0.0016529954
20	0x3dc93b4a	0.098257616
21	0xbc373fef	-0.011184677
22	0xbdb6df48	-0.08929306
23	0xbb1c259c	-0.0023826128
24	0x3d3677eb	0.044547956
25	0xbe0fd500	-0.14046097
26	0xbe101a03	-0.14072423
27	0xbdd3d7b6	-0.10343878
28	0xbe853e5d	-0.26024142
29	0xbe05dae9	-0.13071789
30	0x3b7d55d3	0.0038655892
31	0x3da0a44b	0.078438364
32	0x3d0d5cdc	0.034512386
33	0xbc21a891	-0.0098668495
34	0xbd818e61	-0.06325985
35	0xbe229388	-0.15876591
36	0x3e254913	0.16141157
37	0x3b2d8160	0.0026474819
38	0x3e9056f7	0.2819135
39	0xbdc07612	-0.0939752
40	0x3b18012f	0.0023194065
41	0xbd3bb879	-0.045830224
42	0x3cc79215	0.02436165
43	0xbd245fcb	-0.040130418
44	0x3d9b8cc5	0.07595209
45	0x3d807e0a	0.0627404
46	0x3e15363e	0.14571473
47	0xbd4d9fbe	-0.05020117
48	0xbc5c9bbd	-0.013464865
49	0x3ca18ae9	0.019719558
50	0x3e50aacd	0.20377655
51	0xbe16204b	-0.14660756
52	0xbe257685	-0.16158493
53	0xbde2a2e6	-0.11066227
54	0xbd8be340	-0.06830454
55	0x3dd39737	0.10331576
56	0xbdd4ee13	-0.103969716
57	0xbd16cac3	-0.036814462
58	0x3d1c2de9	0.03812972
59	0xbe0587a0	-0.13040018
60	0xbe6092c2	-0.21930984
61	0xbd91c84c	-0.07118282
62	0x3bea0744	0.0071419794
63	0xbd26691d	-0.040627588

fc_layers.6.weight f4 [38, 64]
0	0x3eb2741d	0.34854212
1	0xbe9bf256	-0.30458325
2	0xbd4d5356	-0.050128303
3	0x3da2ecbe	0.07955311
4	0x3e9fed77	0.3123586
5	0xbe97192f	-0.295114
6	0x3ec44fa7	0.3834202
7	0xbeb0f4e7	-0.34561846
8	0x3ded3d8a	0.11584003
9	0x3ece6f70	0.40319395
10	0x3e5e7ffb	0.21728508
11	0xbe89f950	-0.26948023
12	0x3d0a6ee2	0.033797152
13	0xbe02109c	-0.12701648
14	0x3e9d095b	0.306712
15	0x3e40038a	0.1875135
16	0x3b3f0ff0	0.0029153787
17	0xbd82d085	-0.06387428
18	0x3e54776b	0.2074868
19	0x3eb4cbe4	0.35311806
20	0xbe551c60	-0.20811605
21	0xbd4c416c	-0.04986708
22	0x3dcac54d	0.099009134
23	0xbea19ecb	-0.31566462
24	0x3deabc34	0.11461678
25	0xbe55abc7	-0.20866309
26	0xbeb3c9f7	-0.35115024
27	0x3ed30791	0.4121671
28	0xbdf5b63f	-0.11997651
29	0x3e758c30	0.23979259
30	0x3e4fbcde	0.20286891
31	0xbd169092	-0.036758967
32	0xbd2ce06c	-0.042206213
33	0xbec88c18	-0.39169383
34	0xbbee5036	-0.0072727455
35	0xbdc03ac0	-0.09386206
36	0x3e2359ff	0.159523
37	0x3ece7cb3	0.40329513
38	0x3e9462f5	0.28981748
39	0xbd2b2df7	-0.041791882
40	0x3ecf7576	0.40519303
41	0x3d2e0d6a	0.04249326
42	0xbea27579	-0.3173025
43	0xbea6856a	-0.32523662
44	0xbd4b6cc6	-0.04966428
45	0x3e9811a3	0.29700956
46	0xbeb4a45b	-0.35281643
47	0xb709c044	-8.210602e-06
48	0x3ea8a6ac	0.3293966
49	0x3e9d7237	0.30751202
50	0x3eb801d0	0.35938883
51	0x3e94639f	0.28982255
52	0xbe88a18c	-0.2668575
53	0xbec51455	-0.38492075
54	0xbe27560f	-0.16341422
55	0x3e59f81a	0.2128605
56	0xbb819463	-0.0039544567
57	0xbea220a4	-0.31665528
58	0xbdbdc5f3	-0.092662714
59	0x3ea5168e	0.3224377
60	0x3d78cd8c	0.0607429
61	0xbd0a31b5	-0.03373881
62	0x3eb69b57	0.3566539
63	0xbe64d7c1	-0.22347929
64	0x3d7ca8ba	0.061684348
65	0xbe726a7f	-0.23673438
66	0xbe38de7c	-0.18053621
67	0xbc4eeab2	-0.012629198
68	0x3dc395ce	0.09550057
69	0xbd5b2d04	-0.053509727
70	0x3e8ca854	0.27472174
71	0xbe83ded0	-0.2575593
72	0x3ebde0fb	0.3708571
73	0x3e038a77	0.12845789
74	0x3d0790c1	0.033097032
75	0x3daaf744	0.083479434
76	0xbe764d23	-0.24052863
77	0xbe29f4c6	-0.1659728
78	0x3ec19c11	0.37814382
79	0x3eddb009	0.43298367
80	0x3ed708ac	0.41998804
81	0xbd1af09a	-0.03782711
82	0x3e27c539	0.16383828
83	0x3edc5a87	0.43037817
84	0xbec41c2a	-0.38302737
85	0x3c346837	0.011011175
86	0x3cae8451	0.021303328
87	0xbececb70	-0.40389585
88	0x3eb4e150	0.3532815
89	0xbe55e9d2	-0.20889977
90	0xbecd8183	-0.40137872
91	0x3d719c09	0.058986697
92	0xbe5ef019	-0.21771277
93	0x3e871f57	0.26391098
94	0xbc92a476	-0.017900687
95	0xbeb3abdc	-0.35092056
96	0x3ec828bd	0.3909358
97	0xbe123e34	-0.14281541
98	0x3e9c1455	0.30484262
99	0xbe21b7e5	-0.15792806
100	0x3e9015fd	0.28141776
101	0x3ddbfdd0	0.1074177
102	0x3d77e28c	0.060518786
103	0xbe40f304	-0.18842703
104	0x3ea82aca	0.32845145
105	0xbea390f9	-0.31946543
106	0xbe84a7f0	-0.25909376
107	0xbe4c13bb	-0.19929402
108	0x3cd129ed	0.025532687
109	0x3ecf4b0f	0.40486953
110	0xbe28b006	-0.16473398
111	0xbeb09c9f	-0.34494492
112	0x3eb4d562	0.35319048
113	0x3e6d19e4	0.23154408
114	0x3bd83328	0.006597895
115	0xbd57409d	-0.052551854
116	0xbe895906	-0.26825732
117	0xbeb0aaab	-0.3450521
118	0xbe0a3454	-0.13496524
119	0x3e5d157d	0.21590228
120	0x3b39807d	0.0028305345
121	0xbdf2943f	-0.11844682
122	0xbe886ea6	-0.26646918
123	0x3eac04b0	0.33597326
124	0x3c16f16f	0.009212836
125	0x3d725e4e	0.059171967
126	0x3e6d2202	0.23157504
127	0xbebbbbd7	-0.36666748
128	0x3e9699b9	0.29414156
129	0xbe37b39c	-0.1793961
130	0xbecbaba9	-0.39779404
131	0x3d657526	0.056019925
132	0x3ebc9b26	0.3683712
133	0xbd6d43ba	-0.057925917
134	0x3ec6237b	0.38698944
135	0x3c9e8124	0.019348688
136	0x3ebc49cd	0.36775056
137	0x3d08bf4d	0.033385564
138	0x3e6e7947	0.23288451
139	0x3d689c66	0.05678978
140	0xbe9058c6	-0.2819273
141	0x3db3a236	0.08771174
142	0x3da01b86	0.0781775
143	0x3ebdfbaf	0.37106082
144	0x3e9e9966	0.3097641
145	0xbea2dee5	-0.3181068
146	0x3ed95cac	0.42453516
147	0x3e9cc569	0.30619362
148	0xbeccc0ff	-0.39990994
149	0xbed33476	-0.41250962
150	0x3ea100a2	0.31445795
151	0xbeaee04b	-0.34155497
152	0xbc7c2ba9	-0.015391269
153	0xbc7146c6	-0.014726346
154	0xbeb11158	-0.34583545
155	0x3e9e769b	0.30949864
156	0xbdf253bd	-0.11832378
157	0x3e4aac15	0.19792207
158	0x3ea631fd	0.32460013
159	0xbed4b585	-0.41544738
160	0x3e8e62e0	0.2780981
161	0xbe32c27f	-0.17457007
162	0x3c6b2a13	0.014353293
163	0xbebe3328	-0.37148404
164	0x3e8dcc68	0.27695012
165	0x3e2d4abb	0.16923039
166	0xbd98594f	-0.07438909
167	0xbe97fb18	-0.29683757
168	0x3ecf80e2	0.40528017
169	0xbdf39574	-0.1189374
170	0xbe112d59	-0.14177455
171	0x3d51e875	0.05124708
172	0xbe450cb8	-0.19243133
173	0x3e80f29b	0.25185093
174	0xbd4bbe17	-0.04974183
175	0xbdfbabb6	-0.12288611
176	0x3e418e98	0.18902051
177	0x3e27d7ce	0.16390917
178	0x3e80d859	0.2516506
179	0xbce79475	-0.028269032
180	0xbe7a85cf	-0.24465106
181	0xbecd4c82	-0.40097433
182	0xbe33bcd2	-0.17552498
183	0x3d925e71	0.071469195
184	0x3dd5e0cf	0.104432695
185	0xbb2eeb3a	-0.00266905
186	0xbe9b4373	-0.30324897
187	0x3ed992c5	0.4249479
188	0xbebbd3df	-0.36685082
189	0xbe67ead0	-0.22648168
190	0x3e1779f4	0.14792615
191	0x3d793c1f	0.06084835
192	0x3e469e2d	0.19396277
193	0xbecb564b	-0.39714274
194	0xbe548bf1	-0.20756508
195	0x3d93b8bd	0.072129704
196	0xba89a270	-0.0010500681
197	0xbd7a38b0	-0.061089218
198	0x3ebc90ea	0.3682931
199	0xbe9ce1f6	-0.30641145
200	0x3e334281	0.17505838
201	0x3ebe07ff	0.37115476
202	0x3c20b891	0.009809629
203	0xbe7a6ea5	-0.2445627
204	0xbda83003	-0.082122825
205	0xbdcb83ef	-0.09937274
206	0x3ebd70a8	0.37000012
207	0x3e27e87d	0.16397281
208	0x3dd4215c	0.10357925
209	0xbec88830	-0.39166403
210	0x3e61e7bb	0.22061054
211	0x3c35d2a1	0.011097581
212	0xbecf1128	-0.40442777
213	0xbe359694	-0.17733222
214	0x3e9dc5d9	0.30815008
215	0xbe870792	-0.26372963
216	0x3e7710c3	0.24127488
217	0xbe816310	-0.2527089
218	0xbe99b4a6	-0.30020636
219	0x3dd8d916	0.10588281
220	0xbd066366	-0.032809637
221	0x3e88036a	0.26565105
222	0x3dcfaecd	0.101407625
223	0xbeb5477e	-0.35406107
224	0x3cb20f1a	0.021735717
225	0x3d474e00	0.04865837
226	0x3ea7e23f	0.327898
227	0xba85ecdd	-0.0010217685
228	0x3ea00896	0.3125655
229	0x3de4d38b	0.11173161
230	0x3e90a972	0.28254277
231	0xbd237cd1	-0.039913956
232	0x3d15b262	0.036547072
233	0xbe869315	-0.2628409
234	0xbeb2ae30	-0.3489852
235	0xbe730128	-0.2373091
236	0xbd60bf02	-0.05486966
237	0x3e4b8742	0.19875816
238	0xbe3168ec	-0.17325181
239	0xbe4d2d3a	-0.20036784
240	0x3d2856d4	0.04109843
241	0x3e8ead83	0.27866754
242	0x3e798631	0.24367596
243	0x3ea7e1ea	0.32789546
244	0xbeb66249	-0.3562186
245	0xbd201f22	-0.03909219
246	0x3d3d0f5a	0.04615722
247	0x3e607fe3	0.21923785
248	0x3ea33b2b	0.3188108
249	0xbe53f1ae	-0.20697662
250	0xbece47e1	-0.40289214
251	0x3b17431f	0.0023080779
252	0xbddebc88	-0.10875803
253	0xbdc1c9ef	-0.09462344
254	0x3ec49585	0.38395324
255	0xbdea6b4b	-0.11446246
