TrainedModel/DQNwithrewardhelper/6000_0-029_DQNwithrewardhelper.pth (torch, 740948 bytes, 26 tensors)

fc_layers.1.weight f4 [816]
000000 ae 88 62 3f c8 36 68 3f 5a 55 89 3f 5c 61 84 3f
       0.88489807 0.9070859 1.0729172 1.0342212
000010 cd ad 74 3f b2 00 67 3f aa 44 89 3f 30 0a 81 3f
       0.955777 0.90235436 1.072408 1.0081234
000020 0c a9 6d 3f 5b 13 72 3f 93 ea 8a 3f 4a 05 84 3f
       0.9283607 0.94560784 1.0852836 1.0314114
000030 64 44 7b 3f b4 b7 70 3f 16 4b 7e 3f 63 1f 80 3f
       0.9815123 0.9403031 0.9933332 1.0009578
000040 fb 26 73 3f db cc 75 3f f0 f1 81 3f a9 f0 85 3f
       0.94981354 0.9601571 1.0151958 1.0464069
000050 1c 5a 7a 3f 1e 60 68 3f be 2a 7a 3f 94 b2 84 3f
       0.97793746 0.90771663 0.9772147 1.0366998
000060 32 c0 72 3f 3d 66 72 3f 4d dc 7d 3f 03 e6 81 3f
       0.94824517 0.94687253 0.9916428 1.0148319
000070 d6 27 70 3f f7 b8 75 3f 4e 6a 82 3f ae 0c 84 3f
       0.93810785 0.9598536 1.0188692 1.031637
000080 12 59 6b 3f 6c 0a 72 3f 6e a3 7c 3f e8 6b 7e 3f
       0.91932786 0.9454715 0.98686874 0.993834
000090 6c 45 70 3f d0 2e 73 3f eb 52 83 3f f5 17 81 3f
       0.9385593 0.94993305 1.025968 1.0085436
0000a0 f4 81 71 3f a1 63 73 3f 42 65 8b 3f fe f6 84 3f
       0.9433892 0.95073897 1.0890276 1.0387876
0000b0 5f 01 77 3f 45 71 73 3f d2 93 7f 3f ad 20 7d 3f
       0.9648647 0.9509471 0.9983493 0.98877984
0000c0 23 18 79 3f 34 19 6c 3f 7b 63 7c 3f 60 36 84 3f
       0.97302455 0.92225957 0.98589295 1.0329094
0000d0 ba b2 73 3f 4f 96 69 3f f4 a6 89 3f e0 2b 85 3f
       0.9519459 0.9124498 1.0754075 1.0404015
0000e0 1f f7 76 3f 3f 8a 72 3f c1 64 8c 3f 95 5b 80 3f
       0.96470827 0.94742197 1.0968248 1.0027949
0000f0 d1 a8 79 3f 69 b5 75 3f b5 ab 8a 3f ca b0 80 3f
       0.9752322 0.95979935 1.0833651 1.0053952
000100 aa fd 6d 3f 30 52 78 3f 44 f6 78 3f 53 91 82 3f
       0.92965186 0.9700041 0.9725077 1.02006
000110 de 42 73 3f b4 c6 73 3f 20 2c 8b 3f ea ae 7b 3f
       0.95023906 0.9522507 1.0872841 0.9831377
000120 b3 08 74 3f b1 eb 6f 3f 18 4e 84 3f 2a 34 81 3f
       0.95325774 0.9371901 1.0336332 1.0094044
000130 4f a5 78 3f d8 dc 66 3f f6 f3 86 3f fd 9c 87 3f
       0.9712724 0.9018073 1.0543201 1.0594784
000140 e1 7e 71 3f 35 38 6d 3f 14 a1 7f 3f d5 e1 81 3f
       0.94334227 0.9266389 0.9985516 1.0147043
000150 7d 14 6f 3f f0 fd 72 3f a6 ad 89 3f bd 9d 89 3f
       0.9339064 0.9491873 1.0756118 1.0751263
000160 ac a7 79 3f 52 ed 6a 3f 24 35 88 3f 95 02 7e 3f
       0.9752147 0.9176837 1.0641217 0.9922269
000170 5e 84 74 3f fd ff 76 3f 78 af 7f 3f fd 8f 80 3f
       0.95514476 0.9648436 0.9987712 1.0043942
000180 89 28 74 3f 50 f8 6d 3f 98 86 88 3f 7b d0 7a 3f
       0.9537435 0.9295702 1.0666075 0.97974366
000190 f9 8d 72 3f 2d 9e 6c 3f 50 53 7f 3f 56 18 82 3f
       0.94747883 0.9242886 0.997365 1.0163677
0001a0 56 1f 71 3f f6 66 74 3f 01 66 8a 3f d7 e3 7f 3f
       0.9418844 0.95469606 1.0812379 0.9995703
0001b0 fe f1 79 3f 5e f4 70 3f a6 d5 88 3f 3b f5 7e 3f
       0.97634876 0.94122875 1.06902 0.9959294
0001c0 ef a1 73 3f 56 49 73 3f a3 9a 7e 3f a6 a0 7b 3f
       0.95168966 0.95033777 0.99454707 0.98292005
0001d0 d1 26 78 3f 8d 68 74 3f 11 7c 89 3f d3 33 7f 3f
       0.9693423 0.9547203 1.0740987 0.9968845
0001e0 6c 3c 7c 3f 12 04 71 3f 87 9f 8b 3f 48 49 80 3f
       0.98529696 0.94146836 1.0908059 1.0022364
0001f0 f6 24 70 3f d0 67 72 3f 92 90 8c 3f 16 1c 7e 3f
       0.938064 0.94689655 1.0981619 0.99261606
000200 56 e0 74 3f 58 e1 6c 3f 3d 67 7d 3f 5d 94 80 3f
       0.9565481 0.9253135 0.98985654 1.0045277
000210 2b 0d 6f 3f fc a7 73 3f 00 9e 8b 3f c1 ba 7e 3f
       0.9337947 0.951782 1.0907593 0.99503714
000220 17 29 6f 3f f3 fc 73 3f 28 65 74 3f 1a 71 82 3f
       0.93422073 0.95307845 0.9546685 1.0190766
000230 af 00 70 3f dc 8a 77 3f e4 d1 79 3f 20 d2 7e 3f
       0.93751043 0.9669626 0.9758589 0.99539375
000240 8e b3 6b 3f 2d 45 75 3f 9b 8b 7b 3f f6 ab 7b 3f
       0.92070854 0.9580868 0.98259896 0.98309267
000250 cd 58 72 3f 85 2c 6b 3f 90 76 79 3f cd 15 87 3f
       0.9466675 0.91864806 0.97446537 1.0553528
000260 7e 3a 6d 3f 07 62 6f 3f 2a 61 77 3f d8 6f 81 3f
       0.92667377 0.9350895 0.96632636 1.0112257
000270 0e 67 67 3f dc b5 70 3f e4 78 78 3f 86 8f 80 3f
       0.90391624 0.94027495 0.97059464 1.00438
000280 8b f1 6f 3f 99 c6 77 3f e8 13 81 3f ef fa 83 3f
       0.9372794 0.9678741 1.00842 1.0310954
000290 e8 65 74 3f c4 3d 6c 3f a3 46 7a 3f 09 d2 82 3f
       0.95467997 0.92281747 0.97764033 1.0220348
0002a0 ba 04 73 3f 17 25 72 3f 06 a1 7f 3f d1 7a 83 3f
       0.9492909 0.94587845 0.9985508 1.0271856
0002b0 4a 8e 61 3f eb 91 76 3f 94 5f 7f 3f 15 15 7f 3f
       0.8810774 0.96316403 0.99755216 0.99641544
0002c0 d3 ce 6f 3f c0 95 79 3f 56 67 74 3f 14 a4 84 3f
       0.93674964 0.97494125 0.9547018 1.0362573
0002d0 7c 94 70 3f 2e 99 73 3f bf 5b 78 3f 4f 9b 82 3f
       0.9397657 0.9515561 0.97014993 1.0203646
0002e0 a1 48 71 3f a0 c5 6d 3f b5 a2 75 3f 7d 6b 84 3f
       0.9425145 0.92879677 0.95951396 1.0345303
0002f0 09 59 69 3f 8d e3 6d 3f f7 7f 7e 3f 7f bf 7c 3f
       0.9115148 0.9292534 0.9941401 0.987297
000300 6b fb 6e 3f 8f 1a 6e 3f 96 59 79 3f 1a 8f 82 3f
       0.93352383 0.93009275 0.9740232 1.0199921
000310 f9 f0 6d 3f 72 22 69 3f 1c 83 7b 3f 92 65 81 3f
       0.9294582 0.91068184 0.9824693 1.0109122
000320 27 c7 75 3f 5f 05 75 3f 4c 01 79 3f 49 f7 81 3f
       0.9600701 0.9571132 0.97267604 1.015359
000330 51 16 6f 3f 33 95 6a 3f 60 12 7b 3f 37 71 85 3f
       0.9339343 0.9163391 0.98074913 1.0425175
000340 e4 a5 6f 3f 9c 24 6e 3f 29 df 7b 3f ba 10 82 3f
       0.93612504 0.9302461 0.9838739 1.0161355
000350 14 85 71 3f ff 0d 70 3f 8f 0a 80 3f a6 8b 83 3f
       0.94343686 0.93771356 1.0003222 1.0276992
000360 f0 80 6e 3f 77 ec 6f 3f 25 bc 74 3f df 68 7e 3f
       0.93165493 0.9372019 0.95599586 0.9937877
000370 71 fd 6c 3f 79 dd 76 3f 50 4c 7c 3f a0 f0 82 3f
       0.9257422 0.9643169 0.98553944 1.0229683
000380 50 e8 6c 3f 97 79 6f 3f c7 10 81 3f f0 f1 80 3f
       0.9254198 0.93544906 1.0083245 1.0073833
000390 63 2a 6a 3f f6 8e 75 3f fa cd 82 3f 43 84 82 3f
       0.91470927 0.95921266 1.0219109 1.0196613
0003a0 80 80 6f 3f f8 ec 71 3f 6a 90 7c 3f 56 84 83 3f
       0.9355545 0.9450221 0.9865786 1.0274761
0003b0 5d b2 6f 3f 56 85 72 3f 68 5a 80 3f 8c 25 82 3f
       0.93631536 0.94734704 1.002759 1.0167708
0003c0 f4 2c 6c 3f 00 0c 70 3f 1f e3 71 3f 59 ba 81 3f
       0.92256093 0.9376831 0.94487184 1.0134994
0003d0 7e 2e 6e 3f b7 8b 77 3f 20 67 7b 3f 5c 12 84 3f
       0.9303969 0.9669756 0.9820423 1.0318103
0003e0 c0 76 77 3f 1d 5d 70 3f 44 c8 80 3f 8d 8e 80 3f
       0.96665573 0.9389208 1.0061116 1.0043503
0003f0 e0 e5 6b 3f 58 71 76 3f 8d a9 7d 3f 34 d8 7e 3f
       0.92147636 0.962667 0.9908684 0.9954865

fc_layers.1.bias f4 [816]
000000 c8 e3 14 bc 1c 75 23 bd 21 62 69 3b 94 2b d3 3d
       -0.00908751 -0.039906606 0.0035611468 0.10311046
000010 7e 7d 1d bd 84 d9 d0 bd 9d 80 fc 3c 5f 3b c8 bc
       -0.038449757 -0.10197738 0.030823046 -0.024442373
000020 de f4 06 3d 76 87 1d 3d c1 d2 66 bc 67 ec d2 3c
       0.032948367 0.038459264 -0.014088334 0.025747491
000030 1a c0 bf bd 0b f0 00 3d 02 f1 7d bc 4b a5 23 3d
       -0.09362812 0.031478923 -0.015499355 0.039952558
000040 e2 bb ac bd de 13 44 bc 4f fd 3e 3d f8 42 21 3c
       -0.08434273 -0.011967627 0.046628293 0.009842627
000050 57 78 7e 3b f7 cb b2 bb 23 f4 84 3c 5a 55 ab bc
       0.0038829052 -0.0054564434 0.016229695 -0.020914722
000060 2a d3 c0 bd 2d 8c c9 bd 96 ff 99 bb 64 e6 a9 3c
       -0.09415276 -0.098411895 -0.0046996577 0.020739742
000070 cc cc 2f 3d f4 33 4d bd 48 ac af 3b a6 96 8d 3c
       0.04291992 -0.050098374 0.0053611137 0.017283749
000080 d4 82 54 bd 24 c6 8a bd b9 b5 0a bd 62 16 e4 3c
       -0.05188258 -0.067760736 -0.03386471 0.027842704
000090 9d d1 4d bd 2d 43 4c 3c 7a 63 8a bc 2b 81 ce 3c
       -0.05024873 0.012467188 -0.016893137 0.025208076
0000a0 90 ca aa 3c 7d 96 68 3d a1 3c 6e 3c f7 1f 9f 3c
       0.020848542 0.05678414 0.014540822 0.019424422
0000b0 d8 f8 5e bd 9b d8 fc bc 09 6d 74 b9 34 4d 99 bc
       -0.054436535 -0.030865004 -0.00023310272 -0.018713571
0000c0 33 5e 23 3c 31 25 af bc 09 f9 24 ba b8 c7 a0 bc
       0.009971189 -0.021380039 -0.00062932126 -0.019626483
0000d0 6f 36 76 3d d4 3f 95 3d ad 6e 3d 3b 55 97 68 3c
       0.060110506 0.07287565 0.002890508 0.014196237
0000e0 91 8f 8c bd e5 f0 49 3b 2b be 63 bb 11 c3 ad bc
       -0.068633206 0.003081375 -0.00347508 -0.021211179
0000f0 46 8e ac bd d6 9b 12 3b ac 4e 8b 3b 15 6c ab bc
       -0.08425574 0.0022370717 0.004251322 -0.020925561
000100 7c a9 07 bd b5 51 27 bd 27 9b af 3c 3f 23 0d 3d
       -0.033120617 -0.040849406 0.021436287 0.03445744
000110 67 a9 6f 3c 9d 2a 97 3d 4a 56 7a bc 19 8e a5 bc
       0.014627791 0.07381175 -0.015279362 -0.020209359
000120 36 ae 71 bd 54 c4 4f bd 2c 8b b5 bd a3 31 d5 3c
       -0.05900403 -0.050724342 -0.088644356 0.026024645
000130 91 db 7a bd 42 c1 8c 3d 32 4b 47 bc 08 84 d9 3c
       -0.06124455 0.068727985 -0.012163924 0.026552215
000140 46 00 0b bd 24 15 7b bd 3b 84 6d bd 3f a4 b6 bc
       -0.033935808 -0.06129946 -0.057987433 -0.022295116
000150 36 a4 0f bd 2b b3 f4 bb 45 84 1c bc bd 67 86 3c
       -0.035068713 -0.0074676475 -0.00955302 0.016406888
000160 a6 8c 02 3c 5e fb 32 bd 00 3f 43 3c 66 5c bb 3c
       0.0079681035 -0.043696754 0.011916876 0.022871207
000170 b0 47 8a bd 73 7f a0 3c 99 82 92 bc 5d a6 93 3c
       -0.067519546 0.019592023 -0.01788454 0.018023664
000180 79 fe 0d bd fd 0c 9b bd 3b ca 0e 3d b3 1f ad bc
       -0.034666512 -0.07570837 0.03486083 -0.02113328
000190 dd 4d 38 bd 8f c2 64 bd 8c f4 00 bc 89 fd 9a 3d
       -0.04499613 -0.055849608 -0.0078708045 0.07567889
0001a0 6e 1b 9d bc 04 a7 d7 3c 8b 96 2a bc a2 78 97 bc
       -0.019178119 0.026324756 -0.010411869 -0.01849014
0001b0 d2 3a 3a bd 95 ae ca 3d 99 6d 4e bb a4 97 81 bc
       -0.04546625 0.0989658 -0.003149843 -0.015819378
0001c0 2f 57 81 bd b3 1c bf bd 29 54 6d bd 02 7b 19 3d
       -0.06315457 -0.09331646 -0.05794159 0.037470825
0001d0 99 2d d4 3b 9c 5e 3a 3c 22 b3 c0 ba 6b d6 e5 bc
       0.006475162 0.011375096 -0.0014701823 -0.028056344
0001e0 08 ea 29 bc 34 cc ab 3b f2 ee 2d 3c 04 39 9a bc
       -0.010370739 0.005242849 0.010616051 -0.018826015
0001f0 70 c7 38 bd 17 76 05 3d 34 1a 3a bc 58 dd f5 bc
       -0.045112073 0.032583322 -0.011358786 -0.030012771
000200 c1 c8 a2 bd 05 4a da bd f2 67 33 bc 61 fa dc bc
       -0.07948447 -0.10658649 -0.010950075 -0.026974859
000210 78 ec 21 bd 67 12 a3 3d fe 88 10 3c c1 b5 f2 bc
       -0.039532155 0.07962494 0.008821724 -0.029627683
000220 a4 a8 35 3d bc a8 bc bc 7a 87 09 bd cd 3f 87 3c
       0.04435028 -0.023029678 -0.033576466 0.016509915
000230 46 64 3d 3d 1e 75 81 3d 64 0b 5f bb 28 07 e0 3c
       0.046238206 0.063211665 -0.003403389 0.027347162
000240 49 8c ec 3d 08 fb eb 3b 7a db 96 3c 4c 65 cd 3c
       0.11550195 0.007201556 0.018415201 0.025072716
000250 b4 ce 06 3e 39 0a af 3b cb 54 2a 3d e1 3b 8e 3d
       0.13164788 0.005341795 0.04158477 0.06945015
000260 4e a7 29 bc d9 82 13 bd c4 d6 07 bd af c2 68 bb
       -0.01035483 -0.036013458 -0.0331638 -0.003551643
000270 02 b1 07 3d 0d d3 9d bc 60 69 c5 3d 15 86 2b 3d
       0.033127792 -0.019265676 0.09639239 0.041875917
000280 fb e9 4b 3d c0 53 8b 3c c6 12 6e 3d dd 9a 08 3e
       0.049783688 0.017007709 0.058123372 0.13340326
000290 ca 66 37 bc ca c0 48 bd 99 f3 c2 3c cc 9f 51 3d
       -0.01119394 -0.049011983 0.023797797 0.051177785
0002a0 1d a7 26 bc 5c 68 ea bc be d5 81 3c 6c 7a f1 3c
       -0.010171679 -0.028614216 0.01584899 0.02947732
0002b0 13 e2 9b 3d 93 db 11 3d 61 e1 f5 bb ad 71 f1 3c
       0.076114796 0.035609793 -0.007503674 0.02947315
0002c0 a9 eb 68 bd c5 84 63 3c 67 f9 23 3d b3 fc f4 3d
       -0.056865368 0.013886635 0.04003277 0.11962261
0002d0 87 95 f5 bb 9d b1 1a 3d 38 86 c5 3c 6c 81 ab 3d
       -0.0074946317 0.03776704 0.024111852 0.08374295
0002e0 51 35 5e bb 63 94 f0 bc 1b 9f 1c 3d 92 e5 64 3b
       -0.003390629 -0.029367631 0.038237672 0.0034926874
0002f0 e4 f2 9c 3d 0d 38 10 3d 89 34 9c bc 2b 4f 69 bc
       0.07663515 0.035209704 -0.01906802 -0.0142400665
000300 69 91 04 bb ed 38 1d bd 1c 2d 9b 3c 9f 8f 3a 3d
       -0.0020228273 -0.038384367 0.018942408 0.045547124
000310 07 bb 24 3c 14 f7 96 bb 8d 93 b9 3d 5e 80 06 bc
       0.010054356 -0.0046070907 0.09061346 -0.008209316
000320 0d 28 c2 bc c3 9f 05 3d 25 d4 0c 3d 49 42 a0 3d
       -0.023700738 0.032623064 0.034382004 0.07825143
000330 04 6d 90 3d 3d 44 1c 3d c9 f4 12 3d e4 55 d5 3d
       0.07052043 0.038151015 0.035877977 0.10416773
000340 c6 64 92 3c 1d 75 27 bd ea f7 54 3c 46 bd 06 3b
       0.017870318 -0.040883172 0.01299856 0.0020559593
000350 fc 84 1e bd 8a bc 37 3c fe 55 0f 3d 09 03 0b 3e
       -0.038701043 0.011214385 0.034994118 0.13575377
000360 29 69 5a bd 2b 2b 82 3d c5 d0 56 3d 9c 4c 48 3d
       -0.053322945 0.0635589 0.052445192 0.048901185
000370 18 ba ce bc 92 56 28 bc 9f 04 d0 3d 22 5b 37 bc
       -0.02523522 -0.010274546 0.101571314 -0.011191161
000380 0f 1b 63 3d 41 1c e4 3b 07 2b c7 3d bb b3 5f 3d
       0.055445727 0.006961376 0.09725004 0.054614764
000390 57 97 4e 3d 5b bd 46 3d 9c 1c 74 3c 0b 79 9e 3d
       0.050437298 0.048520427 0.014899399 0.07737931
0003a0 3b 8b 84 ba a5 7c 8c 3c b4 41 e0 3c 16 1d 3c 3d
       -0.0010112295 0.017149279 0.02737508 0.045926176
0003b0 b1 a1 d4 3d c4 5e dc bc 63 c8 4f 3d ed 46 5d 3d
       0.10382403 -0.026900657 0.050728213 0.05402272
0003c0 84 2a 9f bc c9 97 95 3c 10 70 47 3d ce e9 6e 3d
       -0.019429453 0.018260853 0.048690856 0.058328442
0003d0 d0 42 02 3d 53 50 51 bc e5 f5 97 3c de 8c 18 3e
       0.031802 -0.012775498 0.018549869 0.14897487
0003e0 7b bb 7d 3d 9c b7 00 bd 76 2c 0f 3d 99 b9 1d 3d
       0.061946373 -0.031425104 0.03495451 0.038507078
0003f0 c1 26 6c 3b 86 c5 c1 bc 6a 37 c8 bc 09 81 c5 3c
       0.0036033841 -0.023653757 -0.024440486 0.02410938

fc_layers.1.running_mean f4 [816]
000000 ff b5 8c 3e 40 7a 9c 3d 54 3c 77 3c 4a 1d 96 37
       0.27482602 0.07640505 0.015090067 1.7895032e-05
000010 7d 91 9c 3e 4b de bb 3d 41 40 54 3c ed ac 07 3a
       0.3057975 0.091732584 0.012954772 0.0005175609
000020 9a 95 a8 3e 77 06 8f 3d f1 17 9d 3c c0 3b 0d 38
       0.32926637 0.06983655 0.019176455 3.3672666e-05
000030 79 03 9b 3e 0b 11 9a 3d 2b 83 b5 3b 90 3b 77 38
       0.30276087 0.07522782 0.005539318 5.894486e-05
000040 97 fa 86 3e 7d da 88 3d 3f 1d 23 3c 63 64 51 3b
       0.2636306 0.06682298 0.009955703 0.0031950704
000050 2f d9 8a 3e 4c a1 87 3d f4 57 33 3c 04 00 00 00
       0.27118823 0.06622562 0.010946263 6e-45
000060 95 b0 8b 3e 15 1f ae 3d d6 71 4d 3c 04 13 81 07
       0.2728316 0.08502022 0.012539348 1.942094e-34
000070 9a e4 84 3e 1e 3a 6f 3d db 90 81 3c 80 17 85 3a
       0.2595566 0.058405034 0.015816143 0.0010154098
000080 15 50 5f 3e 43 68 85 3d 32 6c 74 3c 48 48 93 3a
       0.21807893 0.06514027 0.014918374 0.0011236751
000090 d2 26 6b 3e 4a 83 8c 3d 0c 63 06 3c 8e 07 a1 39
       0.22964028 0.06860979 0.008202326 0.00030713942
0000a0 5e 40 61 3e 68 65 63 3d 82 4a 27 3b 1f 92 7d 0f
       0.2199721 0.05551663 0.0025526588 1.2502005e-29
0000b0 9d 24 78 3e f3 cb 77 3d 5a 06 cd 3b 04 00 00 00
       0.24232717 0.060497236 0.0062568607 6e-45
0000c0 f2 d7 7c 3e 26 cc 71 3d c0 39 f7 3b 9c 07 e1 38
       0.24691752 0.05903258 0.007544726 0.000107302534
0000d0 ae 39 8a 3e fc da 52 3d 46 f0 1a 3b 98 07 4a 38
       0.2699713 0.05147837 0.002364175 4.8167625e-05
0000e0 17 03 7f 3e e4 39 93 3d 35 5d 8b 3b 04 00 00 00
       0.24903522 0.07188776 0.0042530545 6e-45
0000f0 ee a8 8a 3e 9e 86 91 3d ec 0c 1e 3c 7a 5a 72 2f
       0.27082008 0.07105754 0.0096466355 2.2041916e-10
000100 35 b6 57 3e 8b 23 8d 3d b7 c1 a9 3c 1f 14 9f 3a
       0.210656 0.06891545 0.020722253 0.0012136734
000110 fb 63 50 3e bc ed a5 3d 32 94 48 3b 04 00 00 00
       0.2035064 0.08101985 0.003060591 6e-45
000120 b2 d5 40 3e 6b 4b 51 3d ec 25 0a 3c 04 00 00 00
       0.18831518 0.051097315 0.008431893 6e-45
000130 23 57 63 3e e2 c2 6a 3d ca e6 1a 3c c3 f3 20 3a
       0.22201209 0.05731476 0.009454438 0.0006139839
000140 4f 00 83 3e e2 1e 86 3d f8 47 3c 3c 8d 21 e5 37
       0.25586173 0.06548859 0.011491768 2.731455e-05
000150 90 61 6b 3e f0 82 48 3d 43 fc 88 3b 29 cb c2 34
       0.22986436 0.048952997 0.0041804626 3.6283134e-07
000160 82 5a 84 3e ad 0b 64 3d da bb f1 3b 72 2f 73 37
       0.25850302 0.055675197 0.00737713 1.4494975e-05
000170 d9 92 60 3e da 4d 27 3d d8 82 df 3a e1 ed 7b 2d
       0.21931018 0.04084573 0.0017052544 1.4320518e-11
000180 21 68 69 3e 30 fb a6 3d ef c3 30 3b 04 00 00 00
       0.22793628 0.08153379 0.0026972254 6e-45
000190 29 28 4d 3e 6a cd 90 3d b2 e3 3c 3b 9a 78 08 14
       0.20034851 0.070704296 0.002882224 6.89003e-27
0001a0 d5 26 20 3e 57 2c 0d 3d b9 b1 99 3b c4 f1 81 33
       0.15639813 0.034466114 0.0046903756 6.0510075e-08
0001b0 73 71 98 3e df 08 87 3d ea 4a bc 3b 89 fa 22 16
       0.29774055 0.06593489 0.005746235 1.3165311e-25
0001c0 b0 10 98 3e ee 22 4a 3d f6 f5 30 3c 47 7f 18 15
       0.29700232 0.049349718 0.010800829 3.079656e-26
0001d0 94 ab 70 3e 3b 22 2f 3d 8f d3 db 3b 0f 6e bc 36
       0.23502952 0.042757254 0.0067085694 5.615649e-06
0001e0 6c 7f 6c 3e 58 3c 68 3d 55 e4 0d 3c d5 3c fc 2f
       0.23095483 0.056698173 0.008660396 4.5881757e-10
0001f0 07 11 51 3e e1 28 2b 3d bb e3 e7 3b e4 0a 4f 34
       0.20416652 0.041787032 0.007076708 1.9282339e-07
000200 66 0f 25 3e 5e 6d 44 3d 86 1a 98 3b e8 fa 44 37
       0.16119155 0.047955863 0.0046418337 1.1740929e-05
000210 1d de 26 3e d3 30 22 3d 9f 87 9c 3b ce c7 1f 39
       0.16295667 0.039597344 0.0047769095 0.00015237855
000220 60 76 22 3f a1 24 ae 3e d4 14 18 3e 24 b5 12 3d
       0.63461876 0.3401232 0.14851695 0.03581728
000230 f3 34 25 3f db 55 95 3e 47 23 ed 3d c6 0b 08 3d
       0.6453392 0.29167065 0.11578994 0.033214353
000240 17 d7 17 3f 4f f8 95 3e e5 c4 b2 3d 13 fd 09 3d
       0.59312576 0.29291007 0.08728961 0.033688616
000250 c5 b8 26 3f 6b 77 a5 3e 2f 84 b3 3d b0 a2 c2 3c
       0.65125686 0.3231767 0.087654464 0.023759216
000260 97 83 1e 3f 27 a9 b0 3e cf 4b 06 3e 5c 47 2a 3d
       0.6191954 0.34504053 0.13114856 0.04157196
000270 75 01 27 3f 6c 76 b0 3e dd e9 14 3e 8e 4a 32 3d
       0.652366 0.3446535 0.14542337 0.043528132
000280 04 2a 22 3f b0 93 ac 3e a2 02 ec 3d 68 d0 ea 3c
       0.6334536 0.33706427 0.1152394 0.028663829
000290 0f 87 2c 3f c9 d3 bd 3e 54 f7 1e 3e 1e 99 0d 3d
       0.67393583 0.37075642 0.15524036 0.034569852
0002a0 21 f3 27 3f d0 1a c1 3e 93 79 11 3e f8 cd 1b 3d
       0.6560536 0.3771577 0.14206533 0.038038224
0002b0 ae c2 2f 3f c0 4d c2 3e 06 c3 34 3e 0d 2c ff 3c
       0.6865643 0.37949944 0.1765252 0.031148935
0002c0 01 00 2d 3f 36 20 af 3e e0 43 19 3e 9c af 2c 3d
       0.6757813 0.34204262 0.14967299 0.04215966
0002d0 7b 11 22 3f 50 53 a1 3e 7e 91 f9 3d 13 aa 13 3d
       0.63307923 0.31508875 0.121859536 0.036050867
0002e0 c3 ed 26 3f 6e 54 a3 3e be 8f 1f 3e 06 cb 45 3d
       0.65206546 0.31900352 0.15582177 0.04828932
0002f0 04 d0 2a 3f 52 6d b2 3e 87 06 02 3e e7 9f 44 3d
       0.66723657 0.3484903 0.12697802 0.048004057
000300 be cb 21 3f 69 d0 a9 3e bf de fd 3d bb 6a 06 3d
       0.6320151 0.33166817 0.12396001 0.03281663
000310 ef 6a 27 3f 3d 83 bb 3e 25 4b 12 3e 95 77 eb 3c
       0.6539754 0.36623564 0.14286478 0.028743545
000320 56 42 21 3f 5f 35 b0 3e 19 91 12 3e 22 b3 16 3d
       0.62991846 0.3441572 0.14313163 0.036791928
000330 8f 57 2e 3f da cf b6 3e 6c d9 1d 3e 34 31 16 3d
       0.68102354 0.35705453 0.15414971 0.036668018
000340 b5 d0 27 3f f1 18 bb 3e 53 6a 0f 3e ea 0f 24 3d
       0.65552837 0.36542466 0.14005403 0.04005424
000350 1d cc 2e 3f 67 0e b9 3e f8 1c 24 3e 6e a3 2b 3d
       0.682802 0.361438 0.16026676 0.041903906
000360 b5 7d 2c 3f 94 3f b7 3e 80 8e 1e 3e a5 4f 34 3d
       0.67379314 0.35790694 0.15484047 0.044021267
000370 c4 8e 2d 3f 2a 1d ae 3e d3 8a 28 3e a1 fb 2f 3d
       0.6779597 0.34006625 0.16459207 0.04296458
000380 94 4f 24 3f e1 8a b0 3e 6f bb 0a 3e 72 34 ec 3c
       0.64183927 0.34480956 0.13548063 0.028833602
000390 77 d7 25 3f d5 77 c0 3e ad 16 17 3e b1 a1 35 3d
       0.647819 0.37591425 0.14754744 0.044343654
0003a0 58 9a 25 3f 38 bc a9 3e 17 b0 0b 3e a7 48 fc 3c
       0.64688635 0.33151412 0.13641392 0.030796362
0003b0 47 c9 2f 3f da 6c c9 3e d1 c1 2c 3e 8f f6 3a 3d
       0.686665 0.3934086 0.1687081 0.045645293
0003c0 24 a8 36 3f 9e a1 d3 3e e6 fd 39 3e 96 de 61 3d
       0.7135031 0.41334242 0.18163261 0.055143915
0003d0 1f ff 1d 3f f9 da 98 3e 62 c3 fc 3d 9e 15 b2 3c
       0.6171741 0.29854563 0.12341954 0.021738824
0003e0 a7 21 27 3f 6c 20 a3 3e f6 b9 16 3e 0c d8 5a 3d
       0.65285724 0.31860673 0.14719376 0.053428695
0003f0 14 f4 28 3f 51 04 b1 3e 34 3e 14 3e 99 03 30 3d
       0.65997434 0.34573606 0.14476854 0.04297218

fc_layers.1.running_var f4 [816]
000000 7c 22 4c 3e 7a c0 8d 3d 25 3a 77 3c 4a 1d 96 37
       0.1993503 0.069214776 0.015089546 1.7895032e-05
000010 fa ea 5b 3e 1b 6b ac 3d 39 d4 52 3c ed ac 07 3a
       0.21476355 0.08418866 0.012867981 0.0005175609
000020 b8 80 62 3e 59 21 87 3d 34 30 9a 3c c0 3b 0d 38
       0.22119415 0.065981574 0.018821813 3.3672666e-05
000030 f2 b9 52 3e 9c 5f 8f 3d a2 71 b5 3b 87 3b 77 38
       0.20578745 0.07000658 0.0055372277 5.894483e-05
000040 8a 2f 48 3e f4 87 81 3d c6 1b 23 3c 62 64 51 3b
       0.19549385 0.06324759 0.009955352 0.0031950702
000050 32 5e 4a 3e 04 e4 7e 3d 21 8b 31 3c 04 00 00 00
       0.19762495 0.06222917 0.010836394 6e-45
000060 e4 71 4d 3e 69 ad 9e 3d 26 76 4c 3c 04 13 81 07
       0.20062977 0.07747919 0.012479341 1.942094e-34
000070 ea 5e 45 3e 0a d3 64 3d 6f 21 80 3c 7e 17 85 3a
       0.19274488 0.055865325 0.015640942 0.0010154096
000080 1b 8e 2e 3e ac 2b 78 3d bc fa 6e 3c 48 48 93 3a
       0.17046396 0.060588524 0.014586147 0.0011236751
000090 b1 8b 2f 3e 4f 63 81 3d ab 5b 06 3c 5b 1b a0 39
       0.17143132 0.0631777 0.008200566 0.0003053796
0000a0 df 37 30 3e 82 fe 55 3d 81 4a 27 3b 1f 92 7d 0f
       0.17208813 0.05224467 0.0025526586 1.2502005e-29
0000b0 65 c9 3c 3e e9 9d 68 3d d8 ee cc 3b 04 00 00 00
       0.18436201 0.05679122 0.0062540583 6e-45
0000c0 3a aa 3d 3e 0b 74 64 3d 7a 26 f7 3b 9c 07 e1 38
       0.18521968 0.05577473 0.0075424286 0.000107302534
0000d0 b4 5d 47 3e 7c d4 48 3d ab ef 1a 3b 98 07 4a 38
       0.19469339 0.049030766 0.0023641388 4.8167625e-05
0000e0 40 a9 3e 3e 85 19 8a 3d 07 5d 8b 3b 04 00 00 00
       0.18619251 0.06743149 0.004253033 6e-45
0000f0 1e 1a 4c 3e 91 3c 88 3d 82 09 1e 3c 7a 5a 72 2f
       0.19931838 0.06652177 0.0096458215 2.2041916e-10
000100 de d9 2b 3e 52 53 82 3d 87 04 a3 3c 1f 14 9f 3a
       0.16782328 0.06363548 0.01989962 0.0012136734
000110 e1 61 26 3e 79 d8 98 3d 30 94 48 3b 04 00 00 00
       0.16248275 0.07463164 0.0030605905 6e-45
000120 57 40 1e 3e cb 56 44 3d 11 fe 08 3c 04 00 00 00
       0.15454231 0.047934335 0.008361355 6e-45
000130 7d 65 33 3e 85 01 5f 3d 19 8a 1a 3c bf f3 20 3a
       0.17519183 0.05444481 0.009432339 0.00061398366
000140 44 14 41 3e 33 c6 7a 3d 51 3e 3b 3c 8d 21 e5 37
       0.18855387 0.061224174 0.011428432 2.731455e-05
000150 f7 8b 34 3e 64 be 3f 3d 57 20 88 3b 29 cb c2 34
       0.17631517 0.04681243 0.004154246 3.6283134e-07
000160 00 f0 42 3e fe 42 51 3d 02 55 e5 3b 72 2f 73 37
       0.19036865 0.05108928 0.006998659 1.4494975e-05
000170 e2 06 2d 3e 3b 11 21 3d 9c 80 de 3a e1 ed 7b 2d
       0.16897157 0.039323073 0.0016975584 1.4320518e-11
000180 ba 39 35 3e 25 b0 98 3d 04 c1 30 3b 04 00 00 00
       0.17697802 0.07455472 0.0026970515 6e-45
000190 b8 db 24 3e 12 26 86 3d 97 a8 3c 3b 9a 78 08 14
       0.16099441 0.0655023 0.002878701 6.89003e-27
0001a0 6a 7c 06 3e aa 2c 09 3d 52 78 98 3b c4 f1 81 33
       0.13133398 0.03348986 0.004653015 6.0510075e-08
0001b0 ce bd 57 3e db 20 7f 3d 7a 5a bb 3b 89 fa 22 16
       0.21068498 0.062287193 0.0057175728 1.3165311e-25
0001c0 14 df 57 3e 43 44 42 3d 87 f5 30 3c 47 7f 18 15
       0.21081191 0.04742838 0.010800726 3.079656e-26
0001d0 6a 04 3b 3e 7d 69 28 3d dc 9a da 3b 0f 6e bc 36
       0.18263403 0.041116226 0.0066712927 5.615649e-06
0001e0 8d f1 32 3e 21 cb 5b 3d 09 78 0c 3c d5 3c fc 2f
       0.17474957 0.053660516 0.0085735405 4.5881757e-10
0001f0 34 c9 27 3e 7a 82 22 3d d4 60 e6 3b e4 0a 4f 34
       0.16385347 0.039675213 0.007030586 1.9282339e-07
000200 94 7a 0c 3e 07 fa 3b 3d 29 14 98 3b e8 fa 44 37
       0.13718635 0.04589274 0.004641075 1.1740929e-05
000210 ba 48 0b 3e da 62 1b 3d 4e 87 9c 3b ce c7 1f 39
       0.13601962 0.03793607 0.0047768718 0.00015237855
000220 23 38 6b 3e 74 14 66 3e a0 69 02 3e d5 43 0e 3d
       0.22970633 0.2246874 0.12735605 0.03473266
000230 08 86 6a 3e f6 f0 55 3e 5e 76 d2 3d 23 e3 04 3d
       0.22902691 0.208927 0.10276483 0.032443177
000240 bd 80 76 3e b3 07 52 3e 26 48 a4 3d 4c 7f 06 3d
       0.24072547 0.2051075 0.08021574 0.032836244
000250 7f 0b 6a 3e 62 de 60 3e 06 b2 a4 3d fc b8 bc 3c
       0.22855948 0.21959832 0.08041768 0.023037426
000260 cb 92 6d 3e 00 a9 66 3e 84 6f e9 3d 6a 5c 25 3d
       0.23200528 0.22525406 0.11398223 0.040371336
000270 b7 07 6b 3e 10 75 68 3e 45 eb fc 3d bd 51 2a 3d
       0.22952162 0.22700906 0.123495616 0.041581858
000280 74 3a 6b 3e 9e fc 63 3e 68 d6 d1 3d 56 48 e3 3c
       0.22971517 0.22264335 0.10245973 0.027744453
000290 bd 30 61 3e 79 b9 70 3e da ea 07 3e 03 b6 0a 3d
       0.21991248 0.23508252 0.13273183 0.033864986
0002a0 06 1d 67 3e cb 2e 6d 3e 52 d4 f9 3d d1 83 15 3d
       0.22569665 0.23162381 0.121987 0.036502663
0002b0 61 d5 5c 3e c4 1b 6f 3e c7 a2 12 3e 10 97 f3 3c
       0.21565773 0.23350435 0.14319907 0.029735118
0002c0 cb 2c 5d 3e 8f b5 63 3e 0c 4c 02 3e 74 f6 26 3d
       0.21599118 0.22237228 0.12724322 0.04076238
0002d0 d6 e7 6e 3e 18 a0 5e 3e 96 35 de 3d 3e d5 0e 3d
       0.23330626 0.21740758 0.108500645 0.034871332
0002e0 1f 0b 68 3e 48 58 5f 3e e0 c7 06 3e d2 12 3d 3d
       0.22660492 0.2181102 0.13162184 0.046160527
0002f0 32 ed 64 3e 8e 95 6a 3e 79 65 e5 3d 48 85 3a 3d
       0.22356108 0.22908613 0.11200995 0.045537263
000300 70 d9 6e 3e 39 88 64 3e 30 c0 df 3d c8 83 01 3d
       0.23325133 0.2231759 0.10925329 0.031619817
000310 d5 d3 67 3e 16 ee 6c 3e f2 63 fa 3d a5 01 e7 3c
       0.22639401 0.23137698 0.12226094 0.028199026
000320 c5 57 70 3e af d1 68 3e d5 c7 fd 3d a4 1c 13 3d
       0.23470981 0.22736238 0.123916306 0.035915986
000330 04 44 5a 3e a5 24 6c 3e 5f 4a 06 3e 58 02 10 3d
       0.21315008 0.23060854 0.13114308 0.035158485
000340 c6 35 67 3e 2f d4 68 3e 24 35 f5 3d 20 b0 1d 3d
       0.22579107 0.22737192 0.119730264 0.038498044
000350 f6 c7 5e 3e 9d 29 6a 3e 8f d6 08 3e f6 54 24 3d
       0.21755967 0.22867437 0.13363098 0.040120088
000360 d3 f1 62 3e ac bc 6a 3e 1c 09 03 3e bb f4 2b 3d
       0.22162561 0.22923535 0.12796444 0.04198144
000370 02 21 5e 3e ec 1c 64 3e 24 2c 0b 3e 96 e7 28 3d
       0.21692279 0.22276658 0.13591057 0.041236483
000380 8a 4a 69 3e 9d ea 64 3e fb cf f1 3d de a7 e6 3c
       0.2278234 0.22355123 0.11807247 0.028156217
000390 63 9c 6a 3e 32 e6 71 3e 53 d6 01 3e b6 eb 30 3d
       0.2291122 0.23622969 0.12679414 0.04319354
0003a0 45 ea 69 3e e4 a7 62 3e 36 49 f4 3d d1 b0 f7 3c
       0.22843273 0.22134358 0.119280264 0.03023568
0003b0 21 eb 5c 3e 84 b5 6d 3e b7 fe 0e 3e 46 75 33 3d
       0.2157407 0.23213774 0.13964354 0.043813013
0003c0 0e 7c 51 3e 6d b4 77 3e 91 e9 19 3e 3b 15 56 3d
       0.2045748 0.2418992 0.15030505 0.05226634
0003d0 10 2f 70 3e e1 63 54 3e 49 dd db 3d f5 bd ad 3c
       0.23455453 0.20741226 0.10735566 0.021208743
0003e0 5e 86 6b 3e f9 1d 5b 3e d5 10 01 3e 9f e8 49 3d
       0.23000476 0.21398152 0.12604077 0.04929411
0003f0 a1 35 65 3e 1d ea 69 3e 32 e0 fd 3d d3 60 2a 3d
       0.22383739 0.22843213 0.123962775 0.041596245

fc_layers.2.weight f4 [64, 816]
000000 1b 4d 29 3c cb 30 b5 bd 5a 52 86 3d 0b 4f 94 bd
       0.010333325 -0.08847197 0.06558676 -0.07241639
000010 b4 3d 22 bd 80 c3 61 3a a9 d3 fa 3d cf 58 44 3c
       -0.039609626 0.00086122006 0.12247402 0.011984064
000020 27 89 f8 bc 5b 36 35 bd 72 16 c8 bb 61 f0 3e 3c
       -0.030338837 -0.04424129 -0.0061061913 0.0116539905
000030 73 e5 08 3d d3 3d bc bd 59 18 f7 bc 75 82 1a bd
       0.033421945 -0.091914795 -0.030162977 -0.03772207
000040 51 4a 34 3c 0b d0 04 bd 97 b5 09 ba d0 c0 41 bd
       0.011004047 -0.032424968 -0.0005253194 -0.04730302
000050 bd a9 4d bd 43 78 88 3d ba 40 02 3d 6d 29 b5 b9
       -0.050210703 0.06663563 0.03180001 -0.00034553875
000060 b0 37 9b bd 0b ec 18 bc 61 bc 67 bd d5 e8 c5 bc
       -0.07578981 -0.009333621 -0.056576136 -0.024158875
000070 be e3 98 3d 84 2e 05 bd 94 ca af bd cd d9 4f bd
       0.074653134 -0.032515064 -0.085835606 -0.05074482
000080 59 19 b4 3c 17 b7 f1 bc b9 44 fb bc 49 27 6d 3d
       0.021984743 -0.02950625 -0.030672418 0.057898793
000090 3c e4 5f bd c8 c2 4f bd 97 be 02 be 1c 64 df 3c
       -0.05466102 -0.050722867 -0.12768017 0.027269416
0000a0 13 51 39 3b 3c dd f4 bc 8d d4 13 3e ab ce 93 bd
       0.0028277084 -0.029890649 0.1443655 -0.07217153
0000b0 72 a3 e8 3c 09 6b d2 3c 84 e7 75 bd 25 de 7c 3d
       0.02839825 0.025685804 -0.060035244 0.06173529
0000c0 91 c5 7a bd aa e7 fa 3b 22 44 87 bd 1a d7 fb 3d
       -0.06122357 0.007657011 -0.06604792 0.12296887
0000d0 81 aa 3b 3d 2e 80 1c 3d 36 a1 5d 3d d4 64 d6 bd
       0.045816902 0.03820818 0.05410882 -0.1046845
0000e0 d8 37 4e 3c 26 7d b3 bc 1a fa db 3c b0 59 8f 3d
       0.012586556 -0.021910261 0.026852656 0.069995284
0000f0 56 2c d9 bc 07 97 9b bd 61 c7 35 bd 1f bf e7 bc
       -0.026510399 -0.075971656 -0.044379596 -0.028289376
000100 f2 54 c8 bc f1 75 57 bb 15 49 0d bd ae 3c 44 3b
       -0.024454568 -0.0032876695 -0.034493525 0.0029943394
000110 76 ef 07 3d f0 f6 e4 ba eb a0 11 3e c5 90 a3 3d
       0.033187352 -0.0017468613 0.14221542 0.07986597
000120 5f 1e 0d bd 46 ee 6e bd 6b e2 24 3d 05 e1 38 bd
       -0.034452792 -0.058332704 0.04025499 -0.04513647
000130 d6 a0 d7 bc 72 53 b1 3c cb 41 c1 3d 35 d5 41 bd
       -0.02632181 0.021646235 0.09436377 -0.04732247
000140 c0 bd 51 3c 0a cc 6a bc b4 e2 29 3d 95 b8 77 3d
       0.012801588 -0.014330873 0.041475967 0.060478766
000150 12 b0 1e 3d 3a 0c e3 bc 93 8e 21 3d 37 1b e4 bd
       0.038742132 -0.027715791 0.03944261 -0.11138003
000160 c6 b9 fd 3c 9b f4 32 bd 9b 4c 0a 3e 78 43 86 3d
       0.030972373 -0.043690305 0.13505785 0.065558374
000170 de 0c 7b bd 44 25 db 3c 36 23 84 bc 99 d6 9f bd
       -0.061291568 0.026751168 -0.016130071 -0.07804603
000180 20 f9 ed bc 85 91 d0 3c 93 78 b8 bb 29 fc 4f bc
       -0.029049456 0.025460014 -0.005629608 -0.012694397
000190 8e 99 4b bd 42 ac 2e 3d 4e ea 88 bd 6a 30 c9 3c
       -0.049706988 0.042644747 -0.06685315 0.024559218
0001a0 a1 c1 06 bd 23 c6 99 bc 28 b0 00 3e 63 4e 83 3d
       -0.032899503 -0.018771237 0.12567198 0.064114355
0001b0 86 c9 24 3c 2c 4c 21 3d a5 0b 6c 3c 01 96 90 bd
       0.010057813 0.039379284 0.014407073 -0.07059861
0001c0 03 9f 2e 3d cf d5 a2 3c 99 46 04 3d 3a cb 97 3d
       0.042632114 0.019877343 0.03229389 0.07411809
0001d0 72 e9 98 3c 1b 9c a6 3b d7 86 11 3e 6d 34 ee 3a
       0.018666003 0.005084527 0.14211594 0.0018173583
0001e0 6f 5e f4 bc ac a7 1b 3d da 49 13 3e f9 02 bc 3d
       -0.029830186 0.0380017 0.14383641 0.091802545
0001f0 cc e0 5b bd 23 38 cb bc e8 8f 1a 3e f0 db 73 39
       -0.05368118 -0.024807042 0.15093958 0.00023256219
000200 28 47 18 3d 0b 08 51 bc da 10 18 3d 1f d4 04 bd
       0.037177235 -0.012758265 0.037125446 -0.032428857
000210 23 a6 76 bc 43 2a ba bc 92 ed 9a 3c 4f 73 99 bd
       -0.0150542585 -0.02272523 0.01891211 -0.074926965
000220 5e 44 99 bd bf ce e4 3c fc b9 8e bc 84 c3 c2 3d
       -0.07483743 0.027930615 -0.017422669 0.09509948
000230 46 dc a6 3c a6 20 01 3d 8d 44 d2 3c d9 e0 0c bd
       0.020368706 0.031525277 0.025667453 -0.03439412
000240 a9 2e ce bc 44 bf 8d bd 87 51 b0 3d 78 19 9a 3d
       -0.025168734 -0.06921247 0.086093 0.07524389
000250 c7 a0 14 3d 20 0e 03 bd 90 a3 28 3d 70 a5 7e 3d
       0.03628614 -0.031995893 0.04117161 0.062169492
000260 dd ad 22 3d 97 61 97 bd 42 4f a8 bb 89 97 65 3d
       0.03971659 -0.07391661 -0.0051364014 0.05605272
000270 68 5f 4e 3d ad 6f dd bb 44 a3 85 3d aa 85 af bc
       0.050383955 -0.0067576976 0.06525281 -0.02142604
000280 02 2e 85 3c 00 88 14 3d 6b 75 e2 3c 52 4c 8c 3d
       0.01625729 0.036262512 0.02764388 0.068504944
000290 a1 c5 f8 bb ba 42 97 bc 57 6a da 3c 8b 5b ce 3b
       -0.0075919186 -0.018464435 0.026662035 0.006297534
0002a0 c4 1e 86 bc 73 2a 34 3d 33 5d 81 3d 3f 34 90 3d
       -0.016372092 0.043985795 0.063166045 0.07041215
0002b0 89 4e 40 3d bd 8b 66 bd 6e a2 d6 3b 70 f7 87 3d
       0.046949897 -0.05628561 0.006550125 0.06638992
0002c0 87 bf a0 bc f0 5f 20 bb 3b dc 25 bd 83 78 04 bb
       -0.019622577 -0.0024471246 -0.04049323 -0.0020213432
0002d0 8f 72 cb bc 6a 96 3d 3d 8e 5d 07 3d 0d c0 9d 3d
       -0.0248349 0.046286024 0.033048205 0.077026464
0002e0 63 50 88 bd f0 de 7e bc 4d b9 63 3d 68 91 5c bc
       -0.066559575 -0.015556082 0.05559664 -0.013462402
0002f0 13 ab e9 3a be 62 62 3d b1 06 27 3d ba 6e 2a bd
       0.0017827473 0.05526995 0.040777866 -0.041609503
000300 d2 bf a1 3c 1f cf 3f 3d e0 37 80 3c 1e 6b 02 3d
       0.019744787 0.046828385 0.015651643 0.031840436
000310 b4 c4 7e 3d 61 17 8f 3b 64 3d 5a 3d e4 c7 7c bd
       0.06219931 0.0043668007 0.053281203 -0.061714068
000320 96 0a f3 3c 53 ef 80 bc 5d 2f c6 3b ee ad 06 3d
       0.029668134 -0.015739119 0.0060481266 0.032880716
000330 e9 51 44 bd 0f 5b 78 3d 0f b3 3b bc f6 d6 2a 3b
       -0.047929678 0.060633715 -0.011456265 0.0026068068
000340 e6 17 10 3c 39 bf a5 bc 2e c5 8e bc 23 8b 2d bc
       0.00879476 -0.020232784 -0.017428007 -0.010592255
000350 d4 66 1d bd fa 7f 6e 3d e7 fa 4e bd 68 b7 97 3d
       -0.038428143 0.058227517 -0.050532248 0.07408029
000360 b0 05 e4 3c 12 4b b1 3d da 92 62 bd ce 92 ad 3d
       0.027834743 0.08656897 -0.05531583 0.084752664
000370 31 17 71 bc 35 f0 08 3d 21 de c4 3d e2 b9 54 bd
       -0.014715002 0.033432204 0.0961268 -0.051935084
000380 52 56 1d bc f8 0a 69 bc b9 52 fc 3a 91 d9 78 3c
       -0.0096031 -0.014223807 0.0019250727 0.015188591
000390 90 59 ab 3b 3e 96 d9 bc ef df a6 3c 31 cf ae 3d
       0.0052291825 -0.026560899 0.020370452 0.085356124
0003a0 57 95 97 3d 57 58 fa 3c ce 11 38 3b a1 65 cb 3c
       0.07401531 0.030559702 0.0028086784 0.024828734
0003b0 de b9 ab bc 44 02 56 bd 8c 0b b7 3c 4e 65 14 3c
       -0.020962652 -0.052248254 0.022344373 0.009057356
0003c0 b7 43 7d bd be c5 16 3d 03 a7 1e bc 30 ec 93 3d
       -0.061832156 0.036809675 -0.009683373 0.072227836
0003d0 1d 37 c7 3c 80 06 9e 3b d2 54 c9 bc b5 29 03 3c
       0.024318272 0.004822552 -0.024576578 0.008005549
0003e0 4b e7 46 3a 76 ea 0f bd 48 1b 77 3d 73 5e a8 3d
       0.0007587566 -0.03513571 0.06032875 0.0822114
0003f0 59 9a 66 3d 4e 73 b5 3c 1b 81 dd 3b 33 d5 09 bd
       0.05629954 0.022149708 0.0067597753 -0.03365059

fc_layers.2.bias f4 [64]
000000 4b 6a 0e 3d 32 8e c3 3d 72 f0 a5 bc 80 9b cb 3c
       0.034769338 0.09548606 -0.020256255 0.024854422
000010 19 be 13 bc 66 90 06 3d 49 cd b3 bc bc aa 23 bd
       -0.009017491 0.032852553 -0.021948474 -0.039957747
000020 8b 6d 39 3c 00 f1 12 bc 3b 28 80 3d c6 f9 0a bc
       0.011317621 -0.008968592 0.06257673 -0.008482402
000030 ec f8 07 bb ec 64 7c 3d 47 d0 33 bc e6 ad 96 ba
       -0.0020747734 0.061619684 -0.01097495 -0.0011495918
000040 8f 60 8c 3c b1 cb 8e bd de 99 21 3b 88 4c 29 3d
       0.017135886 -0.06972445 0.0024658362 0.04133275
000050 f8 9b ee 3c 5b f2 ec 3c fd 85 8b 3c ed 4d ea 3c
       0.029127106 0.028924158 0.017031664 0.028601611
000060 d4 1f bb bc 3e 3e 8d 3c 53 08 9a 3b 45 44 00 bb
       -0.022842325 0.017241593 0.0047006994 -0.0019571942
000070 54 16 36 bb 1b c5 4b bd 15 ca 11 3d 77 0c 6b 3c
       -0.0027784305 -0.04974852 0.03559311 0.014346234
000080 23 e3 13 bd bf 03 bd bd c0 5b df 3b 39 7c c3 bc
       -0.036105286 -0.0922923 0.0068163574 -0.023862945
000090 7c ce 68 3c 89 4b bf bc e0 f7 dd 3a 99 88 dd bc
       0.014209386 -0.023351448 0.0016934834 -0.027042674
0000a0 e2 92 ec 3c f9 58 5d 3c 1e 7c 9b 3d 9b cf ce bc
       0.028878633 0.013509982 0.07592033 -0.025245478
0000b0 3e cc 04 3d 1f 80 8f ba 66 38 27 bd c4 cc 38 3c
       0.032421343 -0.0010948217 -0.04082527 0.011279289
0000c0 98 f8 83 bb 5a 5d 1c 3a 70 15 ff bb 95 06 a9 bc
       -0.0040274374 0.0005964838 -0.007784538 -0.020633021
0000d0 0d 51 46 3d e1 18 d5 bb c2 72 50 3c 75 a3 26 bb
       0.04841714 -0.00650321 0.012722673 -0.0025427018
0000e0 dc 38 0d 3d 11 a7 07 bd 04 dd c5 bc 90 c6 13 bd
       0.034478053 -0.03311831 -0.02415324 -0.036078036
0000f0 e0 0f e6 3c d0 c5 36 bc c6 b7 74 3c 73 8e 1b bd
       0.028083742 -0.011155561 0.014936393 -0.037977647

fc_layers.4.weight f4 [64, 64]
000000 ba 08 bb 3d d0 75 ba bd 90 6b 89 bd 40 cd 15 be
       0.09132524 -0.09104502 -0.06709969 -0.14629078
000010 ca 3d ab bc 13 ed bc bd de 8a 64 3e 9a 30 05 3c
       -0.020903487 -0.09224906 0.22318599 0.008129263
000020 a5 9c 90 3e b1 b3 82 3e f8 4b d1 bd 0e 57 03 be
       0.2824451 0.2552772 -0.10219568 -0.12826177
000030 51 98 3e bd 3d 7e 4b be be 42 a0 3e f0 3f 81 be
       -0.04653198 -0.19872375 0.3130092 -0.25244093
000040 8c 4c 6d 3e 09 0a 23 be 0f f9 4c 3d 37 a2 57 bd
       0.23173732 -0.15921797 0.05004221 -0.052644935
000050 81 81 04 be 57 bd 7b 3e 56 bd dc 3d 25 34 a3 3d
       -0.12940027 0.24583946 0.107783005 0.0796893
000060 0b 0a 52 3e c1 95 fa 3d 61 71 73 3d 0b 61 98 be
       0.20511644 0.122355945 0.0594343 -0.29761538
000070 c4 7d a1 be f0 bb 43 bd 94 6b a6 3d 08 70 71 3e
       -0.31541264 -0.047786653 0.08125988 0.23577893
000080 ef 9f 80 bc ee b9 1b 3e a5 ac 27 3e 81 1d 16 bd
       -0.015701262 0.15207645 0.16374452 -0.03664923
000090 df f3 4e 3e 45 9b 0b 3e 0c 5c 62 3e 77 bf 4a be
       0.20210217 0.1363345 0.22105426 -0.197996
0000a0 e6 09 c1 be de b3 a8 3e e2 f2 8b be 45 7d 2e 3b
       -0.37702864 0.32949728 -0.27333742 0.002662496
0000b0 87 08 9d bd 12 ed 6a bd 19 49 3f 3e cb 46 66 bd
       -0.07667642 -0.057354994 0.18680228 -0.056219857
0000c0 28 33 c2 3e 2c 23 2a 3e 10 c1 b5 be 8c 4b b8 bc
       0.37929654 0.1661498 -0.35498857 -0.022496961
0000d0 d2 50 7c be a1 34 a6 bc 33 4f 81 be 64 fb a8 3d
       -0.24640206 -0.020288767 -0.25255737 0.08251074
0000e0 b4 b9 e5 3c 9e f5 42 3e e3 9c 85 3e 59 a4 8d 3e
       0.028042652 0.19039008 0.26096258 0.2766445
0000f0 80 bc 1d be 57 99 a7 bd 85 9f 7c 3d 7f 4c e1 bd
       -0.15403938 -0.08183544 0.061675567 -0.110009186
000100 5c f5 e7 3d 5c de 33 3e 4a 1c 8f 3e 82 a9 a8 bc
       0.113260955 0.17565292 0.2795127 -0.02058864
000110 c4 97 2e 3e 34 6b 57 3e 63 2a bf 3d 18 b0 2f bd
       0.17050081 0.21036988 0.093342565 -0.042892545
000120 bf e3 96 3d db b4 89 bd 2f 3b c2 3d f8 07 3a 3e
       0.07367658 -0.067239486 0.094839446 0.18167102
000130 ab fa 6c 3e fb 20 14 3d 69 2c 16 3c eb dc 38 3e
       0.23142497 0.036164265 0.009165862 0.18053024
000140 57 55 53 be 03 89 99 bd 32 98 95 3e 39 f8 0d 3e
       -0.20638023 -0.07496836 0.29217678 0.1386422
000150 fa 3e f1 3d 7d 5b c0 bb 60 69 4f ba e8 c2 86 3e
       0.1177959 -0.0058702813 -0.00079121254 0.26320577
000160 78 60 39 be 8b 68 86 3d 25 5f 85 be a4 a5 a5 bc
       -0.18103206 0.06562909 -0.26049152 -0.020220585
000170 d5 f9 2c 3e 39 33 5d be d1 a1 48 be b0 45 3d be
       0.16892178 -0.21601571 -0.19592978 -0.18483615
000180 18 c9 dd 3d 72 1a 51 bd 3b de 84 be 87 51 2d be
       0.10829371 -0.05105061 -0.25950798 -0.16925631
000190 78 5f c4 3d b7 25 68 bd d1 37 ac be 1c 5d 5d 3c
       0.09588522 -0.056676593 -0.33636335 0.013510969
0001a0 da 43 17 3e 9a ad 9e bd 40 b1 90 bc fb 29 84 be
       0.14771977 -0.077479556 -0.017662644 -0.2581328
0001b0 49 47 e8 3d cf a9 6d be 94 22 18 be a8 00 19 bd
       0.113417216 -0.23209308 -0.1485694 -0.03735414
0001c0 a8 ec 93 be 15 69 96 be b1 4e 90 3e 82 2f c4 3d
       -0.28891492 -0.29377046 0.28185037 0.09579374
0001d0 bd 4d d4 bd f8 8d 63 bd 06 09 38 3d 71 41 c5 bd
       -0.1036639 -0.055555314 0.04493048 -0.096316226
0001e0 38 5e e6 3d 4e 44 68 be 0d bf a7 3d 90 e4 90 be
       0.112484396 -0.22682306 0.08190737 -0.2829938
0001f0 c4 c9 91 3d 0e f8 f2 bc bf 51 88 bd 14 e3 5d 3e
       0.07118562 -0.029659297 -0.06656217 0.21668655
000200 6b 54 8e 3e c3 c9 4d be 36 e1 8d 3e c2 7c 7b 3d
       0.2779878 -0.20096497 0.27710885 0.061398275
000210 41 6e 54 bd 55 2d 9c 3d 3f fc 5d be bf 00 0a 3e
       -0.05186296 0.07625834 -0.21678255 0.13476847
000220 2b 07 94 3d d9 61 b4 bd b8 ea 48 3e 3c ad 09 3e
       0.0722793 -0.088077255 0.19620788 0.1344499
000230 57 68 80 3e c9 4f c3 bd 3f b7 10 be e1 d8 a5 3b
       0.25079605 -0.09536702 -0.14132403 0.0050612544
000240 9b 40 2e be 7f d4 8f 3e e8 86 02 3e 20 bb ad bd
       -0.17016833 0.2809181 0.12746775 -0.08482957
000250 2c 02 59 3c f6 8e 83 be 12 a7 76 be 78 66 fb 3d
       0.013245147 -0.25695008 -0.2408717 0.12275404
000260 0b 97 78 be 7c 73 09 be 33 c1 ee 3c 2d 7f de bc
       -0.24276368 -0.1342296 0.029144859 -0.027160252
000270 5e 90 6a 3d e9 43 5a be 3e 3f 80 be 1a e8 83 be
       0.057266586 -0.21314968 -0.2504825 -0.25763017
000280 a8 cc 61 3c 0d eb 2a 3d 8b ca d8 3c 61 97 51 3c
       0.013781704 0.04172807 0.026463768 0.012792439
000290 27 9d 15 3d fb 95 8d be 94 3d 57 be 38 f7 9a 3d
       0.036526825 -0.2765349 -0.21019584 0.075666845
0002a0 e0 1e 9b 3c a1 a4 a3 be da cc 43 3e d8 f7 20 be
       0.01893562 -0.3196154 0.19121113 -0.15719545
0002b0 09 53 b3 3e 4b 83 97 be 75 e1 c4 3d 1e 99 e0 3d
       0.35024288 -0.29592356 0.09613315 0.10966705
0002c0 30 13 4b be 7a 71 87 be da 67 8c 3d de e9 b6 3d
       -0.19831538 -0.26453763 0.068557456 0.089313254
0002d0 39 b3 5a bd 34 74 b9 3b 2e bd 95 3e 55 1f 72 be
       -0.053393576 0.0056596044 0.29245895 -0.23644765
0002e0 a7 28 6c bb bc 51 73 bc 7f cc 16 bc fb 01 08 be
       -0.0036034973 -0.01485103 -0.009204029 -0.13282005
0002f0 e7 74 21 3c da b6 c7 3c cb 5b ba 3d 59 db ac bc
       0.009854532 0.024379183 0.09099539 -0.021100687
000300 ae 28 1d be fe 93 bc bd ec ae 2e 3d fd 82 d0 bd
       -0.1534755 -0.09207915 0.042647287 -0.10181234
000310 0f b6 83 be a6 c9 f9 bd f1 27 05 3d 5e 3f 5c bd
       -0.25724837 -0.121966645 0.032508794 -0.05377137
000320 27 f4 42 3e b4 9b 2c 3e 0f a5 1a be a5 8d bd bd
       0.19038449 0.16856271 -0.15102027 -0.09255532
000330 3f 7e f7 3c 96 92 2c be 74 a5 24 3e e4 f7 5e be
       0.030211566 -0.16852793 0.1607874 -0.2177425
000340 e6 49 af ba 91 db 12 3e 20 5c b2 bd 87 34 41 3d
       -0.0013373464 0.1434157 -0.08708978 0.047169235
000350 a9 93 17 bd 73 81 97 3e d9 5d c6 bc e2 c0 4a bd
       -0.037006054 0.2959095 -0.024214672 -0.049500354
000360 35 bf 94 3e bb 52 1e 3e c5 b6 b6 3e ad 03 89 bb
       0.2905213 0.15461247 0.35686317 -0.0041813464
000370 d0 5f 10 be 12 a6 a7 3e 07 be b4 3d 62 5b c4 bc
       -0.1409905 0.3274389 0.08825307 -0.023969356
000380 72 61 02 3d 74 69 a8 bd 4e f2 40 3c 6b fb 37 3e
       0.031831212 -0.082232386 0.01177652 0.17967002
000390 17 61 f8 3d 7c f2 fe 3d 27 07 8b 3e d2 39 c2 bd
       0.121278934 0.12448594 0.27153894 -0.094836846
0003a0 89 79 84 be 83 67 8d 3e 01 d2 9a bc 79 c6 8a 3e
       -0.25873974 0.27618036 -0.018898966 0.27104548
0003b0 f8 88 21 be d8 1c a1 3e 15 b7 8b 3e df dc 6d 3e
       -0.15774906 0.3146732 0.27288118 0.23228787
0003c0 79 95 7e 3d 69 ac 57 bd fe ae 14 bc 59 cc 48 3e
       0.062154267 -0.052654658 -0.0090749245 0.19609202
0003d0 dc a4 e8 bd d4 60 32 3e 74 e2 8c be dd b7 25 3d
       -0.113595694 0.1741975 -0.2751652 0.04045855
0003e0 3d f9 09 be b0 4a 49 3e ad a6 8e 3e eb ee 55 3e
       -0.13473983 0.19657397 0.2786154 0.20891921
0003f0 4d 76 75 be 71 09 59 bd aa af a1 be 01 37 99 3c
       -0.2397091 -0.05298752 -0.31579334 0.018702986

fc_layers.4.bias f4 [64]
000000 28 35 01 3e 5c 9b 1e be a6 2c 02 bc a7 c2 a4 bd
       0.12617934 -0.15488952 -0.007945215 -0.080449395
000010 f1 dc c5 3d cb 22 11 3e 90 bc 81 3c 25 39 aa bc
       0.09661282 0.14173429 0.015836984 -0.020779202
000020 8c 80 82 3d 9a 57 4f 3d 8a 8e 1c 3e 78 f4 ee bd
       0.063721746 0.050620653 0.1528875 -0.116677225
000030 79 39 9a 3d 3c c5 3c 3e fe 54 ce bd 9e fa 6f bd
       0.07530493 0.18434614 -0.10074805 -0.058588617
000040 ed 0a 32 3d 0a 7b 08 3e 1f 6e eb bc 20 f1 9f bb
       0.04346745 0.13328186 -0.028739033 -0.0048810393
000050 4b da cc 3d 48 4c 06 bc e2 7b b7 bd 52 93 0c ba
       0.100025736 -0.008196898 -0.08959176 -0.00053625286
000060 27 81 31 3d 36 4a 12 be 73 38 0e be 8a 4a e1 bd
       0.04333606 -0.14286122 -0.13888721 -0.11000545
000070 94 72 8f be 2f d4 06 be 25 07 a4 3a b5 c8 9f 3d
       -0.28017104 -0.13166879 0.0012514336 0.07801954
000080 b2 a9 0d 3d a7 9f 04 bc 69 c7 85 bd 28 36 27 be
       0.034585662 -0.008094705 -0.06532175 -0.16329253
000090 28 13 25 3e d2 72 e4 39 37 17 a1 3e 35 1d be bd
       0.16120589 0.00043573097 0.31463024 -0.092829145
0000a0 79 9b ca bb c6 af 48 bd 9b 56 ed 3c 3f 57 24 bd
       -0.0061830846 -0.048995756 0.02897196 -0.040122267
0000b0 0b 66 a1 3d 29 4c 82 3d 07 5a 17 3e 34 1f 36 bd
       0.07880791 0.06362183 0.14780436 -0.04446335
0000c0 7f b4 80 bc 93 14 67 3c 51 2a 5e 3e 5c 30 17 be
       -0.015711067 0.014104026 0.2169583 -0.14764541
0000d0 8d 6c 25 be c3 06 d9 bd a7 e8 83 bd 74 ce ca 3d
       -0.1615469 -0.10596993 -0.06440859 0.09902659
0000e0 27 55 e0 bd 0e 4b 00 bd 26 16 26 3d 19 1f 0a be
       -0.109537415 -0.031321578 0.040548466 -0.13488425
0000f0 7b a1 65 be 3f 84 88 bd 8f 50 53 3b 92 4b 2f bd
       -0.22424881 -0.06665849 0.0032244062 -0.04279668
