TrainedModel/Dueling DQN/3000_0-045_DuelingDQN.pth (torch, 291157 bytes, 33 tensors)

conv1.weight f4 [1, 6, 1, 4]
00000000: b534 c9be 0088 0bbd 79e0 d63e ab0e 373e
00000010: a94e e5bc 84d7 5f3e f0e3 0f3f 79e7 063e
00000020: ac5a 773f 0fbd 803e 4783 563f d3e4 cabd
00000030: b123 293e ae17 c6bc ae61 973e ae2f 1b3f
00000040: 7997 3ebe 58d6 16be 6eb8 ccbd 28d4 9d3d
00000050: b782 b4be 8c6f a53e 81f1 c5be ea81 863e
-0.39298025 -0.034065247 0.41968134 0.17876689 -0.02799161 0.21859556 0.5620718 0.13174237
0.9662273 0.2514424 0.83794063 -0.09906926 0.16517521 -0.024181213 0.2956671 0.6061963
-0.1861247 -0.14730203 -0.09996115 0.07706481 -0.35255978 0.32311666 -0.38660815 0.26270992

conv2.weight f4 [1, 6, 2, 4]
00000000: b638 f63d 73f6 5ebd f381 45be 2ef9 953e
00000010: 62dd cebd a64d 573f 08eb 343f 0dea bc3e
00000020: e4ef d43d 826b ce3d f5c6 55be 4806 b9bd
00000030: 20e1 463d 25ce 10be c8bc 31be e4cf 0dbf
00000040: c9a6 2ebd 07b2 90be d30b 953b 7b6b 583e
00000050: 87a6 2cbe cee7 e23d fa54 e23d 8592 cf3d
00000060: 73ef 87bb 32d8 42be e303 693b 0c4d 803d
00000070: f966 06be b5db 253d 52bc 58b9 5c3b 31be
00000080: 651d d23d 73e4 883e 5b3e a3be 1983 2dbe
00000090: 1a26 69be 6bc7 833e 0996 0f3e 2ba1 73be
000000a0: 3ba2 c3bd b729 303e c20a 10be 98e8 853c
000000b0: 0f27 1e3e 66fd 563e 160a 27bd a51e 01be
0.120225355 -0.05443425 -0.19287853 0.29291672 -0.10100819 0.8410286 0.7067113 0.36897317
0.10397318 0.10079099 -0.20876677 -0.09034401 0.04855454 -0.14141138 -0.1735717 -0.5539534
-0.042639527 -0.28260824 0.0045485287 0.2113475 -0.168604 0.110793695 0.11051364 0.10135368
-0.0041484176 -0.19027784 0.0035555295 0.062646955 -0.13125218 0.040492732 -0.0002066952 -0.173078
0.10259513 0.26736793 -0.3188351 -0.16944541 -0.22768441 0.2573808 0.14022078 -0.2379195
-0.095524274 0.17203413 -0.14066604 0.01634626 0.15444587 0.20995101 -0.040781103 -0.12609346

conv3.weight f4 [1, 6, 3, 4]
00000000: 2b76 d5bc f697 263d 902e a4bc a042 903e
00000010: 5196 a03e 2f2a 65be f4bd 3abe bf6e 543e
00000020: cfba 8b3e eef1 3abe 9e1f 7ebe be5d 5f3e
00000030: 2c0a 7cbd e43b 1d3e 8f3a 5c3e b4c7 89bc
00000040: b073 16bd f098 20be 4724 a6bd 2ba2 e6bd
00000050: 1ac8 13be 7956 c8bb 7b1b 00be 4802 88bd
00000060: a942 32bc c825 30bd 3886 063e dd49 003f
00000070: 3dc2 1bbd 4e0c 963d ec49 04be d3d1 fa3d
00000080: f779 cbbd c9c2 12be 2753 403e dc93 9cbd
00000090: f555 de3d 8090 2e3d bc32 62be 97a4 acbe
000000a0: 749a 7a3e 0337 903e 3247 b7bd 78ea 0cbd
000000b0: 303e 46be cccd bbbc 6f6e 343d 624b e93d
000000c0: 53bf a03b 765a 1ebe 76b4 3d3e b3ae 3d3e
000000d0: 1d81 463d a225 a2bb 16c6 27bd 379b 4bbd
000000e0: cab4 02be fd20 773e c3c1 e7bd 19a8 84be
000000f0: 1bc7 f83d 9b2f 2cbe 59d3 ca3d 6293 8bbd
00000100: bb48 7dbd b68e f8bd 606f b03e f5bf 6c3e
00000110: ec8e d03c 050e 22be 67a4 583d a11d 9cbc
-0.026057323 0.040672265 -0.020041734 0.2817583 0.31364682 -0.22379373 -0.18236524 0.20745371
0.2729096 -0.18256351 -0.24816748 0.21813104 -0.06153314 0.15354878 0.21506713 -0.016818859
-0.036731422 -0.15683341 -0.08112388 -0.112614 -0.14431801 -0.006113824 -0.12510483 -0.0664106
-0.010880151 -0.04300478 0.13137138 0.50112706 -0.038027037 0.07326566 -0.12918824 0.12247052
-0.09935372 -0.14332117 0.1878172 -0.076453894 0.10856239 0.042618275 -0.22089666 -0.33719322
0.24472982 0.2816697 -0.08949126 -0.034403294 -0.1935966 -0.02292528 0.04405063 0.11391331
0.00490562 -0.15464196 0.18525872 0.18523674 0.048462976 -0.004948334 -0.040960394 -0.04970857
-0.12764278 0.24133678 -0.11316254 -0.25909498 0.12147351 -0.16815035 0.099035926 -0.068152204
-0.06183694 -0.12136595 0.34459972 0.23120101 0.025458775 -0.1582566 0.05289116 -0.019057097

conv4.weight f4 [1, 6, 4, 4]
00000000: 58fc 273e d4fc 173e 2f08 963e df3a ebbd
00000010: ed34 033b 731d 08be 0c6c 833e 51f3 833e
00000020: 8d9a 82be 7ee7 28be 6b2c 8a3e cd58 283d
00000030: 2df2 403e a078 ddbd b424 013e 70e7 d1bd
00000040: fcc0 b1bc 9a62 2abe dfbc e4bd bf0f 5bbe
00000050: fac7 193e d0b4 d6bd b4d4 243e 1fc9 34bc
00000060: c4f7 3abd c8a3 53be 9da5 73be 0be6 88be
00000070: 29d9 453e e8bb 47bd b914 643d 8618 aebd
00000080: 3d98 0e3f 1831 b33e f77d fa3e af3b 3fbe
00000090: 9343 473e 5c01 b73e 4464 8c3e 24f6 29be
000000a0: 48d9 333e 283c b7bd 9c0a 733e 17da c83d
000000b0: 01d3 ce3e d2ec b13e 16d4 a13e 1f90 3cbe
000000c0: cc64 f33c e5ad 8eba 3768 afbc d983 00be
000000d0: f939 acbd 6693 dbbd d6f4 f1bc 28e6 193e
000000e0: 2805 893e 7bc7 0d3e 7af3 d3bc d6f3 22bd
000000f0: 00c2 763c ea64 143e 8032 323e 7cef 923e
00000100: c5c7 1e3d c6aa 293d 783e 31be 7f60 423e
00000110: c046 03be 56de 0b3e 09c1 f83d ff95 083e
00000120: 6327 ca3d 9ca1 16be dcc9 54be bd25 05be
00000130: 0d19 403e 957b 59bd ce3f 833d 8447 843e
00000140: 8ddd 32be ae46 5fbc 2867 573d 0670 6bbe
00000150: 4cc1 48be 3bc1 a1be 5389 303d 30be 90be
00000160: 5961 253e a55f 363d 5ee1 5abe 54ba f53d
00000170: 9236 a2bb daf5 ebbc 905f c7bc daeb 613d
0.16404855 0.1484254 0.2930312 -0.11485838 0.002002056 -0.13292484 0.2566837 0.25771573
-0.25508538 -0.16494557 0.26987013 0.041100312 0.18842383 -0.10814023 0.12611657 -0.10249221
-0.021698467 -0.16639176 -0.11168837 -0.21392725 0.15017691 -0.10483706 0.16096765 -0.011034279
-0.045646444 -0.20667946 -0.23793645 -0.2673801 0.19321121 -0.048763186 0.055683825 -0.08500771
0.5570105 0.34998393 0.4892423 -0.18675111 0.19459371 0.35743225 0.27420247 -0.16597801
0.17563355 -0.08947021 0.23734516 0.09807222 0.40395358 0.34750992 0.3160712 -0.18414353
0.02971115 -0.0010885565 -0.021411998 -0.12550296 -0.08409495 -0.107214734 -0.029535692 0.15029204
0.26761746 0.13845627 -0.025872935 -0.03978332 0.015060902 0.1449162 0.17402077 0.28698337
0.038764734 0.041422628 -0.17308986 0.18982123 -0.12819958 0.13659033 0.121461935 0.13338469
0.09870794 -0.14710087 -0.20780128 -0.13002677 0.18759556 -0.053096373 0.06408654 0.25835812
-0.17467327 -0.013627691 0.05258861 -0.22991952 -0.19604987 -0.31592736 0.043099713 -0.28270102
0.16150416 0.044524807 -0.21375033 0.1199843 -0.004950353 -0.028803755 -0.02433756 0.055156566

fc3_adv.weight f4 [76, 130]
00000000: da8a d83d 8f91 0d3e 9735 bb3e bfc4 1fbd
00000010: 2449 2f3e ec98 9a3e 63e0 123d 8258 7a3e
00000020: dc17 413e 1831 bf3e 4f18 b03e ca0f 573e
00000030: 1970 2a3e 2327 6d3e 9e67 0b3e 5e4c 8d3e
00000040: 0fa5 123e eb18 f63d 8c96 3e3e b365 b93d
00000050: ea1f b43e 7afb 593e 61ff 7b3e b64e ee3e
00000060: 3f19 1c3e e56c a03d 4de3 093e fda7 1a3e
00000070: 6d4d 143e 0d75 bf3d 41da 523e 74ad 353e
00000080: 92fc 8e3e 6ed3 d03d c519 ff3c b99b 093e
00000090: 02e2 91bc 0752 17be 15e0 0d3d 7c8d f6bd
000000a0: 615c 18be 1fb4 e73d 747f c23d 5482 92be
000000b0: 8047 ee3b e19c cd3d 9d30 7bbe 0bf7 843c
000000c0: 6139 ebbd e707 8ebd 9abb e73d 717d d2bd
000000d0: 5ea1 18be 45be 9abd 5fa1 8fbd f1f7 8b3e
000000e0: 9e5d d4be d97c 00be fb30 fbbd 8fe2 b0be
000000f0: 49c7 63be 1991 e2bd 59d2 c9be 15ad ad3d
00000100: 7c25 9dbe 2ee7 02bf 679f 15bf 272e d33c
00000110: 5a66 833e 981d 87bd 62e9 4d3e 1d7d 773d
00000120: de95 de3d 68eb 243e cdc1 463d 96fa 8ebc
00000130: c34f 0abe 008a 58be 5872 153e d9ae 1fbe
00000140: 11b9 d8bd 3875 de3d e3d7 93bd f9e9 e13d
00000150: c325 643e b331 09be e061 ab3b 34b4 fa3d
00000160: d85f 113e bfe5 a63d fdd7 0e3d be9f a93d
00000170: c7e8 673d 5cb6 783d a10e b1bd cb8d 0bbe
00000180: d01b f9bd a927 b6be 05d6 0abe 8d4b dabe
00000190: 3dda 82be 7c9a abbe 5620 d3bd 36a6 15be
000001a0: 55ed 28be 571e 8abe f929 02bf 910a 9b3d
000001b0: 74b5 1e3d cbe8 acbe 549a afbd 8a14 40be
000001c0: f933 5cbe 9706 7fbe 0d7a 26bd 0b03 6fbe
000001d0: 4ac2 d4be 9a31 83be 603b a7bd b000 d9be
000001e0: 40c1 9abe 68c7 80be 5065 8cbe db70 d0be
000001f0: 4bf7 6ebe 5b76 ecbd 90da fdbd 319f c6be
00000200: 105a 8cbe ecf1 90be 07c8 b7bc 7816 113e
00000210: b84b b2bd 9b09 9e3d 32f8 1a3e 9d8a 9c3d
00000220: 9e24 ee3c 14c8 123e 4381 8e3d 7f53 35be
00000230: d8bc babd 23cd 763e 6554 183e 67e2 f43d
00000240: 219a 083e d288 973d 4bc8 f33d 7ffc 9ebc
00000250: 3e64 2e3e 04b1 5b3e 48da c83d ca66 91bc
00000260: f59d 41bd f87d 813d f8dd 08be 877b d9bd
00000270: ca5d 4dbd f437 88bc f8b9 d23d d29f fb3c
00000280: 9c9c 6d3e f198 1dbd 188e 1fbd 98b1 dfbd
00000290: 45f0 6a3e 0177 ed3d 1adc 0b3e f493 3e3d
000002a0: 8f62 42bc 5e32 533e a592 203e 6b7f 703d
000002b0: 1bc7 e03c c650 1d3d 4bbd 893d 4dad c3bd
000002c0: 70f9 22bc a605 3ebe 361f 353c 73dc c6bc
000002d0: 6034 cfbd 4050 463e 9071 983d 3e69 9c3e
000002e0: a783 6a3c 4a76 d9bd a1fb ae3e bc87 903e
000002f0: c647 7dbb 7b13 863c f621 96bd 7c0d f9bd
00000300: 266a 2abe bcde b7bd 2ed3 cbbd 64e6 b83d
00000310: 97f9 c8bd ddc8 dc3e 5975 edbd 13bd bdbe
00000320: 8ee6 b33c 5a2d 0dbc 48a7 f63d 6add 5b3e
00000330: 2213 33bd fffe b53c 16f6 f4bd 100d 6cbe
00000340: 55ba 203d 4387 973d 8dbe 2b3d f7d6 e0bb
00000350: 8697 f53c dd0a 42be 633d 92bc 1fde 893c
00000360: f71e 183e 245f 3bbe d432 693d fe97 aa3d
00000370: fd4f ce3c 0359 9b3e df92 4d3d 9d1a afbc
00000380: 4907 b2bd c4f3 953d 2bec 323e bdcd 14be
00000390: 1279 643e 9c47 3b3e bb6f 8a3e b5fc cb3d
000003a0: 34a2 9abd a561 01be df45 053d 368d 483e
000003b0: 1743 603d fd72 a13d 72e0 f23d bd88 53bc
000003c0: 9f4f e43d ebc7 0abb 616d ae3a 9099 6b3e
000003d0: 6a4c 81be a5cc 013e 2e70 463e 527a ac3d
000003e0: 0eb3 27bb 4acc 103e 60ba 26be 9d52 1c3e
000003f0: bb17 8ebd 0eae 0f3c bedd 773e 601d 713e
0.10573359 0.13825057 0.36564323 -0.03900599 0.17117745 0.30194795 0.035858523 0.24447826
0.18856758 0.37342143 0.34393546 0.21002117 0.16644324 0.2315946 0.13613746 0.27597326
0.14320777 0.120164715 0.18612117 0.09052601 0.35180598 0.21287337 0.24609138 0.46544427
0.15244006 0.0783327 0.13465615 0.15103145 0.1448266 0.093484975 0.2059107 0.17741948
0.2792707 0.10196577 0.031140218 0.1343831 -0.017807964 -0.14777385 0.03463753 -0.12038705
-0.1487899 0.11313652 0.09496966 -0.28615057 0.007271707 0.10039688 -0.24530263 0.01623108
-0.114855535 -0.06935101 0.11315079 -0.10277832 -0.14905307 -0.07555822 -0.07013201 0.27337602
-0.41477674 -0.12547626 -0.12265202 -0.3454785 -0.2224399 -0.110628314 -0.39418295 0.084802784
-0.3069266 -0.51134 -0.58446354 0.025778843 0.25664026 -0.065974414 0.2010856 0.06042205
0.10868429 0.16105425 0.048524667 -0.017453473 -0.13506989 -0.21146393 0.145944 -0.15594043
-0.105821736 0.108622015 -0.072189115 0.11030955 0.2228003 -0.13397865 0.0052301735 0.12241402
0.14196718 0.08149289 0.03487395 0.082824215 0.05661848 0.060720786 -0.08645368 -0.13628308
-0.12163508 -0.35577133 -0.13558204 -0.42635766 -0.25557128 -0.335163 -0.10308902 -0.14614186
-0.16496785 -0.26976272 -0.50845295 0.07570375 0.038747266 -0.33771357 -0.08574358 -0.18757835
-0.21504201 -0.24904858 -0.04064374 -0.23341005 -0.4155448 -0.2562378 -0.08165622 -0.42383337
-0.30225563 -0.25152135 -0.27421045 -0.40711102 -0.23336522 -0.11546012 -0.12395203 -0.38793328
-0.27412462 -0.28309572 -0.022434248 0.14168727 -0.087058485 0.07716676 0.15133741 0.07643626
0.029070195 0.14334136 0.069582485 -0.17707632 -0.0911805 0.24101691 0.14875944 0.11957245
0.13340046 0.07399143 0.11903437 -0.019407509 0.17030427 0.21454245 0.09807259 -0.017749209
-0.04726978 0.06322855 -0.13365924 -0.10619264 -0.050138272 -0.016628243 0.10289377 0.030715857
0.23204273 -0.038475934 -0.03895387 -0.10922545 0.22943218 0.11594964 0.13658181 0.046527818
-0.0118643185 0.20624682 0.1568094 0.058715265 0.02743869 0.03840711 0.06725558 -0.09554539
-0.009947166 -0.18556842 0.011054805 -0.02427504 -0.101174116 0.1936655 0.07443535 0.30549043
0.014313615 -0.10618265 0.34176353 0.28228557 -0.0038647517 0.01636671 -0.07330696 -0.12160775
-0.16642055 -0.0897803 -0.09952389 0.090283185 -0.098132305 0.43121997 -0.11594648 -0.37058315
0.021960523 -0.00861677 0.12043625 0.21471182 -0.04371942 0.022216318 -0.11961 -0.23051858
0.0392402 0.07398846 0.04192977 -0.0068615633 0.029979479 -0.18949457 -0.017851537 0.016829548
0.14855562 -0.18298012 0.05693324 0.083297715 0.025184626 0.30341348 0.050188895 -0.021374995
-0.08692796 0.07321885 0.17472903 -0.14531608 0.2231181 0.18289036 0.2703837 0.099603094
-0.07550469 -0.12634905 0.032537337 0.19585118 0.05475148 0.078832604 0.11859216 -0.012911019
0.11147999 -0.002117629 0.0013307744 0.23007798 -0.25253612 0.12675722 0.1937873 0.08421768
-0.0025588903 0.1414043 -0.16282034 0.1526589 -0.0693812 0.008769525 0.24205682 0.23546362

fc3_adv.bias f4 [76]
00000000: d4a3 5c3e a98c aa3c 1fe6 dcbd 5fa5 783e
00000010: 686b 2cbe c4a5 a7bd 9805 3e3e 27e8 49bd
00000020: 64c2 2abe 2723 fbbd b4d6 94bc 7950 093e
00000030: 874f 163e 14b9 f23d b839 433e 6a18 22be
00000040: 3763 923c 97a8 52bd f6e9 dd3d 2f78 943e
00000050: 5bfe ebbd 3415 163e 2714 a6bd 3835 31be
00000060: 3118 05be f086 fdbb a6ee 0dbc dead eb3b
00000070: f4fe 9a3d 175c 89bc 232b 773d 2388 c23d
00000080: afbf 3a3e bbd1 c4bc 787d af3d fc09 373e
00000090: 9d1e 1b3e fc60 5bbd cec7 e23d f172 3abe
000000a0: a519 b2bd ea23 92bd cd73 61bb cfc5 2f3d
000000b0: 5eaa 27bb e6c1 623d d612 313c 88e9 aabb
000000c0: 9191 04be e620 423e 4135 373e 17cf 113e
000000d0: 8283 22bd 9b28 01be 5cfe a53d dec8 003e
000000e0: 757e 09be 31d0 c2bd fca4 123e 46cd f73d
000000f0: 4fe4 96bd b824 2dbe 1014 aebc 67ae 603e
00000100: f5c1 b6bc 5005 cabd 2f2f d2bc bd39 593d
00000110: 9f2d 083d 6560 6f3e 32c8 a93b 7759 ac3c
00000120: f2b7 ffbd 39bc 5d3d c339 ed3c 26ba b53d
0.2154687 0.020819025 -0.107860796 0.24281834 -0.16837847 -0.08185914 0.18556821 -0.049293663
-0.16675717 -0.12262564 -0.018168785 0.13409604 0.14678775 0.11851707 0.19064987 -0.15829626
0.017869575 -0.05143031 0.1083564 0.28997943 -0.11523124 0.14656526 -0.081093125 -0.17305458
-0.1299751 -0.007737033 -0.008662855 0.0071923574 0.0756816 -0.016767545 0.060343873 0.09498622
0.18237184 -0.024025789 0.08568853 0.17874902 0.15148397 -0.05355929 0.11073266 -0.18207909
-0.086962976 -0.07135756 -0.0034401298 0.042913254 -0.0025583724 0.055360697 0.0108077135 -0.0052158274
-0.12946154 0.18957862 0.17891409 0.14239155 -0.039676197 -0.12613146 0.08105156 0.12576625
-0.13427146 -0.095123656 0.14320749 0.120997 -0.07367765 -0.16908538 -0.0212498 0.21941529
-0.022309283 -0.098642945 -0.025657265 0.05303358 0.033246633 0.23376615 0.005181336 0.021038754
-0.12486257 0.05413458 0.028958207 0.088733956

fc3_val.weight f4 [76, 130]
00000000: deea dcbd 733f d13d 4482 303e 34f1 963d
00000010: 447c 403b b230 11be 3ef7 d0bd a5a9 4b3b
00000020: 9abc aabc 74a0 4c3d 44b8 3dbc a0a1 553e
00000030: 4628 92bc 1c02 b33d 528f b5bd 1e5b 4c3e
00000040: 8fb7 3b3e a444 203d 1ae5 a5bc 19b1 1dbe
00000050: a5f8 513e faca 0fbc 7fbd ef3c 5f66 c2bd
00000060: fd36 85bb e2e0 673d e312 f03d ef79 c5bd
00000070: deb9 11be 2b5a c73c dffe 06be 1066 ba3d
00000080: a886 6e3c be53 72bd cde0 633e 8ea8 323e
00000090: 25df c0bd ec10 81bb a7ce 123a 975c d93d
000000a0: e73c 983d ba52 453d a385 2c3e 602f 1a3d
000000b0: a30d 2a3d 559b 693e 2258 133e 71af 353e
000000c0: fed3 203e 2b2a bf3d c6d3 e03b 9302 4e3e
000000d0: d989 643d ada0 803c 8615 3b3e 474a a13c
000000e0: bed8 103e 4d0d 0c3e 023e 193d 4878 4a3e
000000f0: d0df 20bd b42b a23d 90d2 ab3d ed46 b3bb
00000100: 553b bf3c 41d6 e23d ee10 323e d39c bf3d
00000110: b0d7 7e3e 61dc 783e e4bf 083e 1db3 353d
00000120: 8ea7 a13d 6894 0e3e 9c79 a03e aeca 9c3c
00000130: 8a70 c33d e445 753e 1330 023e bd00 883d
00000140: 7141 5b3e 9e7e 4a3e a348 113d 2b0c 033e
00000150: 359e 593e cbc9 633e 5a34 403e 29d4 5c3e
00000160: 2a2e 7b3e 9652 3ebd 20f0 c83d bb7b 023e
00000170: edbc 713e 4bc1 c63a be32 5d3d 77f7 043e
00000180: 1245 343e 5373 af3e d0d5 813e 5ef3 963e
00000190: 6e2b 5e3e de4f c83d c581 053e c42e 193e
000001a0: 2808 873d b727 b73d 716f 193e 1985 e13d
000001b0: 846e 5f3e 32bb eb3d 62ec 2e3d ac02 a0ba
000001c0: 6b2c 823d b098 e4bc 66ac 613a aa60 e53c
000001d0: 5b8b 153e 9526 133d 4bc9 023e 2594 51bc
000001e0: 5d3f 5a3e 4e5c 723e 1cb4 5e3c 2a5c 233d
000001f0: b648 043e 54a5 71bc 8d8c 3a3e d2fe 4a3e
00000200: 6eb2 f2bc 3373 f53d 0a0c b73d d2b5 a5bd
00000210: f521 97bc 7385 273d cc66 bcbd fb7d 133d
00000220: c036 c53d 1858 ef3d fe9c 023e fb3f 4b3d
00000230: b5ad bc3c d7f3 69bd 2065 b4b9 1b3d 1f3e
00000240: 8a38 00bb 810a 233e f2df 1fbd bf33 b6bd
00000250: 6bcf 81bb 22c5 a5bc 5e4d c23b b80c 47bd
00000260: 523b 493d 74b6 70bd a981 2c3e 0551 37bc
00000270: 4a9f ec3d 4f67 bb3d a1c8 833d cd11 e1bd
00000280: ece3 54bd 18e6 9ebd a510 973c 3bd5 f4bc
00000290: e390 5f3e f5f8 983d aada f53d ee16 d63a
000002a0: ce71 323e 654c b038 3526 6c3d 74ce 113d
000002b0: 76ef 4cbd d67d 273e ea41 13bb 0210 783c
000002c0: c380 e1bb 442b 7a3e ef11 0e3e 4a24 cd3d
000002d0: 1d7a 9e3d 618e 6c3e 7b9b 5dbd 1a2e 193e
000002e0: 6469 d3bc fa49 6b3d 353a 433e 0566 4b3e
000002f0: f683 9f3d ec5b 5fbd 8f5c 623c 7abe c43d
00000300: 39c6 403d cf9e 5d3e 755a 6a3e 5adb 523e
00000310: 93e1 f53c 60a0 6e3e 20b7 033c adfa 943e
00000320: 409e b23d 7234 1a3d 569d 0c3d 2646 683d
00000330: cd9c 613e d15b 343d 4a15 513e b20b 36ba
00000340: bbe1 713e aa8d fd3d b704 f43c 3768 ea3d
00000350: 3223 993e bfb6 ea3c f10b 5b3e 8f6e 963e
00000360: 4fe4 603d 3f17 463e 29a9 033e f03a 973e
00000370: 31d6 0b3e ca1f 5e3d b1e5 893e fb85 ac3e
00000380: da1c 453e 5b21 c03e 2e19 b03d 6819 2b3e
00000390: c633 ff3d 0b9a 5c3e cca5 5f3d d3ae 403e
000003a0: da98 a7bd a8ea 833e 68ce f73d 9b67 393e
000003b0: 5fa0 603e 4160 b1bd 57dc c63d 7bfe 783e
000003c0: e47f 4f3e f0f6 f53d 9b7e 3f3d 961c 8f3a
000003d0: edc6 813b 6eab 373e d694 a4bd d7a7 c8ba
000003e0: 79dc 3f3e e332 c03d cd48 553e 97a9 1b3d
000003f0: 5338 8b3e 8ab6 80bc 3d39 383d 52b8 83bd
-0.10786985 0.1021718 0.17237192 0.073702246 0.0029370943 -0.14178732 -0.10203408 0.0031076458
-0.020841885 0.049957708 -0.011579577 0.20862436 -0.01784147 0.08740637 -0.08865227 0.19956633
0.18331741 0.03912796 -0.020250846 -0.15399589 0.20505007 -0.008776421 0.029265163 -0.09492182
-0.004065393 0.05661095 0.11722352 -0.096423976 -0.14231059 0.024334988 -0.13183163 0.09101498
0.014558472 -0.059161894 0.22253723 0.17447111 -0.094175614 -0.003938785 0.00056002516 0.10613363
0.07433491 0.048174597 0.16847853 0.037642837 0.04151691 0.2281316 0.14389089 0.17742707
0.15705869 0.09334215 0.006861183 0.2011817 0.055795524 0.015701616 0.1826993 0.019688739
0.1414518 0.13676949 0.03741265 0.19772446 -0.039275944 0.07918492 0.08389771 -0.0054711015
0.023343721 0.11076022 0.1738927 0.09356084 0.24886966 0.24302818 0.1335445 0.04436027
0.07893287 0.139238 0.3134278 0.019139614 0.095429495 0.23952442 0.12713651 0.06640766
0.21411683 0.19774863 0.035469662 0.1279761 0.21251757 0.22244947 0.1876997 0.21565308
0.24529329 -0.04646548 0.09811425 0.12742512 0.23607226 0.0015163807 0.05400347 0.12985025
0.17604473 0.34267673 0.25358438 0.2948255 0.21696255 0.097808585 0.13037784 0.14959246
0.065933526 0.08943122 0.14983918 0.110117145 0.21819502 0.11510314 0.0427059 -0.0012207828
0.06356128 -0.027904838 0.0008608758 0.028000195 0.14603941 0.035925467 0.127721 -0.012791668
0.21313234 0.23668024 0.013592746 0.039882816 0.12918362 -0.01474889 0.18217678 0.19823769
-0.029626098 0.11984863 0.08937843 -0.0809132 -0.01844881 0.04089875 -0.091992944 0.036008816
0.09629583 0.116867244 0.127552 0.049621563 0.023032049 -0.05711731 -0.0003440762 0.15550654
-0.001956495 0.15921976 -0.03903193 -0.088965885 -0.0039614937 -0.020235602 0.005929633 -0.048596114
0.049128838 -0.05876775 0.16846336 -0.01118875 0.115538195 0.09150564 0.06434751 -0.10989723
-0.051975176 -0.07758731 0.018440554 -0.029886832 0.21832614 0.0746936 0.120045975 0.0016333738
0.17426226 8.4065636e-05 0.057653625 0.03559728 -0.050033055 0.16356596 -0.0022469708 0.015140535
-0.0068818047 0.24430567 0.13874029 0.10016687 0.07738135 0.23101188 -0.054103356 0.14958993
-0.02580709 0.057443596 0.19065173 0.19863136 0.077888414 -0.054531023 0.013816013 0.09606643
0.04706404 0.21642612 0.22886069 0.20591488 0.030014789 0.23303366 0.008039266 0.290975
0.0872159 0.037647672 0.034329735 0.056707524 0.22032471 0.044032875 0.20418277 -0.0006944492
0.23621266 0.12380536 0.029787404 0.11445659 0.29909664 0.028651593 0.21391274 0.29381225
0.054905232 0.19344805 0.12857498 0.29537153 0.13655926 0.054229535 0.26933053 0.3369597
0.19249287 0.37525448 0.08598553 0.1670891 0.12461047 0.21543138 0.054601476 0.1881669
-0.08183451 0.25764966 0.12099916 0.18105929 0.21936177 -0.08660937 0.09709995 0.24315827
0.2026363 0.1200999 0.0467516 0.0010918553 0.0039604814 0.17936489 -0.08036201 -0.0015308809
0.18736447 0.09384706 0.20828553 0.03800353 0.2719141 -0.015712041 0.04497646 -0.06431641

fc3_val.bias f4 [76]
00000000: 51c5 f13c 7c73 95bd 9495 aaba c209 9f3c
00000010: a8fb ffbc 75a1 98bd 3772 283e f102 1e3e
00000020: f742 cebd ecbf 643e 1f53 af3c 03db 4abd
00000030: e0b3 a73d c746 1b3d 36dd a83b 6e4f 793c
00000040: 4518 2e3e cc36 cd3c 00e9 3e3e d089 99bd
00000050: e805 88bd 2dee a03d f249 d6bc 9387 e13d
00000060: 6806 833c f30f 37bd a0c1 4fbc dcff d2bd
00000070: a0ba c6bd 56da b8bd 8a3b 85bd a425 7a3b
00000080: 2757 e13d 29bd 823e 5faf 313e 652b 77bd
00000090: ebdc 153e 491e 8fbd 6fb3 1c3e 7234 14bd
000000a0: 93f7 a63e 2f02 873d c59d 413e 1f77 703d
000000b0: 392f 1d3d d6f6 353e 7912 823d 187e 22bb
000000c0: 5c6b e43d 628d 8b3c 22ef 4f3e e336 e73d
000000d0: edde 183d da26 e63c 32d6 9d3e fee3 9abc
000000e0: 3446 f23c 2075 3f3d 64f6 f53d 82a0 bcbd
000000f0: f501 3b3e 9144 01bd 11e3 18bc e78b 2e3e
00000100: 0707 01bd 6b74 623b 9877 853e 4585 a93c
00000110: 049d 2dbd 0ded 103b 6550 7dbd 6939 7bbc
00000120: 07c2 833c a90e 1b3e fab9 d33c 369b cebb
0.029513033 -0.072974175 -0.0013014548 0.019413833 -0.031247929 -0.074526705 0.1644982 0.1543081
-0.10071366 0.22338837 0.02140194 -0.049525272 0.08188605 0.037909295 0.0051533235 0.015216691
0.17001446 0.025050543 0.1864357 -0.07496989 -0.066417515 0.078579284 -0.026158307 0.11012187
0.015994266 -0.044692945 -0.012680441 -0.103027076 -0.09703565 -0.09026019 -0.06505497 0.0038169408
0.11002951 0.25534943 0.17352055 -0.06034412 0.14635055 -0.06988198 0.15302823 -0.03618283
0.3261076 0.06592213 0.1890784 0.058707353 0.038375113 0.17769942 0.0635118 -0.0024794396
0.1115329 0.01703519 0.20306066 0.11289766 0.037321974 0.028094698 0.3082748 -0.018907543
0.029574491 0.04674256 0.12009886 -0.09210302 0.18262465 -0.03155953 -0.009331481 0.17045556
-0.031500842 0.0034554254 0.26067805 0.02069343 -0.04238607 0.002211395 -0.06184425 -0.015333512
0.01608373 0.15142311 0.025845516 -0.0063051237

fc4_adv.weight f4 [38, 76]
00000000: e00c aebd ff5e 7dbe 5726 56bd d2c9 4ebd
00000010: 1d50 283e 5c19 6abe af47 7dbe da07 793e
00000020: c302 ac3d 146d 9fbd 2f85 c3be 1534 083e
00000030: 1fb1 5dbe a0f6 77bd bc8e cabe 8072 e7bd
00000040: db86 f4bd c72f 673e ea0e 7d3e b09b 033e
00000050: 6e97 93bd e3bc 50be a937 ecbd f8e1 013e
00000060: e341 f93d 92ee 503e e15e 173d 7378 403e
00000070: 6668 b3bd 1935 06be 3a01 813e 1d00 b13c
00000080: 28c6 9f3e ab14 0ebd c6d4 b23c 53ce 803a
00000090: cb90 263e c285 853e 7d31 6cbe 504f 33be
000000a0: ceed db3d 8ca7 fbbd 018e 013e c035 bfbd
000000b0: 9eea 113e 633e 48be e6aa c5be 6046 c3bd
000000c0: d504 3fbd 232c 613e 025f d23e bcc0 773d
000000d0: bf4d 8a3e 6af0 743e 26c7 cfbc f573 b13e
000000e0: 279e 193e d5e4 a8bd 9588 913e be7c a1be
000000f0: b578 033e 7c49 503e 9714 47bd e603 5f3c
00000100: 971d c8bd 7783 833e 7ca6 a43e 2377 803e
00000110: 2d25 0dbc b7c8 c33d ab4a 0fbd d6b8 52be
00000120: 086a 093e e60a ff3d 7f2b 3dbe 6a3a 19be
00000130: 3b42 40be 5c7c 8dbc b2cb 6cbd 6d70 e6bd
00000140: 0d0a 923e 96e6 aebe bc9c ffbd 6219 91bd
00000150: cb9e 2a3d 310a 323e 5ad3 eebd 023d 953e
00000160: 27e8 1bbe e62a e13d 1136 e13d 1438 0bbe
00000170: fa75 163e 3161 27be 8387 963e 4151 c8bd
00000180: b57b 84bc ae5a ae3d c032 1abe e306 383e
00000190: 99d7 38bd 5c5d 6bbe 3239 613e ad21 993d
000001a0: e040 9cbe d041 9ebd b725 96bd 9a8e 8cbd
000001b0: 9cb1 53be 3309 9b3e 681c 94bd 2d8c 843e
000001c0: 886c 5dbe 7b90 823d 93ef 053e 7bdd 4fbe
000001d0: ecf1 79bd ddd3 22be 45d8 673e 3617 b03d
000001e0: f5c0 4a3e fdb7 05bd 92a5 653e 6288 debd
000001f0: 4b16 9fbc d629 e63d 88f3 52bd 3a8a 5dbe
00000200: 7734 01bd 6bfe 7b3e 5795 8fbd 9a42 e33d
00000210: aef5 5d3e 17c1 da3d 4b24 063e 652d 4c3c
00000220: 611d 383e 8565 3ebe a606 d43c e505 4ebd
00000230: 5fd2 083c a349 15be 5cae f23d 4231 b5be
00000240: b6c5 bc3d 19e9 f63d 4e18 723d e863 f73e
00000250: 13ec 923e 835d 213e 87b8 553e 430d 9a3e
00000260: 4275 15be f5eb 12be 3729 4ebe 26e4 b5be
00000270: 34b1 5e3d 8bb0 193d a3e5 c33d 87b6 993c
00000280: 52b5 0d3e 3a4f 30be dfcd 7d3d 98b5 6b3e
00000290: 6cec 5e3e b783 f73e b28d 1f3d 4102 813e
000002a0: 7164 3b3e a9fa 943d 7e57 9b3e c619 45be
000002b0: 36e0 adbc c46a c1be 666f c8bd 00af 8d3e
000002c0: 9966 13be 6cef 893e dc34 813e 3982 a73d
000002d0: 0f05 d13e 7a01 12be f6c5 bebd 8c7e 5ebe
000002e0: 231c febd ddee 36be 7a10 1dbe ca91 afbe
000002f0: 3808 00be e47b a13e 3f31 c6bd cd81 f4bc
00000300: b7c2 20be 0777 83bb 45fc e0bc 93df dbbd
00000310: aaa2 7fbe c703 553d 874e 50be 28ac 23bd
00000320: 8a7b 813d f626 f93d 001f b53e f079 90be
00000330: 8726 f53e 7c20 503e 042b 853e aff7 463d
00000340: bd8d 1dbd 4dab a8bd 40b7 56bd 2476 66bb
00000350: 1751 b13e 0975 96bd 90b1 ca3d b5c9 96bc
00000360: 57ba 45be 4f84 313c 38a6 293d 9cfa a73c
00000370: 2123 683e 2fd9 ff3e b02b 943e f522 af3d
00000380: 830e c2bd d841 27be 9626 963e e827 413e
00000390: 2c94 0a3e 434b 97bd 96d5 5bbd b736 20be
000003a0: bbd2 3e3e 8b3a 44be c148 a5bd 83cb 9f3d
000003b0: cc40 73be 7fbd 523e 39f7 53be edb5 cebd
000003c0: 9b88 543e 9e97 3b3d 967d 55be 6ded f2bd
000003d0: e8ae eb3d ed20 883d 78c4 243e 9f3e 12be
000003e0: 4c39 603e b836 68be d667 db3d e34a e7bd
000003f0: 9208 06be 4b1f 33be 9bc1 8ebe f5cf 3bbe
-0.084985495 -0.2474327 -0.052282657 -0.05048544 0.16436811 -0.22861236 -0.24734376 0.24319401
0.08398964 -0.07784477 -0.3818755 0.13301118 -0.21649598 -0.060537934 -0.39562023 -0.11301136
-0.11939784 0.2257682 0.2471272 0.12852359 -0.07206617 -0.20384555 -0.11534054 0.12683856
0.1217077 0.20403507 0.036955718 0.18795948 -0.08760147 -0.13106193 0.25196248 0.0216065
0.3120587 -0.03468768 0.021829974 0.0009827114 0.16266172 0.26078612 -0.23065753 -0.17510724
0.10738717 -0.122878164 0.12651826 -0.09336424 0.14249656 -0.19555049 -0.38606948 -0.09534907
-0.046635468 0.21989493 0.4108811 0.06048654 0.2701244 0.23919836 -0.025363516 0.3465878
0.15001737 -0.08246771 0.28424516 -0.31540483 0.12839015 0.20340532 -0.04860362 0.013611769
-0.09771269 0.25686237 0.32158267 0.25090894 -0.00861482 0.09559768 -0.03498332 -0.20578322
0.13419354 0.124532506 -0.18473624 -0.1496369 -0.18775265 -0.017271213 -0.057811446 -0.11251912
0.28523293 -0.34160298 -0.124810666 -0.070849195 0.041655343 0.173867 -0.11661406 0.29148108
-0.15225278 0.1099451 0.109966405 -0.13595611 0.14693442 -0.1634567 0.29400262 -0.09781123
-0.01617227 0.085133895 -0.15058422 0.17971377 -0.045127485 -0.22984833 0.21994475 0.07477126
-0.30518246 -0.077273965 -0.07331412 -0.068631366 -0.20673221 0.30280456 -0.072319806 0.25888196
-0.21623433 0.06375214 0.13079672 -0.20299332 -0.06102173 -0.15901132 0.22641094 0.08598177
0.1980017 -0.032646168 0.22426441 -0.10865857 -0.01941981 0.11238448 -0.05150178 -0.2163476
-0.031544175 0.24608772 -0.07010906 0.110966876 0.2167575 0.1068136 0.13099782 0.012461995
0.17979957 -0.18593414 0.025882076 -0.05029859 0.008350938 -0.14578871 0.11849663 -0.35389143
0.09217398 0.120561786 0.05910521 0.4831841 0.28695735 0.15758328 0.20871173 0.30088243
-0.14595512 -0.14347823 -0.2013291 -0.35525626 0.054368213 0.03752188 0.09565284 0.018763794
0.138387 -0.17217723 0.061963912 0.23018491 0.21769875 0.48342678 0.03895349 0.25197032
0.18300034 0.07274372 0.3034019 -0.19248113 -0.021225076 -0.37776768 -0.097868726 0.27672577
-0.14394607 0.26940477 0.2523564 0.08179135 0.40824172 -0.14258376 -0.09315102 -0.21727961
-0.124077104 -0.17864557 -0.15338317 -0.34290916 -0.12503135 0.31539834 -0.09677362 -0.02984705
-0.15699278 -0.004011992 -0.027464041 -0.10736003 -0.24964395 0.052005555 -0.20342456 -0.039959103
0.06322391 0.12165634 0.35375214 -0.2821803 0.47880957 0.20324892 0.2600938 0.048576053
-0.03846525 -0.08235798 -0.052420855 -0.0035165632 0.3463218 -0.073465414 0.098971486 -0.018406728
-0.19309364 0.0108347675 0.041418284 0.020505242 0.2266965 0.49970385 0.2893958 0.085515894
-0.09475424 -0.16333711 0.29326314 0.1886288 0.13533086 -0.07387402 -0.05367049 -0.15645872
0.18635075 -0.19162957 -0.08070517 0.07802489 -0.23755187 0.205801 -0.20699777 -0.10093293
0.20755236 0.04579889 -0.20848688 -0.118616916 0.1150797 0.06646905 0.16090572 -0.142817
0.21896857 -0.22677124 0.107131645 -0.112935804 -0.13089207 -0.17492406 -0.27882084 -0.18341048

fc4_adv.bias f4 [38]
00000000: 215f 313d ccdf 9d3d 50ae 9fbd 4354 c23d
00000010: 0044 fe3d 6a5e 23be 41fd 04bd 3dfe e43d
00000020: 1392 0c3c 36f3 7cbd 36fe 91bc a2ca a03d
00000030: 074a 21bd 3036 c83d 38ac 4f3d 0460 7d3d
00000040: d465 843d 596f 3c3d 7cc5 0d3d 829f babd
00000050: d71f ebbc 61ed c73c ac5b 283d 6149 e03c
00000060: bc73 2fba 1387 a9bb 023f d3bc 1206 f23d
00000070: c17a a7bd 305c fdbd 4bd6 043e f0ea e9bd
00000080: ce26 5ebd 1c0d 023d 65cd 6a3e 33c7 c93d
00000090: f1c5 7a3e 6cbb 06bd
0.043303613 0.077087015 -0.07796919 0.09488728 0.12415314 -0.15953985 -0.032468084 0.111813046
0.008579749 -0.06175538 -0.017821413 0.07851149 -0.03937724 0.097759604 0.05070135 0.061859146
0.06464735 0.046004627 0.034612164 -0.09112455 -0.028701706 0.024405183 0.04110305 0.02737874
-0.0006692966 -0.005173573 -0.02578688 0.11817564 -0.0817771 -0.12371099 0.12972371 -0.11421764
-0.054236226 0.031750783 0.22929914 0.09852447 0.24489571 -0.032893583

fc4_val.weight f4 [1, 76]
00000000: 26cc ba3e 4a30 6b3e 3309 0bbf 9732 a23e
00000010: 2906 863e aa0b ebbe eb49 1bbf ce20 91be
00000020: 733b 843e c9e4 74bf 9a71 883e 68b8 c53e
00000030: 2877 0dbf dd8f b3be 64b4 853e 37d3 5e3e
00000040: f497 bbbe 87dd 953e d37e d7be 0423 1c3e
00000050: afb0 ae3e d823 97be d6d0 063e 4a43 e9be
00000060: 16d6 24bf d402 ab3e ebe0 bd3e fe3c c63e
00000070: 32e5 a63e 156e 45bf a992 cb3e f67b b23e
00000080: 07f0 85be 65f3 12bf fe8d 5abf 4a37 31bf
00000090: 5027 28bf 8664 3c3e c30b acbe e5de 4d3e
000000a0: a03d 49bf d658 613e 11b5 a5be 6bc7 34bf
000000b0: 4ee5 fb3d 4e8d cabe 0d60 ad3e 7378 50bf
000000c0: 275a e9be 3e37 913e d62c 66bf 5ea2 2ebf
000000d0: e0dd a23e 32ae 1bbf b101 8cbf 1490 d53e
000000e0: 2d52 18bf 3a04 ebbe 1b63 39bf 1ebe 28bf
000000f0: 1901 51bf 45bf 6c3e f97b 663e 72d0 8bbe
00000100: e384 823e ca52 9f3e 8c5a f9be 3153 25bf
00000110: ef9c 053e b940 953e 4ec2 ac3e 07aa 103e
00000120: 9158 843e f394 2ebe c8cc b53e f8f8 f73d
0.36483878 0.2296764 -0.5431091 0.31679222 0.26176575 -0.45907336 -0.60659665 -0.2834534
0.25826606 -0.956616 0.2664917 0.38617253 -0.55259943 -0.35070696 0.2611419 0.2176026
-0.3663937 0.29270574 -0.42088947 0.15247732 0.34119174 -0.29519534 0.13165602 -0.4555915
-0.6438917 0.33400595 0.3708566 0.38718408 0.32596737 -0.77121097 0.3976033 0.348602
-0.2615969 -0.5740264 -0.8537291 -0.6922499 -0.65684986 0.18397722 -0.33602723 0.20104559
-0.7860966 0.22006544 -0.32364705 -0.7061679 0.12299596 -0.39560932 0.33862343 -0.8143379
-0.45576593 0.2836246 -0.89912164 -0.682165 0.31809902 -0.60812676 -1.0938016 0.41711485
-0.5950039 -0.45901662 -0.7241685 -0.65915096 -0.816423 0.23119839 0.2250823 -0.2730747
0.2549201 0.3111785 -0.48701894 -0.64580065 0.13048147 0.29150942 0.33741993 0.1412736
0.2584882 -0.17049007 0.35507798 0.12108034

exp_avg f4 [1, 6, 1, 4]
00000000: 4630 8b3e a438 42bc 314e 843c b15e 3a3b
00000010: 8c3e 3d3f 8558 8f3e af49 683d 9650 2ebe
00000020: afd1 c93d afd1 c93d afd1 c93d 16e9 d83c
00000030: 580c d63c 5954 0e3c 5954 0e3c b2e8 3d3c
00000040: f598 1bbd ebce 6bbd ebce 6bbd d48b 55bc
00000050: 7800 773c dec5 a5ba 3842 e4b9 e23d 343c
0.27185267 -0.0118543245 0.016150566 0.0028437788 0.73923564 0.27997223 0.056710895 -0.17022929
0.09854447 0.09854447 0.09854447 0.026478332 0.026128933 0.008687102 0.008687102 0.011591123
-0.037987668 -0.05757038 -0.05757038 -0.013033826 0.015075795 -0.001264747 -0.00043536886 0.011001082

exp_avg_sq f4 [1, 6, 1, 4]
00000000: 283c 8b3f 2474 8b3d fae1 4c3d 2447 e13a
00000010: 7f63 3142 c92d ee41 4a29 1741 2c52 bc3f
00000020: ff3f 063f ff3f 063f ff3f 063f b12d 3b3c
00000030: 8366 e23d 8974 ad3d 8974 ad3d bba6 8d3b
00000040: 9c4c 1c3d 6d30 0a3d 6d30 0a3d 2168 af3a
00000050: 9a17 4e3d e522 203d aef7 133d 489b 453b
1.0877733 0.068092614 0.050020196 0.0017187339 44.347164 29.772356 9.44758 1.4712577
0.524414 0.524414 0.524414 0.011424468 0.11054709 0.08469493 0.08469493 0.0043228543
0.038158998 0.03373759 0.03373759 0.0013382473 0.050315477 0.039095778 0.036124878 0.003015237

exp_avg f4 [1, 6, 2, 4]
00000000: 2eaa 1fbe 562e 63be f3b9 09bc 9250 a1bc
00000010: ef51 b8bd 7122 70be e153 c3bd 65ea e8bb
00000020: 30b6 93bf c97f 88be 4939 a7be a957 1fbd
00000030: 4469 9ebf 9683 f2be 1f64 1cbe 0400 0000
00000040: ddb0 19be ddb0 19be ddb0 19be 348a d2bc
00000050: 8709 7abd 8709 7abd 8709 7abd be72 e8bc
00000060: ade2 67bc bfe8 8e3c bfe8 8e3c 9450 583a
00000070: f809 4a3b 1bbe 1a3d 1bbe 1a3d 3888 9c3c
00000080: b221 ee3b 1c30 493d 1c30 493d 0843 f8bb
00000090: 4e92 fcbc 4e01 dd3c 4e01 dd3c ac4e 61bb
000000a0: d3c7 d1bd 506a bdbd 1f3a bfbd 949b e3bc
000000b0: 8436 a0bd 6083 68bd 0eb2 6cbd 226b 99bc
-0.15592262 -0.22185645 -0.00840615 -0.01969174 -0.090000026 -0.23450638 -0.09537483 -0.00710802
-1.1539974 -0.26659992 -0.32660893 -0.03890196 -1.2375875 -0.47366017 -0.15272568 6e-45
-0.15008874 -0.15008874 -0.15008874 -0.025700666 -0.061044242 -0.061044242 -0.061044242 -0.028375026
-0.014153165 0.017444966 0.017444966 0.0008251753 0.0030828696 0.037778955 0.037778955 0.019107923
0.0072672004 0.049118146 0.049118146 -0.00757635 -0.030831482 0.026978161 0.026978161 -0.0034379167
-0.102431916 -0.09248793 -0.093372576 -0.027784146 -0.07822898 -0.056765914 -0.057786994 -0.018727843

exp_avg_sq f4 [1, 6, 2, 4]
00000000: 9247 0a41 e093 4f3f 0f1d 033e 74e6 8f3b
00000010: 8982 0741 d8f1 373f 9e1e c23d fb18 4b3b
00000020: 1d0d ff42 512e 5642 3512 5641 9b75 e73f
00000030: cf30 0143 dca1 4842 6a57 f440 a128 682c
00000040: a689 0c3f a689 0c3f a689 0c3f 8866 893c
00000050: e849 563f e849 563f e849 563f f1b6 aa3c
00000060: acb9 8c3e 3709 3b3e 3709 3b3e b835 f33b
00000070: 5b06 953e dc4c 703e dc4c 703e b0c9 503c
00000080: 3c27 593e 07ea 423e 07ea 423e f30f c23b
00000090: d1dd 683e b304 583e b304 583e 0969 003c
000000a0: 5dcc 9d3e 32a9 7c3e 4e8d 793e 869f 213c
000000b0: 45e2 763e 7f7f 4b3e 8453 473e f3f7 243c
8.642473 0.81085014 0.12804054 0.004391486 8.469369 0.718534 0.09478496 0.0030990231
127.52561 53.54523 13.379445 1.8082765 129.19066 50.158066 7.6356707 3.2991737e-12
0.54897535 0.54897535 0.54897535 0.016772524 0.8370652 0.8370652 0.8370652 0.020839186
0.27485406 0.18265234 0.18265234 0.0074221753 0.2910641 0.2346682 0.2346682 0.012743399
0.21206373 0.19034587 0.19034587 0.0059223115 0.22740866 0.21095543 0.21095543 0.007837542
0.3081998 0.24673918 0.2437031 0.0098646935 0.24109752 0.19872855 0.19465452 0.010068881

exp_avg f4 [1, 6, 3, 4]
00000000: c057 d1bd c8d3 83be c757 03bd 4df0 b4bc
00000010: 13f3 f33d 3493 88be 5404 aabd bdae 97bc
00000020: 2868 073f 8860 03be 2d8b 10be 1fbc 82bc
00000030: cf43 15c0 4961 5abf 5fba 36bf f9fc 9abd
00000040: 2fdd 17c0 d2bc 57bf cded fbbe fabc 04be
00000050: fb17 f3bf cb7f 57bf 8fa7 dfbe ca59 8a3d
00000060: be7c 86be bc7c 86be bc7c 86be aabb 6cbd
00000070: 8a30 6bbe 8e30 6bbe 8d30 6bbe fe47 16bd
00000080: 4c80 5bbd 5280 5bbd 5580 5bbd 7e87 ecbc
00000090: d0f9 c33d c667 003e c467 003e e469 7c3c
000000a0: 2103 de3d 57f1 0d3e 57f1 0d3e 5d08 293b
000000b0: a249 37bd d546 bbbb c646 bbbb 979d 113d
000000c0: 1442 173e 5044 2a3e 5044 2a3e 3ce1 1fbc
000000d0: c1e4 67bb 53bf d73c 6dbf d73c 1f8b 15bd
000000e0: 34d5 463e 100a 673e 0f0a 673e 3911 12ba
000000f0: 4c0c d7bd 4d61 c0bd e7a7 c1bd 15cb e9bc
00000100: 3240 4dbe 9a89 36be ef94 36be 03a2 00bd
00000110: 7458 15be 7de4 10be 338c 11be 0487 603b
-0.10221815 -0.25747514 -0.032066133 -0.02208724 0.11911597 -0.26674807 -0.08301607 -0.018515939
0.52893305 -0.12829792 -0.14115591 -0.015958844 -2.3322637 -0.85304695 -0.7137813 -0.07567782
-2.372875 -0.8427249 -0.49204865 -0.12962714 -1.8991693 -0.8417937 -0.43682525 0.06755407
-0.26267046 -0.2626704 -0.2626704 -0.057796158 -0.22967735 -0.22967741 -0.2296774 -0.03668975
-0.05358915 -0.053589173 -0.053589184 -0.028873201 0.09569132 0.12539586 0.12539583 0.015406106
0.108404405 0.13861595 0.13861595 0.0025792338 -0.044747956 -0.005715231 -0.005715224 0.03555068
0.147713 0.16627622 0.16627622 -0.00975829 -0.003538415 0.026336348 0.026336396 -0.03650963
0.19417268 0.22562432 0.22562431 -0.00055720244 -0.10500392 -0.09393559 -0.09455853 -0.02853922
-0.2004402 -0.17825928 -0.17830251 -0.031404506 -0.14584523 -0.14149661 -0.14213638 0.0034260163

exp_avg_sq f4 [1, 6, 3, 4]
00000000: 09dc d541 f62b 2c40 5a05 ae3e b2f9 193c
00000010: 7eea f741 84ce 6040 cddd d43e d5ad 093c
00000020: 0b41 dd41 e970 4440 59d7 aa3e 24f2 df3b
00000030: 6544 ca43 a030 4243 79a6 5d42 789f f140
00000040: 9247 c143 cf36 e742 65fb 9e41 8862 e33f
00000050: 13ca c343 ff33 0b43 6d35 d041 71cf 2640
00000060: 7358 0b40 7458 0b40 7358 0b40 0e56 793d
00000070: 4ffc 0b40 50fc 0b40 4ffc 0b40 aa4e 6b3d
00000080: 91fa 0440 91fa 0440 92fa 0440 5133 0b3d
00000090: ebf8 dc3e 4c10 853e 4c10 853e 4e04 9b3b
000000a0: 3586 323f 0b01 173f 0b01 173f 0089 0a3d
000000b0: 6e9c ba3e 8cc3 a73e 8dc3 a73e 6223 0d3d
000000c0: 62b2 143f 1e3b 0a3f 1d3b 0a3f 6ecf f43c
000000d0: 4cff 3b3f 0d5d 343f 0e5d 343f f1b9 803c
000000e0: 205f 3b3f 3c00 343f 3b00 343f 787f a83b
000000f0: 7ac3 2e3f ea2b 183f 53ac 173f a377 693c
00000100: d9eb 653f 3113 4d3f 7a0a 4d3f e1c2 d13c
00000110: 9151 1d3f 6295 f63e 15f4 f53e 1262 713c
26.732439 2.6901832 0.33988458 0.009397911 30.989498 3.5126047 0.4157547 0.008403261
27.65676 3.0693915 0.33367422 0.0068342853 404.53433 194.18994 55.41257 7.5507164
386.55914 115.60705 19.872751 1.7764444 391.5787 139.20311 26.026087 2.6064112
2.1772735 2.1772738 2.1772735 0.060873084 2.1872747 2.187275 2.1872747 0.057448067
2.0777934 2.0777934 2.0777936 0.033984486 0.4315866 0.25988996 0.25988996 0.004730738
0.69736034 0.58985966 0.58985966 0.03382206 0.3644747 0.32766378 0.3276638 0.03445757
0.5808469 0.53996456 0.5399645 0.029884066 0.7343643 0.70454484 0.7045449 0.015713664
0.73192024 0.7031286 0.7031285 0.0051421486 0.68267024 0.5944201 0.5924732 0.014249715
0.89813 0.8010741 0.8009411 0.02560562 0.61452585 0.48160845 0.48037782 0.014732854

exp_avg f4 [1, 6, 4, 4]
00000000: c196 2fbe f099 72be 31ab d0bd 1b7f c4bb
00000010: 3e09 80be 6e1a bcbe 03bf 0abe ccf9 4fbc
00000020: 583c 813b 94eb 98bd 1dca 9cbd 9db0 e6bb
00000030: 26d8 c53d d37a cabd 769e dfbc 04c3 24bb
00000040: a713 87bf c9dc 03bf ea74 bebe b3ec feba
00000050: d7a6 aebf 56c3 4fbf 00c4 1cbf 37d8 bdbe
00000060: 2adc bdbf 9c31 4abf a44a 55be d25d a6bb
00000070: 0aaa 9ebf 51ef 34bf 17c7 9bbe f1fa 2b3c
00000080: 232c 03bb 4b2c 03bb 0f2c 03bb 04cd 9cbc
00000090: ac85 b239 e08a b239 468a b239 8b19 93bc
000000a0: 548e 25bd 548e 25bd 588e 25bd 934d eabc
000000b0: d924 d03a f724 d03a 8125 d03a 1ec7 62bd
000000c0: 9d8a 34bb be7c ab3a 847c ab3a c274 deba
000000d0: cef3 0abd ad9e a8bc b19e a8bc 628f 90bc
000000e0: b260 483d 3b00 873d 3b00 873d 3e2f 663c
000000f0: dcb6 1d3b f656 833c f756 833c e418 04bc
00000100: 8b04 09bc 5e50 583c 5650 583c e81f 0abc
00000110: 0ae0 9ebd 81dd 67bd 82dd 67bd 2799 75bc
00000120: 349c 5dbe e97b 48be e97b 48be 1765 50bc
00000130: 8952 43bd 295f 1fbd 265f 1fbd a5ef f33a
00000140: 56bd bbbd 85d6 9cbd 4184 9dbd 45b5 95bc
00000150: 751f 40bd 9e51 00bd 4a61 01bd 2587 05bc
00000160: 28a9 f8bc ccb6 9abc 632b a0bc 4757 54bc
00000170: b371 b1bd da06 afbd ad8b b2bd a7a2 85bc
-0.17147352 -0.23691535 -0.10188902 -0.0059965975 -0.2500705 -0.36738914 -0.13549428 -0.012693834
0.003943961 -0.07466808 -0.076557375 -0.007040097 0.09660368 -0.09886708 -0.02729724 -0.0025140652
-1.0552872 -0.51508766 -0.37198573 -0.0019449204 -1.3644665 -0.81157434 -0.6123657 -0.3707902
-1.4832814 -0.7898195 -0.20829254 -0.005077102 -1.2395642 -0.7067767 -0.3042533 0.010496841
-0.0020015321 -0.0020015414 -0.0020015275 -0.019140728 0.000340504 0.00034054276 0.00034053827 -0.017956516
-0.040418938 -0.040418938 -0.040418953 -0.028601443 0.0015880122 0.0015880157 0.0015880318 -0.055365674
-0.002754844 0.0013083441 0.0013083373 -0.0016972052 -0.033923917 -0.020583475 -0.020583482 -0.017646495
0.04892034 0.06591841 0.06591841 0.014049349 0.0024065292 0.016032677 0.016032679 -0.008062575
-0.0083629 0.013202755 0.013202747 -0.008430459 -0.07757576 -0.056607727 -0.05660773 -0.014990128
-0.21641618 -0.19578518 -0.19578518 -0.012719414 -0.047686134 -0.03890911 -0.0389091 0.0018610848
-0.09166972 -0.07658104 -0.07691241 -0.018274913 -0.046905 -0.031327836 -0.031586923 -0.008149897
-0.030354097 -0.018885992 -0.019551938 -0.012960262 -0.086642645 -0.08546229 -0.08718047 -0.01631291

exp_avg_sq f4 [1, 6, 4, 4]
00000000: c15e 8c40 c9f4 0e3f 4d23 d03d 91a6 8d3b
00000010: 17c8 5440 5044 c03e e2e6 b23d 1ddc 8b3b
00000020: d0fa 5040 a9ea b73e e969 923d 3b72 443b
00000030: 7f1b 3b40 4305 a73e 3bdd 863d 8476 943a
00000040: cc2d 5242 1b41 a641 51d8 6a40 31bc bb3e
00000050: c575 6042 d1d8 d641 9c95 0041 236f a33f
00000060: 35ed 5942 404b ab41 9d2c 4e40 bff1 773e
00000070: 8475 6442 de8e d341 8c5f d440 16e3 4e3f
00000080: 8dcc f23e 8ccc f23e 8ccc f23e e1cb 803c
00000090: b40a 123f b20a 123f b30a 123f 4c74 a83c
000000a0: 0053 153f ff52 153f ff52 153f b11d 903c
000000b0: 24ad 063f 25ad 063f 24ad 063f 2794 ba3c
000000c0: 4528 153e b49f e23d b29f e23d 57f9 303c
000000d0: 8e07 b53d 5979 613d 5979 613d 95fa a43b
000000e0: 7a1c 4e3e 917a 353e 917a 353e fd29 193c
000000f0: 6500 ef3d 9e61 ce3d 9e61 ce3d 6f6a dc3b
00000100: c566 0f3e 73a2 033e 72a2 033e 55b2 cc3b
00000110: af18 113e c0cd 033e c0cd 033e 00e7 f23b
00000120: 3831 f63d 5180 d13d 5080 d13d 4d29 8d3b
00000130: 8e49 f93d 8b0b e43d 8b0b e43d 515b 963b
00000140: 27b0 163e ac92 0c3e ae7d 0b3e 07c1 773b
00000150: be0d 6f3d d665 353d ad5f 343d f379 d13b
00000160: c865 2f3e 91c4 1a3e eb0a 193e 38e7 ad3b
00000170: 6b21 073e dba6 de3d d277 ce3d fc29 3a3b
4.3865666 0.5584226 0.10162983 0.004322835 3.3247125 0.37552118 0.08735444 0.004268183
3.2653084 0.3592122 0.07149107 0.0029975313 2.9235532 0.32621202 0.06585165 0.0011326824
52.544724 20.78179 3.669453 0.36667016 56.11501 26.855867 8.036526 1.2768291
54.481647 21.411743 3.221473 0.24213313 57.11476 26.44476 6.6366634 0.80815256
0.47421685 0.47421682 0.47421682 0.015722217 0.5704758 0.5704757 0.57047576 0.020563267
0.5832977 0.58329767 0.58329767 0.017592283 0.5260794 0.5260795 0.5260794 0.022775723
0.14566143 0.11065617 0.11065616 0.010801635 0.088393316 0.055047367 0.055047367 0.0050347545
0.2012805 0.17722537 0.17722537 0.00934839 0.11669997 0.10077213 0.10077213 0.006726555
0.14004047 0.12854938 0.12854937 0.006246845 0.14169572 0.12871456 0.12871456 0.0074127913
0.120211065 0.102295525 0.10229552 0.004307902 0.121722326 0.11135014 0.11135014 0.0045885225
0.14715634 0.13727826 0.13622162 0.0037804262 0.058362715 0.04428657 0.044036556 0.0063927113
0.1712867 0.15114047 0.14945571 0.0053071044 0.13196342 0.10871669 0.10081448 0.0028406372

exp_avg f4 [76, 130]
00000000: ac7d 103d 90a7 c23c aac9 4f3d f261 1e3c
00000010: a84e 8a3c f658 303d 239d 493b c5ad c93c
00000020: 2280 cf3c 4e11 6a3d 8e8d d23c d7a7 0e3b
00000030: 0352 2d3c 7f5f 723c 93c1 163d 42e6 7f3c
00000040: 8700 fe3c 1795 213d f516 383d 6554 8c3c
00000050: 2ca8 523c cb39 e73c 19a0 d53c 9f07 a53c
00000060: 224d 2bb9 9fe6 c13c 8c56 813c 90a0 e63c
00000070: 7d5b 0e3d d260 9d3b 9548 81ba 50a1 963c
00000080: 2dc8 963c 4dff 843c 3a90 a63b 7546 1bbc
00000090: 7c11 2d3c dcb9 743c 6968 de3b 3f91 c13c
000000a0: 7b0c a53c d3be 233c b045 4dbc 4e87 803c
000000b0: 9058 093d 3e4d a83b ca1a 263c 520a 0cbb
000000c0: 1bb1 963b 6af2 7a3c 5071 fc39 5fb4 24bb
000000d0: 3181 0c3c 952c 223c 9f34 b73b 8bc7 343c
000000e0: 80a2 6e3c 1d48 783b e765 903c 74cb c33b
000000f0: 87ac bb3b 0afd 4b3a f270 333c f473 663c
00000100: 8b2d 203c 22d7 103c fb97 853c c6b8 1c3a
00000110: f284 8e3b 0bd2 a53b 7a23 093b 2b49 793b
00000120: 028a 1a3c a821 ce39 d653 a53b 8e14 7c3a
00000130: 718e d83b e88c ae3b 6f71 7b3b c381 553b
00000140: 0ce5 8e3a 2ec8 013c 2a15 3f3c 5e63 bf3b
00000150: 697a 9d3a 6ec1 4f3c e0cf 323c bd83 683b
00000160: a16b 123c 1351 8a3c 6add 3f3c f936 2bbb
00000170: 3a1f 423b 0b20 46bb 2c57 a13b 3530 fc3b
00000180: 998d ab3b 6de4 1c3c 1321 083c fbb0 ce3b
00000190: d445 3e3c b658 933c 8652 c1b9 1bdc 8e3c
000001a0: eb6b a73c d06f ac3c d7c1 673c abe0 3e3c
000001b0: 9025 f03b 7b93 cc3b 6712 32bb 407b 35bc
000001c0: a538 003c 8e52 883c 1077 723c b2f5 d33c
000001d0: e182 1b3d ef0c a23c dbbc 443c a372 913c
000001e0: 4a14 6f3c 0bf5 8f3c c3e9 ca3b 77a6 213c
000001f0: e482 303c 24a3 c1ba bd41 743a 65f6 0fba
00000200: 3c9d bbb9 0060 02bc 3fa0 29bc 1d2e a4bc
00000210: 3040 3d3a 1b3c 063b fa72 753a f868 b03b
00000220: a235 61b9 cd0b 72bc 457f a2ba 767f 2fbb
00000230: cd5c 13bc 0d18 b63b 6618 393c 5b91 a9bb
00000240: 8399 8abb 84d6 7bbc 19a3 8dbb ac05 54bb
00000250: 5767 953a 28cf 6dbc a393 893b 0892 aebc
00000260: 7840 80bc 8383 07bc 4482 dfbc 81df 1cbc
00000270: 3e82 403b 4aac 3cbc 9e6b 8ebc 9c68 46bc
00000280: c4bc 6c3a f323 52bc 310a 9abc 3ec9 bdbb
00000290: 0b85 da3b 2302 0aba 96bb 9bbb e65a acbb
000002a0: 4f1a 64bc 8a96 d1bb e319 073c 9721 52bc
000002b0: b784 5abc 1652 82bb c20b 61bc 4dba b2bb
000002c0: 67b3 37bc 1cc5 0dbc f152 12bc c425 2abc
000002d0: 446e f3bb 0dbe 5ebc e100 6abb 3b35 c1bb
000002e0: ac67 ae3a 8f9e 30bb 88a5 4d3b 9141 63bb
000002f0: b115 03bc 8013 1bbc b87b 91bb e31a 8abb
00000300: 1a3c b5bb fbf6 efbb 6b6c c7ba 4c92 3fb8
00000310: 4dca 093a 5eda 083a 12df 81bc c186 51bc
00000320: cfc3 29bc 254d 89bc 4d41 4ebc 2d5b 08bc
00000330: e68a 59bc c121 89bb 6103 91bc e926 9ebc
00000340: daf1 ddbb 8fa8 d73a 6fc6 58ba 6534 0dbb
00000350: b57d c6bb 5594 d5bb 120e 20bc d7bc 7cbb
00000360: ac3e d0bb 89f2 e23a 9d8e 1cbc 625b 8ebb
00000370: b7ba 62bb 13f3 acbb 494a 94bb 0686 13bb
00000380: 9fa3 983b fb28 e2bb 40a4 bbbb 2476 25bb
00000390: 6671 a5bb 7659 e2bb 90e7 b13b 8f1e cc3b
000003a0: 6e10 c9bb c5f8 893a d35b 02bb 75c5 a9bc
000003b0: 9d30 11bc 3f51 51bc 1f4c 08bc 009c 39bc
000003c0: d964 5abc 01cc aabb 24dd 2ebc 39ec 55bc
000003d0: a90a a9bb cd7a 69bc a322 46ba 0f0f 8abc
000003e0: c225 cdbb 6b38 e3bb 2b0f a1bc 724f 9abb
000003f0: 1a35 97bc ed2a 8ebc c700 31bc f90b 01bb
0.0352761 0.02376154 0.05072943 0.009666907 0.01688321 0.04305359 0.0030763827 0.024618993
0.025329653 0.05714541 0.025702264 0.002176752 0.010578635 0.014793276 0.0368057 0.015618863
0.03100611 0.039448824 0.04494377 0.017130086 0.012857478 0.0282258 0.026077317 0.020145236
-0.00016336565 0.023669539 0.01578834 0.028152734 0.03475522 0.0048028016 -0.000986355 0.018387467
0.018405998 0.016235018 0.005083111 -0.0094772475 0.010563251 0.01493689 0.006787349 0.023628829
0.020147553 0.0099942265 -0.012528822 0.015689518 0.033531725 0.005136161 0.010138223 -0.0021368456
0.0045987493 0.015316585 0.0004814961 -0.0025131924 0.0085757235 0.0098983245 0.0055909897 0.011033903
0.01456511 0.003788478 0.017626716 0.0059751812 0.005727354 0.0007781541 0.010952221 0.014065731
0.009776483 0.008840354 0.016307821 0.0005978461 0.0043493444 0.0050604395 0.0020925687 0.0038037996
0.009432318 0.00039316458 0.0050453944 0.00096161 0.006608777 0.005326856 0.0038367172 0.0032578565
0.0010902002 0.007921262 0.011662761 0.005840703 0.001201463 0.012680395 0.010913819 0.0035478913
0.008936794 0.016884362 0.011710504 -0.0026125296 0.0029620663 -0.0030231501 0.004923722 0.0076961764
0.0052353856 0.009575945 0.008308667 0.006307719 0.011613328 0.017986637 -0.00036873313 0.017438939
0.020437201 0.02104941 0.014145336 0.011650245 0.0073286965 0.006243167 -0.0027171613 -0.011076748
0.007826005 0.016640928 0.0147988945 0.025873993 0.037966613 0.019781558 0.012007917 0.017754858
0.01459224 0.0175729 0.0061924173 0.0098663485 0.010773394 -0.0014773351 0.0009317657 -0.0005491733
-0.00035784568 -0.0079574585 -0.010353147 -0.02004152 0.00072193425 0.0020482603 0.0009363141 0.005383607
-0.00021477652 -0.014773321 -0.0012397548 -0.0026778853 -0.008994293 0.0055570663 0.011297321 -0.0051747984
-0.004229726 -0.015370969 -0.0043224213 -0.0032352014 0.0011398596 -0.014514722 0.004198508 -0.021309868
-0.015655741 -0.008271101 -0.027283795 -0.009574772 0.0029374505 -0.011515686 -0.0173853 -0.012109902
0.0009030814 -0.012825954 -0.018803688 -0.005791812 0.006668692 -0.00052646006 -0.0047525866 -0.0052598594
-0.013922288 -0.0063961195 0.008245918 -0.012825391 -0.013337306 -0.0039770706 -0.013735713 -0.0054543377
-0.011212206 -0.008652952 -0.008930908 -0.010384981 -0.007428916 -0.013595116 -0.003570609 -0.005896238
0.0013306043 -0.0026949977 0.0031379182 -0.0034676532 -0.008000777 -0.009465098 -0.0044397973 -0.004214631
-0.0055308463 -0.0073231435 -0.0015214806 -4.56742e-05 0.00052562804 0.00052205275 -0.015853439 -0.0127884755
-0.010361626 -0.016760418 -0.012588811 -0.008322519 -0.013277745 -0.004184932 -0.017701807 -0.019305663
-0.0067732157 0.0016453433 -0.0008269315 -0.0021546122 -0.006057466 -0.0065179267 -0.00976898 -0.0038564706
-0.0063551273 0.0017314713 -0.009555486 -0.00434439 -0.0034596154 -0.005278 -0.004525457 -0.0022510304
0.004658177 -0.006901858 -0.0057263672 -0.002524742 -0.0050489185 -0.006907637 0.0054292157 0.006229229
-0.006135992 0.001052641 -0.0019891157 -0.020724038 -0.008861688 -0.012775718 -0.00831893 -0.011328697
-0.013329708 -0.0052123074 -0.010672841 -0.013056808 -0.0051587415 -0.014250469 -0.0007558262 -0.016852884
-0.0062606046 -0.006934216 -0.019660553 -0.0047091777 -0.018457938 -0.017354453 -0.010803408 -0.0019690974
