TrainedModel/Dueling DQN/6000_0-09_DuelingDQN.pth (torch, 291221 bytes, 33 tensors)

conv1.weight f4 [1, 6, 1, 4]
-0.3512734 0.106939696 0.24183582 0.00039907725 0.09939804 0.33005616 0.6375667 0.39524674
0.9719808 0.25719938 0.84369415 -0.3199858 -0.059144888 -0.34658554 -0.026737694 0.45164648
-0.073996186 -0.028970137 0.018369088 0.21122397 -0.34595788 0.36943924 -0.3482899 -0.095500246
00000000: 1bda b3be 3303 db3d cfa3 773e 3e3b d139
00000010: 3391 cb3d 1ffd a83e 9237 233f c85d ca3e
00000020: bcd3 783f a3af 833e 57fc 573f 2ed5 a3be
00000030: e941 72bd a973 b1be 0209 dbbc 353e e73e
00000040: 508b 97bd c852 edbc c57a 963c 194b 583e
00000050: 6421 b1be 2427 bd3e 0e53 b2be a295 c3bd

conv2.weight f4 [1, 6, 2, 4]
0.04577599 0.15712453 -0.28880125 0.21945861 -0.041156787 1.3090613 1.0047098 0.18262824
0.07912754 0.14003274 -0.11374976 0.025387386 -0.009409283 -0.17273796 -0.15990034 -0.5539534
-0.0021192345 -0.24208882 0.045068897 0.23288745 -0.1511022 0.12829496 0.12801489 0.20250033
-0.05651341 -0.21646562 -0.022631263 -0.003516911 -0.12892492 0.028966686 -0.011732688 0.00194108
0.08726506 0.24315992 -0.34304026 -0.3987907 -0.14531927 0.3367918 0.2196292 -0.2763934
-0.09302273 0.1713508 -0.13749719 -0.09748961 0.21897091 0.25422534 0.008783793 -0.30476832
00000000: 9b7f 3b3d 41e5 203e c2dd 93be c2b9 603e
00000010: 0594 28bd 528f a73f 559a 803f e602 3b3e
00000020: 9f0d a23d be64 0f3e a2f5 e8bd 35f9 cf3c
00000030: 6529 1abc 38e2 30be eabc 23be e4cf 0dbf
00000040: dbe2 0abb 22e6 77be 2a9a 383d 0c7a 6e3e
00000050: 89ba 1abe c15f 033e 5616 033e 3f5c 4f3e
00000060: 9b7a 67bd 2aa9 5dbe 3365 b9bc fa7b 66bb
00000070: e504 04be 8b4b ed3c 763a 40bc d66b fe3a
00000080: 06b8 b23d eafe 783e f9a2 afbe 4b2e ccbe
00000090: 93ce 14be fa6f ac3e 7ae6 603e 7083 8dbe
000000a0: b382 bebd 9676 2f3e 10cc 0cbe a2a8 c7bd
000000b0: e939 603e d329 823e e6e9 0f3c 980a 9cbe

conv3.weight f4 [1, 6, 3, 4]
0.049387235 -0.03995351 -0.02821395 0.368671 0.35521734 -0.26841033 -0.17608641 0.36396438
0.46832618 -0.30139866 -0.3800909 0.17818789 -0.024646735 0.12418413 0.2004617 0.0029265014
-0.056947805 -0.14967015 -0.03330935 -0.021653939 -0.112526804 -0.00070511334 -0.078381956 -0.041545194
0.018160576 -0.013964334 0.16041158 0.4428885 -0.037268687 0.07402418 -0.12843104 0.2715863
-0.06890748 -0.1128747 0.21826354 0.12342117 0.16604175 0.10741742 -0.15609777 -0.035897475
0.1822928 0.22535662 -0.14580724 -0.042621776 -0.15399152 -0.036741972 0.030233726 0.3153362
-0.029618006 -0.21216549 0.12773521 0.120359406 0.055266563 0.001069086 -0.034943365 0.2655088
-0.11193034 0.27800792 -0.07649155 -0.068155706 0.07877064 -0.2261138 0.043030947 0.009922022
-0.07630059 -0.13556299 0.33055 -0.14348547 0.021266721 -0.16449504 0.048751157 -0.020759415
00000000: 454a 4a3d 4ba6 23bd f120 e7bc 72c2 bc3e
00000010: 0cdf b53e 146d 89be ff4f 34be 8a59 ba3e
00000020: 73c8 ef3e ed50 9abe 469b c2be e376 363e
00000030: f3e7 c9bc 4054 fe3d d545 4d3e 8cca 3f3b
00000040: 1a42 69bd 2243 19be 636f 08bd 9a63 b1bc
00000050: 7474 e6bd 5bd7 38ba b886 a0bd 4b2b 2abd
00000060: 7dc5 943c a9ca 64bc ef42 243e 48c2 e23e
00000070: 0da7 18bd fd99 973d 6d83 03be 5c0d 8b3e
00000080: 5d1f 8dbd da2a e7bd 7a80 5f3e 3dc4 fc3d
00000090: d906 2a3e aafd db3d 18d8 1fbe 3b09 13bd
000000a0: f7aa 3a3e e3c3 663e 7e4e 15be 2c94 2ebd
000000b0: f4af 1dbe c07e 16bd b8ac f73c bf73 a13e
000000c0: 76a1 f2bc e941 59be 05cd 023e fe7e f63d
000000d0: 315f 623d 9320 8c3a c620 0fbd c5f0 873e
000000e0: bc3b e5bd 0e57 8e3e 9aa7 9cbd 3895 8bbd
000000f0: 8052 a13d 608a 67be 3841 303d fa8f 223c
00000100: 7c43 9cbd 06d1 0abe d93d a93e dbed 12be
00000110: 8c37 ae3c 6371 28be 4baf 473d a60f aabc

conv4.weight f4 [1, 6, 4, 4]
0.1533395 0.22711967 0.47267222 0.19287786 -0.06724213 -0.06255546 0.2474286 0.44235668
-0.2815631 -0.05607673 0.28871894 -0.25049284 0.110201836 -0.061648265 0.26590234 0.11634172
-0.100386 -0.19017428 -0.0064794617 -0.065304674 0.11287105 -0.006214797 0.09743617 -0.09286953
-0.08949527 -0.17151847 -0.20498702 -0.18270124 0.17485142 -0.0132904835 0.08156417 -0.0077739204
0.7536005 0.5465758 0.6858332 -0.37328023 0.28533217 0.4481715 0.36494178 -0.28000224
0.12383728 -0.14126718 0.185549 -0.12717848 0.51311165 0.45666647 0.42522776 -0.1980983
0.097974345 0.08868241 0.068358816 -0.23268226 -0.09241193 -0.002645688 0.07503428 0.0632287
0.19385862 0.1608885 -0.0034412572 -0.113372736 -0.07757828 0.08238182 0.11148628 0.43164992
0.05816853 0.07240773 -0.14210601 -0.17030467 -0.12017586 0.15504505 0.13991596 0.267269
0.17164908 -0.012641571 -0.07334166 -0.16896458 0.099489346 -0.112285666 0.004897854 0.11866119
-0.14766178 0.029158952 0.09694229 -0.22036113 -0.010151894 -0.11462524 0.24678434 -0.11435548
0.17457505 0.03225831 -0.22190349 0.16142881 -0.0010139196 -0.041760124 -0.0231333 0.043966986
00000000: 0805 1d3e 0f92 683e 1802 f23e c681 453e
00000010: 3eb6 89bd 141d 80bd ec5d 7d3e 937c e23e
00000020: 0a29 90be b7b0 65bd f8d2 933e 9940 80be
00000030: 80b1 e13d e482 7cbd 5a24 883e 9144 ee3d
00000040: 2d97 cdbd 0cbd 42be aa51 d4bb 75be 85bd
00000050: f028 e73d 7fa5 cbbb 9d8c c73d 6132 bebd
00000060: 4c49 b7bd 8aa2 2fbe 1ee8 51be 0916 3bbe
00000070: 400c 333e 54c0 59bc 1e0b a73d 5fbc febb
00000080: f6eb 403f 64ec 0b3f c492 2f3f 961e bfbe
00000090: 0f17 923e bc76 e53e a6d9 ba3e 745c 8fbe
000000a0: 669e fd3d 58a8 10be 8f00 3e3e 133b 02be
000000b0: 495b 033f 30d0 e93e 74b7 d93e 48da 4abe
000000c0: c6a6 c83d 209f b53d b5ff 8b3d 4244 6ebe
000000d0: 7742 bdbd 4763 2dbb 93ab 993d 0c7e 813d
000000e0: e082 463e f4bf 243e b786 61bb f72f e8bd
000000f0: 5ce1 9ebd cdb7 a83d eb52 e43d 3801 dd3e
00000100: 2042 6e3d 814a 943d 3d84 11be 5964 2ebe
00000110: c31e f6bd 21c4 1e3e 2146 0f3e 7bd7 883e
00000120: c7c4 2f3e 981e 4fbc 2734 96bd 0d05 2dbe
00000130: 12c1 cb3d 07f6 e5bd 2d7e a03b a304 f33d
00000140: a634 17be c1de ee3c ae89 c63d 59a6 61be
00000150: 2154 26bc a3c0 eabd 09b5 7c3e 3533 eabd
00000160: cdc3 323e 4a21 043d ab3a 63be 984d 253e
00000170: 7fe5 84ba aa0c 2bbd 0c82 bdbc ba16 343d

fc3_adv.weight f4 [76, 130]
0.3329494 0.27792606 0.38264364 -0.015634065 0.21583267 0.3512079 0.19036238 0.27531004
0.33878025 0.24993815 0.30843958 0.07791792 0.15212497 0.24051814 0.05254443 0.22678402
0.16560243 0.2695793 0.22902453 0.020377403 0.42551178 0.32710898 0.2898912 0.34143165
0.23762032 0.24250083 0.04633373 0.12875578 0.24874032 0.09086017 0.31449205 0.17297158
0.17740962 0.1050094 -0.10491159 0.020627586 -0.33141905 -0.22767672 -0.060033925 -0.31871185
-0.184266 -0.18783364 0.07877433 -0.111347936 -0.03974108 0.027719757 -0.2860933 -0.021028168
-0.12643144 -0.2635224 0.047586482 -0.18385033 -0.25177118 -0.117463045 -0.21887757 -0.012416132
-0.31108427 -0.26618463 -0.030852985 -0.29621926 -0.36507568 -0.3112071 -0.37837332 -0.07391211
-0.22057511 -0.4358253 -0.7663684 -0.00044149184 0.31369025 -0.13347824 -0.08571793 -0.23095803
-0.2488329 0.07343521 -0.09043566 0.18222211 0.08870274 -0.26544905 0.20640151 -0.17393586
-0.23989226 0.0031979033 -0.32690382 -0.13579048 -0.068154365 -0.21069391 -0.20824005 0.009709297
0.17419843 0.1378447 -0.20488292 -0.04717365 -0.009279373 -0.15968785 -0.18225896 -0.13553657
-0.2227545 -0.42459133 -0.29587808 -0.55839765 -0.29279348 -0.41586688 -0.10588116 -0.1991183
-0.22405672 -0.3692849 -0.41185176 -0.056493778 -0.015784172 -0.15535916 -0.13283396 -0.18683492
-0.22396594 -0.18670507 -0.11096244 -0.3344093 -0.37911457 -0.3295249 -0.27389732 -0.2861354
-0.14072679 -0.32609013 -0.15729105 -0.29219785 -0.102264784 -0.048677687 -0.20230699 -0.33920997
-0.19147192 -0.33038744 -0.079309195 0.13328163 -0.19376093 -0.030206563 0.12504838 0.03960367
-0.007143444 0.22366324 0.07209194 -0.27799547 -0.070504636 0.27255198 0.06543844 0.038012918
-0.10460889 0.06674912 0.15477222 -0.036872867 0.31602976 0.10135882 0.117982164 -0.01876487
0.007893936 0.16163139 -0.040407468 0.06746687 -0.0357353 0.039748758 0.07071671 -0.06427122
0.09180451 -0.027676784 0.14075357 -0.034221563 0.022151843 0.2788435 -0.01178656 0.18553519
0.038304176 0.15157479 0.019932337 0.19386758 0.03931101 -0.0464065 -0.05917684 -0.25792813
-0.061158333 -0.116821654 0.09573716 0.040256646 -0.0041904617 0.029426116 0.023578236 0.041596115
0.17992947 -0.09090427 0.25237048 0.17335014 0.11237348 -0.07885129 0.040501658 -0.004964005
-0.04042198 0.02838413 0.071146086 0.023054544 -0.29967025 0.43020937 0.07296408 -0.31376258
-0.0021236124 0.034863766 0.096077986 0.03531448 0.004351039 -0.098282196 -0.073032185 -0.26060724
-0.08516826 -0.08932099 -0.04598876 -0.17503463 -0.14077201 -0.26605752 -0.2174784 -0.07290226
0.07049508 -0.29001456 0.040768757 0.087662056 -0.009066365 0.29745728 0.059241638 -0.15305632
-0.13828346 -0.008033636 0.06809062 0.04052302 0.32424325 0.20091599 0.23814061 0.20897418
-0.086103454 -0.064403206 -0.015640922 0.16244204 -0.06534611 0.16321757 0.017508188 -0.028544374
0.162823 0.062241916 -0.012254123 0.23187664 -0.11022753 0.1282296 0.33341974 0.091197684
-0.14904417 0.0832828 0.021621076 0.15361774 0.11492787 0.094845384 0.38749406 0.22993657
00000000: 5878 aa3e 534c 8e3e dee9 c33e 0313 80bc
00000010: 3d03 5d3e 86d1 b33e 5bee 423e 70f5 8c3e
00000020: 9b74 ad3e c9ef 7f3e cbeb 9d3e 6e93 9f3d
00000030: a6c6 1b3e 634a 763e d438 573d 123a 683e
00000040: af93 293e 4c06 8a3e 6885 6a3e 83ee a63c
00000050: aedc d93e d47a a73e 9f6c 943e 21d0 ae3e
00000060: be52 733e 2352 783e 70c8 3d3d 8ed8 033e
00000070: c8b5 7e3e e614 ba3d 1a05 a13e 761f 313e
00000080: deaa 353e 2b0f d73d e3db d6bd 2ffb a83c
00000090: c2af a9be 1624 69be 22e6 75bd 332e a3be
000000a0: 3ab0 3cbe 7657 40be 7054 a13d 630a e4bd
000000b0: 8bc7 22bd 8b14 e33c d27a 92be 4443 acbc
000000c0: 3e77 01be 68ec 86be 0bea 423d 4343 3cbe
000000d0: 27e8 80be 7790 f0bd 7121 60be 086d 4bbc
000000e0: 7046 9fbe 5a49 88be 66bf fcbc 0daa 97be
000000f0: 33eb babe 8956 9fbe 26ba c1be 3b5f 97bd
00000100: 71de 61be 7e24 dfbe b830 44bf 0878 e7b9
00000110: 029c a03e 85ae 08be e28c afbd 4380 6cbe
00000120: 0dce 7ebe 3365 963d 5536 b9bd 6f98 3a3e
00000130: c8a9 b53d f0e8 87be eb5a 533e 3e1c 32be
00000140: 51a6 75be ea93 513b f05f a7be a90c 0bbe
00000150: 8494 8bbd 25c0 57be e13c 55be be13 1f3c
00000160: 1361 323e 2927 0d3e d4cc 51be 2839 41bd
00000170: 8308 18bc 3685 23be 18a2 3abe 19ca 0abe
00000180: c119 64be 0964 d9be 557d 97be 26f3 0ebf
00000190: 07e9 95be 81ec d4be 39d8 d8bd abe5 4bbe
000001a0: 206f 65be e912 bdbe 3cde d2be 0566 67bd
000001b0: cf4d 81bc 7916 1fbe a005 08be a751 3fbe
000001c0: 5457 65be 9d2f 3fbe 4740 e3bd b237 abbe
000001d0: 4e1b c2be 7db7 a8be 453c 8cbe 5780 92be
000001e0: af1a 10be 49f5 a6be e810 21be f59a 95be
000001f0: 3370 d1bd 4162 47bd 9029 4fbe eeac adbe
00000200: 3711 44be 8b28 a9be dc6c a2bd fb7a 083e
00000210: 4469 46be c173 f7bc af0c 003e 7537 223d
00000220: 8d13 eabb fa07 653e f0a4 933d 6c55 8ebe
00000230: bc64 90bd ef8b 8b3e 9704 863d 6fb3 1b3d
00000240: 303d d6bd c3b3 883d 9c7c 1e3e 0108 17bd
00000250: a7ce a13e 3795 cf3d a2a0 f13d c9b8 99bc
00000260: 9155 013c b382 253e 4d82 25bd 122c 8a3d
00000270: 2e5f 12bd 98cf 223d ecd3 903d a1a0 83bd
00000280: 0104 bc3d 6cba e2bc b421 103e e92b 0cbd
00000290: c877 b53c 93c4 8e3e 6a1c 41bc f0fc 3d3e
000002a0: d7e4 1c3d 6c36 1b3e 2449 a33c 3985 463e
000002b0: 9504 213d be14 3ebd 6a63 72bd 280f 84be
000002c0: 2981 7abd 3140 efbd d811 c43d 27e4 243d
000002d0: 2450 89bb 0a0f f13c 2527 c13c b060 2a3d
000002e0: 6e3f 383e 052c babd b436 813e b382 313e
000002f0: 1124 e63d c97c a1bd 11e5 253d 18a9 a2bb
00000300: 8591 25bd d685 e83c 0ab5 913d e2dc bc3c
00000310: 616e 99be 6744 dc3e 316e 953d 7da5 a0be
00000320: 4e2c 0bbb 4fcd 0e3d 89c4 c43d eba5 103d
00000330: 2993 8e3b 2d48 c9bd e691 95bd 506e 85be
00000340: b26c aebd eced b6bd b65e 3cbd 473c 33be
00000350: 8a26 10be b138 88be a8b2 5ebe c84d 95bd
00000360: b95f 903d ca7c 94be 24fd 263d 2a88 b33d
00000370: 178b 14bc 524c 983e 5ca7 723d ccba 1cbe
00000380: 2e9a 0dbe 839f 03bc 1873 8b3d 77fb 253d
00000390: 3603 a63e ecbc 4d3e 22db 733e 54fd 553e
000003a0: 0257 b0bd d4e5 83bd 6421 80bc 3557 263e
000003b0: 2ed4 85bd 8222 273e 556d 8f3c e4d5 e9bc
000003c0: 13bb 263e 61f1 7e3d 84c5 48bc 1271 6d3e
000003d0: f9be e1bd 9f4e 033e feb5 aa3e dac5 ba3d
000003e0: 099f 18be 2c90 aa3d af1e b13c f84d 1d3e
000003f0: 4e5f eb3d 4c3e c23d 9f65 c63e 7e74 6b3e

fc3_adv.bias f4 [76]
0.15696168 0.012235819 -0.13041826 0.23349504 -0.18545131 -0.10055092 0.1745128 -0.04411607
-0.17485885 -0.12646475 -0.024187652 0.11399646 0.13052694 0.09658357 0.1815401 -0.15600689
0.0008693764 -0.06149514 0.10231588 0.27477947 -0.1134723 0.145807 -0.10178395 -0.1781265
-0.16307162 -0.024347397 -0.0017015111 -0.019595746 0.073341444 -0.021055073 0.047737468 0.0413351
0.18620387 -0.0012462739 0.10995353 0.20102133 0.1592563 -0.050678387 0.09521311 -0.20997578
-0.11580457 -0.077379696 -0.009946768 0.025651233 -0.007880899 0.061567165 -0.002282443 -0.011427303
-0.13379358 0.174222 0.16697742 0.13898076 -0.0590103 -0.16669172 0.06791594 0.10490431
-0.14580184 -0.11066448 0.12276764 0.124605745 -0.08170087 -0.18608136 -0.0099263415 0.22645342
-0.042068113 -0.09787831 -0.03530927 0.05509651 0.032267097 0.23858489 -0.044832587 0.004133134
-0.11915433 0.04090894 0.015184207 0.10024689
00000000: 90ba 203e bf78 483c 5d8c 05be 5319 6f3e
00000010: f3e6 3dbe a4ed cdbd 7cb3 323e 0db3 34bd
00000020: 330e 33be fa7f 01be 2f25 c6bc fa76 e93d
00000030: dba8 053e 9bcd c53d a6e5 393e 45c0 1fbe
00000040: dde6 633a 54e2 7bbd fd8a d13d e5af 8c3e
00000050: 2a64 e8bd 6e4e 153e 1b74 d0bd cb66 36be
00000060: 3ffc 26be 3174 c7bc 3d05 dfba 4287 a0bc
00000070: 0a34 963d b07b acbc 5d88 433d fe4e 293d
00000080: 3aac 3e3e 035a a3ba 512f e13d 89d8 4d3e
00000090: 1514 233e 2494 4fbd 17ff c23d e403 57be
000000a0: f22a edbd 3f79 9ebd c5f7 22bc 8922 d23c
000000b0: e31e 01bc da2d 7c3d 0a95 15bb 9539 3bbc
000000c0: 2f01 09be 4167 323e 21fc 2a3e f950 0e3e
000000d0: c9b4 71bd 3cb1 2abe 8317 8b3d 12d8 d63d
000000e0: 144d 15be 0fa4 e2bd 9a6d fb3d 4c31 ff3d
000000f0: c952 a7bd 1d8c 3ebe 18a2 22bc 68e3 673e
00000100: 9d4f 2cbd 6c74 c8bd 74a0 10bd e1ac 613d
00000110: 812a 043d 994f 743e 60a2 37bd 3e6f 873b
00000120: 2f07 f4bd 2290 273d 2ec7 783c 3e4e cd3d

fc3_val.weight f4 [76, 130]
-0.122016124 0.089884795 0.19996183 0.122604616 -0.01721333 -0.1399528 -0.09713011 -0.015724478
0.018577375 0.038237486 -0.005781062 0.227065 0.008674941 0.0808727 -0.08363838 0.18649691
0.19653817 0.04180089 -0.015573686 -0.13420822 0.2179191 0.011122358 0.04340046 -0.10697515
0.013156175 0.038497213 0.13151057 -0.072614565 -0.105856284 0.008121313 -0.13462567 0.06060354
0.024515115 -0.037171558 0.19079356 0.12377075 -0.08084463 0.052359592 -0.01577372 0.09582513
0.03836252 0.08868192 0.14250813 0.056406327 0.027070845 0.25198185 0.1127801 0.1936901
0.11932061 0.077303946 -0.056425985 0.17146328 0.05426636 0.024566123 0.1928448 -0.0016162702
0.14206451 0.1418258 0.041279215 0.2403899 -0.078487374 0.09136523 0.08210016 -0.0389563
0.016761297 0.12754542 0.20818384 0.08935792 0.26861706 0.21318015 0.14871798 0.0127290245
0.07952418 0.14837907 0.30310714 -0.019507244 0.104316354 0.2375314 0.09640391 0.045918103
0.14900964 0.21889706 0.0483752 0.11438114 0.24925348 0.25178236 0.19167134 0.17041561
0.3000278 -0.10579511 0.06652132 0.06434381 0.20534395 -0.0059712077 0.021861516 0.11444692
0.095945716 0.23321182 0.27940336 0.28344262 0.22483829 0.08940113 0.11163867 0.13851038
0.08676144 0.12523942 0.15445766 0.10150554 0.23772006 0.10333597 0.054860417 0.011002484
0.07321441 -0.029363515 0.009419789 0.0129024675 0.14448707 0.03447553 0.13970147 -0.02040028
0.18760864 0.260819 0.0071462574 0.06700438 0.15037817 0.013609982 0.1571761 0.15746902
-0.013444917 0.1401625 0.07495513 -0.093474194 0.008934067 0.089530975 -0.11240391 0.0376316
0.1009633 0.09782853 0.16672231 0.037691236 0.028573612 -0.038952745 0.025930792 0.14869983
0.0027814994 0.14589287 -0.02607921 -0.08654133 0.000507579 -0.0007078301 0.018591782 -0.028915234
0.06298069 -0.07109643 0.18544179 -0.029539375 0.12956418 0.11507544 0.10054914 -0.12636895
-0.054990552 -0.10824484 0.028155575 -0.00815086 0.18625751 0.02371268 0.13314468 0.057649486
0.15767334 -0.010478227 0.021423416 0.075870745 -0.07631534 0.18208326 -0.017007483 0.038664255
-0.038255326 0.26026046 0.10073275 0.083840646 0.0138031915 0.20102803 -0.055918492 0.158161
-0.015906863 0.03583976 0.19093557 0.20347299 0.08145268 -0.01209177 -0.025670996 0.10795323
0.04502782 0.18266842 0.22199567 0.22246204 0.06407161 0.22861208 0.027493304 0.26088712
0.10211255 0.0058070375 0.03467257 0.06556727 0.20972115 0.0050792797 0.2128215 -0.0029394475
0.2052397 0.10309783 -0.03559381 0.13523094 0.31167924 0.014757713 0.25040206 0.32295322
0.05859978 0.1479439 0.1830134 0.23581871 0.1046999 -0.00908465 0.23828888 0.3291793
0.15999553 0.3595378 0.005548732 0.057297707 0.15015802 0.20383768 0.062264226 0.17955625
-0.10084501 0.24640545 0.1415569 0.21662433 0.22370404 -0.09544361 0.11638138 0.2311721
0.21452521 0.13206784 0.056186162 -0.00056506 0.012261946 0.16410166 -0.08208458 -0.0031866538
0.19916111 0.08604286 0.1825422 0.061907787 0.265219 0.011184244 0.06601817 -0.036182266
00000000: 97e3 f9bd 8515 b83d cbc2 4c3e 2118 fb3d
00000010: f802 8dbc c94f 0fbe 27ec c6bd 9fd0 80bc
00000020: 942f 983c e99e 1c3d 106f bdbb ba83 683e
00000030: 5721 0e3c 96a0 a53d 994a abbd 0cf9 3e3e
00000040: 4d41 493e 6937 2b3d c628 7fbc e16d 09be
00000050: 2f26 5f3e 8d3a 363c aec4 313d ca15 dbbd
00000060: ff8c 573c 41af 1d3d b5aa 063e f2b6 94bd
00000070: 2ecb d8bd 410f 053c 50db 09be 6b3b 783d
00000080: ecd3 c83c 3441 18bd 635f 433e 857b fd3d
00000090: df91 a5bd 0377 563d e337 81bc f73f c43d
000000a0: 0522 1d3d de9e b53d a7ed 113e 520a 673d
000000b0: adc3 dd3c c403 813e 41f9 e63d b356 463e
000000c0: 5d5e f43d 8851 9e3d ef1e 67bd 1294 2f3e
000000d0: 6746 5e3d e53e c93c 1b79 453e 07d9 d3ba
000000e0: 5c79 113e c83a 113e 6514 293d c528 763e
000000f0: fdbd a0bd b21d bb3d 2124 a83d a490 1fbd
00000100: fd4e 893c 449b 023e 252e 553e 4901 b73d
00000110: 2d88 893e e64b 5a3e 8749 183e 668d 503c
00000120: 93dd a23d aff0 173e dc30 9b3e a8cd 9fbc
00000130: d0a3 d53d 6e3b 733e 6a6f c53d 9f14 3c3d
00000140: fc95 183e 8d26 603e 1325 463d a940 ea3d
00000150: 4e3c 7f3e 9ee9 803e 7e45 443e 6e81 2e3e
00000160: 3e9d 993e 1bab d8bd 543c 883d b0c6 833d
00000170: af45 523e 1faa c3bb ec16 b33c 2663 ea3d
00000180: 307f c43d 14cf 6e3e f50d 8f3e 641f 913e
00000190: 023c 663e f117 b73d d1a2 e43d aad5 0d3e
000001a0: fbaf b13d c33e 003e 262a 1e3e 23e2 cf3d
000001b0: e36c 733e cfa1 d33d 51b5 603d c343 343c
000001c0: 70f1 953d c18b f0bc 7555 1a3c df64 533c
000001d0: 6bf4 133e 3736 0d3d e70d 0f3e 7d1e a7bc
000001e0: 7b1c 403e 118a 853e 272b ea3b 9839 893d
000001f0: bcfc 193e 67fc 5e3c c6f2 203e 8f3f 213e
00000200: 1248 5cbc c286 0f3e 1382 993d 666f bfbd
00000210: 3160 123c 045c b73d 0534 e6bd 9823 1a3d
00000220: d9c5 ce3d 535a c83d 41b9 2a3e 2062 1a3d
00000230: 3513 ea3c ea8c 1fbd d06c d43c c544 183e
00000240: d149 363b f164 153e 11a4 d5bc 953c b1bd
00000250: 0d0f 053a ad8d 39ba cb4d 983c a4df ecbc
00000260: 05fc 803d 019b 91bd 74e4 3d3e 8ffc f1bc
00000270: 79ac 043e acac eb3d b5ec cd3d dd66 01be
00000280: c63d 61bd 78af ddbd 85a6 e63c 2f8b 05bc
00000290: 4aba 3e3e 1841 c23c 1457 083e de21 6c3d
000002a0: 1f75 213e dfac 2bbc 2980 af3c 1f62 9b3d
000002b0: 384b 9cbd 0974 3a3e 4753 8bbc 695e 1e3d
000002c0: 9eb1 1cbd dc40 853e f94c ce3d a5b4 ab3d
000002d0: c826 623c 4bda 4d3e ca0a 65bd f5f4 213e
000002e0: 1c4f 82bc b6cc 123d 9d84 433e 395b 503e
000002f0: aad0 a63d 8f1c 46bc fb4b d2bc 9516 dd3d
00000300: 176f 383d 6e0d 3b3e d552 633e 17cd 633e
00000310: fa37 833d 4919 6a3e a339 e13c ff92 853e
00000320: 6220 d13d f648 be3b d304 0e3d 2248 863d
00000330: 24c1 563e 1670 a63b e1ed 593e bfa3 40bb
00000340: 5b2a 523e f524 d33d d1ca 11bd fb79 0a3e
00000350: 6c94 9f3e 56ca 713c b334 803e 205a a53e
00000360: 5306 703d 9b7e 173e dd67 3b3e 767a 713e
00000370: e76c d63d c9d7 14bc 0002 743e 308a a83e
00000380: ded5 233e 5715 b83e 23d2 b53b 00b1 6a3d
00000390: 06c3 193e d3ba 503e c608 7f3d 98dd 373e
000003a0: d487 cebd b651 7c3e 4bf4 103e c5d2 5d3e
000003b0: ac12 653e f077 c3bd 5c59 ee3d 61b8 6c3e
000003c0: 7fac 5b3e cb3c 073e 7623 663d 8920 14ba
000003d0: 54e6 483c 440a 283e f61b a8bd 2ed7 50bb
000003e0: e4f0 4b3e 3d37 b03d 58ec 3a3e 0593 7d3d
000003f0: c9ca 873e 1f3e 373c 8934 873d db33 14bd

fc3_val.bias f4 [76]
0.040028796 -0.062775426 0.021823071 0.02982546 -0.020957068 -0.05123156 0.14160584 0.1361919
-0.09041405 0.20997798 0.031693496 -0.038967777 0.0723557 0.028377684 0.015435677 0.025351318
0.15841508 0.035416964 0.15828596 -0.06526162 -0.05594565 0.06686641 -0.016644703 0.09486207
0.022958735 -0.03423639 -0.002164121 -0.092485115 -0.08661581 -0.09225356 -0.054491192 0.014317086
0.09823872 0.26639158 0.16145962 -0.059406836 0.12787601 -0.059936408 0.14142658 -0.026098616
0.345287 0.07606443 0.1774491 0.056475796 0.04775448 0.16004026 0.073997475 0.0013719061
0.11675102 0.027392665 0.19701421 0.11074296 0.04777234 0.056038193 0.3210847 -0.00832328
0.025515817 0.039446235 0.104418404 -0.102994636 0.16925448 -0.021371767 0.0008385849 0.15868852
-0.021242073 0.01387671 0.27120242 0.025921129 -0.03293017 0.012589789 -0.051372543 -0.005715282
0.026383985 0.13921106 0.03634909 0.0031117308
00000000: 3cf5 233d 6790 80bd 4cc6 b23c 8654 f43c
00000010: 28ae abbc 2fd8 51bd 1f01 113e e475 0b3e
00000020: 002b b9bd 7804 573e 0ad1 013d ad9c 1fbd
00000030: 3a2f 943d 5178 e83c ece5 7c3c 91ad cf3c
00000040: 9037 223e 6111 113d b715 223e e2a7 85bd
00000050: 4427 65bd 42f1 883d 795a 88bc 0c47 c23d
00000060: f513 bc3c 753b 0cbd edd3 0dbb d668 bdbd
00000070: a163 b1bd 6fef bcbd 2832 5fbd 3692 6a3c
00000080: 6231 c93d 7a64 883e ac55 253e 9554 73bd
00000090: eef1 023e e17f 75bd 21d2 103e c4cc d5bc
000000a0: 75c9 b03e abc7 9b3d 38b5 353e 2a53 673d
000000b0: 349a 433d 98e1 233e fd8b 973d 88d1 b33a
000000c0: 291b ef3d 9566 e03c 18be 493e 34cd e23d
000000d0: eeac 433d 4e88 653d 3765 a43e 5e5e 08bc
000000e0: 8c06 d13c 6092 213d 51d9 d53d daee d2bd
000000f0: 0c51 2d3e d813 afbc 7bd4 5b3a 3e7f 223e
00000100: db03 aebc 245b 633c 0bdb 8a3e 8c58 d43c
00000110: c9e1 06bd 6745 4e3c 046c 52bd 4347 bbbb
00000120: 3a23 d83c 588d 0e3e c9e2 143d 2eee 4b3b

fc4_adv.weight f4 [38, 76]
-0.038205598 -0.24577558 -0.09293523 -0.0003178418 0.15340023 -0.12960146 -0.23075144 0.20107439
0.08417137 -0.07138528 -0.21542709 0.14192422 0.022327757 0.08398748 -0.47065207 -0.121091366
-0.010808204 0.16363296 0.235563 0.18367338 -0.07432365 -0.049628202 -0.046415664 0.17986467
0.18662709 0.2899808 -0.0235587 0.17322952 -0.1167818 -0.12090547 0.21691383 0.114576794
0.3400644 -0.14312264 0.070169374 0.035268277 0.24100423 0.5910163 -0.2052585 -0.07703167
0.22893822 -0.12955317 0.12423998 -0.004230991 0.15612386 -0.060278703 -0.27257413 -0.04382942
-0.029902373 0.27257088 0.2770953 0.10798784 0.25304365 0.46999398 -0.16951913 0.31406045
0.16227032 -0.14498486 0.14182319 -0.1554521 0.12676312 0.17964612 -0.10073936 -0.17311439
0.007509901 0.16815455 0.29541773 0.26116318 -0.1563123 0.08437489 -0.22088693 0.009887211
0.11280591 0.36758402 -0.03281994 -0.082597345 -0.132303 0.12636982 -0.045187477 -0.06512694
0.26024827 -0.10162296 -0.026171232 0.0009819028 0.099390134 0.22606666 -0.13765036 0.2496172
0.19233485 0.08726761 0.0141865015 -0.05406689 0.022807548 -0.15890507 0.22778323 0.011644023
0.019245803 0.06648537 -0.21046686 0.14915429 -0.093796805 -0.22268388 0.17781812 0.06204569
-0.1781314 -0.070774436 0.028710458 0.22136416 -0.12071826 0.53319305 -0.060075186 0.19474767
-0.069989294 0.043139547 0.11360166 0.1875643 0.07715055 -0.18260945 0.22153455 0.04125829
0.110284664 0.070805915 0.1921659 -0.11069256 -0.017500931 0.24241461 -0.051274378 -0.2260506
0.09560625 0.48201743 -0.09208914 0.022357153 0.22107694 0.024999484 0.22917949 -0.06558938
0.17398953 -0.20902072 -0.010346233 0.10523233 0.05316925 -0.1284871 0.13292968 -0.3307727
0.14230625 0.12054364 0.14862345 0.39773467 0.27896017 0.17475127 0.18660977 0.09194903
-0.097929664 -0.10971543 -0.21516275 -0.25578624 0.03276034 -0.086888075 0.2500659 0.0098346835
0.18278524 -0.16137251 -0.026818871 0.20418732 0.23317243 0.58079576 0.01197734 0.24043906
0.13971466 0.08637796 0.23981552 -0.25705177 -0.09047338 -0.3410178 -0.10854882 0.28385785
-0.13369013 0.13766468 0.3260696 -0.094331145 0.41406903 -0.1269567 0.04471443 -0.23873775
-0.016865231 -0.21062374 -0.19938603 -0.35207427 -0.04412923 0.13177687 -0.12187024 -0.002251074
-0.048822254 -0.025414566 -0.019445203 -0.23524931 -0.15708967 0.30409312 -0.32108742 -0.07756107
0.08719616 0.17471617 0.27287242 -0.2732573 0.55425185 0.40761092 0.058368802 0.15529618
-0.00970664 -0.1326826 0.22093679 0.17170556 0.36552775 -0.037264466 0.1748663 0.09462207
0.011282143 0.059967995 0.070927516 0.08314758 0.3214166 0.42502287 0.30461204 0.11392607
-0.13794991 -0.15983906 0.3468621 0.25960532 0.2481406 -0.10559784 -0.14096405 -0.07009406
0.2883218 -0.10047315 -0.07529011 0.06329713 -0.2774527 0.12957276 -0.22395936 0.018802213
0.45669863 0.1546417 -0.21271561 -0.15231006 0.019747777 -0.018388763 0.224154 -0.024786253
0.23341437 -0.08340373 0.10974645 -0.07681624 -0.21922785 -0.07384907 -0.09190033 -0.35747707
00000000: 797d 1cbd 98ac 7bbe d354 bebd 01a4 a6b9
00000010: f314 1d3e 3fb6 04be 1b4a 6cbe 72e6 4d3e
00000020: 0a62 ac3d 7232 92bd eb98 5cbe 9554 113e
00000030: b3e8 b63c a101 ac3d 4ff9 f0be c0fe f7bd
00000040: e514 31bc 668f 273e 6d37 713e e014 3c3e
00000050: ff36 98bd f146 4bbd 5a1e 3ebd 722e 383e
00000060: 2c1b 3f3e 5d78 943e 2dfe c0bc 1463 313e
00000070: 4c2b efbd 499d f7bd a91e 5e3e 3da7 ea3d
00000080: ec1c ae3e be8e 12be f6b4 8f3d 7875 103d
00000090: d0c9 763e d84c 173f 492f 52be c8c2 9dbd
000000a0: c86e 6a3e 96a9 04be 8871 fe3d 20a4 8abb
000000b0: efde 1f3e cde6 76bd d68e 8bbe 7a86 33bd
000000c0: d2f5 f4bc 698e 8b3e 6fdf 8d3e bb28 dd3d
000000d0: f08e 813e 0da3 f03e 6c96 2dbe 88cc a03e
000000e0: 312a 263e e976 14be 193a 113e d62e 1fbe
000000f0: 31ce 013e 27f5 373e 7050 cebd e644 31be
00000100: 9e15 f63b b530 2c3e fe40 973e 2eb7 853e
00000110: 5510 20be becc ac3d 2f30 62be f8fd 213c
00000120: c906 e73d f933 bc3e 346e 06bd cc28 a9bd
00000130: 707a 07be 1767 013e 8116 39bd 4661 85bd
00000140: 433f 853e b31f d0bd 0d65 d6bc 31b3 803a
00000150: 0e8d cb3d 057e 673e 37f4 0cbe a79b 7f3e
00000160: 6df3 443e 5cb9 b23d 806e 683c 3e75 5dbd
00000170: e5d6 ba3c 03b8 22be 0240 693e 92c6 3e3c
00000180: 60a9 9d3c 7b29 883d a084 57be e7bb 183e
00000190: 8a18 c0bd 3e07 64be f415 363e 9f23 7e3d
000001a0: 1468 36be 30f2 90bd 3232 eb3c 49ad 623e
000001b0: 233b f7bd 577f 083f 6611 76bd ef6b 473e
000001c0: 8c56 8fbd 18b3 303d fda7 e83d db10 403e
000001d0: 1c01 9e3d f9fd 3abe f4d9 623e 74fe 283d
000001e0: eddc e13d b102 913d 23c7 443e c8b2 e2bd
000001f0: 1d5e 8fbc 893b 783e 1505 52bd cf79 67be
00000200: 36cd c33d fdca f63e 3b99 bcbd 5926 b73c
00000210: fe61 623e b8cb cc3c 07ae 6a3e ba53 86bd
00000220: 502a 323e 8709 56be 3f83 29bc 0c84 d73d
00000230: 00c8 593d 1f92 03be b81e 083e 0a5b a9be
00000240: bbb8 113e 95df f63d bf30 183e e1a3 cb3e
00000250: ded3 8e3e fff1 323e a216 3f3e c64f bc3d
00000260: 598f c8bd 7cb2 e0bd a053 5cbe 6af6 82be
00000270: b52f 063d 60f2 b1bd a308 803e a721 213c
00000280: 0e2c 3b3e d63e 25be 40b3 dbbc 7b16 513e
00000290: c1c4 6e3e 08af 143f 9b3c 443c a835 763e
000002a0: 5c11 0f3e eee6 b03d 3392 753e 4a9c 83be
000002b0: 1c4a b9bd e399 aebe d84e debd d155 913e
000002c0: 11e6 08be f8f7 0c3e 98f2 a63e b030 c1bd
000002d0: db00 d43e f000 02be 7a26 373d ab77 74be
000002e0: f428 8abc c0ad 57be da2b 4cbe 1443 b4be
000002f0: dac0 34bd 84f0 063e 1b97 f9bd c186 13bb
00000300: d8f9 47bd 3532 d0bc 8c4b 9fbc 32e5 70be
00000310: 1ddc 20be 18b2 9b3e 9265 a4be 57d8 9ebd
00000320: e693 b23d cce8 323e efb5 8b3e 61e8 8bbe
00000330: 73e3 0d3f 61b2 d03e 2014 6f3d f605 1f3e
00000340: 9908 1fbc f3dd 07be 413d 623e 95d3 2f3e
00000350: 7426 bb3e a0a2 18bd 2710 333e 37c9 c13d
00000360: bdd8 383c 00a1 753d 7242 913d 4749 aa3d
00000370: b790 a43e 999c d93e 1cf6 9b3e 1252 e93d
00000380: be42 0dbe daac 23be e997 b13e fdea 843e
00000390: 9218 7e3e ae43 d8bd e158 10be 798d 8fbd
000003a0: ea9e 933e dec4 cdbd b431 9abd eda1 813d
000003b0: 480e 8ebe b9ae 043e 9a55 65be 1907 9a3c
000003c0: 67d4 e93e 655a 1e3e 1fd2 59be 2bf7 1bbe
000003d0: 17c6 a13c 08a4 96bc a088 653e 8a0c cbbc
000003e0: 2d04 6f3e 93cf aabd bfc2 e03d d551 9dbd
000003f0: 447d 60be 2e3e 97bd 3d36 bcbd 3c07 b7be

fc4_adv.bias f4 [38]
0.011336047 0.097256444 -0.059391737 0.09609579 0.12111552 -0.16264628 -0.043270245 0.13028514
0.013412116 -0.048359815 -0.008663435 0.097747624 -0.035823397 0.08806946 0.06496666 0.06590021
0.06230584 0.07576948 0.022415638 -0.09895408 -0.02579802 0.024345586 0.044058524 0.018832076
-0.019962752 -0.020746524 -0.01582564 0.121097066 -0.08154624 -0.11648002 0.11565622 -0.123028636
-0.044969287 0.030612744 0.22281286 0.08745754 0.234509 -0.043959282
00000000: d4ba 393c 632e c73d c044 73bd dfcd c43d
00000010: 6a0b f83d bf8c 26be 243c 31bd 7869 053e
00000020: 7ebe 5b3c f114 46bd 14f1 0dbc e82f c83d
00000030: 8ebb 12bd c35d b43d 3e0d 853d b0f6 863d
00000040: 6934 7f3d 072d 9b3d 00a1 b73c 70a8 cabd
00000050: 5f56 d3bc 6570 c73c b676 343d ba45 9a3c
00000060: ed88 a3bc 9df4 a9bc c6a4 81bc bd01 f83d
00000070: b701 a7bd 148d eebd 2bdd ec3d 70f6 fbbd
00000080: b731 38bd 94c7 fa3c 0e29 643e f01c b33d
00000090: 2123 703e a60e 34bd

fc4_val.weight f4 [1, 76]
0.35695285 0.22263555 -0.74871945 0.30606058 0.2503198 -0.9484781 -0.6265646 -0.6180137
0.25062913 -1.2747959 0.2545118 0.379793 -0.7365771 -0.34506714 0.24859373 0.20775089
-0.3558055 0.2822479 -0.41112608 0.14527714 0.32333064 -0.28505734 0.12409526 -0.59620047
-1.069241 0.31916708 0.36104083 0.37633198 0.31225595 -0.99984956 0.38690293 0.34166163
-0.2516657 -0.56783724 -1.1198921 -0.86445826 -0.9025844 0.17169951 -0.3241365 0.198554
-0.7553628 0.21203 -0.31984496 -0.99543464 0.111635275 -0.45395598 0.32976514 -1.1728747
-0.6892744 0.27634645 -0.90142447 -0.6875172 0.31382388 -0.99163747 -1.2613498 0.4079664
-0.8126288 -0.6380158 -0.7871199 -0.8773569 -0.87476474 0.21899565 0.21238801 -0.27071047
0.24210247 0.3035974 -0.4544578 -0.86054826 0.12058978 0.28628656 0.33242697 0.13116832
0.24516438 -0.1605524 0.34140724 0.116261035
00000000: 86c2 b63e 93fa 633e 14ac 3fbf f9b3 9c3e
00000010: eb29 803e 76cf 72bf 8a66 20bf 2536 1ebf
00000020: 7652 803e 832c a3bf 5f4f 823e 3a74 c23e
00000030: 5190 3cbf a4ac b0be 5b8f 7e3e a6bc 543e
00000040: 232c b6be cc82 903e 1e7f d2be 88c3 143e
00000050: 988b a53e 09f3 91be a825 fe3d 98a0 18bf
00000060: e4dc 88bf de69 a33e 58da b83e 96ae c03e
00000070: 03e0 9f3e 24f6 7fbf 2418 c63e 46ee ae3e
00000080: 54da 80be c85d 11bf a058 8fbf 234d 5dbf
00000090: c50f 67bf ffd1 2f3e 38f5 a5be bd51 4b3e
000000a0: 755f 41bf 641e 593e b8c2 a3be ced4 7ebf
000000b0: 09a1 e43d eb6c e8be fad6 a83e c220 96bf
000000c0: 4974 30bf 487d 8d3e c1c3 66bf 2101 30bf
000000d0: 86ad a03e f4db 7dbf e973 a1bf f9e0 d03e
000000e0: 7108 50bf 0155 23bf b180 49bf 769a 60bf
000000f0: 95f0 5fbf 6540 603e 3e7c 593e 909a 8abe
00000100: b6e9 773e 1e71 9b3e b1ae e8be e44c 5cbf
00000110: c6f7 f63d 2794 923e de33 aa3e fd50 063e
00000120: 5f0c 7b3e d967 24be eecc ae3e 441a ee3d

exp_avg f4 [1, 6, 1, 4]
0.18963507 -0.094457954 0.021915365 -0.0068297856 -0.05226607 -0.039556656 -0.018902889 -0.019070828
0.1432353 0.1432353 0.1432353 0.02661904 0.03565919 0.016882228 0.016882228 -0.009011986
0.008557396 -0.010018519 -0.010018519 -0.0037498588 -0.05018542 -0.03402572 -0.03402572 0.016113672
00000000: b22f 423e 2c73 c1bd da87 b33c 65cc dfbb
00000010: f214 56bd 2906 22bd 3bda 9abc 6d3a 9cbc
00000020: 46ac 123e 46ac 123e 46ac 123e 2c10 da3c
00000030: 5f0f 123d 994c 8a3c 994c 8a3c 02a7 13bc
00000040: 5234 0c3c b724 24bc b724 24bc 31c0 75bb
00000050: 3a8f 4dbd 8e5e 0bbd 8e5e 0bbd d200 843c

exp_avg_sq f4 [1, 6, 1, 4]
2.8518517 0.35806412 0.06951474 0.0026769682 62.76856 36.252453 10.790866 1.6757746
0.5813104 0.5813104 0.5813104 0.011543295 0.1117045 0.09483737 0.09483737 0.0026551124
0.10789429 0.09977924 0.09977924 0.007851575 0.098506734 0.08697862 0.08697862 0.0025785647
00000000: bd84 3640 2e54 b73e be5d 8e3d 1370 2f3b
00000010: 0113 7b42 8302 1142 63a7 2c41 c87f d63f
00000020: c2d0 143f c2d0 143f c2d0 143f 1720 3d3c
00000030: 54c5 e43d 183a c23d 183a c23d 6501 2e3b
00000040: aef7 dc3d 0f59 cc3d 0f59 cc3d e4a3 003c
00000050: e6bd c93d d921 b23d d921 b23d 23fd 283b

exp_avg f4 [1, 6, 2, 4]
-0.42293152 0.1054998 -0.05216675 0.016284537 -0.15816908 0.21674153 -0.03991037 0.021066984
-0.61041164 0.02036395 -0.0514852 -0.07414575 -0.57102376 0.030824903 -0.13508573 6e-45
0.0012740372 0.0012740372 0.0012740372 -0.00017332361 -0.13406996 -0.13406996 -0.13406996 -0.0055761267
-0.07561715 -0.049680747 -0.049680747 -0.0005969736 -0.13721918 -0.10777294 -0.10777294 0.01007686
-0.062441766 -0.05282265 -0.05282265 0.00274966 -0.003965902 -0.019225305 -0.019225305 0.0057352157
-0.042803697 -0.04834106 -0.04834106 -0.010767514 -0.009605858 -0.011951467 -0.011951467 -0.008463653
00000000: 7b8a d8be 4710 d83d cdac 55bd 2667 853c
00000010: 13f7 21be 7ef1 5d3e 0e79 23bd ab94 ac3c
00000020: f043 1cbf 4cd2 a63c 25e2 52bd bad9 97bd
00000030: 9d2e 12bf 8284 fc3c ea53 0abe 0400 0000
00000040: 98fd a63a 98fd a63a 98fd a63a 34be 35b9
00000050: a349 09be a349 09be a349 09be f1b7 b6bb
00000060: 2add 9abd 0a7e 4bbd 0a7e 4bbd 387e 1cba
00000070: 2f83 0cbe 0fb8 dcbd 0fb8 dcbd 6a19 253c
00000080: f0c2 7fbd 905c 58bd 905c 58bd a433 343b
00000090: 66f4 81bb 637e 9dbc 637e 9dbc 7aee bb3b
000000a0: ee52 2fbd 4601 46bd 4601 46bd 3a6a 30bc
000000b0: e361 1dbc 16d0 43bc 16d0 43bc 22ab 0abc

exp_avg_sq f4 [1, 6, 2, 4]
7.413603 0.7203145 0.09886868 0.0032026335 6.139748 0.49543265 0.07717223 0.004688705
127.00659 56.48012 13.985862 1.9221828 129.74664 53.26741 8.166721 1.424e-42
0.5693077 0.5693077 0.5693077 0.01930785 0.76845443 0.76845443 0.76845443 0.020416116
0.14105153 0.10412285 0.10412285 0.0031185276 0.25036642 0.21533372 0.21533372 0.005589594
0.20142008 0.16888009 0.16888009 0.007853869 0.19745632 0.16559766 0.16559766 0.006165805
0.18193245 0.16537109 0.16537109 0.012911764 0.19956227 0.18109693 0.18109693 0.010531379
00000000: 3c3c ed40 8866 383f aa7b ca3d 46e3 513b
00000010: d178 c440 59a9 fd3e 790c 9e3d b5a3 993b
00000020: 6003 fe42 a5eb 6142 17c6 5f41 160a f63f
00000030: 24bf 0143 d411 5542 e4aa 0241 f803 0000
00000040: 26be 113f 26be 113f 26be 113f 7f2b 9e3c
00000050: 6eb9 443f 6eb9 443f 6eb9 443f b33f a73c
00000060: d06f 103e 5c3e d53d 5c3e d53d 3660 4c3b
00000070: 0730 803e 7180 5c3e 7180 5c3e ea28 b73b
00000080: 1141 4e3e e7ee 2c3e e7ee 2c3e 84ad 003c
00000090: fd31 4a3e 6f92 293e 6f92 293e 850a ca3b
000000a0: 804c 3a3e 0a57 293e 0a57 293e dd8b 533c
000000b0: 0d5a 4c3e 7971 393e 7971 393e ce8b 2c3c

exp_avg f4 [1, 6, 3, 4]
-0.62933224 0.116918504 -0.08082754 0.023677647 -0.34081045 0.33333856 0.08531222 0.023646193
-0.5187066 0.14721888 -0.032670222 0.039089575 -2.328334 -1.242206 -0.3723153 -0.1912955
-2.5114796 -0.8408153 -0.2943272 -0.10107984 -2.7360048 -0.615859 -0.009703137 -0.12813249
-0.33824295 -0.33824295 -0.33824286 -0.0347203 -0.12790385 -0.12790391 -0.12790385 -0.012504669
-0.40242884 -0.40242875 -0.4024288 -0.02192747 -0.07430689 -0.055600017 -0.05560001 0.020759234
-0.1044454 -0.08201927 -0.08201927 0.040686585 -0.27317488 -0.2448443 -0.24484429 0.017204188
-0.09544791 -0.16002779 -0.1600278 -0.0012081147 -0.047899906 -0.12549588 -0.1254959 -0.017548045
-0.094942614 -0.17956334 -0.17956333 0.0015775514 -0.03984488 -0.045410626 -0.045410614 -0.018323828
-0.14199917 -0.14252108 -0.14252108 -0.028696215 -0.07508773 -0.06576583 -0.06576583 -0.02162805
00000000: eb1b 21bf f872 ef3d e988 a5bd a0f7 c13c
00000010: b57e aebe 5aab aa3e 2cb8 ae3d a9b5 c13c
00000020: f5c9 04bf 8cc0 163e 36d1 05bd 641c 203d
00000030: 6d03 15c0 9b00 9fbf 1ca0 bebe f8e2 43be
00000040: 15bc 20c0 ac3f 57bf 0eb2 96be f202 cfbd
00000050: b41a 2fc0 efa8 1dbf e8f9 1ebc 2a35 03be
00000060: 2e2e adbe 2e2e adbe 2b2e adbe e036 0ebd
00000070: 3af9 02be 3ef9 02be 3af9 02be 62e0 4cbc
00000080: 270b cebe 240b cebe 260b cebe 3da1 b3bc
00000090: 362e 98bd d8bc 63bd d6bc 63bd 450f aa3c
000000a0: 78e7 d5bd b8f9 a7bd b8f9 a7bd faa6 263d
000000b0: 94dd 8bbe 77b8 7abe 76b8 7abe ccef 8c3c
000000c0: 327a c3bd 53de 23be 54de 23be 9a59 9eba
000000d0: b132 44bd fe81 00be ff81 00be ebc0 8fbc
000000e0: 4671 c2bd 74df 37be 73df 37be d7c5 ce3a
000000f0: 6334 23bd 7e00 3abd 7b00 3abd da1b 96bc
00000100: 3b68 11be 0cf1 11be 0cf1 11be 5314 ebbc
00000110: 99c7 99bd 3cb0 86bd 3cb0 86bd 4f2d b1bc

exp_avg_sq f4 [1, 6, 3, 4]
24.87429 2.8255002 0.3659983 0.00898202 23.042505 2.8640866 0.40395606 0.0065588094
19.51418 2.5641313 0.30025363 0.0068991263 395.59415 158.504 34.34439 4.646729
396.31836 140.68484 28.205675 3.2343397 399.00317 141.37685 25.058203 3.1173356
2.3300939 2.3300939 2.3300939 0.035196006 1.6020358 1.6020358 1.6020358 0.041020695
2.045325 2.045325 2.045325 0.034363132 0.5793091 0.4674526 0.4674526 0.0081859445
0.5953592 0.52481186 0.52481186 0.010739335 0.42561126 0.3611565 0.36115652 0.011302029
0.48000008 0.4046182 0.40461826 0.03628072 0.6443945 0.54460627 0.5446062 0.016238132
0.6765021 0.6012732 0.60127324 0.01971779 0.41373312 0.38059288 0.3805929 0.012569747
0.5843623 0.55590814 0.5559081 0.019786637 0.6150827 0.5904698 0.5904698 0.026659599
00000000: 8cfe c641 ffd4 3440 2164 bb3e 5329 133c
00000010: 0d57 b841 324d 3740 54d3 ce3e 48eb d63b
00000020: 0a1d 9c41 ba1a 2440 d8ba 993e 1112 e23b
00000030: 0dcc c543 0681 1e43 a860 0942 01b2 9440
00000040: c028 c643 52af 0c43 39a5 e141 6cff 4e40
00000050: 6880 c743 7960 0d43 3377 c841 6d82 4740
00000060: 4220 1540 4220 1540 4220 1540 b029 103d
00000070: 820f cd3f 820f cd3f 820f cd3f 5105 283d
00000080: 9be6 0240 9be6 0240 9be6 0240 5bc0 0c3d
00000090: 9a4d 143f f255 ef3e f255 ef3e 571e 063c
000000a0: 7669 183f 125a 063f 125a 063f 09f4 2f3c
000000b0: b8e9 d93e 81e9 b83e 82e9 b83e 252c 393c
000000c0: 92c2 f53e 1e2a cf3e 202a cf3e 189b 143d
000000d0: 0af7 243f 516b 0b3f 506b 0b3f d505 853c
000000e0: 3e2f 2d3f 0aed 193f 0bed 193f 3487 a13c
000000f0: d4d4 d33e 12dd c23e 13dd c23e 57f1 4d3c
00000100: c598 153f ff4f 0e3f fe4f 0e3f 9617 a23c
00000110: 0f76 1d3f 0729 173f 0729 173f 3b65 da3c

exp_avg f4 [1, 6, 4, 4]
-0.06669311 0.21707736 -0.030780423 0.018655404 -0.0036237368 0.16682443 -0.0010518864 0.0037310754
-0.040249832 0.1532945 -0.008607818 0.023874836 0.13788682 0.23770551 -0.0047492036 0.028969688
0.51524353 0.19258438 0.06559427 0.01629404 0.42282456 0.2287901 -0.12820317 0.006501572
0.22948577 0.024775544 -0.08521116 0.005713797 0.38168618 -0.042637985 -0.05153808 0.11687615
0.04269228 0.0426923 0.042692307 -0.0037006657 0.04283772 0.042837713 0.042837713 -0.007344936
0.056098767 0.05609871 0.056098755 0.0028038647 -0.08870218 -0.08870217 -0.08870217 0.0034167927
0.025829956 0.037703954 0.037703943 0.004034175 -0.04397087 -0.036755174 -0.03675517 0.007965484
-0.049747493 -0.032549072 -0.032549094 0.006720664 -0.098939195 -0.08524748 -0.08524747 -0.0031599712
-0.040264126 -0.050524037 -0.05052403 0.005764349 0.025103278 0.0074018426 0.0074018408 0.010731512
-0.04866072 -0.07711365 -0.07711365 -0.0033688443 -0.05096704 -0.0632822 -0.06328219 0.0011567507
0.07546407 0.06124571 0.061245713 -0.011067295 -0.007974633 -0.01830067 -0.018300664 -0.009359355
0.052574728 0.047243923 0.04724392 -0.012869817 0.0767405 0.06868555 0.06868555 -0.004690363
00000000: 6696 88bd 8749 5e3e 3a27 fcbc 38d3 983c
00000010: 377c 6dbb 06d4 2a3e 73df 89ba 0f85 743b
00000020: 02dd 24bd 3cf9 1c3e ce07 0dbc 2995 c33c
00000030: 3432 0d3e 1369 733e 359f 9bbb d751 ed3c
00000040: 00e7 033f d734 453e 4a56 863d 147b 853c
00000050: 767c d83e f447 6a3e b147 03be 240b d53b
00000060: 51fe 6a3e 15f6 ca3c 3083 aebd ce3a bb3b
00000070: 5f6c c33e 2ba5 2ebd 9819 53bd c35c ef3d
00000080: 1ade 2e3d 1fde 2e3d 21de 2e3d de86 72bb
00000090: 9b76 2f3d 9976 2f3d 9976 2f3d caad f0bb
000000a0: d2c7 653d c3c7 653d cfc7 653d 0bc1 373b
000000b0: 7da9 b5bd 7ca9 b5bd 7ca9 b5bd 45ec 5f3b
000000c0: 5899 d33c 766f 1a3d 736f 1a3d 1d31 843b
000000d0: cd1a 34bd 988c 16bd 978c 16bd a981 023c
000000e0: 07c4 4bbd 2d52 05bd 3352 05bd 0439 dc3b
000000f0: a2a0 cabd 3b96 aebd 3a96 aebd 8517 4fbb
00000100: ffeb 24bd 4bf2 4ebd 49f2 4ebd dde2 bc3b
00000110: 64a5 cd3c 288b f23b 248b f23b 39d3 2f3c
00000120: 7750 47bd c3ed 9dbd c3ed 9dbd d4c7 5cbb
00000130: d1c2 50bd 199a 81bd 189a 81bd 1d9e 973a
00000140: e88c 9a3d c8dc 7a3d c9dc 7a3d 9a53 35bc
00000150: 09a8 02bc 49eb 95bc 46eb 95bc fb57 19bc
00000160: 9958 573d d882 413d d782 413d eddb 52bc
00000170: 202a 9d3d 02ab 8c3d 02ab 8c3d 9eb1 99bb

exp_avg_sq f4 [1, 6, 4, 4]
5.8515615 0.63370514 0.095417656 0.0049990844 4.2067604 0.4174387 0.077790216 0.0052618063
3.783952 0.47377455 0.08898445 0.0036693206 4.1834846 0.41337377 0.08414207 0.0059437207
71.96413 29.056591 6.579247 0.8377878 78.38602 37.02805 9.762901 1.2267079
74.86101 29.816454 4.217605 0.36075595 78.99907 36.966496 9.975165 1.3486528
0.54827416 0.5482741 0.5482741 0.016593589 0.51480764 0.51480746 0.5148075 0.016626017
0.64139473 0.6413947 0.64139473 0.017698076 0.4998423 0.4998423 0.4998423 0.013858862
0.20360257 0.16816385 0.16816387 0.004316564 0.14212218 0.103230484 0.10323049 0.0031477595
0.17122187 0.145882 0.145882 0.004181447 0.1619062 0.1413565 0.14135648 0.004797569
0.14467885 0.123493075 0.12349308 0.0046161846 0.17257684 0.14433546 0.14433546 0.0032809358
0.18068703 0.15211473 0.15211472 0.0046337848 0.11560308 0.10347196 0.10347196 0.01075622
0.12729718 0.11002927 0.11002928 0.0027925877 0.15089606 0.13952807 0.13952807 0.0059622405
0.17347375 0.15472746 0.15472746 0.014763844 0.12066992 0.11469471 0.11469471 0.0025991017
00000000: fe3f bb40 803a 223f 556a c33d 5ccf a33b
00000010: c89d 8640 86ba d53e 7a50 9f3d 3b6b ac3b
00000020: 452c 7240 9492 f23e 7b3d b63d fc78 703b
00000030: 1bdf 8540 baa5 d33e ad52 ac3d 8bc3 c23b
00000040: a2ed 8f42 e673 e841 3189 d240 4379 563f
00000050: a4c5 9c42 b91c 1442 d834 1c41 c404 9d3f
00000060: d6b8 9542 1988 ee41 9ff6 8640 01b5 b83e
00000070: 86ff 9d42 b1dd 1342 479a 1f41 a8a0 ac3f
00000080: b25b 0c3f b15b 0c3f b15b 0c3f 47ef 873c
00000090: 6fca 033f 6cca 033f 6dca 033f 4933 883c
000000a0: 7232 243f 7132 243f 7232 243f 8efb 903c
000000b0: 54eb ff3e 54eb ff3e 54eb ff3e 4810 633c
000000c0: 317d 503e 2533 2c3e 2633 2c3e f771 8d3b
000000d0: 7a88 113e 816a d33d 826a d33d a44a 4e3b
000000e0: c954 2f3e 1762 153e 1762 153e 8504 893b
000000f0: bdca 253e c2bf 103e c1bf 103e ed34 9d3b
00000100: b126 143e f0e9 fc3d f1e9 fc3d 5d43 973b
00000110: fcb7 303e adcc 133e adcc 133e f804 573b
00000120: 0506 393e f7c3 1b3e f6c3 1b3e 01d7 973b
00000130: 4fc1 ec3d 1be9 d33d 1be9 d33d db3a 303c
00000140: 315a 023e 0757 e13d 0857 e13d d903 373b
00000150: 7f84 1a3e 72e0 0e3e 72e0 0e3e e65e c33b
00000160: 1aa3 313e e070 1e3e e070 1e3e 0de4 713c
00000170: cb21 f73d 0fe5 ea3d 0fe5 ea3d b155 2a3b

exp_avg f4 [76, 130]
-0.010243563 0.014980209 -0.021944193 -0.020531507 -0.013553386 -0.0299557 -0.013986734 -0.008309051
-0.031690333 -0.005058278 -0.023885123 -0.019491645 -0.036860306 -0.018354181 -0.002705776 -0.030245792
-0.012433201 -0.014655127 -0.03470335 -0.009133657 -0.013509702 -0.0053036213 0.0039568674 0.018858228
-0.007238625 -0.0042599756 0.011880217 -0.010778069 -0.016613582 -0.020572562 0.005101219 -0.043701578
-0.020111248 0.0008653022 -0.012648111 0.0010474941 0.007153968 0.0015998911 -0.0040874644 0.009192626
-0.008253412 -0.01057204 0.0013567632 -0.006754157 0.002759431 0.0049111187 -0.0063669602 -0.002015901
0.0004665289 -0.009726485 -0.0034643696 -0.0033991125 -0.008947064 -0.0018673914 -0.0044471878 -0.010634294
-0.011207388 -0.014728831 -0.0044441805 -0.025628483 0.0024543272 -0.006684206 -0.0028232716 -0.033002257
0.0036132615 0.0019104593 -0.0033134706 0.0011800268 0.0006900018 0.00080147485 -0.0031864215 -0.0047641317
-0.0007839288 -0.000997233 0.0018198319 -0.0007299997 0.0027761692 0.0030884761 0.002379621 -0.008514932
-0.0025110533 0.0040399157 -0.0076802922 -0.00045023067 -0.0039157905 -0.009971576 -0.0012224563 -0.0055189217
-0.004926319 -0.01122927 -0.0075574405 -0.011784496 -0.009319019 0.0012362141 -0.0020652218 -0.0046674083
-0.00909632 0.004023854 -0.008486602 0.002315362 0.011961432 -0.032339133 -0.010235956 -0.007991413
-0.03342446 0.0060636504 -0.013482106 -0.019719772 -0.0014271239 -0.024831723 -0.0037176225 -0.017510027
-0.014665768 -0.0076474035 -0.009716233 -0.002767153 0.0017312486 0.004008123 0.0018814388 0.018118063
0.0043015196 0.011351124 0.008434001 -0.014731238 -0.0016222855 -0.017817292 0.005201391 -0.018566601
-0.00017845743 -0.008968102 -0.0005661693 0.008162889 -0.009773674 0.002998707 -0.006121338 -0.003919234
-0.0068142656 -0.0076780324 0.0056421207 -0.0067811096 -0.0083027575 -0.0036152136 0.0065542976 0.0039217635
-0.0071238917 -0.008782811 -0.008570497 -0.006658551 -0.0069584628 0.010498921 0.00625588 0.008461011
0.0024866334 0.0075512477 0.0021152245 0.007908003 -0.004596184 -0.00090493914 0.0019065966 0.0016188025
-0.0044025574 -0.001587737 0.00055450003 -0.006474901 0.005402328 0.002984307 0.0037313749 0.0049334504
-0.0038390763 0.009601434 0.009811309 0.007264267 0.0015321037 0.0037186928 -0.0013869731 8.8307446e-05
-0.0040983562 0.010336925 0.002084507 0.0014735621 -0.00013028352 -0.001277455 0.0047010398 -0.003309851
0.0035169926 -0.0017313556 0.0075868005 -0.00040175213 0.0033476881 -0.0031255546 0.011250426 0.005936759
0.0055567254 0.012270327 0.0028739343 0.005341128 0.0005321122 0.0006343794 0.007009175 0.004898522
0.008331817 0.009007656 0.005355574 0.0038759934 0.0010486083 0.00892359 0.010852952 0.0039765327
0.0037870605 0.0058501903 0.008104723 0.007925643 0.004167889 0.0055559813 -0.0021154943 -0.0056341332
-0.0018980845 0.0019871716 0.0025048775 0.0059506986 0.0033649888 0.0037425596 0.003311457 0.0045114956
0.0026792719 0.006341491 0.0090342425 0.0031709743 0.0035160936 0.00919776 0.0021687138 -0.009815615
0.0014732813 -0.0073459507 0.0016690219 -0.0028554027 -0.00060032745 -0.0009865187 -0.010410352 -0.0039619463
-0.0024844883 9.4147596e-05 -0.00438841 -0.005226531 -0.005899031 -0.0034568054 -0.0011475361 0.0028579386
0.004859771 0.0074610733 0.0051150955 0.0053591775 0.004250099 0.0035915275 0.00862654 -0.0057238797
00000000: 9ed4 27bc 8d6f 753c 4fc4 b3bc b131 a8bc
00000010: 050f 5ebc a865 f5bc 9d28 65bc b022 08bc
00000020: b9cd 01bd e9bf a5bb bcaa c3bc f1ac 9fbc
00000030: d5fa 16bd 825b 96bc 6353 31bb 06c6 f7bc
00000040: a0b4 4bbc 0f1c 70bc 1a25 0ebd 56a5 15bc
00000050: cc57 5dbc 00ca adbb 9ca8 813b 927c 9a3c
00000060: fd31 edbb 4497 8bbb 3ea5 423c 7f96 30bc
00000070: 3519 88bc ca87 a8bc 2028 a73b 6d00 33bd
00000080: 58c0 a4bc 73d5 623a 063a 4fbc 124c 893a
00000090: d56b ea3b 70b3 d13a 23f0 85bb ab9c 163c
000000a0: 5239 07bc 5a36 2dbc 6bd5 b13a fa51 ddbb
000000b0: 92d7 343b 73ed a03b efa1 d0bb 351d 04bb
000000c0: 7398 f439 d65b 1fbc 7a0a 63bb a5c3 5ebb
000000d0: b596 12bc 42c3 f4ba b7b9 91bb 763b 2ebc
000000e0: 319f 37bc 3251 71bc 7da0 91bb d3f2 d1bc
000000f0: c7d8 203b 2f07 dbbb a306 39bb 602d 07bd
00000100: 78cc 6c3b 6068 fa3a d026 59bb 21ab 9a3a
00000110: 3de1 343a 111a 523a 48d3 50bb 6f1c 9cbb
00000120: 9280 4dba 96b5 82ba 6d87 ee3a 735d 3fba
00000130: 64f0 353b 0868 4a3b 6af3 1b3b 3782 0bbc
00000140: 7c90 24bb 4561 843b f6aa fbbb f00c ecb9
00000150: 0850 80bb d25f 23bc d43a a0ba 12d8 b4bb
00000160: f56c a1bb f9fa 37bc 68a4 f7bb c213 41bc
00000170: ccae 18bc 7608 a23a ac58 07bb 0ff1 98bb
00000180: bb08 15bc 89da 833b 640b 0bbc 54bd 173b
00000190: e2f9 433c 0a76 04bd b6b4 27bc 6aee 02bc
000001a0: 16e8 08bd 96b1 c63b 0de4 5cbc 5c8b a1bc
000001b0: 550e bbba e66b cbbc 5ba3 73bb 3071 8fbc
000001c0: b048 70bc 1297 fabb d630 1fbc 2059 35bb
000001d0: 10eb e23a 9356 833b 9c9a f63a 556c 943c
000001e0: c3f3 8c3b 11fa 393c c42e 0a3c 4a5b 71bc
000001f0: dea2 d4ba 92f5 91bc 6e70 aa3b fc18 98bc
00000200: 4d20 3bb9 f2ee 12bc fb6a 14ba a3bd 053c
00000210: c321 20bc f485 443b 8195 c8bb eb6c 80bb
00000220: 344a dfbb 0198 fbbb 8ae1 b83b 1234 debb
00000230: 4a08 08bc 38ed 6cbb 6fc5 d63b 2382 803b
00000240: 896f e9bb c8e5 0fbc 456b 0cbc f92f dabb
00000250: d103 e4bb ab03 2c3c 20fe cc3b 0da0 0a3c
00000260: c9f6 223b 7570 f73b 949f 0a3b 9290 013c
00000270: 969b 96bb 7039 6dba c4e6 f93a 002e d43a
00000280: 5443 90bb 9d1b d0ba de5b 113a 682b d4bb
00000290: 0306 b13b 5d94 433b 158a 743b c8a8 a13b
000002a0: 0399 7bbb 554f 1d3c 9dbf 203c 1709 ee3b
000002b0: dfd0 c83a 50b5 733b 18cb b5ba b331 b938
000002c0: 814b 86bb 355c 293c 399c 083b 8a24 c13a
000002d0: b79c 08b9 4770 a7ba 2e0b 9a3b 16ea 58bb
000002e0: 587d 663b a7ee e2ba b29a f83b 42a2 d2b9
000002f0: e364 5b3b 1bd6 4cbb b553 383c 2589 c23b
00000300: 3115 b63b 7b09 493c 9e58 3c3b a104 af3b
00000310: 727d 0b3a 7b4c 263a 39ad e53b c883 a03b
00000320: 2c82 083c d994 133c d07d af3b 6104 7e3b
00000330: 7571 893a 4034 123c 94d0 313c 934d 823b
00000340: 5530 783b f4b2 bf3b acc9 043c 8eda 013c
00000350: c992 883b f30e b63b 1ba4 0abb 899e b8bb
00000360: 26c9 f8ba 353b 023b df28 243b 14fe c23b
00000370: 2587 5c3b bb45 753b 0805 593b 2bd5 933b
00000380: b996 2f3b 48cc cf3b 5c04 143c 1fd0 4f3b
00000390: 436e 663b 34b2 163c fb20 0e3b acd1 20bc
000003a0: 1e1b c13a 4db6 f0bb 15c3 da3a b521 3bbb
000003b0: 4b5f 1dba 134e 81ba 2e90 2abc 37d3 81bb
000003c0: ccd2 22bb 1b71 c538 a7cc 8fbb 5243 abbb
000003d0: a94c c1bb 928b 62bb ec68 96ba 414c 3b3b
000003e0: b73e 9f3b 057c f43b 889c a73b 0a9c af3b
000003f0: 6a44 8b3b d55f 6b3b 5556 0d3c 628f bbbb
