TrainedModel/Dueling DQN/7500_0-155_DuelingDQN.pth (torch, 291221 bytes, 33 tensors)

conv1.weight f4 [1, 6, 1, 4]
0	0xbeaf736a	-0.3426774
1	0x3e323751	0.17403914
2	0x3e37ab91	0.17936541
3	0x3deab905	0.11461071
4	0x3df105fc	0.117687196
5	0x3eb103fe	0.34573358
6	0x3f2a0f62	0.6642972
7	0x3ec6702a	0.3875745
8	0x3f84270c	1.0324416
9	0x3ea2a4d5	0.31766382
10	0x3f6776e9	0.9041582
11	0xbf09c59a	-0.5381714
12	0xbc7c85d3	-0.015412766
13	0xbea2014c	-0.31641614
14	0x3b610f7f	0.0034341512
15	0x3ed811a7	0.42200968
16	0xbd9555bb	-0.072917424
17	0xbd1986f6	-0.037482224
18	0x3c217f15	0.009856959
19	0x3e291cfa	0.1651496
20	0xbe83c08c	-0.2573284
21	0x3ebfd51a	0.3746727
22	0xbeafa518	-0.34305644
23	0xbe1ce418	-0.15321386

conv2.weight f4 [1, 6, 2, 4]
0	0x3d31817b	0.043336373
1	0x3e5d407c	0.2160663
2	0xbea38e54	-0.31944525
3	0x3e384713	0.17995863
4	0xbd24213d	-0.04007076
5	0x3fb1b92e	1.3884637
6	0x3f9e281b	1.2355989
7	0x3d436067	0.04769936
8	0x3d90ecfd	0.07076452
9	0x3e1a0297	0.1504005
10	0xbdd0795e	-0.10179399
11	0x3d04c7e5	0.032417197
12	0xbd2257ba	-0.039634444
13	0xbe23f7d0	-0.16012502
14	0xbe137bff	-0.1440277
15	0xbf034b7f	-0.5128707
16	0x3d6a327b	0.05717705
17	0xbe3b2e0a	-0.18279281
18	0x3dd5be38	0.10436672
19	0x3e8233c4	0.2543012
20	0xbe1ec726	-0.15505657
21	0x3dfea71f	0.124342196
22	0x3dfe1441	0.12406207
23	0x3e957dcc	0.29197538
24	0xbd8be2ed	-0.06830392
25	0xbea4ec0b	-0.32211336
26	0xbe035bc1	-0.1282797
27	0x3d6c218f	0.05764919
28	0x3cf4f878	0.029903635
29	0x3e34649e	0.17616507
30	0x3e0ab79c	0.13546604
31	0xbd0cba63	-0.03435744
32	0x3df0edce	0.11764108
33	0x3e8cd83a	0.27508718
34	0xbe9f4a42	-0.31111342
35	0xbe40b1f8	-0.1881789
36	0xbe54e18b	-0.20789163
37	0x3e898197	0.26856682
38	0x3e1b0a00	0.15140533
39	0xbe2a4d7f	-0.16631125
40	0xbdf49768	-0.11942941
41	0x3e460ca5	0.19340761
42	0xbdec6c10	-0.11544049
43	0x3d079cad	0.033108402
44	0x3e1235be	0.14278314
45	0x3e65c05d	0.22436662
46	0xbcaca69d	-0.021075541
47	0xbe2ed737	-0.17074285

conv3.weight f4 [1, 6, 3, 4]
0	0x3dab5381	0.083655365
1	0xbd1c4355	-0.03815015
2	0xbd935012	-0.071930066
3	0x3ed9205b	0.42407498
4	0x3ec54141	0.38526347
5	0xbea7a471	-0.32742646
6	0xbe91ef1b	-0.28502735
7	0x3e9d1b52	0.30684906
8	0x3f05a992	0.5221187
9	0xbeb5ab92	-0.3548246
10	0xbeb0c39b	-0.34524235
11	0x3e8256fe	0.25456995
12	0xbc485ce3	-0.012229177
13	0x3e099c36	0.13438496
14	0x3e3c33d7	0.1837915
15	0xbb88c3c8	-0.0041737296
16	0xbd6be9b5	-0.057595927
17	0xbe13538e	-0.14387342
18	0xbcb2b3d7	-0.02181427
19	0xbcb0a50e	-0.02156308
20	0xbdd3395f	-0.10313677
21	0x3ab38341	0.0013695733
22	0xbdc7ab0b	-0.09749421
23	0xbd97652b	-0.07392343
24	0x3d3fcd60	0.04682672
25	0x3c70dec5	0.01470155
26	0x3e419d3a	0.18907633
27	0x3f040f98	0.51586294
28	0xbd5c0466	-0.053715132
29	0x3d6bd696	0.057577692
30	0xbe145a41	-0.14487554
31	0x3e11dc0a	0.14244094
32	0xbd92a666	-0.07160644
33	0xbdecb1e3	-0.11557367
34	0x3e5cbd11	0.21556498
35	0x3e4daea7	0.20086156
36	0x3dc70e37	0.09719508
37	0x3d0fc41a	0.035099126
38	0xbe69e634	-0.22841722
39	0xbdc618dc	-0.0967271
40	0x3e28b338	0.16474617
41	0x3e45378e	0.19259474
42	0xbe36dad2	-0.17856911
43	0xbe12e94f	-0.14346813
44	0xbdf208fe	-0.118181214
45	0xbce5298b	-0.02797391
46	0x3d1fc0c0	0.03900218
47	0x3e18893e	0.14896104
48	0x3c65d9dc	0.0140289925
49	0xbe1c21d7	-0.15247284
50	0x3e3fed51	0.18742873
51	0x3d8dafa0	0.069182634
52	0x39fe2b1a	0.00048478768
53	0xbd7c7c8c	-0.061642215
54	0xbdc7ff57	-0.09765499
55	0x3e5825a1	0.21108104
56	0xbe2c9c05	-0.16856392
57	0x3e503968	0.20334399
58	0xbe1ac8c5	-0.1511565
59	0x3d9c7d9a	0.07641144
60	0x3d959f2b	0.073057495
61	0xbe511790	-0.20419145
62	0x3d85064e	0.06495343
63	0x3e3b1778	0.18270671
64	0xbdfafc56	-0.122551605
65	0xbe25c93d	-0.16190048
66	0x3e9bc1ea	0.30421382
67	0xbe007302	-0.12543872
68	0x3cbe756b	0.023249349
69	0xbe139ed8	-0.14416063
70	0x3d8d7db3	0.06908741
71	0x3d867dcf	0.06566965

conv4.weight f4 [1, 6, 4, 4]
0	0x3e0ab24d	0.13544579
1	0x3e7ca40a	0.24671951
2	0x3f253063	0.6452696
3	0x3e7c5da6	0.24645099
4	0xbdbc706b	-0.092011295
5	0xbc46f01d	-0.012142208
6	0x3e0ca5ee	0.13735172
7	0x3f03d7b6	0.51501024
8	0xbe8830d6	-0.2659976
9	0xbd71aa0d	-0.059000064
10	0x3e7e1038	0.24810874
11	0xbeb53706	-0.35393542
12	0x3df7ee5a	0.12106009
13	0xbe1fbdaf	-0.15599702
14	0x3e9dd412	0.3082586
15	0x3d5b83aa	0.05359236
16	0xbe09d7bb	-0.13461201
17	0xbe2656ac	-0.16244
18	0x3b078634	0.0020679357
19	0xbd45eaf3	-0.04831977
20	0x3dd47b44	0.103750736
21	0x3c9c9366	0.019113254
22	0x3da2b8f6	0.07945435
23	0xbddb5ff3	-0.1071166
24	0xbdb8b2e1	-0.090184934
25	0xbe1f26dc	-0.15542167
26	0xbe365380	-0.1780529
27	0xbd96aac4	-0.0735679
28	0x3e2ce16a	0.16882864
29	0xba39fc4f	-0.0007094787
30	0x3dd2b5f5	0.10288612
31	0xbaa48661	-0.0012552255
32	0x3f5268f8	0.8219142
33	0x3f1d6966	0.6148895
34	0x3f410fc4	0.7541468
35	0xbea986d9	-0.33110693
36	0x3ea2bb05	0.3178331
37	0x3ef61ab2	0.48067242
38	0x3ecb7d9b	0.39744267
39	0xbe7efea6	-0.24901828
40	0x3e2587ad	0.16165037
41	0xbdd3df53	-0.1034533
42	0x3e64b903	0.22336201
43	0xbd3b8e85	-0.045790214
44	0x3f109911	0.5648356
45	0x3f02264e	0.508397
46	0x3ef433c8	0.47695756
47	0xbeabb0e8	-0.33533406
48	0x3cbd5de5	0.023116061
49	0x3c5f0228	0.013611354
50	0xbbdbf227	-0.0067122164
51	0xbe0651e7	-0.13117181
52	0xbd94392c	-0.07237467
53	0x3ca79b7e	0.020459887
54	0x3dc8fd7d	0.09813974
55	0x3e8d5997	0.27607414
56	0x3df7b079	0.12094206
57	0x3de23613	0.1104547
58	0xbd5cac35	-0.053875167
59	0xbba6ea86	-0.0050938753
60	0xbdca82d2	-0.09888233
61	0x3d8691af	0.06570756
62	0x3dc22c7e	0.094811425
63	0x3e863e10	0.26219225
64	0x3d0d44f0	0.034489572
65	0x3dd63948	0.10460144
66	0xbde11a0d	-0.10991297
67	0xbe37fa7c	-0.17966646
68	0xbe0deb97	-0.13859402
69	0x3e3397f4	0.17538434
70	0x3e2419f3	0.16025524
71	0x3e8c7477	0.27432606
72	0x3d972d33	0.07381668
73	0xbdb2ae1a	-0.087246135
74	0xbe177f17	-0.14794575
75	0xbe1f1462	-0.15535119
76	0x3dfdc1bc	0.123904675
77	0xbdcdfea2	-0.10058333
78	0x3c87fcd3	0.016600048
79	0x3e5e19c8	0.21689522
80	0xbe2535b7	-0.16133772
81	0x3d3f3d58	0.04668936
82	0x3dea7061	0.11447216
83	0xbd0e424f	-0.034731206
84	0xbd9ba9b7	-0.0760073
85	0xbe193838	-0.14962852
86	0x3e58dd43	0.21178155
87	0x3e87f1aa	0.26551563
88	0x3e5852fe	0.21125409
89	0x3df83749	0.1211992
90	0xbe082790	-0.13296342
91	0x3eb45265	0.35219112
92	0xbd8cc586	-0.06873612
93	0xbd6370db	-0.05552755
94	0xbd172540	-0.03690076
95	0x3e54a211	0.20764948

fc3_adv.weight f4 [76, 130]
0	0x3ebafcab	0.36520895
1	0x3e51931a	0.20466271
2	0x3e949464	0.29019463
3	0xbd4243b0	-0.047427833
4	0x3e9c63bf	0.3054485
5	0x3eceedae	0.4041571
6	0x3e3911a1	0.18073131
7	0x3e8eec30	0.27914572
8	0x3e881414	0.26577818
9	0x3e3d59fb	0.18491356
10	0x3eb2839e	0.3486604
11	0x3df5c713	0.12000861
12	0x3e97edbb	0.2967356
13	0x3e83926f	0.25697657
14	0x3dbe16eb	0.09281715
15	0x3e3a9e97	0.1822456
16	0x3e3756ca	0.17904201
17	0x3eb6a285	0.35670868
18	0x3e86661c	0.26249778
19	0xbc426b1c	-0.011866357
20	0x3eeea909	0.4661334
21	0x3e6d0c9a	0.23149338
22	0x3e7f4624	0.249291
23	0x3eb2e19e	0.34937757
24	0x3e4b8faa	0.19879022
25	0x3e858bbd	0.26083174
26	0x3de9c89e	0.11415218
27	0x3ddbd2cb	0.10733565
28	0x3e88671f	0.26641175
29	0x3e221bf8	0.15830982
30	0x3ec886c0	0.39165306
31	0x3e58c7ea	0.21170011
32	0x3decc004	0.115600616
33	0x3dcb9423	0.09940364
34	0xbdf26b04	-0.11836818
35	0x3da3fdaf	0.08007371
36	0xbecf63ca	-0.4050582
37	0xbea6857a	-0.3252371
38	0xbe1e1e15	-0.15441163
39	0xbcb947fa	-0.022617329
40	0xbdfac1e4	-0.12244013
41	0xbe0ea091	-0.13928439
42	0x3c6f5988	0.014608748
43	0x3c34a571	0.011025772
44	0xbdca4cae	-0.09877907
45	0xbd9e18e0	-0.07719588
46	0xbe5fe0f2	-0.21863154
47	0xbd4e7571	-0.05040497
48	0xbd99f33c	-0.075170964
49	0xbe90e0aa	-0.28296405
50	0x3da8465e	0.082165465
51	0xbe6ea41a	-0.23304787
52	0xbe9751a6	-0.2955448
53	0x3c4141c7	0.011795468
54	0xbe48e4cc	-0.19618529
55	0x3d0cbc94	0.03435953
56	0xbec26ca8	-0.37973523
57	0xbe5fb51f	-0.21846436
58	0xbd5c8e06	-0.05384638
59	0xbed3d1fd	-0.41371146
60	0xbede03c5	-0.4336225
61	0xbe85a7dd	-0.26104632
62	0xbebe65dc	-0.37187088
63	0xbdccfd60	-0.10009265
64	0xbe8e6577	-0.27811787
65	0xbed285a4	-0.41117585
66	0xbf3492b7	-0.7053637
67	0x3d2ca8bf	0.042153116
68	0x3ef93cd8	0.48679233
69	0xbe1e75ec	-0.15474671
70	0xbdac93ce	-0.08426629
71	0xbe3a11a2	-0.18170789
72	0xbe9243e1	-0.28567412
73	0x3d7ddc6a	0.06197778
74	0xbdd72058	-0.10504216
75	0x3db5cdea	0.088771656
76	0xbc3b4a87	-0.011431343
77	0xbe55ba8f	-0.20871948
78	0x3de32e94	0.110928684
79	0xbe14548a	-0.14485374
80	0xbeb0a413	-0.3450018
81	0xbc811ab4	-0.015759803
82	0xbeda065e	-0.42582983
83	0xbe4ccd30	-0.20000148
84	0x3cf9f0c9	0.030510323
85	0xbe791700	-0.2432518
86	0xbec5e54f	-0.3865151
87	0xbd3e9aa4	-0.046534196
88	0x3db497a1	0.088179834
89	0x3ddba19a	0.107241824
90	0xbe63f009	-0.22259535
91	0xbde6edbb	-0.11275812
92	0xbb4c5569	-0.0031178838
93	0xbe6a63ae	-0.22889587
94	0xbe259c04	-0.16172796
95	0xbe38d038	-0.18048179
96	0xbe90c9af	-0.28278872
97	0xbed2d78c	-0.41180074
98	0xbeb3a35f	-0.3508558
99	0xbf0c7992	-0.54873
100	0xbe9e5ba9	-0.30929306
101	0xbe9c8de0	-0.30576992
102	0x3d0350f2	0.032059617
103	0xbe1b2733	-0.15151672
104	0xbe3cddbc	-0.1844396
105	0xbe883e28	-0.2660992
106	0xbeb18cab	-0.34677634
107	0xbd351f6f	-0.04421943
108	0xbd7348d4	-0.059395626
109	0xbdc56f08	-0.09640318
110	0xbc702a20	-0.014658481
111	0xbe53944f	-0.20662044
112	0xbe67b2fe	-0.22626874
113	0xbe846765	-0.25860134
114	0xbe533f93	-0.2062972
115	0xbecb22e2	-0.3967505
116	0xbe958cd1	-0.29208997
117	0xbec0b5ca	-0.37638694
118	0xbe5304c0	-0.2060728
119	0xbe3b7b89	-0.18308844
120	0xbe97f664	-0.2968017
121	0xbe7fac34	-0.24968034
122	0xbe230bc2	-0.15922454
123	0xbeaa770c	-0.3329395
124	0xbd85bf0f	-0.06530582
125	0x3d206847	0.039161947
126	0xbe92d488	-0.28677773
127	0xbe914726	-0.28374594
128	0xbe8b0138	-0.27149367
129	0xbf01a785	-0.5064624
130	0xbe2af5d2	-0.16695336
131	0x3dd2b876	0.102890894
132	0xbdde46fd	-0.10853384
133	0xbdde2b8a	-0.10848148
134	0x3d844152	0.06457771
135	0x3dc3a0e8	0.09552175
136	0xbd962d24	-0.07332829
137	0x3e0f27a0	0.1397996
138	0x3cf30c5c	0.02966898
139	0xbe578ff3	-0.21051006
140	0x3d45ddbc	0.048307166
141	0x3e43b5df	0.19112347
142	0x3d15b47e	0.036549084
143	0x3db49ef5	0.08819381
144	0xbdc95c72	-0.09832086
145	0x3e08965a	0.13338605
146	0x3e3766b0	0.17910266
147	0x3d2f723d	0.042833555
148	0x3e7ef0e8	0.24896586
149	0x3e322228	0.17395842
150	0x3d393321	0.045214776
151	0x3d28bd64	0.041196242
152	0xbc236a76	-0.009974113
153	0x3e3e2cd0	0.18571782
154	0x3c3ff674	0.011716474
155	0x3dae3daf	0.08507859
156	0x3c311750	0.010808781
157	0x3ded2a16	0.11580293
158	0x3e247afd	0.16062541
159	0xbd87c09e	-0.06628536
160	0x3dbcac62	0.09212567
161	0x3d1b5277	0.03792044
162	0x3ccb05b1	0.024782987
163	0x3c93b7b1	0.018031927
164	0x3e0bac90	0.13640046
165	0x3e397632	0.18111494
166	0x3e00125f	0.12507008
167	0x3e23cc03	0.15995793
168	0x3c9c187f	0.01905465
169	0x3d849aa7	0.0647481
170	0x3d1287cb	0.035774034
171	0x3e1a9a40	0.15097904
172	0x3d6acba0	0.0573231
173	0xbdd8d717	-0.105879
174	0xbe214986	-0.15750703
175	0xbe49132e	-0.19636223
176	0xbe364241	-0.17798711
177	0xbe498951	-0.19681288
178	0x3d52fd93	0.05151136
179	0x3c9a6e12	0.018851314
180	0x3cd19105	0.025581846
181	0x3d69114d	0.056901265
182	0xbccb429f	-0.02481204
183	0x3d8b4936	0.06801073
184	0x3d91ed96	0.07125394
185	0xbccf878d	-0.02533319
186	0x3e7d2125	0.24719675
187	0x3e4406cf	0.19143222
188	0x3df236b8	0.11826843
189	0xbd93872f	-0.072035186
190	0x3d02095c	0.031747207
191	0xbd9e71cb	-0.07736548
192	0xbdb0040e	-0.08594523
193	0x3d3a6e6f	0.045515474
194	0xbdc3ca85	-0.09560112
195	0xbd8feb2b	-0.070272766
196	0xbe3c6fad	-0.18401976
197	0x3ee40ead	0.44542447
198	0x3d2507f6	0.040290795
199	0xbe3c152c	-0.18367451
200	0xbdbbac34	-0.091637045
201	0xbdabad28	-0.08382636
202	0x3ddd4aa1	0.1080525
203	0x3d74ab4e	0.05973368
204	0x3cd8afc8	0.026451007
205	0xbdd92064	-0.10601881
206	0xbe08defc	-0.13366312
207	0xbe81f6c3	-0.25383577
208	0xbe3d08c5	-0.18460377
209	0xbd3a7500	-0.045521736
210	0x3d2b9003	0.041885387
211	0xbe14804c	-0.14502066
212	0xbd82d879	-0.06388945
213	0xbe7cd4b9	-0.24690522
214	0xbe38e44b	-0.18055837
215	0xbd38297f	-0.04496145
216	0x3d8feeb6	0.070279524
217	0xbea6cad1	-0.32576612
218	0x3d7a8d5d	0.06116997
219	0xbd4a7623	-0.04942907
220	0xbe60cc0b	-0.21952836
221	0x3deeaa68	0.11653596
222	0xbd26bb4e	-0.04070597
223	0xbe86b311	-0.26308492
224	0xbe04b240	-0.12958622
225	0x3db8f3ed	0.090309
226	0x3dc478d0	0.09593356
227	0xbcd601e0	-0.026123941
228	0x3e7f05e4	0.24904591
229	0x3e07fd2e	0.13280174
230	0x3eb22623	0.3479472
231	0x3e2cbc7a	0.16868773
232	0xbdab22d6	-0.08356254
233	0xbd18e6eb	-0.037329596
234	0xbc7666ca	-0.015039155
235	0x3e25c473	0.1618822
236	0xbcd9756a	-0.026545245
237	0x3e20c382	0.1569958
238	0x3e384bc1	0.17997648
239	0x3bee74da	0.0072771134
240	0x3dc7740a	0.097389296
241	0x3d3683b9	0.044559214
242	0xbd8b6b62	-0.06807591
243	0x3e81701a	0.2528084
244	0xbe363231	-0.17792584
245	0x3e49ee1d	0.1971974
246	0x3e4d51d1	0.20050742
247	0x3d9abdff	0.0755577
248	0xbe15488c	-0.14578456
249	0x3e03fc82	0.12889293
250	0x3d5b0bb1	0.053477947
251	0x3da78ae3	0.081807874
252	0x3e2e9dff	0.17052458
253	0x3dc49c21	0.09600092
254	0x3e883a5a	0.2660702
255	0x3e9522ce	0.29128116

fc3_adv.bias f4 [76]
0	0x3e1d6c27	0.15373288
1	0x3bcf3e7a	0.0063245865
2	0xbe1c0efa	-0.15240088
3	0x3e638411	0.22218348
4	0xbe4e2a40	-0.20133305
5	0xbde8811e	-0.11352752
6	0x3e2f52cb	0.17121427
7	0xbd3c1383	-0.045917045
8	0xbe3a9fa5	-0.18224962
9	0xbe050d46	-0.12993345
10	0xbca57d66	-0.020201396
11	0x3dddb0dc	0.10824749
12	0x3df8869f	0.12135052
13	0x3dbe4810	0.092910886
14	0x3e42e283	0.1903172
15	0xbe258bd7	-0.16166626
16	0xbc88b750	-0.016688973
17	0xbd930e5f	-0.071804754
18	0x3ddfcc29	0.10927612
19	0x3e9313f1	0.28726152
20	0xbdf32b65	-0.11873511
21	0x3dfd010e	0.12353717
22	0xbddfeb15	-0.1093351
23	0xbe3db4c2	-0.18525985
24	0xbe2e63a1	-0.17030193
25	0xbceb95b7	-0.028757913
26	0xbc8b9e64	-0.0170433
27	0xbc8df504	-0.017328747
28	0x3d890e95	0.066922344
29	0xbca7b0eb	-0.020470103
30	0x3d34aa65	0.044107813
31	0x3d40e34d	0.04709177
32	0x3e3e47d9	0.18582095
33	0x3c444e0a	0.011981497
34	0x3dcf2a85	0.10115532
35	0x3e5579b4	0.20847207
36	0x3e2d294c	0.16910285
37	0xbd680edb	-0.056654792
38	0x3ddd659c	0.10810396
39	0xbe572009	-0.21008314
40	0xbde8fdee	-0.11376558
41	0xbdadab0e	-0.08479892
42	0xbc871986	-0.016491663
43	0x3d17c660	0.03705442
44	0xbc166225	-0.009178673
45	0x3d5350b9	0.051590655
46	0xbab08c35	-0.0013469519
47	0xbc3bd6d1	-0.01146479
48	0xbe0aee32	-0.13567427
49	0x3e26a328	0.16273177
50	0x3e16ecf1	0.14738823
51	0x3e186649	0.14882769
52	0xbd953513	-0.07285514
53	0xbe311724	-0.17293984
54	0x3d90d33d	0.070715405
55	0x3de384c7	0.1110931
56	0xbe183051	-0.14862181
57	0xbde5bd41	-0.11217738
58	0x3deb36a1	0.11485029
59	0x3e043d2f	0.12913965
60	0xbdc8cd18	-0.098047435
61	0xbe45a713	-0.19302015
62	0xbc5389fa	-0.012911314
63	0x3e64204a	0.22277942
64	0xbd4ed2a0	-0.050493836
65	0xbdd061ed	-0.10174928
66	0xbd5ef58c	-0.05443339
67	0x3d554a1d	0.052072633
68	0x3d0fe929	0.03513447
69	0x3e75901f	0.23980759
70	0xbd1d51aa	-0.03840796
71	0x3c100896	0.00879111
72	0xbe057cb8	-0.13035858
73	0x3d50c8bb	0.05097268
74	0x3c1a2995	0.009409328
75	0x3dc8154a	0.097696856

fc3_val.weight f4 [76, 130]
0	0xbdec3219	-0.11532993
1	0x3de0902b	0.10964998
2	0x3e649a9b	0.22324602
3	0x3dfbb93a	0.122911885
4	0xbcb88d41	-0.022528293
5	0xbe02fbbc	-0.12791342
6	0xbde59f3a	-0.11212011
7	0x3cb4fc3e	0.022092935
8	0x3cee3e13	0.029082334
9	0x3d89b645	0.06724218
10	0xbc3973f7	-0.011319152
11	0x3e5a5ac2	0.21323684
12	0x3c9713e9	0.018442111
13	0x3dd845aa	0.10560162
14	0xbdd31923	-0.10307529
15	0x3e32086b	0.17386024
16	0x3e58006f	0.21093915
17	0x3d865290	0.06558716
18	0xbc57cf6b	-0.013172011
19	0xbe183ec6	-0.14867696
20	0x3e5fe7e9	0.2186581
21	0x3bbe351c	0.005804671
22	0x3d4a6169	0.049409304
23	0xbdced6b9	-0.10099549
24	0x3ce0c1d7	0.02743618
25	0x3d897ebd	0.067136265
26	0x3e1563d0	0.14588857
27	0xbd8c339d	-0.06845782
28	0xbde64df1	-0.11245335
29	0x3c55fd0e	0.013060821
30	0xbe06bb65	-0.13157423
31	0x3da3691e	0.07979034
32	0x3d633b39	0.0554764
33	0xbcf617aa	-0.03004058
34	0x3e407cc7	0.18797599
35	0x3de40e3b	0.11135527
36	0xbdadab19	-0.084799
37	0x3c9088d8	0.017643377
38	0x3cbc4139	0.02298032
39	0x3d97185a	0.073776916
40	0x3da1a6f2	0.078931704
41	0x3d8bad2e	0.06820141
42	0x3e0301b1	0.12793614
43	0x3d3273cf	0.043567475
44	0xbc401508	-0.011723764
45	0x3e5c3208	0.2150346
46	0x3e0559ef	0.13022588
47	0x3e2e947e	0.17048833
48	0x3dc42cb7	0.09578841
49	0x3dba170c	0.09086427
50	0xbcb3b581	-0.021937134
51	0x3e58ab48	0.21159089
52	0x3db2902e	0.08718906
53	0x3c848770	0.016177863
54	0x3e45a20b	0.19300096
55	0xbbaf9caf	-0.0053592543
56	0x3dfbfc7c	0.12304017
57	0x3e2429ec	0.16031617
58	0x3d5ba05a	0.05361972
59	0x3e6b7666	0.22994384
60	0xbd1fa8a7	-0.0389792
61	0x3d8851fb	0.066562615
62	0x3d9c617e	0.07635783
63	0xbc60e5d4	-0.01372667
64	0x3ca9c6fb	0.020724764
65	0x3e0794cb	0.13240354
66	0x3e2ef9ea	0.17087522
67	0x3da8e88e	0.08247481
68	0x3e630e05	0.22173317
69	0x3e4efc00	0.20213318
70	0x3e0a4347	0.13502227
71	0x3c4e895b	0.01260599
72	0x3d8774f8	0.06614107
73	0x3e2d9d08	0.16954434
74	0x3e9122bd	0.28346816
75	0xbd354442	-0.04425455
76	0x3dd2e67f	0.1029787
77	0x3e677474	0.22603017
78	0x3d9268e3	0.07148912
79	0x3d6c54dc	0.057698116
80	0x3e105127	0.14093457
81	0x3e4bcb20	0.19901705
82	0x3d46ba7e	0.048517697
83	0x3dd97440	0.10617876
84	0x3e6727eb	0.22573821
85	0x3e86ff96	0.26366872
86	0x3e2c527d	0.16828342
87	0x3e2e522c	0.17023534
88	0x3e9c1f2d	0.30492535
89	0xbdbb4e83	-0.09145834
90	0x3dc421c5	0.095767535
91	0x3d92cfd1	0.07168544
92	0x3e529a9d	0.20566793
93	0xbd0cdb7a	-0.034388997
94	0x3cbb5e72	0.022872183
95	0x3e17db9c	0.14829868
96	0x3dfe9f0a	0.12432678
97	0x3e8ba338	0.27272964
98	0x3e7d197f	0.24716757
99	0x3e952207	0.29127523
100	0x3e598402	0.21241763
101	0x3db1fc15	0.08690659
102	0x3dcd555b	0.10026046
103	0x3e2c1ba2	0.16807416
104	0x3d96d347	0.07364517
105	0x3deeb810	0.11656201
106	0x3def5e8d	0.11687956
107	0x3e0ca1bd	0.13733573
108	0x3e67f9fc	0.22653955
109	0x3e04fa5b	0.12986128
110	0x3ce28cc3	0.027655011
111	0x3c8d7b8f	0.017270831
112	0x3d91c278	0.0711717
113	0xbcf522da	-0.029923845
114	0x3c1b1f00	0.00946784
115	0x3ca0f21f	0.019646702
116	0x3e29337a	0.16523543
117	0x3c921073	0.01783011
118	0x3e21e8bf	0.15811442
119	0xbd5833e6	-0.05278387
120	0x3e6b220a	0.22962204
121	0x3e64ddaf	0.2235019
122	0x3c689bc6	0.0141972955
123	0x3d6ec3d2	0.058292218
124	0x3e117ddc	0.14208168
125	0xbbbf8065	-0.0058441632
126	0x3e0daaaf	0.13834642
127	0x3e295f4f	0.16540264
128	0xbc8f8a0d	-0.017521882
129	0x3e18e80a	0.14932266
130	0x3da6f7eb	0.08152755
131	0xbd97374b	-0.07383593
132	0x3d0380fc	0.03210543
133	0x3db7c2f0	0.08972728
134	0xbdf158c8	-0.11784512
135	0x3d4af093	0.049545836
136	0x3dafd035	0.08584634
137	0x3e0ac39c	0.13551182
138	0x3e35523a	0.17707148
139	0x3d885f05	0.066587485
140	0x3cbb949a	0.022898007
141	0xbd58b7b8	-0.052909583
142	0x3d11b69a	0.035574533
143	0x3e3172c7	0.1732894
144	0xbc899390	-0.016793996
145	0x3e084b6e	0.13310024
146	0xbc41c108	-0.011825807
147	0xbd80b2bc	-0.06284091
148	0x3b3676c0	0.0027841777
149	0xbc7a89a8	-0.015291609
150	0x3c9d77ec	0.019222222
151	0xbd0cb2f6	-0.034350358
152	0x3d8d0440	0.06885576
153	0xbd85a9b7	-0.06526511
154	0x3e4c6030	0.19958568
155	0xba828936	-0.0009959105
156	0x3e134585	0.14381988
157	0x3df3e994	0.11909786
158	0x3dc02e55	0.09383837
159	0xbdf8ea43	-0.12154057
160	0xbd554924	-0.052071705
161	0xbdb6a34a	-0.08917864
162	0x3d71bec4	0.05901982
163	0xba999f78	-0.0011720499
164	0x3e3bb1bd	0.1832952
165	0x3c371065	0.011173342
166	0x3e0428a1	0.12906124
167	0x3cba54b8	0.022745475
168	0x3e4903c6	0.19630346
169	0xbd05d4bb	-0.03267358
170	0x3d7d7d48	0.061887056
171	0x3d626d3d	0.05527996
172	0xbdba8630	-0.091076255
173	0x3e2d2f0e	0.16912481
174	0xbd651986	-0.055932544
175	0x3ad04774	0.0015890435
176	0xbcab7c20	-0.02093321
177	0x3e729f09	0.2369348
178	0x3d9dc84a	0.07704218
179	0x3dc71df1	0.09722508
180	0x3d454a3c	0.0481665
181	0x3e76cd52	0.24101761
182	0xbcbdc05d	-0.023163015
183	0x3e1940d1	0.14966132
184	0xbc822310	-0.01588586
185	0x3d02f484	0.03197147
186	0x3e2fefe1	0.1718135
187	0x3e632f4e	0.22186014
188	0x3dbfe90b	0.09370621
189	0xbcb9bb71	-0.022672387
190	0x3c614156	0.013748487
191	0x3daa0c43	0.0830312
192	0x3d207166	0.039170645
193	0x3e54c51a	0.20778313
194	0x3e674279	0.22583951
195	0x3e68abcd	0.22721787
196	0x3cda8d84	0.026678808
197	0x3e62eaf4	0.2215994
198	0xbca03e67	-0.019561006
199	0x3e7fafd8	0.24969423
200	0x3db4bae3	0.08824708
201	0x3bb65e7e	0.0055654636
202	0x3cad5d09	0.021162527
203	0x3db163ab	0.08661588
204	0x3e427f80	0.1899395
205	0xbca294a5	-0.01984627
206	0x3e585f4c	0.21130103
207	0xbc6ea4d3	-0.014565664
208	0x3e3884ef	0.1801946
209	0x3deb0a00	0.11476517
210	0xbd3360b8	-0.04379341
211	0x3debfe62	0.11523129
212	0x3e9f924c	0.31166303
213	0x3bd09bc7	0.0063662264
214	0x3e683606	0.22676858
215	0x3eab5fb8	0.33471465
216	0x3d0f9948	0.03505829
217	0x3e172deb	0.1476361
218	0x3e40493e	0.1877794
219	0x3e800a9e	0.250081
220	0x3e090e93	0.13384466
221	0xbaf7d84f	-0.001890907
222	0x3e743303	0.23847584
223	0x3e99e734	0.30059206
224	0x3e24b4d2	0.16084602
225	0x3ec95325	0.39321247
226	0x3d0a76d3	0.033804726
227	0x3dc6063a	0.096691564
228	0x3df12f51	0.11776603
229	0x3e58a455	0.21156438
230	0x3d4bc7c2	0.04975105
231	0x3e352fbf	0.17693995
232	0xbde601a4	-0.11230782
233	0x3e8d3cba	0.27585393
234	0x3e0364f1	0.12831475
235	0x3e54d348	0.20783722
236	0x3e3e73e0	0.1859889
237	0xbd7499ef	-0.059717115
238	0x3dd73ea6	0.10509996
239	0x3e83e509	0.25760677
240	0x3e3fb048	0.1871959
241	0x3e0d918b	0.13825051
242	0x3d5d4c65	0.054027934
243	0xbaa0eb62	-0.0012277181
244	0x3c478bd1	0.012179331
245	0x3e2ed3f8	0.17073047
246	0xbd7bab1e	-0.061442487
247	0xbca347e3	-0.01993174
248	0x3e5eb04a	0.21746936
249	0x3d5b585e	0.05355107
250	0x3e65d81b	0.22445719
251	0x3cc833d4	0.024438776
252	0x3e8b5d17	0.2721946
253	0x3b1b4495	0.0023692
254	0x3d6c1784	0.057639614
255	0xbd644e97	-0.05573901

fc3_val.bias f4 [76]
0	0x3d36c94f	0.044625577
1	0xbd6ef514	-0.058339193
2	0x3d41d8b5	0.04732581
3	0x3d0cd5c7	0.03438356
4	0xbc86f36f	-0.0164735
5	0xbce7d751	-0.028300913
6	0x3e0e3deb	0.13890807
7	0x3e086a89	0.1332189
8	0xbdaff5ee	-0.08591829
9	0x3e5df745	0.21676357
10	0x3d142df5	0.03617664
11	0xbd0ca8ae	-0.034340553
12	0x3db2d863	0.08732679
13	0x3c3d1e49	0.011542865
14	0x3ca31a5c	0.01991003
15	0x3cf3cea4	0.02976162
16	0x3e1cec9f	0.15324639
17	0x3d23a6f1	0.03995413
18	0x3e2bad25	0.16765268
19	0xbd7a25d7	-0.061071243
20	0xbd525e4d	-0.051359463
21	0x3d7c4f5c	0.06159912
22	0xbc4e0812	-0.012575166
23	0x3dc39033	0.09548988
24	0x3c8a69d2	0.016896162
25	0xbcf30d6a	-0.029669482
26	0x3b207b78	0.0024487656
27	0xbdb3f42e	-0.08786808
28	0xbda81048	-0.082062304
29	0xbdc5e522	-0.09662844
30	0xbd4c3fde	-0.049865596
31	0x3c9adbf2	0.018903706
32	0x3dbe63dc	0.092963904
33	0x3e89db08	0.2692492
34	0x3e2e2e4a	0.17009845
35	0xbd70d9ff	-0.058801647
36	0x3e016904	0.12637717
37	0xbd63ddaa	-0.055631317
38	0x3e0b82ac	0.13624066
39	0xbcb1fd99	-0.02172737
40	0x3eb286bd	0.34868422
41	0x3da4cb44	0.08046582
42	0x3e3065e4	0.17226368
43	0x3d93d911	0.072191365
44	0x3d53d8b8	0.05172035
45	0x3e21dda2	0.15807202
46	0x3da0ef9d	0.078582026
47	0x3c2f2a0d	0.010691178
48	0x3de40901	0.1113453
49	0x3d02b4b6	0.03191062
50	0x3e515687	0.20443164
51	0x3dd0809f	0.101807825
52	0x3d5667c2	0.052345045
53	0x3d979c2a	0.07402833
54	0x3ea9441e	0.33059782
55	0xbb71af4d	-0.003687817
56	0x3cb18119	0.021668004
57	0x3d36b8db	0.044609886
58	0x3df5c569	0.120005436
59	0xbddececc	-0.10879287
60	0x3e31a128	0.17346632
61	0xbc8ac47d	-0.016939396
62	0x3babc19b	0.0052415854
63	0x3e1d29f7	0.1534804
64	0xbc8964d5	-0.016771713
65	0x3c9720b1	0.018448206
66	0x3e87c3f2	0.26516682
67	0x3d28a9cf	0.041177567
68	0xbcec8ae3	-0.02887482
69	0x3c8c4328	0.017121866
70	0xbd3fadf7	-0.046796765
71	0xbad1ab93	-0.0015996568
72	0x3cfcd008	0.030860916
73	0x3e08f02d	0.1337287
74	0x3d27b06f	0.040939745
75	0x3be83052	0.0070858384

fc4_adv.weight f4 [38, 76]
0	0xbe1ad8b3	-0.15121727
1	0xbe7d1882	-0.2471638
2	0xbe09c77b	-0.13455002
3	0x3d47832c	0.04870908
4	0x3e1bc611	0.15212275
5	0xbdbaccea	-0.091211155
6	0xbe632a41	-0.22184087
7	0x3e68cd4e	0.22734568
8	0x3e1136ea	0.14181104
9	0xbe193a1d	-0.14963575
10	0xbe1e3048	-0.15448105
11	0x3dfd1a0b	0.12358483
12	0x3dca3bd7	0.09874695
13	0xbb883031	-0.0041561355
14	0xbea117d0	-0.3146348
15	0xbe0072f2	-0.12543848
16	0x3e0f026f	0.13965772
17	0x3e0a719b	0.135199
18	0x3e648967	0.2231804
19	0x3e1f735b	0.15571348
20	0xbd0e1661	-0.03468931
21	0xbe243974	-0.16037542
22	0xbd34b8b6	-0.044121467
23	0x3e73f461	0.23823692
24	0x3eaac378	0.33352256
25	0x3ec40214	0.38282835
26	0xbda339f2	-0.079700366
27	0x3e670f3b	0.22564404
28	0xbd96dc1d	-0.07366202
29	0xbdef65b7	-0.116893224
30	0x3e8429c9	0.2581313
31	0x3d86ac5b	0.06575843
32	0x3ef615a8	0.48063397
33	0xbe6c0469	-0.23048557
34	0x3d92c68f	0.07166778
35	0x3c85e9cb	0.016346833
36	0x3e3549c5	0.17703922
37	0x3f01dc81	0.5072709
38	0xbe3899c1	-0.18027402
39	0xbe67ead5	-0.22648175
40	0x3e6a5acc	0.22886199
41	0xbe06730b	-0.13129823
42	0x3e047ab7	0.12937437
43	0xbd467dee	-0.04845994
44	0x3ebcb1e8	0.36854482
45	0xbda230d4	-0.079194695
46	0xbe157d4d	-0.1459858
47	0xbca666de	-0.020312723
48	0xbca5c7fa	-0.020236958
49	0x3e93b9b8	0.2885263
50	0x3e5eabc7	0.21745215
51	0x3da4aa6f	0.0804032
52	0x3eadbd2e	0.33933395
53	0x3f502c24	0.81317353
54	0xbd4d3f97	-0.050109472
55	0x3f0a2acd	0.5397156
56	0x3e12ee9c	0.14348835
57	0xbe84916b	-0.25892195
58	0x3e380f57	0.17974602
59	0xbe279455	-0.16365178
60	0x3e23a438	0.15980613
61	0x3e3f897d	0.18704791
62	0xbdb7bb78	-0.08971304
63	0xbe704bdf	-0.23466443
64	0xbcb2f0ae	-0.02184328
65	0x3de0067f	0.10938739
66	0x3e8e7da0	0.2783022
67	0x3e7491f0	0.23883796
68	0xbdd1685f	-0.10224985
69	0x3d312307	0.043246295
70	0xbe6f12e8	-0.23347056
71	0xbe067004	-0.13128668
72	0x3d8c51d8	0.06851548
73	0x3ed9a9ae	0.42512268
74	0xbd93b6e3	-0.07212617
75	0x3b5698ea	0.0032744952
76	0xbe062d47	-0.1310321
77	0x3d43606d	0.04769938
78	0xbd94fe08	-0.07275015
79	0xbc6ae787	-0.014337427
80	0x3e622cf3	0.2208746
81	0xbe0720e4	-0.1319614
82	0xbdc8b5bb	-0.09800287
83	0x3c8046ce	0.015658762
84	0x3d34307b	0.043991547
85	0x3e74191b	0.23837702
86	0xbd5cfdf3	-0.053953122
87	0x3e9b1703	0.30290994
88	0x3e1737c9	0.14767374
89	0x3e5edc18	0.21763647
90	0x3cd4ce59	0.0259773
91	0xbdada633	-0.084789656
92	0x3dbc035f	0.091803305
93	0xbe278d50	-0.163625
94	0x3ea3ce76	0.31993455
95	0x3d8a670c	0.06757936
96	0x3ca1601b	0.019699147
97	0x3e0b37c3	0.1359549
98	0xbe143af1	-0.1447561
99	0x3e36b67c	0.1784305
100	0x3d1373b6	0.035999022
101	0xbe8145e5	-0.25248638
102	0x3e0931dd	0.13397928
103	0xbb975df7	-0.004619356
104	0xbe22574a	-0.1585361
105	0xbcdc72d0	-0.026910216
106	0x3c19e6b8	0.009393387
107	0x3d682c5d	0.056682933
108	0xbd1c05fe	-0.038091652
109	0x3f222742	0.6334115
110	0xbc193848	-0.009351797
111	0x3e487489	0.19575705
112	0xbd7a7539	-0.06114695
113	0xbd81b25d	-0.06332848
114	0x3b81b79d	0.003958656
115	0xbd10472e	-0.035224132
116	0x3e9a2117	0.3010337
117	0xbe49ec76	-0.19719109
118	0x3e506dfb	0.20354454
119	0x3e7f87d9	0.24954166
120	0x3e66f213	0.22553281
121	0x3e327a2f	0.17429422
122	0x3dd72251	0.10504592
123	0xbd94a88c	-0.0725871
124	0xbc908605	-0.01764203
125	0x3e90555f	0.28190133
126	0xbdbb6602	-0.09150316
127	0xbe2adc25	-0.16685541
128	0x3de4c4ed	0.11170373
129	0x3f063527	0.52424854
130	0x3d011267	0.03151169
131	0x3e51a17e	0.2047176
132	0x3e59df67	0.21276627
133	0x3e1255c3	0.14290528
134	0x3ebc62ac	0.3679403
135	0xbd8ad79c	-0.067794055
136	0x3e475f1e	0.19469878
137	0xbe54fba8	-0.20799124
138	0xbd383e3d	-0.04498123
139	0x3d49df55	0.04928525
140	0x3d81b890	0.06334031
141	0xbe05988c	-0.13046473
142	0x3d96468f	0.07337677
143	0xbe3db7a8	-0.1852709
144	0x3e97e261	0.296649
145	0x3df6c052	0.12048401
146	0x3e40dc94	0.18834144
147	0x3e074d6b	0.13213126
148	0x3ea2f0ca	0.31824332
149	0x3e1e329e	0.15448996
150	0x3e90e801	0.28302005
151	0x3dd8604b	0.105652414
152	0x3d102570	0.035191953
153	0xbdf47ce9	-0.11937887
154	0xbe5cf35b	-0.21577208
155	0xbe23d774	-0.16000158
156	0x3cb1fdd9	0.02172749
157	0xbe6e2a02	-0.23258212
158	0x3e6d2ead	0.23162337
159	0xbc49adc0	-0.012309492
160	0x3e09fc8f	0.1347525
161	0xbdd747ea	-0.105117634
162	0xbce779fb	-0.028256407
163	0x3e25d55f	0.16194676
164	0x3ece4cb8	0.40292907
165	0x3ef835a9	0.4847844
166	0x3e84c4ed	0.25931492
167	0x3e841d68	0.25803685
168	0x3db66939	0.089067884
169	0x3da5436d	0.08069501
170	0x3e91f86e	0.2850985
171	0xbe9960a2	-0.29956537
172	0xbd852176	-0.06500523
173	0xbec17799	-0.37786558
174	0xbdc02793	-0.09382548
175	0x3e985349	0.29751042
176	0xbe175ecf	-0.1478226
177	0x3e1b32df	0.15156125
178	0x3ed19872	0.4093662
179	0xbd84d858	-0.06486577
180	0x3edf1bb0	0.4357581
181	0xbe3bb556	-0.18330893
182	0x3db6aa43	0.089191936
183	0xbeec888e	-0.46197933
184	0xbda0d1a8	-0.07852489
185	0xbe3b65bb	-0.18300526
186	0xbe4a6544	-0.19765192
187	0xbea883a6	-0.3291294
188	0xbd2240ef	-0.039612707
189	0x3ec17177	0.3778188
190	0xbdf0975e	-0.11747621
191	0xbe4e7d15	-0.20164903
192	0xbd3d4420	-0.046207547
193	0x3c632169	0.013862946
194	0xbcc8821b	-0.024476102
195	0xbe76695d	-0.2406363
196	0xbd7bcb0c	-0.061472937
197	0x3ea39f2c	0.31957376
198	0xbea1b5dd	-0.31584063
199	0xbdfcb4a0	-0.12339139
200	0x3d7871d7	0.06065544
201	0x3e7deae6	0.24796638
202	0x3e86b905	0.26313034
203	0xbe863d99	-0.2621887
204	0x3f328363	0.6973173
205	0x3ec603ac	0.38674676
206	0xbe17f138	-0.14838111
207	0x3d6841aa	0.056703247
208	0xbb5f5b18	-0.0034081396
209	0xbe34bba0	-0.17649698
210	0x3e074863	0.13211207
211	0x3e0471fc	0.12934107
212	0x3eca4b92	0.3951078
213	0xbd1f9459	-0.038959835
214	0x3e705d6c	0.23473138
215	0x3d559251	0.05214149
216	0x3baa1363	0.0051902994
217	0x3dbf8ef7	0.0935344
218	0x3d96b236	0.0735821
219	0x3d297c1c	0.041378126
220	0x3ef2633c	0.47341335
221	0x3eeac07f	0.45849988
222	0x3ee9a3e2	0.45632845
223	0x3dabd498	0.083901584
224	0xbde45f7c	-0.11151025
225	0xbe212499	-0.15736617
226	0x3ef86573	0.485149
227	0x3e437181	0.19086267
228	0x3e73d6df	0.23812436
229	0xbdb47939	-0.08812184
230	0xbe000cc9	-0.12504877
231	0xbe48cf02	-0.19610217
232	0x3e896d94	0.26841414
233	0xbe1f828c	-0.15577143
234	0xbd5aec6e	-0.053448133
235	0x3debfae2	0.115224615
236	0xbe68ae5f	-0.22722767
237	0x3e23a8a6	0.15982303
238	0xbe5f1a38	-0.21787345
239	0x3d7bf631	0.061514083
240	0x3ecfb592	0.40568215
241	0x3da890b7	0.08230727
242	0xbe04fd4a	-0.12987247
243	0xbe0a03c3	-0.13477997
244	0x3cc3bd27	0.023893906
245	0xbbaf2743	-0.0053452565
246	0x3e16c371	0.14722992
247	0xbe43cfb2	-0.19122198
248	0x3e4c7eaa	0.19970194
249	0x3c6332e9	0.013867118
250	0x3e1471d6	0.1449655
251	0xbda5ec97	-0.081017666
252	0xbe3eecf3	-0.18645076
253	0x3dc5c022	0.09655787
254	0xbdb5d95e	-0.0887935
255	0xbe2aaefe	-0.16668317

fc4_adv.bias f4 [38]
0	0x3b8cd8d4	0.004298309
1	0x3dbfc75b	0.09364196
2	0xbd5b7445	-0.05357768
3	0x3dc9a013	0.09844985
4	0x3df71219	0.12063999
5	0xbe35993b	-0.17734234
6	0xbd69373c	-0.05693744
7	0x3e0b3a67	0.13596497
8	0x3c22b957	0.009931884
9	0xbd3f3131	-0.046677772
10	0xbc88e822	-0.016712252
11	0x3de78c35	0.11306039
12	0xbd090faf	-0.033462223
13	0x3dbbf943	0.09178402
14	0x3d89787d	0.067124344
15	0x3dadfe74	0.08495799
16	0x3d95b002	0.073089615
17	0x3d8d8460	0.06910014
18	0x3ae7bdec	0.0017680502
19	0xbddf5c85	-0.109063186
20	0xbca55ee3	-0.020186847
21	0x3cf597ca	0.029979605
22	0x3d6f04ac	0.058354065
23	0x3ca0e61c	0.019640975
24	0xbcb7f5d9	-0.022456096
25	0xbcd6d512	-0.026224647
26	0xbafb9bc7	-0.0019196206
27	0x3dfa161f	0.122112505
28	0xbdb46f80	-0.088103294
29	0xbde82011	-0.11334241
30	0x3de3d3f0	0.11124408
31	0xbde60f10	-0.11233342
32	0xbd30e554	-0.043187454
33	0x3ca93f28	0.020659998
34	0x3e613c01	0.21995546
35	0x3da91b20	0.08257127
36	0x3e897cae	0.26852936
37	0xbd48122b	-0.04884545

fc4_val.weight f4 [1, 76]
0	0x3eb48f16	0.35265416
1	0x3e647710	0.22311044
2	0xbf5d7467	-0.8650574
3	0x3e9aec6b	0.30258498
4	0x3e7ad9fa	0.24497214
5	0xbfa5b9dc	-1.2947345
6	0xbf24b6a1	-0.6434117
7	0xbf4954df	-0.7864513
8	0x3e7df9f7	0.24802385
9	0xbfa245df	-1.2677573
10	0x3e804c5a	0.25058252
11	0x3ec157ec	0.37762392
12	0xbf4d4d09	-0.8019567
13	0xbeaee178	-0.34156394
14	0x3e7c343e	0.24629304
15	0x3e5266f7	0.2054709
16	0xbeaf0fe3	-0.34191808
17	0x3e8eb060	0.27868938
18	0xbed4841c	-0.4150704
19	0x3e118f62	0.14214852
20	0x3ea65315	0.32485262
21	0xbe91f75b	-0.2850903
22	0x3dfc4d53	0.12319436
23	0xbf21fbc6	-0.632748
24	0xbf95d830	-1.17066
25	0x3ea105f7	0.31449863
26	0x3eb833cf	0.35977027
27	0x3ec19a6a	0.3781312
28	0x3e9c0a08	0.30476403
29	0xbfa8fa0a	-1.3201306
30	0x3ebf2ffd	0.373413
31	0x3eacf305	0.3377916
32	0xbe7af158	-0.24506128
33	0xbf0dfd6d	-0.5546482
34	0xbf8f6311	-1.1202108
35	0xbf708524	-0.93953156
36	0xbf7b6e1a	-0.98214877
37	0x3e2e8dca	0.17046276
38	0xbe9d4def	-0.3072352
39	0x3e472d96	0.19450983
40	0xbf3e5eba	-0.7436329
41	0x3e520dd4	0.20513088
42	0xbe9f5e71	-0.3112674
43	0xbf9a0312	-1.2032187
44	0x3ddda5da	0.10822649
45	0xbef1c93f	-0.4722385
46	0x3ea6c310	0.32570696
47	0xbfa43cde	-1.2831075
48	0xbf645ad1	-0.89201075
49	0x3e8d4219	0.2758949
50	0xbf65cc7e	-0.89765155
51	0xbf2f2504	-0.68415856
52	0x3e9e4470	0.3091159
53	0xbf918ae2	-1.1370509
54	0xbf9a0c18	-1.2034941
55	0x3ecedd72	0.40403324
56	0xbf5be65d	-0.8589838
57	0xbf44f165	-0.7693084
58	0xbf4542c9	-0.7705503
59	0xbf7ac13e	-0.97951114
60	0xbf746379	-0.95464283
61	0x3e6114ac	0.21980542
62	0x3e5954e6	0.21223792
63	0xbe80b748	-0.25139832
64	0x3e765554	0.24055988
65	0x3e98e022	0.298585
66	0xbee0ef94	-0.43932784
67	0xbf841875	-1.0319964
68	0x3df598b0	0.119920135
69	0x3e90f704	0.28313458
70	0x3ea74453	0.32669315
71	0x3e031cf8	0.1280402
72	0x3e7add74	0.2449854
73	0xbe1fb8e1	-0.1559787
74	0x3ead2f87	0.33825323
75	0x3ddda806	0.108230636

exp_avg f4 [1, 6, 1, 4]
0	0xbe05f2b7	-0.1308087
1	0xbde7622b	-0.11298021
2	0xbb00a491	-0.001962934
3	0x3d7eff60	0.062255263
4	0xbf2535f2	-0.6453544
5	0xbedd3f63	-0.43212423
6	0xbf0e900b	-0.5568854
7	0xbd8e0ccb	-0.06936034
8	0xbdd25a9f	-0.10271191
9	0xbdd25a9f	-0.10271191
10	0xbdd25a9f	-0.10271191
11	0x3c774e03	0.015094283
12	0x3d35f570	0.04442352
13	0x3ba3eec9	0.0050028306
14	0x3ba3eec9	0.0050028306
15	0xbb9bdde0	-0.004756674
16	0xbc245680	-0.010030389
17	0xbb46e167	-0.0030346753
18	0xbb46e167	-0.0030346753
19	0x3b8f6eec	0.0043772366
20	0xbb9ac0bb	-0.0047226823
21	0xbc8ea7db	-0.017414024
22	0xbc8ea7db	-0.017414024
23	0xbc55e9b6	-0.013056209

exp_avg_sq f4 [1, 6, 1, 4]
0	0x4043996c	3.0562391
1	0x3ec0c300	0.37648773
2	0x3d92a6c3	0.071607135
3	0x3b2b55e9	0.0026143736
4	0x429e4728	79.13898
5	0x42325e19	44.591892
6	0x415507da	13.314417
7	0x3fef507f	1.869644
8	0x3f220110	0.6328287
9	0x3f220110	0.6328287
10	0x3f220110	0.6328287
11	0x3c5682df	0.013092726
12	0x3de96906	0.11396985
13	0x3dc19516	0.09452264
14	0x3dc19516	0.09452264
15	0x3b348b2d	0.0027548776
16	0x3e06f588	0.131796
17	0x3df93b56	0.121695206
18	0x3df93b56	0.121695206
19	0x3b39470f	0.0028271114
20	0x3e06066e	0.1308839
21	0x3dee0f1d	0.116239764
22	0x3dee0f1d	0.116239764
23	0x3b092e13	0.0020932003

exp_avg f4 [1, 6, 2, 4]
0	0xbf010d0a	-0.5041052
1	0xbdc31fee	-0.095275745
2	0x3d085c90	0.0332914
3	0x3c244f69	0.0100286985
4	0xbed0d0b1	-0.4078422
5	0xbdb87bb0	-0.090079665
6	0x3d4c2c38	0.049846858
7	0xbcb4e3ba	-0.022081245
8	0x3e179030	0.14801097
9	0x3e283acb	0.16428678
10	0x3eb95634	0.3619858
11	0x3e862467	0.26199648
12	0x3d7bc85a	0.061470367
13	0x3dd67aae	0.10472618
14	0x3e9b1805	0.30291763
15	0x3c8012ee	0.015634026
16	0x3cc5f120	0.024162829
17	0x3cc5f120	0.024162829
18	0x3cc5f120	0.024162829
19	0x3c85566f	0.016276566
20	0xbc8825ec	-0.016619645
21	0xbc8825ec	-0.016619645
22	0xbc8825ec	-0.016619645
23	0x3ba6210d	0.005069858
24	0xbd5a3cf4	-0.053280786
25	0x3997ab4b	0.00028928588
26	0x3997ab4b	0.00028928588
27	0xbb999f03	-0.004688145
28	0xbdad7c2a	-0.08470948
29	0xbd392872	-0.045204587
30	0xbd392872	-0.045204587
31	0xbc31b9a9	-0.0108474875
32	0xbdae962d	-0.085247375
33	0xbdbbc6db	-0.09168788
34	0xbdbbc6db	-0.09168788
35	0xbbf1826a	-0.007370283
36	0x3cbe5456	0.023233574
37	0x3c81faab	0.015866598
38	0x3c81faab	0.015866598
39	0xbbee7beb	-0.0072779558
40	0xbcef4f0d	-0.029212499
41	0xbc162e1d	-0.009166268
42	0xbc162e1d	-0.009166268
43	0xbbe9a0cc	-0.007129764
44	0x3bff36ae	0.0077885007
45	0x3cf342c1	0.029694917
46	0x3cf342c1	0.029694917
47	0xba975565	-0.0011545835

exp_avg_sq f4 [1, 6, 2, 4]
0	0x40eb533e	7.3539114
1	0x3f172167	0.5903534
2	0x3d91e8d6	0.07124488
3	0x3b15af9c	0.0022840267
4	0x40db392f	6.8507304
5	0x3eeb25da	0.45927316
6	0x3d450bba	0.048106886
7	0x3ac34816	0.0014898803
8	0x42fa8bb2	125.27284
9	0x42609280	56.143066
10	0x416a7035	14.652394
11	0x3fee3ed0	1.8612919
12	0x42feacd1	127.33753
13	0x42503737	52.05392
14	0x41090c04	8.5654335
15	0x3b22dbfb	0.0024850357
16	0x3f2e0fef	0.6799306
17	0x3f2e0fef	0.6799306
18	0x3f2e0fef	0.6799306
19	0x3c7a1da5	0.015265857
20	0x3f313e36	0.6923555
21	0x3f313e36	0.6923555
22	0x3f313e36	0.6923555
23	0x3c8e8081	0.01739526
24	0x3d4785b8	0.04871151
25	0x3ccb5b0f	0.024823694
26	0x3ccb5b0f	0.024823694
27	0x3a4c2287	0.00077871274
28	0x3e64a011	0.22326685
29	0x3e44374c	0.19161719
30	0x3e44374c	0.19161719
31	0x3bd913a4	0.006624656
32	0x3e2feda6	0.171805
33	0x3e223281	0.15839578
34	0x3e223281	0.15839578
35	0x3b924bd2	0.004464605
36	0x3e438c24	0.19096428
37	0x3e35ed76	0.17766365
38	0x3e35ed76	0.17766365
39	0x3b2e7847	0.0026621984
40	0x3e2f7d6c	0.17137688
41	0x3e1d68bd	0.15371986
42	0x3e1d68bd	0.15371986
43	0x3b6380fc	0.0034714332
44	0x3e48a245	0.19593151
45	0x3e328c03	0.17436223
46	0x3e328c03	0.17436223
47	0x3b8cafb6	0.0042934073

exp_avg f4 [1, 6, 3, 4]
0	0xbe80ec45	-0.2518026
1	0x3e42aa05	0.1901017
2	0x3e09f9da	0.13474217
3	0x3c06e6ee	0.008233769
4	0xbf01ad24	-0.50654817
5	0xbdbb05b4	-0.09131947
6	0x3c8c6b99	0.01714115
7	0x3cac1c7c	0.021009676
8	0xbebe6a9a	-0.37190706
9	0x3dfdaebb	0.12386843
10	0x3e0558c0	0.13022137
11	0x3d69efec	0.057113573
12	0xbe2eb699	-0.17061843
13	0xbe4a16ed	-0.19735308
14	0x3e5e631b	0.21717493
15	0x3e0a079a	0.13479462
16	0xbe15eda5	-0.14641435
17	0xbed513bd	-0.41616622
18	0x3dcc634f	0.09979879
19	0x3ecb0e50	0.39659357
20	0xbeae568d	-0.34050408
21	0xbedb9da5	-0.4289371
22	0xbc90ef1f	-0.017692147
23	0x3db0033f	0.08594369
24	0x3da78e20	0.08181405
25	0x3da78e1e	0.081814036
26	0x3da78e20	0.08181405
27	0xbaaa886d	-0.0013010629
28	0x3e12861a	0.14308968
29	0x3e12861b	0.1430897
30	0x3e128619	0.14308967
31	0xbc0a0d74	-0.008426059
32	0x3d6620b0	0.056183517
33	0x3d6620b5	0.056183536
34	0x3d6620b7	0.056183543
35	0xbbdd8613	-0.0067603677
36	0x3c3819c3	0.011236611
37	0x3dbe1511	0.09281362
38	0x3dbe1511	0.09281362
39	0x3aa5eb16	0.0012658562
40	0x3bee6213	0.007274875
41	0x3da34c19	0.07973499
42	0x3da34c1a	0.079734996
43	0xba794380	-0.00095086545
44	0xbca276fe	-0.01983213
45	0x3cf398a2	0.029735867
46	0x3cf398a2	0.029735867
47	0x3c92e1b7	0.017929895
48	0x3ca567df	0.020191131
49	0x3c5b8084	0.01339734
50	0x3c5b8084	0.01339734
51	0xbcc13f59	-0.023589777
52	0x3dce3340	0.10068369
53	0x3dc18f0d	0.09451113
54	0x3dc18f0b	0.094511114
55	0xbca70c23	-0.02039153
56	0xbd2ca202	-0.04214669
57	0xbd5df63b	-0.0541899
58	0xbd5df63c	-0.054189906
59	0xbba19d34	-0.00493207
60	0xbc6a4744	-0.014299218
61	0x3b7ffcd7	0.0039060616
62	0x3b7ffd67	0.0039060952
63	0xbb8f2e41	-0.0043695276
64	0x3ca72930	0.020405382
65	0x3d2e0e17	0.042493906
66	0x3d2e0e0c	0.042493865
67	0xbc917e67	-0.017760469
68	0xbc278516	-0.010224601
69	0x3c88f3da	0.01671784
70	0x3c88f3d9	0.016717838
71	0xbce2b1e7	-0.027672721

exp_avg_sq f4 [1, 6, 3, 4]
0	0x41a91a33	21.137793
1	0x4009cec2	2.1532445
2	0x3e94aa32	0.290361
3	0x3b8d7bde	0.0043177446
4	0x419c4646	19.534313
5	0x4008545d	2.1301491
6	0x3e77fda3	0.24217848
7	0x3bbe0ba5	0.005799728
8	0x418ec4e8	17.846146
9	0x40086e7a	2.131743
10	0x3e84c0a5	0.25928226
11	0x3c128587	0.008942968
12	0x43b76c13	366.84433
13	0x431a9c9a	154.61172
14	0x4213755c	36.86461
15	0x40962a60	4.6926727
16	0x43b5023f	362.01755
17	0x430857a4	136.34235
18	0x41f8a75e	31.081722
19	0x40754f82	3.8329778
20	0x43b67d20	364.97754
21	0x4306ed6a	134.9274
22	0x41d41cb7	26.51402
23	0x4051b670	3.27676
24	0x40061d21	2.095528
25	0x40061d22	2.0955281
26	0x40061d22	2.0955281
27	0x3d2167c3	0.039405596
28	0x3fdc1ede	1.719692
29	0x3fdc1edd	1.7196919
30	0x3fdc1ede	1.719692
31	0x3d138ce0	0.03602302
32	0x400b4dcd	2.1766236
33	0x400b4dcd	2.1766236
34	0x400b4dcd	2.1766236
35	0x3d0c55f7	0.03426167
36	0x3ed950b6	0.4244439
37	0x3ec3dd29	0.3825467
38	0x3ec3dd28	0.38254666
39	0x3b7b5b91	0.0038354138
40	0x3f1b3677	0.6062998
41	0x3f0eeaf5	0.55827266
42	0x3f0eeaf6	0.5582727
43	0x3c895672	0.016764853
44	0x3f1c08a1	0.60950667
45	0x3f0ff9c6	0.562405
46	0x3f0ff9c6	0.562405
47	0x3c98f9db	0.018673828
48	0x3f075c16	0.52874887
49	0x3f033809	0.5125738
50	0x3f033809	0.5125738
51	0x3c3951a2	0.011310967
52	0x3ee1eb23	0.44124708
53	0x3eda73f5	0.42666593
54	0x3eda73f5	0.42666593
55	0x3c284091	0.0102693
56	0x3ed64ee2	0.41857058
57	0x3ed22ea8	0.4105122
58	0x3ed22ea8	0.4105122
59	0x3bd02b7f	0.0063528414
60	0x3ede70c5	0.4344541
61	0x3ecaf9a2	0.3964358
62	0x3ecaf9a3	0.39643583
63	0x3c9aed89	0.018912094
64	0x3efa9fc6	0.48950022
65	0x3eeaf79a	0.4589203
66	0x3eeaf79a	0.4589203
67	0x3cb0e831	0.021595092
68	0x3efe23ae	0.49636596
69	0x3ef1c5bd	0.47221175
70	0x3ef1c5bc	0.47221172
71	0x3cde0097	0.02709989

exp_avg f4 [1, 6, 4, 4]
0	0xbecabf93	-0.39599285
1	0xbdbcac95	-0.09212605
2	0xbd8c940c	-0.06864175
3	0xbd7d10f2	-0.06178374
4	0xbea34a4f	-0.3189263
5	0xbc7ec7b8	-0.015550546
6	0x3d512cc0	0.051068068
7	0xbc816306	-0.015794288
8	0xbe00aac5	-0.12565143
9	0x3d133539	0.03593943
10	0x3daa237d	0.0830755
11	0x3d809d2e	0.0627998
12	0xbe733dd8	-0.2375406
13	0xbe0286e0	-0.12746763
14	0x3d86f3c4	0.06589463
15	0xbc4325e9	-0.011910894
16	0x3f28481e	0.6573504
17	0x3f02e25a	0.51126635
18	0x3ed0eb74	0.40804636
19	0x3dddd989	0.10832507
20	0x3ebc375b	0.36760983
21	0x3dc003eb	0.09375747
22	0x3f1f8ad0	0.62321186
23	0x3ea706b0	0.3262229
24	0x3e7b658f	0.2455046
25	0x3e5912a8	0.21198523
26	0x3eca17c7	0.39471266
27	0x3e292db5	0.16521342
28	0x3e74565b	0.23861067
29	0x3f096701	0.53672796
30	0x3ef360de	0.4753484
31	0x3d7b641a	0.06137476
32	0x3e8aebb4	0.27132952
33	0x3e8aebb4	0.27132952
34	0x3e8aebb3	0.2713295
35	0x3b8e8409	0.004349236
36	0x3e64d3a6	0.22346362
37	0x3e64d3a6	0.22346362
38	0x3e64d3a6	0.22346362
39	0x3b267f80	0.0025405586
40	0x3bba0fff	0.0056781764
41	0x3bba0ff5	0.0056781718
42	0x3bba0fcc	0.0056781527
43	0x3ce624bd	0.02809369
44	0xbdef4a82	-0.11684133
45	0xbdef4a81	-0.11684132
46	0xbdef4a86	-0.11684136
47	0x3c21724c	0.009853911
48	0xbdc57ede	-0.096433386
49	0xbcb953f4	-0.02262304
50	0xbcb953e9	-0.02262302
51	0x3c9976df	0.01873344
52	0xbe3e8f6a	-0.18609396
53	0xbdf6a60b	-0.12043389
54	0xbdf6a60b	-0.12043389
55	0xbb4f7b12	-0.003165905
56	0xbd71b091	-0.059006277
57	0xbc41c86c	-0.011827569
58	0xbc41c85e	-0.011827556
59	0x3c90d06e	0.017677512
60	0xbda864f1	-0.08222378
61	0xbd508a43	-0.050913107
62	0xbd508a44	-0.05091311
63	0x3c74db76	0.014944902
64	0xbcca595b	-0.024700811
65	0xbd10c80f	-0.03534704
66	0xbd10c80b	-0.035347026
67	0x39d6ee06	0.00040994602
68	0x3b1c710d	0.0023871094
69	0xbbf95192	-0.007608601
70	0xbbf9518a	-0.007608597
71	0xbbb79998	-0.0056030266
72	0xb9d7c8ed	-0.00041157697
73	0xbc27cfa4	-0.0102423765
74	0xbc27cf88	-0.01024235
75	0xbc2186b7	-0.009858779
76	0x3d9c4cec	0.07631859
77	0x3d8dade2	0.06917931
78	0x3d8dade0	0.0691793
79	0xbba6f4e3	-0.0050951107
80	0x3d0efa95	0.034906942
81	0x3d3ecf7b	0.046584588
82	0x3d3ecf7b	0.046584588
83	0x3886c0cc	6.425529e-05
84	0xbda54d3a	-0.080713704
85	0xbd802b4a	-0.06258257
86	0xbd802b4c	-0.06258258
87	0xbb96d9df	-0.004603609
88	0x3d500170	0.05078262
89	0x3d96e7f7	0.073684625
90	0x3d96e7f7	0.073684625
91	0xbc037b23	-0.008024964
92	0xbd827ec2	-0.063718334
93	0xbd155047	-0.03645351
94	0xbd155049	-0.03645352
95	0x3b7a0e3a	0.0038155452

exp_avg_sq f4 [1, 6, 4, 4]
0	0x41015586	8.08338
1	0x3f2db07a	0.67847407
2	0x3dacb966	0.084337994
3	0x3b377f7c	0.002799957
4	0x40be3a5d	5.9446244
5	0x3f079519	0.5296188
6	0x3dd95ee5	0.10613803
7	0x3b2b46cc	0.0026134728
8	0x40a82c79	5.255429
9	0x3eff3ca3	0.4985095
10	0x3db3b777	0.087752275
11	0x3bddb1a4	0.006765561
12	0x40bbc6a9	5.8680005
13	0x3eda4175	0.42628065
14	0x3da134ce	0.078714
15	0x3b166c6a	0.0022952803
16	0x42c94187	100.62798
17	0x422be80e	42.976616
18	0x412cca4a	10.799387
19	0x3fa72162	1.3057063
20	0x42d3cc1f	105.898674
21	0x424bc8f1	50.94623
22	0x4161bad1	14.108109
23	0x3fcd20b7	1.6025609
24	0x42cab9b0	101.36267
25	0x422f00f4	43.75093
26	0x4110fa66	9.061132
27	0x3f7b33fc	0.98126197
28	0x42d950ac	108.65756
29	0x42548ac1	53.1355
30	0x417da37d	15.852414
31	0x400a528e	2.1612887
32	0x3f0e34f6	0.5554956
33	0x3f0e34f6	0.5554956
34	0x3f0e34f7	0.5554957
35	0x3ca25d95	0.019820014
36	0x3f1b3e11	0.6064158
37	0x3f1b3e12	0.60641587
38	0x3f1b3e12	0.60641587
39	0x3c9dc3cf	0.019258408
40	0x3f3cd61d	0.7376421
41	0x3f3cd61d	0.7376421
42	0x3f3cd61e	0.73764217
43	0x3cae1076	0.021248084
44	0x3f171af5	0.5902551
45	0x3f171af6	0.59025514
46	0x3f171af7	0.5902552
47	0x3c83234b	0.01600804
48	0x3e67d174	0.22638494
49	0x3e4808f4	0.19534665
50	0x3e4808f4	0.19534665
51	0x3b8b50aa	0.0042515593
52	0x3e31d7cd	0.17367478
53	0x3e18b226	0.14911708
54	0x3e18b227	0.1491171
55	0x3be39646	0.006945404
56	0x3e5f8dee	0.21831486
57	0x3e4725b4	0.19447976
58	0x3e4725b4	0.19447976
59	0x3bf38a2d	0.0074322433
60	0x3e37283f	0.17886446
61	0x3e269bec	0.16270417
62	0x3e269bec	0.16270417
63	0x3be6df6b	0.0070456765
64	0x3e3a764b	0.18209188
65	0x3e2cd9a0	0.16879892
66	0x3e2cd99f	0.16879891
67	0x3bbd09b4	0.005768979
68	0x3e56d028	0.20977843
69	0x3e47fc7e	0.19529912
70	0x3e47fc7d	0.1952991
71	0x3bb843cd	0.005623317
72	0x3e2c121a	0.1680378
73	0x3e1ec13a	0.15503398
74	0x3e1ec13a	0.15503398
75	0x3b856146	0.004070434
76	0x3e165b30	0.14683223
77	0x3e106549	0.14101137
78	0x3e106549	0.14101137
79	0x3b8ae7b6	0.004239048
80	0x3e3541a2	0.17700818
81	0x3e265d0c	0.16246432
82	0x3e265d0c	0.16246432
83	0x3b2badbe	0.0026196088
84	0x3e23a52e	0.1598098
85	0x3e167e5a	0.14696637
86	0x3e167e5a	0.14696637
87	0x3b97f7eb	0.0046377084
88	0x3e4ceb8e	0.20011732
89	0x3e3a242b	0.1817786
90	0x3e3a242b	0.1817786
91	0x3b80e398	0.0039333813
92	0x3ddc1400	0.10746002
93	0x3dc093b6	0.094031736
94	0x3dc093b7	0.09403174
95	0x3b3d80b2	0.002891582
