TrainedModel/Dueling DQN-2/2100_0-09_DuelingDQN.pth (torch, 291157 bytes, 33 tensors)

conv1.weight f4 [1, 6, 1, 4]
000000 13 90 dc 3b c0 5a 1a 3d 5f 60 6d 3d 7d 77 b5 3c
       0.006731042 0.037684202 0.057953235 0.022151703
000010 d0 ec 7f be ed cc 00 bf 5b 75 65 3c ea 2d 4a 3e
       -0.2499268 -0.5031269 0.0140050305 0.19744077
000020 0c e3 95 3d 54 e9 dd 3e 9d ba 57 be ed fa f4 3d
       0.073186964 0.43342078 -0.21067281 0.11961923
000030 1d f3 5d 3e 59 ff 2f 3e d6 12 1e be 25 ae 00 3e
       0.21674772 0.17187251 -0.15436873 0.12566431
000040 43 66 82 3e ca f6 d4 be 45 9c 95 3e cb 3d 81 3e
       0.25468644 -0.41594535 0.29220787 0.25242457
000050 e7 e9 f9 be fa da 40 3a 3c c4 a1 3d 3c a6 cc be
       -0.48811266 0.0007356849 0.07898757 -0.39970577

conv2.weight f4 [1, 6, 2, 4]
000000 31 4b 9a 3e 29 c2 3c bd 44 83 61 be 45 1b 07 3e
       0.30135491 -0.046083603 -0.2202273 0.13193996
000010 b4 b6 12 3f c1 e2 82 be 91 95 8b 3d fb da 1c be
       0.5731003 -0.25563625 0.06815637 -0.1531791
000020 15 2d 19 bd 93 43 a5 3b c0 fa 12 bd 97 53 52 be
       -0.03739651 0.005043456 -0.035883665 -0.205397
000030 36 2e bb 3d 4e 8b 0b be e4 b8 8c be 5b f5 88 3c
       0.091396734 -0.1362736 -0.2748481 0.016718557
000040 64 3c 35 3e 99 e5 c2 bd 5b b3 93 be 10 fd 9e 3e
       0.17698818 -0.095164485 -0.28847775 0.31052446
000050 a6 09 71 be 48 85 0b be 74 e4 f9 bc 36 d5 09 3e
       -0.23538837 -0.13625062 -0.030504443 0.1346024
000060 da 83 52 3e da 0a eb bc 56 9b 4b be fc af 95 3e
       0.2055811 -0.028691698 -0.19883475 0.29235828
000070 a6 98 7c 3e 47 54 58 be 9b 07 25 3d bc 4d 5f be
       0.24667606 -0.211259 0.040290456 -0.21806997
000080 d3 44 20 be 36 63 cf 3e ef 51 4a be 28 f2 b2 be
       -0.15651254 0.4050538 -0.19757818 -0.34950376
000090 0e 4c e2 3d 56 c1 83 3d ba 85 d1 bd 4e 2d 83 be
       0.110496625 0.0643336 -0.102305844 -0.25620502
0000a0 05 16 87 3c d3 28 0f be a8 5e 4b 3e 93 c7 c5 bd
       0.016489992 -0.13980417 0.19860327 -0.096572064
0000b0 4c 72 3a 3d 89 4e dc bd 1f ac b4 3d 79 c0 8f bc
       0.04551916 -0.10757167 0.08821892 -0.017547833

conv3.weight f4 [1, 6, 3, 4]
000000 e2 bc 15 3f cf 8e 0a bd d0 3d c5 bd 7d 1a f7 3e
       0.5849134 -0.0338276 -0.096309304 0.48262396
000010 26 76 b2 3e c7 90 e5 3d 2b 60 fc 3d 16 e7 70 3e
       0.34855765 0.11209255 0.1232303 0.23525652
000020 da 05 15 3f 3d a5 ce 3e 6e 0d 4e 3d 56 99 1d 3e
       0.58212054 0.40360442 0.050305776 0.15390524
000030 22 ec 00 3e 9e 4a 55 3e 2d 25 39 3e ee 8f c1 bc
       0.12590078 0.20829245 0.18080588 -0.023628201
000040 1e 21 1f bd 62 a5 94 bd 19 e2 c3 bd da 10 73 bd
       -0.038849942 -0.07258107 -0.09564609 -0.059342243
000050 79 e7 db bd 86 83 98 3d be f9 76 3e ec e3 b0 3d
       -0.10737509 0.07446961 0.24118707 0.08637223
000060 f8 c4 e7 3d 43 96 41 be da 9b cb bd 9c f5 ff 3e
       0.11316866 -0.18904977 -0.09941836 0.49992073
000070 36 0e 25 be 29 ac 5f 3c cd a2 45 be 74 1c 23 3e
       -0.16118702 0.013651886 -0.19300385 0.15928823
000080 ac fe be 3d d5 2c bb 3d 83 5f 64 bd 9b 80 96 bd
       0.093259186 0.091394104 -0.05575515 -0.07348748
000090 8c 72 de 3d b3 76 8a 3d 3d 4d 35 3d 69 b8 14 3e
       0.10861692 0.06760921 0.044263113 0.14523472
0000a0 cb 61 2f 3e 13 0c 98 3d 92 5a ce bd cf 53 3c bc
       0.17127149 0.07424178 -0.10075869 -0.011494591
0000b0 63 1c 8e be ba 84 32 bd fa f2 1c 3e 9d aa 8f 3d
       -0.27756032 -0.04358361 0.15327063 0.07014964
0000c0 1e 7c a1 be 52 06 a0 3d f4 d5 c9 bd 3a ac 6c 3d
       -0.31540006 0.078137055 -0.098552614 0.057781436
0000d0 ae 1e 63 be 7b 4f 7c be b3 b6 b5 3d 93 5b 0a be
       -0.22179672 -0.24639694 0.08872738 -0.13511495
0000e0 fd e0 de 3d 08 1d a6 3e 09 71 d5 bc 0a d5 08 be
       0.10882757 0.32444024 -0.026054876 -0.13362518
0000f0 42 b5 de 3d e5 de ae 3a ca 12 19 3e 16 e2 5b be
       0.10874416 0.0013341574 0.14948574 -0.21472964
000100 8b e5 0a 3a 68 9f 90 3d 3a f1 4b be 51 cb 5f bd
       0.0005298487 0.07061654 -0.1991624 -0.054637257
000110 06 1f 7e 3d a2 11 22 3d 01 17 c8 bd bb e2 bc bc
       0.062041305 0.039567597 -0.09770013 -0.023057332

conv4.weight f4 [1, 6, 4, 4]
000000 f8 67 4b 3e 63 63 5e bc 26 31 e5 bd c0 13 06 be
       0.1986388 -0.0135735 -0.11191015 -0.13093472
000010 77 ae f1 bd b1 e7 87 bd 53 fc 0d be 87 a3 64 3e
       -0.11800855 -0.066359885 -0.13865785 0.22328006
000020 52 82 38 3d 9a 96 0a bd ee 4b 22 bc 6d 42 93 be
       0.045046158 -0.03383503 -0.009905798 -0.28761616
000030 a3 cc 41 3e 1a 69 a6 3d a2 78 1d 3d 57 89 8d bd
       0.18925719 0.08125515 0.038445123 -0.06910961
000040 be 13 6f 3e 51 80 55 bd 55 6b d8 bd 07 99 af be
       0.23347375 -0.052124325 -0.10567347 -0.34296438
000050 5d 4e 9a 3e 97 31 d7 3d 75 f8 01 be a7 72 8f be
       0.3013791 0.105075054 -0.12692435 -0.2801716
000060 bf d2 85 bd f6 38 1f be aa f5 2b be 5b cc 86 be
       -0.06534337 -0.15549073 -0.16792932 -0.26327786
000070 04 82 62 3d a3 52 32 3e 35 44 93 be da 77 82 be
       0.055299774 0.17414336 -0.28762975 -0.25482064
000080 27 f3 4b be d2 ca 80 3d 15 c0 3c 3d 5e 42 5f bd
       -0.19916974 0.06288685 0.04608162 -0.054506652
000090 29 45 1a 3d 24 c2 29 b9 0f f5 a7 3b 93 4a 0f bd
       0.037663613 -0.00016189419 0.005125649 -0.03498323
0000a0 9b 1a 1b bd 64 cf 0d bd b6 e6 46 3d 09 d5 20 bb
       -0.03786717 -0.03462161 0.048559867 -0.0024541041
0000b0 67 50 d5 bd 14 e9 31 3e 70 19 3f be 23 14 dd 3c
       -0.10415726 0.17374068 -0.18662047 0.026987141
0000c0 44 fc 4e bd 22 1a 2e 3e b1 0e 2c be f8 61 8a 3d
       -0.050533548 0.17002156 -0.1680248 0.06756967
0000d0 3f bd ca bd 2f 16 82 3d af 45 ea 3d c5 a4 65 bc
       -0.09899377 0.063518874 0.11439072 -0.014016335
0000e0 cb 6b 3b be 36 3d 91 bd b3 29 61 3e 7f 62 ea bd
       -0.18302839 -0.07091753 0.21988563 -0.11444568
0000f0 37 98 0a 3a 53 fd 17 be 2e 93 39 bd 1e 63 b9 bd
       0.0005286964 -0.1484273 -0.045306377 -0.09052108
000100 af 30 7a 3b de 02 3f 3e 6a 68 15 3d e2 5e f1 bd
       0.003817599 0.18653437 0.03647653 -0.117856756
000110 83 2a 1c 3e c6 73 64 be 31 32 b5 bc 91 f8 c0 bd
       0.15250592 -0.22309789 -0.02211866 -0.0942241
000120 7d 17 c0 bc cd 04 8e bd 3e 35 df 3d ae c9 b6 be
       -0.0234487 -0.069345094 0.10898827 -0.35700744
000130 63 ae 4d be 82 05 88 3d 80 a4 ee 3c 69 b0 ec 3c
       -0.20086055 0.066416755 0.029131174 0.028892713
000140 bf 23 89 3e 82 9e 80 bc 08 4d da bc 28 bb fe 3d
       0.26785085 -0.015700582 -0.02664806 0.12438041
000150 72 30 bb bd e5 39 56 3d 7f 72 91 bd 1c 25 cd bd
       -0.091400996 0.052301306 -0.071019165 -0.10016844
000160 4b 40 0e be 9c a2 48 3e 3e 62 1f be ab 78 d9 3b
       -0.13891713 0.1959328 -0.1556482 0.006636699
000170 c4 4b c0 bd f6 6d 4c bd 16 dd a3 3d 4a eb b7 be
       -0.09389451 -0.049909554 0.08001153 -0.359217

fc3_adv.weight f4 [76, 130]
000000 4d c7 ce bb f5 3d 3f 3e 6e 76 7a 3e d2 57 a9 3d
       -0.0063103796 0.18675978 0.2445924 0.082687035
000010 c5 1b 67 3e b9 6e 05 3e 71 38 d8 3e 99 60 9b 3e
       0.22569187 0.13030519 0.4223056 0.30347136
000020 d4 87 64 3e f9 66 b2 3e 38 44 90 3e 3f 03 0f 3d
       0.2231744 0.34844187 0.28177047 0.034915205
000030 d3 75 a3 bd 0c d0 91 3e 90 c5 d7 3e 25 78 a2 3e
       -0.079814576 0.2847904 0.42142916 0.31732288
000040 57 1b 1b 3e 88 e0 41 3e a2 ec b9 3e 1d cb c7 3e
       0.15147148 0.18933308 0.3631335 0.3902215
000050 15 85 f2 3e ec dd 7f 3e 0c 94 b9 3e a2 7c 82 3e
       0.4736716 0.24987 0.36245763 0.25485712
000060 8f 6e 8d 3e 9c ce 32 3e 50 2e 96 3e 5a 7d 2c 3d
       0.27623412 0.17461628 0.2933221 0.042111732
000070 5a 6b 6f 3e 4f 0e ad bd 47 92 e9 3c 67 09 a3 3e
       0.23380795 -0.08449995 0.028512133 0.3184311
000080 d0 35 4a 3e 68 6c f9 3e da 5b 2e bd 16 66 ff bd
       0.1974709 0.4871552 -0.042568065 -0.12470643
000090 36 a4 31 be b3 8c 31 3e 4e 76 b1 bd 5a 3e 3c be
       -0.17347798 0.17338829 -0.08665143 -0.1838316
0000a0 60 d1 84 3d 7e 84 00 be 2e de 6c 3d c1 a4 5d 3d
       0.064852476 -0.12550542 0.057829075 0.0541122
0000b0 20 79 93 3c 7d f0 e3 bd 8d 58 c1 bd d7 e7 c6 3d
       0.018002093 -0.11129854 -0.09440718 0.09712189
0000c0 6d a0 1d 3e 7a 39 89 3d 0f 94 f7 3c c6 e0 d7 3c
       0.15393229 0.06700416 0.030221967 0.026352298
0000d0 0a ad 9d bc a0 e4 77 3e 3f 41 ae bb 9a 41 af bd
       -0.01924755 0.24208307 -0.0053178365 -0.085574344
0000e0 15 68 9e ba ba 0a 1c 3e 66 77 84 bc 15 9b 24 3e
       -0.0012085462 0.15238467 -0.016170215 0.16074784
0000f0 78 9f c8 3d 72 24 04 3e 70 2d 40 be 24 4e ad bd
       0.09796041 0.12904528 -0.18767333 -0.0846217
000100 d4 7f 51 3e 1b 27 c6 3c 50 80 89 3d 8a 78 83 be
       0.20458919 0.024188569 0.06713927 -0.25677902
000110 0f fe 1d bd 49 62 41 bd 75 59 92 be 29 10 9c bd
       -0.038572367 -0.047212873 -0.28583875 -0.0762027
000120 2d ae a7 be 48 b6 be 3d 44 63 35 be 3f 9a f7 3d
       -0.32750073 0.09312111 -0.17713648 0.12089967
000130 b9 bb e0 bc 20 cf e0 bd 04 4c 50 be 97 c8 c0 bd
       -0.027433263 -0.10977006 -0.20341498 -0.094132595
000140 2b 22 2a 3e 77 2d 9a be 70 23 dc 3c 7b 46 9f bd
       0.16614597 -0.30112812 0.026872367 -0.07777115
000150 22 06 81 bd 0f 16 92 3d d2 d4 d1 bd 3f ce 15 be
       -0.06299998 0.071331136 -0.102456704 -0.14629458
000160 62 95 4b bd f3 81 5f be 55 84 9d 3d e7 88 19 bd
       -0.04970301 -0.21826915 0.07691256 -0.037484076
000170 17 55 36 3d f4 b3 9c 3c 36 67 1e be 2f 63 e5 bb
       0.04451474 0.019128777 -0.1546906 -0.007000349
000180 12 a2 54 bd 98 28 34 3d 53 e5 ba 3a ea dc 9d 3d
       -0.051912375 0.043984026 0.0014259018 0.07708152
000190 84 20 42 3e 81 7b 17 3d 30 e3 92 3e 01 a9 38 3e
       0.18957716 0.036983017 0.28688955 0.1803322
0001a0 53 8a 81 3d 11 28 e1 3a c9 35 1e 3e df f9 f7 3a
       0.063252114 0.0017178078 0.15450205 0.0018919072
0001b0 c6 ba 93 3e a9 cd a1 3d 94 d0 2c 3e 85 87 8e 3e
       0.28853434 0.07900555 0.16876441 0.27837768
0001c0 9a 39 3a 3e 04 b4 61 3e 3f 83 8f 3e af 8f a4 3d
       0.18186036 0.22041327 0.2802982 0.08035218
0001d0 75 7b 7a 3e 78 ac 9f 3e 2e e1 01 3e e9 40 d6 3e
       0.24461158 0.3118627 0.12683555 0.41846398
0001e0 6c 77 2a 3e 10 55 dd 3d 20 74 2b 3e 1f 58 44 3e
       0.16647118 0.1080724 0.16743517 0.1917424
0001f0 5a 5d 49 3e 34 03 37 3e 68 4a aa 3e 06 9a ce 3d
       0.19664517 0.17872316 0.33259892 0.100879714
000200 a1 b3 c5 3e c8 85 1b 3e 2f ea 41 bd eb f6 a4 3e
       0.38613608 0.15187752 -0.047342476 0.32219633
000210 ed e4 bf 3d 26 6b 13 3e 03 80 d7 3d 93 de 35 bd
       0.09369836 0.14396343 0.10522463 -0.044401716
000220 29 d4 fd 3d 75 29 02 3e 9d bb be bd 64 ef 07 39
       0.12393982 0.12711127 -0.09313128 0.00012963783
000230 f9 8b 5e bc 82 df bb 3e 74 1e e3 3e de 77 9e 3e
       -0.013583177 0.3669396 0.4435917 0.30950826
000240 04 c2 10 bd c4 e5 52 3e 8b d6 bb 3e 82 1c 47 3e
       -0.035341278 0.20595461 0.3668712 0.19444469
000250 03 04 45 3e 3f 87 16 3e 93 b5 d2 bd 33 57 00 3d
       0.19239812 0.1470003 -0.10288539 0.03133316
000260 7e f4 f5 bc 3c 15 a0 3d ef ab c5 bc b6 e3 19 3e
       -0.03002381 0.0781655 -0.024129836 0.15028271
000270 a2 d0 4f 3e 1f fa 2b bb 87 88 41 3e 79 37 5b 3a
       0.20294431 -0.0026241613 0.18899737 0.0008362453
000280 27 9d f8 bd 8a 38 f3 3e 3d bc 31 3e f4 ca 84 3d
       -0.121393494 0.47504073 0.17356963 0.06484023
000290 51 fb 22 3e c0 c8 7c 3e 52 ec 8a 3e 89 35 54 3e
       0.15916182 0.24685955 0.27133423 0.20723547
0002a0 74 d4 06 3d 80 09 84 3d 44 cb d2 bd 67 94 01 bb
       0.032917455 0.064471245 -0.10292676 -0.0019772293
0002b0 28 3c 80 39 c5 e6 ba 3d 7c bc d0 bc 6e 0d 8c 3e
       0.00024458882 0.09126047 -0.025480501 0.27353996
0002c0 a7 17 69 3e b9 8a 89 3e 91 f3 6b 3e bc 3b da 3e
       0.22762929 0.2686365 0.23042132 0.426237
0002d0 e6 ca cb bd a9 3a 60 be fa f6 49 be 35 e5 36 3e
       -0.09950809 -0.21897377 -0.1972312 0.17860873
0002e0 65 7b 60 bd 2a d5 3d be a7 4c 06 be 9a 42 3a be
       -0.05480518 -0.18538347 -0.13115178 -0.18189469
0002f0 40 d2 85 bd 12 b7 17 be 66 d4 c7 3d 09 ec cc ba
       -0.06534243 -0.1481593 0.09757309 -0.0015634309
000300 1d ce 1d be 8b d4 3a 3d bb aa e0 3c 85 ba 43 3d
       -0.15410657 0.045612853 0.02742516 0.0477853
000310 58 b8 fc 3c c6 82 31 3e 7c 96 08 3e 0f cb 2f 3d
       0.03084962 0.17335042 0.13338655 0.04291826
000320 fa fd a4 bd 56 d6 90 3d 14 4d cc bd aa af 34 be
       -0.08056255 0.07072131 -0.09975639 -0.17645136
000330 6e 31 5b bc 29 d6 9a bc 8c 4d 10 3e 36 49 5d 3d
       -0.013378484 -0.018900948 0.14092082 0.054024898
000340 a3 be 2c 3d b3 ff 29 3e f5 6a ed 3d d7 c9 87 3d
       0.042173993 0.16601448 0.11592666 0.06630295
000350 d2 f8 cd bd 0f 01 39 be 1f c6 60 be 6f 36 52 3d
       -0.10057224 -0.1806681 -0.21950577 0.051321443
000360 3f 2b 05 be 27 9f fc bd 1d 4c e0 bd 20 03 8f be
       -0.13004778 -0.123350434 -0.109520175 -0.27932072
000370 14 d5 31 be 11 b3 ac bc a0 77 fb bc 72 f8 5e bd
       -0.17366439 -0.02108148 -0.03069669 -0.054436155
000380 89 92 9e 3d 90 d1 9a bd 07 e3 82 3e c5 c9 4c 3e
       0.07742793 -0.07559502 0.25563833 0.19998844
000390 a4 81 ec 3d 05 b3 96 3e 45 f4 93 3e ac ca 81 3d
       0.115481645 0.29433456 0.288973 0.06337485
0003a0 cb 02 84 bc 07 8b 70 3b 37 79 4c 3e 6d 1b 71 3e
       -0.016114613 0.003670396 0.19968115 0.23545618
0003b0 80 22 04 3e 5a 0f 7a 3e ab 9a aa ba 36 a9 76 3c
       0.12903786 0.24419919 -0.0013016065 0.0150549915
0003c0 ac 9c 0e 3e 5d 1f 09 bd 81 91 09 3d d1 6d 37 3e
       0.13926953 -0.033477176 0.03358603 0.17912985
0003d0 db 7b 85 bd 80 7a 51 bd 8d 85 18 3e 67 b7 05 3e
       -0.06517764 -0.051142216 0.14894696 0.13058244
0003e0 c2 6a 86 3d 7b dd d6 bc c1 60 08 3b 03 7c 21 3c
       0.06563331 -0.026228657 0.0020809623 0.009856227
0003f0 d7 f5 19 3c 81 29 00 bd 0f 92 c0 3d d0 f8 e6 3d
       0.009396992 -0.03128958 0.094028585 0.11277926

fc3_adv.bias f4 [76]
000000 21 e8 2a 3d fd 15 c8 3d 92 11 c0 3d 70 15 bb bd
       0.04172528 0.09769819 0.09378351 -0.09134948
000010 a4 89 05 3c ad b5 de bd df 1e d4 3c 15 f7 32 3d
       0.008150492 -0.10874496 0.025893627 0.043692667
000020 0c 26 15 3e 72 4a f3 3d cd 90 44 3d 48 1c 65 bd
       0.14565295 0.11879434 0.047989655 -0.055935174
000030 72 94 62 3e b4 9e 6c bb 20 67 33 3e 77 fa 36 3e
       0.2212694 -0.0036105337 0.17519808 0.17868982
000040 52 f9 80 3e ac d7 56 3d a7 6a 03 3e a1 16 84 3d
       0.25190216 0.052451774 0.12833653 0.064496286
000050 9e 6f 9f 3d 3e 75 2b bd 3f 92 14 3e e0 c7 4c bd
       0.07784961 -0.041859858 0.14508913 -0.049995303
000060 fb 77 4b 3b b8 24 e2 3c 18 af 50 bd 90 0e 42 3e
       0.0031046856 0.0276054 -0.050948232 0.18950868
000070 a9 ad 85 3c f5 0a 70 3c 78 46 35 3e 09 04 a5 3d
       0.01631816 0.01465105 0.17702663 0.0805741
000080 76 2e c3 bd 16 f9 46 3c b3 0e f4 3d 94 f9 2a 3e
       -0.09530346 0.012144348 0.11916866 0.16696769
000090 be 61 c0 3d 38 81 88 bd d7 11 6f 3d 08 6e c2 3d
       0.09393643 -0.066652715 0.058366623 0.09493643
0000a0 dc ee 8a 3e e7 83 24 3d 8e 8c 10 bd 9f 03 d8 3d
       0.2713536 0.040164854 -0.035290293 0.10547566
0000b0 8c fa 06 bd 4a 89 36 3d c6 6c be 3d ad c5 d6 3d
       -0.032953784 0.044564523 0.09298091 0.104869224
0000c0 bb 62 e3 3d 80 ea 98 3c 91 bc 3f 3d ff 03 14 3e
       0.11102816 0.018666506 0.04681069 0.1445465
0000d0 3e 9d ed 3d 2c fe 07 3e da 06 c7 3d 82 90 31 3d
       0.11602257 0.13280553 0.09718104 0.043350704
0000e0 92 e2 ac bd 49 b3 29 bd 67 bc a3 3d 25 25 fb 3d
       -0.08441652 -0.041430745 0.07994919 0.12262944
0000f0 b1 ed d6 3c fc cf 4f 3e 8a 0f d1 3d fe d9 83 3d
       0.026236387 0.20294183 0.10208042 0.06438063
000100 64 e5 04 3e 99 ff 1b bd ef 8b 24 3e 4b 9f 3d 3c
       0.1297813 -0.038085554 0.16069005 0.011573623
000110 38 8e ba 3d f8 8e e1 3d 8b 7f 1a 3c 78 63 e9 3d
       0.09109157 0.11013597 0.009429823 0.11395925
000120 90 8d ac bc 56 30 1a 3e 5b 22 24 3e fc fd 5d 3e
       -0.021063596 0.15057501 0.1602873 0.21678919

fc3_val.weight f4 [76, 130]
000000 6d c7 be 3d 1d d8 ab bd ec 31 6b bb 20 44 f7 bd
       0.09315381 -0.0839083 -0.003588791 -0.12073541
000010 81 21 6c bd 0d 70 23 bc 03 95 6d be fe a9 2a be
       -0.05764914 -0.009975445 -0.23201375 -0.1666641
000020 a7 93 fa 3d b7 0f dd 3c 96 b6 e8 3d 58 72 a5 bc
       0.12235194 0.026985032 0.113629505 -0.020196125
000030 4a d4 9c bd 83 51 1a 3e ec 0d 4b bd 9b de 2c be
       -0.076576784 0.15070157 -0.049573824 -0.16881792
000040 98 8d 2f bc 20 c4 33 3e 94 f6 c4 bd c7 03 23 be
       -0.010714911 0.17555285 -0.096173435 -0.1591941
000050 42 5e 19 ba 03 bd 4a be f1 3e 35 be a0 e3 12 bd
       -0.00058505323 -0.19798665 -0.17699791 -0.03586161
000060 d4 16 82 be 75 3c 2e be 6d 30 68 bd 13 ba 17 be
       -0.2540804 -0.1701525 -0.056686807 -0.14817075
000070 ce a1 8e bd 2c 6a 6c bd bf 32 ff 3b be 57 3a bd
       -0.069644555 -0.05771844 0.007788032 -0.045493834
000080 da 61 56 3e 60 49 d8 bd 11 1b 50 be 6d ab 41 bc
       0.20935765 -0.1056087 -0.20322825 -0.011820656
000090 9c 23 d7 bc d8 b8 5e 3e af 2c 2e bd 5f f0 83 3e
       -0.026262097 0.217502 -0.042523082 0.25769326
0000a0 a9 fa 2e 3e d6 ae 55 bc ea ba 7f 3e b8 23 c6 3d
       0.17087807 -0.013042172 0.24973646 0.096747816
0000b0 cc 66 8a 3e 0a c7 1c 3e 25 6d 58 3e 68 c4 58 3d
       0.27031553 0.15310302 0.21135385 0.052921683
0000c0 bf 87 6c 3e 25 53 06 3e 06 88 82 3e 19 3b 0f bd
       0.23098658 0.13117655 0.25494403 -0.03496847
0000d0 c3 e0 1e 3e 7e a7 22 3e 7c 18 13 3d e5 40 04 3e
       0.15515427 0.15884206 0.035912022 0.1291538
0000e0 e3 4c fd bc f9 36 42 bc 41 ea 23 bd 64 5f 3f bd
       -0.030920452 -0.011853927 -0.040018324 -0.04672183
0000f0 90 8f 29 3d 73 68 0c be f7 17 cd bd bf dd 7a 3e
       0.041396677 -0.13711719 -0.100143366 0.24498652
000100 0b a9 d7 bd 61 be eb 3d 42 65 14 be c3 39 41 be
       -0.10530289 0.11510921 -0.14491752 -0.1886969
000110 f7 48 99 bc 7e 26 41 bd 12 7a b8 3d 21 22 cf 3d
       -0.01871155 -0.04715585 0.09007658 0.101139314
000120 4c 44 66 3e 2d 84 54 bd 54 6a ae bd 1d a7 3b 3e
       0.2248699 -0.051883865 -0.08516374 0.18325467
000130 58 da 45 bc 27 73 22 3e 23 aa ce 3d ca 7b ab 3c
       -0.012075983 0.1586424 0.10091045 0.02093305
000140 83 6e 14 bd 83 bf e9 3c a5 b6 c5 3d 3a d7 ad bd
       -0.036238205 0.028533703 0.09653977 -0.08488317
000150 ce db a8 3d 3e 56 2f 3e bc 06 84 3c 34 a2 d1 3d
       0.082450494 0.17122743 0.016116492 0.10236016
000160 a3 a4 70 bd 98 65 17 3d 2c 87 01 be a1 90 97 bd
       -0.05875076 0.03696212 -0.1264922 -0.07400633
000170 e0 18 99 bd 85 64 b5 bd 32 5b f7 3c 1a 16 1b bd
       -0.07475448 -0.08857063 0.030194853 -0.037862875
000180 c6 2e 2f be 6b 6f 20 3e 05 f2 5b 3e f2 4e 81 be
       -0.17107686 0.15667503 0.21479042 -0.25255543
000190 6b 78 ad bd 65 fc ac bd bd e9 0e be 40 cf e0 3d
       -0.084702335 -0.08446578 -0.13956352 0.1097703
0001a0 db a8 d4 bd 07 aa cb bd 3f e4 f6 3d ae 79 6d 3e
       -0.10383769 -0.099445395 0.12055253 0.23190948
0001b0 67 cb 11 3d 12 fe 0a be 2f f4 a0 bd 28 cb 68 3e
       0.03559437 -0.13573483 -0.07859074 0.22733748
0001c0 cd 2b 41 3e 36 30 f3 3c 7b 8f 3a 3e 3d b1 00 be
       0.18864365 0.029686075 0.18218796 -0.12567611
0001d0 30 f9 1a bd c2 ef 3f be 01 e5 b7 3d 85 1d d7 bb
       -0.0378353 -0.18743804 0.08979226 -0.0065647983
0001e0 c1 d7 00 3d ef 34 d7 bd c6 a1 07 be 0d be 09 be
       0.03145576 -0.10508143 -0.13245305 -0.13451405
0001f0 ad 24 0b be dc 92 7e bd 37 d9 30 3e bc b6 b3 bc
       -0.1358821 -0.062151775 0.17270361 -0.02193772
000200 43 37 1f 3e 46 c1 f4 bd 4f fb 49 3e 1a 1e 8e 3e
       0.15548424 -0.119509265 0.19724773 0.2775734
000210 e7 87 11 3e 49 cb 65 3e 56 fd 5a 3e 40 4f 67 3e
       0.14211999 0.22440828 0.21385702 0.22588825
000220 93 37 dc 3e cb cd 66 3e 41 2f 69 3e 4b 34 20 3d
       0.4301115 0.22539441 0.22771932 0.03911237
000230 5b e5 a4 3d d8 cd 7b 3e 45 be c6 3e 18 f1 72 3e
       0.080515586 0.24590242 0.3881704 0.23724782
000240 66 02 95 3e ac a9 b1 3d eb fb b3 3e 9e c3 62 3e
       0.29103392 0.086749405 0.35153136 0.22144935
000250 95 a8 18 3e 0b c7 9e 3e 34 79 af 3d ac 01 be 3e
       0.14908059 0.31011233 0.085680395 0.3711065
000260 21 ae aa 3e b8 3b 09 3e 8d 79 2a 3e 12 7e 4e 3e
       0.33335975 0.13401687 0.1664793 0.2016528
000270 a0 de d1 3e 9d 9f 58 3e 9a 63 cd 3e f6 87 17 3e
       0.40990162 0.21154638 0.40115052 0.14797959
000280 c2 b8 90 3d 33 48 4c 3e 26 82 ae 3d 03 cc ca 3e
       0.0706649 0.19949417 0.085209176 0.39608774
000290 4b 37 fa 3d 74 c2 55 3e 6c a0 09 3e d1 8e 0b 3e
       0.122175775 0.20874959 0.13440102 0.13628699
0002a0 0b dc e9 3d 46 f2 47 3e 0a e8 98 3e 8b 13 de 3d
       0.11418923 0.19526014 0.29864532 0.10843571
0002b0 b7 8f 39 3e 8d c5 14 3e e6 e4 2a 3c 1f 69 88 3e
       0.18121229 0.14528485 0.01043055 0.266427
0002c0 b1 51 96 3e 28 e1 72 3e 2c e9 1b 3e 4b 5b 22 3d
       0.293592 0.23718703 0.15225667 0.039637845
0002d0 2d 15 5b 3e 20 8f 5c 3c 6a 3e b4 3a 01 72 7a 3e
       0.21394797 0.013461858 0.0013751511 0.24457552
0002e0 ad b3 41 3d d6 af d3 3d 43 67 4d 3e da 51 14 3d
       0.047290493 0.103362724 0.20058922 0.036210872
0002f0 da bd 4a 3e 74 33 6f 3e 5f e0 7f 3d 69 c1 7c 3e
       0.19798985 0.23359472 0.062469836 0.24683155
000300 db c0 ad 3e 34 f5 fa 3d 27 48 a3 3e d9 4f 4a 3c
       0.339362 0.122538 0.31890985 0.012348139
000310 39 57 29 3e 4c 96 28 3e 31 b7 cc 3d 65 5d 0c bc
       0.16537179 0.16463584 0.099958785 -0.008567189
000320 0f f8 29 3e fe dc 52 3e 86 d3 b9 3c 89 5b 81 3e
       0.16598533 0.20592114 0.02268387 0.25265148
000330 d0 4e e3 3c ce da ff bd 30 d1 af bd 9d 1e 22 3e
       0.027747542 -0.124929056 -0.08584821 0.1583199
000340 a3 7e 47 3e 7d 61 92 3d 6c 0d 10 3e 40 27 38 3e
       0.19481902 0.07147501 0.1406762 0.17983723
000350 e7 3b 77 3d a6 22 f1 bd 43 2c 8a 3c cf a7 8c 3e
       0.06035986 -0.11774187 0.016866809 0.27471778
000360 e2 a7 38 bc a0 04 0f 3d 78 db 57 3e bd 23 6e 3e
       -0.011270495 0.03491652 0.21079814 0.2325582
000370 d0 4b 34 3e 06 fe ba bd 7f a1 a5 bd e1 22 60 3d
       0.17607045 -0.091304824 -0.080874436 0.054720763
000380 ba 87 4b 3e f6 96 d3 3d 06 e3 ef 3d b6 8f 4d 3e
       0.19875994 0.10331528 0.11713223 0.20074353
000390 66 11 39 bd 3e c5 b3 3c 17 b7 2d 3e 00 ba 92 3d
       -0.045182608 0.021944638 0.16964374 0.07164383
0003a0 ab 5e a3 3d e8 c8 dc 3d ca 0f de 3d 26 c3 58 3e
       0.07977041 0.10780507 0.10842855 0.21168193
0003b0 a2 08 d4 3d d5 f4 75 3d 90 ba 80 3e f7 be f9 3d
       0.10353209 0.060047943 0.25142336 0.12194627
0003c0 74 81 14 3c f9 88 34 3e 88 51 71 3e fc df 8c 3e
       0.009064067 0.17630376 0.23566258 0.27514637
0003d0 1a 8e 23 3e e5 5a fb bb f0 f7 29 3e 34 ea 76 3e
       0.15972176 -0.0076707476 0.16598487 0.24112779
0003e0 f3 a5 f7 3c 30 af 29 3b 13 e0 43 3e 1f e3 fa 3d
       0.030230498 0.0025891773 0.19128446 0.12250351
0003f0 1a 71 51 3d c6 cb 83 3e 16 d9 8b 3e f4 68 3c 3e
       0.051133253 0.25741404 0.2731406 0.18399411

fc3_val.bias f4 [76]
000000 72 bf 5e 3e 20 b3 79 be a9 0c d5 3e a4 6a 68 3e
       0.21752718 -0.24384737 0.4161122 0.2269693
000010 f3 57 80 be 77 bf 55 be 9e 6a 82 be aa 5f 39 be
       -0.250671 -0.2087382 -0.25471967 -0.18102899
000020 d3 92 2e be c8 34 4a be 30 96 f1 3e f6 2c 0f 3f
       -0.17048196 -0.19746697 0.47184896 0.5592798
000030 73 e7 64 3e 5b 53 3f be 51 4c 97 3e 8b 79 d5 3e
       0.22353916 -0.18684141 0.29550412 0.41694292
000040 39 67 b9 3e 9f f8 78 be 5c fa 6e 3e 93 de 8e 3e
       0.36211565 -0.24313591 0.23337692 0.27904186
000050 df 77 83 3e 6f 53 11 3f a5 d8 95 3e bf b2 a7 3e
       0.25677392 0.56767935 0.2926685 0.3275356
000060 87 b6 54 3e d3 59 37 3e fc 1f e5 3e 81 c8 39 3e
       0.20772754 0.17905359 0.44750965 0.18142892
000070 1f 84 63 be 03 82 2c be a2 24 e0 3e b7 f1 57 be
       -0.22218369 -0.1684647 0.4377795 -0.210883
000080 23 1a 22 3e 9d e5 74 3e 5a 47 a7 3e b3 55 15 be
       0.15830283 0.23915716 0.32671624 -0.14583473
000090 21 e3 aa 3e 16 84 56 be 1b 46 1d be cd f4 78 3e
       0.3337641 -0.20948824 -0.15358774 0.24312134
0000a0 91 12 e1 3e 9b 96 aa 3e 56 c9 70 be 53 12 90 3e
       0.43959478 0.33318028 -0.23514304 0.2813898
0000b0 f7 49 01 3f a4 70 5a be 14 65 bb 3e 00 fa 47 be
       0.50503486 -0.21332031 0.36600554 -0.19528961
0000c0 76 9b 1a be 58 ba 03 3f 81 41 44 be 5f cf bf 3e
       -0.15098366 0.51456213 -0.19165613 0.374629
0000d0 de da 11 3f a5 01 8a be 16 3b 67 be c9 c6 79 be
       0.5697459 -0.2695438 -0.22581133 -0.24392237
0000e0 06 6e 1e be f3 db 2e be e3 aa 45 be 81 38 7f be
       -0.15471658 -0.17076091 -0.1930347 -0.24923898
0000f0 95 87 fb bb 63 07 f9 bd 8a 57 40 be 35 1b 0f 3f
       -0.0076760747 -0.12159612 -0.18783394 0.5590089
000100 fa ee 70 be de 7a 4d 3e e6 ec 73 be 4d ab a9 3d
       -0.23528662 0.20066401 -0.23820838 0.08284626
000110 37 1f a5 3e 08 11 80 be fc 27 37 be 4a 05 42 3e
       0.32250378 -0.25012994 -0.17886347 0.1894733
000120 73 0a 06 3e 0f 8d 03 3e 38 b9 18 be 82 b0 8f be
       0.13089924 0.12846778 -0.14914405 -0.28064352

fc4_adv.weight f4 [38, 76]
000000 ad 15 81 bd 76 db 66 3d c6 e2 e5 be 50 c9 f7 bd
       -0.063029625 0.056361638 -0.44899577 -0.12098944
000010 31 c7 ab bc 00 2b 8e bc ed d4 bc 3e f2 97 44 3c
       -0.020969005 -0.017354488 0.368812 0.011999117
000020 70 6f d2 3e 82 ce 67 3e 9c 46 94 be 38 a0 7f 3e
       0.41100645 0.2263737 -0.2896012 0.24963462
000030 21 32 df bd 06 5a 8c bd c9 53 5b 3c 79 0b 8c be
       -0.10898233 -0.06853108 0.013386675 -0.27352503
000040 e8 bb 5c 3e cb 53 f2 3d 75 d7 c7 3d d6 22 7d 3e
       0.21556056 0.118323885 0.09757892 0.2472032
000050 6c 21 56 3e da ac 5f 3e 7d c1 11 be 38 f3 80 3c
       0.20911187 0.21843281 -0.14233966 0.015740976
000060 bd ef a0 be dd f0 98 bd d8 da 71 3c 8e 96 b7 3d
       -0.31432906 -0.07467816 0.014761649 0.08964263
000070 e3 38 ac 3d 6c 46 17 be f1 08 2a be 7a f7 38 be
       0.08409288 -0.14772958 -0.16604973 -0.18063155
000080 76 b3 7d 3d 29 17 84 3e f9 ac e3 bd 19 d0 77 bd
       0.061938725 0.2579892 -0.11116976 -0.06050119
000090 c2 76 db 3d 41 4a 99 3d 61 33 e6 3d 86 72 0b bc
       0.10716011 0.07484866 0.112402685 -0.008511191
0000a0 38 bd 5e be c7 b1 ae bd e0 c5 24 be 02 a5 ef bd
       -0.21751869 -0.08530002 -0.16091108 -0.117013946
0000b0 92 1e 98 3d 4d 0e fa 3e f0 48 38 bc fe a2 82 3d
       0.07427706 0.48839036 -0.011247858 0.063787445
0000c0 3e 9a ec bc 1f b8 96 3e 67 d3 29 3e 5d f4 5f bd
       -0.028882142 0.29437348 0.1658455 -0.054676402
0000d0 e5 2d 2b bc a7 25 b2 be 7b da 52 be 2f 32 4b 3d
       -0.010447954 -0.3479435 -0.20591156 0.049608406
0000e0 8d 93 8b 3e 6b 73 2a 3d 25 8b 7a 3e d5 8d 46 3e
       0.2726101 0.041613977 0.24467142 0.19390042
0000f0 da 15 57 be cf d2 65 3e de 3b 8a 3e 71 93 83 3e
       -0.2100443 0.22443698 0.269988 0.25698426
000100 fb 0c d9 3c c1 cd c4 bd 4b 32 01 3d fe 81 2d 3e
       0.026495447 -0.09609557 0.031542104 0.1694412
000110 60 69 7f be c6 59 55 be a7 59 58 be bf 22 54 3e
       -0.24942541 -0.20835027 -0.2112795 0.2071638
000120 00 5f 49 3e 50 d7 33 bb 66 77 8f be f8 17 a9 3d
       0.19665146 -0.0027441569 -0.2802078 0.08256525
000130 a8 05 0b 3e ef eb 79 3d 9f 86 b7 bd a4 11 4e 3e
       0.13576376 0.06101602 -0.08961224 0.20123917
000140 c7 39 a8 bd ec a1 cf 3c f9 e6 28 be a8 b9 46 3e
       -0.08214145 0.025345765 -0.16494359 0.1940676
000150 90 95 6e be ab ef a2 3e 1a a5 5c be 7f f9 71 3e
       -0.23299241 0.31823477 -0.21547356 0.23630331
000160 cf 69 b9 bd eb 21 c8 bd 8d 00 4b bd 29 7f b7 3c
       -0.090533845 -0.09772094 -0.049561072 0.022399502
000170 ca ed 24 3d b6 07 94 bd 14 4f d2 bd bb cd 20 be
       0.040265836 -0.07228033 -0.10268989 -0.1570348
000180 9c f1 b6 bd 8a 0d ab bd e9 ab c9 bb 36 33 66 3e
       -0.08932802 -0.08352192 -0.0061545265 0.22480473
000190 29 29 13 be 94 2a 93 be 94 57 54 be 3a 66 70 bd
       -0.1437117 -0.28743422 -0.20736533 -0.05869124
0001a0 35 b0 66 3e 9c aa 47 3e ca 7c 63 3e b3 a6 82 3d
       0.22528155 0.19498676 0.22215572 0.063794516
0001b0 5c 35 5b be 3b 53 d4 3d 53 b0 74 3b e0 7d df bd
       -0.21407074 0.103674375 0.0037336543 -0.109126806
0001c0 a9 6e b0 3d d0 14 46 3e d5 8e 37 be 5b ba 71 3e
       0.08614857 0.19343877 -0.1792558 0.23606245
0001d0 39 c0 f0 bc bd 6c a6 3e 23 cf 32 bc 13 84 7e 3e
       -0.029388534 0.32504836 -0.010913643 0.2485507
0001e0 ff 24 30 be 85 b6 0f 3d 4b 4a 4e bd 57 45 f8 3d
       -0.17201613 0.035086174 -0.05036382 0.121226005
0001f0 9c 73 42 be 8c 64 cf bd 0d 9a d4 3c 6d 73 f3 3c
       -0.18989414 -0.101266 0.025952363 0.029718125
000200 b8 86 9d 3e 1a dd 3c 3d 6b b2 0f bd f6 d8 e2 3d
       0.30766845 0.046109296 -0.035082262 0.11076538
000210 19 6c 3f 3e 26 41 b8 3d 33 26 4c 3e 16 5b 8b bb
       0.1869358 0.08996801 0.19936447 -0.0042528016
000220 0a d8 81 be 5c e6 24 3e d5 d2 95 bc 9a 21 3c bd
       -0.25360137 0.161035 -0.01828901 -0.045930482
000230 b1 e6 ff bd 21 ca 8b bc 73 47 a2 3e fa 52 45 3e
       -0.12495173 -0.017064156 0.31695136 0.19269934
000240 7a 4f 98 3b 95 70 7e 3c f2 56 39 bd d9 8c 72 3e
       0.004648146 0.015529771 -0.045248933 0.23686542
000250 1b 24 ae bd 4a b3 71 3e 33 11 65 3d 04 07 ac 3e
       -0.0850298 0.2360355 0.055924606 0.33599102
000260 f0 20 d9 3d 9e c1 99 3b e0 fb ef 3d 63 9a 16 3d
       0.106019855 0.0046922704 0.11717963 0.03676833
000270 42 86 ab 3d d5 07 99 3e 1f c4 9c bd 36 72 36 3e
       0.08375217 0.29888788 -0.07654595 0.17817006
000280 51 b5 39 bd db 8b 2a 3e c4 a4 1d bd 08 72 15 bd
       -0.045338932 0.16654913 -0.03848721 -0.0364857
000290 e5 3e 97 3d 1a 1c d4 3d 8b 8b d3 bd 15 d5 af bc
       0.07385043 0.103569224 -0.1032935 -0.02146391
0002a0 93 ae ad 3d bd de 8e 3e 91 b7 04 3e 80 c2 19 3e
       0.08480563 0.2790431 0.1296065 0.15015602
0002b0 60 c6 87 bd 68 61 02 3c 88 3a 7d 3d e0 bc b5 3d
       -0.06629634 0.007957794 0.061823398 0.08873916
0002c0 1e ea b9 3d 1b df 96 3d 6f f4 34 3e 72 71 42 bd
       0.090778574 0.07366773 0.17671369 -0.04747147
0002d0 eb 1d 5d be fa 95 24 be 92 7f 2b 3e 40 93 76 be
       -0.21593444 -0.16072837 0.16747883 -0.24079609
0002e0 43 3b ed 3d f0 84 cc bd 7e 1e 40 bd 6b 8f 16 3e
       0.11583569 -0.09986293 -0.04690408 0.14703147
0002f0 ff 27 49 3e 15 e4 96 bc 68 b0 11 be 60 be 0a be
       0.19644164 -0.018419305 -0.1422745 -0.13549185
000300 92 16 13 be f2 05 3c be 39 fb 10 3c bb 35 15 bd
       -0.14364079 -0.18361643 0.008848959 -0.036428194
000310 e8 49 88 be fd 51 bc bd 24 8f f7 bd bf da 21 3e
       -0.26618886 -0.091953255 -0.12087849 0.15806101
000320 ee 73 8a 3e 1c d3 ff 3d 1d 96 3a be 9f e8 f7 bd
       0.27041572 0.12491438 -0.18221326 -0.12104916
000330 4c e1 fa 3d 93 79 01 be c6 10 0f 3e 97 c7 13 3e
       0.12250003 -0.12644033 0.13971242 0.14431606
000340 cb c3 e0 bd 1d 55 4d be ea ca 5e 3e 1b 41 7e 3e
       -0.109748445 -0.20052 0.21757093 0.24829523
000350 74 9a 82 be da aa 25 3e a1 96 0a 3e bd 68 a2 3e
       -0.25508463 0.16178456 0.13534023 0.31720534
000360 79 3a 96 3e d0 e2 2e 3e 6f ef 8a 3e ae e1 86 be
       0.29341486 0.1707871 0.27135798 -0.26344055
000370 b5 9b 8a be 06 f8 52 3e 51 45 a7 bd 1a 97 32 3e
       -0.2707192 0.20602426 -0.08167518 0.17440453
000380 bb 5a 79 3d 36 fc d8 3b a3 ae a9 be 5a 42 7b 3e
       0.060877543 0.0066218628 -0.3314105 0.2453703
000390 3b 4a 7e 3e 6a e7 5a be 7c a8 8a be 01 7b 9c 3d
       0.24833004 -0.2137734 -0.27081668 0.07640649
0003a0 51 db b6 be 03 aa 02 bb eb 68 4c be 0e f0 e8 3d
       -0.357142 -0.001993776 -0.19961898 0.11373912
0003b0 d6 fd 4d be 4e c2 c7 ba 2e 1f 1a 3d 23 dc 1d be
       -0.20116362 -0.0015240402 0.03762739 -0.15416007
0003c0 97 f1 99 3d 1c 88 87 bd e3 ff 5d 3e 36 c4 0f 3e
       0.07516783 -0.06617758 0.21679644 0.14039692
0003d0 b2 7b 55 be f3 eb a3 3d 02 82 4c 3e 40 ef 6b bd
       -0.20847967 0.08003988 0.19971469 -0.057601213
0003e0 d9 db 14 3e c4 68 54 3e 77 6a a9 3d 9e 4f b9 bd
       0.1453699 0.2074309 0.0827226 -0.09048389
0003f0 7a d8 88 be 19 17 37 be 94 cb 62 be 44 a6 55 bd
       -0.2672766 -0.17879905 -0.22147971 -0.052160516

fc4_adv.bias f4 [38]
000000 e9 85 47 3d 85 c9 b0 ba c3 e5 04 be 40 64 5e bd
       0.04871169 -0.0013487792 -0.12978272 -0.054294825
000010 ad 64 65 3d f9 d4 c1 3c 0f 43 6e 3e 42 3a 8d bc
       0.056004215 0.023661124 0.23267768 -0.017239694
000020 e8 14 97 bc 80 04 f4 3c 97 e2 e9 bd 7c 32 54 be
       -0.018442586 0.029787302 -0.11420172 -0.20722383
000030 42 e1 15 3e 8e b4 3d 3d ea 1d 3d bd 39 3c b4 3d
       0.1463671 0.04631477 -0.046171106 0.08800549
000040 59 4d c6 3d 5a 5b a2 3d 4b 9a 13 bd 6d 1a 04 be
       0.09682722 0.0792758 -0.036035817 -0.12900706
000050 1b a8 97 3d 6d 04 2c 3e 40 b2 34 3b c2 a0 fc 3d
       0.074051104 0.16798563 0.0027572066 0.123353496
000060 31 c8 aa 3c ae be 55 3d 52 4e c5 3d 76 4b 79 bd
       0.020847412 0.0521838 0.09634079 -0.06086298
000070 40 bd c3 bd 7b a0 17 3e 9c 96 3f 3d 62 ee ce bd
       -0.09557581 0.14807312 0.04677449 -0.10104062
000080 38 10 ed 3d 3c 6e f9 3d a5 94 c8 bd c6 28 41 3e
       0.11575359 0.12179229 -0.09793977 0.1886321
000090 ed 37 85 bd 5e 88 8d 3e
       -0.065048076 0.27643102

fc4_val.weight f4 [1, 76]
000000 52 a0 cf be 92 e8 c1 3e 8c 01 44 bf 67 1e 88 be
       -0.40552002 0.3787275 -0.7656486 -0.26585695
000010 ce 66 a2 3e 7a 94 df 3e 89 35 36 3e 7b 93 67 3e
       0.3171906 0.43667966 0.1779386 0.22614853
000020 0e 42 8e 3e 11 bd 55 3e 8b 0f 88 bf 60 fc 90 bf
       0.2778477 0.20872904 -1.0629743 -1.1327019
000030 ad 28 da be 87 67 87 3e 24 f9 c5 be 2b c0 3c bf
       -0.42609158 0.26446173 -0.38666642 -0.73730725
000040 dd 65 f1 be 64 d6 ba 3e 15 d5 9d be e0 d1 09 bf
       -0.47148028 0.36491692 -0.3082663 -0.5383587
000050 56 95 e6 be d2 c0 87 bf 37 96 d4 be 1d a3 4f bf
       -0.4503581 -1.0605719 -0.41520855 -0.81108266
000060 f5 d0 db be 91 7c db be 97 80 6d bf b7 00 04 bf
       -0.4293286 -0.42868474 -0.9277434 -0.5156359
000070 35 ad 99 3e a1 70 5f 3e 0d 8e 2b bf f7 20 92 3e
       0.3001496 0.21820308 -0.6701363 0.28540775
000080 c3 97 c0 be 2f 1d c0 be a2 fc f5 be fa 9a 63 3e
       -0.37615785 -0.37522265 -0.48044306 0.22227088
000090 0f 96 bf be 14 b1 cc 3e 39 0a a9 3e d0 89 05 bf
       -0.37419173 0.3997885 0.33015612 -0.5216341
0000a0 e0 d8 73 bf 83 d7 57 bf 6e f7 e6 3e d6 e9 f2 be
       -0.952528 -0.8431322 0.4511065 -0.47444028
0000b0 6c 18 5b bf 43 e0 81 3e 6b ba 80 be fa 0e 26 3e
       -0.8558414 0.2536641 -0.25142226 0.1621665
0000c0 f3 7d 49 3e 60 fd 59 bf 23 8f 34 3e 8c e6 54 bf
       0.19676952 -0.85152245 0.17632727 -0.83164287
0000d0 1e 10 70 bf 4a ac a5 3e 2f 71 44 3e bd 80 2b 3e
       -0.9377459 0.3235801 0.19183801 0.16748329
0000e0 40 8c 6b 3e c4 39 6a 3e d6 43 bf 3e ed 6e 6d 3e
       0.2300272 0.22873598 0.37356442 0.23186846
0000f0 b9 fa 1d bf 1f eb b5 3e 7e 6d 3e 3e 91 b0 62 bf
       -0.617107 0.35530946 0.18596455 -0.8855067
000100 9d 3f 62 3e 87 34 a0 be 25 d8 21 3e a2 11 d6 be
       0.22094579 -0.31290075 0.15805109 -0.41810328
000110 28 d5 85 be 09 5e d5 3e a1 7e c8 3e c6 0d f1 be
       -0.26139188 0.41673306 0.3915911 -0.4708082
000120 b4 4e cf be 81 10 a7 be e0 65 d2 3e cf 0a 97 3e
       -0.40489733 -0.3262978 0.4109335 0.29500434

exp_avg f4 [1, 6, 1, 4]
000000 2d f9 81 3b b6 24 75 be fb 23 e8 3d ff 47 dc bc
       0.0039664716 -0.23939785 0.11334988 -0.0268898
000010 11 de 84 3f 04 00 00 00 04 00 00 00 00 00 00 00
       1.0380269 6e-45 6e-45 0.0
000020 de f0 98 3e de f0 98 3e de f0 98 3e 30 ad cf bb
       0.29871267 0.29871267 0.29871267 -0.006337784
000030 8d 68 a0 bd 86 f8 2c bd 86 f8 2c bd 5d d3 15 3d
       -0.078324415 -0.042229198 -0.042229198 0.036578525
000040 9c 99 c7 3d ef c4 a4 3d ef c4 a4 3d b7 c0 e3 3c
       0.097460955 0.080453746 0.080453746 0.027801855
000050 04 00 00 00 04 00 00 00 04 00 00 00 00 00 00 00
       6e-45 6e-45 6e-45 0.0

exp_avg_sq f4 [1, 6, 1, 4]
000000 e5 eb 4c 42 4a 76 9c 40 a6 bb 20 3f b4 6a d1 3c
       51.230366 4.8894396 0.6278633 0.025563575
000010 87 d7 1d 43 fd 1a 02 37 69 6e 0d 22 00 00 00 00
       157.8419 7.7548875e-06 1.9167514e-18 0.0
000020 02 bf 15 40 02 bf 15 40 02 bf 15 40 5f 8b f9 3d
       2.3397832 2.3397832 2.3397832 0.12184786
000030 a4 8a 0a 3f c6 8e ee 3e c6 8e ee 3e 90 36 5f 3d
       0.541178 0.46593302 0.46593302 0.054495394
000040 ac 36 24 3f 75 53 19 3f 75 53 19 3f 40 a6 82 3d
       0.6414592 0.5989297 0.5989297 0.06379366
000050 2c 75 e0 34 2c 75 e0 34 2c 75 e0 34 00 00 00 00
       4.1808505e-07 4.1808505e-07 4.1808505e-07 0.0

exp_avg f4 [1, 6, 2, 4]
000000 02 44 4e bf f1 7d 82 bd 2b 0d 39 3c 8c e8 2e bc
       -0.8057252 -0.06371678 0.011294643 -0.010675561
000010 65 4a 0e bf 82 43 38 bd f1 bc 94 bc f6 d8 3f bc
       -0.5558227 -0.044986255 -0.0181565 -0.011709442
000020 24 bb 55 bf 57 29 bc bd e4 58 fb 3d b2 e0 02 be
       -0.8348868 -0.091875724 0.12272814 -0.12781027
000030 ae 30 44 bf bd 64 de bd d1 fa cc be ce 64 95 be
       -0.7663678 -0.10859058 -0.40035108 -0.2917847
000040 95 88 62 3e 95 88 62 3e 95 88 62 3e e1 3b f8 bc
       0.22122414 0.22122414 0.22122414 -0.03030199
000050 68 d4 5c bd 68 d4 5c bd 68 d4 5c bd ce be 2e bb
       -0.053913504 -0.053913504 -0.053913504 -0.0026664021
000060 bf 6b 75 be 31 83 3b be 31 83 3b be 08 f9 fd bc
       -0.23966883 -0.18311764 -0.18311764 -0.031002536
000070 58 03 4f be 32 29 25 be 32 29 25 be 28 06 c3 bc
       -0.2021612 -0.16128996 -0.16128996 -0.023806646
000080 62 92 eb 3d 35 16 a1 3d 35 16 a1 3d e2 d7 bd 3c
       0.1150253 0.07865564 0.07865564 0.02317423
000090 3f b7 a0 3b 39 9d c4 bc 39 9d c4 bc 13 82 80 3b
       0.004904657 -0.02400075 -0.02400075 0.003921756
0000a0 44 71 65 bd 54 88 1b bd 54 88 1b bd e1 b2 77 bc
       -0.05601622 -0.03797181 -0.03797181 -0.015118332
0000b0 bc 93 8e 3d cf 76 92 3d cf 76 92 3d 03 11 f0 bb
       0.06961772 0.07151567 0.07151567 -0.0073262467

exp_avg_sq f4 [1, 6, 2, 4]
000000 af 46 bc 40 a3 2a 6e 3f ef 22 f7 3d fa ba 24 3b
       5.8836284 0.9303381 0.1206721 0.002513586
000010 d7 7e d1 40 90 a0 54 3f de 18 c8 3d 62 fb 01 3b
       6.5467334 0.830575 0.09770368 0.0019833674
000020 d0 e2 8c 42 46 40 db 41 72 01 b6 40 92 fe d8 3e
       70.44299 27.406384 5.6876764 0.42381722
000030 58 73 84 42 59 09 a3 41 17 11 3c 3f cc ad 1b 3e
       66.22528 20.379564 0.7346358 0.15203017
000040 96 e8 c2 3e 96 e8 c2 3e 96 e8 c2 3e a4 c0 eb 3c
       0.38068074 0.38068074 0.38068074 0.028778382
000050 8a e5 db 3d 8a e5 db 3d 8a e5 db 3d 41 ac ad 3c
       0.107371405 0.107371405 0.107371405 0.021200301
000060 83 5e 4f 3e 42 e7 26 3e 42 e7 26 3e d2 ac 91 3c
       0.20250897 0.16299155 0.16299155 0.017782602
000070 43 e7 82 3e 96 27 76 3e 96 27 76 3e 12 92 13 3c
       0.25567064 0.24038538 0.24038538 0.009006994
000080 85 c7 07 3e b7 c5 fa 3d b7 c5 fa 3d 16 44 4e 3b
       0.13259704 0.12244742 0.12244742 0.0031473688
000090 e1 b1 5b 3e 9f e5 4e 3e 9f e5 4e 3e 10 45 1b 3c
       0.21454574 0.20204781 0.20204781 0.009476915
0000a0 42 bc 6d 3e 1e ab 67 3e 1e ab 67 3e 3e 55 76 3b
       0.23216346 0.2262387 0.2262387 0.003758743
0000b0 3b b7 90 3e 13 53 8e 3e 13 53 8e 3e ab c4 99 3b
       0.28264794 0.27797756 0.27797756 0.004692634

exp_avg f4 [1, 6, 3, 4]
000000 9d 86 d8 be bb 03 b7 bd d3 da 6e bc 23 b4 b4 3b
       -0.42290202 -0.089362584 -0.014578539 0.005514638
000010 07 5b 05 bf 11 9e 43 be 12 95 4a 3c a8 0f 4f 3c
       -0.5209202 -0.19103266 0.012364643 0.01263801
000020 ae b4 7d be bc 12 33 be 93 01 c4 bd 60 5d e6 3b
       -0.24775955 -0.17487615 -0.09570613 0.007030174
000030 2f 1c 4d bf dc 0b 57 be 46 b0 7b be 2e a4 75 be
       -0.8012113 -0.21000618 -0.24578962 -0.23988411
000040 24 cf 70 bf 5c 64 3c bf 12 f2 d3 be 13 76 60 be
       -0.9406607 -0.73590636 -0.41395622 -0.21920042
000050 ec e8 7f bf 61 1d 69 bf bf d3 b8 be 53 79 74 be
       -0.99964786 -0.91060454 -0.3609905 -0.23874407
000060 0e a3 12 bd 11 a3 12 bd 10 a3 12 bd 70 1a 25 bd
       -0.035800032 -0.035800043 -0.03580004 -0.040308416
000070 0d cb 6d 3c 15 cb 6d 3c 19 cb 6d 3c d1 61 9e bc
       0.014513743 0.014513751 0.014513754 -0.019333752
000080 29 0e df bd 27 0e df bd 25 0e df bd a7 da 17 bd
       -0.10891373 -0.10891371 -0.1089137 -0.037073757
000090 d4 fa 88 bd d2 e5 6f bd d1 e5 6f bd c2 4e 62 ba
       -0.06688467 -0.058568783 -0.05856878 -0.00086329516
0000a0 a4 15 53 3c c9 93 a1 3c d2 93 a1 3c 83 40 6a 3c
       0.0128835775 0.01972379 0.019723807 0.014297607
0000b0 ee 69 d2 bb 4c 33 b4 3b 5d 33 b4 3b ba 45 90 bc
       -0.006421319 0.005499279 0.005499287 -0.017611373
0000c0 1b bd 1e bd 8a 88 0f bd 8c 88 0f bd c3 57 6a 3b
       -0.038754564 -0.035042323 -0.03504233 0.0035757876
0000d0 f1 c4 fa 3c 95 ff e7 3c 96 ff e7 3c bf f7 48 3b
       0.030611487 0.028320113 0.028320115 0.0030665246
0000e0 76 60 0d bb d3 29 29 3b b0 29 29 3b 7d d2 8b 3c
       -0.0021572388 0.0025812283 0.0025812201 0.017068142
0000f0 4a 1e c8 3b cf de cf 3b d5 de cf 3b 35 a6 cd 3a
       0.0061071264 0.0063436995 0.0063437023 0.0015689792
000100 13 a9 d0 bc d1 47 fe bc d1 47 fe bc c9 b6 01 39
       -0.025471246 -0.031040104 -0.031040104 0.00012370491
000110 34 ac b2 bd f7 25 cf bd f7 25 cf bd cf 1c 01 3b
       -0.087242514 -0.10114663 -0.10114663 0.001970101

exp_avg_sq f4 [1, 6, 3, 4]
000000 a1 72 85 3f bf 78 35 3e 2f 79 fc 3c 43 db 62 3a
       1.0425607 0.17721842 0.030819504 0.00086538884
000010 86 58 94 3f 92 3a 4c 3e de ec 0b 3d 50 6f 14 3a
       1.1589515 0.19944218 0.03416144 0.0005662339
000020 7f 9c 8d 3f 0b 59 66 3e 55 4e 28 3d d6 4e 3e 3b
       1.1063384 0.22494905 0.04109033 0.002903869
000030 96 0e 87 41 b1 22 06 41 8d 1f 17 40 39 ea d3 3e
       16.882122 8.38347 2.3613007 0.41389635
000040 60 e2 82 41 a0 56 f6 40 ac 92 0c 40 ee aa c6 3e
       16.360535 7.6980743 2.1964521 0.38802284
000050 10 26 86 41 30 e2 fc 40 35 db 13 40 ec 76 db 3e
       16.768585 7.902611 2.3102543 0.42864168
000060 d0 e4 45 3e d0 e4 45 3e d0 e4 45 3e 68 c3 0a 3c
       0.19325566 0.19325566 0.19325566 0.00846944
000070 7c db 10 3e 7d db 10 3e 7e db 10 3e c9 c2 f2 3b
       0.14146227 0.14146228 0.1414623 0.007408474
000080 7e 29 32 3e 7d 29 32 3e 82 29 32 3e 61 da 07 3c
       0.1739864 0.17398639 0.17398646 0.008291812
000090 7f 87 4f 3d f5 e6 43 3d f7 e6 43 3d 0c b3 79 3b
       0.05066633 0.04782768 0.047827687 0.0038101105
0000a0 4b 4c 6c 3d fa 1e 60 3d f8 1e 60 3d bf 52 fd 3a
       0.057689946 0.05471704 0.054717034 0.0019327028
0000b0 07 ba 28 3d d7 05 18 3d d7 05 18 3d d5 18 5a 3b
       0.041193034 0.037114944 0.037114944 0.0033278961
0000c0 d6 da f1 3c 78 71 e2 3c 78 71 e2 3c b7 e2 96 3a
       0.029523294 0.027641997 0.027641997 0.0011511658
0000d0 9c a1 37 3d a8 24 27 3d a9 24 27 3d 79 7f 0c 3b
       0.044831857 0.040806442 0.040806446 0.0021438284
0000e0 d3 44 57 3d 98 32 49 3d 98 32 49 3d 84 40 2c 3b
       0.05255587 0.049120516 0.049120516 0.0026283571
0000f0 64 81 51 3d 22 a0 45 3d 23 a0 45 3d d7 cb 1b 3b
       0.051148787 0.048248418 0.04824842 0.002377262
000100 40 6e 27 3d 92 8c 1a 3d 91 8c 1a 3d c3 77 7b 3a
       0.040876627 0.037731715 0.03773171 0.0009592736
000110 f7 6e 44 3d 84 0e 33 3d 82 0e 33 3d 20 71 ef 3a
       0.047957387 0.043715015 0.043715008 0.0018267967

exp_avg f4 [1, 6, 4, 4]
000000 99 ef 8b 3d 43 97 21 bd 30 ff 04 3e 2c 5f 62 bc
       0.06832809 -0.039450895 0.12987971 -0.013816636
000010 12 fc 02 3f 0a 39 68 3d 96 5e 17 3e b8 7a 57 bc
       0.5116588 0.05669502 0.14782175 -0.013151817
000020 15 a9 9d 3e 49 93 f6 bc af 01 ec bc c6 0c 97 bc
       0.30793062 -0.030099528 -0.028809397 -0.018438708
000030 d9 56 5b 3e 1d b6 af 3d fe 0b dc 3a 2b ef 65 bc
       0.21419849 0.08579657 0.0016788242 -0.014034073
000040 30 37 6e 3f 1c 12 7a 3f d8 23 7b 3e 6e 2b 20 be
       0.9305296 0.9768388 0.24525392 -0.15641567
000050 47 1a 52 3f 7d 62 11 3f 9c bc 73 3e 31 e1 35 be
       0.82071346 0.56790906 0.23802418 -0.17761685
000060 62 26 89 3f b0 cb 39 3f 66 fc 62 3e 52 c6 f4 bb
       1.0714839 0.7257643 0.22166595 -0.0074699307
000070 2a 9d 32 3f f6 42 47 3f f4 46 e1 3d 7f 61 9e be
       0.69771063 0.7783655 0.10999861 -0.3093376
000080 f8 3d ac 3d ed 3d ac 3d f6 3d ac 3d f0 35 17 3c
       0.08410257 0.08410249 0.084102556 0.009229168
000090 c3 11 31 3e c5 11 31 3e c6 11 31 3e 50 bc ab 3c
       0.17291932 0.17291935 0.17291936 0.020963818
0000a0 f7 be f3 3d f3 be f3 3d f6 be f3 3d 29 c5 b7 bb
       0.11901658 0.11901655 0.11901657 -0.00560822
0000b0 a0 20 c7 bd a6 20 c7 bd a3 20 c7 bd 57 28 1d bd
       -0.097230196 -0.09723024 -0.09723022 -0.03836855
0000c0 fb 52 21 3d 86 02 d9 3d 85 02 d9 3d dc 63 95 3c
       0.039385777 0.105961844 0.10596184 0.018236093
0000d0 1d 82 d4 3c 2a 30 be 3d 2b 30 be 3d e0 ce 04 3d
       0.02594095 0.0928653 0.09286531 0.032423854
0000e0 8c 0e f2 bd 48 ee 32 bd 46 ee 32 bd 20 13 93 3b
       -0.11819181 -0.043684274 -0.043684267 0.004488364
0000f0 e2 97 18 be 3f ea a3 bd 3e ea a3 bd 6e e6 86 3c
       -0.14901689 -0.08003663 -0.080036625 0.0164673
000100 6e ad 45 bc fc 99 b7 bc 00 9a b7 bc 60 d3 ff bb
       -0.012065275 -0.022412293 -0.0224123 -0.0078071803
000110 94 f8 a4 bc 1c d9 3c bd 1e d9 3c bd 3f 62 83 3c
       -0.020138063 -0.04610549 -0.046105497 0.016038058
000120 2c 44 d9 3c 7b 64 68 bc 99 64 68 bc 94 1a 72 3c
       0.026521765 -0.014184113 -0.014184141 0.0147768445
000130 1e 01 f3 bc 15 e3 89 bd 18 e3 89 bd 64 17 39 bc
       -0.029663619 -0.067327656 -0.06732768 -0.011297081
000140 8b be ba bd 1f 19 24 bd 24 19 24 bd e4 75 8f bb
       -0.091183744 -0.04006302 -0.04006304 -0.0043780673
000150 a9 47 96 bc e8 14 d4 3c d9 14 d4 3c 69 69 e3 bc
       -0.018344717 0.025888875 0.025888847 -0.027760224
000160 da 3f f6 bd 4b 66 b4 bd 4b 66 b4 bd 1d ab ab bc
       -0.120238975 -0.08808573 -0.08808573 -0.020955617
000170 98 39 27 bd 49 85 2f bc 41 85 2f bc 19 8b e9 bc
       -0.04082641 -0.01071293 -0.010712923 -0.02850871

exp_avg_sq f4 [1, 6, 4, 4]
000000 06 50 51 41 3a 7f 8b 3f 6d 51 29 3e 7e 1a d7 3b
       13.082037 1.0898201 0.16534968 0.0065644374
000010 a8 64 37 41 28 00 72 3f 8a e9 dd 3d 6a 81 f7 3a
       11.462074 0.9453149 0.1083556 0.0018883173
000020 40 81 48 41 e2 be 81 3f 2a 76 f8 3d 5a 8f 4c 3b
       12.531555 1.0136378 0.12131913 0.0031213374
000030 f5 48 3f 41 eb 4c 88 3f 57 99 0e 3e 0a a6 92 3b
       11.955312 1.0648474 0.13925682 0.00447536
000040 b5 52 26 43 f6 7c 92 42 1a 65 84 41 bd 8f ae 3f
       166.32307 73.244064 16.549366 1.3637615
000050 bc ec 2a 43 3d bb 9b 42 b2 18 96 41 e1 05 fb 3f
       170.92474 77.8657 18.762058 1.9611169
000060 c8 db 27 43 b2 35 92 42 00 21 83 41 09 2a ba 3f
       167.85852 73.10487 16.391113 1.4544078
000070 cc f9 26 43 18 0f 98 42 e7 e8 84 41 e0 93 bb 3f
       166.97577 76.02948 16.613722 1.4654503
000080 a4 64 6b 3f a2 64 6b 3f a3 64 6b 3f c3 57 cf 3c
       0.9195044 0.9195043 0.91950434 0.025310403
000090 04 3a 7b 3f 02 3a 7b 3f 02 3a 7b 3f cf e4 e4 3c
       0.981354 0.9813539 0.9813539 0.027941136
0000a0 11 18 72 3f 11 18 72 3f 13 18 72 3f 49 94 f7 3c
       0.9456797 0.9456797 0.94567984 0.030222075
0000b0 d2 cc 6a 3f d0 cc 6a 3f d3 cc 6a 3f 61 cb d8 3c
       0.9171878 0.9171877 0.91718787 0.026464166
0000c0 e4 58 ac 3e 55 e2 90 3e 55 e2 90 3e 97 aa 6b 3c
       0.33661568 0.28297678 0.28297678 0.0143839335
0000d0 57 4a 9a 3e bb 4b 82 3e ba 4b 82 3e bf be 68 3c
       0.30134842 0.25448403 0.254484 0.014205634
0000e0 a6 81 99 3e 17 f7 7f 3e 19 f7 7f 3e 83 68 43 3c
       0.29981726 0.24996601 0.24996604 0.011926773
0000f0 5d 64 97 3e 9b 57 78 3e 99 57 78 3e 58 f7 21 3c
       0.2956876 0.24252169 0.24252166 0.0098856315
000100 23 28 89 3e bb 74 70 3e bb 74 70 3e 23 0b 1a 3c
       0.26788434 0.23482029 0.23482029 0.009402069
000110 29 44 84 3e 01 cb 6a 3e 04 cb 6a 3e 0f 99 16 3c
       0.25833252 0.22929002 0.22929007 0.009191765
000120 fd e2 86 3e ca 8e 76 3e c8 8e 76 3e 33 38 e3 3b
       0.26345053 0.24077907 0.24077904 0.0069341897
000130 94 28 75 3e a5 a9 63 3e a2 a9 63 3e c3 51 31 3c
       0.2394126 0.22232683 0.22232679 0.010822716
000140 3c bd 89 3e 62 27 82 3e 62 27 82 3e a6 5e f3 3b
       0.26902187 0.25420672 0.25420672 0.0074270545
000150 c0 28 6f 3e ae d9 62 3e ae d9 62 3e 21 00 d4 3b
       0.23355389 0.2215335 0.2215335 0.006469742
000160 e1 5b 87 3e 39 29 80 3e 39 29 80 3e 2a 31 c8 3b
       0.26437286 0.2503145 0.2503145 0.0061093764
000170 07 5a 8f 3e 56 c4 89 3e 55 c4 89 3e fb bf 70 3b
       0.27998373 0.26907605 0.26907602 0.0036735523
