TrainedModel/Dueling DQN-2/3300_0-11_DuelingDQN.pth (torch, 291221 bytes, 33 tensors)

conv1.weight f4 [1, 6, 1, 4]
00000000: 7c02 43bc 3307 973d 1bbf 253e d952 163e
00000010: d6bb 8cbe edcc 00bf 5b75 653c ea2d 4a3e
00000020: 605f 16bc 48bd b33e 3f09 96be 3586 0d3e
00000030: cfae 2a3e af73 b53d 3858 73be 7db7 b0bc
00000040: 19dc 333e c5f6 d8be 4a9c 913e 64e8 343e
00000050: d886 d7be fa7f 5fba 8983 9e3d 3ca6 ccbe
-0.011902448 0.0737442 0.16186182 0.14680041 -0.27487057 -0.5031269 0.0140050305 0.19744077
-0.009178013 0.35105348 -0.2930393 0.13820727 0.16668247 0.088599555 -0.23764122 -0.021571869
0.1756443 -0.4237577 0.28439552 0.17666775 -0.42095065 -0.0008525845 0.07739932 -0.39970577

conv2.weight f4 [1, 6, 2, 4]
00000000: 5172 d33e 1cb1 fbbd 1463 33be 0329 573e
00000010: e8e7 353f 9297 91be bb9c 9e3d 470f cfbb
00000020: 97b9 1bbd 2681 26bc f357 59bd 4bf5 f7bc
00000030: 0f76 983d 2c7e 17be bdd6 d2bd aaf0 ff3b
00000040: ddad 553e fc02 82bd 457a 83be 267a a13e
00000050: 6777 55be 42e5 dfbd 8782 6abb d4bf 803e
00000060: f8d4 213e 554f bdbc f9e3 45be ded5 993e
00000070: 013c 7e3e e05b 31be 3c74 a03d 2148 89be
00000080: b402 8fbe 4de3 a93e a5a8 8abe a28c 9dbe
00000090: 1273 d63d 13c8 dc3d 8efd 70bd b1bf c7bd
000000a0: 2129 9e3b ab2f 1fbe ca08 3b3e f8e0 60bd
000000b0: b1a1 613d 5c91 c2bd d440 cc3d c502 163e
0.41298154 -0.1228964 -0.17518264 0.21011738 0.71056986 -0.2843595 0.07744738 -0.00631896
-0.03801879 -0.010162627 -0.05306239 -0.030268332 0.07444393 -0.14794225 -0.10294864 0.007810672
0.20867105 -0.063482255 -0.25679222 0.31538504 -0.2084633 -0.10932399 -0.0035783367 0.25146353
0.15803897 -0.023109118 -0.19325246 0.3004598 0.24827577 -0.17320204 0.0783467 -0.26812842
-0.2793175 0.3318123 -0.2708179 -0.30771357 0.10471167 0.10780349 -0.05883556 -0.09753359
0.0048266803 -0.15545528 0.18265072 -0.054902047 0.05508584 -0.09500381 0.099733025 0.14649494

conv3.weight f4 [1, 6, 3, 4]
00000000: 2504 f83e ff88 3d3e 8fc6 5bbd 6dca 193f
00000010: 5f52 8a3e dd54 cd3e 8a71 6e3c fc0b 293e
00000020: f5ec f83e 5572 2b3f 00f1 7e3e 9b88 473e
00000030: 92e2 393e 1404 693e ef37 393e 532b b93d
00000040: e43e 8b3c d241 cd3c 80f6 07bd b761 a83d
00000050: d7c6 48bd 046f 313e 39a2 443e 133b 5d3e
00000060: 3a20 8f3d 75e8 6dbe 4620 12be e9d7 123f
00000070: 94d4 35be a4f2 32bb 2a69 56be 7850 b03e
00000080: 7321 103e 8c38 0e3e f65d 07bc 9942 023e
00000090: 5b54 013e 595f 8e3d 831e 3d3d 5076 b73d
000000a0: 0fa7 0f3e 453c 7b3d 8cc8 e8bd d04b 2a3c
000000b0: 781d e7be ceb2 50be e9d6 e3bb f4c4 9b3e
000000c0: 4e3c 77be 4afd 203e f286 9fbc 5040 2fbc
000000d0: af55 96be 83e2 a5be bc58 363c ef00 cdbe
000000e0: 156d 1e3e b003 b63e c8e3 a33b 4b71 81be
000000f0: 362c 473d bac0 47bd f637 cb3d 0050 b1be
00000100: 6a9b dabc 2409 a33d 49a7 40be 0579 2fbd
00000110: 6960 4fbc 85d0 8a3c f2c1 f2bd 5a73 0ebe
0.48440662 0.18509291 -0.053656157 0.600745 0.2701597 0.40103808 0.014553437 0.16508478
0.48618284 0.6697133 0.24896622 0.19485705 0.18152836 0.22755462 0.18087743 0.090414666
0.016997762 0.0250558 -0.033194065 0.082217626 -0.049017753 0.17327505 0.19202508 0.21604566
0.069885686 -0.23233207 -0.14270124 0.573607 -0.17756873 -0.002730527 -0.20938554 0.34436393
0.1407526 0.13888758 -0.008262148 0.12720717 0.12629835 0.0695178 0.046171676 0.08958113
0.14028572 0.061336774 -0.11366376 0.010394052 -0.4513967 -0.20380709 -0.0069531095 0.304237
-0.24144098 0.15721622 -0.019473527 -0.010696486 -0.29362246 -0.32399377 0.011129554 -0.40039775
0.15471299 0.35549688 0.005001519 -0.25281748 0.048626147 -0.048767783 0.09922783 -0.34631348
-0.026685435 0.07960728 -0.18813814 -0.042840023 -0.012657263 0.016945133 -0.118533984 -0.1391119

conv4.weight f4 [1, 6, 4, 4]
00000000: b704 4c3e 5cda d0bd dac1 13be 8995 63bd
00000010: fa07 27be 50ec 2dbe 0e21 40be 3f11 483e
00000020: bf3a 833c 89d5 1fbe 2734 c13b 385c c4bd
00000030: dda1 403e 9545 173d 0be5 d1bc dc2c 353e
00000040: aa74 5f3e c362 58bd 7902 d8bd fa82 75be
00000050: f4f7 9c3e e819 123e 993d 61bd e085 4cbe
00000060: 0bf9 88bd fc01 24be 69c2 22be a0aa 61be
00000070: dbf6 803d bdf9 373e 06b6 46be 915f 4dbe
00000080: 756f e0bd ce20 1c3e 57eb 0a3e 9255 c8bc
00000090: 1a44 7a3d 39ab be3c fcfb e93c dfe7 01be
000000a0: aa77 d63c 1a0e f13c 9d9e e63d b59f edbc
000000b0: 4a38 cabb f11f 8b3e f385 b5bd 5be5 613e
000000c0: 675f 50bd f9dc ee3d 76ba 62be 3972 59be
000000d0: 28f8 5d3d e496 353e 8bae 693e 9646 61bd
000000e0: 9f4b 8dbd 06ee 09bc c394 903e 7b37 edbd
000000f0: 5289 843d 28de b0bd 264b 893c e841 98be
00000100: e21d 73bd 4e01 323e acc2 c23c 86d4 5ebe
00000110: e8fb 5e3e 48ef cfbd 0fab cb3d 0f84 21be
00000120: fa83 7bbc c49f 02bd fcf4 153e a62d c2be
00000130: 726a 61be 632a 953d 179c 113d edb4 cfbd
00000140: 6c5c c03e 94ae ec3b f057 94bb 7472 883d
00000150: fc3b 5c3c bf8c b33d bab1 11bd b076 733d
00000160: 296f 5ebd 2367 5d3e 229b 0bbe aeb4 053c
00000170: a380 a4bd 1d2b c4bd d40e 073d c225 a5be
0.19923674 -0.10197899 -0.14429417 -0.05556253 -0.16311637 -0.16984677 -0.1876261 0.19537829
0.016019223 -0.15608801 0.0058961096 -0.09587902 0.18811746 0.036931593 -0.025621912 0.17692894
0.21821848 -0.05282856 -0.105473466 -0.23975745 0.30657923 0.14267695 -0.054990385 -0.19972944
-0.06688126 -0.16016382 -0.15894474 -0.22037745 0.06297084 0.17966361 -0.19405374 -0.20055987
-0.10958759 0.15246889 0.13566338 -0.024454866 0.061100103 0.023275005 0.028562538 -0.12686108
0.026180107 0.02942567 0.11260722 -0.029006818 -0.006171261 0.27172807 -0.088634394 0.22060148
-0.050872233 0.11663241 -0.22141442 -0.21234979 0.05419174 0.17733341 0.22820489 -0.054998957
-0.06899189 -0.008418566 0.28238496 -0.11582848 0.06471504 -0.08636123 0.016759466 -0.29737782
-0.05935467 0.1738331 0.023774467 -0.21760759 0.21775782 -0.10153061 0.09944736 -0.15773033
-0.01535129 -0.031890646 0.14644235 -0.37925452 -0.22013262 0.07283475 0.03554925 -0.10141931
0.37570512 0.00722296 -0.0045270845 0.06662455 0.013442036 0.087670796 -0.035569884 0.05943936
-0.05430523 0.21621375 -0.13633397 0.008160753 -0.08032348 -0.09578536 0.032973126 -0.3225537

fc3_adv.weight f4 [76, 130]
00000000: bf11 c6bd e897 a63e 7ccd d13e ed76 be3d
00000010: 1ea8 7b3e d76a 2d3e 81b8 fb3e 7fde b13e
00000020: e44e b33e 9d27 963e a542 8a3e 8c8b ec3d
00000030: f1dc 013b c7f9 713e 8334 ca3e b962 d13e
00000040: 43be 5f3e b553 c63e 2254 d43e 4f13 bb3e
00000050: 51ac 1d3f 4a68 9e3e 74dc ab3e c988 463e
00000060: da6f 7e3e e93b 6b3e e34f 523e 057f 923e
00000070: 1c44 c73e 626b a53c 867a 5b3e 1f5b 163e
00000080: 6567 3c3e dac4 de3e 7222 fcbd d175 acbd
00000090: d4b2 10be 47f4 283e b163 06bd 4cd1 bfbd
000000a0: 60db f63d 42f4 7dbb efcf 863d 5353 c23b
000000b0: be12 cf3c 41cc 2fbe 533d 06be e5cd d13d
000000c0: 1bd1 503e 76b8 1d3e 29f6 533d 5407 85bd
000000d0: 5eaf 48bd b7be ac3e e424 1b3d 931e aebd
000000e0: 6870 92bd 0f8e 513e 0291 163d 2da8 a43d
000000f0: e09a 3c3e 0791 463e fe4b 3bbe e8dd 6ebc
00000100: e1f3 9b3e ab88 4ebc 3349 843d 929f 46be
00000110: 9978 fbbc 92e9 c7bc dbfe 82be 84c6 b3bd
00000120: 64e3 72be 8eb8 cf3d 2c08 12be d0bf 8b3d
00000130: 7cd1 093d 4372 31bd 368f 53be 5c58 9bbd
00000140: e551 433e 15f7 65be 48df ef3d 1083 eebd
00000150: 5bce 39bd 1791 6f3c 6307 5bbd 2e05 42be
00000160: c1b6 fbbd 6521 92be ca7d 113e b8ba 41bd
00000170: 105b e23c 04fe 3ebc dd2a 0cbe 3358 ef3c
00000180: 8c33 1cbd 437f c2bb e940 a1bd 8532 b53d
00000190: a8ca 0e3e c548 403d b9e0 bc3e 6850 803e
000001a0: 6617 343e 26bf 1d3d ebda 193e de59 8a3d
000001b0: 8d13 8e3e 5f2e 99bc 2191 073e 4a9b 8e3e
000001c0: 07d8 4c3e 0926 793e 6bcc a23e daa7 953d
000001d0: 7e97 8a3e 83aa 943e 8ed5 0c3e 771e d63e
000001e0: 0531 3e3e 041b 193e d718 d73d fef7 403e
000001f0: cff3 623e 5954 cb3d a235 903e 7314 5d3d
00000200: b78b 873e 7c44 573e ad5c b13c b9f5 a03e
00000210: 9e26 4a3d 8c9f 663e 0d50 ce3d ccf3 4d3e
00000220: bf1c 7b3d ee01 973e f140 4cbe 8f86 043c
00000230: 265b 55bd 92d0 bc3e d3c5 fb3e 5a77 b93e
00000240: 6bab b1bc 5d1e 15bc 1f41 883e 672b 9e3d
00000250: bd44 863c 0dac 153e b68d 46be b5e4 49bc
00000260: ed09 7cbd 1b7e 14bb b5f2 00be 827b 2b3e
00000270: f220 ccbc accb 9bbd 90bb 6a3e 1a6c 54bc
00000280: 2ee2 f3bd 7910 f53e 1407 553e 352d fe3d
00000290: 4cb1 db3d 0a61 703e d6ac 7b3e 252b 9b3e
000002a0: 663b 233e f3b1 173e f7ad afbd 58bf 62bd
000002b0: d08b aebd edf5 0e3e 5cf7 f63c b2cc 8a3e
000002c0: 40e7 473e 9e05 893e 8178 143e 24e7 be3e
000002d0: d505 9fbd 891f 48be ed4a 81be 2669 403e
000002e0: 75d0 cb3d 480f b3bd ea79 edbd 9e17 eebd
000002f0: aef2 54bd 1e0f 86be 6500 e43c 2f05 0139
00000300: 91b2 4fbe 0fa5 cb3d f6ca 88bd 3197 2fbd
00000310: 882d a93c 7716 4d3d a1e2 bb3d a5aa 843d
00000320: e45a d7bd d00e cf3d 37e0 2dbe 944a 58be
00000330: 76a0 cfbc 8a2e 6cbd ee8e 443e 37f0 643d
00000340: 7a44 903d 0609 dc3d 1a91 fc3d 1ce1 163d
00000350: 803c 9abd d29a 48be adb1 48be 5343 503d
00000360: d97f 83bd d3a0 ff3c 9400 37bd 90b0 8fbe
00000370: f4f7 2dbe ac6e ff3b f64e 7ebd 8c15 283c
00000380: 7589 183e 692b 03be d653 813e 0b88 f63d
00000390: 3e6f 453d ea08 993e 9e3e 963e 9407 f73d
000003a0: bf84 863d b40e cebc b3d4 5a3e cbda 5d3e
000003b0: e716 a53d c9d6 6e3e 72d3 e13c b607 a63d
000003c0: b52a 2a3e 4ee7 93bd 1f9b 81bc 6949 5d3e
000003d0: 23b8 53bd 3c1f 5abc c16d 843e 2c0c 1c3e
000003e0: 5646 043e acfe 553d a43e d73b 17d6 9d3c
000003f0: 93f7 ed3c 2e4e d4bd 4aa8 113e a1e7 2c3e
-0.096713535 0.3253777 0.40977085 0.09300027 0.2457585 0.16935287 0.49164203 0.34740064
0.35021126 0.29327098 0.2700397 0.11550054 0.001981553 0.23630439 0.39493188 0.40895632
0.21849923 0.38735738 0.41470438 0.3653817 0.6159106 0.3093894 0.3356663 0.19388117
0.24847355 0.22972073 0.20538287 0.28612533 0.3891915 0.020192806 0.21433458 0.14683197
0.18398817 0.4350956 -0.123112574 -0.08420909 -0.14130718 0.16499434 -0.032809917 -0.09366092
0.12053561 -0.0038750325 0.06582629 0.005930343 0.025277492 -0.1716776 -0.13109331 0.102443494
0.20392267 0.15402398 0.05174843 -0.06495538 -0.04899537 0.33739254 0.03787698 -0.08501925
-0.07150346 0.20464347 0.036759384 0.080398895 0.18418455 0.19391261 -0.18290707 -0.014579274
0.30459502 -0.012605826 0.06459274 -0.19396809 -0.030697154 -0.024403367 -0.25585064 -0.08778098
-0.23719555 0.10142623 -0.1426093 0.06823695 0.033647045 -0.04332186 -0.206601 -0.075852126
0.19074209 -0.22457536 0.117125094 -0.11646092 -0.04536281 0.014621994 -0.05347384 -0.18947288
-0.12290717 -0.28541103 0.14208141 -0.04729721 0.027631313 -0.011657242 -0.13688226 0.029216861
-0.038135096 -0.005935581 -0.07873709 0.088475265 0.13944495 0.0469444 0.368902 0.25061345
0.17587051 0.03851237 0.15024917 0.06755422 0.2774929 -0.01869887 0.13238956 0.2785285
0.20004283 0.24330916 0.31796584 0.07307406 0.27068704 0.2903634 0.1375334 0.41820118
0.18573387 0.14951712 0.10502785 0.18844602 0.22163318 0.099281974 0.2816592 0.05397458
0.2647378 0.21022218 0.021650637 0.31437472 0.049353234 0.225218 0.10073862 0.20112532
0.06130671 0.2949366 -0.19946648 0.008088722 -0.05208888 0.36877877 0.49174365 0.3622387
-0.021688184 -0.009101477 0.26612183 0.07723122 0.016390199 0.14616413 -0.19389996 -0.012322594
-0.061532903 -0.0022658173 -0.12592585 0.16746333 -0.024918053 -0.07607207 0.22923112 -0.012965227
-0.11908375 0.4786413 0.20803481 0.12410966 0.10727176 0.23474517 0.2457765 0.30306354
0.15940627 0.14813976 -0.08578103 -0.05535826 -0.08522761 0.13961 0.030147247 0.27109295
0.19521809 0.26762098 0.14499094 0.3728572 -0.07764784 -0.1954328 -0.25252476 0.18790111
0.099518694 -0.08743149 -0.11595519 -0.11625598 -0.05198925 -0.26183408 0.02783222 0.0001230433
-0.20282961 0.09943592 -0.06679337 -0.042868797 0.020651594 0.050070252 0.091740854 0.0647786
-0.10515383 0.10110247 -0.16980062 -0.211222 -0.025345068 -0.05766157 0.19195148 0.05589315
0.07044311 0.107439086 0.123323634 0.036835775 -0.07531071 -0.1959031 -0.19599028 0.050845455
-0.064208694 0.031204617 -0.044678286 -0.28064394 -0.16989118 0.0077951755 -0.06208702 0.010259043
0.14896186 -0.12809528 0.25259274 0.12037667 0.048201792 0.29889613 0.29344648 0.12061992
0.06568288 -0.025153495 0.21370201 0.21665494 0.08061009 0.23324122 0.027566645 0.081069395
0.16617854 -0.07221852 -0.015821038 0.21610035 -0.05168928 -0.013313111 0.25864986 0.15239018
0.12917456 0.052244827 0.0065687466 0.019267125 0.029048717 -0.10366474 0.14224353 0.16885234

fc3_adv.bias f4 [76]
00000000: ce19 bf3d 47e3 e53d 24de f13d 995f a4bd
00000010: c2c6 16bc 87c8 30be d02c 413c effc 3bbb
00000020: f1d4 353e 6574 f63d 9935 96bc 0a68 19be
00000030: fd05 873e 21bc fcba c171 5c3e 7d0b 453e
00000040: 7025 a43e bb79 ca3d cd80 393e e283 c43d
00000050: 8d19 223d 7fe3 e0bc b645 323e 0fa7 20bd
00000060: a521 3fbd c474 c3bc fc0a cebd d069 633e
00000070: bd29 f1bb e4ae 9c3d 0031 433e 439a b33d
00000080: 4a46 f2bd 8c4a 293d 8ec1 a53d c4be 403e
00000090: 9bc0 033e eb7c 48be 728f a93c 2a5d 9b3d
000000a0: 87de a43e 08bd 723d 0b47 a1bd b6a3 193e
000000b0: 8f0f 9dba 8829 a23d 9ed9 0f3e d462 283e
000000c0: 84d6 073e 36fd 8d3d 79d3 d23c 3822 e53d
000000d0: 09a3 193e 3f99 723d 5359 b93d bdca 2a3d
000000e0: 0354 b8bd 6275 d9bd 7bd5 013e 5312 243e
000000f0: 3183 023d 1245 823e 3fcf 053e aec2 9b3d
00000100: 05d9 213e 4e4b 24bd e06c 563e 06f6 e63c
00000110: 1c23 833d 88ed a03d d2e1 973b 28ad f23d
00000120: 7266 9a3c 6ac6 3c3e 00f9 4d3e 2e18 923e
0.09331094 0.1122499 0.11809948 -0.08026046 -0.009202661 -0.17263995 0.011790469 -0.0028684696
0.17757012 0.12033919 -0.018336104 -0.14981094 0.26371756 -0.0019282141 0.21527769 0.19242664
0.32059813 0.098864995 0.1811554 0.09595467 0.03957515 -0.027452229 0.17409405 -0.03922182
-0.046662945 -0.02385939 -0.10060689 0.22208333 -0.007359712 0.07650545 0.19061661 0.087696575
-0.11829813 0.04133086 0.08093558 0.18822771 0.12866442 -0.19578902 0.020698283 0.07586129
0.32201025 0.059262305 -0.078748785 0.15003857 -0.0011982786 0.07918078 0.14047858 0.1644395
0.13265425 0.06933062 0.025735604 0.11188167 0.15003599 0.059228178 0.0905024 0.041697253
-0.09000399 -0.10618092 0.12679093 0.16022615 0.031863395 0.2544332 0.1306734 0.076054916
0.15805443 -0.04011088 0.2093997 0.028193485 0.06403181 0.078578055 0.004635074 0.11849433
0.018847678 0.18435064 0.20114517 0.28534073

fc3_val.weight f4 [76, 130]
00000000: 9411 ba3c f459 b9bd 62bc e5bc d4ae 9abd
00000010: 50f2 d3bd 2fd0 97bd 5142 4cbe 7086 76be
00000020: a480 d13d 9157 80bc d9b9 a03d 9651 60bd
00000030: fabd 1dbd 0179 063e 37fb 53bd 61b3 fbbd
00000040: 19ea 203d ea3f 493e bff6 aabd 3f3f f3bd
00000050: 71cc 2e3d 6dbc 83be a52e 37be 95bb c1bd
00000060: d107 48be 4956 01be 457e 93bb 090d e0bd
00000070: c3cd 85bd 26a3 9ebc 362c 5f3c 78e8 3cbd
00000080: a66e 763e 572c afbd b514 33be 2eff 59bc
00000090: 76be 883c 96e1 633e 4cd1 0bbd 9bc2 943e
000000a0: bc02 453e d8c0 a13c 9b09 8e3e 72a7 f73d
000000b0: 2c3c 903e 3b24 413e daf5 823e 5e47 c43d
000000c0: 10b4 843e 8f93 243e ab2d 8b3e e8a8 70bc
000000d0: 8621 303e a640 293e 2970 1e3d b7ed 153e
000000e0: 1a1f 7b3d 79cc d3bb 38f5 75bc 60a6 56bc
000000f0: b5b7 b23d 440c dabd 9d29 a2bd cc95 5e3e
00000100: a679 0ebe d413 da3d 85dd debd 684e 48be
00000110: 314d 20bd 7fca 62bd ef2c 9f3d a7cd ea3d
00000120: a8d1 5f3e 1aff e6bc b7f4 53bd f506 3b3e
00000130: 4799 57bd fbc2 013e ab7e ac3d 4357 9abc
00000140: 2f57 22bd 7cd3 b03b 65b4 8b3d 8cce 7dbd
00000150: 2c62 d93d 7620 413e 727c c03b b5ab 803d
00000160: 0593 85bd d56a 5b3d 0834 ffbd fee1 94bd
00000170: ee56 cebc 82af 5cbd 1b6d 1d3d e016 aa3a
00000180: 8cc7 0fbe c9ef 4f3e f6a6 3a3e 391e 5ebe
00000190: d92d 6bbd fa24 aebd 7693 18be cbfe fc3d
000001a0: 7b71 a4bd 350f babd 82b9 1c3e 3d63 593e
000001b0: 9dac 4b3d 785a c6bd 21f5 62bd b76c 793e
000001c0: e29f 4a3e 42be d43c b037 3a3e 9a37 fabd
000001d0: bd52 51bd 9a26 53be 57a5 d83d 3014 4d3c
000001e0: 3a7d 883d e3e2 a9bd e56e fdbd 5e76 eebd
000001f0: 4ece 0bbe 27e2 96bc 8552 293e a056 b4bc
00000200: 52a3 0f3e 546b c4bd f686 903e b73b 933e
00000210: ae80 3e3e 6ce0 453e f255 893e a0d9 963e
00000220: fba8 c73e 3ba3 9f3e 803f 833e 5576 bd3d
00000230: e089 f33d 3892 8f3e 9b02 b23e 2562 853e
00000240: 6aa0 963e 81a7 343d dc2d 9d3e 3e8d 5b3e
00000250: 2694 133e 08d0 8a3e 563a 4c3d e335 e13e
00000260: 2e07 b33e 0d7b 443e 993e f23d c22a 2c3e
00000270: c178 bc3e ca3c 393e 8428 d23e 25aa e23d
00000280: acdc 983d c396 4e3e 1f95 973d d864 c53e
00000290: 256d bb3d 9cc4 593e b88a c63d 6fbe 033e
000002a0: 6dc1 d43d 43d0 2b3e 3f8d 913e 65d4 a23d
000002b0: 9a4e 1e3e 5219 f83d 33a4 4e3b ce13 6c3e
000002c0: 391a 803e 3c46 4e3e 9973 f83d 7963 933c
000002d0: 824e 4d3e 0832 a4ba 0bb0 c2bb d782 783e
000002e0: dc92 523d 1885 bd3d 3de0 ff3d 2777 513d
000002f0: 1053 433e b13d 583e 8273 173d afca 733e
00000300: 21ff a83e 4e2c 273e 9cc3 ba3e 1d97 053d
00000310: f07b 0c3e 556f 2c3e bb80 043e 1dad f8b9
00000320: 45f0 353e 19f2 3e3e 44b6 ef3c 48f9 6d3e
00000330: 072c 1cbc c4fc f9bd 2200 57bd 8d0f 483e
00000340: 8975 563e cc4f e63d 1eb6 153e c1a7 4a3e
00000350: 948b b93d 6d05 0dbe 2e8d 09bb 71c1 843e
00000360: 83a8 7a3b aec5 9c3d 75c1 623e 1ec7 643e
00000370: 2094 3f3e 9af9 a3bd c082 efbd 1cca fa3c
00000380: 60e3 4f3e 615c 8f3d df33 c43d 24d7 1d3e
00000390: 997d 24bc 9aae 3abc f549 163e 22b9 903d
000003a0: 7030 cc3d 92ca c83d ab89 be3d d0cd 543e
000003b0: 037d 8f3d 9943 a43d a371 713e 59ba ac3d
000003c0: 84c4 85bb ab76 253e d333 6d3e 576f 933e
000003d0: 8255 283e c8f1 c7bb dfcb 353e dd82 873e
000003e0: 9d2f ae3c 314d 1cbc 88d1 253e 45bc d83d
000003f0: 2f8d 4a3d 48ec 7b3e efb4 8c3e 4c6c 0c3e
0.02271346 -0.0905036 -0.02804393 -0.07552877 -0.10348952 -0.07412755 -0.19947173 -0.24074721
0.102296144 -0.015666755 0.078479476 -0.054765306 -0.038511254 0.13132097 -0.05175325 -0.12290073
0.039285753 0.19653288 -0.08347844 -0.118772976 0.04267544 -0.25729695 -0.17888887 -0.094596066
-0.19534232 -0.12630571 -0.0045011365 -0.10939986 -0.065333866 -0.019364905 0.013621381 -0.046120137
0.24065647 -0.08553379 -0.17488368 -0.0133054685 0.016692381 0.22254023 -0.034135148 0.29054722
0.19239324 0.019745275 0.27741703 0.120924845 0.28170907 0.18861477 0.25578195 0.09583925
0.25918627 0.16071914 0.2718328 -0.014688708 0.17200288 0.16528568 0.038681183 0.14641462
0.061308958 -0.006463584 -0.015012078 -0.01310119 0.087264456 -0.10646871 -0.07918093 0.2173683
-0.13913593 0.10648313 -0.10882095 -0.1956116 -0.039136115 -0.055368897 0.07772242 0.11465006
0.21857321 -0.028197814 -0.05174705 0.18264373 -0.05263641 0.12672035 0.084225975 -0.018840438
-0.039633926 0.0053963047 0.06821517 -0.061964557 0.10614428 0.18860039 0.00587421 0.062827505
-0.065221824 0.05356868 -0.12461096 -0.07269667 -0.025187936 -0.053878315 0.03843413 0.0012976788
-0.14040965 0.20306315 0.18227753 -0.21691217 -0.05741677 -0.085031465 -0.14900002 0.123532854
-0.08029457 -0.09084932 0.1530514 0.21229263 0.049725164 -0.09685224 -0.055409554 0.24357878
0.19787553 0.025969628 0.18185306 -0.122176364 -0.051104296 -0.20620194 0.10578411 0.01251702
0.0666451 -0.08295228 -0.12374667 -0.116436705 -0.13652918 -0.018418385 0.16535385 -0.022013962
0.14027146 -0.09590784 0.28227967 0.28756496 0.18603775 0.19323891 0.26823384 0.2946291
0.3899611 0.31179222 0.25634384 0.09251086 0.11891532 0.28041244 0.34767613 0.2605144
0.2941926 0.044105057 0.3069905 0.21440598 0.14411983 0.2711184 0.04986032 0.43986425
0.34966415 0.19187565 0.11828346 0.16813186 0.36810878 0.18089595 0.41046536 0.11067609
0.07463965 0.20174699 0.074014895 0.385535 0.09151677 0.21266407 0.09694427 0.12865613
0.103884555 0.16778664 0.28428075 0.07950667 0.15459672 0.121142045 0.0031530976 0.2305443
0.25020006 0.2014398 0.121314235 0.017991768 0.2004948 -0.0012527118 -0.005941396 0.24268661
0.051409587 0.09253901 0.12493942 0.051139023 0.19074655 0.21117283 0.03697539 0.23807786
0.33007148 0.16325495 0.36477363 0.032614816 0.13719153 0.16839345 0.12939732 -0.00047431226
0.17767437 0.1864704 0.029261716 0.23239625 -0.009531981 -0.12206414 -0.05249036 0.19537182
0.20943274 0.11245689 0.14620253 0.19790556 0.090598255 -0.13771601 -0.002098869 0.25928834
0.0038247413 0.07654892 0.2214411 0.22341582 0.18708849 -0.08006592 -0.116948605 0.030613951
0.2030158 0.07000042 0.09580206 0.15414101 -0.01003971 -0.011394167 0.1467665 0.07066561
0.09970176 0.09804262 0.09303602 0.20781636 0.07006266 0.08020706 0.23578505 0.084339805
-0.0040822644 0.1615855 0.231643 0.28795883 0.16438869 -0.0061018206 0.17753552 0.26467028
0.021262938 -0.009539888 0.16193211 0.105827846 0.04945105 0.24601853 0.2748179 0.13713187

fc3_val.bias f4 [76]
00000000: db65 623e c7e3 79be 829c d93e 51f0 683e
00000010: 3b71 80be f0ea 55be 548d 82be fb9c 39be
00000020: e8cd 2ebe 1a71 4abe 1da6 093f 6751 1a3f
00000030: b1f3 5e3e a190 3fbe f753 973e 94a4 e83e
00000040: b26f b93e 2c29 79be 39bd 893e 9e8a 9a3e
00000050: 49ea 833e c0b0 253f 71e1 953e cf32 ba3e
00000060: f2b5 543e e971 373e 6c3b 0b3f 7b50 463e
00000070: 5ab9 63be a3bf 2cbe 6e9b f83e dc24 58be
00000080: df24 1c3e fcc3 7b3e eec9 ac3e 7891 15be
00000090: 55ec aa3e 11b5 56be ea78 1dbe 570f 8b3e
000000a0: fb30 033f eaa4 b73e 12f6 70be d61c 903e
000000b0: e5a0 1b3f ebaa 5abe de69 bb3e df40 48be
000000c0: 3ada 1abe e028 083f a186 44be f756 d63e
000000d0: 27e9 2a3f 8c1b 8abe b67c 67be e60b 7abe
000000e0: a3a9 1ebe 7217 2fbe 1cde 45be 9073 7fbe
000000f0: a2e9 85bd 546b f9bd 1099 40be 5339 143f
00000100: b72a 71be b1f5 543e 2234 74be 117f 7d3d
00000110: fe21 a53e fa28 80be 1357 37be ceca 2f3e
00000120: 61fd e63d 5ca4 f63d 59e9 18be 45cb 8fbe
0.22109167 -0.24403296 0.42502218 0.22747923 -0.25086388 -0.20890403 -0.2549845 -0.1812629
-0.17070735 -0.19769707 0.53769094 0.6028046 0.21772648 -0.18707515 0.29556248 0.45438063
0.3621803 -0.24332112 0.26902178 0.30183882 0.25764683 0.64722824 0.2927356 0.3636689
0.20772532 0.17914547 0.54387546 0.19366638 -0.22238675 -0.16869979 0.48556083 -0.2110781
0.1524844 0.24586481 0.3374781 -0.14606273 0.33383432 -0.20967509 -0.15378156 0.2716014
0.51246613 0.35868007 -0.23531368 0.28147 0.6079238 -0.21354263 0.36604208 -0.19555996
-0.1512231 0.5318737 -0.19191982 0.41863224 0.6676201 -0.26974142 -0.22606167 -0.24418601
-0.15494399 -0.17098787 -0.19323009 -0.24946427 -0.065387025 -0.12178674 -0.18808389 0.5789997
-0.2355145 0.20796849 -0.23848012 0.061888758 0.32252496 -0.25031263 -0.1790431 0.17167208
0.11278797 0.12043068 -0.14932765 -0.2808477

fc4_adv.weight f4 [38, 76]
00000000: 45a3 4abd 39c8 2f3d 783b debe 402b 0cbe
00000010: 7ef4 87bd a3f3 413c c6be b43e 92a8 323d
00000020: d2f0 c23e 5bb4 b53d 71d7 87be a4b7 9e3e
00000030: 113c aebd fc61 aabd 887a 643d 50da 85be
00000040: d13a 283e 1ab5 de3d 1ded b13d 7ea5 703e
00000050: 449a 613e f3ed 683e 2de1 00be bf63 153d
00000060: 3fa5 77be a040 7abd 49aa 193d eba7 a93d
00000070: ada6 ad3d 1c7e 11be 5e24 28be 7573 31be
00000080: 69e6 a93d 25ec 523e 6ae4 9dbd 568e 07bd
00000090: b178 9c3d 9db8 063e 4a09 f93d 0c0e 473d
000000a0: aae4 5bbe d933 d0bd 4336 22be 6d15 b0bd
000000b0: 45be b83d 2fb8 cf3e af35 25bd 975d 863d
000000c0: 0dfc 9cbd 21ad 863e 5922 3f3e 183b 89ba
000000d0: 7f97 c0bc 78dd 98be 8141 783d 7aa8 71bc
000000e0: 41ed 273e 05c9 d53d 27ae 413e 66c5 2f3e
000000f0: ae72 85be 4580 583e 0a80 7b3e 405e 6d3e
00000100: 3437 043c c690 da3a 05ab 75bc c51a 323e
00000110: 4f55 35be 83a4 20be 0862 84be 9f0b 563e
00000120: 7863 393e 603a eb3c 59ac 84be 29d7 9f3d
00000130: 59ab 1a3e 2c0d ca3d 3487 afbd 7e62 383e
00000140: fb20 86bd f632 073d 1db7 20be 11e3 5e3e
00000150: 086d 78be 06aa c53e a4c0 90be 571c a13e
00000160: f24b b0bd 2b53 e8bd e11c 5fbd 7b82 873c
00000170: 19f1 a93d 69c8 7abd 108c bfbd 04aa 1ebe
00000180: 2c92 afbd 4b40 6cbd a753 ca3b 686e 883e
00000190: 825f 40be f856 97be 7bd2 60be 3975 99bd
000001a0: bfe6 7b3e 55f8 453e 8db2 573e 9595 9d3c
000001b0: da41 75be e267 fa3d 073f 83bc 78ab 11be
000001c0: 103c d33d 6785 1b3e d731 13be d826 6b3e
000001d0: 97a6 f5bc aef9 ab3e 7084 8ebc eb13 6e3e
000001e0: c901 44be 1157 f53d e506 96bc cc82 b33d
000001f0: ea72 1fbe fb28 9fbd f684 673c 414d 0b3d
00000200: 27a5 a93e 4c15 93b8 1484 4f3d 5d4a 0b3e
00000210: 5d8d 203e a2cf 8b3d c80f 833e cc1c 863b
00000220: 573e 8ebe 8540 493e f245 623c e6fb 0fbb
00000230: 1449 aabd 8d6a 37bd 8e2d ab3e d501 3c3e
00000240: 06ee 9ebd 2f45 2a3d ae57 5ebb 4752 803e
00000250: 87db afbd 8372 183e 3864 f63c 7dfb b93e
00000260: 401e 113e 6860 073b 9191 a83d bd65 b03b
00000270: 73b9 db3d e6f3 8f3e 2a68 c2bd 7d65 563e
00000280: 5d9c 70bd 9c35 9d3e 19d7 1fbe 1a8c d139
00000290: 536a dc3d 8e90 853d 6641 d2bd 52f3 58bd
000002a0: 7f26 f43d 2abe 943e df88 1a3e afc4 323e
000002b0: deab 08bd 1050 83bc 81d6 983d cc50 ef3d
000002c0: ad0f 2c3d 2826 89ba afac 333e e99c 40bd
000002d0: afd7 64be 8c30 37be b266 2f3e 7549 87be
000002e0: 49c4 d23d af5b 2abd 98f7 97bd f28d fe3d
000002f0: 5a2a 773e 1a64 78bd a7f2 00be 1ed0 01be
00000300: 4502 09be 8d2d 50be 3b6c a3bb 6a3c efba
00000310: e60b 87be eb9e 83bd 84bb f7bd 8ea0 1b3e
00000320: 8ca8 a53e 5f9e 4d3e a653 2ebe 4738 ecbd
00000330: 2f23 103e fbea 0bbe 9f07 823e 83ab 463e
00000340: 274a e9bd 1391 57be b3de 993e 5040 873e
00000350: 6901 9abe bac4 433e d333 303e a0c3 d13e
00000360: 98d0 af3e b4b5 043e 7902 b03e d402 8ebe
00000370: bb9f cabe b395 6a3e 2460 a8bd baa4 353e
00000380: 5426 363d 09f6 b9bc 25df c0be 59b7 993e
00000390: b9a7 963e 9ebb 40be 3d83 61be 38b2 af3c
000003a0: 5579 babe 6c3e b9bc 9c51 61be e6ab f43d
000003b0: 3599 11be 065f 003e bd40 9b3d 2205 80be
000003c0: 5cb4 e43d 3ede 83bd f2b1 3f3e 9caa 073e
000003d0: 20fd 46be d6e4 cc3d f704 403e 03ed 43bd
000003e0: 05aa 063e 0363 703e 6227 b63d df80 69bd
000003f0: c6ec 94be 4f88 2abe 577c 73be 6a5f abbc
-0.049472112 0.042915557 -0.43404746 -0.13688374 -0.0663843 0.011837873 0.353018 0.043617792
0.38074356 0.08872291 -0.26531556 0.30999482 -0.085075505 -0.0831947 0.055780917 -0.26143122
0.16428687 0.10874386 0.08687804 0.2350063 0.22031504 0.2274702 -0.12585898 0.03647208
-0.2418413 -0.061096787 0.037515912 0.08283981 0.084790565 -0.14208263 -0.16420123 -0.173292
0.082959004 0.20597894 -0.07709582 -0.033094727 0.076402076 0.13156362 0.12159975 0.04859738
-0.21473947 -0.10166139 -0.15841012 -0.08597837 0.09020666 0.40570208 -0.0403344 0.065608196
-0.07665262 0.26303962 0.18665446 -0.0010469882 -0.023509739 -0.29856467 0.060609344 -0.014749641
0.16399099 0.10438732 0.1891409 0.17165145 -0.26064056 0.21142681 0.24560562 0.23180485
0.008069802 0.0016675226 -0.0149943875 0.17393024 -0.17708324 -0.15687756 -0.25856042 0.2090287
0.1810435 0.028714359 -0.2591274 0.078047104 0.15104426 0.098657936 -0.0857071 0.18006322
-0.06549259 0.033007585 -0.15694852 0.21766306 -0.24260342 0.3860628 -0.28271973 0.31466934
-0.086082354 -0.11343988 -0.0544709 0.01654171 0.08297939 -0.061226282 -0.09352887 -0.15494543
-0.08572802 -0.057678502 0.006174523 0.26646733 -0.18786433 -0.2955854 -0.21955292 -0.074930616
0.24599741 0.19333012 0.21064205 0.019236365 -0.23950902 0.12226845 -0.016021265 -0.14225566
0.103141904 0.15187608 -0.14374481 0.22964036 -0.029986663 0.33588928 -0.017397135 0.23249786
-0.19141306 0.11979497 -0.018313834 0.08765182 -0.1557118 -0.07771488 0.014130821 0.034009222
0.33133814 -7.013473e-05 0.05066307 0.13602586 0.15678926 0.06826712 0.25597978 0.0040927883
-0.27781937 0.19653518 0.013810622 -0.0021970212 -0.0831472 -0.04477935 0.33433193 0.18360074
-0.07760243 0.041569885 -0.0033926773 0.25062773 -0.085867934 0.14887433 0.030077085 0.36324683
0.14171696 0.0020656828 0.082308896 0.005383222 0.10728731 0.28115767 -0.09492524 0.20937152
-0.05874287 0.30704963 -0.15609397 0.0003996797 0.10762467 0.06521712 -0.1026638 -0.052966423
0.11921405 0.29051334 0.15091275 0.17457841 -0.03336703 -0.016029388 0.074627884 0.11685333
0.042007137 -0.0010463642 0.17546342 -0.04702464 -0.22347902 -0.17889613 0.17129019 -0.2642323
0.10291345 -0.041591343 -0.07420272 0.12429418 0.2413725 -0.06064234 -0.12592565 -0.12677047
-0.13379772 -0.20329876 -0.0049872673 -0.0018252258 -0.26376265 -0.064267956 -0.12096313 0.15197966
0.32355154 0.20079945 -0.17024097 -0.115341716 0.14075921 -0.13663857 0.2539644 0.19401364
-0.113910966 -0.21051435 0.3005272 0.26416254 -0.300792 0.19118014 0.1720727 0.40969563
0.34338832 0.12959939 0.34376886 -0.27736533 -0.3957499 0.22908668 -0.08221462 0.1773862
0.044470146 -0.022700327 -0.37670246 0.30022696 0.29424837 -0.1882157 -0.2202272 0.021447286
-0.36420694 -0.022612773 -0.22003788 0.119468495 -0.142186 0.12536249 0.07580707 -0.25003916
0.11167213 -0.06438874 0.18720224 0.13248676 -0.19432497 0.100045845 0.18751894 -0.047833454
0.13150795 0.2347527 0.088942304 -0.057007667 -0.29086894 -0.1665356 -0.237779 -0.02091952

fc4_adv.bias f4 [38]
00000000: 6450 4e3d 4211 3e3c cc7d dcbd 14c3 3fbd
00000010: 31fe 543d fa8f 253d ceab 643e f4fe b33b
00000020: 5f40 c5bc c774 443d 82f0 e9bd 8dce 44be
00000030: 9668 2a3e ff87 423d eaa6 ffbc 616f ab3d
00000040: f2a9 c93d 534d ce3d 1f77 debc 9fc4 fbbd
00000050: bd12 9a3d 7131 363e 9b37 f73b 6768 003e
00000060: b564 443d fdc2 b93d 8609 123e de58 82bd
00000070: 51f9 eabd 2639 e73d 42f9 b53c bd67 01be
00000080: 679e c23d b1a8 bc3d 6590 edbd f846 413e
00000090: d752 26be 6b97 8d3e
0.050369635 0.011600794 -0.10766181 -0.0468169 0.05200023 0.04042051 0.22331163 0.0054930393
-0.024078546 0.04796293 -0.11422826 -0.19219418 0.16641459 0.047492977 -0.03120752 0.08370853
0.098468676 0.10073342 -0.02715641 -0.12293362 0.07523105 0.17792298 0.0075444705 0.12539826
0.047947604 0.09070394 0.14261445 -0.06364606 -0.114733346 0.11290197 0.022213582 -0.1263723
0.09502869 0.09211863 -0.11599807 0.18874729 -0.16242538 0.27654585

fc4_val.weight f4 [1, 76]
00000000: 8d3b cfbe c81d bf3e 0708 4fbf 4c49 89be
00000010: 38b9 a03e a47b dd3e dbd6 303e 69aa 633e
00000020: 1754 8b3e e3a4 4f3e b681 9fbf a58b bebf
00000030: d7e2 dabe 8720 853e 2e71 c8be 14b4 4fbf
00000040: d845 f8be f5cd b53e ff10 d0be 972b 1dbf
00000050: 25c5 ebbe 1638 a8bf 2b8d d5be 7e7a 5ebf
00000060: ad2e e1be 50cd dabe 555a 93bf e389 2bbf
00000070: 8c17 963e 11d1 5a3e 9efc 69bf 0283 8f3e
00000080: 6700 c3be 4826 c0be d5fb f4be 043c 623e
00000090: 1127 c3be 0550 cb3e 5493 a73e 046f 2dbf
000000a0: 0bd4 8fbf 5ee8 5dbf 23f8 e33e 762e f4be
000000b0: 2df0 87bf bc12 7e3e d78a 82be b47b 223e
000000c0: 85e2 483e c250 62bf c626 2f3e 8e08 98bf
000000d0: aa78 8ebf 2a81 a23e 09c6 3d3e f06a 253e
000000e0: f0dc 683e 877d 673e f38e bc3e 8465 693e
000000f0: 4073 31bf bf1f b23e 0085 363e 0242 83bf
00000100: 280e 5e3e 7303 b4be 1290 193e 448c fabe
00000110: b8b6 89be 8369 d33e c9cf c33e 9cec f9be
00000120: 37f8 debe 41c9 afbe 61af cf3e 6705 963e
-0.4047512 0.3732741 -0.80871624 -0.26813734 0.3139131 0.43258393 0.17269461 0.22232975
0.27212593 0.20277743 -1.246146 -1.4886366 -0.4275119 0.2600138 -0.3914885 -0.8113415
-0.48490787 0.35508695 -0.40637967 -0.6139464 -0.46048847 -1.3142116 -0.41709265 -0.8690566
-0.43980923 -0.42734766 -1.1511942 -0.67007273 0.2931484 0.21368815 -0.9140109 0.2802964
-0.38086244 -0.37529206 -0.47848383 0.22093207 -0.38115743 0.39709488 0.3272959 -0.6774752
-1.1236585 -0.8668269 0.4452525 -0.47691697 -1.0620171 0.24811834 -0.2549655 0.15867501
0.1961766 -0.88404477 0.17104635 -1.1877611 -1.1130574 0.3173917 0.18532576 0.16154075
0.22740531 0.22606479 0.36827812 0.22792631 -0.6931648 0.34789845 0.17824173 -1.0254519
0.21685088 -0.35158882 0.14996365 -0.4893514 -0.26897216 0.41291437 0.38244465 -0.4881333
-0.43548748 -0.34333232 0.4056349 0.29300997

exp_avg f4 [1, 6, 1, 4]
00000000: 33f2 1ec0 d42a 8cbf 13a2 afbe 286a 31bd
00000010: 4932 83c0 0400 0000 0400 0000 0000 0000
00000020: c0d2 edbe c0d2 edbe c0d2 edbe 5b12 be3c
00000030: d0d9 d33b 50f5 54bc 50f5 54bc cb0a 57bd
00000040: 193a a3be 75c1 6bbe 75c1 6bbe dd26 aebd
00000050: 4842 3dbd 0400 0000 0400 0000 0000 0000
-2.4835327 -1.095057 -0.3430334 -0.04331413 -4.0998883 6e-45 6e-45 0.0
-0.46449852 -0.46449852 -0.46449852 0.023202112 0.0064651743 -0.01299794 -0.01299794 -0.052500527
-0.31880262 -0.23023017 -0.23023017 -0.08503506 -0.04620579 6e-45 6e-45 0.0

exp_avg_sq f4 [1, 6, 1, 4]
00000000: 1a67 6c42 d4d0 cc40 437a 3e3f b04f 1f3c
00000010: 0222 4c43 86e4 ac22 77f1 bb0d 0000 0000
00000020: 80df 5a40 80df 5a40 80df 5a40 0b7c 423e
00000030: c1cc 723f 17ff 363f 17ff 363f 28e0 843d
00000040: f6a4 243f dde8 0e3f dde8 0e3f 6f99 4d3d
00000050: b6b2 5f3b 3b54 7028 3b54 7028 0000 0000
59.100685 6.4004917 0.74405307 0.009723589 204.13284 4.686265e-18 1.1582895e-30 0.0
3.4198914 3.4198914 3.4198914 0.18992631 0.9484368 0.71482986 0.71482986 0.06488067
0.6431421 0.5582407 0.5582407 0.050195154 0.003413362 1.3340941e-14 1.3340941e-14 0.0

exp_avg f4 [1, 6, 2, 4]
00000000: 43e8 9dbf 6423 91be ccf3 b4bd 32bc 39bc
00000010: c106 a0bf d940 71be b23e 9ebd bb60 19bc
00000020: 8808 84c0 324c 43c0 2ebe 86bf c75f d7be
00000030: 279f 8cc0 4a48 6ac0 5031 e8bf e7a3 1dbf
00000040: d71a 11be d71a 11be d71a 11be 266f 64bd
00000050: d0b6 23be d0b6 23be d0b6 23be caf1 c3bc
00000060: 5625 fdbc 3703 5abd 3703 5abd 48d4 08bd
00000070: 050e f8bd 580c 11be 580c 11be 09c6 0abd
00000080: 00d5 aeba 64fd d6bb 64fd d6bb 1e14 e6b9
00000090: 1854 813c 322d 0b3c 322d 0b3c a5a5 79bc
000000a0: 0fa3 d9bd 5ca0 8fbd 51fc 8dbd 57b5 5a3c
000000b0: 36af 0abe c693 d1bd d10a cfbd 6bda e8bb
-1.2336506 -0.28347313 -0.08835563 -0.011336373 -1.2502061 -0.23559894 -0.07726802 -0.009361441
-4.1260414 -3.0515256 -1.0526788 -0.4206526 -4.394428 -3.6606622 -1.8140049 -0.6157822
-0.14170395 -0.14170395 -0.14170395 -0.055770062 -0.15987706 -0.15987706 -0.15987706 -0.023919005
-0.030901592 -0.053225722 -0.053225722 -0.033405572 -0.12112049 -0.14164865 -0.14164865 -0.033880267
-0.0013338625 -0.0065609682 -0.0065609682 -0.00043884007 0.01578717 0.008494662 0.008494662 -0.015237247
-0.10626804 -0.07013008 -0.06932891 0.013348899 -0.135434 -0.10233264 -0.10109485 -0.0071061156

exp_avg_sq f4 [1, 6, 2, 4]
00000000: 8e81 e040 30ea 933f 9575 203e 6bd4 b93a
00000010: 326f de40 a710 8c3f 136d 133e 1f73 8f3a
00000020: 2b5d 5243 a5e8 d142 8122 d741 a863 3640
00000030: 996a 5243 d7f7 cb42 33b6 cf41 d994 7e40
00000040: 6bb6 5d3f 6bb6 5d3f 6bb6 5d3f 2bc1 0d3d
00000050: 6c2f f33e 6c2f f33e 6c2f f33e 5f20 1a3d
00000060: 5346 bb3e 8f83 a13e 8f83 a13e b754 573c
00000070: a314 c03e 73e9 aa3e 73e9 aa3e 334c 933c
00000080: f4f3 0e3e 2089 013e 2089 013e ba6f aa39
00000090: ab90 c73e 0922 be3e 0922 be3e 3d02 5a3c
000000a0: 6540 d83e b6cd be3e deb8 be3e bfec a13c
000000b0: bdea c63e 28c0 ab3e 1c9d ab3e 5c33 5b3c
7.015815 1.1555843 0.15669854 0.0014177685 6.9510736 1.0942582 0.14397077 0.0010944343
210.36394 104.954384 26.891848 2.8498325 210.4164 101.98406 25.963964 3.977835
0.8660647 0.8660647 0.8660647 0.034608047 0.47497118 0.47497118 0.47497118 0.037628528
0.3657709 0.31545684 0.31545684 0.013142756 0.37515745 0.33381233 0.33381233 0.01798067
0.13960248 0.12649965 0.12649965 0.0003250817 0.3897756 0.37135342 0.37135342 0.013306198
0.4223663 0.3726632 0.37250417 0.01976621 0.38850966 0.3354504 0.33518302 0.013378944

exp_avg f4 [1, 6, 3, 4]
00000000: 8425 6abd 55fc 57be bd35 183a 94a6 2f3b
00000010: 9766 bfbc 3ab4 82bd b23a 5e3c 1cdf b33b
00000020: a68a 6c3e 6748 8bbd 9eb4 9e3c f3ca 913b
00000030: 39d5 183e 300a fb3e 4e90 8c3c 35c8 293d
00000040: b67f 523e dc30 473e 31b0 303d 8e61 1ebc
00000050: bbff a8bd 1de2 a03e b424 e23d bcf7 5a3d
00000060: a272 f43d a172 f43d a072 f43d 619c 0d3d
00000070: 6d49 7e3d 6749 7e3d 6849 7e3d 5a45 6c3c
00000080: b50d b33d b60d b33d b40d b33d 3da5 45ba
00000090: b81d 57bc a0a6 913b ada6 913b 039b a53c
000000a0: 4804 b43c 99cf 133d 98cf 133d aade 953b
000000b0: bee0 d53c 0d06 363d 0d06 363d 1e4e eebc
000000c0: 2869 8ebd b4de 9dbd b3de 9dbd 5bae e7ba
000000d0: 259f 523d e218 3e3d e118 3e3d 3027 7d39
000000e0: 997b b9bc 3ea4 bdbc 36a4 bdbc 250a ef3a
000000f0: b258 a4bd adcb a7bd c251 a7bd 039e 1abc
00000100: ac16 80bd cecc 5dbd 4951 60bd 6736 8dbc
00000110: 9c52 99bd d2ca 83bd a01f 85bd 0a1d 8f3b
-0.057164684 -0.21092351 0.00058063475 0.002680217 -0.023364348 -0.06382032 0.013563799 0.005489243
0.23099765 -0.06800919 0.019373234 0.0044492423 0.14925088 0.4903121 0.017158654 0.041450698
0.2055653 0.19452232 0.04313678 -0.009666814 -0.08251902 0.3142251 0.11042157 0.053458914
0.11935927 0.11935926 0.119359255 0.034572963 0.062081743 0.06208172 0.062081724 0.014420832
0.08742849 0.087428495 0.08742848 -0.0007539576 -0.013129644 0.004444912 0.004444918 0.020215517
0.021974698 0.036086652 0.03608665 0.0045736628 0.026108142 0.044439364 0.044439364 -0.029089984
-0.06953651 -0.07708493 -0.07708492 -0.0017675863 0.051421303 0.04641045 0.046410445 0.00024142559
-0.022641944 -0.023149606 -0.023149591 0.0018237276 -0.0802473 -0.08193145 -0.08169891 -0.009437087
-0.06254324 -0.054150395 -0.05476502 -0.017237855 -0.074864596 -0.06435169 -0.065001726 0.0043674754

exp_avg_sq f4 [1, 6, 3, 4]
00000000: 1122 8c3f e224 263e 6fe4 df3c 12d2 c739
00000010: 10fb 9c3f ae05 3c3e 2331 063d 17ef e839
00000020: 5f94 903f da1a 493e 955f 0e3d 1cbf 003a
00000030: 6b18 9641 d52a 2a41 b6e0 4f40 4033 013f
00000040: 5ccf 9341 a417 2341 5820 4640 bb04 043f
00000050: 14c6 9441 8a5c 2641 7444 5640 a120 093f
00000060: e5d4 043e e5d4 043e e6d4 043e db8c fd3b
00000070: a6d8 fc3d a7d8 fc3d a8d8 fc3d e025 b23b
00000080: 53c6 133e 53c6 133e 53c6 133e e459 e33b
00000090: 6261 783d eea8 563d f0a8 563d c3f0 be3a
000000a0: 3e63 823d dff3 5e3d e0f3 5e3d 6b3f 583b
000000b0: 2318 3c3d 4a75 133d 4a75 133d 41a1 753b
000000c0: 65f8 563d c63d 493d c63d 493d 599b 513b
000000d0: 7bf2 103d 73ec 013d 72ec 013d 3fd9 483a
000000e0: 385c 593d b4c8 543d b4c8 543d cda9 113b
000000f0: 5438 6a3d bfb8 463d 9190 463d 109b fe3a
00000100: 038f 553d 42d7 453d ce8a 453d 5d79 363b
00000110: d65b 7e3d 77c6 6b3d 7648 6b3d cfc0 023b
1.0947896 0.16225007 0.027330605 0.00038112752 1.2264118 0.18361542 0.032761704 0.00044428624
1.1295279 0.1963915 0.034759123 0.000491129 18.761923 10.635457 3.2480903 0.50468826
18.47625 10.193272 3.095724 0.5156972 18.596718 10.397593 3.347928 0.5356541
0.12971838 0.12971838 0.1297184 0.0077377385 0.1234601 0.12346011 0.123460114 0.005436644
0.14431123 0.14431123 0.14431123 0.006938206 0.060639746 0.052407198 0.052407205 0.0014567602
0.06366585 0.054431792 0.054431796 0.0032996784 0.045921456 0.036000527 0.036000527 0.0037480148
0.05248298 0.049131177 0.049131177 0.0031983464 0.035387497 0.031719636 0.031719632 0.0007661767
0.053066462 0.051949218 0.051949218 0.0022226453 0.057182625 0.04851603 0.048477713 0.0019424874
0.05213834 0.04830099 0.048228078 0.0027843334 0.0620993 0.057562318 0.05744215 0.0019951349

exp_avg f4 [1, 6, 4, 4]
00000000: d24e 4ebf 907f 8abe 2820 dcbd 99c8 27bc
00000010: 6c85 c3be b208 22be ec64 433c b67e bcbb
00000020: c839 f8be 76ef 4cbe 8024 48bd 71f3 fcbb
00000030: fa8b 17bf e03d f2bd 5917 dabd b37c 9abb
00000040: 2293 14c0 dd2f 98bf fa22 aabe 1289 b7be
00000050: 4495 1ec0 9be8 a5bf d35e e6be 54b6 18be
00000060: 4f58 1ec0 301a 8cbf 65d9 cebe 87d9 8bbe
00000070: 0ddb 19c0 2397 97bf cd79 aebe c483 58be
00000080: b6b1 08be b7b1 08be b3b1 08be bff7 b5bb
00000090: 5941 3abe 5b41 3abe 5a41 3abe 32c4 a53b
000000a0: 858c 6bbe 848c 6bbe 848c 6bbe b7aa dfbc
000000b0: c10b 43be c10b 43be c30b 43be 833a 383b
000000c0: 675f 5f3d 1749 693d 1c49 693d 1583 91ba
000000d0: b1d1 713c 0074 903c 0074 903c b8ff acbc
000000e0: 7f03 8f3d 79a2 9d3d 78a2 9d3d ae1f afbc
000000f0: cbf7 463d 9762 843d 9762 843d 415f 17bd
00000100: c601 a6bc 6e4b b13b 714b b13b 1042 d7bc
00000110: 349c e1bd ffc0 a6bd 01c1 a6bd db8e fabc
00000120: 1e8f f6bd 4b0d bbbd 4c0d bbbd 5138 25bd
00000130: 08bf b4bd 6f89 8bbd 7089 8bbd 238f 90bc
00000140: e93d 2f3d e7eb 803d 9f8f 823d 3a0f 323b
00000150: 4eff 3bbd 4b06 15bd 38b9 14bd 358f bebb
00000160: 8f55 e73b 84cf 3cbb d961 ebba 6c3c 63bc
00000170: 02b8 0f3e ebb2 f43d 7cd9 f63d 2a84 c23b
-0.8058902 -0.27050447 -0.10748321 -0.010240697 -0.3818773 -0.1582363 0.011925917 -0.00575241
-0.48481584 -0.20013222 -0.048862934 -0.00771945 -0.5919796 -0.11828208 -0.106489845 -0.0047145723
-2.3214803 -1.1889607 -0.3322981 -0.35846764 -2.4778605 -1.296161 -0.4499422 -0.14913303
-2.47414 -1.0945492 -0.40400234 -0.27314398 -2.4039948 -1.1842998 -0.34077302 -0.21144015
-0.13349041 -0.13349043 -0.13349037 -0.0055532153 -0.1818899 -0.18188994 -0.18188992 0.0050587887
-0.23002823 -0.23002821 -0.23002821 -0.027303083 -0.19047453 -0.19047453 -0.19047455 0.0028111048
0.054534342 0.05695447 0.05695449 -0.0011101688 0.014759467 0.017633438 0.017633438 -0.02111803
0.06983089 0.07697005 0.07697004 -0.02137741 0.048576158 0.06464117 0.06464117 -0.036956076
-0.020264518 0.0054106032 0.0054106046 -0.026276618 -0.110161215 -0.0814228 -0.08142281 -0.030585697
-0.12039016 -0.09133395 -0.091333956 -0.04033691 -0.08825499 -0.06813323 -0.068133235 -0.017646378
0.04278365 0.06294995 0.0637505 0.002716972 -0.045897774 -0.036382955 -0.03630945 -0.0058154115
0.00705976 -0.0028810212 -0.0017958238 -0.013869386 0.14035037 0.119481884 0.120532006 0.0059361653

exp_avg_sq f4 [1, 6, 4, 4]
00000000: b188 1041 23aa 353f 3b7d b13d 3576 8d3a
00000010: 4fa7 f440 f1c8 f83e 4520 473d 46a7 273a
00000020: 6bdb 0841 64d8 333f 1aa6 bb3d 1c70 753a
00000030: 3d78 0241 441e 213f 3de2 943d 1d03 773a
00000040: 71a1 ee42 e2dd 4c42 228d 4241 4b75 b53f
00000050: 8d04 ef42 2c9f 5142 de6e 4f41 f337 d73f
00000060: 11e5 eb42 d342 4e42 c019 4041 05de b33f
00000070: 249f ed42 a3ec 4f42 a790 4741 df8a c33f
00000080: 23db 263f 22db 263f 23db 263f 0bae b33c
00000090: 6399 1d3f 6399 1d3f 6399 1d3f 5968 9e3c
000000a0: a4e2 1d3f a4e2 1d3f a3e2 1d3f 1903 9d3c
000000b0: f5d9 1e3f f6d9 1e3f f6d9 1e3f 55f1 9c3c
000000c0: be70 563e 7d4f 263e 7e4f 263e 7a91 f43b
000000d0: 8214 5e3e 2c3a 2f3e 2c3a 2f3e dcc2 ef3b
000000e0: 4efc 6a3e 4a94 273e 4a94 273e 99f2 b33b
000000f0: d294 823e 29c0 3f3e 28c0 3f3e 4181 003c
00000100: 744d 233e 8420 153e 8420 153e f548 093c
00000110: f48a 1c3e 1fd5 0e3e 1ed5 0e3e 2980 b23b
00000120: 52b8 2a3e 1d8f 213e 1e8f 213e 672d 033c
00000130: d78a 153e 391e 103e 3a1e 103e f44a 293c
00000140: f712 6b3e ee3a 3a3e 7c30 3a3e 473b 8c3b
00000150: 0c7e 773e a5e6 413e b7eb 413e be7b 083c
00000160: 3cc3 6d3e eceb 4a3e 4dc9 4a3e 1653 0c3c
00000170: 33c6 693e 20a4 483e c0a7 483e f494 103c
9.033372 0.70962733 0.08666464 0.0010792675 7.6454234 0.48590806 0.04861476 0.000639547
8.553569 0.7025206 0.09162541 0.0009362714 8.154355 0.62936807 0.07269714 0.0009422766
119.315315 51.216682 12.159456 1.417642 119.50889 52.40544 12.964567 1.6813949
117.947395 51.565258 12.006287 1.405213 118.81082 51.98109 12.4728155 1.5276755
0.65178126 0.6517812 0.65178126 0.021933576 0.61562175 0.61562175 0.61562175 0.019336866
0.6167395 0.6167395 0.61673945 0.019166516 0.62051326 0.6205133 0.6205133 0.019158045
0.20941445 0.1624126 0.16241261 0.007463631 0.2168751 0.17112035 0.17112035 0.00731693
0.22947809 0.16365162 0.16365162 0.0054915664 0.25504166 0.18725647 0.18725646 0.0078433165
0.15947515 0.14563185 0.14563185 0.008379211 0.15287381 0.13948487 0.13948485 0.005447407
0.16671875 0.1577725 0.15777251 0.00800643 0.14603744 0.14074029 0.1407403 0.010332812
0.22956453 0.18186542 0.18182558 0.0042795273 0.24169177 0.1893564 0.18937574 0.008330284
0.23219007 0.1981656 0.19803353 0.008564731 0.22829513 0.19593859 0.19595242 0.008824576

exp_avg f4 [76, 130]
00000000: 88ed e93a 9900 163a 25b8 7339 a6e9 1f3b
00000010: 5d76 a23b 7489 1c3a 6420 c13b 7449 273b
00000020: a3f3 12ba 56c4 233b e349 8b3b 66a2 253b
00000030: 58d0 773b 2169 703a c7d8 943b 5a06 5e3b
00000040: c459 453b 6ee4 013b 4b22 75b9 5d41 0f3b
00000050: 74e7 acba e070 023b 8568 5e3b 031b a239
00000060: 67c8 5d3b d8bc 5c3b b921 eb3a 26dd e6ba
00000070: 1024 ebba 4b15 5639 cdcd 443b 217a 543b
00000080: e8f0 263b 4eef 5a3b 6772 763b fca2 1c3b
00000090: 1801 9f3b f77d 263c 7f28 333c 657c 583c
000000a0: e00d 563b 597b 0ebb b951 8c3a 1124 443b
000000b0: 51cd dab9 db45 563b 794f 383c df65 e13b
000000c0: c755 c33b b2e5 d63b 5073 933b 77bc 12ba
000000d0: bcde 293b c594 b23b 81fc a03b 5ceb 1a3c
000000e0: 1d15 133c f898 543b 414b a2bb 2c35 90ba
000000f0: 1fd5 9e3a 7d1b 13b9 fb4f 433b d204 b13b
00000100: d08f d93b 207b 063c cdf8 b23b 62fa ad3b
00000110: cc1b 203c 15db ba3c 5feb b83c 6f51 ae3c
00000120: affc 793c d6b6 923b c229 663b a597 463c
00000130: ae6d 993b 52df d73b eb82 1a3c fe5e 0d3c
00000140: 9885 1a3c d59e 483c f97d 4f3b 80e3 49bb
00000150: 6b18 993b 5bb2 ea3b 6748 663c 6fa3 543c
00000160: e9d9 383c 6d2d 293c b7f7 c83b 1f16 5f3b
00000170: fb5d 06bb 15ca 91ba 9104 af3b a8ba 663c
00000180: 18d7 753c acdd 613c 50ec 443c 9269 073c
00000190: a514 143c ae14 0c3c c392 93bb 1fb6 4c3b
000001a0: 37f2 8c3a 4085 183b e7e1 313b 7ff3 b93a
000001b0: 76d7 75b9 b7fd 923b 7567 05ba d6cb 013c
000001c0: 69ed 793b c247 2539 7750 e53a 7318 003c
000001d0: 234b cf3b bdde ab3b 877f 943b e024 153c
000001e0: 1d1f 2c3b cfb3 ed3a baeb 053c 1734 303b
000001f0: 552e ae3b 7c63 353c eb83 4a3c d6b9 1b3c
00000200: 7023 c13b 897f a23b db82 04bb 3af2 3dbb
00000210: c1ba 61bb f0c8 49bb d52b c4bb 56eb bdbb
00000220: 48d3 a3bb f413 90bb 45d5 35bb bcd6 a3bb
00000230: adf5 49bb 127d c0bb 12b0 bdbb 4054 cdbb
00000240: bdcd 1abb a87a 08bb ee04 c7bb 25ff 83bb
00000250: 5778 35bb 5a8a cdbb 4428 d7bb c7a4 77bb
00000260: 5d9e 5cbb 977a 2fbb dbe1 d4ba 6c9e a5bb
00000270: 7d88 abbb c896 58bb c74a 9dbb 1c13 e8bb
00000280: 6cd1 a6bb 01d9 eaba 0966 9dbb 8c80 05bc
00000290: 4fa4 10bc 0685 98bb a507 f2bb 2fba 84bc
000002a0: a86f 6bbc 0a23 33bc 07ed 02bc 5faa 13bc
000002b0: c3b3 f2bb d5a9 4cbc 161f 73bc e865 3cbc
000002c0: 4b20 28bc ea73 89bc 9e78 6abc a2af 26bc
000002d0: ba2f 10bc 86ec 5cbc 14be 30bc 559e 04bc
000002e0: bc6c 53bc 72ca 11bc 873a a8bb 8e86 19bc
000002f0: 6fcb 5ebc 3e15 3bbc 1879 02bc 67a6 28bc
00000300: ec73 59bc 4fbb 67bc e2cd 27bc 4e58 b1bb
00000310: 6ab5 42bc 6835 6dbc 1b25 9bbc 8bed bdbc
00000320: ca26 d8bc 5b49 e5bc 11ba d9bc 5119 b1bc
00000330: beb8 06bd d704 cfbc 65ba ecbc f62d e2bc
00000340: bd20 f3bc fb8f c4bc d27f f2bc 32cb 00bd
00000350: 6811 d3bc 47cd c3bc 42c7 eabc e35f bcbc
00000360: 0559 c6bc 955d dbbc 77d1 a0bc 8983 cebc
00000370: 044d d9bc 6fa4 f1bc 50a5 c5bc 0c13 b7bc
00000380: 06ab 00bd c215 c1bc 2670 c6bc f16c b7bc
00000390: 7b7d e2bc 1f40 d5bc 014a babc 5230 cdbc
000003a0: a2fc b5bc 554e b9bc 3f17 8fbc efdc a9bc
000003b0: d3b7 adbc b209 a7bc 061d bcbc db6b a8bc
000003c0: 57f3 a9bc 24c1 9ebc 1519 a6bc d767 dabc
000003d0: 88fd aebc 433b aebc 5cc9 a2bc ad5b bbbc
000003e0: 71d4 a1bc 11b5 97bc 3d51 bcbc 3145 bdbc
000003f0: 9e3b bebc fcfb b0bc c832 9bbc 7791 bebc
0.0017847279 0.0005722135 0.00023242885 0.002440074 0.0049579577 0.000597141 0.005893754 0.002552596
-0.00056057627 0.0024988852 0.0042507513 0.00252738 0.0037813392 0.0009170939 0.0045424434 0.0033878298
0.003011332 0.0019819993 -0.00023377796 0.0021859028 -0.0013191537 0.0019903705 0.003393681 0.00030919173
0.0033841373 0.0033681896 0.0017939127 -0.0017613515 -0.0017939825 0.00020416563 0.0030029893 0.0032421427
0.002547318 0.0033406797 0.003760481 0.0023900857 0.0048524253 0.010161868 0.010934948 0.013213252
0.0032662079 -0.0021741001 0.0010705508 0.0029928724 -0.00041733173 0.0032695446 0.0112494165 0.006878599
0.005961153 0.0065581435 0.0044998303 -0.00055975415 0.0025920114 0.0054498636 0.0049129133 0.009455528
0.008977202 0.003243981 -0.0049528186 -0.0011002175 0.0012117958 -0.00014029253 0.002980231 0.005402186
0.0066394582 0.008208066 0.0054617883 0.005309389 0.009772252 0.022809545 0.022573171 0.021279065
0.015257998 0.004477362 0.0035120104 0.012121116 0.0046822643 0.006587901 0.009430627 0.008628605
0.009431265 0.0122449 0.003166078 -0.0030805767 0.0046721003 0.007162375 0.014055348 0.012978419
0.011282423 0.010325772 0.0061330455 0.0034040285 -0.0020502794 -0.0011122847 0.0053411205 0.014082588
0.015004896 0.013785761 0.012019232 0.008264916 0.009038125 0.008549852 -0.0045035793 0.0031236482
0.0010753338 0.0023272783 0.0027142705 0.0014186947 -0.00023445286 0.0044858116 -0.00050889637 0.007922133
0.0038135892 0.00015762358 0.0017495294 0.007818329 0.0063260957 0.0052450583 0.004531804 0.00910303
0.0026263662 0.0018135252 0.008173877 0.0026886517 0.005315582 0.011071082 0.012360553 0.009504756
0.005894117 0.004959051 -0.0020219597 -0.002898349 -0.003444359 -0.0030789934 -0.0059866705 -0.0057958765
-0.004999552 -0.00439691 -0.0027745527 -0.0049999636 -0.00308166 -0.0058742845 -0.0057888115 -0.006266147
-0.0023621165 -0.0020825062 -0.0060735857 -0.0040282183 -0.0027690136 -0.0062725963 -0.0065660793 -0.0037787424
-0.0033663728 -0.002677595 -0.0016241627 -0.0050542857 -0.0052347765 -0.0033048857 -0.004800174 -0.007082356
-0.005090883 -0.0017917455 -0.0048034233 -0.008148324 -0.008828237 -0.0046545295 -0.007386165 -0.01620206
-0.014369883 -0.010933647 -0.007991082 -0.009012788 -0.007406683 -0.012491663 -0.014838954 -0.011498906
-0.0102616055 -0.016778905 -0.014310984 -0.01017371 -0.008800441 -0.013484126 -0.010787506 -0.00809439
-0.012904342 -0.008898364 -0.00513393 -0.009370459 -0.013598307 -0.011418639 -0.007963441 -0.01029358
-0.013272267 -0.014143779 -0.010241957 -0.005412138 -0.011884073 -0.014478065 -0.018938592 -0.023184558
-0.026385684 -0.02798908 -0.026577981 -0.021618517 -0.032891028 -0.025270863 -0.028897474 -0.027609807
-0.029678697 -0.023994436 -0.029601965 -0.031443782 -0.025765136 -0.023901595 -0.028659467 -0.022994941
-0.02421237 -0.026778022 -0.01963113 -0.025209205 -0.026525982 -0.029497353 -0.024126679 -0.02234795
-0.0314131 -0.023569945 -0.024223398 -0.022390814 -0.027647724 -0.026031552 -0.022740366 -0.025047455
-0.022215191 -0.02262036 -0.01746714 -0.020735232 -0.021205818 -0.020390365 -0.022963058 -0.020559242
-0.020745916 -0.019379206 -0.020275632 -0.026660843 -0.021361127 -0.021268493 -0.019871406 -0.022870863
-0.01975462 -0.018518956 -0.022987956 -0.023104282 -0.023221787 -0.02160453 -0.018945113 -0.023262722
