TrainedModel/Dueling DQN-2/4500_0-11_DuelingDQN.pth (torch, 291221 bytes, 33 tensors)

conv1.weight f4 [1, 6, 1, 4]
000000 f4 2b b3 bb c1 b3 fb 3d ca 6c a9 3e 66 f9 3c 3e
       -0.005467886 0.12290145 0.33090812 0.18454513
000010 98 87 8c be ed cc 00 bf 5b 75 65 3c ea 2d 4a 3e
       -0.274472 -0.5031269 0.0140050305 0.19744077
000020 a3 fc b9 bb 10 88 b5 3e 77 3e 94 be 85 50 ef 3d
       -0.0056758686 0.3545537 -0.28953907 0.1168528
000030 ec 23 d6 3d 2d be d2 3d c8 b2 64 be 81 2e 9b bc
       0.1045607 0.102901794 -0.22333825 -0.018943073
000040 00 bb 42 3e 27 87 e6 be e8 0b 84 3e bc 45 8c 3e
       0.19016647 -0.45024988 0.25790334 0.27396953
000050 3b 10 69 be 50 85 bf 3d 41 69 0a 3e 3c a6 cc be
       -0.22760098 0.09351599 0.13516714 -0.39970577

conv2.weight f4 [1, 6, 2, 4]
000000 1e 26 dd 3e 5f 40 06 be 9f 0b 49 be 32 7e 4e 3e
       0.43193144 -0.13110493 -0.1963334 0.20165327
000010 43 9a 46 3f 53 50 8d be 04 4a a5 bd 86 77 87 bc
       0.77579135 -0.27600345 -0.08070758 -0.016536485
000020 f3 60 50 bd 09 eb a2 bb 08 29 72 bd 9f b3 2a bd
       -0.050873708 -0.004971866 -0.05912116 -0.041675206
000030 71 9a 62 3d 82 8f 05 be d6 2d 9f bd 8d 93 56 bc
       0.055323068 -0.13043025 -0.077724144 -0.013096702
000040 0b 6e 3f 3e 8e 82 ae bd 6f 9a 8e be 5b bb aa 3e
       0.18694322 -0.08520995 -0.27852198 0.33346066
000050 85 f4 20 be 86 bf 6d bd 43 63 43 3d e4 f6 80 3e
       -0.15718277 -0.05804398 0.047702085 0.25188363
000060 de 6d 9e 3d 88 b1 36 bc fc a4 39 be c9 fc 64 3e
       0.07735799 -0.011150725 -0.18129343 0.22362055
000070 97 cf 12 3e 3f e9 5a be 27 b3 1a 3d 1c d5 c1 be
       0.14337002 -0.21378039 0.03776851 -0.37857902
000080 97 17 76 be 56 43 c6 3e 5c 91 5c be 1b 68 f8 bd
       -0.24032436 0.38723248 -0.21539825 -0.121292315
000090 7a 3d 09 3e 98 a8 15 3e 36 d7 a7 bc 73 bc 47 3d
       0.13402358 0.14615095 -0.020488363 0.048763704
0000a0 ce 66 c6 bb 45 d5 2a be d8 3e 2f 3e 74 3e 58 be
       -0.0060547357 -0.16682918 0.17113817 -0.21117574
0000b0 39 c2 9f 3c d3 7d 04 be 8d 7d 85 3d c8 c9 75 3d
       0.019501792 -0.12938623 0.065180875 0.060006887

conv3.weight f4 [1, 6, 3, 4]
000000 45 a2 fd 3e 07 6a 5b 3e 66 b7 89 3d d7 c0 4f 3f
       0.49537864 0.21427165 0.067244336 0.81153625
000010 93 c5 78 3e c8 ec d0 3e aa 51 c5 3d e0 65 51 3e
       0.24294119 0.4080565 0.09634717 0.20449018
000020 8d 49 fd 3e a5 ff 47 3f c4 c3 5d 3e 86 86 4f 3e
       0.49470177 0.7812446 0.2165671 0.2026616
000030 47 5e 40 3e 14 7e 61 3e 0c cb 39 3e 37 f4 05 3e
       0.18785964 0.22020751 0.18143862 0.13081442
000040 7f d6 e3 3c 6a b2 d3 3c 61 7b 18 3c 6b 23 6e 3e
       0.02781224 0.02584191 0.00930676 0.23255698
000050 c8 3c 02 bd 73 26 38 3e 16 8d 1d 3e af fa 9a 3e
       -0.031796247 0.17983417 0.15385851 0.3026938
000060 48 08 21 3d 6a 9b 86 be 8e 6e 31 be 94 cd 09 3f
       0.03931454 -0.26290447 -0.1732733 0.5382931
000070 56 a7 2d be d9 2d ac 3b f0 3b 4e be f2 aa df 3e
       -0.16958365 0.005254489 -0.20140052 0.43685108
000080 ec 51 a7 3d 36 80 a3 3d f9 dc 89 bd 9e 76 91 3e
       0.08169922 0.07983439 -0.067316 0.2841081
000090 63 12 14 3d 93 df 26 3c af 9f 57 bc bc 11 21 bd
       0.036150347 0.01018514 -0.01316063 -0.039323553
0000a0 a0 94 60 3d 6a d6 2e 3b 1f 78 30 be 97 44 6c bd
       0.05482924 0.0026678094 -0.17233323 -0.0576826
0000b0 62 8b bb be 2f 3b ac bd f0 ec e6 3d ca 61 f2 3e
       -0.36629778 -0.08409726 0.11275661 0.47340232
0000c0 68 14 49 be 4c 1d 29 3e 7c 10 3d bc 87 91 3d 3d
       -0.1963669 0.16515082 -0.011539575 0.046281364
0000d0 4d 2a 7d be c4 4a a3 be e0 ae 84 3c 3e be 51 be
       -0.24723168 -0.3189298 0.016196668 -0.20482728
0000e0 24 01 b2 3d 92 51 77 3e d4 2c df bd 18 a7 8b be
       0.08691624 0.2415221 -0.10897222 -0.2727592
0000f0 c9 9b 0c 3a 98 28 df bd 5b 1d 20 3d 25 49 41 bd
       0.000536379 -0.108964145 0.039090496 -0.047188897
000100 e2 46 c2 bc a0 11 f1 3d 82 61 19 be e9 40 89 3e
       -0.02371544 0.1177094 -0.14978603 0.26807335
000110 14 7e 01 bd 86 7d a3 3d 0f 44 63 bd 03 f5 5e 3d
       -0.031614378 0.07982926 -0.055484828 0.05443288

conv4.weight f4 [1, 6, 4, 4]
000000 3b 32 41 3e c7 c0 34 be 80 6a 36 bc 6c b7 75 be
       0.18866818 -0.17651664 -0.01113379 -0.23995751
000010 95 02 37 be 39 f9 14 be 16 6b 58 be 42 b5 39 3e
       -0.17872079 -0.14548196 -0.211346 0.1813555
000020 45 7e 3b 3b 05 8c 20 be 03 d9 9e ba 4b b1 b1 bc
       0.0028609198 -0.15678413 -0.0012119118 -0.021690985
000030 f4 0e 38 3e 27 f1 73 3d 86 e9 84 bd ad f2 08 3e
       0.17974454 0.059556153 -0.064898536 0.13373823
000040 1e e7 56 3e f8 6d 49 bd 4d 96 e6 bd f1 29 74 be
       0.20986602 -0.04917714 -0.11259136 -0.23844124
000050 05 23 9c 3e 3b e1 16 3e d6 96 b2 bc b1 1e 0b be
       0.30495468 0.14734356 -0.02180044 -0.13585927
000060 6c 4b 82 bd 43 53 27 be 82 d3 0f be ea 8b 1d be
       -0.06362042 -0.16340356 -0.14045528 -0.15385404
000070 1b 5f 82 3d 87 b4 2e 3e 50 d8 21 be 61 56 48 be
       0.06365796 0.17061053 -0.15805173 -0.19564201
000080 9a 82 39 bd d0 f7 5d 3e 5a c2 4c 3e 17 51 d7 bd
       -0.045290567 0.21676564 0.19996014 -0.105135135
000090 ca 85 d9 3d 6c 0e 8c 3d 9e e2 96 3d 05 a3 07 be
       0.10621221 0.06838688 0.073674425 -0.13245781
0000a0 f2 4c 69 3d 32 98 76 3d 99 d3 12 3e e8 ea fd bd
       0.056958146 0.06020374 0.1433853 -0.123983204
0000b0 34 f6 bb 3c 58 08 9a 3e 7e c9 73 bd 7d 7f 66 3e
       0.022944547 0.3008449 -0.05951833 0.2250957
0000c0 9f 71 cf bd b0 de f4 3d 27 b9 5f be 30 2e 61 be
       -0.101290934 0.11956537 -0.21847974 -0.21990275
0000d0 bc e9 73 3d 9d c2 78 3e d1 6c 96 3e c8 e7 80 3d
       0.05954908 0.24292989 0.29379895 0.06294209
0000e0 05 75 e1 bd cc b1 dd 3c 63 bf a2 3e 8e 72 85 3d
       -0.11008648 0.02706232 0.3178664 0.0651599
0000f0 a0 de ee 3c 6d 1a 50 bd 44 48 56 3d e6 bf 62 be
       0.02915889 -0.05080645 0.05231501 -0.22143516
000100 f2 de 00 bd f0 07 2e 3e 2f f7 a2 3c 0b b5 97 be
       -0.031462617 0.16995215 0.019893257 -0.29630312
000110 c6 e9 6a 3e 84 08 f7 bd 6d 91 a4 3d ed 22 3e bd
       0.2294074 -0.12062171 0.0803555 -0.046420027
000120 50 9a b4 3c 9a b3 5f bc a5 a1 28 3e dc 53 7e be
       0.022046238 -0.01365366 0.16467912 -0.24836677
000130 bd d1 5a be 69 b3 b5 3d 23 ae 52 3d 9c 89 09 be
       -0.21369071 0.088721104 0.0514356 -0.134314
000140 c1 00 95 3e ff 21 8f bd 45 2a a7 bd fb 1c 97 3d
       0.29102138 -0.06988906 -0.08162359 0.073785745
000150 ef 2d 39 3c c5 f0 08 3e 8e a3 2c 3c 10 42 43 3d
       0.011302455 0.13373096 0.010537041 0.047670424
000160 3d 47 ad bd 4e 5b 83 3e 30 fc c4 bd 52 99 13 3e
       -0.08460853 0.25655597 -0.096184134 0.14413956
000170 f7 f0 ce bd 3b 07 c8 bc 87 ad d5 3d de c0 9a be
       -0.10104554 -0.02441751 0.10433488 -0.3022527

fc3_adv.weight f4 [76, 130]
000000 13 ab 29 be 7d f0 bf 3e 10 2b cb 3e ab fe 8d 3d
       -0.16569166 0.37488165 0.39681292 0.0693334
000010 4e b8 0c 3e 2c f4 c9 bb b4 45 ed 3e d6 36 95 3e
       0.13742182 -0.0061631408 0.46342242 0.291434
000020 89 72 e6 3e 7b 80 a7 3e b9 0f 92 3e 21 b8 27 3e
       0.45009258 0.3271521 0.2852762 0.16378833
000030 b6 18 0b bb 9a c8 a3 3e 85 e5 4a 3e 28 c8 c5 3e
       -0.0021224446 0.31988984 0.19814117 0.3862927
000040 9e 0a bc 3e fa 0a e4 3e 11 62 10 3f d7 3a ac 3e
       0.3672685 0.44539624 0.5639964 0.3363864
000050 6c 92 23 3f 78 9e 93 3e 79 1a 12 3e 87 27 34 3e
       0.638953 0.2883184 0.14267911 0.17593203
000060 3f 00 d3 3d 7f 2d a4 3e a4 76 85 3c c3 fb 8c 3e
       0.10302781 0.3206596 0.016291924 0.2753583
000070 de c4 b8 3e 3f cd 03 bc ff 92 8d 3e 24 da b0 3b
       0.36087698 -0.00804454 0.27651212 0.005397098
000080 c6 bb 9b 3d 19 c4 e0 3e 67 76 f6 bd 6a 57 2e bb
       0.07604174 0.4389961 -0.12034302 -0.0026602396
000090 da 7e ed bd 8b 5f 84 3e ec 90 07 3c 41 95 15 be
       -0.11596461 0.25854144 0.008274298 -0.14607717
0000a0 a8 33 13 3d fc 53 94 bd 9b e7 16 3e 39 1a e8 3d
       0.035937935 -0.07242581 0.14736788 0.113331266
0000b0 29 b8 db 3d 0c c3 b0 bd d2 0b 22 be af 03 8d 3d
       0.10728485 -0.08630952 -0.15824822 0.06885468
0000c0 2b 01 92 3e e6 42 89 3e 9f 89 b0 3d e6 f9 69 3c
       0.28516516 0.26808852 0.08619999 0.014280772
0000d0 87 df 0a bd 5d af 9d 3e 96 8d a4 3c 2e 22 4e be
       -0.03390458 0.30797854 0.020087045 -0.20130226
0000e0 22 79 a3 bd de dc 8e 3e bf ba 71 3d 06 46 da 3c
       -0.079820886 0.27902883 0.059015986 0.026644718
0000f0 21 a6 82 3e 9f 1b 1e 3e 1c b8 0b be d6 6d 05 bc
       0.2551737 0.15440224 -0.13644451 -0.008143863
000100 a9 d0 76 3e 3a 41 7c 3d e3 6a 9b 3d 03 08 8b be
       0.24103035 0.061585642 0.075887464 -0.2715455
000110 ea aa 30 3b 1c 1d 9a 3d 23 18 51 be 0c ad b3 bd
       0.0026957341 0.075250834 -0.20419364 -0.087732404
000120 e1 88 0e be a9 69 13 3d 55 44 b8 bc 59 25 3a bb
       -0.13919403 0.035989437 -0.02249352 -0.0028403609
000130 12 ea f6 3d 8a c0 53 bd 45 8a 6e be 06 4a 3b be
       0.12056364 -0.05169729 -0.23294933 -0.18289956
000140 de e9 12 3e c9 77 30 be 24 ac d5 3d 95 ec ec bd
       0.14347026 -0.17233194 0.10433224 -0.11568562
000150 8e 6a e8 bd 80 e3 89 3c 45 1a 04 3d ba ff 3f be
       -0.11348449 0.016832113 0.032251615 -0.18749896
000160 b5 58 cd bd 24 4c 65 be 6f 20 19 3e f4 fe c1 bc
       -0.10026685 -0.22392327 0.14953779 -0.023681141
000170 96 64 b0 3d b3 3d d8 bc 48 15 72 bd 9f 92 eb 3c
       0.08612935 -0.026396608 -0.059102327 0.028756438
000180 e8 68 d7 bd e6 6e 86 bd 9b ea 2d be 01 b8 b5 3d
       -0.10518056 -0.06564121 -0.16984026 0.088729866
000190 e3 fa 6b 3d 05 f9 fe 3c 28 69 a9 3e c1 bd b1 3e
       0.05761231 0.031124601 0.3308804 0.34715083
0001a0 0b 57 03 3e a4 47 47 3d 68 50 ee 3d d3 57 ea 3c
       0.12826173 0.048652306 0.1163643 0.028606331
0001b0 54 8a 8d 3e 9a cc af bc 11 a6 06 3e 09 6c a7 3e
       0.27644598 -0.021459866 0.13149287 0.32699612
0001c0 8c d7 84 3e 4d 16 7f 3e c2 a0 9e 3e f0 ea 7d 3d
       0.259457 0.24910851 0.30982023 0.061991632
0001d0 c4 49 42 3e b0 e8 5f 3e 2b 1a 93 3d 85 1c ae 3e
       0.18973452 0.21866107 0.071827255 0.34006134
0001e0 46 93 69 3e e2 ae 00 3e f0 51 26 3e f7 89 0a 3e
       0.22810087 0.12566712 0.16242194 0.13529192
0001f0 eb 8b 3b 3e f1 99 57 3d 8a 13 52 3e 7a 4a 17 bd
       0.18315093 0.052637044 0.20515266 -0.03693626
000200 af 95 97 3e 2b 2c 8b 3e 52 e2 df bd 26 ac a6 3e
       0.29606387 0.27182135 -0.10931839 0.32553214
000210 45 ff 2e 3e 81 da 8e 3d f2 ae f5 3d a9 de 0f 3e
       0.17089565 0.0697527 0.11996259 0.14049782
000220 dc 76 2a 3d e3 5f 09 3e 3f d1 68 be 31 0b 02 3e
       0.04161726 0.13415484 -0.22736071 0.12699582
000230 aa 25 9f 3d 70 29 96 3e 1c 1b 10 3f 58 61 8f 3e
       0.07770856 0.2932849 0.56291366 0.28003955
000240 76 b0 07 3e 8c 6f e3 bc cf 41 9e 3e 35 1f b5 3c
       0.13250908 -0.02776315 0.30909583 0.022109607
000250 86 b0 13 be f6 64 57 3e d6 10 1b be 17 a5 a4 bd
       -0.14422807 0.21034607 -0.15143141 -0.08039301
000260 e9 bc 13 be 81 72 9c bd a9 4c 3d be 8b 54 05 3c
       -0.14427532 -0.076390274 -0.18486275 0.008137832
000270 25 a8 ea bc 4b 55 f8 3b d4 1f 63 3e 6e 82 08 3e
       -0.02864463 0.007578527 0.2218011 0.13331005
000280 94 99 45 be 2a 2b c7 3e 0f 65 d0 3d 0d 42 66 3e
       -0.19296867 0.3890012 0.101755254 0.22486134
000290 7d b7 8a 3d 08 1a 77 3e ac 06 76 3e c3 cd a0 3e
       0.06773279 0.24131024 0.24025983 0.31406984
0002a0 18 97 5f 3e 22 26 dd 3d f4 7f ae bd 37 a7 05 bd
       0.21834981 0.10798289 -0.08520499 -0.03263017
0002b0 aa 1e 96 bd fa 0d 25 3e 90 50 8c 3d 63 c5 84 3e
       -0.073300675 0.16118613 0.068513036 0.25931844
0002c0 9f 7d e7 3d e2 6b 98 3e f4 8a 24 3e 30 27 cf 3e
       0.11303257 0.29769808 0.16068631 0.40459585
0002d0 5f 13 d4 bc bf 18 72 be 21 06 70 be 7b ff 7b 3e
       -0.025888143 -0.23642252 -0.23439838 0.24609177
0002e0 df 9f 08 3e 4f 9d 1d be ea 0e 02 be 2f 58 39 be
       0.13342236 -0.1539204 -0.12701002 -0.18100046
0002f0 8a 80 c9 bd cc d2 29 be 8d 22 02 bd cd ec a6 bc
       -0.0983897 -0.16584319 -0.03177123 -0.020376587
000300 7a d1 8e be e3 ad 19 3d c5 96 eb bd 0f f8 a6 3c
       -0.27894193 0.037519347 -0.115033664 0.020381955
000310 8f f7 aa 3c 6e cb 47 bb 69 c1 e0 3c 0b 17 03 bb
       0.020869998 -0.0030486244 0.027435975 -0.0020002748
000320 8b 38 25 be 0c 45 8c 3d f4 c4 fb bd f0 d1 88 be
       -0.1613485 0.06849107 -0.12293425 -0.2672267
000330 1f 88 a1 bc 3a 7e 0e bd 56 87 4d 3e 5f e6 8b 3d
       -0.019718228 -0.034788348 0.20071158 0.06831049
000340 bd 60 06 3d 69 85 1a 3c 8c 0d 18 3e 35 13 8a 3c
       0.0328071 0.0094312215 0.14848918 0.016854862
000350 62 4d 6c 3c 81 10 df bd 4c 2a 37 bd 7b 75 5b 3d
       0.014422746 -0.1089182 -0.04471807 0.053578835
000360 18 19 bc bd 21 b6 59 bd 26 ad 8b bd 1c 6f 9c be
       -0.09184474 -0.053152207 -0.06820135 -0.3055352
000370 f3 db 83 be 56 d1 99 bd d0 00 c1 bd 66 08 b6 bd
       -0.25753745 -0.07510631 -0.09423983 -0.088883206
000380 d4 df 37 3e 6f 4f 3c be a8 c7 81 3e cd 3d f9 3d
       0.17956477 -0.18389677 0.25347638 0.12169991
000390 ec e7 6d ba 21 38 c5 3e 91 cd 59 3e 6c 0a 34 3e
       -0.00090753916 0.38519385 0.21269824 0.175821
0003a0 8f cb 10 3d 8c 74 93 bc c8 f2 4e 3e 66 7a 41 3e
       0.03535038 -0.01799991 0.20209801 0.18894348
0003b0 f6 57 cb 3d 1a 9d 84 3e b8 ab d4 ba 4b db 8f 3d
       0.099288866 0.2590111 -0.0016225493 0.07024249
0003c0 0f eb 12 3e 1a 25 35 3d 4a 91 f0 bc 55 00 9c 3e
       0.1434748 0.044224836 -0.029366154 0.30469003
0003d0 17 15 a0 bd b3 82 97 bd e2 c0 9d 3e 57 52 23 3e
       -0.078165226 -0.07397976 0.3081122 0.15949379
0003e0 31 bf dc 3d c5 6a d8 3d 4d df 93 bc 60 39 05 3d
       0.10778654 0.1056724 -0.018050814 0.03252542
0003f0 aa e7 da 3c 05 14 83 bc 18 3e 59 3e 8d 42 29 3e
       0.026721794 -0.016000757 0.21215093 0.16529293

fc3_adv.bias f4 [76]
000000 e6 3c bc 3d 4b 02 e3 3d 10 62 ca 3d 3e ff 82 bd
       0.09191303 0.11084422 0.09881985 -0.0639634
000010 f3 e2 0d bc 4d 23 3c be b1 74 06 3c 0a 8e b8 bc
       -0.008660066 -0.18372841 0.008206532 -0.022528667
000020 81 f4 39 3e 25 36 ee 3d d0 87 92 bd a2 e3 32 be
       0.18159677 0.11631421 -0.071548104 -0.17469648
000030 3d 23 7f 3e 13 d7 b6 3c 82 88 6c 3e 3a 9d 33 3e
       0.24915786 0.022319352 0.23098949 0.17540446
000040 8c f4 a9 3e b6 e7 d9 3d 84 b0 45 3e 0c d8 ab 3d
       0.33194387 0.106398985 0.19305617 0.08390817
000050 40 7f dc 3c e2 6d 14 bc 86 3b 25 3e a2 0e 86 bd
       0.026916146 -0.009059401 0.16135988 -0.0654576
000060 c4 15 92 bd b7 c6 2b bd f2 7c d0 bd 75 ed 5a 3e
       -0.07133058 -0.041937556 -0.101800814 0.21379645
000070 93 ad 09 bd 08 5f c1 3d c2 8c 48 3e 3a 23 ac 3d
       -0.0336128 0.09441954 0.19584945 0.084051564
000080 cf c4 03 be e4 06 43 3d a5 e1 8a 3d ce 78 50 3e
       -0.12868045 0.047613993 0.067813195 0.20358583
000090 57 9d 0a 3e 2f 01 70 be 1c b1 bf 3c 36 d9 90 3d
       0.13536583 -0.23437952 0.023399882 0.0707268
0000a0 07 2e a4 3e b8 56 38 3d bf 3f ad bd bd eb 1c 3e
       0.32066366 0.045004576 -0.08459424 0.15324302
0000b0 4e f2 eb b9 5d 7c c2 3d d6 fe 1c 3e 4c 1c 29 3e
       -0.00045003224 0.09496377 0.15331587 0.165147
0000c0 ce 0b 0a 3e 48 80 eb 3d 54 e4 85 3c 4c c9 b9 3d
       0.13481066 0.11499077 0.016344227 0.090715975
0000d0 79 a9 1a 3e de 00 21 3d 00 4f d7 3d 9a e7 6f 3d
       0.15103711 0.039307468 0.10513115 0.05857048
0000e0 cf 44 86 bd 7c b2 e9 bd 7f 19 0e 3e 10 3c 2a 3e
       -0.06556093 -0.11410996 0.13876913 0.16624475
0000f0 ab f7 2d 3d bf 0b 83 3e 40 51 02 3e 81 d8 5d 3d
       0.042472523 0.255949 0.12726307 0.054161552
000100 8b bd 0f 3e a8 f9 06 bd 1d af 53 3e 83 83 5a 3d
       0.14037149 -0.032952935 0.20672269 0.053348076
000110 29 73 86 3d a2 26 92 3d 0b 54 21 3c 2b cd 12 3e
       0.06564934 0.07136275 0.009846698 0.14336078
000120 82 31 23 3d a4 92 47 3e 02 04 4f 3e fe 94 94 3e
       0.039842136 0.19489533 0.20216373 0.29019922

fc3_val.weight f4 [76, 130]
000000 e2 9c b8 3d bd 28 a5 bd e0 82 b5 3b 31 92 a2 bd
       0.09014298 -0.08064411 0.005539283 -0.0793804
000010 c2 16 07 be 18 5c e0 3b 65 d2 26 be b8 fa 7a be
       -0.13192275 0.006846916 -0.16291197 -0.24509704
000020 e9 ba cf 3d 54 65 94 bb 9f 49 78 3d f9 74 48 3c
       0.10143072 -0.004528681 0.060617086 0.01223492
000030 ca a9 99 bd 1f 1e fb 3d f1 76 0a bd 31 15 32 be
       -0.07503088 0.122616045 -0.033804838 -0.17390896
000040 cf 1e b0 3c 7c eb 4e 3e dc 6a cf bd 6a 2c d5 bd
       0.021499066 0.20207018 -0.10127804 -0.10408862
000050 cc b1 aa 3a a6 c1 6c be cd ae 1a be 62 c4 98 bd
       0.0013022958 -0.23120746 -0.15105744 -0.07459332
000060 2b 90 84 be 7c 57 97 bd 5a 10 16 3d 39 e2 d6 bd
       -0.2589124 -0.07389733 0.036636688 -0.10492367
000070 ff 8d 23 3c 84 d2 06 bd 43 f6 be 3c bf a3 83 bd
       0.009982585 -0.032915607 0.023310786 -0.064277165
000080 aa 42 85 3e e9 1c 5f bd 70 f3 ed bd 28 ae f8 bc
       0.26027423 -0.05447093 -0.11618698 -0.030356482
000090 c2 d6 1b 3d 4b d4 74 3e 3a c7 71 bd 25 34 96 3e
       0.038046606 0.23909108 -0.059027888 0.29336658
0000a0 9f 4f 46 3e e4 81 f8 3c 04 5d 93 3e 8e b6 1c 3e
       0.1936631 0.030335374 0.28781903 0.15304014
0000b0 a7 15 9a 3e 56 dc 39 3e 36 2c 88 3e fe 68 e2 3d
       0.30094644 0.18150458 0.2659623 0.11055182
0000c0 a0 52 8c 3e 0a e1 3a 3e 59 67 87 3e 13 a0 e8 3c
       0.27406788 0.18249908 0.26446036 0.028396642
0000d0 b9 ae 26 3e 65 94 30 3e 9b 75 96 3d 10 da 1f 3e
       0.16277589 0.17244108 0.0734665 0.15610528
0000e0 8f 98 66 3d 68 52 01 3c d8 48 1d 3d d4 fd 19 bc
       0.056297835 0.007893182 0.038399547 -0.009398896
0000f0 11 4e da 3d 74 f9 ff bd 94 eb be bd 83 de 50 3e
       0.10659421 -0.12498751 -0.09322277 0.20397381
000100 89 b2 01 be ea 57 a0 3d d0 68 e0 bd ec c7 3c be
       -0.12665762 0.07829268 -0.109574914 -0.18435639
000110 3b 5f 75 bd a2 c3 af bd ed 99 bb 3d ab 39 a7 3d
       -0.059905272 -0.08582236 0.091602184 0.08165296
000120 98 fd 4b 3e 56 6b 00 bd 93 f7 81 bd a3 39 03 3e
       0.19920957 -0.031352364 -0.06346049 0.12814955
000130 33 3a 46 bd 1b 1d 17 3e b3 f0 a4 3d e0 c8 a8 3b
       -0.048395347 0.14757197 0.08053722 0.0051508993
000140 34 e7 2f bd 7e fd 76 3c 0e cd b3 3d d2 e8 ac bd
       -0.0429451 0.015075086 0.087793455 -0.084428445
000150 b9 c5 bf 3d 3f 8d 32 3e fb c0 0c 3c 6a 4d d8 3d
       0.093638845 0.17436694 0.008590932 0.105616406
000160 6d 19 95 bd 14 b9 34 3d c8 25 0b be 7e d3 5d bd
       -0.0728024 0.044121817 -0.13588631 -0.054156773
000170 be 33 20 bd a3 a2 cb bc 72 e6 9c 3d 44 b5 c1 3c
       -0.039111845 -0.024857825 0.076611415 0.023646004
000180 0d 1d 00 be ce 65 6c 3e 59 e5 49 3e b2 46 5d be
       -0.12511082 0.2308571 0.19716395 -0.21609
000190 55 ef a0 bd 9b 96 99 bd a4 a9 fe bd cd da ce 3d
       -0.07858149 -0.07499429 -0.124347 0.10100327
0001a0 01 61 7e bd 77 60 db bd 30 26 f2 3d 58 ad 57 3e
       -0.06210423 -0.107117586 0.1182369 0.21062219
0001b0 6a aa 07 3d 22 58 ca bd fb e9 86 bd 4a 15 71 3e
       0.033121504 -0.09880091 -0.06587597 0.23543277
0001c0 75 8f 4a 3e d8 46 1b 3d 08 3a 11 3e 0c 28 de bd
       0.19781287 0.03790936 0.14182293 -0.10847482
0001d0 09 13 2b bd 64 15 55 be ce 07 f2 3d 02 72 4c 3d
       -0.0417662 -0.20808941 0.11817895 0.049913414
0001e0 81 77 85 3d aa 6b 8b bd 56 c9 f4 bd 59 83 f7 bd
       0.06516934 -0.06807645 -0.11952464 -0.120855995
0001f0 ed dc f1 bd 12 22 6b 3c 5e 12 48 3e 8e a0 ae 3c
       -0.118097164 0.014351385 0.19538257 0.021316793
000200 fe e8 21 3e 61 48 b8 bd 4e 5d 60 3e bb b9 8f 3e
       0.15811536 -0.0899818 0.21910593 0.2807139
000210 7f 65 21 3e a4 08 53 3e 2b 31 98 3e 1a 88 5e 3e
       0.15761374 0.20608765 0.29725012 0.21731606
000220 f4 22 b7 3e 7a 62 a2 3e c4 14 84 3e af c4 a8 3d
       0.35768855 0.31715757 0.25797093 0.082406394
000230 e9 bb 0d 3e 79 f2 5d 3e ef 9d c5 3e 66 ec 89 3e
       0.13841213 0.21674527 0.38597056 0.2693817
000240 3a 81 8e 3e b8 61 c4 3d ab 00 a7 3e c6 94 58 3e
       0.27832967 0.09588951 0.32617697 0.21150503
000250 d9 03 2c 3e bf f2 83 3e fb 93 c0 3d 64 e3 d5 3e
       0.16798343 0.25771138 0.09403225 0.41775048
000260 85 bb a6 3e c7 3d 31 3e 7a fd 3b 3e 7d 19 fe 3d
       0.3256494 0.17308722 0.18358412 0.12407205
000270 3a 38 a8 3e 9d 59 36 3e c3 af ae 3e c3 70 03 3e
       0.32855397 0.17807622 0.3411847 0.12835984
000280 c3 7e 9b 3d 0e 02 66 3e 8b 05 66 3d 2c ea b7 3e
       0.07592537 0.22461721 0.05615763 0.35920846
000290 08 3a 32 3d cf 62 73 3e f2 ca a6 3d a8 fd e7 3d
       0.043512374 0.23768161 0.081441775 0.11327678
0002a0 62 46 06 3e da 02 2b 3e de b0 91 3e d1 8b 8f 3d
       0.13112786 0.16700307 0.2845525 0.0700909
0002b0 55 a5 15 3e 62 43 ba 3d 46 bd 75 bc 45 44 75 3e
       0.1461385 0.090948835 -0.01499874 0.23951824
0002c0 08 77 76 3e 3a 30 40 3e 97 a6 da 3d 30 a5 28 bb
       0.24068844 0.18768397 0.10676306 -0.0025733225
0002d0 6b 8a 55 3e 47 43 2c bd 0b 3f af 3b c3 c0 72 3e
       0.20853584 -0.04205635 0.0053480915 0.23706345
0002e0 71 e6 9a 3c cc f9 af 3d 17 aa 07 3e 8d 6f 1d 3d
       0.018908711 0.08592567 0.13248478 0.03843646
0002f0 60 f0 0f 3e c1 32 55 3e 66 63 b1 3c 22 7f 87 3e
       0.1405654 0.20820142 0.021653842 0.26464182
000300 49 47 b3 3e 0b a5 3b 3e dd 46 b7 3e 08 f1 81 3d
       0.35015324 0.18324678 0.35796252 0.06344801
000310 25 d1 0e 3e f5 42 29 3e 90 20 22 3e fa 23 12 3d
       0.1394697 0.16529448 0.15832734 0.03567884
000320 88 05 2a 3e 81 29 62 3e 2a b9 4c 3d 3a 41 75 3e
       0.16603673 0.22086145 0.049981274 0.23950663
000330 49 5f ee 3b 39 7a 82 bd 1e 60 56 bd c0 9f 35 3e
       0.0072745425 -0.06370968 -0.05233776 0.17736721
000340 0f 25 5e 3e 2f 28 be 3d 1c d1 1e 3e d7 81 45 3e
       0.21693824 0.09285008 0.15509456 0.19287811
000350 5d c1 9d 3d a1 03 e7 bd f1 c9 44 3c f6 ec 8c 3e
       0.07702897 -0.11279989 0.012011037 0.27524537
000360 d5 39 7a 3b 0f da 17 3d d4 c2 6f 3e 01 e1 73 3e
       0.0038181443 0.03707319 0.23414165 0.23816301
000370 83 91 52 3e d6 2c c0 bd 42 f5 cb bd 9f ca b0 3b
       0.20563321 -0.09383552 -0.099588886 0.005395248
000380 99 8a 2e 3e 85 db 65 3d 18 79 ad 3d dd 76 07 3e
       0.17045058 0.056117553 0.084703624 0.13228936
000390 9a d5 ad bc 73 4c ca bb 7e 13 30 3e 0d bb 81 3d
       -0.021220017 -0.0061736642 0.17194936 0.06334505
0003a0 f4 05 a5 3d 53 c7 00 3e 10 79 a6 3d 32 b7 6a 3e
       0.08057776 0.12576036 0.081285596 0.22921446
0003b0 be ba dd 3d bf 75 b0 3d 40 0f 83 3e 11 48 b8 3d
       0.10826634 0.08616208 0.25597572 0.089981206
0003c0 a6 fc 04 3c 67 d8 30 3e 5c 60 6e 3e 34 c1 8e 3e
       0.008116877 0.17270051 0.23278946 0.27881777
0003d0 90 34 54 3e 80 54 66 bc 8c 2a 31 3e de da 8b 3e
       0.20723176 -0.014058232 0.17301387 0.2731542
0003e0 95 31 6a 3c 36 1b 31 bd 6a 08 29 3e 89 c5 bf 3d
       0.014294048 -0.04323884 0.16507116 0.09363849
0003f0 de ec 4a 3d 66 5b 82 3e e7 94 85 3e 7a f2 e1 3d
       0.0495423 0.25460356 0.26090166 0.11032577

fc3_val.bias f4 [76]
000000 36 a5 63 3e 37 5d 76 be e0 c4 d5 3e 10 38 65 3e
       0.22230992 -0.24058996 0.41751766 0.22384667
000010 e2 62 7d be 67 64 52 be 22 d6 80 be 4f 25 36 be
       -0.24744752 -0.20546113 -0.2516337 -0.1778767
000020 ff 4f 2b be a6 fe 46 be 1d 4b 0f 3f ef aa 1d 3f
       -0.16729735 -0.19433078 0.5597399 0.6158895
000030 5b 92 5b 3e 2b 16 3c be b3 80 95 3e 0a fb ea 3e
       0.21442549 -0.18367831 0.29199752 0.45894653
000040 2f 9e b7 3e 47 a2 75 be f6 11 8d 3e 64 c1 95 3e
       0.35862872 -0.23987685 0.27552766 0.29249108
000050 b2 79 81 3e d8 74 2b 3f 8d 0e 94 3e 60 e4 b8 3e
       0.2528816 0.66975164 0.2891735 0.36111736
000060 96 10 51 3e c5 cc 33 3e b3 1b 0f 3f 48 fc 48 3e
       0.20416483 0.17558582 0.5590164 0.19627488
000070 3d 39 60 be 21 49 29 be ea a4 ff 3e 87 a6 54 be
       -0.21896835 -0.16531803 0.49930507 -0.2076665
000080 33 73 0d 3e 62 1f 77 3e 3b 03 ad 3e 23 1b 12 be
       0.13813476 0.24133065 0.33791527 -0.14268164
000090 e5 17 a9 3e 28 30 53 be ea f8 19 be cc 7d 8f 3e
       0.33026043 -0.20623839 -0.1503636 0.28025663
0000a0 89 6e 08 3f fb 9a bc 3e 64 6f 6d be 38 4b 8e 3e
       0.53293663 0.3683699 -0.23187023 0.27791762
0000b0 99 6a 21 3f d9 30 57 be 3e 92 b9 3e e2 d5 44 be
       0.6305328 -0.21014728 0.36244386 -0.19222215
0000c0 de 66 17 be 46 a9 07 3f db 17 41 be cb 77 e1 3e
       -0.14785334 0.52992666 -0.18856756 0.44036707
0000d0 c9 a6 2f 3f bf 5a 88 be 2f 0c 64 be c6 a0 76 be
       0.6861387 -0.26631734 -0.22270273 -0.24084768
0000e0 6a 32 1b be 9c 9e 2b be 9d 5b 42 be 3c fb 7b be
       -0.1515595 -0.16759723 -0.1898026 -0.24607557
0000f0 fe 34 94 bd 31 6b f2 bd 02 29 3d be 85 d3 1a 3f
       -0.0723667 -0.118368514 -0.18472674 0.60479003
000100 7c b6 6d be 1e 83 57 3e 60 cb 70 be 46 6a 50 3d
       -0.23214144 0.21046111 -0.23515081 0.0508826
000110 c7 4a a3 3e 7b ca 7c be 0c d2 33 be 4d 48 23 3e
       0.31892988 -0.24686615 -0.17560595 0.1594555
000120 1c 99 c1 3d 52 e7 d9 3d ba 64 15 be 1f 0c 8e be
       0.094530314 0.10639824 -0.14589205 -0.27743623

fc4_adv.weight f4 [38, 76]
000000 13 0b 25 bd f4 4c 7a 3d 42 e7 ed be 03 4c 36 be
       -0.040293764 0.061108544 -0.46465498 -0.17802434
000010 08 a5 c4 bd 44 7e 64 3d f9 a1 a5 3e 5a 4f 7c 3d
       -0.0960179 0.05578448 0.32350138 0.061599113
000020 17 b3 c7 3e ac 0a 31 bd 6d ee 99 be 34 98 a1 3e
       0.39003822 -0.043223068 -0.30064717 0.31561434
000030 01 ab 8c bd 2b 04 8c bd 07 c4 a3 3d 30 fa 8d be
       -0.06868554 -0.068367325 0.079963736 -0.2772994
000040 85 fb 2d 3e 6c 38 05 3e b7 ec b3 3d 15 ab 6d 3e
       0.16990478 0.13009804 0.08785384 0.23209794
000050 d4 87 70 3e 65 6a 60 3e 0e 51 e7 bd 85 4f d1 3c
       0.23489314 0.21915586 -0.11294757 0.025550613
000060 9e 8a 78 be aa 0a bb bd b6 04 42 3d fe 19 9a 3d
       -0.24271628 -0.091328934 0.047367774 0.07524489
000070 3f f3 96 3d 90 3b 09 be ea 3e 36 be b8 9c 57 be
       0.07370614 -0.13401628 -0.17797437 -0.21055877
000080 58 d2 c5 3d 56 ea 52 3e e8 38 c4 bd fa 63 80 bc
       0.096592605 0.20597205 -0.095811665 -0.015672673
000090 3d c4 b4 3d f7 df d0 3d 34 fe 0d 3e 6d e3 4f 3d
       0.08826492 0.10198968 0.13866502 0.050754
0000a0 27 a5 55 be 21 c8 c9 bd 41 a0 3e be 45 f8 7d bd
       -0.20863782 -0.09852625 -0.1861582 -0.062004346
0000b0 ae 6b c9 3d ff f3 cf 3e 36 c2 dd bc 35 0c b8 3d
       0.098349914 0.40615842 -0.027070146 0.08986703
0000c0 ee dc 9f bd 5a 3e a0 3e 71 6a 26 3e d8 78 54 bc
       -0.07805811 0.3129757 0.16251542 -0.0129682645
0000d0 10 d0 5c 3d 5d 26 a0 be fc ca b0 3e 53 91 83 bc
       0.05390936 -0.3127927 0.34529865 -0.016060507
0000e0 d0 ed 41 3e ca 06 cc 3d e0 94 4e 3e 13 81 0f 3e
       0.18938375 0.099622324 0.20173979 0.14014082
0000f0 63 cc 7d be 72 98 4f 3e 00 96 79 3e b5 de 5c 3e
       -0.24784999 0.20272997 0.24373627 0.21569331
000100 d5 7c ea 3c 5e 4d 91 3a 54 fb b0 3c 72 2e 30 3e
       0.028623978 0.0011085679 0.021604218 0.17205217
000110 06 15 27 be 4f cb 28 be 9f 0e 7a be f5 de 47 3e
       -0.16316614 -0.16483806 -0.2441964 0.19518645
000120 29 cc 4a 3e 51 8b 06 3d 5f 92 73 be 61 f9 e4 3d
       0.19804443 0.032847706 -0.23786305 0.11180378
000130 b8 43 65 3e 32 31 ef 3d 4a 4e cc bd dd 37 0e 3e
       0.22389114 0.11679305 -0.0997587 0.13888498
000140 53 e2 d9 bd c3 e3 74 3d 78 7d 08 be 03 6b 5c 3e
       -0.10638871 0.059787523 -0.13329113 0.21525197
000150 09 66 76 be 01 93 cc 3e 9a 4c 99 be 36 8c ab 3e
       -0.24062361 0.39955905 -0.29941255 0.3350541
000160 a0 2b 92 bd ec e0 f7 bd f4 3c f9 bc be 13 d6 bc
       -0.07137227 -0.12103447 -0.030424573 -0.02613246
000170 12 c8 3e 3d 96 f1 e7 bc c3 a9 d8 bd 33 7e 3c be
       0.04657752 -0.02831344 -0.105792545 -0.18407516
000180 2f 12 8b bd 62 a3 f0 bb 46 fe 6c 3b 3b 13 74 3e
       -0.067905776 -0.0073436955 0.00361623 0.23835461
000190 46 a6 33 be 9c a1 ad be 26 32 64 be 1d 0d bc bc
       -0.17543897 -0.3391236 -0.22284755 -0.022955472
0001a0 9c c8 6d 3e 6e 47 56 3e 91 b2 5a 3e 27 33 06 3c
       0.23221058 0.20925686 0.2135718 0.008190907
0001b0 7b 09 6a be 70 e3 0e 3e be 96 9a bc 53 be 36 be
       -0.22855179 0.13953948 -0.018870708 -0.1784604
0001c0 e6 df c6 3d 75 de 0c 3e 70 02 1d be e0 c1 79 3e
       0.09710674 0.13756736 -0.15332961 0.24390364
0001d0 cb 68 06 bd 75 6c a2 3e f5 28 97 bc 23 d2 3b 3e
       -0.032814782 0.3172337 -0.018452147 0.1834188
0001e0 af e6 50 be c1 b3 c1 3d dc db 8c bc 2e 57 49 3d
       -0.20400499 0.094581135 -0.01719468 0.049155407
0001f0 73 a3 2f be a4 07 69 bd 41 3e 53 3d cd 2e 52 3d
       -0.17152195 -0.056892052 0.05157304 0.051314164
000200 1b 88 bc 3e 79 80 0b bd 5a e7 51 3d 05 81 2d 3e
       0.3682259 -0.034058068 0.051246025 0.16943748
000210 f9 4f 15 3e 96 c6 14 3d 21 41 9b 3e bc 59 8f bb
       0.14581288 0.0363222 0.30323127 -0.004374711
000220 05 7b 86 be dc 37 4f 3e 8d 9b a8 3d 9d f6 8a bd
       -0.2626573 0.20236152 0.08232794 -0.06785319
000230 ea bd 06 bd 12 18 c8 bd df 81 a7 3e f8 fc 42 3e
       -0.03289596 -0.09770216 0.3271627 0.19041812
000240 a1 d8 9b bd 0e ab 62 3d f9 fe 8c bc 12 f6 85 3e
       -0.07609678 0.05533891 -0.017211424 0.261643
000250 b1 8b 83 bd 03 a3 23 3e 7d 12 85 3a 8d e5 b3 3e
       -0.064231284 0.15980153 0.0010152605 0.3513607
000260 df 97 f5 3d 35 56 4e 3c c1 40 10 3c 0b 4b d0 bb
       0.11991858 0.012593796 0.008804501 -0.006356602
000270 4b dd bc 3d c1 5e a7 3e 96 0a a7 bd 50 aa 71 3e
       0.09221896 0.3268948 -0.08156316 0.23600125
000280 cb 62 f5 bd fd 59 82 3e d0 70 3a be a1 08 cc 3d
       -0.11981734 0.2545928 -0.18207097 0.09962583
000290 48 70 b4 3d 84 8a a9 3d 4f c4 db bd 6e c6 df bd
       0.088104784 0.08278373 -0.10730802 -0.10926519
0002a0 dc 27 c5 3d 22 52 8f 3e 5e 7d 0d 3e 64 c6 0d 3e
       0.09626743 0.2799235 0.13817355 0.13845211
0002b0 85 15 10 bd 75 06 11 bd 28 0c 3c 3d b1 5e d3 3d
       -0.035176773 -0.03540655 0.04591003 0.10320795
0002c0 15 26 95 3d 94 07 32 bc 76 51 67 3e d3 b8 57 bd
       0.07282654 -0.010866065 0.22589669 -0.052666496
0002d0 1d f6 37 be 61 13 43 be 28 b4 2a 3e a6 f7 8f be
       -0.17964979 -0.19050361 0.16670287 -0.28118628
0002e0 e8 26 33 3e 56 94 23 3c 68 26 ae bd cd 08 ec 3d
       0.1749531 0.0099840965 -0.08503419 0.11525116
0002f0 21 80 75 3e 58 10 b8 bd a2 9b ed bd d8 d2 10 be
       0.23974659 -0.08987492 -0.1160195 -0.1414293
000300 07 5b 34 be 6f 5a 83 be 04 82 b8 bb 67 1f 1d bd
       -0.17612849 -0.25654933 -0.0056307334 -0.038360026
000310 e0 7e 8a be 30 6a e0 bd 8f e2 f4 bd 2f 78 18 3e
       -0.27049923 -0.10957754 -0.11957275 0.14889596
000320 95 24 b4 3e 56 6c 53 3e 76 bc 22 be bb 9e 47 bd
       0.3518416 0.20646796 -0.15892205 -0.04873536
000330 ee fe 2e 3e 22 28 1b be 08 60 0c 3f 26 fe 5b 3e
       0.17089435 -0.15152028 0.5483403 0.21483669
000340 12 80 3e 3d 6e 28 5c be 28 bf b9 3e e1 07 6e 3e
       0.046508856 -0.21499798 0.36278653 0.23245193
000350 d2 61 97 be 6f 16 3d 3e 2c 17 4e 3e d7 20 af 3e
       -0.29566818 0.18465589 0.20126027 0.34204742
000360 c4 ed b6 3e 94 3a 8d 3d 20 6b b9 3e cd d1 8b be
       0.35728276 0.068959385 0.36214542 -0.27308503
000370 6a d0 c0 be 3c cc 96 3e e7 a0 ae bd d7 ae 3b 3e
       -0.37659007 0.29452693 -0.085267834 0.18328415
000380 72 24 0b 3d 6b a8 9a bc b3 84 d3 be b1 47 91 3e
       0.033970304 -0.018879136 -0.4131218 0.2837501
000390 c9 58 8f 3e 55 55 48 be 9b 09 5b be 23 b9 d1 bc
       0.27997425 -0.19563802 -0.21390383 -0.025600975
0003a0 83 9a a9 be 5d 7e 89 bc b9 10 69 be 9b b2 ec 3d
       -0.33125696 -0.016783888 -0.22760285 0.11557504
0003b0 10 36 17 be 24 64 ec 3b e0 4d 80 3e 68 d3 73 be
       -0.14766717 0.007214086 0.25059414 -0.23811114
0003c0 ba 76 d7 3d ff a6 60 bd 82 f6 4e 3e dc 12 22 3e
       0.10520692 -0.05484676 0.20211223 0.15827507
0003d0 55 10 67 be f2 69 c5 3d a5 ac 38 3e 9e cb 83 bd
       -0.22564824 0.09639348 0.18034609 -0.06435321
0003e0 31 b2 10 3e 51 7b 83 3e ba 03 41 3d e1 5c 85 bd
       0.14130475 0.2568002 0.047122695 -0.06511856
0003f0 42 9a 97 be 88 e3 fb bd 1d 15 72 be 30 b6 b3 bc
       -0.29609877 -0.122992575 -0.23640867 -0.02193746

fc4_adv.bias f4 [38]
000000 7e e8 55 3d 44 26 1d 3c 60 4e d5 bd ef 1b 42 bc
       0.052223675 0.009591643 -0.104153395 -0.01184748
000010 ed ba 34 3d 3a 26 3c 3c db 4f 50 3e ae 26 aa ba
       0.04412358 0.011483723 0.20342962 -0.0012981498
000020 3a 85 f0 bc 52 de 3e 3d 3b 2d d9 bd 27 2f 2a be
       -0.029360402 0.04659874 -0.1060433 -0.1661955
000030 02 f5 1b 3e 59 b1 7d 3d 03 05 81 bc 18 7c ba 3d
       0.15230182 0.06193671 -0.01574946 0.091057
000040 d3 75 b0 3d 77 22 d0 3d 6e 86 b7 bc 57 ee ba bd
       0.08616223 0.10162824 -0.022402968 -0.09127491
000050 96 a7 a9 3d 44 f3 37 3e 9a 21 0f 3c 4a 7b f0 3d
       0.082839176 0.17963892 0.008736039 0.117422655
000060 f7 4f 8e 3d e0 2a d9 3d f3 46 11 3e e2 02 7d bd
       0.06948846 0.10603881 0.14187221 -0.061770327
000070 1d d7 03 be ac 8b d9 3d 63 ba b6 3c c7 21 fc bd
       -0.12875028 0.106223434 0.022305673 -0.1231113
000080 f9 83 8a 3d 65 66 8b 3d 85 bb ca bd 4b b1 3d 3e
       0.06763453 0.068066396 -0.09899048 0.18524663
000090 5b ab 52 be 98 cc 8b 3e
       -0.2057318 0.2730453

fc4_val.weight f4 [1, 76]
000000 cd d4 cf be be 10 be 3e 96 0e 53 bf 13 39 84 be
       -0.40592042 0.37122148 -0.8244413 -0.25824794
000010 14 7e 9f 3e 77 74 dd 3e ce 11 31 3e c0 93 64 3e
       0.31150877 0.43252918 0.17291948 0.22321987
000020 15 1a 8b 3e f4 49 4e 3e 25 b2 a3 bf e7 4b d5 bf
       0.27168337 0.20145398 -1.278874 -1.6663789
000030 37 90 da be fd f6 83 3e 43 38 c3 be b9 28 7a bf
       -0.42688152 0.25774375 -0.38128862 -0.9771839
000040 0e 5c f8 be 24 0e b4 3e c7 a4 e8 be 6a b1 31 bf
       -0.48507732 0.35167038 -0.45438215 -0.6941134
000050 f8 99 ed be 10 a7 a2 bf fa f2 d7 be 4e 7b 6f bf
       -0.4640653 -1.2707233 -0.42177564 -0.93547523
000060 57 4a df be 01 05 d8 be 58 42 9f bf e3 69 4c bf
       -0.43611404 -0.42191318 -1.2442122 -0.7984907
000070 8f 24 94 3e 19 bb 59 3e c2 6e 6a bf d6 7e 8e 3e
       0.28934142 0.21262778 -0.91575253 0.27831143
000080 fe fe cd be 32 ff bf be 5a 2b 06 bf b2 aa 61 3e
       -0.40233606 -0.37499386 -0.524099 0.22037771
000090 ae 37 c1 be a3 dc ca 3e 1e 27 a6 3e 01 9a 44 bf
       -0.37737793 0.39621457 0.3245172 -0.7679749
0000a0 42 90 9d bf 45 ca 60 bf db f8 e1 3e 43 3e f3 be
       -1.2309649 -0.8780864 0.44135174 -0.4750844
0000b0 3d 0d 83 bf c4 f9 78 3e c7 7f 88 be 8a 9d 20 3e
       -1.0238415 0.24314028 -0.26659986 0.15685096
0000c0 18 23 44 3e 38 a8 6f bf 2a ec 2d 3e d5 5e b2 bf
       0.19154012 -0.93616056 0.1698462 -1.393519
0000d0 eb ad 88 bf da 74 a0 3e 86 2c 3b 3e 69 69 22 3e
       -1.0678076 0.3133915 0.18278703 0.15860523
0000e0 33 fd 65 3e 52 48 64 3e 47 cb ba 3e a0 d2 67 3e
       0.22459869 0.22293213 0.36483213 0.22638941
0000f0 09 2a 5e bf 41 6a af 3e d5 a5 35 3e 7b e9 80 bf
       -0.8678289 0.34260753 0.17739041 -1.0071253
000100 2b de 59 3e ad d3 ec be f7 89 19 3e d7 fc 29 bf
       0.21276157 -0.46255246 0.14994036 -0.6640143
000110 bd fe 83 be 44 53 d3 3e 3e 01 c3 3e 41 67 0b bf
       -0.25780287 0.41274464 0.38086885 -0.5445443
000120 f0 b6 eb be dc 36 b4 be 63 9b cd 3e 15 1d 94 3e
       -0.46038008 -0.35198104 0.40157613 0.28928438

exp_avg f4 [1, 6, 1, 4]
000000 07 e3 43 3f a2 1d 80 3e 0f bd 1a 3e df 79 8e 3b
       0.7651829 0.25022608 0.15111183 0.0043480243
000010 0a 78 0e 40 04 00 00 00 04 00 00 00 00 00 00 00
       2.2260766 6e-45 6e-45 0.0
000020 f8 6a 79 bc f8 6a 79 bc f8 6a 79 bc dc 36 cb bd
       -0.015223257 -0.015223257 -0.015223257 -0.09922573
000030 eb 6e 24 3d 9e f4 b8 3c 9e f4 b8 3c a8 dc 06 bc
       0.040144842 0.02257758 0.02257758 -0.0082313195
000040 95 48 2c 3e 48 1e 0f 3e 48 1e 0f 3e 55 d9 03 3d
       0.16824563 0.13976395 0.13976395 0.032189686
000050 46 ef e9 3c 0e e7 5c 3d 0e e7 5c 3d 00 00 00 00
       0.028556477 0.05393129 0.05393129 0.0

exp_avg_sq f4 [1, 6, 1, 4]
000000 c4 ec 50 42 99 36 b5 40 9f ae 50 3f c5 40 80 3c
       52.231216 5.6629148 0.8151645 0.015655885
000010 ce 94 3a 43 d0 95 20 0e f4 01 00 00 00 00 00 00
       186.58127 1.9793655e-30 7e-43 0.0
000020 7c ef 3c 40 7c ef 3c 40 7c ef 3c 40 b9 83 4f 3e
       2.952117 2.952117 2.952117 0.20265092
000030 a8 05 38 3f 5b 3f 15 3f 5b 3f 15 3f af 05 ff 3c
       0.7188363 0.582998 0.582998 0.03113064
000040 4d d0 11 3f 23 49 03 3f 23 49 03 3f 5c 24 44 3d
       0.56958467 0.5128347 0.5128347 0.047886238
000050 24 9c 0d 3f f1 c0 08 3f f1 c0 08 3f 00 00 00 00
       0.55316377 0.53419405 0.53419405 0.0

exp_avg f4 [1, 6, 2, 4]
000000 90 b4 cd 3e da 85 3f 3e 91 e2 2f 3c eb 29 d0 ba
       0.4017682 0.18703404 0.01073517 -0.0015881633
000010 2c 83 bd 3e a7 eb 6c 3e bd 7a e2 3d 34 91 98 bb
       0.3701414 0.23136769 0.11058567 -0.0046559814
000020 96 6c fb 3f 5f f4 da 3e e9 a6 d2 3e 2f 24 7d bb
       1.9642513 0.42764565 0.41142967 -0.0038626303
000030 35 45 0e 40 e3 82 c0 3e b7 63 ac 3e 22 b1 a3 3d
       2.222974 0.3759986 0.33669826 0.0799277
000040 45 ed b1 bd 45 ed b1 bd 45 ed b1 bd bb ae 0b bd
       -0.08687834 -0.08687834 -0.08687834 -0.034102183
000050 6d d7 6f 3d 6d d7 6f 3d 6d d7 6f 3d 4c 47 a9 bc
       0.058555055 0.058555055 0.058555055 -0.02066388
000060 6b 3a 6e 3d a1 22 53 3d a1 22 53 3d aa 0b 8a b9
       0.05816118 0.051546697 0.051546697 -0.00026330102
000070 99 00 f1 3d 3c 5a e1 3d 3c 5a e1 3d b4 f7 34 ba
       0.11767692 0.11003539 0.11003539 -0.0006903366
000080 f3 4e d5 bd 27 c7 e6 bd 27 c7 e6 bd bb 64 a0 3b
       -0.10415449 -0.11268454 -0.11268454 0.0048948205
000090 87 5e e6 bd b2 ec f2 bd b2 ec f2 bd 76 1f e5 3b
       -0.112484984 -0.11861552 -0.11861552 0.006992276
0000a0 b2 f7 95 3c ce be e4 3c ce be e4 3c dd fd 99 3a
       0.018306587 0.027923014 0.027923014 0.0011748631
0000b0 c7 8f 80 bd 5b 6c 3c bd 5b 6c 3c bd 71 ff a0 3a
       -0.06277423 -0.046001773 -0.046001773 0.0012283159

exp_avg_sq f4 [1, 6, 2, 4]
000000 9a 60 b4 40 27 66 64 3f d5 fa 01 3e 06 d0 0e 3b
       5.636792 0.8921837 0.12693341 0.0021791472
000010 19 53 a9 40 ba 1a 4e 3f ab 5b 1f 3e d4 bf 8e 3a
       5.2913938 0.8050953 0.15562312 0.001089091
000020 be ef 2b 43 5c 00 ab 42 79 d4 a2 41 9d 22 c1 3f
       171.9365 85.5007 20.353746 1.5088688
000030 6c 51 2b 43 96 08 a7 42 db 62 94 41 8e 0b 0c 40
       171.31805 83.51677 18.54827 2.1882052
000040 1c 9e 45 3f 1c 9e 45 3f 1c 9e 45 3f 3e 6f ee 3c
       0.7719438 0.7719438 0.7719438 0.029105779
000050 bf 9d 64 3f bf 9d 64 3f bf 9d 64 3f f3 d2 0c 3d
       0.893032 0.893032 0.893032 0.034380864
000060 d9 cc 40 3e 91 61 22 3e 91 61 22 3e c3 30 31 3b
       0.18828143 0.15857531 0.15857531 0.002703712
000070 7f 9f 8c 3e d8 d3 7c 3e d8 d3 7c 3e 14 2e 3b 39
       0.27465436 0.24690187 0.24690187 0.00017850875
000080 81 1d 67 3e 95 3d 60 3e 95 3d 60 3e 20 94 15 3b
       0.22569849 0.21898492 0.21898492 0.0022823885
000090 a5 ec 70 3e d5 3b 6b 3e d5 3b 6b 3e 94 9e 10 3c
       0.23527773 0.22972043 0.22972043 0.0088268705
0000a0 4e 34 9f 3e 5e ee 97 3e 5e ee 97 3e 5b a2 1d 3b
       0.31094593 0.29674047 0.29674047 0.002405307
0000b0 4c 8c a6 3e 95 8b 9f 3e 95 8b 9f 3e 59 2d a7 3b
       0.32528913 0.3116118 0.3116118 0.0051018414

exp_avg f4 [1, 6, 3, 4]
000000 fe 4f 77 3e 57 a2 3b 3e e9 ea 43 3d f1 79 89 bb
       0.24151608 0.18323646 0.04783145 -0.0041954448
000010 57 e5 e8 3d 49 85 91 3d 8a 82 f3 3c 96 92 45 bc
       0.11371868 0.071055 0.029725332 -0.012058875
000020 a9 9b ac 3c 93 35 ba 3d a3 25 ab 3c df 9d 79 ba
       0.021070318 0.0909225 0.02089197 -0.0009522121
000030 1b b9 b1 3f a5 a6 7c 3f 5d f5 c3 3e f4 dc ef 3d
       1.3884615 0.9869178 0.38273135 0.11712065
000040 04 a8 9e 3f 95 93 6b 3f 05 9b ba 3e bc a3 93 3d
       1.2395024 0.9202207 0.36446396 0.07208964
000050 a1 5e a1 3f 62 37 51 3f da 31 f1 3e 02 e5 68 bc
       1.2607003 0.8172513 0.47108346 -0.014214756
000060 2f 2a ce 3d 2c 2a ce 3d 2d 2a ce 3d b2 89 6c bb
       0.1006664 0.100666374 0.10066638 -0.0036092815
000070 ad f1 23 3e ad f1 23 3e a9 f1 23 3e 5b 71 9b bb
       0.1601016 0.1601016 0.16010155 -0.0047437376
000080 cc 59 91 3d cb 59 91 3d cc 59 91 3d c2 e2 56 3c
       0.070972055 0.07097205 0.070972055 0.013115587
000090 a4 3d a1 3d 45 45 b3 3d 46 45 b3 3d ad 11 28 3b
       0.07873085 0.087534465 0.08753447 0.0025645301
0000a0 c8 e6 27 3d c1 33 6f 3d c1 33 6f 3d 57 ef 33 3b
       0.040991575 0.058398966 0.058398966 0.002745589
0000b0 73 31 6c 3c 73 33 01 3d 73 33 01 3d 40 9c db bb
       0.0144160865 0.031543206 0.031543206 -0.006701976
0000c0 fc 33 39 3d 65 f2 30 3d 65 f2 30 3d c9 d2 01 bc
       0.04521559 0.043199915 0.043199915 -0.00792379
0000d0 fd b6 80 ba 8b f4 e2 ba 69 f4 e2 ba ea dc 15 3b
       -0.000982016 -0.0017315311 -0.0017315272 0.002286727
0000e0 ef 16 d0 3d 2d c4 d0 3d 2c c4 d0 3d 59 7a d5 3a
       0.10160624 0.101936676 0.10193667 0.0016287073
0000f0 fd 0d c5 3d d4 c0 a7 3d d4 c0 a7 3d ae 43 78 bb
       0.09621809 0.08191076 0.08191076 -0.0037882137
000100 7c 12 e8 3c 69 06 b5 3b 69 06 b5 3b 6e 34 1c bc
       0.028329127 0.005524446 0.005524446 -0.009533985
000110 a0 82 81 3d ce e6 19 3d d0 e6 19 3d 27 6f 82 bb
       0.06323743 0.037573628 0.037573636 -0.0039805355

exp_avg_sq f4 [1, 6, 3, 4]
000000 ac 86 95 3f f7 d7 12 3e 6c 03 bc 3c 92 68 ea 39
       1.1681724 0.14340197 0.02295085 0.0004470987
000010 8d 15 a7 3f 3b 1f 1c 3e 69 c6 d9 3c 12 bb 0b 3a
       1.3053452 0.15246288 0.026583867 0.0005330305
000020 b9 6c 95 3f 38 20 27 3e 0a d6 fb 3c 90 93 d9 39
       1.1673805 0.16320884 0.03074171 0.00041499408
000030 f3 93 a4 41 85 81 41 41 8d bc 6f 40 6a 29 13 3f
       20.57224 12.094121 3.7458832 0.5748507
000040 31 de a2 41 29 1c 37 41 86 bd 64 40 08 85 09 3f
       20.358492 11.444375 3.5740676 0.53718615
000050 5b 4b a4 41 86 95 41 41 da 86 79 40 70 1a 18 3f
       20.536795 12.099005 3.8988557 0.5941534
000060 4c 1f fe 3d 4c 1f fe 3d 4d 1f fe 3d 18 af ba 3b
       0.12408313 0.12408313 0.12408314 0.0056971423
000070 d8 d5 e9 3d da d5 e9 3d d8 d5 e9 3d ea 9a b4 3b
       0.114177406 0.11417742 0.114177406 0.0055116313
000080 11 bc 23 3e 11 bc 23 3e 11 bc 23 3e 58 04 d8 3b
       0.1598971 0.1598971 0.1598971 0.0065923147
000090 cc 38 19 3d 31 d0 09 3d 32 d0 09 3d df ab 8c 3a
       0.03740768 0.033645812 0.033645816 0.0010732374
0000a0 0e 1d 1a 3d 7b a0 09 3d 7b a0 09 3d b2 15 37 3a
       0.037625365 0.03360031 0.03360031 0.0006984129
0000b0 b6 c4 06 3d c5 f2 ed 3c c5 f2 ed 3c 69 66 95 3a
       0.032902442 0.029046426 0.029046426 0.0011398318
0000c0 f6 38 25 3d 01 54 1f 3d ff 53 1f 3d d5 8d ef 3a
       0.040337525 0.03889847 0.038898464 0.0018276522
0000d0 28 8b f7 3c a4 3d f0 3c a3 3d f0 3c d0 56 ee 3a
       0.030217722 0.029326268 0.029326266 0.0018183831
0000e0 e7 50 32 3d 7f 3c 2f 3d 81 3c 2f 3d 4f 16 b8 3a
       0.043534186 0.042782303 0.04278231 0.0014044734
0000f0 02 84 2e 3d 30 07 23 3d 2f 07 23 3d 20 1a 5a 3a
       0.04260636 0.039801776 0.039801773 0.0008319933
000100 77 91 2b 3d ae 5f 22 3d af 5f 22 3d 3e f5 08 3a
       0.041886773 0.03964203 0.039642032 0.0005224532
000110 21 46 3b 3d ed 85 20 3d ea 85 20 3d 4a 7f 1e 3a
       0.045721177 0.03919022 0.03919021 0.0006046189

exp_avg f4 [1, 6, 4, 4]
000000 c8 51 47 3e a6 7c b3 bc f7 ca 00 3d 2e e6 19 3b
       0.19464791 -0.021910023 0.031443562 0.0023483145
000010 4a 72 f2 3d 3f aa d6 3c e8 2d b5 3d 60 c5 45 3c
       0.11838205 0.026204227 0.088466465 0.012070984
000020 6a 73 a5 3e be 75 a1 3d a8 6b 4a 3d 70 86 50 3c
       0.32314616 0.07883786 0.049419075 0.012727365
000030 28 0f cb 3e f6 86 24 3d c5 fb 8b 3d bb 75 4d bb
       0.3966 0.04016777 0.068351306 -0.003135069
000040 7c cf fa be d9 09 6e bf 61 60 b0 be f1 a9 07 3e
       -0.48986423 -0.92983776 -0.3444853 0.13248421
000050 13 34 10 bf 39 e6 ae bf 1f 41 1a bf 5e 83 1f be
       -0.5632946 -1.3664008 -0.60255617 -0.15577456
000060 08 d7 33 bf d6 00 8c bf 76 c2 12 bf 13 42 18 be
       -0.70249987 -1.0937755 -0.57327974 -0.14868955
000070 de 6d 30 bf ea aa 78 bf b8 3f 27 bf b3 60 49 be
       -0.68917644 -0.97135794 -0.653316 -0.19665794
000080 85 98 02 be 83 98 02 be 84 98 02 be 48 32 9d bc
       -0.12753494 -0.12753491 -0.12753493 -0.019189015
000090 fd a5 d7 bc 08 a6 d7 bc 00 a6 d7 bc 4a 74 82 bc
       -0.026324267 -0.026324287 -0.026324272 -0.015924592
0000a0 ed 34 de bd e4 34 de bd e7 34 de bd 21 0d 14 3c
       -0.108499385 -0.10849932 -0.10849934 0.009036333
0000b0 a7 de 1b 3d a7 de 1b 3d a6 de 1b 3d 40 16 8a 3c
       0.038054135 0.038054135 0.03805413 0.016856313
0000c0 3f 4c f6 bd ed bb c0 bd ed bb c0 bd f3 31 c5 3b
       -0.120262615 -0.09410844 -0.09410844 0.0060179173
0000d0 25 35 91 bd 74 fa 46 bd 75 fa 46 bd 09 0a 97 3a
       -0.07090215 -0.048578694 -0.0485787 0.0011523376
0000e0 87 f8 e4 bd 5e 71 b7 bd 60 71 b7 bd af 3e 3e bc
       -0.11180215 -0.0895717 -0.089571714 -0.011611625
0000f0 14 a5 e9 bd 1a da b5 bd 18 da b5 bd 25 76 23 bc
       -0.11408439 -0.0887949 -0.08879489 -0.009976898
000100 c5 0b 00 3d 99 22 bb 3c 9a 22 bb 3c f9 df b0 3c
       0.031261224 0.022843646 0.022843648 0.021591173
000110 0f 54 ab 3c 12 26 5e 3c 0a 26 5e 3c 44 69 84 3c
       0.020914106 0.013558881 0.013558874 0.016163476
000120 1d dd a1 3c 2a 82 62 3c 3f 82 62 3c e2 44 3a 3c
       0.019758755 0.013824979 0.013824998 0.011368962
000130 72 3a b1 bd da 8a c5 bd dc 8a c5 bd 8f 38 2a 3c
       -0.08653726 -0.096456245 -0.09645626 0.010389461
000140 67 79 ad bd 53 88 95 bd 53 88 95 bd f9 67 d0 bb
       -0.08470421 -0.073013924 -0.073013924 -0.0063600508
000150 9f c2 cc bd e4 7f c4 bd e0 7f c4 bd b0 3f a3 3a
       -0.099980585 -0.09594706 -0.09594703 0.0012454893
000160 54 41 c2 bc 6d 53 dc bc 71 53 dc bc 80 49 06 3c
       -0.023712792 -0.02689525 -0.026895257 0.008196235
000170 04 7b ad bd db 05 a5 bd db 05 a5 bd af 81 14 b8
       -0.08470729 -0.080577575 -0.080577575 -3.5406727e-05

exp_avg_sq f4 [1, 6, 4, 4]
000000 91 0a 0c 41 36 bb 26 3f bb 7a b0 3d aa 8d be 3a
       8.75258 0.6512941 0.08617159 0.0014538069
000010 68 67 e8 40 06 ec da 3e 45 ad 44 3d 67 13 07 3a
       7.262623 0.42758197 0.048016805 0.00051527325
000020 bc a0 05 41 23 a9 17 3f db 90 ec 3d c5 8b a0 3a
       8.351742 0.5924246 0.115510665 0.0012248686
000030 f2 e7 f2 40 10 95 19 3f e6 9c e4 3d f0 0a a5 3a
       7.5908136 0.59993076 0.111627385 0.0012591761
000040 d6 bb d9 42 94 fe 41 42 1f 4d 40 41 29 50 c8 3f
       108.86687 48.49861 12.018828 1.5649463
000050 4e 41 de 42 d8 aa 48 42 dd e8 47 41 3a bc db 3f
       111.12755 50.16684 12.494351 1.7166817
000060 b6 39 db 42 2a ca 42 42 eb 31 38 41 06 49 c0 3f
       109.61272 48.697426 11.512187 1.5022285
000070 e2 67 db 42 0d cb 43 42 de 14 40 41 88 10 c0 3f
       109.702896 48.94829 12.005095 1.5005045
000080 4e c9 03 3f 4c c9 03 3f 4c c9 03 3f 34 7b 82 3c
       0.5147904 0.5147903 0.5147903 0.015927888
000090 59 e2 fb 3e 5a e2 fb 3e 59 e2 fb 3e 7f 4c 84 3c
       0.49196127 0.4919613 0.49196127 0.016149757
0000a0 9b 32 0a 3f 98 32 0a 3f 9b 32 0a 3f 12 c0 97 3c
       0.5398347 0.5398345 0.5398347 0.018524203
0000b0 3a df ff 3e 3a df ff 3e 3a df ff 3e 0d 5a 92 3c
       0.49974996 0.49974996 0.49974996 0.017865205
0000c0 70 41 32 3e d8 d2 12 3e d8 d2 12 3e 11 b6 00 3b
       0.17407775 0.14338243 0.14338243 0.001963977
0000d0 d0 79 10 3e 58 aa ea 3d 59 aa ea 3d 72 30 1b 3b
       0.14108968 0.11458272 0.114582725 0.0023679999
0000e0 7c ee 28 3e d3 8b 0d 3e d3 8b 0d 3e 43 3d 49 3b
       0.16497225 0.1382287 0.1382287 0.003070668
0000f0 d8 20 11 3e bf 76 e9 3d bf 76 e9 3d 0d d5 4b 3b
       0.14172685 0.11399602 0.11399602 0.003110233
000100 3f 4c 14 3e af 9f 06 3e ae 9f 06 3e 88 1c b1 3b
       0.1448221 0.13146852 0.1314685 0.0054050125
000110 83 d5 fc 3d 83 94 e5 3d 83 94 e5 3d fb 2e 9c 3b
       0.12345412 0.11209967 0.11209967 0.0047663427
000120 54 b3 03 3e 99 59 f3 3d 98 59 f3 3d 03 6e 9a 3b
       0.12861377 0.11882324 0.11882323 0.0047128215
000130 57 51 06 3e 59 22 ef 3d 58 22 ef 3d c9 42 26 3b
       0.13116966 0.11676473 0.116764724 0.0025369397
000140 93 aa 3a 3e b2 4b 1e 3e b3 4b 1e 3e f4 f3 15 3b
       0.18229131 0.15458563 0.15458564 0.0022881003
000150 01 a7 49 3e 31 b3 27 3e 31 b3 27 3e 0b bf 91 3b
       0.19692613 0.1637695 0.1637695 0.004447823
000160 a4 f7 3c 3e c9 9a 12 3e c9 9a 12 3e ad 58 4a 3b
       0.18453842 0.14316858 0.14316858 0.0030875609
000170 00 ed 33 3e e4 df 07 3e e4 df 07 3e 75 e5 f8 3b
       0.17570877 0.13269001 0.13269001 0.007595713
