TrainedModel/Dueling DQN-2/5400_0-13_DuelingDQN.pth (torch, 291221 bytes, 33 tensors)

conv1.weight f4 [1, 6, 1, 4]
0	0xbb690c94	-0.0035560476
1	0x3e2575e8	0.16158259
2	0x3ec0192b	0.37519202
3	0x3e767de2	0.24071458
4	0xbe925ad7	-0.2858493
5	0xbf00cced	-0.5031269
6	0x3c65755b	0.0140050305
7	0x3e4a2dea	0.19744077
8	0xbc5cf0b7	-0.013485125
9	0x3eb1884f	0.34674308
10	0xbe983e38	-0.2973497
11	0x3e58b2d2	0.21161965
12	0x3df8dd92	0.12151636
13	0x3e06c2b1	0.13160206
14	0xbe474f1e	-0.19463775
15	0x3d814aa5	0.063130654
16	0x3e0c737c	0.13715929
17	0xbed1cbe2	-0.40975863
18	0x3e98c72d	0.2983946
19	0x3ea2b048	0.31775117
20	0xbe74dda1	-0.2391267
21	0x3d01c7b5	0.031684596
22	0x3d963121	0.07333589
23	0xbecca63c	-0.39970577

conv2.weight f4 [1, 6, 2, 4]
0	0x3ef05961	0.4694319
1	0xbe2c0fc8	-0.16802895
2	0xbe304d9d	-0.17217107
3	0x3e66c5b9	0.22536363
4	0x3f522b34	0.8209717
5	0xbe9c1410	-0.30484056
6	0xbd8c2d49	-0.06844575
7	0x3e3035f0	0.17208076
8	0xbd67ea79	-0.056620095
9	0x3c7f74ec	0.015591841
10	0xbd3d2f35	-0.0461876
11	0xbd6fcfe8	-0.058547884
12	0x3d1704db	0.036869865
13	0xbde45b73	-0.11150255
14	0xbdcbf6ef	-0.09959208
15	0xbb981297	-0.004640888
16	0x3e5a901c	0.21344036
17	0xbd707c9e	-0.058712594
18	0xbe81095f	-0.25202462
19	0x3eab47b9	0.33453158
20	0xbe1dc930	-0.15408778
21	0xbd6111aa	-0.054948486
22	0x3d50111f	0.050797578
23	0x3ea6cf9b	0.32580265
24	0x3d971c13	0.073784016
25	0x3bfcbef0	0.007713191
26	0xbe2653b3	-0.16242866
27	0x3e148cf7	0.14506899
28	0x3e27cd21	0.16386844
29	0xbe384e30	-0.17998576
30	0x3d92905b	0.0715644
31	0xbea9d09a	-0.33166963
32	0xbe8e1538	-0.27750564
33	0x3ecb52ed	0.39711705
34	0xbe5271de	-0.2055125
35	0xbcdae2dd	-0.026719505
36	0x3d96df7c	0.07366845
37	0x3e175a69	0.14780582
38	0xbc9a47d9	-0.018833088
39	0x3da73d6f	0.081660144
40	0x3cb76ccb	0.022390744
41	0xbe273d13	-0.16331892
42	0x3e32d70a	0.17464843
43	0xbcb77c8f	-0.022398261
44	0x3db6cdc7	0.08925968
45	0xbd833c5c	-0.06407997
46	0x3e059ec1	0.13048841
47	0x3e572b54	0.21012622

conv3.weight f4 [1, 6, 3, 4]
0	0x3f0025e5	0.5005782
1	0x3e229f4f	0.15881084
2	0xbbdc321c	-0.0067198407
3	0x3f4c1fbc	0.7973592
4	0x3e87f810	0.26556444
5	0x3ec63d09	0.3871844
6	0x3d3c746f	0.046009477
7	0x3e82f97f	0.25580975
8	0x3f07252c	0.52791095
9	0x3f4e0001	0.80468756
10	0x3e583bff	0.21116637
11	0x3e841fc5	0.25805488
12	0x3e3feaf3	0.1874197
13	0x3e4c0932	0.19925383
14	0x3e4ca2c6	0.19983968
15	0x3e12eef9	0.14348973
16	0x3d03c28b	0.032167953
17	0x3c800d6e	0.015631404
18	0x3d0288c6	0.03186872
19	0x3e7767ae	0.24160644
20	0xbcfc4284	-0.030793436
21	0x3e35bc1a	0.17747536
22	0x3e1796bd	0.14803596
23	0x3e88a318	0.2668693
24	0xbd1bd00a	-0.0380402
25	0xbeae3694	-0.34026015
26	0xbe805242	-0.25062758
27	0x3f08aa2e	0.53384674
28	0xbe193a5e	-0.14963672
29	0x3cce751e	0.02520233
30	0xbe39cefa	-0.18145362
31	0x3ef25761	0.4733229
32	0x3db0b9bd	0.08629177
33	0x3dace807	0.08442693
34	0xbd807591	-0.06272424
35	0x3e9a6269	0.30153206
36	0x3bdc3702	0.0067204246
37	0xbbd95eff	-0.006633639
38	0xbcf5976f	-0.029979436
39	0xbde7d563	-0.11319997
40	0x3d8d693f	0.0690484
41	0x3d0af017	0.033920374
42	0xbe10774a	-0.14108005
43	0xbdceaf96	-0.10092084
44	0xbeb4c35d	-0.353053
45	0xbd9d400b	-0.07678231
46	0x3df5e815	0.12007157
47	0x3ee557fa	0.44793683
48	0xbdd9db68	-0.106375515
49	0x3e85e80c	0.261536
50	0x3dadc3f8	0.08484644
51	0x3d212673	0.03934331
52	0xbe5dcbf0	-0.21659827
53	0xbe92b39a	-0.2865265
54	0x3d47100a	0.04859928
55	0xbe01dd9c	-0.12682194
56	0x3da4e61a	0.08051701
57	0x3e7c1775	0.24618323
58	0xbdd5a19d	-0.10431216
59	0xbe9a9218	-0.30189586
60	0xbdc36ff4	-0.09542838
61	0xbe4d4cbb	-0.20048802
62	0xbd56c390	-0.052432597
63	0xbe3db64f	-0.18526576
64	0x3d8f55b9	0.06998772
65	0x3e77a3c4	0.24183565
66	0xbcd232ce	-0.025658991
67	0x3e82cf36	0.25548714
68	0xbe379c1e	-0.17930648
69	0xbd35ae6c	-0.044355795
70	0xbe37fb55	-0.1796697
71	0xbb750a2e	-0.00373901

conv4.weight f4 [1, 6, 4, 4]
0	0x3e3d66d8	0.18496263
1	0xbe46251e	-0.19350097
2	0xbdaaf36d	-0.08347211
3	0xbda77be9	-0.08177931
4	0xbe5185bf	-0.20461176
5	0xbddefd96	-0.108882114
6	0xbe84c37e	-0.259304
7	0x3e224361	0.15846016
8	0xbd1322bb	-0.035921793
9	0xbe697164	-0.22797161
10	0xbe0271bd	-0.127387
11	0xbc6f03f9	-0.0145883495
12	0x3e2aec3a	0.16691676
13	0x3d36a6d1	0.044592682
14	0xbe2e5883	-0.17025952
15	0x3de31a4c	0.11089
16	0x3e5538a6	0.20822391
17	0xbd14f45a	-0.036365844
18	0xbe14dec4	-0.14538103
19	0xbea080c9	-0.31348255
20	0x3e96d6e9	0.29460838
21	0x3e2a4f07	0.16631709
22	0xbceb35b4	-0.028712131
23	0xbe052a00	-0.13004303
24	0xbd7f3f70	-0.062316358
25	0xbe2ef2b4	-0.17084771
26	0xbe19a14b	-0.15002935
27	0xbe2d0469	-0.16896214
28	0x3d8f09e6	0.0698431
29	0x3e2ad43a	0.1668252
30	0xbe284d49	-0.16435732
31	0xbe2cf0be	-0.16888711
32	0xbd1e58d9	-0.03865895
33	0x3e64c25f	0.22339772
34	0x3e538ce8	0.2065922
35	0xbdb90480	-0.090340614
36	0x3de34cf3	0.11098661
37	0x3d95d5c0	0.0731616
38	0x3da0a9b2	0.07844867
39	0xbd822915	-0.06355492
40	0x3b92733a	0.0044693025
41	0x3bfccd61	0.0077149128
42	0x3dba27be	0.090896115
43	0xbe07c856	-0.13260016
44	0xbbed8787	-0.007248822
45	0x3e8a92c5	0.270651
46	0xbdb7bacb	-0.08971175
47	0x3e2d19c3	0.16904359
48	0xbd917f21	-0.07104326
49	0x3e251911	0.16122843
50	0xbe350f7e	-0.17681691
51	0xbe4ddceb	-0.20103805
52	0x3cf86992	0.030323777
53	0x3e66e006	0.22546396
54	0x3e8d7b77	0.2763326
55	0x3db1241b	0.08649465
56	0xbe16da82	-0.14731792
57	0x3a598a2d	0.0008298483
58	0x3e9550ec	0.291633
59	0x3e4745da	0.1946024
60	0x3c984389	0.01858689
61	0xbd742d24	-0.059613362
62	0x3d32358c	0.043508098
63	0xbdaa7e01	-0.083248146
64	0xbda211be	-0.0791354
65	0x3e3b22a8	0.18274939
66	0x3d05e5dc	0.032689914
67	0xbe8fc208	-0.28077722
68	0x3e3c7bf0	0.18406653
69	0xbdb0a668	-0.086254895
70	0x3deaf351	0.1147219
71	0xbc9875b3	-0.01861081
72	0xbd54fa16	-0.051996313
73	0xbc0b4444	-0.0085001625
74	0x3e2de8a2	0.16983274
75	0xbe0f7745	-0.14010341
76	0xbe7c9a74	-0.24668294
77	0x3e1b2d41	0.15153982
78	0x3de9fe0f	0.11425411
79	0xbd883a4d	-0.06651745
80	0x3e8bf636	0.27336282
81	0xbdffb4a6	-0.12485628
82	0xbe0bde55	-0.13659032
83	0x3e0b7910	0.136204
84	0x3c53e974	0.0129340775
85	0x3dd211cc	0.10257301
86	0xbca8ec1b	-0.020620396
87	0x3d2da4bb	0.042393427
88	0xbd83e66f	-0.06440436
89	0x3e80bc12	0.25143486
90	0xbdcf78e2	-0.101304784
91	0x3e640340	0.22266865
92	0xbdad3706	-0.084577605
93	0xbd3038e7	-0.043023016
94	0x3daf92d6	0.085729286
95	0xbe4d8e15	-0.20073731

fc3_adv.weight f4 [76, 130]
0	0xbe3f6390	-0.18690324
1	0x3ed148c1	0.4087582
2	0x3e73cb6a	0.23808065
3	0xbd3fda92	-0.046839304
4	0x3d16ed44	0.036847368
5	0xbda94f74	-0.082671076
6	0x3ed8535c	0.42251098
7	0x3e84ec07	0.25961325
8	0x3ef7f4c7	0.48428938
9	0x3ea014be	0.31265825
10	0x3ef50c1b	0.47860798
11	0x3e648c03	0.22319035
12	0x3d6f4bdc	0.058421955
13	0x3e8ebfb2	0.27880627
14	0x3e5175c2	0.20455077
15	0x3edfd330	0.4371581
16	0x3ebbe254	0.36696112
17	0x3ee07503	0.43839273
18	0x3f173d5c	0.59078
19	0x3e8de106	0.27710742
20	0x3f236332	0.63823235
21	0x3e4efc38	0.20213401
22	0x3dfd9b0c	0.123830885
23	0x3e8ab67c	0.2709235
24	0xbd8af061	-0.0678413
25	0x3e924844	0.2857076
26	0x3e498b54	0.19682056
27	0x3d03c90f	0.032174166
28	0x3e1077ec	0.14108247
29	0x3d7f4b2f	0.06232756
30	0x3ec1a15e	0.37818426
31	0xbd4eeef3	-0.05052085
32	0x3d008840	0.031379938
33	0x3ecf1be3	0.40450963
34	0xbe25f0a4	-0.16205078
35	0xbd1bf755	-0.03807767
36	0xbdc70e28	-0.09719497
37	0x3e8c4f63	0.27404317
38	0xbc3dfa63	-0.011595341
39	0xbdf82438	-0.12116283
40	0xbb5ff047	-0.0034170316
41	0xbe0e35da	-0.1388773
42	0x3e1c3cb6	0.15257534
43	0x3e88d675	0.26726118
44	0x3e3d8005	0.18505867
45	0xbd43c084	-0.04779102
46	0xbe0a6fcb	-0.13519208
47	0x3d812d9f	0.0630753
48	0x3e9bc434	0.3042313
49	0x3e991460	0.29898357
50	0x3d1b5c7a	0.03792999
51	0x3c882d30	0.01662311
52	0xbd84c670	-0.064831614
53	0x3ec498f6	0.3839795
54	0x3d93ea5f	0.07222437
55	0xbe1a80ec	-0.15088242
56	0xbd1b9070	-0.037979543
57	0x3e87edbe	0.2654857
58	0x3cd2bd4d	0.025725031
59	0x3da6718a	0.081271246
60	0x3e5fcea3	0.2185617
61	0x3e1f7f84	0.15575987
62	0xbe041810	-0.12899804
63	0xbd8d097a	-0.06886573
64	0x3e2ef192	0.1708434
65	0x3ca99b69	0.020703988
66	0x3d6e1536	0.058125697
67	0xbea6342c	-0.3246168
68	0xbce881b2	-0.028382156
69	0x3dc8ae3b	0.09798857
70	0xbe255b5d	-0.16148134
71	0xbd0bea48	-0.034158975
72	0xbda4434b	-0.080206476
73	0x3d91e152	0.071230546
74	0xbcafb4cd	-0.021448517
75	0xbd6314a4	-0.055439606
76	0x3de95a11	0.11394132
77	0xbdb3471e	-0.08753799
78	0xbe7ddb27	-0.24790631
79	0xbe5740f5	-0.21020873
80	0x3de13267	0.109959416
81	0xbe271510	-0.16316628
82	0x3d645329	0.05574337
83	0xbdac0392	-0.083991185
84	0xbe23f82a	-0.16012636
85	0x3c8186c7	0.015811337
86	0xbd00ee5f	-0.03147733
87	0xbe5a76e8	-0.21334422
88	0xbde5b926	-0.11216955
89	0xbe3051e4	-0.17218739
90	0x3e0cc816	0.13748202
91	0x3d888bb8	0.06667274
92	0x3dab68f1	0.08369625
93	0xbdf660bd	-0.1203017
94	0xbd326825	-0.04355635
95	0x3d175179	0.036942933
96	0xbd50b6e5	-0.05095567
97	0xbda43c05	-0.0801926
98	0xbe4a36dd	-0.19747491
99	0x3e112212	0.14173153
100	0x3d9aee86	0.07565026
101	0x3d0628d8	0.032753795
102	0x3ea8ba63	0.32954702
103	0x3eae8402	0.3408509
104	0x3dc2da48	0.0951429
105	0x3d69aaff	0.05704784
106	0x3ddf6a1e	0.10908912
107	0x3d6ac273	0.057314347
108	0x3e641367	0.22273026
109	0xba760945	-0.00093855365
110	0x3dbbcc40	0.09169817
111	0x3ea0ba6e	0.31392235
112	0x3e944154	0.2895609
113	0x3e4bea0d	0.19913502
114	0x3e945981	0.28974536
115	0x3d1d4767	0.038398173
116	0x3e57a51c	0.21059078
117	0x3e862371	0.26198915
118	0x3e00ab6d	0.12565394
119	0x3ed2453c	0.41068447
120	0x3ea8e23d	0.32985106
121	0x3d965db9	0.07342095
122	0x3e51fcaf	0.20506547
123	0x3e410d0a	0.1885263
124	0x3d71fad4	0.0590771
125	0x3deb4b69	0.11488993
126	0x3e77d880	0.24203682
127	0xbcce04cf	-0.025148777
128	0x3e81e150	0.25367212
129	0x3e8b9235	0.27259985
130	0xbe097acb	-0.13425748
131	0x3e57dd5e	0.21080539
132	0x3e10a318	0.14124715
133	0x3d0474ae	0.032337837
134	0x3d95591b	0.07292386
135	0x3df84031	0.121216185
136	0x3df12937	0.11775439
137	0x3e41be78	0.18920314
138	0xbe570209	-0.2099687
139	0x3d5b7a74	0.053583577
140	0x3db910cb	0.09036406
141	0x3eb767ee	0.3582148
142	0x3f1c502e	0.61059844
143	0x3e867cb3	0.26267013
144	0x3dc675d9	0.096904464
145	0x3e0957a5	0.1341234
146	0x3e772eec	0.24138993
147	0x3d93e890	0.07222092
148	0xbe6de209	-0.23230757
149	0x3db592aa	0.088658646
150	0xbe4e1adc	-0.20127434
151	0xbe19f94c	-0.15036505
152	0xbe488716	-0.19582781
153	0xbe31e3a3	-0.17371993
154	0xbea97e92	-0.33104378
155	0xbc9c4911	-0.01907781
156	0xbd6281a8	-0.05529943
157	0x3d214f62	0.039382346
158	0x3e7a4986	0.2444211
159	0x3e84bfa3	0.25927457
160	0xbe81f140	-0.25379372
161	0x3e7ef43f	0.2489786
162	0x3db24316	0.08704202
163	0x3e03161a	0.128014
164	0x3ca511f6	0.020150166
165	0x3e84fb0f	0.25972793
166	0x3e9bd9e2	0.3043967
167	0x3ea7030c	0.32619512
168	0x3e34bdc0	0.17650509
169	0x3cdbf6cb	0.026851078
170	0xbd7c2718	-0.06156072
171	0x3bb63cb2	0.0055614347
172	0xbd99f65c	-0.075176924
173	0x3d44716a	0.047959723
174	0x3d4c51a2	0.04988254
175	0x3e4ec1d7	0.20191132
176	0x3bdf5a34	0.006816173
177	0x3e8fc7c7	0.28082106
178	0x3e354e0e	0.17705557
179	0x3eca5662	0.3951903
180	0x3ce66728	0.02812536
181	0xbe8b3b67	-0.27193758
182	0xbe2f859a	-0.17140809
183	0x3eb51912	0.3537069
184	0x3e4dc076	0.2009295
185	0xbe3515a8	-0.17684042
186	0xbe22bdef	-0.15892766
187	0xbe80f35a	-0.25185663
188	0xbe0b4db3	-0.13603859
189	0xbe583b9b	-0.21116488
190	0xbdb90247	-0.090336375
191	0xbca124d4	-0.019670881
192	0xbe956448	-0.2917807
193	0xbd0b38fa	-0.033989884
194	0xbdf5d6b4	-0.12003842
195	0xbc550cec	-0.013003569
196	0xbd155afd	-0.036463726
197	0x3b8cd80c	0.0042982157
198	0x3de2bfd9	0.11071748
199	0x3d4bdba3	0.04977001
200	0xbe2b4cd9	-0.16728534
201	0xbc5f9a3a	-0.01364761
202	0xbe1ea6be	-0.15493295
203	0xbec50eb2	-0.38487774
204	0x3c7c96d6	0.015416821
205	0xbd5e8145	-0.0543225
206	0x3e59bc46	0.21263227
207	0x3d0b8f64	0.034072295
208	0x3cc904ee	0.024538483
209	0x3c9be7a8	0.01903136
210	0x3e026d3c	0.12736982
211	0x3d04b1bd	0.032396067
212	0xbd82862c	-0.063732475
213	0xbe005f76	-0.12536415
214	0xbdb66c7a	-0.08907409
215	0x3ce87314	0.028375186
216	0xbd8c409c	-0.06848261
217	0xbd79971a	-0.060935117
218	0xbd91aa83	-0.07112601
219	0xbea0ec9c	-0.3143052
220	0xbe8b9ce0	-0.27268124
221	0xbd8a5ae0	-0.06755614
222	0xbda612ec	-0.08109078
223	0xbe019b6b	-0.12656944
224	0x3e2e3bd0	0.17015004
225	0xbe5b6ab6	-0.21427426
226	0x3e6e0363	0.2324348
227	0x3e0ae586	0.13564119
228	0xbbbd6deb	-0.0057809255
229	0x3ed3e78a	0.41387588
230	0x3e628a2f	0.22123025
231	0x3e2047aa	0.15652338
232	0x3cb9b92e	0.022671308
233	0x3c149cfc	0.009070631
234	0x3e445688	0.19173634
235	0x3e3b982c	0.18319768
236	0x3d91416c	0.07092556
237	0x3e817354	0.252833
238	0x3c9ba6d9	0.019000458
239	0x3d369a94	0.04458101
240	0x3e0d497c	0.13797563
241	0x3bb672a0	0.0055678636
242	0x3d0fffb9	0.035155986
243	0x3ea64ee9	0.3248208
244	0x3c982d51	0.018576296
245	0xbd7e526f	-0.062090334
246	0x3ecdd03a	0.40197927
247	0x3e6b94af	0.23005937
248	0x3de4319b	0.11142274
249	0x3df83723	0.121198915
250	0xbc82c617	-0.015963597
251	0xbc4143ae	-0.011795921
252	0x3c3e86a1	0.011628778
253	0xbda75fbb	-0.08172556
254	0x3e245eb3	0.1605175
255	0x3e08a96f	0.13345884

fc3_adv.bias f4 [76]
0	0x3dcc5b3f	0.09978341
1	0x3dd65591	0.10465539
2	0x3dc6fe4b	0.09716471
3	0xbd8cc473	-0.06873407
4	0xbcca59c4	-0.024701007
5	0xbe540824	-0.2070623
6	0x3bc62e01	0.0060479646
7	0xbd33bee0	-0.043883204
8	0x3e418251	0.18897368
9	0x3e05e0c1	0.13074018
10	0xbdc50538	-0.09620136
11	0xbe4535c7	-0.19258796
12	0x3e7da94a	0.2477161
13	0x3cd7f2e7	0.026360942
14	0x3e72643d	0.2367105
15	0x3e315de3	0.17320971
16	0x3eb3a506	0.3508684
17	0x3ddfa2d5	0.109197296
18	0x3e4196d2	0.1890519
19	0x3dc5900f	0.096466176
20	0x3cb22f49	0.021751063
21	0xbc80beda	-0.015716005
22	0x3e273f2f	0.16332696
23	0xbd7d8052	-0.061889954
24	0xbdb2a275	-0.087223925
25	0xbd62307f	-0.05522203
26	0xbde89ba5	-0.11357812
27	0x3e5e3a4f	0.2170193
28	0xbd49bd7a	-0.049252965
29	0x3df6c940	0.12050104
30	0x3e436cf7	0.19084536
31	0x3db51562	0.08841969
32	0xbe061577	-0.13094126
33	0x3d61df6d	0.055144716
34	0x3d7831a2	0.06059421
35	0x3e52792c	0.20554036
36	0x3e11b0b6	0.14227566
37	0xbe85a1e2	-0.2610007
38	0x3cb0a52d	0.021563137
39	0x3d6bdcff	0.057583805
40	0x3eaaf343	0.3338872
41	0x3d12b907	0.035820987
42	0xbdd7c55a	-0.10535689
43	0x3e26ec66	0.16301116
44	0x3c28d34a	0.0103042815
45	0x3de41b35	0.11138002
46	0x3e22c2df	0.1589465
47	0x3e43f129	0.19134964
48	0x3e109ae6	0.14121589
49	0x3e103d34	0.14085847
50	0x3be3f576	0.0069567515
51	0x3d9b513b	0.07583853
52	0x3e2a03ee	0.16603062
53	0x3cd0d319	0.025491284
54	0x3de3be06	0.111202285
55	0x3d735f22	0.059416898
56	0xbd54c2e4	-0.051943675
57	0xbe067681	-0.13131143
58	0x3e1714f7	0.14754091
59	0x3e377e27	0.17919217
60	0x3d536c48	0.051616937
61	0x3e86ba2a	0.26313907
62	0x3e090518	0.1338085
63	0x3d3abfa3	0.045592915
64	0x3e14f037	0.1454476
65	0xbd3ddb4f	-0.046351727
66	0x3e6622eb	0.22474258
67	0x3d826151	0.06366218
68	0x3d809077	0.062775545
69	0x3d7fb21f	0.06242573
70	0x3c9716d8	0.01844351
71	0x3e097176	0.13422188
72	0x3d6d6289	0.0579553
73	0x3e4c1286	0.19928941
74	0x3e44e7c8	0.19229043
75	0x3e9e8852	0.3096338

fc3_val.weight f4 [76, 130]
0	0x3da7c39d	0.08191607
1	0xbe0245c5	-0.12721927
2	0x3c163090	0.009166852
3	0xbd403994	-0.04692991
4	0xbdc1550d	-0.0944005
5	0x3ac0a90c	0.0014698817
6	0xbe06513a	-0.13116923
7	0xbe644faa	-0.22296014
8	0x3df9cde8	0.121974766
9	0xbd435c34	-0.047695354
10	0x3d7ed330	0.062213123
11	0x3b91929b	0.0044425256
12	0xbd0c7a53	-0.034296345
13	0x3e0ace97	0.1355537
14	0xbd242d5b	-0.040082317
15	0xbe404c6d	-0.18779154
16	0x3d49be5d	0.04925381
17	0x3e2975f0	0.16548896
18	0xbd82b694	-0.0638248
19	0xbddae73e	-0.10688637
20	0x3c900392	0.017579827
21	0xbe21b7f1	-0.15792824
22	0xbe16bfbd	-0.1472158
23	0xbd1bd48e	-0.038044505
24	0xbe9b395f	-0.30317208
25	0xbd5d7d9f	-0.05407488
26	0x3ca04abb	0.019566884
27	0xbdd63571	-0.10459412
28	0x3d0684b2	0.03284139
29	0xbd2889d3	-0.041147064
30	0x3ced919c	0.029000096
31	0xbd51320b	-0.051073115
32	0x3e9e41b7	0.3090951
33	0xbd7b90a0	-0.061417222
34	0xbe009dda	-0.12560216
35	0xbcb706bc	-0.022342078
36	0x3c102ee7	0.008800245
37	0x3e7dc24e	0.24781153
38	0xbd6ba461	-0.05752981
39	0x3e986a2a	0.29768497
40	0x3e3329e5	0.1749645
41	0x3d0db09b	0.034592252
42	0x3e924c9c	0.28574073
43	0x3e0e4028	0.13891661
44	0x3e9da76f	0.30791804
45	0x3e2aa334	0.1666382
46	0x3e8ecb46	0.2788946
47	0x3e013fa1	0.12621929
48	0x3e92d2ca	0.28676444
49	0x3e368746	0.1782504
50	0x3e850d2b	0.2598661
51	0x3bca13fa	0.006166932
52	0x3e385c46	0.1800395
53	0x3e22d76c	0.1590249
54	0x3d95c1b9	0.0731234
55	0x3e1607dd	0.14651437
56	0x3d6da6e5	0.05802049
57	0x39e8ca39	0.00044401156
58	0x3d055f97	0.032561865
59	0xbccec309	-0.025239484
60	0x3dd7375f	0.10508608
61	0xbdf2c881	-0.11854649
62	0xbdb48968	-0.08815271
63	0x3e570d45	0.21001156
64	0xbde2aa5e	-0.11067651
65	0x3d9decbf	0.07711171
66	0xbdb3add3	-0.08773389
67	0xbe3edf38	-0.18639839
68	0xbd716ba7	-0.058940556
69	0xbdae1927	-0.08500891
70	0x3da1e495	0.07904927
71	0x3d8d55dc	0.06901142
72	0x3e32774c	0.1742832
73	0xbd30744b	-0.043079656
74	0xbd5413fd	-0.051776875
75	0x3e2980dc	0.16553062
76	0xbda7884f	-0.08180296
77	0x3e1493f6	0.14509568
78	0x3da00cc4	0.07814935
79	0x3afae908	0.0019142935
80	0xbd7a9aaa	-0.061182655
81	0x3ca6aaa7	0.020345045
82	0x3dad637f	0.08466243
83	0xbdec26cc	-0.115308374
84	0x3dc85de9	0.09783537
85	0x3e3c29dd	0.18375345
86	0x3cc30e15	0.023810426
87	0x3db2424e	0.08704053
88	0xbd9dd4b9	-0.07706589
89	0x3d06d023	0.03291334
90	0xbe12799b	-0.14304201
91	0xbdd83760	-0.10557437
92	0xbd1bc464	-0.03802909
93	0xbc31336f	-0.010815485
94	0x3db7f8de	0.089830145
95	0x3ca24aed	0.019811118
96	0xbe067240	-0.1312952
97	0x3e7525ee	0.2394025
98	0x3e4895e0	0.19588423
99	0xbe6fd31e	-0.23420379
100	0xbda0ac3f	-0.07845353
101	0xbd93389e	-0.07188533
102	0xbe0e6e5d	-0.13909288
103	0x3db3fc81	0.08788396
104	0xbd581db4	-0.052762702
105	0xbdcbebf0	-0.09957111
106	0x3e08f72d	0.1337554
107	0x3e4a8dc7	0.19780646
108	0x3ce24439	0.027620422
109	0xbdca246b	-0.098702274
110	0xbd9b0caa	-0.07570775
111	0x3e5a5dbc	0.2132482
112	0x3e70ddd6	0.23522124
113	0x3d3603da	0.044437267
114	0x3e009921	0.12558414
115	0xbda4c242	-0.08044864
116	0xbd0348ed	-0.03205197
117	0xbe55cf88	-0.20879948
118	0x3de3d5dd	0.111247756
119	0x3d829f10	0.06377995
120	0x3d3eafc7	0.046554353
121	0xbdaaf0f6	-0.08346741
122	0xbdf55915	-0.11979882
123	0xbdfeabb9	-0.12435097
124	0xbe029f17	-0.12756
125	0x3c05a6a1	0.008157403
126	0x3e374499	0.17897262
127	0x3cef7d34	0.029234506
128	0x3e219474	0.15779287
129	0xbdae7964	-0.08519247
130	0x3e685ca4	0.2269159
131	0x3ea77632	0.32707363
132	0x3e1c2be7	0.15251122
133	0x3e316e0f	0.1732714
134	0x3e84bdab	0.25925955
135	0x3e639b62	0.22227243
136	0x3ea6cfbe	0.3258037
137	0x3e967a69	0.29390267
138	0x3e72a769	0.23696674
139	0x3e00074d	0.12502785
140	0x3e0b6039	0.13610925
141	0x3e658068	0.22412264
142	0x3eb08e96	0.34483784
143	0x3e828e5f	0.25499246
144	0x3e91138b	0.28335223
145	0x3ddfd7f8	0.10929865
146	0x3e98df5f	0.2985792
147	0x3e7e1102	0.24811175
148	0x3e059b36	0.1304749
149	0x3e85482a	0.2603162
150	0x3d9ed7e8	0.077560246
151	0x3eb01fcd	0.34399262
152	0x3ea49717	0.32146522
153	0x3e0b9174	0.13629705
154	0x3e682769	0.22671284
155	0x3dd5bf16	0.104368374
156	0x3eb0692f	0.3445525
157	0x3e35861d	0.17726941
158	0x3ea2a66a	0.3176759
159	0x3e0bab00	0.1363945
160	0x3d8f6486	0.07001595
161	0x3e5823c9	0.21107401
162	0x3bd5025d	0.006500526
163	0x3ebb59c9	0.36591938
164	0x3d5038e1	0.050835494
165	0x3e694ab3	0.22782402
166	0x3ddfd355	0.1092898
167	0x3dd52701	0.1040783
168	0x3e04469a	0.12917557
169	0x3e264cfa	0.16240302
170	0x3e9b128a	0.30287582
171	0x3d85c9cb	0.065326296
172	0x3e176ff8	0.14788806
173	0x3dd6e511	0.1049291
174	0xbcb5db3e	-0.02219927
175	0x3e822f79	0.25426844
176	0x3e68d9c8	0.22739327
177	0x3e2f3d01	0.17113115
178	0x3dbf8395	0.09351269
179	0x3aa1f7c1	0.0012357162
180	0x3e5a05cd	0.21291275
181	0xbca5c309	-0.020234602
182	0xbc4421d3	-0.011970955
183	0x3e807294	0.25087416
184	0x3c9dc115	0.019257108
185	0x3dc1bf3a	0.09460302
186	0x3e050a0f	0.12992118
187	0x3d350fa7	0.04420438
188	0x3e14adaf	0.1451938
189	0x3e644fad	0.22296019
190	0x3cb51fcf	0.022109894
191	0x3e836984	0.2566644
192	0x3eb04bdd	0.3443288
193	0x3e34eb12	0.17667797
194	0x3eaeff12	0.34178978
195	0x3d840dea	0.064479664
196	0x3df050ff	0.11734199
197	0x3e297e9c	0.16552204
198	0x3e1fac83	0.15593152
199	0x3d0b3e2f	0.03399485
200	0x3e363212	0.17792538
201	0x3e6eb668	0.2331177
202	0x3d97d0a7	0.07412844
203	0x3e8063aa	0.25076038
204	0xbba8a372	-0.0051464373
205	0xbdcff55f	-0.10154223
206	0xbc9ff5bc	-0.019526355
207	0x3e378710	0.17922616
208	0x3e606b09	0.2191583
209	0x3dc25077	0.09488004
210	0x3e30dbf4	0.17271405
211	0x3e3f7e4b	0.1870052
212	0x3da23c5b	0.07921668
213	0xbdaa04b8	-0.08301681
214	0x3be1d479	0.006891784
215	0x3e8801c7	0.26563856
216	0xbc3ec3ae	-0.011643333
217	0x3d613cdc	0.05498968
218	0x3e732e9a	0.23748246
219	0x3e7e09e0	0.24808455
220	0x3e590b9d	0.21195836
221	0xbd344178	-0.04400775
222	0xbdd0fe31	-0.10204733
223	0xbc26209e	-0.0101396125
224	0x3e2002a7	0.15626012
225	0x3d721381	0.05910063
226	0x3db83c09	0.08995826
227	0x3dfc0034	0.12304726
228	0xbcaba0d3	-0.02095071
229	0x3c329f06	0.010902172
230	0x3e2f75e1	0.17134811
231	0x3d73bb77	0.059504952
232	0x3dc07719	0.09397716
233	0x3e0d72a8	0.13813269
234	0x3d91071b	0.070814334
235	0x3e62b191	0.22138049
236	0x3dbcec6f	0.09224784
237	0x3dc8d550	0.09806311
238	0x3e8598a6	0.26093024
239	0x3db6789c	0.08909723
240	0x3c88a246	0.01667894
241	0x3e473676	0.19454369
242	0x3e47938f	0.19489883
243	0x3e8b1129	0.2716153
244	0x3e640f56	0.22271475
245	0xbd30a35b	-0.043124538
246	0x3e262f2a	0.16228929
247	0x3e8bae75	0.27281538
248	0x3ca09f1f	0.019607125
249	0xbd6c2d23	-0.057660233
250	0x3e3ba4c4	0.18324572
251	0x3dddd30a	0.10831268
252	0x3d4a191e	0.04934036
253	0x3e83bcb4	0.25729907
254	0x3e8a0ab0	0.2696128
255	0x3ded5f52	0.115904465

fc3_val.bias f4 [76]
0	0x3e626392	0.22108296
1	0xbe75fc2f	-0.24021982
2	0x3ed5681d	0.41680995
3	0x3e64cec4	0.223445
4	0xbe7cfef9	-0.2470664
5	0xbe51fe8b	-0.20507257
6	0xbe80ad32	-0.25132138
7	0xbe35ca5d	-0.17752977
8	0xbe2af16a	-0.16693655
9	0xbe46a688	-0.19399464
10	0x3f0e38e6	0.5555557
11	0x3f1e78be	0.6190299
12	0x3e59df5f	0.21276616
13	0xbe3bb9ad	-0.18332548
14	0x3e9542ad	0.29152432
15	0x3ef5a92a	0.47980624
16	0x3eb76165	0.35816494
17	0xbe753e40	-0.23949528
18	0x3e9b4e2c	0.30333078
19	0x3e95b956	0.29242963
20	0x3e80c690	0.2515149
21	0x3f313f55	0.6923726
22	0x3e93d0b2	0.2887016
23	0x3eb985c6	0.36234874
24	0x3e509585	0.20369537
25	0x3e335058	0.17511117
26	0x3f13e302	0.5776826
27	0x3e54cf96	0.20782313
28	0xbe5fd9d8	-0.21860445
29	0xbe28f09b	-0.16498034
30	0x3f0113ca	0.5042082
31	0xbe544839	-0.20730676
32	0x3ddbc8c4	0.107316524
33	0x3e78a7ea	0.24282804
34	0x3eac50bb	0.33655342
35	0xbe11c0cf	-0.14233707
36	0x3ea8da7f	0.329792
37	0xbe52cacb	-0.20585172
38	0xbe1998ec	-0.14999741
39	0x3e8eeec9	0.27916554
40	0x3f117154	0.5681355
41	0x3eb791bb	0.3585337
42	0xbe6d0bad	-0.23148985
43	0x3e8e0cef	0.27744243
44	0x3f23e3eb	0.6401965
45	0xbe56d57e	-0.20979878
46	0x3eb9517f	0.3619499
47	0xbe448528	-0.1919142
48	0xbe171127	-0.14752637
49	0x3f0d70a8	0.55250025
50	0xbe40c5a3	-0.18825392
51	0x3ee93b23	0.4555293
52	0x3f35505d	0.7082575
53	0xbe882ae1	-0.26595214
54	0xbe63b6a6	-0.22237644
55	0xbe764f77	-0.24053751
56	0xbe1ad8dc	-0.15121788
57	0xbe2b44e7	-0.16725503
58	0xbe41f809	-0.18942274
59	0xbe7ba153	-0.24573259
60	0xbd3207b0	-0.043464363
61	0xbdf1a640	-0.11799288
62	0xbe3cd587	-0.18440829
63	0x3f1c2db5	0.61007243
64	0xbe6d5dcc	-0.23180312
65	0x3e58e35a	0.21180478
66	0xbe707a30	-0.23484111
67	0x3cef2d68	0.029196456
68	0x3ea30af6	0.318443
69	0xbe7c64cf	-0.2464783
70	0xbe33706f	-0.17523359
71	0x3e16be2e	0.14720985
72	0x3dba3385	0.09091858
73	0x3dcb8db5	0.09939138
74	0xbe1501a1	-0.14551403
75	0xbe8ddc73	-0.27707252

fc4_adv.weight f4 [38, 76]
0	0xbcf16e2c	-0.02947148
1	0x3da4cab9	0.08046479
2	0xbef26d9a	-0.47349244
3	0xbe4e2151	-0.20129897
4	0xbdcae331	-0.099066146
5	0x3cf4c3f2	0.02987859
6	0x3ea5474b	0.32280955
7	0x3dd9750e	0.106180295
8	0x3ec683c3	0.387724
9	0xbddf68f4	-0.1090869
10	0xbec64a6d	-0.38728657
11	0x3e936bef	0.28793284
12	0xbd9a685e	-0.07539438
13	0xbda89914	-0.08232322
14	0x3dd6077c	0.10450646
15	0xbeae0ea4	-0.33995545
16	0x3e49930d	0.19685002
17	0x3e08c787	0.13357364
18	0x3de29340	0.11063242
19	0x3e59b566	0.21260604
20	0x3e6b23dd	0.229629
21	0x3e601fb9	0.21887101
22	0xbdeaada1	-0.11458898
23	0x3cddf8d3	0.027096188
24	0xbe8b893e	-0.27253145
25	0xbe05ad47	-0.13054381
26	0x3d163f58	0.036681503
27	0x3d9f9cec	0.07793602
28	0x3daa3c33	0.08312263
29	0xbe256ed8	-0.16155565
30	0xbe2b66f5	-0.16738494
31	0xbe739600	-0.23787689
32	0x3e18f8a4	0.14938599
33	0x3e59f479	0.21284665
34	0xbde72a19	-0.11287326
35	0x3d2652b3	0.040606212
36	0x3dcd5328	0.100256264
37	0x3d2619b1	0.040551845
38	0x3e005e18	0.12535894
39	0x3da20e3d	0.07912872
40	0xbe4b9502	-0.1988106
41	0xbe1012e2	-0.14069703
42	0xbe494dfd	-0.19658656
43	0xbd957c14	-0.07299057
44	0x3dbb4c98	0.091454685
45	0x3ed0e59c	0.40800178
46	0xbd115dc4	-0.035489812
47	0x3d9cfc5a	0.0766532
48	0xbd878dbd	-0.06618831
49	0x3eb225cf	0.3479447
50	0x3e5c8d48	0.2153827
51	0xbc8d4d93	-0.017248904
52	0x3d945a2c	0.072437614
53	0xbea4592c	-0.32099283
54	0x3ed0c4bd	0.407751
55	0xbc075b63	-0.008261534
56	0x3e6ac70a	0.2292749
57	0x3d84681e	0.06465171
58	0x3e608a49	0.21927752
59	0x3e1a11c5	0.15045841
60	0xbe87d2c4	-0.2652799
61	0x3e669cba	0.22520724
62	0x3e87f280	0.265522
63	0x3e5f226b	0.21790473
64	0x3d4ecee2	0.050490268
65	0xbc968001	-0.018371584
66	0x3d688e16	0.05677613
67	0x3e2fbb19	0.17161216
68	0xbe4f661c	-0.20253795
69	0xbe27643b	-0.16346829
70	0xbe764d0b	-0.24052827
71	0x3e3fb36f	0.18720792
72	0x3e490b83	0.19633298
73	0xbbe94f31	-0.007120036
74	0xbe7072f8	-0.23481357
75	0x3e04ad8e	0.12956831
76	0x3e754248	0.23951066
77	0x3e13d723	0.14437537
78	0xbde06d50	-0.1095835
79	0x3e09c1ef	0.13452886
80	0xbdf7d3e6	-0.12100963
81	0x3d525520	0.051350713
82	0xbde4673d	-0.11152504
83	0x3e7fba41	0.24973394
84	0xbe814e4f	-0.25255057
85	0x3efa5872	0.48895603
86	0xbe3c17bd	-0.1836843
87	0x3eacf980	0.33784103
88	0xbd9120b5	-0.070863165
89	0xbe0520cb	-0.13000791
90	0xbd067a88	-0.0328317
91	0xbd74d58d	-0.05977397
92	0x3cfc5ba1	0.03080541
93	0xbcd578b3	-0.02605853
94	0xbdf12cca	-0.11776121
95	0xbe492b9b	-0.1964554
96	0xbd564026	-0.05230727
97	0x3c1799b3	0.009252953
98	0xbc6e6c2b	-0.014552156
99	0x3e5e8135	0.21728976
100	0xbe0aedb0	-0.13567233
101	0xbeb81dab	-0.35960135
102	0xbe5d3ba1	-0.21604778
103	0xbcca4050	-0.02468887
104	0x3e850fac	0.2598852
105	0x3e69e87e	0.22842595
106	0x3e7d3204	0.2472611
107	0x3c0804ea	0.008301953
108	0xbe2ad021	-0.16680957
109	0x3e1ac74e	0.15115091
110	0xbb7fcef5	-0.0039033268
111	0xbe393f1c	-0.1809048
112	0x3dbd3e00	0.09240341
113	0x3e80fc75	0.2519261
114	0xbe2668e0	-0.16250944
115	0x3e835d54	0.2565714
116	0xbd109c08	-0.035305053
117	0x3e99911f	0.2999353
118	0xbcd14bd8	-0.02554886
119	0x3e2fc79b	0.17165987
120	0xbe55d3ea	-0.2088162
121	0x3dfc19a1	0.12309576
122	0xbc0c639d	-0.0085686715
123	0x3d10d7dc	0.03536211
124	0xbe38e40a	-0.1805574
125	0xbd78ce4f	-0.060743626
126	0x3d1c7360	0.038195968
127	0x3d487da6	0.048947953
128	0x3ec72d36	0.3890168
129	0xbd008ba2	-0.031383164
130	0x3dfcdeef	0.12347209
131	0x3e2bfa2b	0.1679465
132	0x3e038d95	0.12846978
133	0x3d8eecc7	0.069787554
134	0x3eac0539	0.33597735
135	0xbd221aa0	-0.039576173
136	0xbe92b947	-0.2865698
137	0x3e6a5136	0.22882542
138	0x3dc7b88b	0.09751996
139	0xbde632c9	-0.11240155
140	0xbd8d9700	-0.069135666
141	0xbde103cf	-0.109870546
142	0x3eb74eda	0.35802346
143	0x3e43b796	0.19113001
144	0xbd11af63	-0.035567652
145	0x3ccb68cf	0.02483025
146	0xbcce9485	-0.025217304
147	0x3e8cfa72	0.27534825
148	0xbd8db497	-0.069192104
149	0x3dfca106	0.123354
150	0xbc388534	-0.011262227
151	0x3ebb4384	0.36574948
152	0x3ddfd261	0.109287985
153	0x3cebab4c	0.028768204
154	0x3cedb75c	0.029018097
155	0xbc45aaa5	-0.012064611
156	0x3dad2631	0.0845455
157	0x3ea69a70	0.325397
158	0xbde98171	-0.11401642
159	0x3e8504a7	0.25980112
160	0xbde55b7b	-0.11199089
161	0x3e6e5504	0.23274618
162	0xbe62036f	-0.22071622
163	0x3dc8ed2a	0.098108605
164	0x3db4c7af	0.08827149
165	0x3d883244	0.066502124
166	0xbdca8be0	-0.0988996
167	0xbe0a6551	-0.13515212
168	0x3da65e1d	0.081234194
169	0x3e8b6020	0.27221775
170	0x3e13e190	0.14441514
171	0x3e10d414	0.14143401
172	0xbd0970eb	-0.033554953
173	0xbcdbbb32	-0.02682266
174	0x3d6e2a8e	0.058146052
175	0x3dbd2afc	0.09236714
176	0x3d993a7e	0.074818596
177	0xba8b86d6	-0.0010645043
178	0x3e61fb88	0.22068608
179	0xbd95438f	-0.072882764
180	0xbe30dd0d	-0.17271824
181	0xbe4e1b46	-0.20127591
182	0x3e19fe62	0.15038446
183	0xbe8dce96	-0.27696675
184	0x3e3c0828	0.18362486
185	0xbb260b4e	-0.0025336328
186	0xbdb1d17a	-0.086825326
187	0x3e1679d4	0.14694911
188	0x3e868fae	0.26281494
189	0xbded0146	-0.115725085
190	0xbdb48fa6	-0.08816461
191	0xbe0b4a69	-0.13602604
192	0xbe34b934	-0.17648774
193	0xbe8170b3	-0.25281295
194	0xbc2d6664	-0.010583494
195	0xbd3ea514	-0.04654415
196	0xbe8ac82b	-0.2710584
197	0xbdad3ec9	-0.08459241
198	0xbdf8fccd	-0.12157593
199	0x3e022ac9	0.12711634
200	0x3eb5f4d7	0.3553836
201	0x3e53d901	0.20688249
202	0xbe266c8c	-0.16252345
203	0xbd73e6ed	-0.0595464
204	0x3e1c70b2	0.15277365
205	0xbe1f6af1	-0.15568139
206	0x3f27197c	0.6527326
207	0x3e483da3	0.19554763
208	0x3e1456af	0.14486192
209	0xbe5faf3a	-0.21844187
210	0x3eb61124	0.35559952
211	0x3e6669bc	0.22501272
212	0xbe982e75	-0.29722944
213	0x3e3711a5	0.17877825
214	0x3e3c461b	0.18386118
215	0x3eb4bad2	0.35298783
216	0x3ebace60	0.36485577
217	0x3dadff55	0.08495966
218	0x3ebc9758	0.36834216
219	0xbe8c1248	-0.27357697
220	0xbebc52a4	-0.367818
221	0x3e9d06c8	0.30669236
222	0xbde07eeb	-0.10961708
223	0x3e3a252c	0.18178242
224	0x3cd66979	0.02617334
225	0x3d81a801	0.06330872
226	0xbecd68d5	-0.40119043
227	0x3e8f11fb	0.27943406
228	0x3e9253c1	0.28579524
229	0xbe211a87	-0.15732776
230	0xbe718f1c	-0.23589748
231	0x38a7c275	7.999401e-05
232	0xbeb6ade1	-0.35679534
233	0xbd5bc383	-0.05365325
234	0xbe74bee0	-0.23900938
235	0x3dd158d0	0.10222018
236	0xbe3462d4	-0.17615825
237	0xbd52ca8b	-0.05146269
238	0x3e3a69d4	0.18204433
239	0xbe3572a4	-0.17719513
240	0x3de02a9b	0.10945626
241	0xbd515576	-0.051106893
242	0x3e395846	0.1810008
243	0x3e2f9a58	0.17148721
244	0xbe4e8d1b	-0.20171015
245	0x3de5aa1a	0.11214085
246	0x3e35e1b2	0.17761877
247	0xbd2056ca	-0.03914527
248	0x3e1828b8	0.14859283
249	0x3e81e84d	0.25372544
250	0x3d852e6f	0.06502997
251	0xbd5acf72	-0.05342049
252	0xbeb3234f	-0.34987876
253	0xbd9eb936	-0.0775017
254	0xbe6fc2a9	-0.234141
255	0xbcd1b3c9	-0.025598424

fc4_adv.bias f4 [38]
0	0x3d8dc94e	0.069231614
1	0x3c5f0315	0.013611575
2	0xbde2bd5f	-0.11071276
3	0xbc4c7c59	-0.012480819
4	0x3d18d0e1	0.037308577
5	0x3c2a522b	0.010395567
6	0x3e4dddb0	0.20104098
7	0xbc52a9b7	-0.012857846
8	0xbcd858ef	-0.026409594
9	0x3d82dfa4	0.06390312
10	0xbdd30422	-0.10303523
11	0xbe2a8661	-0.16652824
12	0x3e1d950a	0.15388885
13	0x3d5a687c	0.0533223
14	0xbc874ebb	-0.016517034
15	0x3dc546e9	0.09632666
16	0x3d9ed6f9	0.077558465
17	0x3db2d473	0.08731928
18	0xbcb71eb4	-0.022353508
19	0xbda39d35	-0.07988969
20	0x3dad6a36	0.08467524
21	0x3e3d5f01	0.18493272
22	0x3b3c5d9c	0.002874232
23	0x3e0ad2d0	0.13556981
24	0x3da9434b	0.08264788
25	0x3df0cdfb	0.11758038
26	0x3e1367df	0.14395092
27	0xbd85eea2	-0.06539656
28	0xbe019e43	-0.12658028
29	0x3e02ba0f	0.12766288
30	0x3ca2185c	0.019787006
31	0xbdfdfd4b	-0.124018274
32	0x3d8f3870	0.069931865
33	0x3d65dfa4	0.056121483
34	0xbdc83ba9	-0.09777004
35	0x3e3d4177	0.18482004
36	0xbe83c07a	-0.25732785
37	0x3e8b950e	0.27262157

fc4_val.weight f4 [1, 76]
0	0xbed1fb5f	-0.41012093
1	0x3ebda111	0.37036946
2	0xbf53bc6c	-0.82709384
3	0xbe838128	-0.25684476
4	0x3e9fb88b	0.31195483
5	0x3edd1f24	0.4318782
6	0x3e309902	0.17245868
7	0x3e65f2ab	0.22455852
8	0x3e891e33	0.26780853
9	0x3e4d854f	0.20070384
10	0xbfa4b4ee	-1.2867715
11	0xbfeed150	-1.8657627
12	0xbeda9e8f	-0.42699096
13	0x3e82bd95	0.25535265
14	0xbec170f5	-0.37781492
15	0xbf890006	-1.0703132
16	0xbef6bcd5	-0.48190942
17	0x3eb3a068	0.35083318
18	0xbf21c78c	-0.6319511
19	0xbf394686	-0.72373235
20	0xbee8e46c	-0.45486772
21	0xbfa01846	-1.2507408
22	0xbed667ab	-0.41875967
23	0xbf6538e8	-0.8953996
24	0xbedc77d5	-0.43060175
25	0xbed3ec61	-0.4139128
26	0xbfa1cfc7	-1.2641534
27	0xbf772e1b	-0.96554726
28	0x3e92cae9	0.28670433
29	0x3e57dd6b	0.21080558
30	0xbf7cdd08	-0.98774767
31	0x3e8f2887	0.27960607
32	0xbf165f6f	-0.5873937
33	0xbeb9f61c	-0.3632058
34	0xbf04e103	-0.5190584
35	0x3e614e44	0.22002512
36	0xbebf0854	-0.3731104
37	0x3eca6656	0.395312
38	0x3ea5d794	0.32391036
39	0xbf5b4bf8	-0.85662794
40	0xbfa75a26	-1.3074386
41	0xbf607f9b	-0.8769471
42	0x3edfb257	0.4369075
43	0xbef16a6b	-0.47151503
44	0xbf7fe57e	-0.9995955
45	0x3e7a81a7	0.24463521
46	0xbe87ef76	-0.26549882
47	0x3e20d431	0.15705945
48	0x3e41e089	0.1893331
49	0xbf7668bd	-0.9625357
50	0x3e2b2949	0.16714968
51	0xbfc20fc2	-1.5161059
52	0xbf81a925	-1.0129744
53	0x3e9f7f5e	0.3115186
54	0x3e3971e1	0.18109848
55	0x3e2188d4	0.15774852
56	0x3e65c3d6	0.22437987
57	0x3e63cef7	0.2224692
58	0x3eba77e1	0.36419585
59	0x3e67f8ac	0.22653455
60	0xbf8a0b79	-1.0784751
61	0x3eaeca0b	0.34138522
62	0x3e332a7c	0.17496675
63	0xbf7dc8df	-0.9913463
64	0x3e5832dd	0.21113153
65	0xbf0b476f	-0.54405874
66	0x3e19e262	0.15027764
67	0xbf4118b8	-0.7542834
68	0xbe804dc7	-0.2505934
69	0x3ed272dc	0.41103256
70	0x3ec26c76	0.37973374
71	0xbf13e432	-0.57770073
72	0xbf074b7a	-0.52849543
73	0xbed05e4c	-0.40696943
74	0x3ecd9a6f	0.40156886
75	0x3e957585	0.29191223

exp_avg f4 [1, 6, 1, 4]
0	0xbfd9d8c7	-1.701928
1	0xbf342f4f	-0.7038469
2	0xbeb4b70b	-0.352959
3	0xbd563536	-0.05229684
4	0xc08908b4	-4.2823124
5	0x00000004	6e-45
6	0x00000004	6e-45
7	0x00000000	0.0
8	0xbeb28600	-0.3486786
9	0xbeb28600	-0.3486786
10	0xbeb28600	-0.3486786
11	0xbda97cec	-0.0827578
12	0xbcdc07b7	-0.026859147
13	0xbd9fe078	-0.07806486
14	0xbd9fe078	-0.07806486
15	0x3c9e009b	0.019287398
16	0xbea8cc3d	-0.3296832
17	0xbe9bd2a7	-0.30434152
18	0xbe9bd2a7	-0.30434152
19	0xbd07fb50	-0.033198655
20	0xbe957f6e	-0.29198784
21	0xbe8b4522	-0.27201182
22	0xbe8b4522	-0.27201182
23	0x00000000	0.0

exp_avg_sq f4 [1, 6, 1, 4]
0	0x4239bbbe	46.433342
1	0x40bd6549	5.918614
2	0x3f35981c	0.70935225
3	0x3c94d958	0.018170044
4	0x4346b0a3	198.68999
5	0x000f4b92	1.404642e-39
6	0x000001f4	7e-43
7	0x00000000	0.0
8	0x40842378	4.1293297
9	0x40842378	4.1293297
10	0x40842378	4.1293297
11	0x3e6632db	0.22480337
12	0x3f340097	0.703134
13	0x3f154555	0.5830892
14	0x3f154555	0.5830892
15	0x3d41f4cd	0.0473526
16	0x3f33d3c6	0.70245016
17	0x3f0fda69	0.5619264
18	0x3f0fda69	0.5619264
19	0x3d51898d	0.05115657
20	0x3f36e5b7	0.7144427
21	0x3f34a179	0.7055889
22	0x3f34a179	0.7055889
23	0x00000000	0.0

exp_avg f4 [1, 6, 2, 4]
0	0xbf65c14c	-0.8974807
1	0xbed88209	-0.4228671
2	0xbdfba711	-0.12287725
3	0xbc5c2de2	-0.013438674
4	0xbf49b521	-0.78792006
5	0xbe9227df	-0.28546044
6	0xbdc313e4	-0.09525278
7	0x3a8c1be9	0.001068947
8	0xc0858c13	-4.173349
9	0xc01f10e4	-2.485406
10	0xbfb27e97	-1.3944882
11	0xbe973107	-0.29529592
12	0xc080774f	-4.014564
13	0xc02f1763	-2.7358024
14	0xbfaaad0b	-1.3334059
15	0xbe80c53c	-0.25150478
16	0xbf004eed	-0.5012043
17	0xbf004eed	-0.5012043
18	0xbf004eed	-0.5012043
19	0xbc0b580a	-0.008504877
20	0xbe9624a5	-0.29324833
21	0xbe9624a5	-0.29324833
22	0xbe9624a5	-0.29324833
23	0xbd4c95e9	-0.049947653
24	0xbdaf14c7	-0.08548885
25	0xbda3d17c	-0.0799894
26	0xbda3d17c	-0.0799894
27	0x3c5328d6	0.012888154
28	0xbe4d9883	-0.2007771
29	0xbe33b7ba	-0.17550555
30	0xbe33b7ba	-0.17550555
31	0x3c6c87ed	0.014436704
32	0xbb08f5d6	-0.0020898483
33	0x3bb5f699	0.0055530784
34	0x3bb5f699	0.0055530784
35	0xbd07a12e	-0.033112697
36	0xbdf7aaa0	-0.12093091
37	0xbdf388da	-0.11891337
38	0xbdf388da	-0.11891337
39	0xbccfbe90	-0.025359422
40	0x3d959d77	0.07305425
41	0x3d865729	0.06559593
42	0x3d865729	0.06559593
43	0xbd54e6a9	-0.051977787
44	0x3e22528d	0.15851803
45	0x3df7fa6c	0.12108311
46	0x3df7fa6c	0.12108311
47	0xbc92c3a8	-0.017915562

exp_avg_sq f4 [1, 6, 2, 4]
0	0x40ba5d39	5.8238797
1	0x3f90b8a9	1.1306354
2	0x3e011e07	0.12609111
3	0x3b1fc1be	0.0024376954
4	0x40a58a43	5.1731277
5	0x3f7d266c	0.9888675
6	0x3df7ec29	0.12105591
7	0x3ae83dfa	0.0017718666
8	0x4353c011	211.75026
9	0x42c65d1f	99.18188
10	0x41b0eedb	22.116629
11	0x3fa52d7e	1.2904508
12	0x43552ff9	213.1874
13	0x42c1b26d	96.84849
14	0x41a4ee0c	20.616234
15	0x401048eb	2.2544506
16	0x3f6d378f	0.926629
17	0x3f6d378f	0.926629
18	0x3f6d378f	0.926629
19	0x3cf89547	0.030344618
20	0x3f90ce23	1.1312908
21	0x3f90ce23	1.1312908
22	0x3f90ce23	1.1312908
23	0x3cd8614a	0.026413579
24	0x3ea0ee57	0.3143184
25	0x3e881dfa	0.2658537
26	0x3e881dfa	0.2658537
27	0x3c0595e3	0.008153412
28	0x3eb58dba	0.3545969
29	0x3e9fe11d	0.31226435
30	0x3e9fe11d	0.31226435
31	0x3b36b8a9	0.0027881062
32	0x3eb5cc97	0.35507652
33	0x3eae2ebe	0.34020036
34	0x3eae2ebe	0.34020036
35	0x3ba9ad0c	0.0051780995
36	0x3e9db540	0.30802345
37	0x3e9673cc	0.2938522
38	0x3e9673cc	0.2938522
39	0x3bdcb6d7	0.0067356634
40	0x3ec95a81	0.39326862
41	0x3ebde720	0.37090397
42	0x3ebde720	0.37090397
43	0x3c22edc0	0.009944379
44	0x3eca52ad	0.39516202
45	0x3ebeb8b4	0.37250292
46	0x3ebeb8b4	0.37250292
47	0x3c3b7e58	0.011443697

exp_avg f4 [1, 6, 3, 4]
0	0x3e118c79	0.14213742
1	0x3dbd6261	0.0924728
2	0x3c27ff41	0.010253728
3	0x3bbb0935	0.0057078847
4	0x3e32b634	0.17452317
5	0x3dd27a2b	0.10277208
6	0x3c0b00e0	0.008484095
7	0x3a2880f7	0.00064279087
8	0x3e2583a6	0.16163501
9	0x3e2a8f05	0.1665612
10	0xbcdd10d3	-0.026985561
11	0x39b751cf	0.00034965432
12	0x3f8f6329	1.1202136
13	0x3f2de4ab	0.67927045
14	0x3ee6c37e	0.45071024
15	0x3dc91523	0.09818485
16	0x3f78f6ab	0.97251385
17	0x3f061bdf	0.5238628
18	0x3ef637cc	0.48089445
19	0x3e56089a	0.20901719
20	0x3f5619aa	0.8363291
21	0x3f22d8f9	0.63612324
22	0x3f0f2159	0.5591026
23	0x3e46824b	0.1938564
24	0x3d7ffd73	0.062497567
25	0x3d7ffd71	0.06249756
26	0x3d7ffd70	0.062497556
27	0x3b98b7df	0.004660591
28	0x3d4d603f	0.050140616
29	0x3d4d6043	0.05014063
30	0x3d4d6045	0.050140638
31	0x3cabea3d	0.020985717
32	0x3d8e6e6a	0.069546536
33	0x3d8e6e6b	0.06954654
34	0x3d8e6e6b	0.06954654
35	0x3cf9ff64	0.030517288
36	0x3d4f73e9	0.05064765
37	0x3d670dba	0.056409575
38	0x3d670dbc	0.056409582
39	0xbc307aea	-0.0107714925
40	0x3d0566d4	0.032568768
41	0x3cb48679	0.022036778
42	0x3cb4867d	0.022036785
43	0xba8e5a36	-0.0010860625
44	0x3d7d1d62	0.0617956
45	0x3d65d684	0.05611278
46	0x3d65d688	0.056112796
47	0xbc5516bd	-0.0130059095
48	0xbc29e89b	-0.010370399
49	0xbc51f1e4	-0.012814019
50	0xbc51f1f0	-0.01281403
51	0x3d271380	0.04079008
52	0x3d0dd398	0.03462562
53	0x3d147b9a	0.036250688
54	0x3d147b9a	0.036250688
55	0x3c82f07c	0.015983813
56	0x3da71479	0.08158202
57	0x3daf4759	0.0855853
58	0x3daf4758	0.085585296
59	0x3cb82a21	0.022481026
60	0x3ccaa5ce	0.024737265
61	0x3d3bd224	0.045854703
62	0x3d3bd227	0.045854714
63	0x3c39f869	0.0113507295
64	0xbd9a8859	-0.075455375
65	0xbd46bfef	-0.048522886
66	0xbd46bfef	-0.048522886
67	0x3c505844	0.012716357
68	0xbd14ad3f	-0.036298033
69	0xbc5f636e	-0.013634546
70	0xbc5f6368	-0.01363454
71	0x3cc6fd08	0.024290577

exp_avg_sq f4 [1, 6, 3, 4]
0	0x3f71e852	0.9449512
1	0x3e28a804	0.16470343
2	0x3cc06726	0.023486685
3	0x3a31c11a	0.00067807885
4	0x3f8e469d	1.11153
5	0x3e370b11	0.17875315
6	0x3cbea507	0.02327205
7	0x3a5de4da	0.00084645825
8	0x3f8ce1e7	1.100644
9	0x3e43c80f	0.19119285
10	0x3cd78248	0.02630724
11	0x3a928ff2	0.0011181815
12	0x41998387	19.189222
13	0x413783f5	11.469716
14	0x407159dc	3.7711096
15	0x3f18eefe	0.59739673
16	0x41988111	19.06302
17	0x413035ed	11.013165
18	0x4061cbbd	3.5280602
19	0x3f0fe35c	0.562063
20	0x4199122e	19.133877
21	0x4132195c	11.131191
22	0x406633c2	3.596909
23	0x3f1b8573	0.607505
24	0x3ddc4aac	0.1075643
25	0x3ddc4aab	0.10756429
26	0x3ddc4aab	0.10756429
27	0x3bac7f61	0.005264208
28	0x3e2788fb	0.16360848
29	0x3e2788fb	0.16360848
30	0x3e2788fa	0.16360846
31	0x3bbf9d3f	0.0058476026
32	0x3e2bfb04	0.16794974
33	0x3e2bfb05	0.16794975
34	0x3e2bfb05	0.16794975
35	0x3bd20f64	0.006410526
36	0x3d6a0fd8	0.057144016
37	0x3d492ac8	0.049113065
38	0x3d492ac6	0.049113058
39	0x3aafd720	0.0013415553
40	0x3d238873	0.03992505
41	0x3d0ba5e5	0.034093756
42	0x3d0ba5e4	0.034093753
43	0x3aa83eba	0.0012836077
44	0x3d2d288b	0.042274993
45	0x3d19044b	0.03735761
46	0x3d190449	0.037357602
47	0x3a980bd0	0.00116002
48	0x3d6835c2	0.056691892
49	0x3d552a21	0.05204213
50	0x3d552a21	0.05204213
51	0x3b3b4c28	0.0028579328
52	0x3d11fcc1	0.035641436
53	0x3d0a0b4c	0.03370218
54	0x3d0a0b4c	0.03370218
55	0x3a54e6dd	0.00081215595
56	0x3d39362a	0.04521767
57	0x3d26cf99	0.040725324
58	0x3d26cf9a	0.040725328
59	0x3a9ee38a	0.0012122255
60	0x3d64e507	0.05588248
61	0x3d5904e7	0.05298319
62	0x3d5904e6	0.052983187
63	0x3ae85592	0.0017725697
64	0x3d56e0d1	0.052460495
65	0x3d4cdb15	0.05001362
66	0x3d4cdb15	0.05001362
67	0x3aaca49e	0.0013171618
68	0x3d4ce74f	0.05002528
69	0x3d43781b	0.047721963
70	0x3d43781c	0.047721967
71	0x3b1bf938	0.002379967

exp_avg f4 [1, 6, 4, 4]
0	0xbf1926b1	-0.59824663
1	0xbe341574	-0.17586309
2	0xbb0b69a2	-0.002127268
3	0xbcbeeb1f	-0.023305474
4	0xbeb42848	-0.35186982
5	0xbde56d33	-0.11202469
6	0x3825762c	3.944912e-05
7	0xb9dc50e4	-0.00042021938
8	0xbf20cd08	-0.6281285
9	0xbe16abd0	-0.14713979
10	0xbd2e2db7	-0.042524066
11	0x3aa8bb84	0.0012873267
12	0xbf3133ed	-0.6921986
13	0xbe6e66a9	-0.23281349
14	0xbd5e9780	-0.0543437
15	0xbc015b96	-0.007895371
16	0xc0326b50	-2.7877998
17	0xbfc45e62	-1.5341303
18	0xbf45013d	-0.76955014
19	0xbe9be6be	-0.3044948
20	0xc03b4950	-2.9263496
21	0xbfea020e	-1.8281877
22	0xbf6e6c57	-0.93134063
23	0xbecec1ab	-0.40382132
24	0xc02947a9	-2.6449988
25	0xbff11380	-1.8834076
26	0xbf8cc6fa	-1.0998223
27	0xbedd129e	-0.43178266
28	0xc0393dba	-2.8943925
29	0xbfe47a4f	-1.7849826
30	0xbf68c57a	-0.90926325
31	0xbe9c33f9	-0.30508402
32	0xbd7597e1	-0.059959296
33	0xbd7597e7	-0.05995932
34	0xbd7597d4	-0.059959248
35	0xbd2336a3	-0.039847028
36	0xbe49d463	-0.19709925
37	0xbe49d463	-0.19709925
38	0xbe49d45e	-0.19709918
39	0xbbac1754	-0.0052518044
40	0xbe037995	-0.12839349
41	0xbe037994	-0.12839347
42	0xbe037995	-0.12839349
43	0xbbe2d41d	-0.0069222585
44	0xbdcc29f0	-0.099689364
45	0xbdcc29ea	-0.09968932
46	0xbdcc29ea	-0.09968932
47	0xbc121195	-0.008915325
48	0xbe18bc9c	-0.14915699
49	0xbe1c25e5	-0.1524883
50	0xbe1c25e6	-0.15248832
51	0xbbfb42d3	-0.007667878
52	0xbddb3d13	-0.10705008
53	0xbe03bb60	-0.12864447
54	0xbe03bb5f	-0.12864445
55	0x3b452e7a	0.0030087517
56	0xbc87d27b	-0.016579857
57	0xbd22606c	-0.039642736
58	0xbd22606d	-0.03964274
59	0x3aa236bd	0.0012375932
60	0xbdd14a5c	-0.10219261
61	0xbdf3927a	-0.118931726
62	0xbdf3927a	-0.118931726
63	0x3c28323f	0.010265886
64	0xbd081baa	-0.033229508
65	0xbc54f960	-0.012998909
66	0xbc54f951	-0.012998895
67	0xbbd8ae64	-0.006612586
68	0xbca0f1fb	-0.019646635
69	0x3be4f2f6	0.006986971
70	0x3be4f2ec	0.0069869664
71	0xbc41f3a9	-0.011837878
72	0xbd8a4d2d	-0.06753001
73	0xbd205298	-0.039141268
74	0xbd205295	-0.039141256
75	0xbc9f5f96	-0.019454759
76	0xbdc974e8	-0.09836751
77	0xbd81dcd8	-0.06340951
78	0xbd81dcd8	-0.06340951
79	0xbbe5c52f	-0.0070120315
80	0xbe1d1fd5	-0.15344174
81	0xbe2d7b52	-0.16941574
82	0xbe2d7b53	-0.16941576
83	0x3b93ca8f	0.004510231
84	0xbd5cc748	-0.053900987
85	0xbd903da5	-0.07043008
86	0xbd903da6	-0.070430085
87	0x3c81e051	0.015854033
88	0xbd0f5d53	-0.03500111
89	0xbd263414	-0.04057701
90	0xbd263411	-0.040577
91	0x3c2321b9	0.009956771
92	0xbdf7351f	-0.12070679
93	0xbe074c0e	-0.13212606
94	0xbe074c0e	-0.13212606
95	0xbc94eb1f	-0.01817852

exp_avg_sq f4 [1, 6, 4, 4]
0	0x40f58a47	7.6731296
1	0x3f380a58	0.71890783
2	0x3de2771b	0.11057874
3	0x3b02c5c3	0.00199543
4	0x40ce3aff	6.4447017
5	0x3eeba84e	0.46026844
6	0x3cc74976	0.024327021
7	0x3a52db65	0.00080435566
8	0x40ed877c	7.4227886
9	0x3f1686d8	0.58799505
10	0x3d9aadfa	0.07552715
11	0x3b3ffc28	0.0029294584
12	0x40de4fc9	6.9472394
13	0x3f207f58	0.6269431
14	0x3da84d55	0.08217875
15	0x3ab412b2	0.0013738482
16	0x42cb2743	101.57668
17	0x42382376	46.03463
18	0x413c0c09	11.752938
19	0x3fb2dd47	1.3973778
20	0x42d0d67d	104.41892
21	0x423e5e23	47.59193
22	0x41495281	12.582643
23	0x3fd4045b	1.6563829
24	0x42cd9458	102.789734
25	0x4239a82e	46.414238
26	0x414181f9	12.094232
27	0x3fc527f3	1.5402817
28	0x42ce4eaa	103.15364
29	0x42384ad0	46.07306
30	0x413bff11	11.749772
31	0x3fc45ba7	1.534047
32	0x3f088b13	0.5333721
33	0x3f088b13	0.5333721
34	0x3f088b13	0.5333721
35	0x3ca15e8b	0.019698402
36	0x3f0e74e6	0.5564712
37	0x3f0e74e6	0.5564712
38	0x3f0e74e6	0.5564712
39	0x3c90a17b	0.017655125
40	0x3f26ffbb	0.65233964
41	0x3f26ffbc	0.6523397
42	0x3f26ffbb	0.65233964
43	0x3c9508dd	0.018192703
44	0x3f160147	0.585957
45	0x3f160147	0.585957
46	0x3f160145	0.5859569
47	0x3c9a164e	0.018809464
48	0x3e338a79	0.17533292
49	0x3e10da78	0.14145839
50	0x3e10da78	0.14145839
51	0x3b8d0770	0.004303865
52	0x3e257f4b	0.1616184
53	0x3e005f44	0.12536341
54	0x3e005f44	0.12536341
55	0x3b8595bf	0.004076689
56	0x3e21006b	0.15722816
57	0x3dfe7cff	0.12426185
58	0x3dfe7cff	0.12426185
59	0x3bbd8fb7	0.0057849544
60	0x3e2bbcdb	0.16771261
61	0x3e08b409	0.13349928
62	0x3e08b409	0.13349928
63	0x3b4bb571	0.003108349
64	0x3e251f82	0.161253
65	0x3e0f2060	0.13977194
66	0x3e0f2060	0.13977194
67	0x3b975551	0.004618325
68	0x3e12f482	0.14351085
69	0x3df55188	0.119784415
70	0x3df55189	0.11978442
71	0x3b5d8b87	0.0033805089
72	0x3e1df453	0.15425234
73	0x3e03f752	0.12887314
74	0x3e03f752	0.12887314
75	0x3b8d6629	0.004315157
76	0x3e3800c7	0.17969047
77	0x3e132d67	0.14372788
78	0x3e132d67	0.14372788
79	0x3b9fd876	0.004878099
80	0x3e374dde	0.17900798
81	0x3e23ab60	0.15983343
82	0x3e23ab62	0.15983346
83	0x3b907506	0.0044084815
84	0x3e348945	0.17630489
85	0x3e239b02	0.159771
86	0x3e239b03	0.15977101
87	0x3bca7330	0.006178282
88	0x3e1dfeea	0.15429273
89	0x3e0e783c	0.13913053
90	0x3e0e783c	0.13913053
91	0x3bb125c8	0.005406115
92	0x3e2b7440	0.16743565
93	0x3e1f2763	0.15542369
94	0x3e1f2761	0.15542366
95	0x3b88b2e9	0.0041717184
