TrainedModel/Dueling DQN-2/5700_0-125_DuelingDQN.pth (torch, 291221 bytes, 33 tensors)

conv1.weight f4 [1, 6, 1, 4]
000000 92 10 6f bb 79 d0 24 3e 5c 43 bb 3e da fd 81 3e
       -0.0036478383 0.16095151 0.3657483 0.25388986
000010 07 e9 94 be ed cc 00 bf 5b 75 65 3c ea 2d 4a 3e
       -0.29084036 -0.5031269 0.0140050305 0.19744077
000020 4b 42 55 bc c1 c5 b1 3e c6 00 98 be 22 3a 2a 3e
       -0.013016294 0.34721187 -0.2968809 0.16623738
000030 af a7 0a 3e 10 b5 12 3e bf 5c 3b be 6c 25 9d 3d
       0.13540529 0.14326882 -0.18297099 0.07673153
000040 b5 a5 d3 3d d8 73 e4 be 37 1f 86 3e 0a d9 a4 3e
       0.103343405 -0.44619632 0.2619569 0.32196838
000050 f0 2a 5f be 7d 07 0c 3d f7 50 9b 3d 3c a6 cc be
       -0.21793723 0.03418683 0.07583802 -0.39970577

conv2.weight f4 [1, 6, 2, 4]
000000 fb 3d f6 3e 7b bf 25 be 1f af 2d be 54 c1 82 3e
       0.48094162 -0.16186325 -0.16961335 0.25538123
000010 2b de 55 3f 14 75 9b be d8 c7 90 bd a5 29 56 3e
       0.83542126 -0.3036276 -0.07069367 0.20914324
000020 d5 8d 6b bd 1c 6a 7c 3c 8f 61 06 bd ac 3a 04 bd
       -0.05750831 0.015406158 -0.032807883 -0.032282516
000030 c2 5a 06 3d e9 26 e0 bd 2e 72 c9 bd 04 c6 e5 bc
       0.032801397 -0.109449215 -0.09836231 -0.028048523
000040 02 20 67 3e 74 3d 3e bd fc 82 75 be b2 c4 96 3e
       0.22570804 -0.046445325 -0.23975748 0.29446942
000050 0f 33 20 be ab b8 6a bd 1e 6a 46 3d a1 60 a1 3e
       -0.15644477 -0.05730502 0.048441045 0.31519035
000060 b2 3e a9 3d 77 9a 9e 3c 54 66 1a be d3 9f 0f 3e
       0.08263911 0.019360764 -0.15078098 0.14025812
000070 57 41 2d 3e a8 11 36 be e0 09 97 3d 01 dc ab be
       0.16919456 -0.17780173 0.073749304 -0.33566287
000080 c8 93 9b be 0f 36 be 3e 61 ab 6c be c2 45 63 bc
       -0.30386186 0.37150618 -0.23112251 -0.013871612
000090 0b 0e 59 3d 6a ce fe 3d fd f0 2c bd e8 49 dd 3d
       0.052991908 0.12441714 -0.04222201 0.10805112
0000a0 fe 29 0d 3d 6b 4b 2a be b2 c8 2f 3e 94 67 71 3d
       0.034463875 -0.16630332 0.17166403 0.05893667
0000b0 0c 79 b2 3d 5f 41 95 bd 84 38 f9 3d 2c 36 88 3e
       0.08714494 -0.07287859 0.121689826 0.2660383

conv3.weight f4 [1, 6, 3, 4]
000000 74 3f 04 3f 87 7b 0e 3e 44 6e f6 3c 1a f7 3e 3f
       0.5165932 0.1391431 0.030081876 0.745958
000010 93 02 8b 3e eb 71 b3 3e 0b a6 2b 3d 80 ff 89 3e
       0.271504 0.3504785 0.041906398 0.26952744
000020 71 7a 04 3f 62 09 47 3f 99 87 83 3e ae 2e a8 3e
       0.5174933 0.7774869 0.2568939 0.32848114
000030 4e 79 43 3e 24 07 5c 3e cb 35 49 3e fd 83 07 3e
       0.19089243 0.21487099 0.19649427 0.13233943
000040 b4 ca fb 3c 46 96 ec 3c ad 96 04 3d 8e 92 63 3e
       0.030736305 0.02888025 0.032370258 0.22223875
000050 87 b4 c2 bc fe d0 32 3e 8d 2c 04 3e 16 0f 78 3e
       -0.023767723 0.17462537 0.1290762 0.24224505
000060 f7 29 d0 bc 4c bf a7 be d9 b5 73 be 20 d7 19 3f
       -0.025410635 -0.32763135 -0.23799838 0.6009388
000070 28 bd 25 be c8 bd 54 3c c5 51 46 be d2 11 ff 3e
       -0.16185439 0.0129847005 -0.1936713 0.49818283
000080 24 a0 60 3d c2 fc 58 3d 3a df c0 bd 54 b1 a7 3e
       0.054840222 0.052975424 -0.09417577 0.32752478
000090 d1 7f 00 bd 00 81 0e bd e9 20 6e bd 01 76 ca bd
       -0.031371895 -0.034790993 -0.058136854 -0.09885789
0000a0 51 d2 82 3d 9b de 49 3d ae bb 00 be 78 fb 18 be
       0.06387771 0.04928456 -0.12571594 -0.14939678
0000b0 10 c4 b2 be 74 0b 5d bd 24 51 12 3e 90 a3 f3 3e
       -0.3491521 -0.053966 0.14288765 0.47585726
0000c0 72 f6 a5 bd 0a 64 90 3e 75 b3 d7 3d 0c 83 05 bd
       -0.08103646 0.28201324 0.105322756 -0.03259568
0000d0 38 53 7e be bb e5 a2 be a0 01 8b 3c dc 12 0f be
       -0.24836433 -0.31815895 0.016968548 -0.13972038
0000e0 fa d6 02 3d f4 1e 4e 3e 3f c9 18 be f8 84 aa be
       0.0319433 0.20128995 -0.1492052 -0.33304572
0000f0 1a 9d 00 be 18 3f 71 be 85 46 b3 bd 1f 33 80 be
       -0.1255993 -0.23559225 -0.08753685 -0.25039002
000100 8e 4c a4 3d da 8c 7f 3e 6b ea 92 bc 95 30 30 3e
       0.08022414 0.24956074 -0.017934045 0.17206033
000110 da 89 27 be 0c 1c 0a bd 6f 16 2d be 18 30 a0 bd
       -0.1636118 -0.033718154 -0.16903089 -0.07821673

conv4.weight f4 [1, 6, 4, 4]
000000 5c 1e 40 3e ba 14 5d be 9b 29 05 be 56 de 5f bd
       0.18761581 -0.21589938 -0.13004152 -0.054655395
000010 30 2c 53 be 61 96 d5 bd b2 c9 99 be 32 00 3d 3e
       -0.20622325 -0.10429073 -0.30036694 0.18457106
000020 8b d5 10 bd 53 e4 6a be 15 92 15 be 8b 0b a7 bc
       -0.0353599 -0.22938661 -0.14606507 -0.020391246
000030 70 7a 29 3e 36 ca f5 3c 53 7f 5c be 32 dc c1 3d
       0.16550612 0.030003648 -0.21532945 0.09465827
000040 63 01 54 3e b6 7b 0b bd c8 54 1e be 4b 5c 99 be
       0.20703654 -0.034053527 -0.15462029 -0.29953226
000050 d8 9b 94 3e b9 15 25 3e f7 57 09 bd 95 38 08 be
       0.2902515 0.16121568 -0.033531155 -0.13302834
000060 be 20 8b bd 17 b4 2c be 51 c1 1e be a3 8c 28 be
       -0.067933545 -0.16865574 -0.15503432 -0.16459899
000070 d5 b1 8d 3d cc 2b 2f 3e 25 84 2e be 44 a9 37 be
       0.069186844 0.17106551 -0.17042597 -0.17935663
000080 c3 07 af bc a2 77 76 3e 2b 42 65 3e 6a e3 00 be
       -0.021366006 0.24069074 0.22388522 -0.12586752
000090 78 02 12 3e 77 8d d6 3d 69 61 e1 3d 2b dd de bd
       0.14258754 0.10476201 0.11004908 -0.10882028
0000a0 de b1 93 3c 6e 48 ae 3c f0 ec d5 3d 6e a4 02 be
       0.01802915 0.021274772 0.10445583 -0.12758037
0000b0 56 8e 06 3c 45 7d 92 3e 89 10 98 bd 9a ce e7 3d
       0.0082126465 0.28611198 -0.07425029 0.11318703
0000c0 49 07 95 bd 6f 3d 26 3e 1f eb 33 be 56 73 06 be
       -0.0727678 0.16234373 -0.1757016 -0.13129935
0000d0 ec fa 89 3c fe c5 5e 3e 11 6e 89 3e e6 78 bf 3d
       0.016843282 0.21755216 0.26841787 0.093492314
0000e0 89 e8 32 be 1d 60 b4 bc 1a 9e 89 3e 23 10 64 3e
       -0.17471518 -0.022018487 0.26878434 0.2227178
0000f0 9f 56 bc 3c 68 12 66 bd 66 50 40 3d 86 03 82 bd
       0.022990523 -0.056169897 0.046951674 -0.06348328
000100 9e 28 b7 bd 82 37 2d 3e 14 72 9c 3c 58 e9 9b be
       -0.08943294 0.16915706 0.019097365 -0.30451465
000110 8d 05 3c 3e 91 df b5 bd 28 ba e5 3d 1f 94 27 3c
       0.18361492 -0.088805325 0.11217147 0.010228186
000120 cd 49 03 bd b4 d0 a0 3b 98 a3 3b 3e 0c dd b4 bd
       -0.032052804 0.004907692 0.18324125 -0.08831224
000130 fd 8a 5b be 9f 93 39 3e 51 65 13 3e b1 3b 93 bd
       -0.21439739 0.18122719 0.14394118 -0.071891196
000140 93 0d 97 3e 94 45 f6 bd c4 26 07 be 89 af 10 3e
       0.29502544 -0.1202499 -0.13198382 0.14129461
000150 fa 73 c1 3c 48 24 c2 3d 98 a2 e8 bc 6c a2 b8 3c
       0.023614872 0.09479576 -0.028397843 0.022538386
000160 0b a9 59 bd c8 9f 76 3e 42 29 e5 bd 88 9d 69 3e
       -0.053139728 0.24084389 -0.1118951 0.22814
000170 f1 9e 95 bd 9b 63 5f bd 66 fd 97 3d d4 fa 04 be
       -0.07305706 -0.05453835 0.07421379 -0.12986308

fc3_adv.weight f4 [76, 130]
000000 8e b8 04 be d6 70 b8 3e 1a fb 67 3e e3 d4 25 bd
       -0.12961027 0.36023587 0.22654381 -0.040486228
000010 94 b8 03 3d 73 83 b7 bc c1 6e dc 3e 7e 76 83 3e
       0.03215845 -0.022401547 0.4305325 0.2567634
000020 2a 8f fb 3e d7 e0 c2 3e e2 93 fe 3e 47 00 76 3e
       0.49132663 0.38062164 0.497222 0.24023543
000030 49 5a 24 3d b3 68 91 3e 9c 70 5b 3e 2e c7 da 3e
       0.040125165 0.28400192 0.21429676 0.42730087
000040 88 b7 bb 3e ce e3 f4 3e 55 b8 0b 3f b8 cb a8 3e
       0.3666346 0.4783005 0.54578143 0.32967925
000050 f4 46 2b 3f c8 6a 27 3e dd 90 1e 3e 43 44 90 3e
       0.6690514 0.16349328 0.15484948 0.2817708
000060 90 a2 5c bd ce ce 91 3e be 2a 75 3e 4a 53 3c bc
       -0.05386597 0.28478092 0.23942086 -0.011494467
000070 1b e7 00 3e eb 2c 3f 3d 82 06 d1 3e 86 bb 44 bd
       0.1258816 0.046673696 0.40825278 -0.0480304
000080 86 16 86 3d 00 4b c1 3e 1f 51 20 be 1e ab 45 bd
       0.06547265 0.37752533 -0.15655945 -0.048258893
000090 e1 76 e3 bd 6d 6e 85 3e ce 5d 78 bc 16 0c 10 be
       -0.11106659 0.2606081 -0.0151590835 -0.1406711
0000a0 79 36 bc ba 64 c3 e2 bd 23 2d 27 3e bc 8a 9b 3e
       -0.0014359496 -0.11072424 0.16325812 0.30379283
0000b0 90 f1 51 3e 5a 50 15 bd 91 ac e3 bd 04 79 90 3d
       0.20502305 -0.036453582 -0.11116899 0.07054332
0000c0 22 52 9a 3e 2e 20 9c 3e 98 2f 2a 3d 27 4b 7f 3c
       0.30140787 0.304933 0.041549295 0.015581883
0000d0 bb 11 97 bd b7 0f cf 3e 53 ea 12 3d 01 0b 17 be
       -0.07376429 0.40441677 0.035868 -0.14750291
0000e0 61 2b 20 bd fe 67 84 3e c8 2c 19 3d a5 0a c1 3d
       -0.03910387 0.2586059 0.037396222 0.094258584
0000f0 af 13 42 3e 9d 6b 22 3e 3e a9 0a be 24 61 b5 bd
       0.18952821 0.15861364 -0.13541123 -0.08856419
000100 2e fb 3b 3e 28 46 5f 3c 33 98 5b 3d c2 00 ae be
       0.18357536 0.013627566 0.053611945 -0.33984953
000110 a1 57 c4 bc ed c3 d1 3d 0d 70 25 be a8 b4 22 bd
       -0.023967566 0.10242448 -0.16156025 -0.03972307
000120 35 57 b2 bd de c6 64 3d b9 3a 1a bc 4d 91 87 bd
       -0.0870804 0.055853717 -0.009413415 -0.06619511
000130 05 a9 db 3d 8a df b6 bd 20 d6 77 be 31 67 55 be
       0.10725597 -0.089293554 -0.24202776 -0.20840146
000140 61 d8 e6 3d 51 1f 28 be 33 86 45 3d 4a 60 46 bd
       0.1127174 -0.16418196 0.048223685 -0.048431672
000150 91 c7 16 be 85 7e 21 3d 85 fe 95 bd 76 93 82 be
       -0.14724566 0.0394273 -0.073239364 -0.2550313
000160 eb 72 1e be 05 bd 16 be bb 25 17 3e 9c 5e ab 3d
       -0.15473525 -0.14720543 0.14760487 0.08367655
000170 ee d4 95 3d 19 e3 16 be a4 7c 17 bd 86 70 64 3d
       0.07316004 -0.14735068 -0.0369841 0.055771373
000180 55 90 25 bd ad 70 81 bd e3 06 71 be 60 4b 19 3e
       -0.04042085 -0.06320319 -0.23537783 0.1497016
000190 5b 5c a3 3d 96 db 68 3c 92 4f ad 3e 4c 3b ab 3e
       0.079766 0.01421251 0.3384977 0.33443677
0001a0 61 29 dc 3d 5b 01 78 3d 81 20 eb 3d da cb 51 3d
       0.1075008 0.060548168 0.11480809 0.0512198
0001b0 44 ae 57 3e 77 9b 8f 3c 84 f4 b6 3d 1e e3 9f 3e
       0.21062571 0.017530186 0.089333564 0.31227964
0001c0 49 f5 93 3e bc e2 41 3e e1 22 a0 3e c4 74 e4 3b
       0.28898075 0.18934149 0.3127661 0.0069719274
0001d0 d4 09 60 3e b3 41 81 3e d5 fa e9 3d 6b cf e2 3e
       0.21878749 0.25245437 0.114247955 0.44298872
0001e0 2d 96 aa 3e ce d7 56 3d 36 2e 36 3e d7 16 37 3e
       0.333177 0.0524519 0.17791066 0.17879806
0001f0 a7 f4 07 3d 3e 61 12 3e 22 d8 62 3e 89 2e bc bc
       0.033192303 0.14294907 0.2215276 -0.022971408
000200 9b 24 75 3e 5b 80 81 3e 13 c9 a6 bd d0 15 86 3e
       0.23939745 0.2529324 -0.081438206 0.26188517
000210 ed 3a 3a 3e 05 aa 55 3c 9e df cb 3d 1a 48 2f 3e
       0.18186541 0.013041024 0.09954761 0.17117348
000220 b5 e9 05 3e 7c b8 28 3e 1f f5 5f be 20 87 cc 3c
       0.13077433 0.16476625 -0.2187085 0.024966776
000230 d2 65 ec 3d cc dd bc 3e 28 75 12 3f 36 53 88 3e
       0.11542858 0.36887968 0.57210016 0.26625985
000240 ae 10 df 3d e5 57 14 3e 92 d1 8d 3e 1b 83 c8 3d
       0.10891853 0.14486654 0.27698952 0.097906314
000250 ad 44 47 be 73 ab 59 3d 80 05 6d be 9e 71 35 be
       -0.19459791 0.053142022 -0.2314663 -0.17719123
000260 3a 5a 81 be 6a b7 5a be 98 dc c7 be df 20 ef 3b
       -0.2526415 -0.2135903 -0.39035487 0.0072976197
000270 66 77 11 bd 3a d7 7b 3d 76 ed 73 3e 30 5e 8c 3e
       -0.035514258 0.061484553 0.23821053 0.2741561
000280 6b 44 85 be f8 51 69 3e 04 7d 9f 3d 32 0d 0e 3e
       -0.2602876 0.22785175 0.07787517 0.13872221
000290 3b 6a 8c bb 8b f8 81 3e 09 39 97 3e db 29 a5 3e
       -0.0042851246 0.25384936 0.29535702 0.32258496
0002a0 f4 7a 37 3e b0 4b 47 3c c6 07 82 bd 64 28 ac 3c
       0.17917997 0.012164041 -0.06349139 0.021015354
0002b0 63 8f 8c bd 89 e4 13 3d 89 05 86 3c b6 3e 3b 3e
       -0.06863286 0.03610662 0.016360061 0.18285641
0002c0 da 1b 31 bc 26 45 97 3e 3f c1 23 3e 2f 0a c0 3e
       -0.010809863 0.29544944 0.15991686 0.3750777
0002d0 1f 45 f9 3c 14 07 84 be bb d0 12 be 8a 11 b9 3e
       0.030428467 -0.2578665 -0.14337437 0.36146194
0002e0 d3 e6 68 3e 36 1c 1e be 54 92 1f be 36 83 78 be
       0.22744302 -0.15440449 -0.15583163 -0.24268803
0002f0 df b9 e6 bd 95 ec 2e be 0c 2b 81 bd de 0a 97 bc
       -0.11265921 -0.17082436 -0.06307039 -0.018437799
000300 cd ab 8b be 6b 64 1a bd 77 e2 10 be 47 bf ec bc
       -0.2727951 -0.037693422 -0.1414889 -0.028899802
000310 c9 52 b2 bc c3 7d 23 bd a7 43 ba 3d 90 2a 47 3d
       -0.02176799 -0.039914858 0.09094935 0.048624575
000320 8b 4d 16 be 7d c5 ea 3b bf c5 48 be 98 1c c3 be
       -0.14678018 0.0071646557 -0.19606684 -0.38107753
000330 69 65 f6 3b 2f 80 6d bd 4f 48 47 3e e2 86 04 3d
       0.0075194133 -0.057983574 0.19461177 0.032355197
000340 99 a0 1c 3d 39 2d 66 3d 4d 17 03 3e 6e f1 ad ba
       0.038239095 0.05619547 0.12801857 -0.0013270804
000350 a8 b3 bc bd 19 5c 1e be 25 bd 01 be a1 86 df bb
       -0.09213954 -0.1546482 -0.12669809 -0.006821469
000360 a8 0b 98 bd 52 77 0d bd bb 66 b7 bc 56 56 89 be
       -0.07424098 -0.03453762 -0.022387853 -0.26823682
000370 cd 92 6b be f1 5b 14 bd 32 08 87 bd 7d de f4 bd
       -0.23005219 -0.036220495 -0.0659336 -0.11956499
000380 6b 2f 2b 3e c6 98 62 be 38 a0 5b 3e bd aa 06 3e
       0.16717307 -0.22128591 0.21447837 0.13151069
000390 df c6 1e 3c b1 63 d4 3e 51 23 52 3e ec d6 08 3e
       0.009690969 0.41482309 0.20521285 0.13363236
0003a0 1a e9 13 bc 0d 09 10 bd 23 6a 4f 3e 03 a7 42 3e
       -0.009027744 -0.03516488 0.20255332 0.19009022
0003b0 ed c6 a7 3d 0f 4d 83 3e c1 b8 00 3d 03 a5 77 3c
       0.08192239 0.2564473 0.031426195 0.015115025
0003c0 9a 72 f5 3d 84 8e d8 bb 16 92 e6 3a 32 7e c0 3e
       0.11984749 -0.006608786 0.0017591144 0.3759628
0003d0 d4 d3 0c 3d bb 7b 33 bd a4 81 d6 3e 4c 24 84 3e
       0.034381703 -0.04381917 0.41895783 0.25808942
0003e0 4d 19 00 3e 09 d9 b1 3d 18 d8 d9 bc 27 09 11 bd
       0.12509651 0.08683974 -0.0265923 -0.03540912
0003f0 17 08 7f bc 9e 66 c6 bd 7b b1 12 3e 15 de 00 3e
       -0.015565894 -0.096875414 0.14325516 0.12584718

fc3_adv.bias f4 [76]
000000 00 f8 d0 3d dc 41 d2 3d ea 44 d2 3d 7a df 86 bd
       0.10203552 0.10266468 0.102670506 -0.065855935
000010 09 cd e7 bc c6 37 57 be e3 e9 8d 3b 08 1c 32 bd
       -0.02829601 -0.2101737 0.00433086 -0.043483764
000020 da 54 42 3e 5b f6 04 3e 35 15 da bd 14 62 4d be
       0.18977681 0.12984602 -0.10648576 -0.20056945
000030 6e 23 80 3e 01 3b ed 3c 6e a4 72 3e 4d cd 2c 3e
       0.2502703 0.0289588 0.23695537 0.16875191
000040 70 3e b7 3e 9e 37 e3 3d f8 3a 40 3e 59 3e c1 3d
       0.35789824 0.110945925 0.18772495 0.0943572
000050 14 1c bf 3c 87 31 86 bc 6c 6f 29 3e 55 0d 89 bd
       0.023328818 -0.016381038 0.1654641 -0.06691996
000060 b6 01 b6 bd b5 e7 75 bd 90 8d e9 bd 99 b2 5f 3e
       -0.08887045 -0.060035426 -0.11403954 0.21845473
000070 48 28 6a bd 3c 7a 03 3e 8e 14 47 3e 41 18 b5 3d
       -0.05716732 0.12839597 0.19441435 0.08842517
000080 3b 20 07 be ed fb 53 3d bf 77 7a 3d c4 bb 50 3e
       -0.13195889 0.051753927 0.061149355 0.20384127
000090 7e 0c 14 3e a8 56 8b be d1 7a 97 3c 6f c6 5b 3d
       0.1445789 -0.2721455 0.01849118 0.053656038
0000a0 da 63 ae 3e b8 f2 ee 3c 45 14 e5 bd 10 c7 2a 3e
       0.34060556 0.029168472 -0.11185507 0.16677499
0000b0 8a 3d 14 3c 08 49 df 3d 7e 27 27 3e 8c 5b 47 3e
       0.009047875 0.109026015 0.16323659 0.19468516
0000c0 f0 a1 10 3e 02 a5 17 3e 94 e4 c2 3a 69 9b a0 3d
       0.14124274 0.14809039 0.0014869147 0.07842142
0000d0 ac 52 33 3e b6 c4 9b 3c 5f 4d e0 3d d7 33 79 3d
       0.17512006 0.019014698 0.10952257 0.060840454
0000e0 36 fa 66 bd a6 bc 04 be 54 49 18 3e c3 63 37 3e
       -0.056390963 -0.12962589 0.14871722 0.1790915
0000f0 2d c2 53 3d d3 ce 87 3e 2e ec 0f 3e 1e e7 34 3d
       0.051698852 0.26524982 0.14054939 0.044165723
000100 32 f0 1a 3e 26 d3 4e bd dd 7a 69 3e 79 02 89 3d
       0.1513069 -0.050494336 0.22800775 0.06689925
000110 d8 bf 77 3d 10 c4 75 3d 0e 9a 85 3c 83 28 0a 3e
       0.06048569 0.060001433 0.01630881 0.13492016
000120 f5 1e 6e 3d 22 55 4c 3e c1 f0 44 3e 9d 80 a0 3e
       0.05813499 0.1995435 0.19232465 0.31348124

fc3_val.weight f4 [76, 130]
000000 2b 07 5c 3d 2b eb fd bd f7 7e 0a 3c ad b5 c6 bc
       0.053717773 -0.1239837 0.008453122 -0.024256552
000010 cc 80 8d bd cd f0 7f bc 22 fa ff bd b6 f7 60 be
       -0.06909332 -0.015621376 -0.12498881 -0.21969494
000020 c1 0c 05 3e ad 50 99 bd 74 38 7f 3d cf 06 2e 3c
       0.12993146 -0.07486091 0.062309697 0.0106217405
000030 59 43 a4 bc 06 1e f1 3d 1f 87 82 bc a3 f0 3a be
       -0.020051645 0.11773305 -0.015933571 -0.18255858
000040 2e d0 13 3d 5c b5 3f 3e c8 da 57 bd 3b 2f 06 be
       0.036087207 0.18721527 -0.05269888 -0.13103954
000050 d2 f1 e8 3b b2 65 17 be 2e a1 0c be 9f fc 57 bc
       0.0071089054 -0.14784887 -0.1373336 -0.013182788
000060 04 81 99 be 9b d8 64 bd 4b 7a 1a 3d 2a 9f 0d be
       -0.29981244 -0.055870634 0.037714284 -0.13830248
000070 1b af 3c 3d 57 f1 a6 bc d6 2e 60 3d b8 93 62 bd
       0.04606543 -0.020378752 0.054732166 -0.055316657
000080 70 f2 93 3e c5 e0 41 bd d7 01 0b be fa 61 6a bc
       0.28895903 -0.047333498 -0.1357492 -0.014305586
000090 7a 15 98 3a 48 1f 6f 3e 68 7d 6c bd 78 a3 9d 3e
       0.001160308 0.23351777 -0.057736784 0.3078878
0000a0 29 63 34 3e 0b 44 ae 3c 96 90 96 3e 1b a7 16 3e
       0.17615952 0.02127268 0.29407185 0.14712183
0000b0 9e fb a1 3e e0 73 29 3e 17 a2 86 3e 9a 71 f7 3d
       0.3163728 0.16548109 0.2629554 0.12082215
0000c0 5f f4 8a 3e 59 02 27 3e d3 7a 8c 3e a0 1d 80 3b
       0.27139565 0.1630949 0.27437457 0.0039097816
0000d0 a6 f0 35 3e 9f d0 1f 3e 98 44 7c 3d bf 7b 11 3e
       0.17767581 0.15606926 0.061588854 0.14207362
0000e0 58 f8 51 3d 15 93 39 bc 9c 08 f2 3c b3 c7 e7 bc
       0.05126223 -0.011326571 0.02954512 -0.028293466
0000f0 31 6b f2 3d 23 52 f1 bd 3d 19 af bd 0b 83 66 3e
       0.118368514 -0.117832445 -0.08549736 0.22510926
000100 f5 8a d2 bd 87 4f 8f 3d 1c 9e a9 bd 5e 01 3e be
       -0.1028041 0.069975905 -0.0828211 -0.18555209
000110 29 9a 94 bd 83 d4 94 bd 72 d0 9a 3d f3 67 8a 3d
       -0.07255966 -0.07267096 0.07559289 0.06758108
000120 f7 3b 31 3e 8f a3 28 bd b2 ae 40 bd ea 90 29 3e
       0.17308031 -0.041171607 -0.047041602 0.16559187
000130 82 65 ab bd 96 6a 12 3e 37 48 a4 3d 29 b6 3f 3c
       -0.083689705 0.14298472 0.080215864 0.011701145
000140 dc d5 75 bd 8b 36 89 3c ea 9c c2 3d c5 46 de bd
       -0.060018405 0.01674964 0.09502585 -0.10853342
000150 0b 8d c6 3d 60 e6 37 3e 50 a8 ea 3c 78 32 bc 3d
       0.096948706 0.17958975 0.02864471 0.09189314
000160 da 51 aa bd ad 8b b0 3c ab 8a 0e be a2 34 e1 bd
       -0.08316393 0.021550978 -0.13920085 -0.10996367
000170 15 04 2f bd f5 82 2a bc 83 ff 98 3d dd aa 96 3c
       -0.042728502 -0.010407199 0.0747061 0.01839202
000180 b7 29 0d be 3b 0e 7a 3e 04 29 50 3e d1 cd 7a be
       -0.13785444 0.24419491 0.20328146 -0.24492575
000190 18 47 88 bd 32 65 a1 bd c5 5e 13 be ee ea 9f 3d
       -0.06654185 -0.078806296 -0.1439162 0.07808481
0001a0 5c d7 8a bd 9b d6 d1 bd 49 64 f9 3d 0e 5c 50 3e
       -0.06779358 -0.10246011 0.12177331 0.20347616
0001b0 89 82 f7 3c 6e 34 d6 bd 3d bf a0 bd 24 19 5b 3e
       0.030213611 -0.10459219 -0.07848976 0.21396309
0001c0 7a 86 69 3e 53 fa 1d 3d b6 aa 02 3e 36 5b ac bd
       0.22805205 0.038568806 0.12760434 -0.084158346
0001d0 80 fb 08 bd 5d 0d 51 be bf e9 ea 3d 0e 68 7b 3d
       -0.033442974 -0.20415254 0.11470365 0.06137853
0001e0 cd 41 2c 3d d2 4d 91 bd 89 a9 fb bd ec 10 09 be
       0.04205494 -0.07094921 -0.12288196 -0.13385361
0001f0 f3 c2 09 be e1 aa d8 bb 8b 25 39 3e 10 7b 85 3c
       -0.13453273 -0.006612167 0.18080728 0.016294032
000200 2e 1e 24 3e 42 97 af bd 36 86 81 3e e6 38 a6 3e
       0.16027138 -0.08573772 0.25297707 0.32465285
000210 58 da 16 3e 14 a2 19 3e de ae 6f 3e e3 d4 72 3e
       0.14731729 0.15003234 0.2340655 0.23714022
000220 e4 96 a3 3e 45 11 94 3e 82 a3 6a 3e 33 94 1a 3e
       0.31951058 0.28919426 0.22913936 0.15095596
000230 d6 2f 0b 3e 48 3b 5f 3e 1c 2f a9 3e 91 69 8b 3e
       0.13592467 0.21799958 0.33043754 0.27228978
000240 7e 04 83 3e 6f 05 d5 3d 20 26 9f 3e 06 43 68 3e
       0.25589365 0.10401427 0.31083775 0.22681817
000250 ae 14 f2 3d 68 57 91 3e 0f d8 b3 3d cd e6 aa 3e
       0.118203506 0.28386998 0.08781444 0.33379212
000260 e3 82 9f 3e 5e c8 e4 3d 9c 49 5e 3e 96 72 d1 3d
       0.31154546 0.111710295 0.21707767 0.10226934
000270 95 ec a6 3e 58 d1 58 3e 49 57 9b 3e e0 f3 ec 3d
       0.32602373 0.21173608 0.3034003 0.11569953
000280 7c a7 34 3d 11 03 5d 3e e6 cd d6 3c 67 49 b4 3e
       0.044105038 0.21583201 0.026221227 0.35212252
000290 4a 81 77 3d 1e 76 5f 3e b8 09 ec 3d a9 ab f2 3d
       0.060426034 0.21822402 0.11525291 0.11849148
0002a0 77 1a 04 3e 9c a0 1b 3e db 23 9a 3e 89 9e 9e 3d
       0.1290072 0.15197986 0.3010548 0.07745082
0002b0 bf 35 0e 3e 5c 22 c6 3d d3 da fb bc 7b a1 82 3e
       0.1388769 0.09674522 -0.030743992 0.25513825
0002c0 82 a9 78 3e af d5 33 3e e2 6f dd 3d 22 c7 7f 3c
       0.24283412 0.17561983 0.108123556 0.015611442
0002d0 8c df 4a 3e a0 55 94 bc f1 69 26 bc f7 c7 81 3e
       0.19811839 -0.018107235 -0.010157094 0.25347874
0002e0 89 db f9 3c 20 5e ca 3d fa 28 0c 3e 5a c5 5d 3d
       0.03050019 0.09881234 0.13687506 0.054143287
0002f0 42 17 15 3e f7 87 65 3e cb 71 04 3c 5e b8 82 3e
       0.14559653 0.22415148 0.008083771 0.25531286
000300 20 ec ae 3e 05 d4 24 3e 80 01 ab 3e 8c d8 91 3d
       0.34164524 0.16096504 0.33399582 0.07121381
000310 21 8e e5 3d bf 80 25 3e f1 85 2c 3e 54 45 ac 3c
       0.112087496 0.16162394 0.1684797 0.021029152
000320 a8 a7 38 3e 81 67 6f 3e b6 2c 99 3d ba 90 7e 3e
       0.18032706 0.23379327 0.07479231 0.24859896
000330 82 a2 25 bc cb 67 cf bd 03 1d 93 bc 73 ad 38 3e
       -0.010109546 -0.10127219 -0.01795817 0.18034916
000340 f3 3a 5d 3e eb 4d ad 3d 0b 69 2f 3e 5e b5 43 3e
       0.21604519 0.08462127 0.17129914 0.19112155
000350 34 2c 8b 3d 5f a8 b8 bd 18 06 fb 3b 3d a0 8a 3e
       0.067955405 -0.09016489 0.0076606385 0.27075377
000360 4a 85 88 bc 91 d5 4b 3d 8b 37 78 3e 65 66 83 3e
       -0.01666512 0.04976422 0.24239938 0.25664058
000370 39 44 51 3e 80 43 2b bd 3b 8e ca bd 2c c2 34 bc
       0.20436181 -0.04181242 -0.098904096 -0.011032622
000380 d5 8d 2e 3e 4c ad 78 3d 68 27 c4 3d d4 70 f1 3d
       0.17046292 0.060712144 0.09577829 0.117890984
000390 19 a6 f3 bc ee cf a6 3c 4c 9a 23 3e 17 aa 87 3d
       -0.029742287 0.02036282 0.15976828 0.06624239
0003a0 41 1a c8 3d ed 9a 17 3e 81 8f ad 3d 0f fb 64 3e
       0.097706325 0.14805193 0.08474637 0.22361396
0003b0 9b a9 d1 3d 0f 24 bb 3d 0c b7 83 3e a1 27 c0 3d
       0.10237428 0.09137737 0.2572559 0.093825586
0003c0 ee 6d 9a 3c 68 3b 44 3e ac 80 4e 3e c0 21 8d 3e
       0.018851247 0.19163287 0.20166272 0.27564812
0003d0 35 b2 60 3e 76 c7 29 bd 4b 65 25 3e 9f 01 88 3e
       0.2194298 -0.041449986 0.16151921 0.26563737
0003e0 13 dc 67 3c 34 d2 66 bd 4c 9f 3f 3e 93 b6 c2 3d
       0.014151591 -0.05635281 0.1871311 0.095074795
0003f0 5e 85 57 3d a1 c7 88 3e 88 55 8d 3e 61 10 04 3e
       0.052617423 0.26714805 0.27604318 0.12896873

fc3_val.bias f4 [76]
000000 c4 4f 61 3e 45 f8 75 be 85 f1 d4 3e 95 be 64 3e
       0.22003084 -0.24020489 0.41590515 0.22338326
000010 ba fa 7c be ba fa 51 be 9a ad 80 be e7 c8 35 be
       -0.2470502 -0.20505801 -0.25132447 -0.1775242
000020 53 ef 2a be 4e a5 46 be 52 d9 0e 3f 94 5f 1e 3f
       -0.16692857 -0.19398996 0.55800354 0.6186459
000030 d9 32 59 3e dd b6 3b be 1a 3c 95 3e f9 92 f8 3e
       0.21210803 -0.18331476 0.29147416 0.4854963
000040 15 5b b7 3e 89 39 75 be f2 ed 9c 3e 84 4b 95 3e
       0.35811678 -0.23947729 0.30650288 0.29159176
000050 50 62 80 3e a8 95 31 3f c2 c9 93 3e 5d 09 ba 3e
       0.25075006 0.6936898 0.28864866 0.3633527
000060 31 88 50 3e 6f 42 33 3e ed 4e 15 3f 95 72 56 3e
       0.20364453 0.17505811 0.58323556 0.20942147
000070 e3 d6 5f be cf ee 28 be f1 36 02 3f e1 43 54 be
       -0.21859317 -0.16497348 0.50865084 -0.20729019
000080 35 bb d6 3d ad 4d 79 3e 25 a6 ac 3e 09 bf 11 be
       0.10484926 0.24346037 0.33720508 -0.1423303
000090 b2 d3 a8 3e f0 c5 52 be 86 94 19 be cd 65 90 3e
       0.3297401 -0.2058332 -0.14998063 0.28202668
0000a0 55 8c 13 3f 57 2a b8 3e 89 06 6d be 70 06 8e 3e
       0.57636005 0.35969803 -0.23147024 0.27739286
0000b0 c8 38 25 3f 52 d3 56 be 06 4a b9 3e 73 86 44 be
       0.64539766 -0.2097905 0.36189288 -0.19191913
0000c0 3f 10 17 be 7d c2 0d 3f 44 c6 40 be e2 f9 e9 3e
       -0.14752291 0.5537489 -0.18825632 0.45698458
0000d0 04 eb 38 3f 1e 29 88 be 67 b6 63 be 6a 4f 76 be
       0.72233605 -0.2659387 -0.2223755 -0.24053732
0000e0 11 d7 1a be 57 43 2b be 3f f3 41 be 69 9f 7b be
       -0.15121104 -0.16724907 -0.18940447 -0.24572529
0000f0 b6 90 25 bd 73 9b f1 bd 4b d5 3c be a4 aa 1d 3f
       -0.04042121 -0.11797228 -0.1844074 0.615885
000100 d8 5c 6d be 3f ae 5a 3e 6e 7c 70 be c8 49 ba 3c
       -0.23179948 0.21355532 -0.23484966 0.02274026
000110 e4 02 a3 3e 5b 5f 7c be b0 6b 33 be 31 0f 14 3e
       0.31838143 -0.2464575 -0.17521548 0.1445892
000120 e9 3d bc 3d 6f f4 cb 3d 11 fc 14 be d1 da 8d be
       0.09191496 0.099587314 -0.1454928 -0.27706006

fc4_adv.weight f4 [38, 76]
000000 6b bd 2a bd 7d 48 95 3d f4 08 fb be b8 97 33 be
       -0.04168455 0.07289217 -0.49030268 -0.17538345
000010 9b 34 d9 bd c4 0b 6a 3d af 4e a2 3e b5 a7 e4 3d
       -0.10605737 0.057140127 0.31700656 0.111648
000020 e2 a3 c5 3e 6f 60 0d be 63 6b db be 7b 18 6c 3e
       0.38601595 -0.13806318 -0.42855367 0.23056214
000030 d9 f0 af bd af df a9 bd cf 4c d5 3d 2a 5b b6 be
       -0.0859086 -0.082946174 0.10415041 -0.35616428
000040 2f a7 49 3e 18 39 02 3e 26 a9 f1 3d b2 0c 5c 3e
       0.19692682 0.12717092 0.11799841 0.21489218
000050 15 ab 63 3e 0a cc 5c 3e 74 f0 f0 bd 0f ca 39 3d
       0.22233231 0.2156221 -0.11764613 0.045358714
000060 1b 22 8a be f7 11 fe bd 58 02 2f 3d 96 ff 96 3d
       -0.26979145 -0.1240577 0.042726845 0.07372968
000070 4a d4 e7 3d 56 32 2a be 3a 2c 2a be 83 7d 75 be
       0.11319788 -0.16620764 -0.16618434 -0.2397366
000080 9f c2 20 3e 05 30 62 3e 5a 07 ec bd 26 b9 39 3d
       0.15699242 0.2208863 -0.1152484 0.045342587
000090 6a 41 cd 3d 1e 86 82 3c 46 c5 0f 3e a6 99 92 3d
       0.10022242 0.015933093 0.14040098 0.07158212
0000a0 27 ea 56 be c0 e2 0a be 35 58 40 be 7d e6 9b bd
       -0.2098776 -0.13563061 -0.18783648 -0.076123215
0000b0 9a 36 a6 3d 53 4a da 3e 44 24 28 bd fd b6 a0 3d
       0.08115883 0.4263483 -0.04105021 0.07847402
0000c0 ab d4 82 bd a0 9c aa 3e 11 89 76 3e d8 be 86 bc
       -0.063882194 0.3332262 0.24075724 -0.016448423
0000d0 63 c1 84 3d 87 4e a3 be 56 32 c5 3e db bd 35 bc
       0.06482198 -0.3189585 0.38514966 -0.011092628
0000e0 9f 7f 74 3e 8d db 99 3d 39 3e 66 3e 10 e6 23 3e
       0.23876809 0.07512579 0.22484674 0.1600573
0000f0 81 20 85 be 69 7a 62 3e 00 bc 85 3e f6 70 59 3e
       -0.2600136 0.22117008 0.26119995 0.21234497
000100 04 72 4e 3d 19 7a 09 bc 5e f1 63 3d 57 b7 2c 3e
       0.050401703 -0.008390927 0.055650108 0.16866814
000110 df 27 49 be 1e dd 31 be f0 37 75 be 52 27 3c 3e
       -0.19644116 -0.17369506 -0.2394712 0.18374375
000120 20 e2 47 3e 76 fb 92 bc 89 9e 79 be 82 77 08 3e
       0.19519854 -0.017942172 -0.24376883 0.13326839
000130 73 11 7e 3e b1 86 1a 3e ca 3b e4 bd 68 21 ea 3d
       0.24811344 0.15090443 -0.11144216 0.11432153
000140 ec bd de bd bf 87 01 3d d9 8d dd bd 4b 16 86 3e
       -0.108760685 0.0316236 -0.10818071 0.26188883
000150 66 ae 81 be aa f1 fb 3e 49 eb 4d be d6 e2 9d 3e
       -0.25328368 0.49207813 -0.20109285 0.30837125
000160 43 f5 78 bd bb 3f 07 be f4 8d 0d bd 9b 2e 9b bd
       -0.060780775 -0.13207905 -0.034559205 -0.07577249
000170 26 d8 09 3d 7b 67 bb bc e8 5a f3 bd 45 e9 44 be
       0.0336534 -0.022876492 -0.11882573 -0.1922961
000180 77 f5 39 bd 54 54 3e 3c 99 d1 58 bc 4d 3f 5c 3e
       -0.04540011 0.011616785 -0.013233566 0.21508522
000190 26 e2 08 be 52 cd b4 be 03 4c 60 be 29 71 f5 bc
       -0.13367519 -0.35312897 -0.21903996 -0.029961186
0001a0 dc 15 8d 3e 09 2f 6e 3e 8d 4d 76 3e 4c 50 45 3b
       0.2755574 0.2326013 0.24053021 0.0030107675
0001b0 99 93 1c be a3 c2 22 3e 7e df a9 3a 56 dd 38 be
       -0.15290679 0.1589456 0.0012960283 -0.18053183
0001c0 9a 3b ae 3d 24 f0 81 3e 77 5a 0a be 8c 9e 85 3e
       0.08507462 0.25378525 -0.13511072 0.26097524
0001d0 5e 62 06 bd d1 c5 9a 3e 64 4f 7e bc e1 d7 38 3e
       -0.032808654 0.30229047 -0.015521858 0.18051101
0001e0 5f 78 5a be 95 0a 03 3e fb fb b6 bb 49 55 fe 3c
       -0.2133498 0.12797005 -0.0055842376 0.031046527
0001f0 7d 96 31 be d3 ff 87 bd a0 cf 12 3d 99 2f 48 3d
       -0.17342563 -0.066405915 0.035842538 0.048873518
000200 f9 2c c7 3e 91 68 e2 bc 13 7a f0 3d 26 8f 2c 3e
       0.389015 -0.027637752 0.11742034 0.16851482
000210 a4 71 e1 3d 25 16 97 3d 51 8b af 3e 78 1e 14 bd
       0.11008003 0.073772706 0.34285977 -0.03616187
000220 5f 1a 9a be 9d 2e 72 3e 80 34 c1 3d cc a4 dd bd
       -0.30098245 0.23650594 0.09433842 -0.10822448
000230 f6 5f 82 bd d2 5c e0 bd 91 c6 b9 3e 35 66 47 3e
       -0.06365959 -0.10955204 0.36284307 0.19472583
000240 6d 70 8a bd 7f 9a 1a 3d 73 df af bb 20 1a 8e 3e
       -0.06759725 0.037744995 -0.0053672134 0.27754307
000250 c6 fc 94 bd e2 5a ff 3d 23 d6 ce bb 0e b5 c1 3e
       -0.07274775 0.124685064 -0.006312148 0.37833446
000260 ed 22 f5 3d f4 37 8a 3d 7b ca 06 3d c3 3d df bc
       0.11969552 0.067489535 0.032907944 -0.02725113
000270 27 9e 9d 3d c4 8a a5 3e b7 9d e4 bd 1d b4 81 3e
       0.07696181 0.32332432 -0.11162894 0.25332728
000280 01 4b e7 bd a2 62 a6 3e de 64 76 be 8b 68 06 3e
       -0.11293603 0.32497126 -0.24061915 0.13125817
000290 ac 33 c8 3d 45 7c 96 3d 7a f3 eb bd e7 b4 d5 bd
       0.09775481 0.07347921 -0.11521049 -0.10434895
0002a0 82 42 bc 3d d5 f1 93 3e cb 86 13 3e de dd 2a 3e
       0.09192373 0.2889544 0.14406888 0.16686198
0002b0 0d a2 fb bc c8 67 23 bc bb ed 8f 3d 2e f8 c8 3d
       -0.03071692 -0.009973474 0.07027765 0.098129615
0002c0 29 81 5e 3d 7a 34 6f 3c 2e 66 5e 3e 17 76 90 bd
       0.054322395 0.014599914 0.21718666 -0.07053774
0002d0 de b6 3a be 26 49 49 be da b7 1e 3e 37 19 8c be
       -0.18233821 -0.1965681 0.15499821 -0.27362987
0002e0 a4 8b 32 3e 57 45 08 bb 5c f8 aa bd 75 9d 11 3e
       0.17436081 -0.0020793283 -0.08348152 0.14220221
0002f0 c3 cf 8f 3e 30 af 23 be 6e de bc bd 72 d4 13 be
       0.28088197 -0.15984797 -0.092221126 -0.1443651
000300 c5 b4 38 be 96 7c 87 be be 15 8f bc 1f a9 58 bd
       -0.18037708 -0.2646224 -0.017466422 -0.05289566
000310 e4 27 8c be de 98 4e bd d9 f5 e2 bd 66 73 f9 3d
       -0.27374184 -0.050438754 -0.11082048 0.12180214
000320 e6 bc bc 3e 1c 1e 63 3e c6 f1 3d be e7 2a 90 bd
       0.36862868 0.22179455 -0.1854926 -0.07039433
000330 c2 13 13 3e fe a2 20 be d8 56 23 3f ae 9c 50 3e
       0.14363006 -0.15687177 0.6380439 0.20372269
000340 d6 f5 32 3e 00 47 74 be 85 83 b6 3e d8 de 67 3e
       0.17476591 -0.2385521 0.35647216 0.22643602
000350 e9 01 9f be d1 87 42 3e 49 f8 41 3e 6f fb ba 3e
       -0.31056145 0.18997122 0.1894237 0.36519954
000360 6a eb bd 3e fb ef af 3d b8 27 cc 3e d4 85 8e be
       0.3709367 0.085906945 0.39874053 -0.27836478
000370 bb 2e c7 be bf 36 a6 3e 4d cc c0 bd 7b 22 3d 3e
       -0.3890284 0.32463643 -0.09413967 0.18470185
000380 a1 61 fc 3c 45 63 18 3e a9 24 d9 be fa ea 8f 3e
       0.030808272 0.14881618 -0.42410782 0.2810896
000390 a7 3d 97 3e d1 6e 16 be ed c4 6c be c8 dd 7a 3c
       0.29539225 -0.1469071 -0.23121996 0.015311666
0003a0 99 1d b8 be 3f 8d 9f bd 62 32 71 be 74 b1 aa 3d
       -0.3596008 -0.077906124 -0.23554376 0.08334628
0003b0 b8 25 2f be 3e 72 a3 bc 22 b5 23 3e a6 11 3d be
       -0.17104232 -0.019951936 0.15987065 -0.18463764
0003c0 43 4e e3 3d 8c de 24 bd 0a 9c 3d 3e ff 75 45 3e
       0.110989116 -0.0402513 0.18516555 0.19283293
0003d0 f7 a4 4e be 72 a7 e7 3d f6 93 37 3e f5 dd 0d bd
       -0.20180117 0.113112345 0.17927536 -0.034635503
0003e0 a2 12 1a 3e 34 61 83 3e c1 24 9a 3d ff 24 3a bd
       0.1504617 0.25660098 0.075265415 -0.04544544
0003f0 1e 3a b6 be d6 c1 aa bd 1c a9 6d be 5c 81 a6 bc
       -0.35591215 -0.083377525 -0.23209041 -0.020325355

fc4_adv.bias f4 [38]
000000 f3 34 83 3d a6 61 87 3c a2 96 de bd 3b 8f 1b bc
       0.06406584 0.016526055 -0.10868575 -0.009494598
000010 af 62 2b 3d 48 fd b2 3b 9f a8 49 3e 72 cb 5b bc
       0.04184216 0.0054623224 0.1969323 -0.013415204
000020 3c 85 f5 bc 4f 3f 85 3d 1c bf d0 bd dd be 24 be
       -0.029970758 0.06506216 -0.10192701 -0.16088434
000030 4c 1a 25 3e 0d 19 4c 3d 58 d9 7b bc 42 04 cb 3d
       0.16123313 0.049828578 -0.015371643 0.099129215
000040 d5 8d a1 3d 63 a6 ad 3d 51 b7 9f bc 88 06 a8 bd
       0.078883804 0.084790014 -0.019496592 -0.08204371
000050 54 eb a8 3d 39 7b 3d 3e f2 15 9e b9 8b bf 0e 3e
       0.0824801 0.18504037 -0.0003015246 0.13940255
000060 de 47 be 3d b0 aa f8 3d 4e af 10 3e e0 4d 8a bd
       0.09291051 0.12141931 0.14129373 -0.06753135
000070 db ef 07 be 34 51 08 3e 49 d1 c1 3c d2 f5 fa bd
       -0.13275091 0.13312227 0.023659365 -0.12253918
000080 bd c0 8f 3d 5e de 62 3d 43 cf cd bd 7a 38 3d 3e
       0.07019184 0.055387847 -0.10049298 0.18478575
000090 0a 74 86 be 7e 90 8b 3e
       -0.26260406 0.27258676

fc4_val.weight f4 [1, 76]
000000 42 b6 d1 be 23 98 bd 3e a3 5b 4f bf 8e 08 83 be
       -0.40959364 0.37030134 -0.809992 -0.25592464
000010 2d 0b 9f 3e b6 a8 dc 3e a4 47 30 3e dc de 64 3e
       0.31063214 0.43097466 0.17214829 0.22350639
000020 f2 e8 88 3e c9 c0 4b 3e 8a 0b a6 bf 09 b9 f0 bf
       0.26740223 0.1989776 -1.2972271 -1.8806468
000030 cd aa db be 96 cb 82 3e 44 20 c1 be bd 6e 89 bf
       -0.42903748 0.2554595 -0.3771993 -1.073692
000040 6d 10 f4 be 89 b3 b3 3e 78 0b 2b bf fd 4d 41 bf
       -0.47668782 0.35097912 -0.66814375 -0.75509626
000050 8f 20 e6 be 2a 40 9f bf 1b 99 d3 be b1 c0 64 bf
       -0.44946715 -1.2441456 -0.41327748 -0.89356524
000060 be 69 da be 49 6e d3 be 49 48 a5 bf f9 9f 7c bf
       -0.426588 -0.41295078 -1.2912685 -0.986816
000070 c9 25 92 3e 3f 5b 57 3e 5e 80 7e bf f4 11 8f 3e
       0.28544453 0.21030901 -0.9941462 0.27943385
000080 ad 69 28 bf 12 d6 b6 be cc 15 03 bf 40 80 60 3e
       -0.6578625 -0.35710198 -0.51205134 0.21923923
000090 33 94 bd be 79 90 c9 3e 3e a4 a5 3e 38 80 68 bf
       -0.3702713 0.39368036 0.3235187 -0.90820646
0000a0 bc 1a ad bf c8 cc 62 bf 09 f3 df 3e c9 68 ef be
       -1.3523784 -0.8859372 0.4374011 -0.46759632
0000b0 5d 25 7d bf 23 58 7a 3e cd 97 86 be 51 c8 20 3e
       -0.98885137 0.24447684 -0.2628769 0.15701415
0000c0 89 79 41 3e 13 d5 73 bf c7 fe 2a 3e b0 7c c4 bf
       0.18894018 -0.95247 0.16698752 -1.5350552
0000d0 a2 29 81 bf ab db 9e 3e fa 57 39 3e 82 af 1f 3e
       -1.009083 0.31026968 0.18099967 0.15594295
0000e0 fd 04 66 3e 7a 48 62 3e 90 b2 b9 3e e1 a8 67 3e
       0.2246284 0.2209796 0.36269045 0.22623016
0000f0 07 af 92 bf 6a 9b ae 3e bd a5 32 3e 0a 75 7f bf
       -1.1459664 0.34102947 0.17446037 -0.9978796
000100 09 71 58 3e 38 5c 10 bf 71 74 17 3e d6 78 4c bf
       0.2113687 -0.56390715 0.14790513 -0.7987188
000110 aa 79 7d be 50 08 d2 3e a0 7f c2 3e 3f 34 16 bf
       -0.24753442 0.41021967 0.37987995 -0.5867347
000120 99 77 0f bf 6f 0a d2 be 28 24 cd 3e 04 8f 95 3e
       -0.56041867 -0.41023585 0.40066648 0.29210675

exp_avg f4 [1, 6, 1, 4]
000000 bb 11 17 be 7a bb a7 be 8b 97 8b 3d 59 76 18 3d
       -0.14752857 -0.3276022 0.06816014 0.03722224
000010 07 1a ba 3f 04 00 00 00 04 00 00 00 00 00 00 00
       1.4539193 6e-45 6e-45 0.0
000020 b6 d6 4d 3e b6 d6 4d 3e b6 d6 4d 3e ae f4 15 3d
       0.20101437 0.20101437 0.20101437 0.036610298
000030 12 f5 8e be 69 f8 00 be 69 f8 00 be 6a 63 02 3e
       -0.2792135 -0.12594761 -0.12594761 0.12733236
000040 a4 69 00 3f c7 59 0a 3f c7 59 0a 3f 35 2a e2 3d
       0.50161195 0.5404324 0.5404324 0.110432066
000050 86 a1 37 bd 23 ea 86 3b 23 ea 86 3b 00 00 00 00
       -0.044831775 0.0041172667 0.0041172667 0.0

exp_avg_sq f4 [1, 6, 1, 4]
000000 bc 5a 31 42 e8 f3 af 40 f6 64 34 3f 51 26 c9 3c
       44.338608 5.4985237 0.70466554 0.024554403
000010 91 14 39 43 e5 03 00 00 f4 01 00 00 00 00 00 00
       185.08034 1.397e-42 7e-43 0.0
000020 cb 67 3e 40 cb 67 3e 40 cb 67 3e 40 29 15 46 3e
       2.975085 2.975085 2.975085 0.1934401
000030 3e 64 27 3f 75 0b 13 3f 75 0b 13 3f 5d ac 53 3d
       0.6538733 0.5743936 0.5743936 0.05167805
000040 07 3c 3a 3f dc 53 34 3f dc 53 34 3f 50 69 8b 3d
       0.72747844 0.7044046 0.7044046 0.06807196
000050 eb da 29 3f 86 38 26 3f 86 38 26 3f 00 00 00 00
       0.6634967 0.6493 0.6493 0.0

exp_avg f4 [1, 6, 2, 4]
000000 f3 fb 86 bd 99 5f 35 be e9 1e b6 3d e4 e4 74 3b
       -0.06591024 -0.17712249 0.088926144 0.0037367875
000010 0c 72 90 be e6 f3 c7 bd 7d 07 b4 3d b7 99 d8 3b
       -0.2821201 -0.09763317 0.08790491 0.006610121
000020 ba cf b4 3d a3 1c 1e be 4e 84 42 bf d0 cd 06 bd
       0.08828683 -0.15440612 -0.7598313 -0.03291112
000030 82 6c 9a bd b6 05 43 bf 5a 19 27 bf 2d 0e c6 3d
       -0.075402275 -0.7618059 -0.6527306 0.096706726
000040 21 25 9c be 21 25 9c be 21 25 9c be 43 91 64 bc
       -0.30497077 -0.30497077 -0.30497077 -0.013950649
000050 0d 8c 86 be 0d 8c 86 be 0d 8c 86 be 8c da cc bc
       -0.26278725 -0.26278725 -0.26278725 -0.025006555
000060 7f 9b 25 bd 0d dc c0 3c 0d dc c0 3c a6 f9 e6 3c
       -0.040431496 0.023542428 0.023542428 0.028195214
000070 f9 9b 85 bd 3a 36 ea 3a 3a 36 ea 3a ee 0f c1 3b
       -0.0652389 0.0017868944 0.0017868944 0.0058917915
000080 8f 60 1b 3e b7 af 33 3e b7 af 33 3e 98 1b 82 3d
       0.15173553 0.17547499 0.17547499 0.06352919
000090 a5 09 24 3e e9 2b 40 3e e9 2b 40 3e 50 c2 32 3d
       0.16019304 0.1876675 0.1876675 0.043642342
0000a0 03 ee b5 bc 98 f0 cc 3c 98 f0 cc 3c b6 f7 12 bc
       -0.02220822 0.025017068 0.025017068 -0.008970192
0000b0 64 6b 13 3e f8 b1 33 3e f8 b1 33 3e b3 4d a8 bc
       0.14396435 0.17548358 0.17548358 -0.020544862

exp_avg_sq f4 [1, 6, 2, 4]
000000 60 e5 bd 40 17 1c 83 3f 72 12 fd 3d 2e 2d 51 3b
       5.93425 1.0242947 0.12357034 0.0031917798
000010 d8 87 a5 40 03 7b 75 3f b6 bd 13 3e 98 fa 32 3b
       5.1728325 0.95890826 0.14427838 0.002731001
000020 df 8b 51 43 27 6a c4 42 19 93 be 41 2d 3e 15 40
       209.54637 98.20733 23.821825 2.33192
000030 cb 0b 53 43 9a 45 c6 42 66 93 c2 41 22 6b 17 40
       211.04607 99.13594 24.321972 2.3659139
000040 c6 82 95 3f c6 82 95 3f c6 82 95 3f d6 1f e9 3c
       1.1680534 1.1680534 1.1680534 0.028457563
000050 44 9d 80 3f 44 9d 80 3f 44 9d 80 3f 46 cc e8 3c
       1.0047994 1.0047994 1.0047994 0.028417718
000060 51 5f a0 3e 1b 57 8e 3e 1b 57 8e 3e 0e 3b 43 3c
       0.3132272 0.2780083 0.2780083 0.011915935
000070 b3 aa 9d 3e 0d 96 8d 3e 0d 96 8d 3e 10 33 0e 3c
       0.30794296 0.27653542 0.27653542 0.008679166
000080 ca d6 48 3e e5 b9 46 3e e5 b9 46 3e e5 57 3d 3c
       0.19613186 0.1940685 0.1940685 0.0115566
000090 45 49 a7 3e c8 92 a5 3e c8 92 a5 3e 61 2b f7 3b
       0.32673088 0.32338548 0.32338548 0.007543013
0000a0 34 de cc 3e 07 11 c6 3e 07 11 c6 3e 72 52 0e 3c
       0.40013278 0.38684866 0.38684866 0.008686649
0000b0 63 79 d5 3e 74 e2 d0 3e 74 e2 d0 3e 97 8f 03 3c
       0.41694173 0.4079777 0.4079777 0.00802984

exp_avg f4 [1, 6, 3, 4]
000000 5c 5d b9 be db 90 05 be d9 f9 da bd fc 5e a3 3a
       -0.3620404 -0.13043539 -0.10692186 0.0012464221
000010 c4 51 a0 be fc be 72 bb 56 f3 cc bc 3e 7b 7a bb
       -0.31312382 -0.0037040105 -0.025018375 -0.003822043
000020 32 ee 28 be 81 d1 23 3c d3 d1 1d bd cc f8 42 bc
       -0.16497114 0.00999868 -0.038530182 -0.011900138
000030 7b 8c 69 be e7 ff 97 bc 53 ee 63 3e 81 b0 aa 3d
       -0.22807495 -0.018554641 0.22258882 0.08334447
000040 8c 7e 8a be 07 70 61 be 16 f9 fa 39 10 34 f4 bd
       -0.27049673 -0.22015391 0.000478693 -0.11923993
000050 48 4e c1 be 80 1f 20 bd 75 5a 0e 3e 9d 06 b9 3d
       -0.37755036 -0.03909254 0.13901694 0.090344645
000060 35 ed af 3d 32 ed af 3d 32 ed af 3d a3 6a df ba
       0.085901655 0.08590163 0.08590163 -0.001704533
000070 1f 77 a8 3d 1d 77 a8 3d 19 77 a8 3d 89 5c 76 bc
       0.082258455 0.08225844 0.08225841 -0.015036711
000080 77 41 d3 bb 6a 41 d3 bb 3a 41 d3 bb fb 82 c9 bc
       -0.006447013 -0.006447007 -0.0064469846 -0.02459859
000090 86 aa 16 3d 26 85 e0 3c 2d 85 e0 3c fa 96 18 bb
       0.036783718 0.02740724 0.027407253 -0.0023283348
0000a0 df 9c c1 3d fc 3e b2 3d fd 3e b2 3d 40 65 08 3d
       0.09453749 0.087034196 0.0870342 0.033299685
0000b0 b9 dd 18 bc 15 72 39 bc 1c 72 39 bc 6b c9 23 bc
       -0.009330207 -0.011318703 -0.01131871 -0.009996752
0000c0 35 2c 86 bd ce ae 71 bd c9 ae 71 bd 18 2a 42 bd
       -0.065514006 -0.059004597 -0.05900458 -0.047403425
0000d0 3d 1f ca 3c 78 ef f2 3c 79 ef f2 3c e7 16 a2 bc
       0.024673099 0.029655203 0.029655205 -0.019786311
0000e0 32 ae 97 ba ce 92 e3 3a a2 92 e3 3a fb 47 69 bb
       -0.00115723 0.0017362477 0.0017362426 -0.0035595882
0000f0 98 0c c9 bc eb bd 22 bd eb bd 22 bd ef 41 88 39
       -0.024542138 -0.0397319 -0.0397319 0.00025989066
000100 c5 88 03 bd 35 40 15 bd 34 40 15 bd 64 26 6f 3c
       -0.032112855 -0.036438186 -0.036438182 0.014596555
000110 37 af b9 3c 69 30 9d 3c 66 30 9d 3c 05 52 cc 3c
       0.022666557 0.019188123 0.019188117 0.024941454

exp_avg_sq f4 [1, 6, 3, 4]
000000 13 f9 75 3f c5 e5 2f 3e 23 f8 da 3c 7c 98 65 3a
       0.9608318 0.17177494 0.026729649 0.00087583787
000010 a9 89 84 3f fc 2a 1a 3e b6 a2 bb 3c 77 25 43 3a
       1.035451 0.1505546 0.022904735 0.00074442424
000020 2a 7a 8e 3f 45 db 37 3e 64 3f 11 3d 21 cc 87 3a
       1.1131032 0.17954738 0.035460845 0.0010360518
000030 df b0 8d 41 84 2d 29 41 53 bd 5b 40 0b 78 07 3f
       17.711363 10.573612 3.4334304 0.52917546
000040 d3 f0 8d 41 b0 5e 22 41 8f 99 4e 40 02 75 03 3f
       17.74259 10.148117 3.2281225 0.51350415
000050 12 e1 8d 41 80 1b 21 41 15 48 4b 40 6c 30 09 3f
       17.734898 10.069214 3.1762745 0.5358951
000060 3d c9 e0 3d 3e c9 e0 3d 3f c9 e0 3d ae 81 f6 3b
       0.10975883 0.10975884 0.10975885 0.0075227832
000070 9b 82 0a 3e 9a 82 0a 3e 9a 82 0a 3e 33 c4 d9 3b
       0.13526385 0.13526383 0.13526383 0.006645703
000080 3f 5d 15 3e 3e 5d 15 3e 3d 5d 15 3e 62 b2 e7 3b
       0.14586352 0.1458635 0.14586349 0.0070708254
000090 8a 35 54 3d f3 cf 38 3d f4 cf 38 3d 32 47 bb 3a
       0.05180887 0.04512019 0.045120195 0.0014288186
0000a0 ce d3 3d 3d 71 96 27 3d 6e 96 27 3d 78 68 77 3b
       0.04634457 0.040914956 0.040914945 0.0037751477
0000b0 c9 61 10 3d 7e 9a 01 3d 7e 9a 01 3d 2e b3 34 3b
       0.035249505 0.031641476 0.031641476 0.002757262
0000c0 c8 fa 49 3d 88 b6 45 3d 88 b6 45 3d a3 c0 a5 3b
       0.04931143 0.04826978 0.04826978 0.0050583645
0000d0 7f 02 03 3d 25 00 fa 3c 27 00 fa 3c d0 a1 37 3a
       0.031984802 0.030517647 0.03051765 0.0007005008
0000e0 56 6c 24 3d d9 4d 20 3d da 4d 20 3d 14 df a6 3a
       0.04014238 0.03913674 0.039136745 0.0012731277
0000f0 c9 98 2c 3d 2e ab 21 3d 2e ab 21 3d e5 31 24 3a
       0.042137895 0.03946989 0.03946989 0.00062635384
000100 78 d5 75 3d c8 27 6f 3d c7 27 6f 3d 90 d1 9d 3a
       0.060018033 0.058387548 0.058387544 0.0012040604
000110 ac da 26 3d 89 5f 21 3d 88 5f 21 3d 06 c8 d4 3a
       0.040735886 0.03939775 0.039397746 0.0016233928

exp_avg f4 [1, 6, 4, 4]
000000 41 2d d5 3d 83 09 68 3c 64 b6 8f 3d 73 c0 3e 3c
       0.10409022 0.014162424 0.0701721 0.011642563
000010 6d 88 24 3e 99 88 1e 3d 46 9a 84 3d 8e 5a 3f 3b
       0.16067667 0.03870449 0.06474738 0.0029198262
000020 44 5d 9e bd 25 36 03 be b2 d1 2b 3c 86 9d 81 3c
       -0.07732633 -0.12813623 0.010487007 0.015822183
000030 c5 c8 0b be e5 ab e5 bd 04 19 6d 3d f8 3e a6 3b
       -0.13650806 -0.11214427 0.057885185 0.0050734244
000040 75 6d 22 3f 29 c5 99 3e 0d aa 8f be 0b e5 43 be
       0.6344827 0.30033234 -0.28059426 -0.19130342
000050 83 99 51 3f 23 0d 05 3e 86 68 21 bf 48 08 76 be
       0.81874865 0.12993293 -0.63050115 -0.24026597
000060 4b 50 80 3f e0 da ab 3d 10 e5 7b be 0f 1b 8a 3d
       1.0024503 0.083913565 -0.24599099 0.06743442
000070 76 6b 68 3f 65 3d cf 3e f3 aa b8 be 50 a4 0e bc
       0.9078897 0.40476528 -0.36067924 -0.008706167
000080 c4 39 94 bc b6 39 94 bc aa 39 94 bc 4a e4 78 bb
       -0.018093951 -0.018093925 -0.018093903 -0.0037977868
000090 83 dd 30 be 85 dd 30 be 82 dd 30 be 5c ff 94 bb
       -0.17272 -0.17272003 -0.17271999 -0.004547043
0000a0 3c d3 e6 bd 3c d3 e6 bd 3a d3 e6 bd 60 60 19 3b
       -0.112707585 -0.112707585 -0.11270757 0.0023403391
0000b0 cd 01 81 bd d2 01 81 bd d8 01 81 bd e0 30 b3 3c
       -0.062991716 -0.06299175 -0.0629918 0.021873891
0000c0 82 5c 6a bd 07 66 7e 3b 1a 66 7e 3b aa 4c 3a 3d
       -0.05721713 0.0038818137 0.0038818181 0.04548327
0000d0 8b 20 f6 bc 8d 77 f9 3c 81 77 f9 3c 89 a9 20 3d
       -0.030044815 0.030452514 0.030452492 0.03922418
0000e0 21 07 42 bd 0d 8b 89 3b ea 8a 89 3b 96 53 dd 3c
       -0.04737008 0.0041974843 0.004197468 0.027017396
0000f0 b0 9e 84 bc 63 cd 14 3d 67 cd 14 3d c5 d6 0a 3d
       -0.01618895 0.036328685 0.0363287 0.033896226
000100 10 87 7d 3d 72 ff bc 3d 74 ff bc 3d 4c 82 89 3c
       0.061896384 0.0922841 0.09228411 0.016785763
000110 1c 26 c9 3d 75 2d f4 3d 73 2d f4 3d 56 0d 82 3c
       0.09821722 0.11922733 0.11922731 0.0158755
000120 46 7d 6e 3d 28 d7 a1 3d 25 d7 a1 3d f4 4f ec 3c
       0.05822494 0.07902366 0.07902364 0.028846718
000130 45 a8 06 3e 3e b7 07 3e 3c b7 07 3e bb e7 29 3d
       0.13150127 0.13253495 0.13253492 0.04148076
000140 4c 7f fb bc 68 b2 5c 3b 81 b2 5c 3b 98 f2 91 3c
       -0.030700348 0.0033675674 0.0033675733 0.017815873
000150 91 d1 96 3d 7c 93 da 3d 7c 93 da 3d 5a be 6f 3c
       0.0736419 0.10672662 0.10672662 0.014632786
000160 98 95 a4 3c 3a 2e 6b 3d 3a 2e 6b 3d 7a 82 94 3c
       0.020090863 0.057417132 0.057417132 0.018128622
000170 4a 21 43 bd 40 15 b5 ba 40 15 b5 ba ed 7f a3 ba
       -0.04763917 -0.0013815537 -0.0013815537 -0.0012474038

exp_avg_sq f4 [1, 6, 4, 4]
000000 0a 2b ef 40 ff 4d 2e 3f 6d ec ad 3d 52 78 26 3b
       7.474004 0.6808776 0.0849236 0.0025401306
000010 05 b5 c3 40 1e a5 ed 3e 25 34 f3 3c f0 e4 34 3a
       6.115847 0.46415037 0.02968795 0.00069005694
000020 63 d0 e6 40 06 4a 10 3f f3 62 88 3d 49 e0 15 3b
       7.212938 0.5636295 0.06659498 0.002286928
000030 e9 1e d6 40 9c 7b 1b 3f 22 48 91 3d 30 ef de 3a
       6.691273 0.6073549 0.07093836 0.0017008539
000040 b2 ea bd 42 2b bc 25 42 80 ee 23 41 4c 59 a2 3f
       94.95839 41.433758 10.245728 1.2683501
000050 ed 87 c5 42 48 40 31 42 17 b1 36 41 7c 1f cc 3f
       98.76548 44.312775 11.418235 1.5947108
000060 4d 45 c3 42 42 32 2a 42 fc 8f 2b 41 1c 53 b3 3f
       97.63535 42.54908 10.722652 1.4009738
000070 d8 59 c3 42 e2 aa 28 42 20 38 2a 41 5d fa af 3f
       97.675476 42.166878 10.638702 1.374828
000080 5a c3 fd 3e 5a c3 fd 3e 59 c3 fd 3e f5 3e 8f 3c
       0.49563104 0.49563104 0.495631 0.017486075
000090 75 54 dc 3e 76 54 dc 3e 77 54 dc 3e e4 98 6e 3c
       0.43033186 0.4303319 0.43033192 0.014562819
0000a0 e5 65 05 3f e6 65 05 3f e6 65 05 3f 1c 8a 7c 3c
       0.52108604 0.5210861 0.5210861 0.015413787
0000b0 b3 fe 01 3f b1 fe 01 3f b0 fe 01 3f f7 a5 8a 3c
       0.50779265 0.50779253 0.5077925 0.016924841
0000c0 ca 32 32 3e 56 1b 0f 3e 56 1b 0f 3e b0 de c5 3b
       0.17402187 0.13975272 0.13975272 0.0060385093
0000d0 28 23 1e 3e 0c 62 e8 3d 0c 62 e8 3d b0 06 bc 3b
       0.15443099 0.11346826 0.11346826 0.005738102
0000e0 80 9f 30 3e f3 0c 0c 3e f2 0c 0c 3e 5a 34 03 3c
       0.17248344 0.13676815 0.13676813 0.008008087
0000f0 a7 88 26 3e 8a 73 06 3e 8b 73 06 3e 70 8f 81 3b
       0.16263066 0.13130012 0.13130014 0.0039538667
000100 41 a7 25 3e 65 41 1d 3e 65 41 1d 3e 27 16 8f 3b
       0.16177084 0.15356977 0.15356977 0.0043666544
000110 a1 8a 08 3e 37 ad 00 3e 37 ad 00 3e 2c 68 a5 3b
       0.13334133 0.12566076 0.12566076 0.0050478186
000120 a9 67 01 3e 6c 8d f3 3d 6c 8d f3 3d 5c 84 91 3b
       0.126372 0.118922085 0.118922085 0.0044408273
000130 51 0a 17 3e d8 30 10 3e d7 30 10 3e 53 af eb 3b
       0.14750029 0.14081132 0.14081131 0.007192531
000140 d0 0f 20 3e cf 15 11 3e cf 15 11 3e 2d 69 60 3b
       0.15631032 0.14168476 0.14168476 0.0034242377
000150 7a 87 20 3e 23 5e 14 3e 23 5e 14 3e f3 12 a3 3b
       0.1567668 0.14489035 0.14489035 0.004976624
000160 e8 c1 15 3e 0b 5d 0c 3e 0b 5d 0c 3e 2f a3 a2 3b
       0.1462475 0.13707368 0.13707368 0.0049633007
000170 f9 71 16 3e f5 54 0f 3e f5 54 0f 3e a8 29 81 3b
       0.14691915 0.13997252 0.13997252 0.0039417334
