TrainedModel/Dueling DQN-2/6900_0-12_DuelingDQN.pth (torch, 291221 bytes, 33 tensors)

conv1.weight f4 [1, 6, 1, 4]
-0.03280013 0.1897038 0.4002495 0.26400942 -0.2894272 -0.5031269 0.0140050305 0.19744077
-0.019219764 0.34100595 -0.30308682 0.13315918 0.13767338 0.13954803 -0.18669178 0.031932853
0.111823305 -0.43690258 0.27124926 0.20352598 -0.1924096 0.04552313 0.087173395 -0.39970577
00000000: 6e59 06bd b741 423e 81ed cc3e 3e2c 873e
00000010: cd2f 94be edcc 00bf 5b75 653c ea2d 4a3e
00000020: c472 9dbc 5598 ae3e 322e 9bbe e15a 083e
00000030: 40fa 0c3e aee5 0e3e 212c 3fbe 06cc 023d
00000040: 9e03 e53d b2b1 dfbe 2fe1 8a3e 1d69 503e
00000050: 0607 45be 7676 3a3d f787 b23d 3ca6 ccbe

conv2.weight f4 [1, 6, 2, 4]
0.504597 -0.20436391 -0.27158344 0.26123786 0.9000342 -0.31157765 -0.0486408 0.29390004
-0.059335314 0.018515246 -0.016176702 -0.004376106 0.033885207 -0.1004924 -0.13391826 -0.047662478
0.24427083 -0.027884 -0.22119468 0.35943544 -0.17781343 -0.078674465 0.027071597 0.49510932
0.10118606 0.05938406 -0.11075801 0.055175666 0.075373024 -0.22724646 0.024304539 -0.39299273
-0.2537015 0.3977279 -0.20489922 -0.2303317 0.023805067 0.07509368 -0.091545776 -0.0049057454
0.02535015 -0.19413269 0.14383467 0.052929144 0.05940308 -0.113978356 0.08059006 0.49066457
00000000: 452d 013f c644 51be fc0c 8bbe f8c0 853e
00000010: a468 663f 1b87 9fbe 933b 47bd 117a 963e
00000020: 9609 73bd 49ad 973c 0185 84bc 7065 8fbb
00000030: 37cb 0a3d f6ce cdbd de21 09be bb39 43bd
00000040: 2222 7a3e fd6c e4bc dc80 62be ec07 b83e
00000050: b914 36be 1420 a1bd 41c5 dd3c f87e fd3e
00000060: a33a cf3d b33c 733d 18d5 e2bd e1ff 613d
00000070: 2c5d 9a3d 4cb3 68be 501a c73c 5836 c9be
00000080: 2ae5 81be fea2 cb3e 1ad1 51be 13dc 6bbe
00000090: d802 c33c b7ca 993d 5a7c bbbd 60c0 a0bb
000000a0: 1eab cf3c b8ca 46be 6549 133e 3bcc 583d
000000b0: a550 733d 7c6d e9bd 670c a53d 6338 fb3e

conv3.weight f4 [1, 6, 3, 4]
0.5690393 0.124093734 -0.10144661 0.6002144 0.27171373 0.26079944 -0.2003795 0.3698302
0.43877807 0.72913295 0.28111237 0.52929807 0.18042709 0.22107519 0.17331828 0.105618045
0.02258871 0.06258288 0.066582344 0.2538342 0.0040181587 0.1678086 0.11661559 0.21982297
-0.03479441 -0.33701575 -0.24738179 0.7261285 -0.12417989 0.050658643 -0.15599692 0.47721043
0.08564682 0.08378206 -0.06336881 0.34207946 -0.014484407 -0.09869148 -0.122037634 -0.124132946
0.07637218 0.056694254 -0.1183062 -0.36486807 -0.3630048 -0.08994107 0.106912926 0.28056458
-0.102068685 0.2003315 0.02364265 0.22970256 -0.14884761 -0.27958706 0.055538476 -0.055917718
0.01108445 0.1571301 -0.19336489 -0.13991627 -0.0007744768 -0.1209112 0.02714241 -0.21157317
0.08430254 0.24354434 -0.023951443 -0.059442326 -0.14835961 -0.020613324 -0.1559258 -0.2990964
00000000: 8fac 113f db24 fe3d 3ec3 cfbd a7a7 193f
00000010: 101e 8b3e 8187 853e 4930 4dbe 625a bd3e
00000020: 85a7 e03e 75a8 3a3f f6ed 8f3e 1480 073f
00000030: e1c1 383e 8961 623e 597a 313e 464e d83d
00000040: f50b b93c 742b 803d 535c 883d 8ef6 813e
00000050: c2aa 833b 05d6 2b3e 28d4 ee3d 4619 613e
00000060: 9584 0ebd 548d acbe a751 7dbe 8fe3 393f
00000070: 0752 febd 707f 4f3d a8bd 1fbe ed54 f43e
00000080: 9a67 af3d ee95 ab3d 82c7 81bd 0a25 af3e
00000090: 0250 6dbc c21e cabd deee f9bd 6a39 febd
000000a0: 0469 9c3d 3c38 683d 854a f2bd fdcf babe
000000b0: c4db b9be 0633 b8bd 2af5 da3d 29a6 8f3e
000000c0: 6309 d1bd b323 4d3e 3bae c13c 2637 6b3e
000000d0: 826b 18be 0926 8fbe 507c 633d fa09 65bd
000000e0: 8e9b 353c b7e6 203e 7201 46be 3646 0fbe
000000f0: 4206 4bba 4ba0 f7bd c259 de3c a3a6 58be
00000100: cfa6 ac3d b063 793e d135 c4bc cc79 73bd
00000110: 95eb 17be 46dd a8bc 03ab 1fbe 2a23 99be

conv4.weight f4 [1, 6, 4, 4]
0.14026213 -0.25678495 -0.19563037 -0.08046086 -0.21979675 -0.091373846 -0.2767303 0.3574875
-0.07144958 -0.24674815 -0.12522274 0.011185162 0.13709548 0.020563513 -0.1526827 0.121656336
0.19579318 -0.03974856 -0.17896095 -0.26309672 0.28540465 0.17540729 -0.0240818 -0.12248843
-0.07470857 -0.15085806 -0.13643748 -0.13734353 0.052867483 0.17661805 -0.16059595 -0.15403734
-0.030186871 0.23187079 0.21506467 -0.17259112 0.15178794 0.11396105 0.11924846 -0.276908
0.08357784 0.08682364 0.1700048 -0.08176623 -0.002698685 0.27519888 -0.08516141 0.08441503
-0.11524853 0.18407069 -0.15397464 -0.16651963 -0.07450396 0.22072348 0.27158865 0.16652916
-0.28768805 -0.12238637 0.16841675 0.1624608 0.044016454 0.008073376 0.111194804 0.07285409
-0.06085281 0.17380662 0.023746451 -0.4023409 0.18396983 -0.05459686 0.14638004 -0.04006965
-0.027955528 0.067959934 0.24629329 -0.028397745 -0.27970046 0.17924891 0.1419629 -0.20029606
0.29180765 -0.1382846 -0.15001836 0.028201131 0.05319261 0.10784554 -0.015348076 -0.0578749
0.0027744563 0.2833308 -0.06940983 0.22989641 -0.040186867 -0.028732676 0.10001931 -0.09535029
00000000: e0a0 0f3e 5179 83be 5453 48be aac8 a4bd
00000010: 6612 61be 3622 bbbd 98af 8dbe 9a08 b73e
00000020: 2854 92bd 8cab 7cbe 643a 00be f841 373c
00000030: c262 0c3e d074 a83c db58 1cbe f526 f93d
00000040: 027e 483e 63cf 22bd 8a41 37be 9db4 86be
00000050: 8f20 923e f89d 333e 3247 c5bc 37db fabd
00000060: cf00 99bd 897a 1abe 44b6 0bbe c8a3 0cbe
00000070: 938b 583d 5ddb 343e 4473 24be f7bb 1dbe
00000080: 754a f7bc 896f 6d3e ea39 5c3e babb 30be
00000090: 4c6e 1b3e 6964 e93d 8938 f43d e3c6 8dbe
000000a0: dc2a ab3d 98d0 b13d bd15 2e3e 0e75 a7bd
000000b0: 6cdc 30bb dee6 8c3e 1b69 aebd cae1 ac3d
000000c0: 6c07 ecbd 077d 3c3e 87ab 1dbe 1f84 2abe
000000d0: 8895 98bd 5605 623e ab0d 8b3e 9f86 2a3e
000000e0: d94b 93be b5a5 fabd 7175 2c3e 205c 263e
000000f0: 994a 343d 3146 043c 1aba e33d 8634 953d
00000100: cc40 79bd 5dfa 313e eb87 c23c a0ff cdbe
00000110: 9662 3c3e f5a0 5fbd a6e4 153e 1320 24bd
00000120: fe02 e5bc 942e 8b3d 4f34 7c3e 63a2 e8bc
00000130: e634 8fbe 078d 373e b95e 113e 691a 4dbe
00000140: d067 953e 7a9a 0dbe 6a9e 19be 0f06 e73c
00000150: 7fe0 593d 1fde dc3d 7f76 7bbc 3b0e 6dbd
00000160: a7d3 353b bc10 913e be26 8ebd f769 6b3e
00000170: fc9a 24bd ca60 ebbc edd6 cc3d 0347 c3bd

fc3_adv.weight f4 [76, 130]
-0.12854324 0.34028083 0.08333031 0.06719806 0.05913812 -0.05432366 0.44062912 0.25302368
0.41320032 0.30477723 0.2917114 0.22439353 -0.004763648 0.3520182 0.25248626 0.3986164
0.36276907 0.34149456 0.44725245 0.3534929 0.740477 0.25090292 0.20129143 0.1832898
0.09688065 0.37651414 0.24837446 0.08005505 0.10400007 0.054584064 0.4312304 -0.059817817
0.11097924 0.27800754 -0.14194214 0.043144297 -0.1444166 0.15354462 -0.036770213 -0.16953006
0.048943587 -0.14005971 0.0015795059 0.21622783 0.13272516 -0.049478512 -0.1358012 0.00353423
0.31090063 0.2700588 -0.10414527 -0.069858536 -0.03965377 0.39940134 -0.025580356 -0.21357314
-0.086813316 0.2560636 0.11417935 0.09766433 0.14409734 0.13837457 -0.13245647 -0.17519215
0.1364317 0.13654575 0.17179443 -0.30811343 -0.004113036 0.15529434 -0.17511764 -0.03284832
-0.032499384 0.0004942847 0.011579253 -0.0399725 0.15704581 -0.065948755 -0.36870033 -0.2408434
0.19222721 -0.109132804 0.10493334 -0.06823613 -0.09119313 0.07748241 -0.041717418 -0.2603947
-0.20650487 -0.114079714 0.19118188 0.044679362 0.049877234 -0.17643714 -0.09735895 0.035844155
-0.06335204 -0.01824087 -0.20370984 0.19623576 0.11549627 0.05406032 0.37145975 0.31932232
0.20372148 0.10003086 0.14117438 0.09357683 0.19771875 0.0023442816 0.17340294 0.3061922
0.18705656 0.13125414 0.3174683 0.0362293 0.18752274 0.21517396 0.04978686 0.355926
0.3337441 0.087560326 0.15420374 0.16724177 0.12754747 0.21201737 0.23573154 0.00044794474
0.3406012 0.25353932 -0.030160215 0.33295453 0.14739919 0.11264238 0.20997421 0.18624057
0.0067273 0.15568809 -0.23913309 0.082169436 0.2104521 0.559895 0.58065003 0.24507742
0.24213608 0.045647744 0.16421668 0.24770649 0.055124287 -0.028999452 -0.21192546 -0.20291804
-0.3922003 -0.29793465 -0.5000027 -0.13901573 0.083576635 0.13464427 0.15210861 0.11898696
-0.042039655 0.10636502 0.010919562 0.30869088 0.03660133 0.19464582 0.23372181 0.30651587
0.19313616 -0.068048105 -0.1667514 0.06783092 0.05839614 0.108137354 0.045983687 0.19604929
-0.022287799 0.30629295 0.099449925 0.32318756 0.019360684 -0.23063344 -0.15301518 0.31190184
0.21206482 -0.11698393 -0.17020696 -0.2813224 -0.1248748 -0.05390866 -0.053702056 0.019415995
-0.22883584 -0.030336855 -0.23599166 -0.078911535 -0.024329392 -0.0639031 0.12594506 0.010560611
-0.17826141 -0.03336022 -0.23652565 -0.34976232 -0.030935891 0.015001495 0.22010201 0.049511723
0.051812056 0.07541927 0.11660602 -0.05345855 -0.11955051 -0.13582423 -0.25400642 -0.10118174
-0.15514573 -0.0025192518 0.006757166 -0.18385927 -0.2526436 0.07940605 -0.044726495 -0.083452545
0.17380026 -0.130474 0.07254344 0.037985407 -0.038596973 0.31720743 0.25935197 0.1442187
0.012506155 0.049226236 0.32503802 0.2247569 0.081396945 0.18266165 0.010656163 -0.003411116
0.16256082 0.007690108 -0.031360853 0.42499167 0.085853554 -0.028841196 0.32506222 0.25239474
0.13884741 -0.019075468 -0.06576034 -0.019968253 -0.039780803 -0.07285909 0.10356318 0.080822416
00000000: d7a0 03be 4a39 ae3e 15a9 aa3d 239f 893d
00000010: d03a 723d 7c82 5ebd 249a e13e 528c 813e
00000020: fe8e d33e c30b 9c3e 325b 953e 6bc7 653e
00000030: 6018 9cbb bb3b b43e e145 813e 7317 cc3e
00000040: debc b93e 60d8 ae3e 46fe e43e 05fd b43e
00000050: e78f 3d3f 5976 803e 571f 4e3e 52b0 3b3e
00000060: 5d69 c63d 76c6 c03e e055 7e3e e7f3 a33d
00000070: fdfd d43d 8a93 5f3d 3bca dc3e 8703 75bd
00000080: 1549 e33d 0157 8e3e 4859 11be 13b8 303d
00000090: f2e1 13be cd3a 1d3e 5d9c 16bd 4a99 2dbe
000000a0: 1279 483d d06b 0fbe 6c07 cf3a d46a 5d3e
000000b0: 1be9 073e fba9 4abd 780f 0bbe 8a9e 673b
000000c0: 5e2e 9f3e 2645 8a3e 1e4a d5bd fe11 8fbd
000000d0: fe6b 22bd 557e cc3e e58d d1bc ebb2 5abe
000000e0: 2ecb b1bd c51a 833e ddd6 e93d 3c04 c83d
000000f0: 418e 133e 10b2 0d3e aba2 07be 9265 33be
00000100: c0b4 0b3e a6d2 0b3e e1ea 2f3e 0bc1 9dbe
00000110: a6c6 86bb 7b05 1f3e 0a52 33be f68b 06bd
00000120: 131e 05bd e292 013a e8b6 3d3c 34ba 23bd
00000130: 9ed0 203e 2410 87bd 4ac6 bcbe a79f 76be
00000140: 36d7 443e 0581 dfbd 4ae7 d63d 62bf 8bbd
00000150: 77c3 babd 19af 9e3d e2df 2abd 7452 85be
00000160: 0376 53be a0a2 e9bd 2fc5 433e b501 373d
00000170: 124c 4c3d f0ab 34be 2164 c7bd 52d1 123d
00000180: b7be 81bd e16d 95bc 5099 50be 07f2 483e
00000190: 4f89 ec3d 5b6e 5d3d f92f be3e 377e a33e
000001a0: 5d9c 503e fbdc cc3d 0490 103e 36a5 bf3d
000001b0: c976 4a3e 85a2 193b 8a90 313e 39c5 9c3e
000001c0: c18b 3f3e 7c67 063e 348b a23e 2d65 143d
000001d0: f605 403e 9056 5c3e 4eed 4b3d ef3b b63e
000001e0: 82e0 aa3e d452 b33d 96e7 1d3e 6d41 2b3e
000001f0: ce9b 023e 151b 593e 9c63 713e 20da ea39
00000200: 4863 ae3e e8cf 813e 8e12 f7bc 0479 aa3e
00000210: d0ef 163e 0cb1 e63d 7b03 573e d9b5 3e3e
00000220: af70 dc3b b36c 1f3e 4edf 74be 7348 a83d
00000230: c180 573e 4755 0f3f 7ba5 143f 93f5 7a3e
00000240: 85f2 773e 21f9 3a3d 6b28 283e c5a6 7d3e
00000250: 01ca 613d 4290 edbc fd02 59be bfc9 4fbe
00000260: 7ace c8be e48a 98be 2d00 00bf 245a 0ebe
00000270: 3a2a ab3d 30e0 093e 5cc2 1b3e 6faf f33d
00000280: c631 2cbd e7d5 d93d f6e7 323c bb0c 9e3e
00000290: 47eb 153d 3c51 473e c554 6f3e a6ef 9c3e
000002a0: 7cc5 453e ce5c 8bbd e1c0 2abe f0ea 8a3d
000002b0: ca30 6f3d 1e77 dd3d 6459 3c3d 25c1 483e
000002c0: e794 b6bc 6ed2 9c3e 67ac cb3d d778 a53e
000002d0: 4c9a 9e3c 2c2b 6cbe 03b0 1cbe 99b1 9f3e
000002e0: 8527 593e 4595 efbd bc4a 2ebe 7d09 90be
000002f0: 5cbe ffbd 54cf 5cbd b0f6 5bbd 4b0e 9f3c
00000300: f153 6abe ff84 f8bc cca7 71be 5f9c a1bd
00000310: 6f4e c7bc a1df 82bd bef7 003e 6a06 2d3c
00000320: 298a 36be baa4 08bd c833 72be 0c14 b3be
00000330: 446d fdbc d5c8 753c 6c62 613e cecc 4a3d
00000340: e138 543d 6b75 9a3d 23cf ee3d 5af7 5abd
00000350: e6d6 f4bd 8215 0bbe 210d 82be 5f38 cfbd
00000360: 86de 1ebe 081a 25bb 376b dd3b 9b45 3cbe
00000370: 805a 81be a49f a23d 2133 37bd 2be9 aabd
00000380: b2f8 313e fa9a 05be a891 943d 9696 1b3d
00000390: dc17 1ebd 0369 a23e c8c9 843e 11ae 133e
000003a0: 9ee6 4c3c 73a1 493d 626b a63e ac26 663e
000003b0: 71b3 a63d a80b 3b3e 3097 2e3c 088d 5fbb
000003c0: 5876 263e 4dfd fb3b 3d74 00bd 8298 d93e
000003d0: fdd3 af3d 5f44 ecbc 8e6e a63e e239 813e
000003e0: 042e 0e3e 2844 9cbc 5bad 86bd 7694 a3bc
000003f0: 32f1 22bd 2637 95bd ef18 d43d 3986 a53d

fc3_adv.bias f4 [76]
0.12502618 0.111469656 0.10329163 -0.07472749 -0.019509165 -0.20011295 -0.0062229494 -0.048000336
0.21708453 0.15201998 -0.14181529 -0.21549892 0.26443356 -0.0031813136 0.2555886 0.18133807
0.36851236 0.111624345 0.196217 0.10588438 0.024831956 -0.02159305 0.18865414 -0.06723245
-0.08190218 -0.064997524 -0.14085265 0.21842548 -0.06796471 0.1577351 0.1986347 0.075546525
-0.124739215 0.06340996 0.04341544 0.18598235 0.1429322 -0.28186643 0.020209335 0.06221383
0.3486663 0.037628867 -0.109571464 0.19716673 0.013795208 0.11715496 0.17415236 0.20308031
0.15035515 0.11861085 -0.020465761 0.06963179 0.18202066 -0.011058104 0.1298199 0.082567886
-0.053894587 -0.13163784 0.1659542 0.1763968 0.03687831 0.2859741 0.12985118 0.050436385
0.14131084 -0.04426407 0.2376276 0.070023045 0.059506983 0.054002177 -0.0051426287 0.16073433
0.072504975 0.21887174 0.19644192 0.3299928
00000000: dd06 003e 344a e43d 908a d33d ba0a 99bd
00000010: afd1 9fbc 69ea 4cbe e2e9 cbbb 009c 44bd
00000020: 684b 5e3e 20ab 1b3e 0738 11be c0ab 5cbe
00000030: d663 873e 967d 50bb 82dc 823e b0b0 393e
00000040: a7ad bc3e 4e9b e43d 1ced 483e e9d9 d83d
00000050: 636c cb3c e8e3 b0bc 8d2e 413e 2bb1 89bd
00000060: 55bc a7bd 6c1d 85bd ad3b 10be eeaa 5f3e
00000070: 1531 8bbd 4f85 213e e566 4b3e 23b8 9a3d
00000080: 4677 ffbd 15dd 813d 63d4 313d 2872 3e3e
00000090: d25c 123e cc50 90be 0c8e a53c eed3 7e3d
000000a0: 6484 b23e ba20 1a3d 0167 e0bd 13e6 493e
000000b0: 4c05 623c f1ee ef3d ff54 323e 49f4 4f3e
000000c0: b3f6 193e 3fea f23d d0a7 a7bc 1d9b 8e3d
000000d0: a063 3a3e 0d2d 35bc 82ef 043e 5a19 a93d
000000e0: 92c0 5cbd 12cc 06be e6ef 293e 5da1 343e
000000f0: b60d 173d 326b 923e b5f7 043e 6296 4e3d
00000100: cab3 103e 3e4e 35bd a654 733e 3e68 8f3d
00000110: 98bd 733d 6331 5d3d 7f83 a8bb 8a97 243e
00000120: 7d7d 943d ea1f 603e 1228 493e d1f4 a83e

fc3_val.weight f4 [76, 130]
0.070337914 -0.15204304 0.0059871264 -0.054329026 -0.061324634 0.022842886 -0.12562428 -0.21978915
0.11722222 -0.036106355 0.06350711 -0.01862626 -0.0015632915 0.114397965 -0.022425048 -0.16395675
-0.01776883 0.20425403 -0.08558651 -0.15519558 0.036832653 -0.21104935 -0.1687401 0.009937181
-0.2414549 -0.057750966 0.0429389 -0.098043196 0.031241458 -0.010451506 0.03447527 -0.0022259294
0.27563632 -0.088493 -0.13936642 -0.039141804 -0.00015716767 0.23846833 -0.049713027 0.29116452
0.15922956 -0.015107212 0.2778326 0.137144 0.33043596 0.16284688 0.26437417 0.12022718
0.26674578 0.17380361 0.27660376 0.04169362 0.20493315 0.16519077 0.067375675 0.12145451
0.018601164 -0.032418374 0.0067878366 -0.025527837 0.11858403 -0.12585948 -0.06390225 0.19804832
-0.12518908 0.046213064 -0.084204726 -0.20096378 -0.10247918 -0.05443244 0.07617344 0.043957133
0.19422343 -0.050526742 -0.03632615 0.116264954 -0.068797514 0.107911676 0.086328305 0.0039836117
-0.06532845 -0.021979269 0.09198688 -0.121336415 0.07759081 0.18619777 0.004212844 0.046332125
-0.0811143 0.010249271 -0.15451476 -0.1239805 -0.056320548 -0.023000838 0.039174482 -0.011190469
-0.098756604 0.23036385 0.21177931 -0.2373898 -0.10058388 -0.14009228 -0.15867914 0.06735592
-0.09205779 -0.07059949 0.13823739 0.20558025 0.014366466 -0.09866051 -0.06852949 0.218953
0.23561294 0.03431145 0.11045199 -0.096691966 -0.07398188 -0.23111854 0.08302272 0.041038908
0.052541524 -0.08530144 -0.12444086 -0.14730738 -0.16148281 -0.046922278 0.1446525 -0.023813847
0.14202079 -0.09006017 0.2296843 0.34704927 0.13668984 0.17501463 0.22933084 0.19083525
0.31754303 0.2810841 0.24269398 0.09605698 0.13510086 0.2618767 0.31270912 0.26935023
0.24903761 0.08298544 0.368158 0.20989573 0.13773973 0.30243972 0.063830465 0.38352188
0.3368278 0.080075055 0.15750906 0.09528289 0.31787366 0.18275164 0.32613814 0.10798862
0.0542219 0.15636322 0.028990136 0.37552252 0.06469481 0.23157829 0.10525161 0.11443033
0.12328229 0.16506079 0.31700993 0.105051085 0.14908795 0.10624274 -0.04414478 0.25377184
0.23556447 0.17237324 0.110762596 0.004032713 0.19247758 -0.054634314 -0.043648094 0.24266188
0.020670813 0.107773654 0.15379997 0.06203958 0.1606898 0.22090946 0.015294409 0.2722883
0.32462493 0.17320003 0.3470939 0.08607468 0.11049399 0.16778028 0.19154608 0.0030464511
0.1816419 0.25161994 0.0523915 0.23965216 -0.02706478 -0.06435153 -0.038397383 0.20538388
0.20065534 0.08420446 0.16904329 0.221617 0.06267499 -0.084372096 0.03005507 0.2711243
0.0006166903 0.07884835 0.231403 0.25089633 0.20997943 -0.0379761 -0.08808935 -0.004463643
0.19299139 0.077499226 0.047362957 0.123859204 -0.034776885 -0.00084264606 0.18379255 0.10500751
0.08315974 0.14109199 0.09456975 0.18881162 0.08063144 0.08732593 0.26988304 0.07734881
-0.00094484136 0.17755757 0.1875911 0.27134126 0.22196998 -0.04911238 0.17306286 0.2751042
0.023998829 -0.044897325 0.16959667 0.1025501 0.04412682 0.26995414 0.29562855 0.16374971
00000000: 530d 903d 2cb1 1bbe a82f c43b 1d88 5ebd
00000010: 8a2f 7bbd 0121 bb3c a7a3 00be 6810 61be
00000020: 3412 f03d 42e4 13bd 0410 823d 1996 98bc
00000030: 5ce7 ccba 7b49 ea3d bcb4 b7bc 47e4 27be
00000040: f08f 91bc f827 513e fb47 afbd 97eb 1ebe
00000050: d6dd 163d 521d 58be 34ca 2cbe 8fcf 223c
00000060: f43f 77be 478c 6cbd b3e0 2f3d dfca c8bd
00000070: 16ee ff3c cb3c 2bbc f135 0d3d e6e0 11bb
00000080: 3420 8d3e d13b b5bd 12b6 0ebe 2853 20bd
00000090: 60cd 24b9 0b31 743e e39f 4bbd 8413 953e
000000a0: 130d 233e 3d84 77bc 1340 8e3e 7a6f 0c3e
000000b0: e72e a93e 55c1 263e 0d5c 873e ab39 f63d
000000c0: e792 883e 93f9 313e 029f 8d3e eec6 2a3d
000000d0: ffd9 513e c527 293e 42fc 893d 24bd f83d
000000e0: 7861 983c 21c9 04bd 806c de3b c11f d1bc
000000f0: 2fdc f23d 4fe1 00be 2fdf 82bd 2ecd 4a3e
00000100: 9131 00be e949 3d3d 8773 acbd 73c9 4dbe
00000110: 9be0 d1bd 8df4 5ebd d200 9c3d 650c 343d
00000120: 82e2 463e 21f5 4ebd bbca 14bd 521c ee3d
00000130: b6e5 8cbd cc00 dd3d e5cc b03d f588 823b
00000140: ecca 85bd de0d b4bc 9e63 bc3d 3a7f f8bd
00000150: eee7 9e3d a1aa 3e3e e60b 8a3b c1c6 3d3d
00000160: 411f a6bd 8fec 273c 1e39 1ebe 7de9 fdbd
00000170: 60b0 66bd 416c bcbc 6c75 203d 3b58 37bc
00000180: e740 cabd 80e4 6b3e addc 583e 5016 73be
00000190: ecfe cdbd 5a74 0fbe c97c 22be e7f1 893d
000001a0: cb88 bcbd 7796 90bd 1a8e 0d3e a183 523e
000001b0: 5361 6b3c 850e cabd 3059 8cbd 3735 603e
000001c0: 8544 713e 2a8a 0c3d a734 e23d 7006 c6bd
000001d0: d083 97bd 57aa 6cbe d107 aa3d 6a18 283d
000001e0: c835 573d 85b2 aebd d9da febd bfd7 16be
000001f0: c05b 25be 9331 40bd c91f 143e 4215 c3bc
00000200: e66d 113e 7771 b8bd 5c32 6b3e 71b0 b13e
00000210: 6cf8 0b3e 0937 333e b4d5 6a3e 516a 433e
00000220: 0095 a23e 41ea 8f3e c584 783e 86b9 c43d
00000230: e157 0a3e b414 863e 691b a03e 46e8 893e
00000240: b703 7f3e 45f4 a93d 357f bc3e e8ee 563e
00000250: a50b 0d3e 61d9 9a3e 8cb9 823d fb5c c43e
00000260: b274 ac3e 64fe a33d 0e4a 213e ad23 c33d
00000270: 56c0 a23e 3f23 3b3e 94fb a63e 2329 dd3d
00000280: c817 5e3d ae1d 203e b97c ed3c 7d44 c03e
00000290: b67e 843d dc22 6d3e 288e d73d 735a ea3d
000002a0: 6d7b fc3d b205 293e 204f a23e 0625 d73d
000002b0: 83aa 183e cb95 d93d 28d1 34bd 62ee 813e
000002c0: d037 713e 9c82 303e 80d7 e23d d924 843b
000002d0: d818 453e 3bc8 5fbd 58c8 32bd 5b7c 783e
000002e0: d655 a93c 6fb8 dc3d bd7d 1d3e 371d 7e3d
000002f0: de8b 243e 1736 623e 6795 7a3c 5f69 8b3e
00000300: 3d35 a63e 595b 313e 4bb6 b13e ec47 b03d
00000310: ac4a e23d 98ce 2b3e a824 443e f8a6 473b
00000320: 5600 3a3e 54d4 803e 7898 563d 6067 753e
00000330: f5b6 ddbc bcca 83bd 9346 1dbd 2750 523e
00000340: 9878 4d3e 6373 ac3d af19 2d3e 91ef 623e
00000350: bf5b 803d 47cb acbd 0d36 f63c ced0 8a3e
00000360: 63a9 213a 3e7b a13d e8f4 6c3e 7c75 803e
00000370: d904 573e d48c 1bbd 3068 b4bd c043 92bb
00000380: 899f 453e eab7 9e3d a9ff 413d e5a9 fd3d
00000390: 3572 0ebd 05e5 5cba 1d34 3c3e 2d0e d73d
000003a0: a74f aa3d 6b7a 103e c9ad c13d d557 413e
000003b0: 1922 a53d f0d7 b23d 1c2e 8a3e 0e69 9e3d
000003c0: 3baf 77ba a7d1 353e e217 403e 3eed 8a3e
000003d0: 194c 633e 102a 49bd 6437 313e 75da 8c3e
000003e0: 3199 c43c 42e6 37bd c0aa 2d3e c905 d23d
000003f0: 53be 343d 6e37 8a3e a05c 973e 01ae 273e

fc3_val.bias f4 [76]
0.20572685 -0.23535417 0.4058558 0.2178194 -0.24221872 -0.20019552 -0.24655543 -0.17272492
-0.16209763 -0.18919796 0.5831256 0.63076943 0.20798114 -0.17849302 0.28649047 0.48582834
0.3531482 -0.23463278 0.3264459 0.31202278 0.24524096 0.7140629 0.2836699 0.365292
0.19867456 0.17008872 0.61669654 0.18949792 -0.21377772 -0.16017334 0.5220453 -0.20247081
0.08712067 0.22376804 0.35128382 -0.13753201 0.32475975 -0.20098685 -0.14514491 0.2846604
0.5996999 0.35831043 -0.22661541 0.2724323 0.6434069 -0.20497583 0.35689363 -0.18717434
-0.14274305 0.5441571 -0.18349214 0.4679481 0.7305349 -0.26109418 -0.21759771 -0.23578334
-0.1464008 -0.16244553 -0.1845568 -0.24092032 -0.04850006 -0.113140956 -0.17963724 0.6170661
-0.22700262 0.20969024 -0.2301108 0.0075227614 0.31336552 -0.24160302 -0.17036651 0.1350707
0.08947498 0.102696225 -0.14064018 -0.2722353
00000000: 0faa 523e af00 71be 55cc cf3e 0c0c 5f3e
00000010: 2f08 78be 0e00 4dbe 0779 7cbe cdde 30be
00000020: ecfc 25be 1cbd 41be b847 153f 1b7a 213f
00000030: 02f9 543e e0c6 36be e1ae 923e 7ebe f83e
00000040: d7cf b43e 9343 70be eb23 a73e 73c1 9f3e
00000050: 7220 7b3e d4cc 363f 2e3d 913e 8e07 bb3e
00000060: 5871 4b3e bd2b 2e3e d3df 1d3f be0b 423e
00000070: 8ce8 5abe 7b04 24be c3a4 053f 8254 4fbe
00000080: 526c b23d 7323 653e 79db b33e 31d5 0cbe
00000090: e946 a63e 7fcf 4dbe dea0 14be 02bf 913e
000000a0: ef85 193f 7774 b73e df0d 68be 3f7c 8b3e
000000b0: 51b6 243f 2fe5 51be c3ba b63e a1aa 3fbe
000000c0: 3c2b 12be e14d 0b3f 5de5 3bbe e596 ef3e
000000d0: 5604 3b3f 23ae 85be efd1 5ebe 3071 71be
000000e0: 17ea 15be 1f58 26be 75fc 3cbe d1b3 76be
000000f0: 00a8 46bd 72b6 e7bd d3f2 37be 0bf8 1d3f
00000100: 6073 68be 0ab9 563e 2aa2 6bbe 7f81 f63b
00000110: 7271 a03e c866 77be 8f74 2ebe f94f 0a3e
00000120: a93e b73d 6652 d23d fb03 10be 6d62 8bbe

fc4_adv.weight f4 [38, 76]
-0.06645351 0.09673468 -0.5046375 -0.16151986 -0.08927441 0.093026064 0.28802767 0.047389068
0.38693628 -0.16013259 -0.4618684 0.09242404 -0.12970793 -0.069758445 0.08998795 -0.30155376
0.17440303 0.111190796 0.12319296 0.25985554 0.20812114 0.21407534 -0.11460043 0.008360779
-0.2531833 -0.06909851 0.054391764 0.07485139 0.14575695 -0.15080501 -0.17580223 -0.2158474
0.098881096 0.21265943 -0.09972288 0.033745345 0.11851871 -0.039219473 0.12586758 0.048029907
-0.2135209 -0.15156421 -0.16338025 -0.084714286 0.07439989 0.45281908 -0.028252536 0.10061321
-0.09807455 0.31409818 0.2909696 -0.02802871 0.020649333 -0.2806972 0.26197055 -0.036555298
0.31306633 0.111150466 0.17708777 0.17220134 -0.24524575 0.20250574 0.23772939 0.29011813
0.0010318056 0.008595761 0.035503812 0.22393055 -0.116090745 -0.20007631 -0.15195736 0.17120925
0.21173158 -0.03556153 -0.24023719 0.13775727 0.30423018 0.094732314 -0.12770979 0.06557136
-0.084358364 -0.028073838 -0.1351465 0.2742671 -0.25943318 0.4703468 -0.22046001 0.22714664
-0.00083096896 -0.13891105 -0.010439565 -0.17416409 0.06171259 -0.011614223 -0.12233811 -0.21183275
-0.07019382 -0.006946094 0.0020696863 0.28975335 -0.17774242 -0.44718814 -0.24010153 -0.022829494
0.2614752 0.18890853 0.25360054 -0.042396132 -0.2661019 0.19971003 -0.04550814 -0.15436159
0.08307455 0.1028284 -0.14090003 0.2883583 -0.06121824 0.34174243 -0.026742011 0.1853031
-0.25733334 0.13869028 -0.01853951 0.057981435 -0.1471844 -0.043533456 0.046265617 0.03698449
0.45172083 -0.067744404 0.15581621 0.2017868 0.10217028 0.031446293 0.39140996 0.013742679
-0.29625824 0.24986075 0.13210142 0.036280956 0.042326145 -0.12764484 0.4131946 0.19727956
-0.17282496 0.061910108 0.0005241547 0.292291 -0.06386488 0.14617258 -0.05432868 0.44014907
0.13228394 0.1313176 0.0042409464 -0.011964602 0.072702505 0.31494093 -0.10606253 0.25127348
-0.10376243 0.43314368 -0.13907419 0.08522595 0.08380036 0.09456468 -0.11505615 -0.12916271
0.06894242 0.28828543 0.13540177 0.17462306 -0.027064893 0.029222216 0.04908184 0.112547226
0.067901835 0.016828842 0.20207705 -0.09209124 -0.15734084 -0.16886686 0.18901028 -0.269555
0.20191814 0.000116427145 -0.08796925 0.12552221 0.31089488 -0.107758544 -0.11482056 -0.14898013
-0.19028655 -0.23820461 -0.017877465 -0.06473213 -0.28484747 0.01247237 -0.080638535 0.103535116
0.3916788 0.18720514 -0.18014981 -0.11080591 0.13599065 -0.15253727 0.5443736 0.2003754
0.32826665 -0.25044855 0.37853515 0.2030167 -0.34502319 0.21414225 0.20196213 0.33321095
0.37545532 0.04596277 0.45014426 -0.28036496 -0.33345255 0.31489962 -0.110413246 0.18190016
0.04463815 0.13671018 -0.46395865 0.29425246 0.28410032 -0.18669975 -0.27272424 -0.04789364
-0.36932907 -0.09516517 -0.2096097 0.07089711 -0.17377056 -0.08492636 0.16650201 -0.16632976
0.08459561 -0.013849888 0.22705545 0.17430806 -0.22996593 0.09294702 0.1521342 -0.062451348
0.17827128 0.2501542 0.068491116 -0.06406303 -0.3025502 -0.07742604 -0.21581931 -0.02651452
00000000: c718 88bd d51c c63d ec2f 01bf 7665 25be
00000010: 80d5 b6bd 7384 be3d 5d78 933e 0a1b 423d
00000020: 831c c63e ccf9 23be 047a ecbe d148 bd3d
00000030: 28d2 04be 84dd 8ebd 9a4b b83d 4165 9abe
00000040: b596 323e 00b8 e33d 974c fc3d c90b 853e
00000050: b51d 553e 9136 5b3e a1b3 eabd a6fb 083c
00000060: 3ea1 81be 8583 8dbd e6c9 5e3d b04b 993d
00000070: 4f41 153e a16c 1abe 8005 34be 1a07 5dbe
00000080: 2c82 ca3d 65c3 593e 823b ccbd 8f38 0a3d
00000090: f0b9 f23d 99a4 20bd 6ee3 003e 02bb 443d
000000a0: 39a5 5abe a633 1bbe 274d 27be af7e adbd
000000b0: f85e 983d e7d7 e73e dd71 e7bc 4c0e ce3d
000000c0: 4fdb c8bd 7ad1 a03e f8f9 943e 779c e5bc
000000d0: ca28 a93c 8bb7 8fbe 0121 863e 02bb 15bd
000000e0: 3b4a a03e dba2 e33d 7f56 353e 8c55 303e
000000f0: b421 7bbe aa5d 4f3e 556f 733e 5d8a 943e
00000100: a73d 873a 3cd5 0c3c 726c 113d 0d4e 653e
00000110: fcc0 edbd cee0 4cbe b69a 1bbe 7a51 2f3e
00000120: 2ad0 583e f8a8 11bd bd00 76be 3e10 0d3e
00000130: 0fc4 9b3e 0403 c23d 5bc6 02be 474a 863d
00000140: 14c4 acbd 1bfb e5bc d863 0abe bd6c 8c3e
00000150: 6dd4 84be 4cd1 f03e 45c0 61be 2199 683e
00000160: 62d5 59ba b33e 0ebe b60a 2bbc 1258 32be
00000170: 57c6 7c3d 9549 3ebc 678c fabd afea 58be
00000180: c7c1 8fbd 0f9c e3bb 93a3 073b 8d5a 943e
00000190: 1c02 36be d8f5 e4be 2ddd 75be eb04 bbbc
000001a0: 14e0 853e 3d71 413e eed7 813e 91a7 2dbd
000001b0: 823e 88be c980 4c3e be66 3abd f710 1ebe
000001c0: fd22 aa3d b297 d23d 1948 10be b3a3 933e
000001d0: fabf 7abd ddf8 ae3e 1012 dbbc 19c0 3d3e
000001e0: 32c1 83be d304 0e3e 2ce0 97bc f17d 6d3d
000001f0: 82b7 16be 2350 32bd 0481 3d3d 0c7d 173d
00000200: f447 e73e 94bd 8abd 498e 1f3e 33a1 4e3e
00000210: a73e d13d d4cd 003d e366 c83e f928 613c
00000220: 29af 97be 7fdb 7f3e 9845 073e 579b 143d
00000230: 2e5e 2d3d 54b5 02be 3e8e d33e a703 4a3e
00000240: 07f9 30be 7495 7d3d 6d67 093a 2aa7 953e
00000250: 97cb 82bd 44ae 153e c087 5ebd 385b e13e
00000260: 7175 073e 1f78 063e a3f7 8a3b 2e07 44bc
00000270: 0de5 943d f03f a13e 5037 d9bd eba6 803e
00000280: 6681 d4bd 02c5 dd3e 7769 0ebe f18a ae3d
00000290: 869f ab3d 20ab c13d 8fa2 ebbd 3b43 04be
000002a0: af31 8d3d 269a 933e c3a6 0a3e 63d0 323e
000002b0: 32b7 ddbc 6e63 ef3c 0a0a 493d 297f e63d
000002c0: 1e10 8b3d a4dc 893c 49ed 4e3e 559a bcbd
000002d0: f51d 21be 6feb 2cbe e98b 413e 1d03 8abe
000002e0: a1c3 4e3e 592a f438 3929 b4bd e588 003e
000002f0: 9d2d 9f3e 83b0 dcbd 0b27 ebbd 3f8e 18be
00000300: 7ada 42be e9eb 73be c373 92bc 4792 84bd
00000310: 87d7 91be e958 4c3c d125 a5bd 380a d43d
00000320: 208a c83e b4b2 3f3e 3179 38be 35ee e2bd
00000330: 2241 0b3e bb32 1cbe 115c 0b3f 352f 4d3e
00000340: 9112 a83e cb3a 80be 5ccf c13e 9ce3 4f3e
00000350: e1a6 b0be 1b48 5b3e 29cf 4e3e a09a aa3e
00000360: ae3b c03e 7543 3c3d 4f79 e63e ff8b 8fbe
00000370: 4bba aabe 863a a13e 5720 e2bd 0944 3a3e
00000380: 7ed6 363d c1fd 0b3e fd8b edbe 42a8 963e
00000390: 9975 913e 382e 3fbe 83a2 8bbe 1f2c 44bd
000003a0: b318 bdbe f5e5 c2bd eda3 56be 8132 913d
000003b0: e9f0 31be dfed adbd 817f 2a3e 5952 2abe
000003c0: 7740 ad3d a4ea 62bc 3981 683e d07d 323e
000003d0: 307c 6bbe 025b be3d 11c9 1b3e fccc 7fbd
000003e0: bf8c 363e 3614 803e 1245 8c3d 7a33 83bd
000003f0: dce7 9abe 8b91 9ebd bdff 5cbe fb34 d9bc

fc4_adv.bias f4 [38]
0.061870016 0.033304434 -0.108774394 0.0021965925 0.06143316 0.003145154 0.19734742 -0.019065764
-0.031358685 0.04786095 -0.116172455 -0.14934637 0.16785562 0.071499035 -0.0077854493 0.09533267
0.08357623 0.10331305 -0.017460782 -0.06816118 0.07540065 0.16868135 -0.018248292 0.12348598
0.086312965 0.12779461 0.13671683 -0.061153725 -0.11492236 0.13179997 0.036728896 -0.113902606
0.049238604 0.05948907 -0.123006396 0.17987478 -0.2745955 0.2676732
00000000: 6a6b 7d3d 3b6a 083d 1cc5 debd b5f4 0f3b
00000010: 56a1 7b3d ee1e 4e3b 7115 4a3e ce2f 9cbc
00000020: f771 00bd d809 443d d3eb edbd 41ee 18be
00000030: 58e2 2b3e 166e 923d 151d ffbb c63d c33d
00000040: 042a ab3d cb95 d33d ea09 8fbc 1798 8bbd
00000050: a86b 9a3d ceba 2c3e 717d 95bc 38e6 fc3d
00000060: dac4 b03d 97dc 023e 7fff 0b3e 547c 7abd
00000070: 6a5c ebbd 92f6 063e 0a71 163d c545 e9bd
00000080: 6bae 493d d0aa 733d c7ea fbbd 1831 383e
00000090: c897 8cbe 760c 893e

fc4_val.weight f4 [1, 76]
-0.4033165 0.37364298 -0.8314063 -0.2542544 0.30868566 0.4302227 0.17190658 0.22100762
0.27157512 0.19968376 -1.4003328 -2.0963957 -0.42870682 0.25705743 -0.38565627 -1.0803977
-0.4750736 0.3517146 -0.8099758 -0.7801719 -0.45588225 -1.1931938 -0.4143569 -0.89864206
-0.42398372 -0.4077735 -1.3694729 -1.0081792 0.28592855 0.20998777 -1.0041554 0.28105894
-0.8465821 -0.34569547 -0.5138603 0.21744993 -0.37072936 0.3947546 0.32308227 -1.1123543
-1.4687265 -0.8612129 0.4385285 -0.46229464 -0.97378856 0.24654193 -0.25814968 0.15461579
0.18996233 -0.9899062 0.1670416 -1.5369087 -1.0009732 0.3118363 0.18121141 0.15466668
0.22775376 0.21998917 0.3600039 0.22662513 -1.2077439 0.3386052 0.17463167 -0.9754368
0.21329069 -0.7831627 0.14550503 -0.966201 -0.24250127 0.41097778 0.38180345 -0.58080894
-0.6442305 -0.42488945 0.39983204 0.29477462
00000000: 807f cebe 224e bf3e 0bd7 54bf a22d 82be
00000010: 0c0c 9e3e 2646 dc3e 4708 303e d24f 623e
00000020: e50b 8b3e e679 4c3e 1b3e b3bf 592b 06c0
00000030: 767f dbbe 089d 833e bd74 c5be 794a 8abf
00000040: d93c f3be f013 b43e 935a 4fbf 58b9 47bf
00000050: 6669 e9be 93ba 98bf 9626 d4be 680d 66bf
00000060: 6514 d9be b0c7 d0be e34a afbf 040c 81bf
00000070: 3a65 923e 0907 573e 2a88 80bf f5e6 8f3e
00000080: 9bb9 58bf fffe b0be 598c 03bf 32ab 5e3e
00000090: 3dd0 bdbe 461d ca3e 0a6b a53e a061 8ebf
000000a0: 3bff bbbf 7378 5cbf cf86 e03e e2b1 ecbe
000000b0: 354a 79bf 7d75 7c3e 322c 84be 9a53 1e3e
000000c0: 7c85 423e 7e6a 7dbf f40c 2b3e 6db9 c4bf
000000d0: e41f 80bf 02a9 9f3e 7c8f 393e f160 1e3e
000000e0: 4838 693e d744 613e 6e52 b83e 6b10 683e
000000f0: 5a97 9abf a95d ad3e a5d2 323e 3ab6 79bf
00000100: e068 5a3e 5a7d 48bf 45ff 143e f358 77bf
00000110: 4152 78be ae6b d23e be7b c33e e5af 14bf
00000120: 4aec 24bf 1c8b d9be c9b6 cc3e b3ec 963e

exp_avg f4 [1, 6, 1, 4]
-2.477927 -0.90541095 -0.37317485 0.011921348 -5.222171 6e-45 6e-45 0.0
-0.3319697 -0.3319697 -0.3319697 -0.06578913 -0.060711294 -0.14759669 -0.14759669 -0.028484788
-0.2471676 -0.23613639 -0.23613639 -0.06393814 -0.35527694 -0.33801037 -0.33801037 0.0
00000000: 5b96 1ec0 03c9 67bf c610 bfbe c251 433c
00000010: 061c a7c0 0400 0000 0400 0000 0000 0000
00000020: eff7 a9be eff7 a9be eff7 a9be 74bc 86bd
00000030: 68ac 78bd 9623 17be 9623 17be ee58 e9bc
00000040: 8119 7dbe bdcd 71be bdcd 71be 00f2 82bd
00000050: dce6 b5be b20f adbe b20f adbe 0000 0000

exp_avg_sq f4 [1, 6, 1, 4]
42.22169 4.628933 0.65129304 0.014633994 161.43008 7e-43 7e-43 0.0
3.2152665 3.2152665 3.2152665 0.18732044 0.72926 0.592915 0.592915 0.06545233
0.7595183 0.5305192 0.5305192 0.05418861 0.52571964 0.5157935 0.5157935 0.0
00000000: 03e3 2842 3820 9440 24bb 263f 6bc3 6f3c
00000010: 1a6e 2143 f401 0000 f401 0000 0000 0000
00000020: edc6 4d40 edc6 4d40 edc6 4d40 eed0 3f3e
00000030: c9b0 3a3f 47c9 173f 47c9 173f df0b 863d
00000040: cb6f 423f 1bd0 073f 1bd0 073f e0f4 5d3d
00000050: 9095 063f 0b0b 043f 0b0b 043f 0000 0000

exp_avg f4 [1, 6, 2, 4]
-1.1288759 -0.42391568 -0.13537069 -0.004166276 -1.1208396 -0.44014168 -0.15061407 0.008848207
-6.946181 -5.28017 -2.3414826 -0.6120868 -6.860464 -5.0390472 -2.1151655 -0.5029434
-0.3657115 -0.3657115 -0.3657115 -0.06842458 -0.28072348 -0.28072348 -0.28072348 -0.05418083
-0.18146218 -0.2052364 -0.2052364 -0.022081148 -0.14603543 -0.13320142 -0.13320142 -0.0051683905
-0.15064618 -0.1627176 -0.1627176 0.0070171747 -0.21476501 -0.22237965 -0.22237965 -0.023167906
-0.19510773 -0.15389188 -0.15389188 -0.013791853 -0.22547773 -0.19628137 -0.19628137 -0.0038472759
00000000: 017f 90bf 7a0b d9be 9d9e 0abe 4285 88bb
00000010: ac77 8fbf 405a e1be 933a 1abe 12f8 103c
00000020: 1d47 dec0 27f7 a8c0 dada 15c0 b8b1 1cbf
00000030: ec88 dbc0 e03f a1c0 df5e 07c0 e6c0 00bf
00000040: 8a3e bbbe 8a3e bbbe 8a3e bbbe 3022 8cbd
00000050: fdba 8fbe fdba 8fbe fdba 8fbe b8ec 5dbd
00000060: 39d1 39be 7e29 52be 7e29 52be 86e3 b4bc
00000070: 508a 15be f465 08be f465 08be 9a5b a9bb
00000080: fe42 1abe 719f 26be 719f 26be 54f0 e53b
00000090: 5ceb 5bbe 7eb7 63be 7eb7 63be 9fca bdbc
000000a0: 52ca 47be d595 1dbe d595 1dbe 39f7 61bc
000000b0: a2e3 66be fcfd 48be fcfd 48be 9422 7cbb

exp_avg_sq f4 [1, 6, 2, 4]
6.0601 0.8988363 0.12467739 0.002628496 5.413233 0.91465735 0.1164633 0.0027422982
195.44295 93.73145 22.333406 2.5604746 197.14291 89.376144 21.044828 1.0762593
1.1118573 1.1118573 1.1118573 0.030185744 0.7634038 0.7634038 0.7634038 0.027987013
0.3529486 0.3243804 0.3243804 0.01653239 0.32858825 0.2988907 0.2988907 0.0010104134
0.23221046 0.19494067 0.19494067 0.0011753619 0.3649531 0.3371787 0.3371787 0.011480722
0.31776443 0.3066524 0.3066524 0.0068389517 0.31405282 0.30515578 0.30515578 0.008042136
00000000: 57ec c140 231a 663f dc56 ff3d d842 2c3b
00000010: 3439 ad40 fc26 6a3f 5084 ee3d 21b8 333b
00000020: 6571 4343 8176 bb42 d1aa b241 d1de 2340
00000030: 9624 4543 96c0 b242 cf5b a841 ddc2 893f
00000040: 5751 8e3f 5751 8e3f 5751 8e3f 1848 f73c
00000050: 6e6e 433f 6e6e 433f 6e6e 433f 0545 e53c
00000060: aeb5 b43e 3015 a63e 3015 a63e ef6e 873c
00000070: b83c a83e 3408 993e 3408 993e d96f 843a
00000080: 94c8 6d3e 879e 473e 879e 473e 9a0e 9a3a
00000090: 22db ba3e b0a2 ac3e b0a2 ac3e a319 3c3c
000000a0: 05b2 a23e 8b01 9d3e 8b01 9d3e 4919 e03b
000000b0: 88cb a03e 613d 9c3e 613d 9c3e 2ac3 033c

exp_avg f4 [1, 6, 3, 4]
0.2954161 0.16859272 0.071566805 -0.0041822265 0.07891614 0.064356215 -0.001997973 -0.0080380635
0.30800843 0.17433758 0.051830593 0.0022457424 0.8348892 0.76985973 0.34316328 0.092157446
0.99996334 0.83391225 0.1737041 -0.07865742 0.7702801 0.83209866 0.40138465 -0.0066604707
0.03290929 0.03290929 0.0329093 -0.016935248 0.09490535 0.09490532 0.0949053 -0.00094625127
-0.006373318 -0.006373338 -0.006373301 -0.0007823998 -0.031890348 -0.047354393 -0.047354396 0.005691959
0.019150196 0.0013749711 0.0013749683 0.008284707 -0.038008627 -0.061795328 -0.06179532 0.011171879
0.023827694 0.030468052 0.030468056 0.013180738 -0.020934202 -0.007556999 -0.0075570038 0.008006741
-0.015446674 -0.009538913 -0.00953892 0.005138465 -0.0041481424 0.005570158 0.005570157 0.0019722274
0.052395035 0.060839705 0.060839705 0.011618732 0.042445675 0.05204935 0.052049346 0.015019602
00000000: c740 973e 92a3 2c3e 9e91 923d 0f0b 89bb
00000010: c99e a13d 31cd 833d 6df0 02bb 15b2 03bc
00000020: 48b3 9d3e 8d85 323e 514c 543d 4e2d 133b
00000030: 4cbb 553f 8715 453f 19b3 af3e 0bbd bc3d
00000040: 99fd 7f3f 467b 553f 7ddf 313e 2417 a1bd
00000050: 1431 453f 6b04 553f 4a82 cd3e 1440 dabb
00000060: e4cb 063d e4cb 063d e7cb 063d cabb 8abc
00000070: bc5d c23d b85d c23d b65d c23d d90d 78ba
00000080: 44d7 d0bb 6fd7 d0bb 20d7 d0bb f619 4dba
00000090: 749f 02bd aef6 41bd aff6 41bd 9d83 ba3b
000000a0: dfe0 9c3c 6038 b43a 4838 b43a 94bc 073c
000000b0: efae 1bbd 191d 7dbd 171d 7dbd 420a 373c
000000c0: 4c32 c33c 2398 f93c 2598 f93c 06f4 573c
000000d0: 347e abbc b4a0 f7bb bea0 f7bb b52e 033c
000000e0: 0c14 7dbc 1a49 1cbc 2149 1cbc 9260 a83b
000000f0: 24ed 87bb df85 b63b dd85 b63b 7c40 013b
00000100: 2d9c 563d 0e33 793d 0e33 793d 7e5c 3e3c
00000110: 84db 2d3d b331 553d b231 553d c714 763c

exp_avg_sq f4 [1, 6, 3, 4]
1.0798403 0.15041178 0.028950384 0.0007745464 1.1364675 0.15770216 0.025078554 0.0009171579
1.07628 0.14773159 0.02407918 0.0012274137 18.70081 11.188713 3.6259875 0.55115384
18.630932 10.92394 3.4717147 0.54509604 18.768467 10.888124 3.4061663 0.54475707
0.12287052 0.122870505 0.12287049 0.0059752795 0.1565834 0.1565834 0.1565834 0.006019342
0.14786182 0.14786184 0.14786184 0.006145145 0.049140036 0.045203146 0.045203146 0.006212325
0.052165143 0.045705605 0.04570561 0.0031126689 0.047986675 0.039896417 0.03989642 0.0016188524
0.05633194 0.04628513 0.04628513 0.0015455888 0.04298583 0.038358465 0.038358465 0.0013848693
0.056824718 0.052081067 0.052081067 0.0026181468 0.047837153 0.046319474 0.046319474 0.001228347
0.046697706 0.045041807 0.045041807 0.0010416002 0.046399653 0.044447143 0.04444715 0.0013215789
00000000: 3538 8a3f 8c05 1a3e 5b29 ed3c ee0a 4b3a
00000010: c477 913f ad7c 213e 8a71 cd3c 6d6d 703a
00000020: 8bc3 893f f346 173e b341 c53c 2be1 a03a
00000030: 429b 9541 f804 3341 2e10 6840 6b18 0d3f
00000040: 260c 9541 75c8 2e41 9330 5e40 6a8b 0b3f
00000050: d225 9641 c235 2e41 a1fe 5940 3375 0b3f
00000060: 8aa3 fb3d 88a3 fb3d 86a3 fb3d 47cc c33b
00000070: 6657 203e 6657 203e 6657 203e e73d c53b
00000080: 1769 173e 1869 173e 1869 173e 365d c93b
00000090: 1047 493d ef26 393d ef26 393d c290 cb3b
000000a0: 1eab 553d cd35 3b3d ce35 3b3d ebfd 4b3b
000000b0: ad8d 443d 6d6a 233d 6e6a 233d ac2f d43a
000000c0: 52bc 663d 7a95 3d3d 7a95 3d3d 5b95 ca3a
000000d0: e911 303d c41d 1d3d c41d 1d3d 8184 b53a
000000e0: 09c1 683d f552 553d f552 553d 3795 2b3b
000000f0: e4f0 433d 7db9 3d3d 7db9 3d3d 7c00 a13a
00000100: 1846 3f3d c27d 383d c27d 383d 4e86 883a
00000110: 900d 3e3d 350e 363d 370e 363d d438 ad3a

exp_avg f4 [1, 6, 4, 4]
-0.74134713 -0.2174907 -0.074631184 -0.0017696684 -0.735621 -0.22740869 -0.068891786 -0.013257863
-0.7835783 -0.23972024 -0.11242694 -0.0067977435 -0.9290717 -0.32042554 -0.10431746 -0.0063744565
-4.117829 -2.843886 -1.0537114 -0.123364136 -4.2031727 -2.727126 -0.8358147 -0.17139332
-4.219798 -2.8068492 -1.0360882 -0.104705065 -4.135297 -2.8013196 -1.1394451 -0.26134753
-0.10726783 -0.107267834 -0.10726781 -0.009072958 -0.19378145 -0.19378148 -0.19378148 -0.016300708
-0.20172831 -0.20172836 -0.2017284 -0.0018774895 -0.112887055 -0.1128871 -0.11288711 -0.01568426
0.031313494 -0.045948394 -0.0459484 -0.011294225 -0.0011940133 -0.09002747 -0.09002746 -0.014115517
-0.006535469 -0.08233756 -0.08233757 -0.008736428 -0.016367361 -0.10583004 -0.105830014 -0.012820228
-0.13409607 -0.10398372 -0.103983715 -0.02094518 -0.12514998 -0.11054822 -0.11054823 -0.033952087
-0.05031243 -0.053457342 -0.053457327 -0.033249453 -0.13612196 -0.16596 -0.16596 -0.021788929
-0.20815615 -0.18086475 -0.18086477 -0.010343551 -0.1636891 -0.13733476 -0.13733476 -0.026405808
-0.19119978 -0.15760928 -0.15760928 -0.017165793 -0.17430064 -0.14763539 -0.14763537 -0.026791591
00000000: edc8 3dbf e2b5 5ebe 3cd8 98bd 38f4 e7ba
00000010: a851 3cbf d3dd 68be 2317 8dbd 8237 59bc
00000020: 9698 48bf 3979 75be 1840 e6bd 9bbf debb
00000030: a5d7 6dbf d10e a4be 64a4 d5bd d1e0 d0bb
00000040: 41c5 83c0 3a02 36c0 04e0 86bf 56a6 fcbd
00000050: 6480 86c0 3b89 2ec0 f4f7 55bf bb81 2fbe
00000060: 9608 87c0 6ba3 33c0 8a9e 84bf 9c6f d6bd
00000070: 5a54 84c0 d248 33c0 56d9 91bf 58cf 85be
00000080: 3caf dbbd 3daf dbbd 3aaf dbbd bea6 14bc
00000090: a56e 46be a76e 46be a76e 46be 1089 85bc
000000a0: de91 4ebe e191 4ebe e491 4ebe 1816 f6ba
000000b0: 5431 e7bd 5a31 e7bd 5b31 e7bd 477c 80bc
000000c0: 9442 003d 6234 3cbd 6434 3cbd 6a0b 39bc
000000d0: 7080 9cba 5260 b8bd 5160 b8bd c544 67bc
000000e0: 7d27 d6bb 98a0 a8bd 9aa0 a8bd 3c23 0fbc
000000f0: d814 86bc 6cbd d8bd 68bd d8bd ef0b 52bc
00000100: 7b50 09be 6bf5 d4bd 6af5 d4bd 3a95 abbc
00000110: 5127 00be 1b67 e2bd 1c67 e2bd 5811 0bbd
00000120: 6814 4ebd 16f6 5abd 12f6 5abd 9430 08bd
00000130: 8e63 0bbe 6bf1 29be 6bf1 29be b27e b2bc
00000140: e326 55be 9c34 39be 9d34 39be ff77 29bc
00000150: 1e9e 27be 7ca1 0cbe 7ca1 0cbe fe50 d8bc
00000160: e0c9 43be 5464 21be 5464 21be 479f 8cbc
00000170: de7b 32be bb2d 17be ba2d 17be 0a7a dbbc

exp_avg_sq f4 [1, 6, 4, 4]
7.794412 0.5086461 0.062342227 0.0010740395 6.4815764 0.34991652 0.019231198 0.0008617389
7.7840104 0.53620815 0.07480379 0.0018383898 7.4056287 0.580099 0.06491814 0.0014651917
99.796646 44.050583 11.091925 1.39237 102.03108 45.311447 11.707129 1.5894544
99.65462 44.082302 10.964922 1.3714347 99.2024 43.201447 10.751013 1.3408482
0.52422994 0.52422994 0.52423006 0.013974755 0.5053128 0.50531274 0.50531274 0.0129187545
0.47975537 0.47975537 0.47975537 0.012061274 0.50132746 0.50132746 0.5013274 0.014066127
0.15959238 0.12430231 0.1243023 0.008388471 0.14153472 0.107833795 0.107833795 0.0051428103
0.1551293 0.13140582 0.13140582 0.008810418 0.14977601 0.1253676 0.12536764 0.00923287
0.16305643 0.1159528 0.11595278 0.0034680357 0.17558514 0.11830367 0.118303664 0.0035708344
0.19769403 0.12691623 0.12691621 0.003423942 0.19351323 0.1285461 0.1285461 0.0040271324
0.15520869 0.14572692 0.14572693 0.00486762 0.16718985 0.15846956 0.15846953 0.0033055723
0.12868239 0.120138235 0.12013825 0.0022941316 0.14935291 0.14325319 0.1432532 0.0030648576
00000000: d36b f940 a136 023f 905a 7f3d c9c6 8c3a
00000010: 1369 cf40 4228 b33e bf8a 9d3c 52e6 613a
00000020: 9d16 f940 f044 093f bb32 993d 20f6 f03a
00000030: e9fa ec40 5e81 143f cdf3 843d ad0b c03a
00000040: e297 c742 cc33 3042 8678 3141 2e39 b23f
00000050: ea0f cc42 ec3e 3542 6650 3b41 3e73 cb3f
00000060: 2a4f c742 4754 3042 5270 2f41 2c8b af3f
00000070: a167 c642 48ce 2c42 2604 2c41 eaa0 ab3f
00000080: ef33 063f ef33 063f f133 063f 5ff6 643c
00000090: 2e5c 013f 2d5c 013f 2d5c 013f 2fa9 533c
000000a0: 7fa2 f53e 7fa2 f53e 7fa2 f53e a69c 453c
000000b0: ff56 003f ff56 003f fe56 003f 9d75 663c
000000c0: 2f6c 233e 3692 fe3d 3492 fe3d cc6f 093c
000000d0: 7aee 103e f7d7 dc3d f7d7 dc3d 0585 a83b
000000e0: 37da 1e3e 3f8f 063e 3f8f 063e 9259 103c
000000f0: e25e 193e 5d60 003e 6060 003e 7745 173c
00000100: 44f8 263e a978 ed3d a778 ed3d fc47 633b
00000110: 97cc 333e 3249 f23d 3149 f23d a904 6a3b
00000120: 4e70 4a3e 54f6 013e 53f6 013e 3764 603b
00000130: 5528 463e 97a1 033e 97a1 033e 09f6 833b
00000140: 07ef 1e3e 7039 153e 7139 153e 8e80 9f3b
00000150: d133 2b3e d845 223e d645 223e 4da2 583b
00000160: 51c5 033e 090b f63d 0b0b f63d 2459 163b
00000170: f8ef 183e f7b0 123e f8b0 123e c7db 483b

exp_avg f4 [76, 130]
0.0032510546 0.0032142631 0.0009100721 0.0030215073 0.0024481835 3.7607828e-05 -0.00054706226 -8.758415e-05
0.0014989184 0.0060064294 0.0015570882 -0.00038654826 -0.0029850053 -0.0006651473 -0.00057329703 -0.00051632174
0.0042274655 0.005784629 -0.002516682 0.007659681 -0.0005295156 -0.001095198 0.006514246 0.0015570245
0.0011926828 0.000988938 -0.000105150415 0.004744088 0.0012169044 0.00021351868 -0.0019319037 0.0009872129
0.0032076614 0.0030873865 0.005730319 0.0018336473 0.005170971 0.001953637 0.0013787757 -0.0020238701
0.0019762907 0.0016260467 0.005339406 -0.0015190555 0.0061888616 0.007133608 -0.0026545937 -0.0084921075
-0.0051834728 -0.0026271585 0.0034991843 0.015036094 0.017046608 0.0066323825 -0.0069199568 -0.0017022188
-0.0003579096 0.0021552998 0.0002508178 0.0040225745 0.0026696376 -0.005069543 -0.0058553973 -0.0046807295
-0.002896795 0.00065265823 0.0015433942 0.005938184 0.007515732 0.0026767517 -0.0028250744 -0.007709951
-0.004677478 -0.0017957886 0.009425247 0.00029261262 0.00041281295 -0.005023804 0.008696632 0.0010596893
-0.010824537 -0.0044257143 -0.006418135 0.006353898 0.0058062724 0.004354432 -0.0060060974 -0.0064684614
0.0013528123 -0.006914921 0.000995923 0.00044105045 0.0015795574 -0.0039916467 -0.0075318813 -0.014973362
-0.00045628904 0.003451575 0.001670168 -0.008043803 -0.008250149 -0.0065823123 -0.0026712776 0.0013455217
-0.00054635794 -0.003524003 -0.0043140985 -0.0027132712 -0.0012205786 -0.0013078372 -0.00086773105 -0.0007288422
0.00067399995 -0.0036512713 0.00043528434 -0.012022753 0.00051033084 0.00041910386 -0.00017130365 0.0061821872
-0.010514874 -0.006356601 -0.005703062 -0.00068169605 -0.0032296216 -0.0031857162 0.0005071662 -0.0010895269
-0.004082876 -0.0024326404 -0.0014300109 -0.0018358781 -0.0010765353 -0.0047189756 -0.0037813715 -0.007019694
-0.003223636 0.002708549 -0.0064233397 -0.007882039 -0.0021718028 -0.0025697707 0.0018858316 0.0012487026
-0.0053797266 -0.0040177824 -0.0023277428 -0.0037042869 1.7802771e-05 -0.0048753605 -0.0014556025 -0.0023107661
-0.006597952 -0.002112181 -0.00040993717 -0.0035388186 6.843651e-05 -0.0051982626 -0.0037719863 0.0013135799
-0.0024191772 -0.0015037323 -0.00016653512 -0.002275184 -0.0006200342 -4.769377e-05 -0.006380767 -0.007866605
-0.009627735 -0.00081800023 0.006863027 0.0023742195 -0.006600297 -0.0025187063 -0.007248964 -0.016950455
-0.007547905 -0.001675409 0.00046668583 -0.00065314735 0.0001269858 -0.0069973613 -0.02254254 -0.017481955
-0.0044779363 -0.0058031 -0.0019858368 -0.003098552 -0.0036762469 0.0013985815 0.0021692321 -0.007564539
-0.0034140854 -0.004610614 -0.0023878303 -0.0033767093 -0.0012513674 -0.0036616137 -0.015254574 -0.012756608
-0.012253323 -0.008868781 -0.006839587 -0.0032546823 -0.016760372 -0.0031061354 -0.0034466016 -0.0023645253
-0.00881952 -0.01588231 -0.008164564 -0.00016706692 0.0013322172 -0.008063553 -0.008778669 -0.01367024
-0.009732318 -0.010906229 0.0020017696 0.00031697832 4.795467e-05 -0.0027251784 0.003277472 0.0012815481
0.00781342 0.0072584776 0.00315247 0.0012130439 -0.006350364 -0.0025196676 0.0046770005 0.0025544541
0.0049178866 0.0073214574 0.008846458 -0.0026582975 0.008174558 0.005425506 -0.0055500856 -0.0024192499
-0.0026524689 -0.0057029873 0.0051354114 0.0036540192 -3.659816e-05 -0.0010920827 0.00033558306 0.0066354084
0.0023207471 0.00075532676 0.0018589211 -0.0011464789 -0.0031759583 -0.0005077098 -0.008547963 -0.005208113
00000000: a50f 553b 63a6 523b e891 6e3a 7b04 463b
00000010: b471 203b 19bd 1d38 ba68 0fba 62ad b7b8
00000020: 5b77 c43a 95d1 c43b 3617 cc3a a1a9 cab9
00000030: 14a0 43bb 485d 2eba 5049 16ba c459 07ba
00000040: 8d86 8a3b fc8c bd3b ebee 24bb 10fe fa3b
00000050: 31cf 0aba bf8c 8fba 7575 d53b 1315 cc3a
00000060: cb53 9c3a 419f 813a 3384 dcb8 4b74 9b3b
00000070: 8980 9f3a fce3 5f39 ee37 fdba 5e65 813a
00000080: a137 523b c055 4a3b 66c5 bb3b fe56 f03a
00000090: 4071 a93b 9708 003b 09b8 b43a e8a2 04bb
000000a0: a884 013b 1321 d53a 2ff6 ae3b 0b1b c7ba
000000b0: efcb ca3b 0bc1 e93b b1f8 2dbb 7b22 0bbc
000000c0: 1fda a9bb 682c 2cbb 9252 653b f359 763c
000000d0: 54a5 8b3c 7554 d93b cec0 e2bb fc1c dfba
000000e0: d0a5 bbb9 ee3f 0d3b 3280 8339 cdcf 833b
000000f0: 16f5 2e3b 691e a6bb a2de bfbb ce60 99bb
00000100: 28d8 3dbb 2717 2b3a b74b ca3a 1995 c23b
00000110: 8846 f63b 716c 2f3b e224 39bb c2a3 fcbb
00000120: 8845 99bb ab60 ebba 5a6c 1a3c cd69 9939
00000130: d16e d839 b99e a4bb 527c 0e3c 46e5 8a3a
00000140: 6659 31bc 9505 91bb 384f d2bb 5c34 d03b
00000150: 8b42 be3b a0af 8e3b ccce c4bb 63f5 d3bb
00000160: d950 b13a 9096 e2bb a189 823a ca3c e739
00000170: 2709 cf3a 5ccc 82bb 00ce f6bb d552 75bc
00000180: 143a efb9 d233 623b 8ae9 da3a 28ca 03bc
00000190: a22b 07bc 70b0 d7bb 9a10 2fbb 375c b03a
000001a0: 7639 0fba f6f2 66bb 485d 8dbb 23d1 31bb
000001b0: d2fb 9fba bc6b abba 7278 63ba c60f 3fba
000001c0: 5faf 303a 2b4a 6fbb e036 e439 15fb 44bc
000001d0: b9c7 053a 2bbb db39 f99f 33b9 f293 ca3b
000001e0: 9446 2cbc 094b d0bb c0e0 babb d9b3 32ba
000001f0: 0fa8 53bb 73c7 50bb 59f3 043a 75ce 8eba
00000200: a5c9 85bb ef6c 1fbb 346f bbba d9a1 f0ba
00000210: 881a 8dba a3a1 9abb e3d0 77bb 7605 e6bb
00000220: a343 53bb e981 313b e17a d2bb ab23 01bc
00000230: ce54 0ebb 9969 28bb 022e f73a 82ab a33a
00000240: 6b48 b0bb 9aa7 83bb 0b8d 18bb 9fc3 72bb
00000250: 2957 9537 7dc1 9fbb eac9 beba 3970 17bb
00000260: a233 d8bb 846c 0abb d6ec d6b9 86eb 67bb
00000270: 9285 8f38 3056 aabb 6e33 77bb 6d2c ac3a
00000280: 0f8b 1ebb e218 c5ba ee9f 2eb9 411b 15bb
00000290: ca89 22ba cc0a 48b8 c115 d1bb efe2 00bc
000002a0: a6bd 1dbc 116f 56ba 3ee3 e03b cb98 1b3b
000002b0: 4e47 d8bb e110 25bb b888 edbb aedb 8abc
000002c0: 6b54 f7bb 6699 dbba 83ad f439 fa37 2bba
000002d0: 7e27 0539 1f4a e5bb 22ab b8bc 5136 8fbc
000002e0: a7bb 92bb ee27 bebb d024 02bb 1411 4bbb
000002f0: 30ed 70bb 9c50 b73a ad29 0e3b f4df f7bb
00000300: d9be 5fbb a214 97bb 257d 1cbb c84b 5dbb
00000310: ec04 a4ba aff7 6fbb 52ee 79bc 1801 51bc
00000320: 29c2 48bc 5d4e 11bc 9d1e e0bb 824c 55bb
00000330: 0c4d 89bc 4e90 4bbb 61e0 61bb 27f6 1abb
00000340: bf7f 10bc 9e1b 82bc aac4 05bc af2e 2fb9
00000350: cb9d ae3a fe1c 04bc 68d4 0fbc 24f9 5fbc
00000360: 4d74 1fbc 0ab0 32bc 1f30 033b 1c30 a639
00000370: ef22 4938 e898 32bb dbca 563b 9ef9 a73a
00000380: dc03 003c 86d8 ed3b ac99 4e3b 00ff 9e3a
00000390: b716 d0bb 0221 25bb 8641 993b a168 273b
000003a0: 3926 a13b d6e8 ef3b bcf0 103c d536 2ebb
000003b0: 95ee 053c 71c8 b13b 7edd b5bb 478c 1ebb
000003c0: 0bd5 2dbb 20e0 babb f446 a83b 4578 6f3b
000003d0: fa80 19b8 3724 8fba 32f1 af39 d76d d93b
000003e0: ad17 183b 1f01 463a 0ba7 f33a 7345 96ba
000003f0: bd23 50bb d417 05ba c10c 0cbc d2a8 aabb
