TrainedModel/Dueling DQN-2/7500_0-15_DuelingDQN.pth (torch, 291221 bytes, 33 tensors)

conv1.weight f4 [1, 6, 1, 4]
00000000: 9de7 cdbc 83c3 5c3e 8f0b c13e eaab 073e
00000010: e9d2 95be edcc 00bf 5b75 653c ea2d 4a3e
00000020: b619 14bd 59ec a53e 2eda a3be bf1a 013e
00000030: a93f 113e 54e7 0c3e 982a 41be 5fc2 1d3c
00000040: 7400 093e 7ff0 d4be 62a2 953e fdb9 4a3e
00000050: 0cc7 37be d06d 3f3d 8403 b53d 3ca6 ccbe
-0.025134856 0.21558957 0.3770413 0.13249174 -0.29262474 -0.5031269 0.0140050305 0.19744077
-0.036157332 0.3240688 -0.32002395 0.12607859 0.1418444 0.1376012 -0.18863904 0.009628861
0.13379079 -0.41589734 0.2922545 0.19797511 -0.17947024 0.046735585 0.08838561 -0.39970577

conv2.weight f4 [1, 6, 2, 4]
00000000: d030 043f 834d 51be 35f9 a4be 2b26 8f3e
00000010: 0060 6c3f 1d3d aebe d6f5 ddbc 3135 ac3e
00000020: 9ffe 81bd ab07 bc3c 12d3 4abc f221 f4bb
00000030: 86e5 ee3c 8694 d7bd 8b03 1abe c1c9 33bd
00000040: ff07 793e 133d edbc ff9a 63be 0711 de3e
00000050: 0501 47be 30f8 c2bd 0cc9 2c3c 335d e63e
00000060: e34d 0a3e aa43 ba3d af2f a2bd d69a af3c
00000070: 34b2 c63d 5cd6 5cbe 0501 133d c92e b0be
00000080: 393b 79be 0fc4 d23e 1d8f 43be e1cd 89be
00000090: 4afc b63c f6e1 913d 2365 c3bd 694d 55bd
000000a0: 5070 2b3c 9312 66be e602 e83d bde4 f13d
000000b0: ad9f 9c3d 7da1 c4bd 66d8 c93d 7fb4 e03e
0.5163698 -0.20439725 -0.3222138 0.27958807 0.92333984 -0.34031 -0.027094763 0.33634332
-0.06347393 0.022952875 -0.012379425 -0.0074503357 0.02916218 -0.105263755 -0.15040414 -0.04389358
0.24319457 -0.028959787 -0.22227095 0.43372366 -0.19433983 -0.09519994 0.01054598 0.4499298
0.13506274 0.09094937 -0.07919251 0.021436136 0.09701958 -0.21566147 0.035889644 -0.34410694
-0.24338998 0.41165206 -0.19097562 -0.26914886 0.022337098 0.07123177 -0.09540775 -0.052075777
0.010463789 -0.22468023 0.11328678 0.118112065 0.07647643 -0.09601114 0.09855728 0.43887708

conv3.weight f4 [1, 6, 3, 4]
00000000: 1312 163f 482c a53d 5b21 01be 9bd9 1e3f
00000010: 685f 963e 4ee4 983e 30f5 06be 2461 cc3e
00000020: ced1 e63e 660e 403f e245 9d3e f020 e93e
00000030: 508e 413e 50fd 573e 6b0c 293e d88c ae3d
00000040: f10a c53c 8fad 8a3d 8ea8 9b3d 5d06 893e
00000050: 62df 2f3c a043 1e3e e654 c73d 7b69 993e
00000060: 6f65 4cbd b549 b4be 2a65 86be 271d 473f
00000070: d18c d7bd d984 8e3d 235b 0cbe c18a 0f3f
00000080: 8df7 f63c c5b0 e73c 1d71 f3bd 85c3 a03e
00000090: 5f6c a93d fa65 84bc 64d3 21bd 759f c2bd
000000a0: 58e7 ec3d a5b8 bc3d 23ae a9bd 80a5 b3be
000000b0: a026 a1be e9c5 14bd 7f62 243e 888c 0c3e
000000c0: 86fc 0ebe ed0b 033e 1a88 47bd 8cb6 e53d
000000d0: 5240 9dbd a557 54be e7d3 023e 4f8c 653d
000000e0: c171 313d 60fd 4c3e c9ea 19be e72d 4cbc
000000f0: 1b77 c3bd 7965 5dbe c593 8bbd ca9f 68be
00000100: 2fec 783d 972f 5b3e 54eb 5abd 090a 0ebe
00000110: e542 1abe 65e3 c4bc e02b 23be 5e8e 5abe
0.5862133 0.080650866 -0.1261038 0.6205079 0.29369664 0.29861683 -0.13179469 0.39917862
0.45081943 0.7502197 0.3071738 0.45532942 0.18901944 0.21092725 0.16508643 0.085229576
0.024053069 0.06771385 0.07600509 0.26762667 0.010734411 0.15455484 0.0973299 0.29963288
-0.049901422 -0.35212484 -0.26249057 0.7777886 -0.105249055 0.069589324 -0.13706641 0.56071097
0.030147338 0.028282532 -0.11886809 0.3139917 0.08272623 -0.016161907 -0.03950824 -0.0950307
0.11567563 0.09214906 -0.08285167 -0.35087204 -0.3147478 -0.036321554 0.16053198 0.13725483
-0.13963518 0.12797518 -0.04871378 0.11216459 -0.07678284 -0.20736559 0.12776147 0.05604201
0.043321375 0.2001853 -0.1503097 -0.012462116 -0.09544202 -0.2162074 -0.06815294 -0.22717205
0.060772117 0.21404873 -0.053447083 -0.13871016 -0.1506458 -0.024034211 -0.15934706 -0.21343371

conv4.weight f4 [1, 6, 4, 4]
00000000: d505 fa3d 098d 5fbe 542f 51be 3321 e8bc
00000010: 3807 61be 53cb 72bd 68fc 85be 8499 963e
00000020: 3a5b c4bd e576 75be f858 adbd e97f 05be
00000030: 1dd8 063e d1c6 4a3d 8ae5 53bd 5c79 873d
00000040: 1ec0 4c3e cad8 28bd a729 27be c540 8dbe
00000050: 11e1 913e 9beb 383e bd31 d3bc 611f eabd
00000060: 8992 99bd 5e84 27be dd52 f2bd 10ba e4bd
00000070: 0014 6e3d ff10 323e 160d 10be b06d 34be
00000080: 5246 f1bb 3767 823e f998 733e 20ce 26be
00000090: ac88 343e 97cc 0d3e a036 133e 15a4 8abe
000000a0: c084 2f3d 5ed0 3c3d bf61 043e 4ee3 42bd
000000b0: 06bf e03c b954 9c3e 0665 61bd ecc4 013e
000000c0: 7581 05be 05e1 303e 8947 29be 8fb7 47be
000000d0: 6daa c8bd 6a7c 523e 0f49 833e a1e4 0c3e
000000e0: 320d 9abe edce 0bbe 33f9 1d3e 92bb 263e
000000f0: 170e 083d b1f2 f93a 5719 d73d c15c 6b3d
00000100: 997d bbbd 5060 183e 438b a4ba cd0a aebe
00000110: 5de6 083e 44c5 99bd 4eea 003e 9d43 543d
00000120: 1f5c 87bd 9d60 833d 2b4d 783e 3477 cc3c
00000130: db04 92be 307a 483e e04b 223e 8141 96bd
00000140: 2d50 803e 2f64 53be 2068 5fbe 1c76 6c3e
00000150: c5e6 2f3d a099 853d 7e66 6dbd 03cd b43d
00000160: e04f 143d a746 923e 644f 89bd eaa0 b23e
00000170: 7cd5 12bc a6b3 d3bc 1ac2 d23d bb6b be3c
0.122081436 -0.21831144 -0.2042821 -0.028336143 -0.2197541 -0.059275936 -0.26169133 0.29413998
-0.095877126 -0.23971136 -0.08464235 -0.13037075 0.13168378 0.049506012 -0.051732577 0.06614944
0.19995162 -0.04122237 -0.16324483 -0.27588478 0.28492025 0.18058626 -0.025780553 -0.11431766
-0.074986525 -0.16359088 -0.11832211 -0.11168301 0.058124542 0.17389296 -0.14067492 -0.17619967
-0.007363119 0.25469372 0.23788823 -0.16289568 0.17630261 0.13847576 0.14376307 -0.2707831
0.04285121 0.046097152 0.12927912 -0.047580056 0.027434837 0.30533388 -0.055027984 0.12672776
-0.13037665 0.17273338 -0.16531195 -0.19503616 -0.09798131 0.20555273 0.25641677 0.1375909
-0.30088192 -0.13653155 0.15427093 0.1628249 0.033216562 0.001906952 0.1050288 0.057461504
-0.09154815 0.1488049 -0.001255371 -0.33992615 0.13369127 -0.075083286 0.1258938 0.051822294
-0.066093676 0.06414912 0.24248187 0.024959184 -0.2851933 0.19577861 0.15849257 -0.07336713
0.2506117 -0.20643686 -0.21817064 0.2309193 0.04294469 0.06523442 -0.057959072 0.088281654
0.036208987 0.28569528 -0.06704596 0.34888393 -0.008962031 -0.025842499 0.10290928 0.02324473

fc3_adv.weight f4 [76, 130]
00000000: 15fb 34be 159b c33e 20d6 99bc df0d 523d
00000010: d572 cc3d efd7 0f3c 0e54 013f c5cf 6a3e
00000020: f391 b73e abc7 7f3e da59 863e 5524 8d3e
00000030: 82eb 3cbd 0a14 9f3e ea4b ac3e 20a6 f43e
00000040: f131 bf3e b101 713e 6a16 013f 3434 b23e
00000050: 7584 373f 6553 853e b5ef 4e3e 9d26 5f3e
00000060: 4735 da3c 9c29 ca3e f956 ba3e 31c8 1c3d
00000070: a8f3 413e 7d93 05bb 0842 f03e 5b9e 6ebd
00000080: 2d10 e93c cff3 9a3e 9bc2 e0bd 2455 823c
00000090: 39ac 18be 2fb5 303e c52b 5cbc a7c8 17be
000000a0: 9ecd d63d 2dcc 0cbe fdd3 fe3b d807 493e
000000b0: 8990 8c3d 0c37 50bd efed 14be 486b a0bd
000000c0: d1e8 a93e 8ebf a93e 4df5 cabd 23ab 30be
000000d0: 07f1 83bd 8f0c be3e 701a d83c 7184 52be
000000e0: 7686 70bd b542 653e 06f8 a93d 4479 ae3d
000000f0: 1203 be3d dd4d 643d d019 04be 4e5b 11be
00000100: 9dcd fa3d 9369 4c3d d400 cf3d 4f63 9abe
00000110: 2dd1 bfba 50d6 4c3e cecd 11be 555b 873c
00000120: c227 343c c9dc 26bd e5a8 6a3b 9d8c f8bd
00000130: 2060 373e 6489 92bd b968 b7be 2f9f 6bbe
00000140: 853e 603e 8c2c 0fbe d674 0a3e 49b6 b1bd
00000150: 0f08 aabd 707a b03d 1e98 e7bc 8f90 6ebe
00000160: 0078 1fbe 02b2 acbd dab1 6b3e ce45 8a3d
00000170: b039 a4bb d9c1 2abe 9595 d5bd 9139 8c3d
00000180: bd9a 83bd bb9e 20bd a3fc 5dbe dca7 583e
00000190: 8eaa 4c3e 7db9 9b3d 7da0 b63e b6ce 983e
000001a0: 51be 413e 3192 063e 6d24 493e bbf7 0a3e
000001b0: 344d 383e 28c9 eabc 555c b33d befc ab3e
000001c0: ac19 433e 1f60 bc3d 5a1e 953e e9f8 db3d
000001d0: 624f 4a3e af9f 253e 9d80 9c3d e662 a43e
000001e0: 9eed b03e 2e88 c83d 48b5 333e 4e8a 1e3e
000001f0: 531c aa3d 5480 663e 13b0 373e a70a 12bc
00000200: dee6 a53e 2aeb 5a3e 417c 01bb 2fa9 8c3e
00000210: 4433 fd3d 716b 8b3d b906 223e 8791 0e3e
00000220: 3b66 c43d f122 793e 2107 52be 5a4f 563e
00000230: 3588 473e 6255 183f f518 133f 86ff 503e
00000240: f8c8 563e 1ed9 be3d 954a be3d e4cb a13e
00000250: c234 663d 8520 09bd b6f0 41be 6099 76be
00000260: a68c cebe 240c c4be d5db ebbe 5a38 4abe
00000270: 06fe c33d 44cd 633e 887c 5c3e f289 ec3d
00000280: e1f6 7bbd 53af 5c3e 8c79 b1bc 33c5 8f3e
00000290: 7b60 01bd a08c 393e 97d4 563e fe22 a03e
000002a0: 146a 373e a224 a2bd 5bdd 62be ce9d ac3d
000002b0: 471d 5d3d 064a a13d 7826 7c3d 54fe 3b3e
000002c0: 1877 493c 2113 ae3e f85d 1b3e 8569 9c3e
000002d0: c78b 2a3d 2517 30be 1336 ebbd 748f 983e
000002e0: ef94 503e 0087 4abd bcca 10be 6d04 9fbe
000002f0: 1766 bfbd df3e a5bd 73c8 84bd 4052 ed3d
00000300: f42a 50be 6da2 3abd d758 12be 6d00 83bd
00000310: bb68 85bc c9d0 bfbd 1676 133e ffaf 183d
00000320: 50d0 2fbe b222 5a3c e840 42be 725d a9be
00000330: 0bed 06bd f908 643d 871b 4c3e d419 483d
00000340: ed88 b83d b96c aa3d 696e 403e 3cd7 23bc
00000350: b6c6 a9bd a66d c4bd 0404 5cbe fe55 d0bd
00000360: bb60 57be 517f 0bbd 65bd b9bc a4fe 17be
00000370: cdc3 6ebe e51f 8f3d fdf3 0abd 4e6f e8bd
00000380: 8605 443e eb81 e5bd 5610 043e 890f 8d3d
00000390: 7dd9 1ebd 976b 9f3e 97e9 7f3e f31b 1d3e
000003a0: dae6 983c 747e 2c3d c73b 7b3e 9d28 203e
000003b0: 350d 0e3b 9bdc eb3d b12b b43c 5b16 0b3d
000003c0: 38ca 5a3e d697 4b3c 085c 48bc 87ad af3e
000003d0: 77a6 e23d e527 89bd a912 903e 4a06 7a3e
000003e0: 5d29 433e e258 883c 7e54 4abd aa19 d43c
000003f0: 517a 1abd 49c9 69bd 2bfc 173e 8653 bd3d
-0.17673905 0.38204256 -0.01877886 0.05128276 0.0998284 0.00877951 0.5051888 0.2293082
0.35853538 0.24978511 0.26240426 0.27566782 -0.046123035 0.31069976 0.33651668 0.47782993
0.3734279 0.23535801 0.50424826 0.34805453 0.7168649 0.26040187 0.20208628 0.21792074
0.026636733 0.3948487 0.3639448 0.038276855 0.18940604 -0.00203821 0.46925378 -0.05825649
0.028450096 0.30264136 -0.10974618 0.015909739 -0.14909448 0.17256616 -0.01343817 -0.14822637
0.10488437 -0.13749762 0.007776736 0.19631898 0.068635054 -0.050833747 -0.1454389 -0.07832962
0.33185437 0.33153957 -0.09910069 -0.17252783 -0.06442457 0.37118956 0.026379794 -0.20558335
-0.058721982 0.22388728 0.0829926 0.08519223 0.09277929 0.05573832 -0.12900472 -0.14194986
0.12246249 0.04990537 0.1010758 -0.3015389 -0.0014634483 0.20003629 -0.14238665 0.016523043
0.010995807 -0.0407379 0.0035806235 -0.12136195 0.17907763 -0.071551114 -0.35822085 -0.23009942
0.2189885 -0.13981837 0.13521132 -0.08677346 -0.08302318 0.08617103 -0.028270777 -0.23297332
-0.1557312 -0.0843239 0.23017064 0.067515954 -0.0050117597 -0.1667551 -0.10428921 0.068469174
-0.06425998 -0.039213877 -0.21678405 0.21157783 0.19986936 0.076037385 0.35669318 0.29845208
0.18920256 0.13141705 0.19642802 0.13571064 0.179982 -0.028660372 0.08757845 0.33591264
0.19052762 0.09198021 0.2912472 0.10740835 0.19756845 0.16174196 0.076417185 0.32106704
0.34556288 0.09791599 0.17549622 0.15482447 0.08306184 0.22509891 0.1793826 -0.0089136725
0.324027 0.2137877 -0.00197579 0.27472827 0.12363294 0.06807602 0.15822877 0.13922702
0.095898114 0.24329735 -0.20510532 0.20928708 0.19485553 0.59505284 0.57459956 0.20409974
0.20975101 0.093187556 0.09291569 0.3160087 0.056202658 -0.03347828 -0.1893948 -0.24081945
-0.4034168 -0.38290513 -0.46066156 -0.19748059 0.095699355 0.22246271 0.2153188 0.115497485
-0.06151474 0.21551256 -0.021664403 0.2808014 -0.03158615 0.1812005 0.20979534 0.31276697
0.1791156 -0.079171434 -0.22154753 0.08428536 0.053983 0.07875447 0.061560124 0.18358737
0.012296461 0.3399897 0.15172565 0.30549255 0.04163721 -0.17196329 -0.11484923 0.29796946
0.20369314 -0.049445152 -0.14139837 -0.31058064 -0.09345644 -0.08068632 -0.06483545 0.115879536
-0.20328885 -0.045565058 -0.14291702 -0.063965656 -0.016285291 -0.093659945 0.14400515 0.037277218
-0.17169309 0.013313936 -0.18970072 -0.33079106 -0.032940906 0.05567262 0.19932376 0.048852757
0.090104915 0.083215185 0.18792118 -0.010000046 -0.08289854 -0.09591226 -0.21485907 -0.10172652
-0.21032993 -0.034056965 -0.022673318 -0.14843231 -0.2331688 0.06988505 -0.03392409 -0.11349355
0.19142732 -0.112064205 0.12896857 0.06887729 -0.03878163 0.31136772 0.24991451 0.15342693
0.018664766 0.042112783 0.24534522 0.15640493 0.0021675352 0.115166865 0.02199349 0.033956867
0.21366203 0.012426337 -0.012228973 0.34312078 0.11066907 -0.066970624 0.28139237 0.24416462
0.19058748 0.016643945 -0.049396984 0.025891144 -0.037714306 -0.057076726 0.14842288 0.092444465

fc3_adv.bias f4 [76]
00000000: 17fe 083e 3606 ec3d a1cd da3d 27f7 9cbd
00000010: a4d8 5cbc 6e98 46be 52e1 38bc 5067 65bd
00000020: c6b3 693e 631d 1d3e 6beb 18be 781d 5cbe
00000030: be9f 873e db66 70bc f72b 833e 9836 3c3e
00000040: 65dc ba3e ba5b d93d 0014 463e 9edc eb3d
00000050: 5597 903c d95a 6cbc bdc8 403e 54dd 86bd
00000060: af55 aabd 7776 8dbd 232d 1abe cfa5 623e
00000070: 4cdd 8abd a3ae 293e c367 493e 2839 993d
00000080: 319e 01be ccd4 883d fe6a 373d c56f 383e
00000090: 9b8f 123e f98a 93be 0cb3 9c3c a777 703d
000000a0: 61a5 b43e b9e5 2f3d fd85 f2bd 8098 4c3e
000000b0: 6e4e 823c a34a 073e 16ef 373e 9438 5d3e
000000c0: b1ca 1f3e 3f1e 013e 093e aebc 905d 913d
000000d0: 90fb 393e 79c6 9fbc a1e3 f93d 9a40 b23d
000000e0: 0030 6cbd 1ff7 0bbe ea37 2c3e cf98 313e
000000f0: 276f e63c e5ca 933e e302 163e bb71 833d
00000100: 58bd 1a3e 61f4 23bd f754 733e e04e 963d
00000110: 88a6 4b3d bd2f 4e3d fc85 25bc 516f 283e
00000120: 23be 963d 6c9b 663e 6c38 423e c59e ad3e
0.13378178 0.11524622 0.10683752 -0.07664328 -0.0134793855 -0.19394085 -0.011284189 -0.05600673
0.22822484 0.15343241 -0.14933555 -0.21495616 0.2648906 -0.01467296 0.2561948 0.18380201
0.36496273 0.106131986 0.19343567 0.11516689 0.017650286 -0.014425957 0.18826576 -0.06585184
-0.08317124 -0.06907361 -0.15056281 0.22133563 -0.0678049 0.16570525 0.19668488 0.07481605
-0.12658001 0.06681213 0.04477977 0.18011387 0.14312594 -0.28816965 0.019128345 0.05870786
0.35282424 0.04294369 -0.118419625 0.19980049 0.015906539 0.13212065 0.17962298 0.21603614
0.15604664 0.12609194 -0.021269815 0.07097924 0.1816237 -0.019503819 0.1220162 0.08703728
-0.057662964 -0.13668488 0.16818205 0.17343448 0.028129173 0.28865734 0.14649539 0.06418177
0.15111291 -0.04002798 0.2376288 0.07339263 0.049719363 0.050338496 -0.010102745 0.16448714
0.073604845 0.22520226 0.18966836 0.33910194

fc3_val.weight f4 [76, 130]
00000000: 3dc5 d83d b4e9 0ebe 97c7 31bc a6af a1bc
00000010: 4721 3abd 1ab3 ccbc 7016 0cbe 4604 5abe
00000020: 5bec e33d ea0e 3ebd c220 bb3d 896e 223d
00000030: ca61 33bc a86a e33d c393 35bd 07f0 35be
00000040: 523c 4d3c 27a8 3e3e bb69 a3bd 286c 29be
00000050: 7cc0 073d 499d 5ebe b6f0 2fbe d3ea 6a3c
00000060: 9b81 4abe e209 5fbd 3dde 783c 8d73 ecbd
00000070: d7e2 073c 0162 9f3c 085b b33c 5ab2 24bc
00000080: 1633 883e 5bef 00be 497b 1dbe fad1 15bd
00000090: bb2f 763c 2218 843e a9da 17bd 1d08 953e
000000a0: 9b17 223e c7bd aebc 3c51 843e e84f 013e
000000b0: 03ad aa3e dfa7 213e 5839 863e 5b67 b73d
000000c0: 40d8 7b3e abac 253e 16a9 833e 1e42 8e3d
000000d0: 4e89 503e e28d 313e b4a3 ae3d 88fd 193e
000000e0: 918c 0a3c f424 983c 1b6e b63c e0f2 1d3b
000000f0: cd71 0b3e dbad b2bd d38e 9dbd c617 543e
00000100: 3251 debd 768d 873d c932 7bbd efc2 2fbe
00000110: 2daf b8bd d2c4 21bd c8c6 8d3d fb65 9d3c
00000120: fdcc 443e 7901 31bd 1209 49bd 132e ef3d
00000130: 464c 91bd 39e1 d33d c7c9 423d 1c65 32bc
00000140: 8c59 95bd 00f8 a1bc 0d9d c63d 4537 09be
00000150: 1672 b43d 8935 4c3e 9dd9 95ba 9e42 323d
00000160: bc38 a4bd eafc 103d d28b 2abe 9296 edbd
00000170: 22a1 28bd 82a7 9abc 60f5 453d 8af4 18bd
00000180: de08 ddbd 50ec 763e 844b 613e ff4c 65be
00000190: c9aa e2bd 6058 10be bd3e 39be 891a 903d
000001a0: 156e ccbd 883e 94bd 101f 083e f589 633e
000001b0: cdf1 4e3c e08e 09be 0a1b 9fbd 48b4 4a3e
000001c0: e290 533e 53d4 0b3d d958 bb3d ca5d bfbd
000001d0: f168 9ebd c7d8 71be 1130 a03d 077d 1f3d
000001e0: f983 183d 61bc e2bd ec27 16be 72e1 26be
000001f0: 5a32 21be e618 20bd bac1 213e e045 a3bc
00000200: aa20 0b3e 5246 a7bd 31c4 473e 39f6 a93e
00000210: ee4a 1a3e dd97 113e 8ad2 643e cb9a 6c3e
00000220: 82d2 a43e d514 8a3e 3fc1 7d3e 154c c83d
00000230: 8e98 e83d 274f 583e cee7 a63e 9c11 853e
00000240: b453 853e 7b63 ad3d bc4c af3e cef6 6e3e
00000250: b738 103e fbb3 9c3e bb16 9b3d c058 ce3e
00000260: ab44 a73e 90a1 a73d 6673 033e 722c be3d
00000270: e140 a93e 851e 593e 43cd b53e 8429 b43d
00000280: 040a 833d 4374 253e 2d2f cf3c 800c ce3e
00000290: 8573 a03d 5afc 673e 8e20 ce3d 5c99 df3d
000002a0: 0ad0 e03d bc71 253e 58b1 a23e 516a e73d
000002b0: 726f 263e 806f f03d d956 48bd 5afe 853e
000002c0: 23db 653e 6508 383e 3525 eb3d 814b 613c
000002d0: 541a 5d3e 4c8c 9abd 6c1b 2fbd 8dcc 6f3e
000002e0: af19 873c d2d8 b03d e565 333e a9ca f63c
000002f0: 758c 1b3e 599e 503e 3319 653c 5247 813e
00000300: a49b af3e 7a86 273e b392 ae3e d402 8d3d
00000310: 8eb6 b83d 4db6 143e de5d 3a3e 6c4d 42bb
00000320: 0357 4e3e 7530 8e3e 5754 5d3d 1f9a 6e3e
00000330: 36ce c4bc 8444 8ebd 922b 2ebd 6e58 513e
00000340: 91e3 673e b6d8 b53d df41 2f3e 9d34 5b3e
00000350: 11db 953d 1392 9dbd 98b3 cc3c b3b8 833e
00000360: e6dd fb3b 5f62 b53d 1402 6d3e 1c11 7a3e
00000370: f0aa 6f3e 5fae 01bd 8910 bbbd 421f 80bb
00000380: 0c6b 3c3e 30ab d13d 1b92 773d f109 ed3d
00000390: 5aa3 03bd 5160 b5bc 6082 3b3e f06d bc3d
000003a0: b5ff af3d a678 083e a3de d53d 9a00 453e
000003b0: 1bf6 b83d b52f 9e3d 1bfb 8d3e 47c7 da3d
000003c0: 7147 86bb 7bea 473e 22a2 503e aab5 883e
000003d0: f15e 683e c24d 80bd 1f64 2a3e a483 8c3e
000003e0: cc11 b83c 2eb7 79bd 37ae 433e 470d ee3d
000003f0: ab4e 653d 16f8 8d3e ba4a 953e 2fe7 1c3e
0.10584495 -0.13956338 -0.010850809 -0.019737076 -0.045441892 -0.024987746 -0.13680434 -0.21290693
0.111290656 -0.046400942 0.091371074 0.039656196 -0.010948608 0.111043274 -0.04433037 -0.17767344
0.0125265885 0.18618833 -0.07979151 -0.16545165 0.03314255 -0.21739687 -0.17181668 0.014338213
-0.19776003 -0.054452784 0.0151897045 -0.11545477 0.008293829 0.019455912 0.021893993 -0.010052288
0.26601475 -0.12591307 -0.15379061 -0.036577202 0.015026028 0.25799662 -0.037073765 0.29107752
0.15829317 -0.021330727 0.25843227 0.12628138 0.33335122 0.15786694 0.26215625 0.0895526
0.24594212 0.16179149 0.2571494 0.069462046 0.20364878 0.1733928 0.08527318 0.15038121
0.008456365 0.018572308 0.0222693 0.0024101064 0.1361763 -0.087245665 -0.07693257 0.20712194
-0.108553305 0.066187784 -0.06132773 -0.17164205 -0.09017787 -0.039494343 0.0692268 0.019213667
0.19218822 -0.043214295 -0.049080916 0.1167871 -0.07094626 0.10345692 0.04755571 -0.010888364
-0.0729247 -0.019771576 0.09697924 -0.1339999 0.08810823 0.19942297 -0.0011432652 0.043520562
-0.08018634 0.035397448 -0.166549 -0.11600985 -0.041169293 -0.018878702 0.04832971 -0.037342586
-0.10792707 0.24113584 0.22001463 -0.22392653 -0.11067731 -0.14096212 -0.18090339 0.07036311
-0.09981934 -0.072384894 0.132931 0.22220595 0.012630892 -0.13433409 -0.07768829 0.19795334
0.20660737 0.034138035 0.09147806 -0.09344061 -0.0773486 -0.2361785 0.07821668 0.038937595
0.037235234 -0.11071087 -0.14663666 -0.16296938 -0.15741864 -0.039086245 0.15796557 -0.01993078
0.13586679 -0.081677094 0.19508435 0.33195665 0.15067646 0.14218087 0.2234594 0.23105924
0.32191855 0.2696902 0.24780749 0.097801365 0.113572225 0.21123944 0.32598728 0.25989997
0.26040423 0.0846624 0.3423823 0.23336336 0.14084135 0.30606064 0.07572695 0.40302086
0.32669577 0.081851125 0.1283699 0.09285821 0.3305731 0.21203049 0.35508165 0.08796981
0.06398395 0.16157632 0.02529105 0.40243912 0.078345336 0.22654858 0.10064803 0.10917923
0.1097718 0.16156667 0.31775928 0.11299575 0.1625345 0.11740017 -0.04891095 0.26170617
0.22446875 0.17971952 0.11481706 0.013750912 0.21592075 -0.07546291 -0.04275076 0.23417874
0.01649174 0.08635105 0.17519338 0.030125933 0.15190299 0.20372905 0.013983059 0.25249726
0.34298432 0.16359892 0.34096298 0.06885305 0.090191945 0.14522667 0.1819987 -0.0029648198
0.2015038 0.27771345 0.05403551 0.2330098 -0.02402411 -0.06946662 -0.04252202 0.2044389
0.22645403 0.08879225 0.17114972 0.21406789 0.07317174 -0.07693877 0.02498798 0.25726852
0.0076863645 0.088566534 0.23145324 0.24420589 0.23405051 -0.031660434 -0.09134013 -0.003909976
0.1840021 0.102377295 0.06044207 0.11574162 -0.032138206 -0.022140654 0.18311453 0.092006564
0.08593694 0.13327274 0.10442855 0.1923851 0.09031316 0.07723943 0.2773064 0.106825404
-0.004097872 0.19523041 0.20374349 0.267011 0.22692467 -0.06264831 0.16639756 0.27444184
0.022469424 -0.06096571 0.19109426 0.11623626 0.055983227 0.27728337 0.29158574 0.15322565

fc3_val.bias f4 [76]
00000000: db67 4f3e 3170 6fbe ceca d03e 4aac 5d3e
00000010: ef7b 76be ff6c 4bbe 79f2 7abe f952 2fbe
00000020: 366b 24be 0d33 40be acb4 173f 93a0 213f
00000030: e27c 523e 013a 35be f2dd 913e 136b fc3e
00000040: a4ff b33e 65b3 6ebe 3293 af3e f059 a43e
00000050: 5360 7a3e 4962 393f 446c 903e 0a36 bd3e
00000060: 95d0 493e a988 2c3e bbfb 1f3f a2f2 483e
00000070: 815a 59be bf79 22be 2b29 063f 1dc1 4dbe
00000080: d870 b53d 1838 6b3e 3d4c ac3e 0d4a 0bbe
00000090: 8f75 a53e 073d 4cbe 4210 13be 98a8 973e
000000a0: ed03 1a3f a360 b73e a47c 66be 4dab 8a3e
000000b0: a142 243f 2659 50be c9e7 b53e ee27 3ebe
000000c0: 9aa2 10be e8c7 0b3f 0d5f 3abe 1f55 f23e
000000d0: 4d4d 3a3f ace5 84be 1f4a 5dbe d2eb 6fbe
000000e0: 955e 14be 61cd 24be e069 3bbe d627 75be
000000f0: 976b 06bd 4c93 e4bd 606b 36be 0374 1f3f
00000100: a3e8 66be b9df 613e 4f1f 6abe c105 083b
00000110: b69d 9f3e c8d4 75be 97e1 2cbe 74b5 ff3d
00000120: b457 a83d a58b ca3d 2372 0ebe 6d9b 8abe
0.20254461 -0.23382641 0.40779728 0.21647754 -0.24070714 -0.19865797 -0.24506558 -0.17121495
-0.16056523 -0.18769474 0.5926006 0.6313564 0.20555452 -0.17697908 0.28489643 0.4930044
0.35155976 -0.23310621 0.3429199 0.32099867 0.24450807 0.72415596 0.282076 0.3695529
0.19708474 0.16849007 0.62493485 0.19623807 -0.21225931 -0.15866755 0.5240657 -0.20093198
0.08859414 0.22970617 0.33651915 -0.13602467 0.32316253 -0.19945155 -0.1436167 0.29620814
0.6016224 0.35815915 -0.22508484 0.27083817 0.6416417 -0.20346507 0.355284 -0.1856992
-0.14124528 0.5460191 -0.18200321 0.47330567 0.727742 -0.25956476 -0.21610306 -0.23429802
-0.14489205 -0.16093971 -0.18302107 -0.23940977 -0.03281745 -0.11160907 -0.17814398 0.62286395
-0.22549681 0.22058 -0.22863506 0.0020755383 0.3117501 -0.24006951 -0.1688293 0.12485781
0.08219853 0.09889916 -0.13910727 -0.27071705

fc4_adv.weight f4 [38, 76]
00000000: aad5 85bd 7fa9 9c3d 45ca eebe 203e 1bbe
00000010: d4f9 5fbd 1c13 cc3d e567 913e 6549 563d
00000020: 2321 cf3e 9366 b2bd 728d e3be 13ea 6d3d
00000030: 26d4 e4bd 7218 c1bd 8f4e a43d b5c2 a3be
00000040: 470b 243e 27c3 dc3d 86d8 0b3e c4ac 8b3e
00000050: 4802 463e ebc8 523e a551 e3bd 394e 0b3d
00000060: a1af 89be 0ff5 92bd b7d4 323d 7a43 ab3d
00000070: b9a8 083e 1895 23be 3031 32be b45f 59be
00000080: 718a 963d 117f 5c3e 1870 cfbd ffbe 7e3d
00000090: 7349 eb3d 6705 95bd 562c cc3d 6236 393d
000000a0: b832 5fbe 89c2 13be 4148 31be f702 b6bd
000000b0: 8763 833d bb82 e73e 474f 0ebd cee8 ce3d
000000c0: b0d3 d6bd 77ec cf3e a81e 873e 6297 09bd
000000d0: 5882 043c 5a80 89be fd03 903e 37d6 d6bc
000000e0: 8f1e ee3e 7db2 e03d 7442 2d3e 6ac1 343e
000000f0: 2cf5 7abe f0ac 653e cab6 683e b4b7 ab3e
00000100: ec24 133c 2351 183d 055d 643d 2d3a 503e
00000110: 1683 b5bd 1540 57be 0a20 20be 9945 383e
00000120: bc12 5a3e ad36 f43a 27b0 7bbe 3809 243e
00000130: 0081 933e d4f1 c23d d93d 06be af28 f13d
00000140: 3026 e3bd afae d43b f457 07be dab7 983e
00000150: 9d15 8fbe 3a78 013f cb82 87be a76e 7a3e
00000160: ecc7 50bd b4cd ddbd eec2 6c38 9099 47be
00000170: c845 543d 3697 cbbc 2e60 08be f405 70be
00000180: 9b80 8cbd acaa 0bbc 6bcb fdbb c6de ab3e
00000190: e691 56be 2d74 e9be aeb3 58be 7c1f 56bd
000001a0: 297c 983e 7816 3a3e eaa2 8f3e 4e8c 9fbd
000001b0: 30a9 82be 7136 513e dd2f 4fbd b306 18be
000001c0: 1d98 b53d 1afd b73d a7da 00be 5409 9c3e
000001d0: c678 9fbd 9b58 ae3e 1052 363c 513d 213e
000001e0: 2f5e 83be 0824 293e 98ed a1bc 0b87 333c
000001f0: b9ae 13be fba1 99bc bfda 653d 167f 2c3d
00000200: 05ff f83e 2986 82bd 3d31 e33d ffa1 473e
00000210: bd91 a63d e377 113d c812 c03e 4eff bcbc
00000220: 51fd 90be 827a 753e cacd 0e3e 82b4 49bb
00000230: e6a7 2d3c e008 11be 24a9 c43e 1fa7 6e3e
00000240: 54f2 00be 1d2d 2f3d 53a2 713c 342d 9c3e
00000250: f4d9 6abd 60c1 3b3e 64f6 03be dd97 da3e
00000260: 0ce2 f33d f892 de3d fe1a bb3b 9ac3 9ebb
00000270: 8c16 013e f30f ac3e db22 ffbd db8b 783e
00000280: 2bc9 d3bd 0ef9 c53e 06e2 e3bd f933 453d
00000290: 9781 b43d 637b aa3d d9be d7bd 7ece f1bd
000002a0: eaf5 6f3d e145 8f3e 0582 fc3d 2445 433e
000002b0: bdcf b9bc 417d 333d 86af 033d a97a 033e
000002c0: d81c 983d 045a 413d b757 4f3e ab68 bdbd
000002d0: 84b5 1fbe df57 2bbe 985c 373e 4a08 87be
000002e0: e8c6 433e 3bea 9fbc 8e30 89bd 3dc7 e23d
000002f0: 610c a03e 64fb 78bd d100 07be fd09 19be
00000300: 3b7e 3fbe 6c9b 34be 1f78 f3bb 695c 91bd
00000310: 8ddd 87be a191 8abc 7123 a9bd 8874 bf3d
00000320: fa24 b93e aa0e cd3d 9336 13be 643c e4bd
00000330: ad0c e23d 7873 0dbe 6d28 fd3e f2a5 483e
00000340: 0682 a83e 69a7 74be 007d b53e f4fa 403e
00000350: 601e bebe d861 503e b0ee 473e 7521 783e
00000360: ce67 c53e 4985 783d 2eeb dd3e 066c 91be
00000370: e0ef 9dbe b61c 9d3e 7151 f0bd 06fb 2d3e
00000380: 84ed 283d b381 f43c dde3 ebbe 71eb 903e
00000390: b0d0 993e 82fa 35be 3c40 86be 344e 5fbd
000003a0: a440 cdbe 80fa dabd 9124 39be 0bf7 923d
000003b0: d5f4 32be 423f d1bd 62bd 633e 0325 0dbe
000003c0: f74d a33d bc8e 84bc 657e 633e 09bd 5a3e
000003d0: 3a56 6cbe c00b e43d aca3 103e 1e88 89bd
000003e0: 1859 443e eb29 833e bc1e 773d 0a1a c5bd
000003f0: b198 a6be 2e17 91bd d7fb 5bbe 13c6 85bc
-0.06534894 0.07649516 -0.46638694 -0.15160418 -0.054681614 0.09964582 0.28399578 0.05231609
0.4045497 -0.08710971 -0.44443852 0.05808456 -0.111732766 -0.09428491 0.08022796 -0.31984487
0.16019927 0.1077941 0.13656816 0.27280247 0.19336808 0.20584457 -0.11099557 0.034010146
-0.26891807 -0.071756475 0.043659892 0.083624795 0.13345613 -0.15974844 -0.17401576 -0.21227914
0.07350624 0.21532847 -0.10128802 0.062193867 0.11488619 -0.07276421 0.09969394 0.04521788
-0.21796691 -0.14429678 -0.17312719 -0.08887284 0.06415468 0.45216927 -0.034743574 0.10102998
-0.10489595 0.40610096 0.26390576 -0.033591636 0.008087717 -0.26855737 0.28128043 -0.026225192
0.4650769 0.10971544 0.16919881 0.17651907 -0.24507588 0.22429252 0.22725978 0.33538592
0.008980971 0.037186753 0.055752773 0.20334692 -0.08862893 -0.21020539 -0.15637222 0.179953
0.21296209 0.0018632017 -0.24578916 0.16019142 0.28809357 0.09518781 -0.1310953 0.11775338
-0.11091268 0.0064905505 -0.13217145 0.29827768 -0.27946177 0.50574076 -0.26466975 0.24456273
-0.05097191 -0.108302504 5.6448327e-05 -0.19492173 0.05182436 -0.024852376 -0.1331794 -0.23439771
-0.06860467 -0.008524578 -0.0077451966 0.335684 -0.20954093 -0.45596448 -0.21162292 -0.05227612
0.29782227 0.18172634 0.2805398 -0.07790433 -0.25519705 0.20430924 -0.050582755 -0.14846306
0.08866904 0.08983822 -0.12583409 0.30475867 -0.077867076 0.34051976 0.011127964 0.15746047
-0.25657794 0.16517651 -0.019766614 0.01095749 -0.1442212 -0.018753996 0.056116816 0.042113386
0.48632064 -0.06373245 0.11093376 0.1949539 0.08133266 0.035514724 0.3751433 -0.023070958
-0.28318265 0.23972514 0.1394569 -0.0030777757 0.010599112 -0.14163542 0.38410294 0.23305939
-0.12592441 0.042767633 0.014748174 0.30503237 -0.057336763 0.18335485 -0.1288696 0.42693987
0.119083494 0.10867876 0.005710005 -0.004845095 0.12606257 0.33605918 -0.1245782 0.242721
-0.10341104 0.38666576 -0.11127095 0.048145268 0.0881378 0.083243154 -0.10534448 -0.118069634
0.05858413 0.27983 0.12329487 0.19069344 -0.022682065 0.043820623 0.032149814 0.1283976
0.074273765 0.047204986 0.20248304 -0.092484795 -0.15596586 -0.16732739 0.17906415 -0.26373512
0.19118845 -0.01952087 -0.06698714 0.11073158 0.31259444 -0.06078662 -0.13183905 -0.14945216
-0.18700497 -0.17637414 -0.007430091 -0.07097704 -0.26536217 -0.016915144 -0.08258713 0.093483984
0.36161023 0.100125626 -0.14376287 -0.11144331 0.11037574 -0.13813579 0.49444905 0.19594553
0.329117 -0.23891987 0.3544693 0.18845731 -0.3713255 0.20349824 0.19524646 0.24231513
0.3855576 0.060673986 0.4334349 -0.28402728 -0.30847073 0.30685967 -0.11734284 0.16990289
0.041242138 0.029847002 -0.46072283 0.28304628 0.30042028 -0.17771342 -0.26220882 -0.05451794
-0.4008838 -0.1069231 -0.18080355 0.07176026 -0.17476209 -0.102171436 0.22240213 -0.1378365
0.07973855 -0.016181342 0.22216184 0.21361174 -0.23079768 0.11135054 0.14124936 -0.067154154
0.19174612 0.25617918 0.060332045 -0.09624107 -0.3253837 -0.07084499 -0.21482788 -0.0163298

fc4_adv.bias f4 [38]
00000000: 6fdc 893d fd57 1f3d a866 edbd 6ffa fc3b
00000010: 2a8c 813d 3fcb 953b db7d 4c3e 203c d5bc
00000020: 95b2 febc 8b35 393d cb36 f1bd f012 22be
00000030: a792 343e c437 9c3d 4015 1bbc 4080 c03d
00000040: 1842 a83d 3fd4 d03d 4291 8bbc a42a 96bd
00000050: 716f 9c3d a5d8 383e 3be2 f0bc bf64 f63d
00000060: 5b2f a63d 0587 063e 111f 0b3e 5b3c 62bd
00000070: 7952 e6bd d219 ff3d 4b29 373d ec82 e5bd
00000080: c246 5f3d 536c 843d 5e8e 00be 6d97 363e
00000090: 8591 94be 963f 883e
0.067314975 0.03890227 -0.11591846 0.0077202837 0.06325562 0.004571348 0.19969885 -0.026029646
-0.031091014 0.04521708 -0.11778029 -0.15827537 0.17634068 0.07627824 -0.009465516 0.09399462
0.082157314 0.10196733 -0.017037038 -0.07332352 0.07638443 0.18051393 -0.02940475 0.120309345
0.08114501 0.13137443 0.1358607 -0.05523334 -0.11246199 0.12456097 0.044717114 -0.11206612
0.05451084 0.06465974 -0.12554309 0.17831202 -0.29017273 0.26611012

fc4_val.weight f4 [1, 76]
00000000: ccf9 ccbe 7b3b c03e d869 58bf dbeb 82be
00000010: 0643 9e3e ab4a dc3e 13bc 303e 992e 653e
00000020: 98d3 8a3e 7b7b 4e3e 973b b7bf 5d0d 0fc0
00000030: a1c4 debe 6987 843e d14d c3be ab12 8dbf
00000040: 92d0 f0be 9ed2 b43e 79dd 5dbf fadc 46bf
00000050: 7248 e6be 84c9 94bf d23a d4be 6cf0 7dbf
00000060: e5e0 d7be da76 d2be f35d afbf dbbf 8cbf
00000070: 1a12 933e cdde 553e b3d0 81bf 913f 903e
00000080: 991a 82bf 77f8 c2be 98c5 04bf 9d04 5e3e
00000090: 3fa8 b9be 6cbe ca3e 030a a53e ca40 9abf
000000a0: 824b b9bf ea2e 5bbf d6df df3e 7977 eabe
000000b0: 4085 7dbf 46b4 7b3e eae4 83be 38b8 1f3e
000000c0: c118 423e 61a2 81bf 2d45 2c3e 081f c3bf
000000d0: 1f31 7ebf 5e51 a03e 0ed5 393e 6624 203e
000000e0: 9b31 673e b163 623e 4100 b83e 4e9c 683e
000000f0: e3b7 a8bf c7f0 ab3e 9aaa 323e 3f9d 75bf
00000100: bfd0 5a3e 5465 5bbf 252a 163e d96d 87bf
00000110: 6b3f 76be c271 d13e b245 c33e 7b57 21bf
00000120: 34fd 32bf 0b8a e1be d53d cc3e 9a3e 973e
-0.4003433 0.3754538 -0.84536505 -0.25570568 0.3091051 0.43025717 0.17259245 0.22381057
0.27114558 0.20164292 -1.431506 -2.2351906 -0.4350939 0.2588456 -0.38145307 -1.1021322
-0.47034127 0.35316938 -0.86666065 -0.77680933 -0.44977146 -1.1623998 -0.41451126 -0.9919498
-0.42163768 -0.41106302 -1.3700546 -1.099605 0.28724748 0.20885773 -1.0141815 0.28173497
-1.0164367 -0.3808019 -0.51864004 0.21681447 -0.36261174 0.39598405 0.322342 -1.2051022
-1.4476168 -0.8561846 0.4372546 -0.45794275 -0.9903145 0.24580488 -0.25760585 0.15597618
0.18954755 -1.0127679 0.16823263 -1.5243845 -0.992937 0.31312078 0.1814768 0.15638885
0.22577517 0.22108342 0.35937694 0.22715876 -1.3181118 0.33582136 0.17447892 -0.95943063
0.21368693 -0.8570149 0.14664514 -1.0580398 -0.2404763 0.40907103 0.3813911 -0.6302411
-0.6991761 -0.4405063 0.39890924 0.2953995

exp_avg f4 [1, 6, 1, 4]
00000000: da06 98bf b517 20bc eb04 ccbd ab35 623d
00000010: 1ca5 1d3e 0400 0000 0400 0000 0000 0000
00000020: 43c0 c63d 43c0 c63d 43c0 c63d 698d 363d
00000030: 074b 18be cddf 6bbd cddf 6bbd 9209 b23d
00000040: a7f3 a4bd 3df9 43bd 3df9 43bd b4b6 e4bd
00000050: ba15 4abd ef59 ecbc ef59 ecbc 0000 0000
-1.1877091 -0.009771277 -0.099618755 0.055226963 0.15395015 6e-45 6e-45 0.0
0.0970464 0.0970464 0.0970464 0.044568453 -0.1487237 -0.05758648 -0.05758648 0.08693232
-0.080542855 -0.047845114 -0.047845114 -0.1116766 -0.049337126 -0.028851477 -0.028851477 0.0

exp_avg_sq f4 [1, 6, 1, 4]
00000000: ced8 3f42 11dc 9540 8e04 183f b2da 973c
00000010: e7d7 3143 f401 0000 f401 0000 0000 0000
00000020: 5e74 3740 5e74 3740 5e74 3740 7690 2e3e
00000030: 92a1 2b3f 2cdb 1b3f 2cdb 1b3f 7563 783d
00000040: db9b 083f 645b ff3e 645b ff3e 591c 513d
00000050: 7790 1f3f d1a8 193f d1a8 193f 0000 0000
47.961723 4.6831136 0.5938195 0.0185369 177.84337 7e-43 7e-43 0.0
2.8664775 2.8664775 2.8664775 0.17047295 0.6704341 0.60881305 0.60881305 0.060641725
0.53362817 0.49874413 0.49874413 0.051052425 0.6232981 0.6002322 0.6002322 0.0

exp_avg f4 [1, 6, 2, 4]
00000000: 0353 8abf 9311 86be 06ea 3bbd 3f08 8b37
00000010: dca1 79bf 3807 73be a10f 22bc 7ab1 be3b
00000020: 3afd 29c0 b006 2ec0 2b0e b8bf e157 e2be
00000030: 1d2e 0fc0 6afb e5bf 66c8 4dbf 2d74 24bc
00000040: 17eb 98bd 17eb 98bd 17eb 98bd cec6 d1bb
00000050: 3679 efbd 3679 efbd 3679 efbd b6e4 0c3d
00000060: 5231 83be e741 47be e741 47be c5f2 653c
00000070: 93f2 15be f31f adbd f31f adbd 0c3a a839
00000080: db3a da3d 9141 f13d 9141 f13d e118 c63b
00000090: 751b 603d 2abb 923d 2abb 923d 3541 ccbc
000000a0: a195 0d3d b205 0a3d b205 0a3d c985 59bc
000000b0: 2797 86be 4ed8 88be 4ed8 88be 2557 ffba
-1.0806583 -0.26185283 -0.04587748 1.6573931e-05 -0.975126 -0.23733222 -0.0098914215 0.0058194967
-2.6560807 -2.7191582 -1.4379324 -0.4420767 -2.2371895 -1.796735 -0.8038391 -0.010037464
-0.07466715 -0.07466715 -0.07466715 -0.006401873 -0.11693041 -0.11693041 -0.11693041 0.034397803
-0.25623566 -0.19458733 -0.19458733 0.014034932 -0.14643316 -0.084533595 -0.084533595 0.00032086705
0.10655757 0.11780084 0.11780084 0.0060454463 0.054713685 0.07164605 0.07164605 -0.024933437
0.034566525 0.033696838 0.033696838 -0.013276526 -0.26287195 -0.26727527 -0.26727527 -0.0019480927

exp_avg_sq f4 [1, 6, 2, 4]
00000000: 9fe9 ae40 a531 4c3f c92f fb3d 324c 213b
00000010: 404a 9840 f80e 523f 029b e83d 4e45 1c3b
00000020: c108 1e43 232d 9242 bc19 9641 eda3 1540
00000030: 9912 1e43 7a0d 8e42 62c5 6e41 4546 4a3e
00000040: 23a9 873f 23a9 873f 23a9 873f a98c ef3c
00000050: 52ce cd3e 52ce cd3e 52ce cd3e 8289 fd3c
00000060: 32e3 9a3e f349 8a3e f349 8a3e f533 073c
00000070: 816a 963e 7283 873e 7283 873e 5850 d839
00000080: b33e 613e e5b3 5b3e e5b3 5b3e 6a8f e739
00000090: 9ef7 8f3e 2c6a 8d3e 2c6a 8d3e 7587 613c
000000a0: 6070 693e c3a9 5e3e c3a9 5e3e c403 453b
000000b0: 1c2c a73e caa8 a33e caa8 a33e 7ac4 1a3c
5.466018 0.7976325 0.12264974 0.0024612066 4.7590637 0.8205409 0.113576904 0.002384502
158.0342 73.08816 18.762566 2.3381302 158.07265 71.02632 14.923189 0.19753368
1.0598491 1.0598491 1.0598491 0.029241877 0.40196472 0.40196472 0.40196472 0.030949358
0.3025146 0.27009544 0.27009544 0.008252134 0.2937813 0.26467472 0.26467472 0.0004125859
0.21996574 0.21455343 0.21455343 0.00044166605 0.28118604 0.27620065 0.27620065 0.013765206
0.22796774 0.21744446 0.21744446 0.003006206 0.3265084 0.31964713 0.31964713 0.009446258

exp_avg f4 [1, 6, 3, 4]
00000000: f11b 133d 57ff 96bd c8ee 00bd c80f 8ebb
00000010: 21b1 d6bd ed55 28bd 0299 90bc 83ab 6ebc
00000020: 941a 00be 8a62 edbb 991c 17bc f12f 2bbb
00000030: d30f 503f c273 673f 7f46 923e f64c cd3d
00000040: 74a4 833f 4c0f 1e3f 1650 1d3e 84e9 d3bc
00000050: c15e 853f 8db1 443f 2726 ae3e 3fa9 18be
00000060: d82e 9c3d d92e 9c3d d82e 9c3d 10f1 b2bb
00000070: ef77 f33c f477 f33c ec77 f33c 0c73 40ba
00000080: b7bb 133e b6bb 133e b6bb 133e e0a5 b0bc
00000090: a0a8 ee3d c53c e53d c63c e53d 920e 1c3d
000000a0: 796f 2e3d 106b 1f3d 0b6b 1f3d 28f0 df3c
000000b0: f26d 283d 8a61 163d 8b61 163d fa02 893c
000000c0: 0378 38bd b3cf 19bd b2cf 19bd 1256 df39
000000d0: c405 803d fb8e 893d fd8e 893d 2908 663b
000000e0: 85c6 3d3d b104 3e3d b004 3e3d 207f 01ba
000000f0: 6009 a3bc f4c7 c0bb e5c7 c0bb 861d 9dbb
00000100: 7f6f 163c e950 b63c f250 b63c eac2 5bba
00000110: 0292 bbbc 7b1b 51bc 791b 51bc d10b 0fbb
0.03591532 -0.07372921 -0.03147772 -0.0043353774 -0.104830034 -0.04109757 -0.017651085 -0.014567259
-0.12510139 -0.007244413 -0.009223127 -0.0026121105 0.81274146 0.9041101 0.2856941 0.10024445
1.0284562 0.6174209 0.15362582 -0.025868185 1.0419542 0.7683342 0.34013483 -0.14908312
0.07626122 0.07626123 0.07626122 -0.005460866 0.029720275 0.029720284 0.02972027 -0.0007341362
0.14427076 0.14427075 0.14427075 -0.02156347 0.116532564 0.111932315 0.11193232 0.038099833
0.042586777 0.038920462 0.038920444 0.027336195 0.041120477 0.036714114 0.036714118 0.016725052
-0.045036327 -0.037551593 -0.03755159 0.00042598002 0.062511 0.067167245 0.06716726 0.0035100079
0.0463319 0.046391193 0.04639119 -0.00049399026 -0.019901931 -0.0058832113 -0.0058832043 -0.0047947792
0.009181856 0.022255378 0.022255395 -0.00083832315 -0.02289677 -0.0127628995 -0.012762898 -0.0021827111

exp_avg_sq f4 [1, 6, 3, 4]
00000000: 7ac5 8e3f 8fe7 103e 2461 a23c 9d75 143a
00000010: 79ac 8c3f 2c52 173e 06d3 d93c ea0b e03a
00000020: 0020 933f 72eb 1d3e c1cf e23c 0b92 d93a
00000030: 8e13 9241 bfae 3041 bcdc 6140 f06e 0d3f
00000040: 1044 9341 3262 2f41 84ee 5b40 b5c5 093f
00000050: a4bc 9441 8e40 3041 ac41 6640 0786 103f
00000060: d1e6 bb3d d0e6 bb3d d1e6 bb3d 86b4 bb3b
00000070: 0f6d 053e 116d 053e 0f6d 053e 0577 ca3b
00000080: 9486 0a3e 9286 0a3e 9386 0a3e 2484 ae3b
00000090: 3308 5d3d 852f 453d 852f 453d 9ffd ab3b
000000a0: 72f1 3f3d 090d 2c3d 090d 2c3d 8574 2f3b
000000b0: f7b2 2b3d f525 1e3d f625 1e3d 20c0 9a3a
000000c0: 6d82 2c3d 493d 203d 4d3d 203d 3c52 463a
000000d0: 1dc5 0f3d 6a7f 073d 697f 073d 4f2d 763a
000000e0: 2d8e 193d 53d4 133d 53d4 133d 6c09 8a3b
000000f0: 5096 5c3d ea8f 533d ea8f 533d 2d80 923a
00000100: 961b 3d3d 5044 333d 5044 333d ab52 753a
00000110: 8df6 2c3d 5d09 273d 5d09 273d 70e8 be3a
1.1154015 0.14150833 0.01982171 0.00056632777 1.0990134 0.1477744 0.026589882 0.0017093394
1.1494141 0.15421847 0.027686955 0.001659931 18.259548 11.042663 3.5290976 0.552474
18.408234 10.961473 3.4364328 0.538173 18.59211 11.01576 3.5977583 0.5645451
0.09174884 0.09174883 0.09174884 0.005728307 0.13029884 0.13029887 0.13029884 0.006178739
0.135279 0.13527897 0.13527898 0.005325811 0.053962898 0.04814102 0.04814102 0.00524874
0.04686112 0.04200462 0.04200462 0.0026772332 0.04191872 0.038610417 0.03861042 0.0011806525
0.04211657 0.039120946 0.03912096 0.00075653545 0.03510009 0.033080496 0.033080492 0.0009390907
0.037489105 0.03609116 0.03609116 0.004212549 0.053854287 0.05165092 0.05165092 0.0011177115
0.046168886 0.04376632 0.04376632 0.0009358327 0.042227317 0.040780414 0.040780414 0.0014565121

exp_avg f4 [1, 6, 4, 4]
00000000: 6901 57be dab3 ff3d 3a03 f7bc a830 183c
00000010: 706d d7be 3a1e 303b a1e9 20bd b9ab 833c
00000020: 9629 40be c5ee 143e ee57 4e3b 8a1a 703c
00000030: 73fa b0be f61d 76bd b38a bbba e46f 3dba
00000040: 54af 4bbf ac0b 58bf 349a 27bf 3dd6 03be
00000050: f3e7 1cbf f9dd 7bbf c4ab f4be 9ef5 cdbd
00000060: 896a 25bf d9f6 0abf 1c62 ecbe 6c85 38be
00000070: 1bc2 77bf cc8a 6ebf 0913 0ebf d2d3 95bd
00000080: 6714 303d 6814 303d 6614 303d b33a bf3c
00000090: cb9e 80bd cd9e 80bd c89e 80bd 6eb5 383c
000000a0: cce5 603e cee5 603e cfe5 603e adad 04ba
000000b0: 7166 0b3e 7466 0b3e 7166 0b3e 3f26 90bc
000000c0: 1454 ddbd 8229 26bd 8429 26bd a9de 5f3d
000000d0: 5b15 a7bd d116 59bc cc16 59bc 8d42 0e3d
000000e0: a2f1 85bd a154 af3b 8554 af3b 6d93 123d
000000f0: 49c8 e6bd 5a3d 56bd 5b3d 56bd 45cc 243d
00000100: 171a 553d aa34 6a3d ad34 6a3d 46c6 07bd
00000110: 59e7 0e3e 8e09 103e 8d09 103e b94e e7bc
00000120: 211b ed3d e096 ed3d e096 ed3d e73b adbc
00000130: d705 b83d 306b b83d 2f6b b83d c9e5 e7bc
00000140: bf00 bcbc 8622 76bc 6222 76bc afdf 85bc
00000150: 820d 52bd 4573 27bd 4a73 27bd e00f 23bc
00000160: 0e36 c2bd bf74 afbd c074 afbd b7c0 3abc
00000170: 7e16 a0bd 9bb3 8dbd 9bb3 8dbd 8b9f cfbb
-0.20996632 0.12485476 -0.030152906 0.009288944 -0.42075682 0.0026873485 -0.039285306 0.016073095
-0.18765864 0.14544208 0.0031485516 0.014654765 -0.34566078 -0.060087167 -0.0014308303 -0.0007226451
-0.79564404 -0.8439281 -0.6546967 -0.12874694 -0.61291426 -0.9838558 -0.47787297 -0.100566134
-0.64615685 -0.5428291 -0.46168602 -0.18019646 -0.96780556 -0.9318054 -0.55497795 -0.07315792
0.042988207 0.04298821 0.042988203 0.02334342 -0.06280287 -0.06280289 -0.06280285 0.011273725
0.2196266 0.21962664 0.21962665 -0.000506128 0.13613297 0.13613302 0.13613297 -0.017596362
-0.10807052 -0.04056693 -0.040566936 0.054655705 -0.0815837 -0.013250069 -0.013250064 0.034731437
-0.065402284 0.0053506647 0.0053506517 0.035785127 -0.1126867 -0.052304603 -0.052304607 0.04023387
0.052026834 0.05717913 0.05717914 -0.033148073 0.1395544 0.14066145 0.14066143 -0.02823578
0.1157744 0.11601043 0.11601043 -0.021146728 0.08985489 0.090048194 0.09004819 -0.028307812
-0.022949575 -0.0150228795 -0.015022846 -0.016342012 -0.051282413 -0.040881414 -0.040881433 -0.009952515
-0.09482966 -0.085671894 -0.0856719 -0.011398486 -0.0781679 -0.06919023 -0.06919023 -0.0063361577

exp_avg_sq f4 [1, 6, 4, 4]
00000000: 63b7 1041 0b2b 0e3f 1621 793d 929e e43a
00000010: 26d7 ee40 2f07 cd3e 2c02 b53c e9a5 413a
00000020: 9130 0e41 a9d8 033f bc50 673d 7b43 913b
00000030: 7fdb 0741 2c69 193f 8c4c 8c3d 224a 723a
00000040: f83f d242 c229 3142 5a3e 3141 e9bc b33f
00000050: 09b0 d742 22c8 3542 dc19 3c41 b938 d03f
00000060: 5a63 d242 5fe4 3142 8bb8 3341 705b b93f
00000070: 84f2 d042 fdee 2e42 a8f6 3141 c85c b13f
00000080: af22 003f af22 003f af22 003f a8af 6c3c
00000090: 376e f93e 386e f93e 386e f93e a34d 4b3c
000000a0: 668a fd3e 638a fd3e 638a fd3e 4960 413c
000000b0: 62e6 f03e 62e6 f03e 61e6 f03e d4dd 6c3c
000000c0: e981 3a3e 7b5f 1c3e 7a5f 1c3e e1a5 5b3c
000000d0: 4761 273e a205 043e a205 043e f40a be3b
000000e0: 4b77 493e 467c 293e 447c 293e c4b3 e43b
000000f0: 2ad5 373e 9782 1a3e 9682 1a3e c66a 233c
00000100: 4ebc 0b3e ea5c f53d e95c f53d 151d 2d3b
00000110: e588 133e 9ce1 043e 9ce1 043e ab48 053b
00000120: ae71 123e 1507 083e 1507 083e 36f8 113b
00000130: 7c77 113e 77eb 073e 76eb 073e a6bb 573b
00000140: 9483 233e fcd1 1a3e fcd1 1a3e fa9e 483b
00000150: fa4e 2c3e dcad 243e ddad 243e ecce 6a3b
00000160: bc31 183e 14dd 0e3e 13dd 0e3e 0782 3e3b
00000170: 291d 253e 3807 1c3e 3807 1c3e 2c39 483b
9.044772 0.5553443 0.06082257 0.0017442277 7.463763 0.40044543 0.022095762 0.0007387088
8.886857 0.5150247 0.05647348 0.004433093 8.491088 0.59926105 0.06850538 0.0009242614
105.12494 44.29078 11.077723 1.4042026 107.84382 45.445442 11.756313 1.626731
105.194046 44.47302 11.232554 1.448103 104.47366 43.733387 11.122719 1.385644
0.5005292 0.5005292 0.5005292 0.014446177 0.487169 0.48716903 0.48716903 0.012408647
0.49519652 0.49519643 0.49519643 0.011802741 0.47050768 0.47050768 0.47050765 0.014457185
0.1821362 0.15270798 0.15270796 0.013406248 0.16345702 0.12892774 0.12892774 0.0057996456
0.19674413 0.16551313 0.1655131 0.0069794375 0.1795241 0.15088879 0.15088877 0.009974187
0.13646051 0.119806126 0.11980612 0.002641504 0.1440769 0.12976688 0.12976688 0.0020337503
0.14301178 0.13283952 0.13283952 0.002227319 0.14205736 0.13273416 0.13273415 0.0032918244
0.15968162 0.15119165 0.15119165 0.0030612336 0.16827002 0.16081947 0.16081949 0.0035828901
0.14862722 0.13951522 0.1395152 0.0029069202 0.16124405 0.15237129 0.15237129 0.0030551655

exp_avg f4 [76, 130]
00000000: f57c dfba 202e 5aba 70ad 173b db0b efbb
00000010: ec25 5cba 8ef3 5fba d5c6 20bb b37d 30bb
00000020: 1543 b2ba 3f7b 2fbb 45ae 8aba 9a72 babb
00000030: dcf8 bcbb 54be acbb 0f1e c6ba 300b 3cb9
00000040: ba82 1fbb c0fc 2f3b 7d62 2aba 373c d0ba
00000050: 2321 c5ba a0e0 91bb 757c 3cba 5975 aebb
00000060: 6b04 843a 08f3 e6bb 77cb 62bb 08f9 033b
00000070: cc4c 1fbb a001 763b 83a0 c7ba e3d1 76bb
00000080: f295 46bb 497d 8cbb f1e7 d3ba 3a30 533a
00000090: e1e9 05bc 45ba bebb e25e ea39 b5b0 913b
000000a0: 037b 273a 12ed 40b9 b8bc 63bc 8ef8 5ebc
000000b0: 463d a9bb 35f4 12bb 3802 e13a 7baf 263c
000000c0: e05f bf3b 4aef 523a 2db8 d33b f65f 923b
000000d0: b4d1 adba 9628 28bc 01ff 00bc 23cf 8fbb
000000e0: b4ed 2cbb 4c0c 453b 432c 223b a8a4 f539
000000f0: 4acb 343b 25b4 bc3b 2837 0c3c 5e42 1c3c
00000100: cebd 963b 2fcc 363b a456 983b 56ba 3ebc
00000110: 04f9 46bc 19b0 07bc c31d 79bb 191a 0a3a
00000120: 5e0a 9fbb 5e33 a0b8 6078 31bc 1edb 8eb9
00000130: a84d 41bc 33c9 68bb 3535 42ba 9782 ff3b
00000140: 3717 c03b fdd5 333c a830 4c3b 833f a43b
00000150: c660 523b 1e6f 90bb 37d1 30bc a32c 2dbc
00000160: 32bb 5cbb d448 5a3b d307 293c bb93 3cba
00000170: c7de 863c 50ee 42bb a157 243c 794e ab3a
00000180: 2d2e 063c 9e93 3c3c 6bae d23b 5e08 9eba
00000190: d0dd 01bc 9e39 e439 eac3 7d39 f670 0fbc
000001a0: a969 a3bb 8e15 0bbc f802 8dbb 0426 8dbb
000001b0: 2375 f03a 30c1 a13a 97cd c23b f395 a4b9
000001c0: 5ada f6bb 0307 56bc 2bb1 fcbb a041 96bc
000001d0: 954a b4bc 4baa 76ba f25d febb 3d44 baba
000001e0: c30e fcbb 93ed d5bb a373 3abc 29cb 9fbb
000001f0: 881c 40bb ee91 e0bb 324f 17bc 7854 02bc
00000200: 078e 06bc eb41 ecbb 0c11 41bb 6119 3e3b
00000210: a7c4 863b 5c1c 893b 566d 2c3b 36e8 653a
00000220: 3e39 37bb ebb3 dfbb 5602 4eba c1b6 89bb
00000230: fcc0 cdba 4694 0d3b 06c4 8aba 4e52 8d3b
00000240: 9520 953b 56de bdba 6dbc a43b 02ec 53bb
00000250: 69bb 08ba 9898 26ba 9ee2 29bb 4d83 6a3b
00000260: a3c9 9bb9 0c43 383a 532d 27ba 1a33 f739
00000270: 9171 0f3a aca6 dbba b297 e6ba b5b0 bd3a
00000280: 6efd 04bb cb02 66bb f9d0 18b9 7872 2cbb
00000290: 760c 803a 12ea acbb 3ba6 a83a 6952 d3ba
000002a0: 6795 ba3a ed61 013c 9a07 ef3b e6dc f6ba
000002b0: 5403 77bb 52fa fabb 1d90 de38 b3a8 ceb9
000002c0: 0aca 8e3b 15ca cdba a0ec f1ba cb80 6f3b
000002d0: e79a 88ba 769c 32bb 611e 983b 5a04 253c
000002e0: 0956 f43b 1be7 e0ba 22b6 ebba a93f b43b
000002f0: 8991 09ba 57a4 6b3a d204 633b a3a0 2bb9
00000300: 72f3 2f3c 38ce a53b bf24 cbbb 4b6f 6e3a
00000310: c445 0e3a c0f2 933b a25d 903b d507 8aba
00000320: 3c4b 573c 9a39 523c f9bc f13b 1a30 3d3c
00000330: 571a 2d3b 8f80 09bc 0cc3 b03a b1eb 813b
00000340: 0040 3b3b 04e4 003c b00c 79ba d59f 05bb
00000350: d80a 953b 88dc 31ba 71b1 f23b 387b 803c
00000360: 3ed8 023d e36c af3c 6322 973c 27b8 ca3b
00000370: 81a9 cc3b 3b84 e23b eb61 503c af5d 313c
00000380: c8b1 903c 5588 103c 51a5 8d3b cce9 c33b
00000390: 7140 f63b 22a7 483c 59fb dc3b 9c2e 0c3c
000003a0: 3abd 843b 7fa4 0b3c 5578 7f3c 829e c13c
000003b0: 830d da3c a702 bc3c 7459 673c 0f12 fcba
000003c0: b853 033c 89dc 843b 9ebc ef3b 5bd3 863c
000003d0: 1c09 933b 443c 883c 5f79 153c fdca e53b
000003e0: b512 513b 9b62 d23b c23a 0a3c 1844 4c3c
000003f0: 5fca 333c 7e66 213c ad98 423b 8f04 7a3b
-0.001705079 -0.0008322913 0.0023144148 -0.0072951145 -0.0008397985 -0.00085430674 -0.0024532576 -0.0026930391
-0.0013600314 -0.0026776341 -0.0010580501 -0.005689931 -0.005766971 -0.0052717123 -0.0015115159 -0.00017933245
-0.0024339394 0.0026853532 -0.0006499661 -0.0015887086 -0.0015039783 -0.004451826 -0.00071901764 -0.0053240475
0.0010072117 -0.0070480146 -0.0034606138 0.0020137448 -0.002430725 0.003753759 -0.0015230331 -0.0037661723
-0.0030301777 -0.004287396 -0.0016167146 0.00080561975 -0.008173437 -0.005820545 0.0004470265 0.004446114
0.00063888746 -0.00018398862 -0.0138999745 -0.013609065 -0.005164775 -0.002242339 0.0017166799 0.010173674
0.0058402866 0.0008046521 0.0064611644 0.004467006 -0.0013261349 -0.010263583 -0.007873298 -0.0043887063
-0.00263868 0.0030067144 0.002474562 0.0004685272 0.002758699 0.0057587796 0.008558072 0.009537308
0.004600263 0.00278927 0.0046490002 -0.011641106 -0.012144331 -0.008281731 -0.0038012124 0.0005268171
-0.004853531 -7.6389624e-05 -0.010831922 -0.00027247606 -0.0117983 -0.0035520315 -0.0007408441 0.00779755
0.0058621424 0.010976312 0.003115693 0.005012454 0.0032101138 -0.0044077775 -0.010792068 -0.010569724
-0.0033680913 0.003330757 0.010316807 -0.00071936444 0.01646365 -0.0029744096 0.010030658 0.0013069651
0.00818972 0.011509804 0.0064294836 -0.0012056937 -0.007926419 0.00043530477 0.00024200944 -0.008754959
-0.004986961 -0.008489026 -0.0043033324 -0.0043075103 0.0018345456 0.00123409 0.0059449184 -0.00031392238
-0.0075333538 -0.013063195 -0.0077115498 -0.01834184 -0.02200822 -0.0009409531 -0.007762664 -0.001421101
-0.0076921894 -0.006528565 -0.011380109 -0.0048765135 -0.002931388 -0.0068533337 -0.00923519 -0.007954709
-0.008212573 -0.0072100065 -0.0029459624 0.0029006826 0.0041127983 0.004184289 0.0026310286 0.0008770259
-0.0027957703 -0.006826868 -0.00078586244 -0.004202694 -0.0015697773 0.002160327 -0.0010586984 0.00431279
0.004551003 -0.0014485817 0.005027345 -0.0032336717 -0.00052159146 -0.00063551357 -0.0025922428 0.0035783828
-0.00029714135 0.0007029034 -0.0006377298 0.00047149585 0.000547194 -0.0016758046 -0.0017592816 0.0014472218
-0.0020292657 -0.003509688 -0.00014573698 -0.0026313346 0.0009769339 -0.005276927 0.0012866923 -0.0016122583
0.0014235199 0.0078968825 0.0072946073 -0.0018834143 -0.0037691193 -0.007659235 0.00010612628 -0.00039417073
0.004357581 -0.0015700484 -0.001845736 0.0036545272 -0.0010422141 -0.0027253903 0.0046422933 0.010071838
0.0074565453 -0.0017158719 -0.0017983357 0.005500753 -0.00052478217 0.0008989027 0.0034640324 -0.00016367673
0.010739194 0.0050599836 -0.006199449 0.00090955634 0.0005427266 0.004515022 0.004405693 -0.0010530899
0.013140496 0.012831116 0.0073772636 0.011547113 0.0026413405 -0.008392467 0.0013485863 0.003964864
0.0028572083 0.007866863 -0.0009500487 -0.0020389457 0.004548412 -0.0006784876 0.0074064066 0.015683755
0.031944506 0.021414226 0.018449014 0.0061865035 0.0062457924 0.0069127358 0.012718658 0.010825559
0.017662898 0.008821567 0.0043226858 0.0059787985 0.0075150062 0.012246879 0.00674383 0.008556034
0.004050878 0.008523106 0.015592654 0.023635153 0.026617771 0.022950483 0.014120448 -0.0019231456
0.008015566 0.00405461 0.007316186 0.016458204 0.00448717 0.0166303 0.009123175 0.0070127235
0.003190202 0.006420446 0.0084368605 0.012467407 0.010973542 0.009851096 0.0029693053 0.003814969
