TrainedModel/Dueling DQN-2/7800_0-125_DuelingDQN.pth (torch, 291221 bytes, 33 tensors)

conv1.weight f4 [1, 6, 1, 4]
000000 cd 63 ca bc 42 7e 56 3e 4a a7 c4 3e d1 35 69 3d
       -0.024705792 0.20946601 0.3840888 0.05693609
000010 c5 ec 98 be ed cc 00 bf 5b 75 65 3c ea 2d 4a 3e
       -0.2986814 -0.5031269 0.0140050305 0.19744077
000020 27 cd 0a bd 04 16 a7 3e 83 b0 a2 be 9e d6 de 3d
       -0.033887055 0.32633984 -0.31775293 0.10880779
000030 89 6f 14 3e 2c 99 0b 3e c0 78 42 be 99 55 85 3d
       0.14495672 0.13632649 -0.18991375 0.06510467
000040 81 e8 1c 3e d2 09 cf be 0f 89 9b 3e ef c8 5a 3e
       0.15323068 -0.4043718 0.30378005 0.21365713
000050 ac 7b 1d be 0c 68 42 3d c7 80 b6 3d 3c a6 cc be
       -0.15379208 0.047462508 0.08911281 -0.39970577

conv2.weight f4 [1, 6, 2, 4]
000000 6d 75 03 3f 0a 22 65 be 7e a5 a4 be 16 0f 70 3e
       0.5135105 -0.22376266 -0.3215751 0.23443255
000010 c5 fa 6e 3f 6e 7d b4 be ea 53 d4 bc e0 1b 91 3e
       0.93351394 -0.35251945 -0.02591892 0.2834158
000020 e3 b4 8a bd a7 36 05 3d aa 04 99 3a 4b 8f 33 bb
       -0.06772783 0.032522824 0.0011674364 -0.0027398642
000030 8b 23 d2 3c ac 75 ce bd d0 7f 25 be 56 12 0a bd
       0.025651714 -0.10081038 -0.16162038 -0.033708893
000040 50 a3 78 3e 24 63 f0 bc ae ff 63 be 48 e0 d5 3e
       0.24281049 -0.029344149 -0.22265503 0.41772676
000050 c5 8d 3c be 86 11 ae bd e9 fe a9 3c f1 69 d2 3e
       -0.18413456 -0.08499436 0.020751433 0.41096452
000060 c1 8b 09 3e 4f 3d a8 3d 0a 36 b4 bd 77 b5 89 3d
       0.13432218 0.08214819 -0.0879937 0.06724065
000070 92 34 f1 3d ae 9f 50 be 70 db 43 3d 5e b3 95 be
       0.11777605 -0.20373413 0.047816694 -0.2923841
000080 46 2e 86 be 89 a6 c8 3e 10 ca 57 be c3 59 99 be
       -0.2620718 0.39189556 -0.21073174 -0.29951295
000090 29 bd 5e 3d 89 ef c8 3d 90 57 8c bd 67 21 a9 bd
       0.054379616 0.09811313 -0.06852639 -0.08258324
0000a0 71 b0 72 3c 8c 0e 6d be 88 0b da 3d 31 b5 01 3e
       0.014812575 -0.2315008 0.10646731 0.12666775
0000b0 3e 3b 79 3d 90 47 f0 bd 53 32 9e 3d b0 a7 c5 3e
       0.060847513 -0.117323995 0.07724442 0.38604498

conv3.weight f4 [1, 6, 3, 4]
000000 c8 ae 1b 3f b8 62 cc 3d 71 d8 a6 bd 85 70 2b 3f
       0.6081357 0.099797666 -0.08146752 0.66968566
000010 19 98 98 3e 6b da a7 3e f2 00 f8 bd cf ca eb 3e
       0.2980354 0.32783827 -0.12109555 0.46053168
000020 f1 43 ea 3e 3f 4b 45 3f cc 17 a4 3e 8b f6 ef 3e
       0.4575496 0.7706794 0.32049406 0.46867785
000030 b6 52 47 3e 6e 7d 54 3e 27 3b 23 3e cf 59 bc 3d
       0.19465145 0.20750973 0.15940534 0.09196817
000040 08 ab 07 3d 1f c7 97 3d 9b 79 9c 3d de 3d 89 3e
       0.033122092 0.07411026 0.07640382 0.26805013
000050 16 aa 93 3c 14 99 1a 3e 9a 1f cd 3d ab c5 b4 3e
       0.01802544 0.15097457 0.10015793 0.3530706
000060 b3 75 36 bd d0 8b b1 be 46 a7 83 be 8f d7 52 3f
       -0.04454584 -0.3467698 -0.25713557 0.82360166
000070 61 5e b3 bd 48 b3 b2 3d c2 87 f4 bd a7 8c 09 3f
       -0.08758236 0.087256014 -0.11939956 0.53730243
000080 21 85 89 bc cf cb 98 bc 36 c8 29 be 00 0a aa 3e
       -0.016787114 -0.018651871 -0.1658028 0.33210754
000090 de 91 c4 3d 38 ed 43 bb 7d be d7 bc d1 b4 fa bd
       0.095981345 -0.0029896032 -0.02633595 -0.12241519
0000a0 ea 9f c0 3d 0e 3a 96 3d bb 2c d0 bd e2 42 9a be
       0.09405501 0.07335292 -0.10164782 -0.30129153
0000b0 04 2c a9 be 66 fc 58 bd cb 54 13 3e 4f ac 08 3e
       -0.33041394 -0.05297508 0.14387815 0.1334698
0000c0 4b 65 fe bd 15 f6 04 3e 34 df 3f bd 0b 3e ac 3d
       -0.12421664 0.12984498 -0.046843722 0.08410271
0000d0 19 05 b8 bd 41 96 67 be 8d 2a df 3d ba b8 ce 3d
       -0.08985347 -0.22615911 0.10896788 0.100938275
0000e0 e3 61 0d 3d a9 bf 4a 3e 7f 28 1c be e2 53 34 3d
       0.03451718 0.19799675 -0.15249823 0.04402531
0000f0 14 2e bf bd 07 ba 61 be b8 3c 94 bd 64 6b 2e be
       -0.093349606 -0.2204362 -0.07238144 -0.17033154
000100 b7 82 51 3d af 59 46 3e 9c 21 97 bd 67 bc a9 bd
       0.05115005 0.19370149 -0.07379457 -0.08287888
000110 70 83 e7 bd 73 3a 78 3c dd 17 f6 bd 9e 36 21 be
       -0.113043666 0.015150654 -0.1201627 -0.15743491

conv4.weight f4 [1, 6, 4, 4]
000000 3e a4 f7 3d 4a 6c 66 be 8d 9a 5a be d9 65 b0 bd
       0.120918736 -0.22502246 -0.21348019 -0.08613176
000010 89 0c 5c be 25 9d 53 bd 06 15 59 be c5 36 78 3e
       -0.21489157 -0.051663537 -0.21199426 0.24239643
000020 0c 11 d8 bd fa 4e 82 be 30 0e b3 bd 2a be 4f be
       -0.105501264 -0.2545088 -0.087429404 -0.20287386
000030 6d e9 08 3e ee 8a 76 3d 82 78 fe bc 67 28 6a 3d
       0.13370295 0.060191087 -0.031063322 0.057167437
000040 3e 2f 4e 3e 2f e8 2d bd c9 ec 1c be d0 4c 89 be
       0.20135209 -0.042457756 -0.15324701 -0.26816416
000050 f0 d2 91 3e 7e c0 3c 3e 17 ae b9 bc db b1 cf bd
       0.28481245 0.18432805 -0.02266602 -0.10141345
000060 9b 66 9c bd 0c dd 29 be ae 69 e4 bd da 3b c8 bd
       -0.07636758 -0.16588229 -0.11152969 -0.09777041
000070 08 d0 80 3d 86 a9 30 3e 62 84 09 be 7a 63 3a be
       0.06289679 0.17252168 -0.13429406 -0.1820201
000080 90 dc bd 3a 15 ea 86 3e f6 9e 7c 3e ae fb 35 be
       0.0014485288 0.26350465 0.24670014 -0.1777179
000090 1b 2c 35 3e 05 70 0e 3e 10 da 13 3e 4f 3e 8e be
       0.17692606 0.1390992 0.14438653 -0.27781913
0000a0 3d 5e 63 3c 5d 46 8c 3c d2 6c cd 3d 41 a9 e3 bc
       0.013877449 0.017123396 0.100305215 -0.027790667
0000b0 df 1f 34 3d da cc a4 3e b9 a4 1d bd 46 15 07 3e
       0.043975707 0.3218754 -0.03848717 0.13191709
0000c0 10 db f8 bd a1 54 29 3e ed d3 30 be 8b e7 2d be
       -0.12151158 0.1653619 -0.17268343 -0.16982858
0000d0 fa ff ae bd 01 d0 50 3e ec 72 82 3e 72 11 27 3e
       -0.085449174 0.20391847 0.25478303 0.16315249
0000e0 af 41 89 be 8f 86 e2 bd c2 84 38 3e c1 67 5b 3e
       -0.26807925 -0.11060821 0.18019393 0.21426298
0000f0 2a c3 86 3d 4f 29 ff 3c e1 7d 09 3e 6f 13 f4 3d
       0.06580193 0.031147627 0.13426925 0.11917769
000100 1b 46 df bd 82 a0 08 3e 85 46 88 bc c5 7c 9b be
       -0.109020434 0.13342479 -0.016635189 -0.3036863
000110 6e 6b d0 3d 3d b1 d3 bd a5 e8 c7 3d a9 f3 a4 3d
       0.101767406 -0.1033654 0.0976117 0.08054287
000120 47 61 9c bd b4 8d 79 3d 65 00 75 3e 64 d2 48 3d
       -0.07635742 0.060926154 0.23925932 0.04902877
000130 58 9f 8d be ef 85 54 3e 9f 57 2e 3e 59 8d 03 bd
       -0.27660632 0.20754217 0.17025612 -0.03211722
000140 ed 7d 84 3e 08 3d 64 be fa 40 70 be bf 82 54 3e
       0.25877324 -0.22288907 -0.23462287 0.20753
000150 37 38 63 3d 08 c6 4e 3d fa e9 94 bd 8e 48 ec 3d
       0.055473533 0.050481826 -0.0727119 0.11537276
000160 e8 8a 91 3d 03 3a 97 3e ee 03 6b bd 0b 2e c3 3e
       0.071065724 0.29536447 -0.057376795 0.38121065
000170 ab 9d 77 3c a3 a0 d1 bc f0 46 d3 3d b8 2b 26 3d
       0.015113275 -0.025589293 0.10316265 0.040569037

fc3_adv.weight f4 [76, 130]
000000 88 8f 17 be 4a 96 c6 3e 20 84 50 bd e4 06 47 3d
       -0.14800847 0.38786536 -0.050907254 0.048590556
000010 f9 d4 1a 3e b7 0f 7a 3c 5d f6 06 3f 31 13 67 3e
       0.15120305 0.015262536 0.5271967 0.22565915
000020 1d 0e bb 3e a2 3f 84 3e 32 6f 97 3e 3c 69 95 3e
       0.36534205 0.25829798 0.29577023 0.2918185
000030 b8 ff 36 bd f1 51 92 3e f3 6f b9 3e 4b bb 0b 3f
       -0.044677466 0.2857814 0.36218223 0.5458266
000040 22 7f c1 3e 1d c2 62 3e 3e af 13 3f f6 7e c3 3e
       0.37792307 0.22144361 0.57689273 0.381828
000050 d4 3a 33 3f 60 e0 91 3e 5c 5b 5d 3e 9d aa 8d 3e
       0.7001164 0.28491497 0.21616882 0.2766923
000060 17 80 87 3d 97 71 d8 3e ca c8 d8 3e 6f 58 99 3c
       0.06616228 0.42274162 0.4234069 0.018718926
000070 33 80 7c 3e 4f a7 39 bd 2a 6f fa 3e 39 60 50 bd
       0.24658279 -0.045325574 0.48912936 -0.050873015
000080 77 d9 d4 3c 2d 48 aa 3e 49 59 d1 bd 49 d2 5d bc
       0.025982602 0.3325819 -0.10222108 -0.013538905
000090 87 33 04 be 34 a9 60 3e a2 53 61 3c d7 a9 1d be
       -0.12910281 0.21939546 0.01375285 -0.1539682
0000a0 3b d7 0a 3e 54 ca 0e be f7 4b 7c 3d f0 b7 75 3e
       0.13558666 -0.1394437 0.061595883 0.23995948
0000b0 5c 82 a9 3d 2c 88 7f bc 45 73 f3 bd 28 b4 d2 bd
       0.08276817 -0.015596431 -0.1188722 -0.10288268
0000c0 b1 c5 9f 3e e7 a0 9a 3e a6 6e e9 bd 4c ca 58 be
       0.31205514 0.30200884 -0.11398058 -0.2117092
0000d0 27 2e bc bd 68 c3 b2 3e 49 de 5a 3d f4 0d 22 be
       -0.0918849 0.34914708 0.053434644 -0.15825635
0000e0 40 04 71 bc b3 0f 7e 3e 36 75 b8 3d b9 22 d2 3d
       -0.014710486 0.24810676 0.09006731 0.10260529
0000f0 5e 9c c1 3d 60 81 22 3d 11 60 db bd e0 c4 0e be
       0.09453653 0.039674163 -0.107116826 -0.1394229
000100 65 56 bd 3d b9 9f f2 bb fa 51 88 3d 73 62 a5 be
       0.09244994 -0.0074042943 0.06656261 -0.32301673
000110 5b f6 d6 bb de 50 46 3e 9e de 08 be fe ef c9 3c
       -0.0065601296 0.19366786 -0.13366172 0.02465057
000120 d2 7d 0a 3c 03 b3 0c bd 0d ca a4 3c 03 30 11 be
       0.008452849 -0.034350406 0.020115877 -0.14178471
000130 bd 6b 3a 3e 23 74 89 bd 7c fe a7 be 1b 37 5a be
       0.18205161 -0.067116044 -0.32811344 -0.21310084
000140 10 92 62 3e af 21 3f be b1 20 e5 3d 34 92 e4 bd
       0.22126031 -0.18665193 0.11187876 -0.111606985
000150 c0 b6 b8 bd 6a e3 9e 3d 11 6c 87 bc 72 13 5f be
       -0.09019232 0.077582195 -0.016531022 -0.21784762
000160 bf f3 12 be 12 53 ab bd 0d 7b 5b 3e 17 95 94 3d
       -0.14350794 -0.08365454 0.21433659 0.07254999
000170 1a aa 0a bd f6 d0 34 be 16 60 b1 bd 0a a7 a0 3d
       -0.033853628 -0.17657837 -0.08660905 0.0784436
000180 7a 24 63 bd bf a5 62 bd 0d 24 62 be a1 cb 4f 3e
       -0.05545471 -0.05533385 -0.22084065 0.20292522
000190 39 e5 54 3e a5 06 9b 3d 0a 18 9d 3e ba 92 8e 3e
       0.20790567 0.07569627 0.30682403 0.27846318
0001a0 97 c9 39 3e 14 a5 fa 3d d6 c5 51 3e 7e d9 12 3e
       0.18143307 0.122385174 0.20485625 0.14340779
0001b0 c6 d9 34 3e 51 0c 35 bd 7a a4 1f 3d 84 1d ac 3e
       0.17661199 -0.0442012 0.038975216 0.3361627
0001c0 0b 46 4c 3e 8e f3 a9 3d 9e 86 8e 3e 6d c3 f0 3d
       0.19948594 0.082984075 0.2783708 0.117560245
0001d0 ee 20 49 3e 58 91 01 3e 3e 4e a5 3d f9 fe 9e 3e
       0.19641468 0.126531 0.08071564 0.31053904
0001e0 28 eb b0 3e 40 0e d2 3d 3d 63 29 3e 73 48 10 3e
       0.3455441 0.10256624 0.16541763 0.14090137
0001f0 7d 53 8a 3d f5 07 6d 3e 4d c0 1b 3e f7 f1 87 bc
       0.067542054 0.23147567 0.15210076 -0.01659487
000200 80 bd 9d 3e 12 9f 59 3e 36 d6 c3 3c 5c 07 88 3e
       0.3080864 0.21252087 0.023905855 0.26568115
000210 7c ac 28 3e b0 51 48 3d 9e 0a 01 3e f2 45 08 3e
       0.16472048 0.04890603 0.12601706 0.13307932
000220 69 3f e0 3d 5b 37 99 3e 6f 94 3e be c2 91 6b 3e
       0.109495945 0.29925045 -0.1861131 0.23004821
000230 f3 5c 25 3e da 52 19 3f 0c 30 19 3f ee 41 1e 3e
       0.16148739 0.59892046 0.5983894 0.15454838
000240 eb 38 42 3e 53 95 c0 3d 44 e2 0a 3d 15 85 bf 3e
       0.18967025 0.09403481 0.03390719 0.3740622
000250 51 29 9a 3d f5 71 8c bc 97 7a 1e be b7 33 87 be
       0.07527412 -0.017144183 -0.15476452 -0.26406643
000260 7e dd ed be 84 4e d9 be 1e 23 fb be d2 99 58 be
       -0.46458048 -0.42442715 -0.4905023 -0.21152428
000270 21 61 49 3d 53 49 85 3e 26 a3 88 3e 0c 77 28 3e
       0.049164895 0.26032504 0.26686972 0.16451663
000280 71 3a 9f bd 18 20 8c 3e ff c2 2a bd 1f b0 8c 3e
       -0.07774819 0.27368236 -0.04168987 0.2747812
000290 d6 f2 60 bd d1 a6 3e 3e 6f 5f 3b 3e da 42 95 3e
       -0.054919086 0.18618323 0.18298124 0.29152566
0002a0 9a b8 58 3e 7a 5b 5c bd 32 73 6b be f0 61 ba 3d
       0.2116417 -0.053798176 -0.22993162 0.09100711
0002b0 a3 6c fb 3c 6a 11 bc 3d e9 2c 48 3d a5 f4 07 3e
       0.03069145 0.09183009 0.048870955 0.13276918
0002c0 e0 f0 64 bd dd 45 a5 3e 4f 26 2a 3e 0f 12 93 3e
       -0.05589378 0.32279864 0.16616176 0.28724715
0002d0 30 79 42 3d 4c 01 1e be fa f2 09 be a8 f1 8d 3e
       0.047478855 -0.15430182 -0.13471594 0.27723432
0002e0 4d 1e 54 3e 38 62 f6 bc f6 f9 ff bd e0 d9 9e be
       0.20714684 -0.030076131 -0.12498848 -0.310256
0002f0 3e 5b 95 bd 9b 3c ab bd 12 00 84 bd f5 05 1d 3e
       -0.07292794 -0.08361169 -0.06445326 0.15334304
000300 2d a7 30 be c2 65 e0 bc 12 5c 8f bd 9b e2 aa bd
       -0.17251272 -0.027392272 -0.06999983 -0.08344003
000310 df ad 57 ba 8b 5f 01 be 54 99 06 3e 83 4e cf 3c
       -0.0008227508 -0.12634103 0.13144428 0.025305992
000320 e3 04 35 be 40 4b 23 3d 3e 0c 19 be 59 e1 a1 be
       -0.17677645 0.039866686 -0.14946076 -0.3161724
000330 a8 68 11 bd 2b 54 6d 3d 0a 3e 3d 3e 9c 5d fc 3c
       -0.0355002 0.057941597 0.18480697 0.030806355
000340 38 e7 86 3d 19 74 69 3d 91 f2 48 3e f9 e4 b4 b9
       0.0658707 0.056995485 0.19623782 -0.00034502873
000350 24 f3 b1 bd 58 12 b3 bd c5 52 64 be 73 f7 04 be
       -0.086889535 -0.08743733 -0.22297199 -0.1298502
000360 02 72 75 be b9 b4 55 bd f3 2d fa bc fd 98 18 be
       -0.23969272 -0.052174304 -0.030539488 -0.1490211
000370 b6 df 75 be e7 66 72 3d c0 45 89 bc 85 7f f1 bd
       -0.2401112 0.059180167 -0.016756892 -0.117919005
000380 51 ee 5d 3e 23 51 ca bd cf b2 3e 3e 4e 29 ec 3d
       0.21672942 -0.09878757 0.18622898 0.11531316
000390 aa 70 f9 bc 03 83 ae 3e c5 ec 85 3e ab 4c 32 3e
       -0.03044923 0.3408433 0.26157203 0.17412059
0003a0 67 21 59 3d b9 d5 6a 3c f7 04 61 3e 24 82 07 3e
       0.05301037 0.014333182 0.2197455 0.13233238
0003b0 d9 2e a1 bc 15 4a ca 3d 95 e7 28 3d 12 a7 90 3d
       -0.019675659 0.09877411 0.04123648 0.07063116
0003c0 53 23 5f 3e 67 00 68 3d f4 8b 58 bc af a5 a6 3e
       0.21790819 0.05664101 -0.013216961 0.32548282
0003d0 ce 1e 17 3e 9d fa 9f bd 6c bb 8e 3e 6c 39 8a 3e
       0.14757845 -0.078114726 0.27877367 0.26996934
0003e0 4b d2 54 3e 4c fb 83 3c 3b 01 e4 bc a2 79 a5 3c
       0.20783345 0.016111039 -0.027832618 0.0201996
0003f0 95 c7 6c bc 0e 63 21 bd b6 16 25 3e 2d 17 b2 3d
       -0.014451881 -0.039401107 0.16121945 0.08695827

fc3_adv.bias f4 [76]
000000 ac 4d 0c 3e 64 74 ee 3d bb c3 e1 3d fb e6 a4 bd
       0.13701504 0.116432935 0.11023661 -0.080518685
000010 e7 af 71 bc 3c ac 49 be 54 70 1c bc ca 0d 6e bd
       -0.014751411 -0.19694608 -0.0095482655 -0.05811862
000020 df 31 71 3e e1 49 1c 3e 4a 19 1e be 64 8f 59 be
       0.2355418 0.15262558 -0.15439335 -0.21246105
000030 4f 80 88 3e 3e 2a 97 bc cf dd 83 3e 5d 5c 41 3e
       0.26660392 -0.01845276 0.25755164 0.1888289
000040 91 5b ba 3e b9 07 dc 3d d4 f4 4b 3e a1 61 ee 3d
       0.36397985 0.107436605 0.19917613 0.11639715
000050 36 26 4c 3c b5 01 5a bc 0d ca 45 3e 4f 30 8e bd
       0.012460282 -0.013306071 0.19315358 -0.06942808
000060 71 dd a7 bd b0 c5 92 bd bc 49 21 be 09 5c 67 3e
       -0.081965335 -0.07166612 -0.15750784 0.22593702
000070 23 72 89 bd 8f 15 2d 3e c5 67 49 3e 30 fc 9e 3d
       -0.06711223 0.16902755 0.19668491 0.07762945
000080 94 e9 00 be d4 d8 90 3d b6 a3 47 3d da 9c 3a 3e
       -0.12589103 0.07072607 0.04874011 0.18223897
000090 e7 02 12 3e 9a 18 95 be 50 ef 89 3c d3 70 7d 3d
       0.1425892 -0.29120332 0.016837746 0.061875176
0000a0 27 02 b8 3e 3c d5 35 3d 3b a9 01 be 28 38 4e 3e
       0.35939142 0.04439281 -0.12662213 0.2013861
0000b0 55 0f a2 3c 8a 08 08 3e b7 94 3d 3e da 44 60 3e
       0.019782702 0.13284507 0.18513761 0.21901265
0000c0 c1 60 1d 3e 0d 84 02 3e 1c a5 70 bc 06 a8 8b 3d
       0.1536894 0.12745686 -0.014687803 0.06819157
0000d0 d9 99 3d 3e da c1 c4 bc 9e e4 f8 3d 92 24 b8 3d
       0.1851572 -0.024018217 0.1215298 0.0899135
0000e0 af c1 7c bd 62 ae 0a be f3 82 26 3e fa 58 2e 3e
       -0.06170815 -0.13543084 0.1626089 0.1702613
0000f0 9a b4 ca 3c 6c 21 94 3e b6 79 1c 3e 11 0a 91 3d
       0.02474432 0.2893175 0.15280804 0.07081998
000100 b8 27 1e 3e 74 8e 36 bd 0e 86 75 3e e9 df 96 3d
       0.15444839 -0.044569448 0.23976919 0.07366926
000110 d2 71 43 3d e2 13 4a 3d 8f aa 42 bc 09 28 25 3e
       0.04771597 0.049335368 -0.011881485 0.16128553
000120 25 b4 9d 3d 4d 21 6e 3e d7 71 4c 3e 9c 6a af 3e
       0.077003755 0.2325489 0.19965301 0.34261024

fc3_val.weight f4 [76, 130]
000000 b7 7e 0a 3e 89 6d 1f be 8b 7c a6 bc 1b c6 af 3c
       0.135249 -0.15569128 -0.020323059 0.021456769
000010 7e 63 6c bd 47 4e 02 bd 05 4c 24 be 31 08 47 be
       -0.05771207 -0.031812932 -0.16044624 -0.19436719
000020 86 23 e1 3d 07 00 11 bc 8d 9e a4 3d 19 98 6f 3d
       0.10993104 -0.008850104 0.08038054 0.05849466
000030 56 87 04 bc 7d 78 e7 3d 55 e4 56 bd 8a ee 31 be
       -0.008088907 0.11302278 -0.05246385 -0.17376152
000040 b1 d8 2c 3d b3 d5 48 3e 42 6d 75 bd f5 5e 1c be
       0.04219884 0.1961277 -0.05991865 -0.15270598
000050 fe 83 4e 3d bf 26 5e be 57 21 12 be 5d 74 9d 3c
       0.050418846 -0.21694468 -0.1427053 0.019220525
000060 66 76 50 be 85 35 51 bd f8 42 0e 3d 65 7a f4 bd
       -0.20357665 -0.05107643 0.034731835 -0.119374074
000070 d9 6f 4d 3b 57 f1 55 3c 54 8c 2b 3d 39 fe 80 bc
       0.0031347184 0.013058028 0.041881874 -0.015746223
000080 52 4f 7b 3e 7d e1 f9 bd 97 2d 25 be d1 7f 18 bd
       0.24541977 -0.122012116 -0.16130672 -0.03723127
000090 c5 28 c2 3b 56 fa 85 3e 2b 60 e7 bc 00 2a 8f 3e
       0.0059252703 0.26167554 -0.028244099 0.2796173
0000a0 49 59 1e 3e 30 e7 58 bc 29 d6 85 3e 7d 1f ee 3d
       0.15463747 -0.013238713 0.26139954 0.116271
0000b0 9f fa 9f 3e 46 a5 28 3e 0b 38 86 3e 96 6f 96 3d
       0.31245896 0.16469297 0.26214632 0.07345502
0000c0 a6 03 79 3e 18 ae 2a 3e ab c0 8b 3e 7b c8 82 3d
       0.24317798 0.16667974 0.27295431 0.06385895
0000d0 98 01 49 3e 41 9d 33 3e b5 6a c7 3d dc 80 31 3e
       0.19629514 0.17540456 0.097371496 0.17334312
0000e0 fc b8 bc 3c 6a 5f 23 3d a1 d9 a6 3c 76 f4 80 3c
       0.023037426 0.039885916 0.020367445 0.015741568
0000f0 2d 5b 1b 3e d4 78 8a bd 76 81 a4 bd 59 65 54 3e
       0.151715 -0.067613274 -0.08032505 0.20741786
000100 08 ad d1 bd 9f d5 87 3d 0b 06 80 bd 62 98 19 be
       -0.10238081 0.06632542 -0.062511526 -0.14999536
000110 be 92 ca bd 7a 0d 2a bd c1 94 77 3d d4 84 b8 3c
       -0.0989127 -0.04151676 0.060444597 0.022524275
000120 a5 6b 4e 3e 01 55 0f bd 9d fb 5f bd 37 c4 ef 3d
       0.2015825 -0.034993175 -0.054683316 0.11707347
000130 f6 43 9c bd 9e 21 dc 3d 6d f6 2f 3d 16 bd ab bc
       -0.0763015 0.107485995 0.04295962 -0.020964187
000140 3f a2 b1 bd 87 b9 a3 bc e2 05 c4 3d ce 5e 10 be
       -0.08673524 -0.019985927 0.095714346 -0.14098665
000150 89 eb 9d 3d f0 7f 4b 3e 7c d2 4f 37 1f 37 43 3d
       0.077109404 0.19873023 1.2387169e-05 0.04765999
000160 6f 59 a3 bd 33 45 35 3d ca 37 2b be 64 63 db bd
       -0.079760425 0.044255447 -0.167205 -0.10712317
000170 19 0d 47 bd 48 b1 db bc e4 09 4d 3d 92 74 16 bd
       -0.048596475 -0.026817933 0.05005826 -0.036732264
000180 9c 01 ea bd 02 9f 74 3e 7d 06 60 3e 1b aa 6d be
       -0.11426088 0.23888782 0.21877475 -0.23209421
000190 b8 db ef bd 33 b5 1d be 65 c5 3a be 31 4f a2 3d
       -0.1171183 -0.15401153 -0.18239363 0.07925261
0001a0 3b 07 d1 bd 58 65 8f bd 5b 68 03 3e 36 8b 6a 3e
       -0.10206457 -0.07001752 0.12832777 0.22904667
0001b0 91 69 a5 3c 8b f5 1b be 45 e5 c4 bd d5 b9 3a 3e
       0.02019194 -0.15230386 -0.09614042 0.18234952
0001c0 e8 76 50 3e 4e ed c6 3c 5f 8c c2 3d d7 08 c1 bd
       0.20357859 0.024283078 0.0949943 -0.09425514
0001d0 1d 97 89 bd a3 f0 73 be 10 3b af 3d 7f e8 03 3d
       -0.06718276 -0.23822264 0.08556187 0.032204147
0001e0 01 ba 06 3d c9 85 01 be c1 b8 0f be 3d d1 21 be
       0.03289223 -0.12648691 -0.14035322 -0.15802474
0001f0 13 3b 2d be be 0e d7 bc 0d 7a 24 3e 1e 73 80 bc
       -0.16917066 -0.026252147 0.16062184 -0.015679892
000200 f0 47 03 3e fe d1 b8 bd bd 80 37 3e 5f fb b1 3e
       0.1282041 -0.09024428 0.17920204 0.34762093
000210 67 61 1f 3e bb b7 da 3d 81 ed 76 3e b0 cd 73 3e
       0.155645 0.10679575 0.24114038 0.23808932
000220 6c 90 ae 3e 47 b5 81 3e c4 21 85 3e 66 2e 83 3d
       0.3409456 0.25333616 0.26002324 0.06405334
000230 3a d8 e6 3d 76 6d 4a 3e 3d 3c a9 3e 93 3c 85 3e
       0.11271711 0.19768319 0.3305377 0.26022777
000240 ea 74 88 3e 0f 11 a7 3d 38 31 a3 3e bb 2f 67 3e
       0.26651698 0.081575505 0.31873488 0.22576801
000250 08 02 f9 3d 17 3b 99 3e 75 aa 72 3d 12 12 d3 3e
       0.121585906 0.29927894 0.05924459 0.41224724
000260 26 35 99 3e 2c cb 9b 3d 51 cd 10 3e 47 6e c1 3d
       0.29923362 0.07607111 0.14140822 0.09444862
000270 79 8a 9f 3e aa 23 61 3e d6 cc bc 3e 7a 3a c4 3d
       0.31160334 0.21986261 0.36875027 0.09581466
000280 1b e8 0d 3d bd 72 29 3e c6 2e 1d 3d e6 37 cd 3e
       0.03464518 0.16547675 0.038374685 0.4008171
000290 64 c0 a8 3d 38 21 63 3e 65 ce d3 3d ad 0f dc 3d
       0.082398206 0.2218064 0.10342101 0.107451774
0002a0 0c f0 d2 3d d6 60 31 3e 1a be a3 3e 24 e1 e8 3d
       0.102996916 0.17322096 0.31980973 0.11371067
0002b0 e2 a8 21 3e 97 97 f2 3d 47 6f e6 bc d3 57 83 3e
       0.1578708 0.1184532 -0.028129233 0.25652942
0002c0 64 f8 63 3e a3 e1 40 3e c1 da ee 3d 4b e7 50 3c
       0.22262722 0.18836074 0.11662818 0.012750457
0002d0 22 5c 53 3e da ad 85 bd ad ef 18 bd d0 db 6e 3e
       0.20640615 -0.065273 -0.037337948 0.2332604
0002e0 2e 3e 52 3c 3e e6 96 3d d2 41 2e 3e 20 2f ad 3c
       0.012832208 0.07368134 0.17017296 0.021140635
0002f0 8b ed 26 3e 3c 12 48 3e 3c 07 e9 3a 51 ac 73 3e
       0.16301553 0.19538206 0.0017778645 0.23796202
000300 95 a6 b1 3e 93 55 2a 3e fb 62 ae 3e 56 43 93 3d
       0.34697405 0.16634206 0.3405989 0.07190578
000310 80 e8 bb 3d 6e 53 02 3e f9 59 42 3e f6 7a 23 bb
       0.09175205 0.12727138 0.18979634 -0.0024945117
000320 7d bb 52 3e fa 4b 8d 3e a3 17 2e 3d f8 6a 6d 3e
       0.20579334 0.27597028 0.04250301 0.23185337
000330 58 77 97 bc 79 7c 94 bd 5c 69 18 bd 67 bc 4c 3e
       -0.018489525 -0.07250304 -0.037209854 0.19993745
000340 1e 2a 68 3e ca d6 c2 3d 2b 2a 3b 3e 6f b5 57 3e
       0.22672316 0.09513624 0.18277805 0.21065305
000350 b7 4a 9d 3d 43 3c 97 bd ed 68 06 3d e9 cd 83 3e
       0.07680266 -0.07384541 0.03281491 0.25743034
000360 0d a3 0d 3c 85 c9 c1 3d 84 dd 70 3e c9 d6 7b 3e
       0.008644831 0.09462265 0.23522002 0.24593653
000370 2b b7 75 3e 0a ac 16 bd 73 fd a5 bd fd b3 da 3b
       0.23995654 -0.036785163 -0.08104982 0.0066742883
000380 b9 d4 42 3e 5b 8d ce 3d 50 da 95 3d ee 7d f3 3d
       0.1902646 0.10085555 0.073170304 0.118892536
000390 e6 39 e6 bc d0 0c 98 bc f2 45 41 3e 7e 93 d5 3d
       -0.02810378 -0.018560797 0.18874338 0.104285225
0003a0 28 e2 a9 3d c9 3a f7 3d 04 dd e2 3d ee 59 3d 3e
       0.08295089 0.12071759 0.11077312 0.18491337
0003b0 fa 23 b4 3d b7 7e 88 3d c0 05 8d 3e 20 86 e8 3d
       0.087959245 0.06664794 0.2754345 0.11353707
0003c0 97 fe 2b 3c d0 38 55 3e 5f ad 54 3e fe 90 8e 3e
       0.010497711 0.20822453 0.20769261 0.27844995
0003d0 7f 4b 66 3e ad 74 73 bd db 88 23 3e ff b4 8e 3e
       0.22489737 -0.059437443 0.15970175 0.27872464
0003e0 b1 1f 52 3c df 59 7f bd 8f 7e 44 3e 7b 2e 04 3e
       0.012824939 -0.062341567 0.19188903 0.12908356
0003f0 23 b5 39 3d 0a c7 8b 3e 84 3c 9a 3e 01 ac 10 3e
       0.04533876 0.27300292 0.30124295 0.14128114

fc3_val.bias f4 [76]
000000 18 66 4e 3e 66 73 6e be 8b 37 d1 3e ae f1 5c 3e
       0.20156133 -0.23286209 0.40862688 0.21576568
000010 d5 80 75 be ec 70 4a be 8b fc 79 be b7 5b 2e be
       -0.23974927 -0.19769639 -0.24412744 -0.17027174
000020 ec 72 23 be 9f 3b 3f be 14 be 17 3f 2e e5 22 3f
       -0.15961808 -0.18675087 0.5927441 0.6363095
000030 d6 52 51 3e 74 42 34 be f2 5b 91 3e 02 98 fc 3e
       0.20441756 -0.17603475 0.2839046 0.49334723
000040 71 7e b3 3e 97 b9 6d be ac cc b4 3e a8 80 a4 3e
       0.35057405 -0.23215328 0.35312402 0.32129407
000050 68 d1 79 3e 2a d4 3a 3f 67 ea 8f 3e 17 bf bd 3e
       0.24396288 0.72979987 0.28108522 0.37059852
000060 14 ce 48 3e e7 85 2b 3e 58 92 1f 3f a4 c4 55 3e
       0.19609863 0.16750298 0.6233268 0.20875794
000070 90 62 58 be 72 82 21 be c0 74 06 3f 22 c9 4c be
       -0.21131349 -0.15772417 0.52521896 -0.19998601
000080 ae 2f b3 3d 6b 95 69 3e da 71 aa 3e 49 52 0a be
       0.087493286 0.22810905 0.33289987 -0.13507952
000090 d6 f3 a4 3e 4f 42 4b be 2a 16 12 be 2e 05 9a 3e
       0.32217282 -0.19849513 -0.14266267 0.30082077
0000a0 cc 62 1b 3f 56 be b7 3e 75 81 65 be 48 2a 8a 3e
       0.6069763 0.35887402 -0.22412665 0.26985383
0000b0 7d 60 24 3f 36 61 4f be aa 65 b5 3e ca 33 3d be
       0.6420973 -0.20251927 0.35429126 -0.18476787
0000c0 9a ab 0f be 26 6c 0c 3f f2 68 39 be 32 13 fe 3e
       -0.14030305 0.5485252 -0.1810644 0.4962402
0000d0 b9 0c 3a 3f bd 68 84 be e2 53 5c be 21 f7 6e be
       0.72675663 -0.2586116 -0.21516374 -0.2333646
0000e0 2b 66 13 be ef d5 23 be 66 73 3a be 59 2f 74 be
       -0.14394443 -0.15999578 -0.18208084 -0.23846187
0000f0 3d fc b3 bc 61 a1 e2 bd 5b 75 35 be 50 59 1f 3f
       -0.021970863 -0.11065937 -0.17720549 0.62245655
000100 16 f1 65 be b4 f8 66 3e 5f 2a 69 be e3 32 12 bb
       -0.22455248 0.2255581 -0.2277007 -0.0022308163
000110 ab 1a 9f 3e f5 d9 74 be a8 e6 2b be e8 91 fa 3d
       0.31075034 -0.23911269 -0.16787207 0.12234861
000120 29 1f a5 3d 92 65 c2 3d 93 77 0d be 0e 1f 8a be
       0.08062584 0.09492029 -0.13815145 -0.26976818

fc4_adv.weight f4 [38, 76]
000000 09 ec 55 bd 2d fb 8d 3d 87 7c e4 be 1f f3 21 be
       -0.052227054 0.069326736 -0.44626257 -0.158154
000010 21 d7 ad bd e7 33 e3 3d 28 79 93 3e 75 11 7b 3d
       -0.08488298 0.11093884 0.28803372 0.061295945
000020 a5 be cc 3e e1 06 5d bd 4b d4 f7 be 63 8c 82 3d
       0.399892 -0.05396164 -0.48404154 0.06374433
000030 2c c6 d5 bd c5 99 d6 bd 4e 71 a0 3d 43 10 9c be
       -0.10438189 -0.10478548 0.07834111 -0.30481157
000040 e7 a2 26 3e d2 26 f1 3d cd 5f 13 3e 72 08 8c 3e
       0.1627308 0.117749825 0.14392014 0.27350193
000050 41 a7 4c 3e 93 1c 50 3e b9 39 e2 bd 53 e8 9b 3c
       0.19985677 0.203234 -0.11046166 0.01903168
000060 a2 27 8d be 39 98 9f bd 1a 97 48 3d fc 2d cd 3d
       -0.275693 -0.07792706 0.048972227 0.100185364
000070 c6 65 ef 3d bf a5 1f be 91 39 29 be 50 71 56 be
       0.116893336 -0.15590571 -0.16525866 -0.20941663
000080 e3 d9 5a 3d 7b 52 61 3e 1a c8 d0 bd 22 8d 75 3d
       0.05343045 0.2200412 -0.10194416 0.059949048
000090 c2 40 fe 3d 93 ad f2 bd af 37 a6 3d a1 c3 37 3d
       0.12414695 -0.11849513 0.081160896 0.0448643
0000a0 05 4f 52 be cb 08 0c be 9d 0f 39 be ca 4a ba bd
       -0.20537956 -0.13675229 -0.18072362 -0.09096296
0000b0 67 0b 98 3d b7 42 dc 3e 29 b2 f5 bc 3c 55 be 3d
       0.0742405 0.4301965 -0.02999218 0.09293601
0000c0 56 90 c3 bd 3e 95 db 3e 32 a7 70 3e f0 ef f7 bc
       -0.09549014 0.428873 0.2350128 -0.030265778
0000d0 50 ef c3 3c b6 74 89 be dd 34 8c 3e 5f ac 91 bc
       0.023917824 -0.26846856 0.2738408 -0.017782388
0000e0 6d 45 f2 3e 3f 23 dc 3d 13 9c 35 3e 1b b5 23 3e
       0.47318593 0.1074891 0.17735319 0.15987055
0000f0 8c 32 80 be 45 6c 66 3e 0b 31 78 3e 87 1a ac 3e
       -0.25038564 0.22502239 0.24237458 0.3361399
000100 d8 1a 10 3d 0a 73 b4 3c d5 6f 72 3d cd cb 47 3e
       0.03518185 0.022027511 0.059188683 0.19511338
000110 d1 c0 c9 bd 32 e3 43 be 68 6c 28 be b4 53 36 3e
       -0.0985123 -0.19129637 -0.16447604 0.17805368
000120 67 94 60 3e 75 46 51 3c d8 99 89 be ad c2 1e 3e
       0.21931611 0.012773146 -0.26875186 0.1550395
000130 d5 6c 92 3e ef 14 da 3d a2 46 0b be ca 2d 12 3e
       0.28598657 0.10648524 -0.13601163 0.1427528
000140 05 dc f9 bd d1 3e 1d 3c ab f6 09 be b9 10 9d 3e
       -0.122001685 0.009597496 -0.13473003 0.3067682
000150 1e 71 97 be bf c0 f7 3e 08 6d 8a be 40 39 97 3e
       -0.2957849 0.4838924 -0.2703631 0.29535866
000160 49 c3 8e bd dc 0a dd bd 1d d4 05 3b ca 71 46 be
       -0.069708414 -0.10793087 0.0020420619 -0.19379345
000170 ed 9b 63 3d d9 9a da bc cd 0b 03 be f6 14 6a be
       0.055568624 -0.026685165 -0.1279747 -0.22859558
000180 14 d5 87 bd af 93 28 3a a0 03 42 bb 6b 73 bb 3e
       -0.06632438 0.0006430698 -0.0029604211 0.36611494
000190 c7 87 6f be 83 3d ec be 9e d2 50 be 03 95 4d bd
       -0.23391639 -0.4614068 -0.20392844 -0.050190937
0001a0 1f 22 9b 3e 34 cf 33 3e fa 92 91 3e 94 f9 b5 bd
       0.3029947 0.1755951 0.28432447 -0.08885494
0001b0 17 4f 83 be c8 92 56 3e 7d 5b 46 bd a5 77 1a be
       -0.25646278 0.2095443 -0.048427094 -0.15084703
0001c0 ff f8 bc 3d 27 d4 02 3e 7d 00 df bd f7 c2 a0 3e
       0.0922718 0.12776242 -0.10888765 0.31398746
0001d0 45 84 ac bd 29 e3 b2 3e 81 e7 da 3c 06 ac 18 3e
       -0.08423666 0.34938934 0.026721718 0.14909372
0001e0 b1 be 82 be 9d a4 27 3e 09 38 e7 bc 33 66 b0 bb
       -0.2553611 0.16371389 -0.028224962 -0.005383277
0001f0 9a 3d 1d be 1d 44 74 bd 46 1e 79 3d ae c4 2b 3d
       -0.1535553 -0.05963527 0.060819887 0.041935615
000200 4f b1 f9 3e 56 7f 72 bd 27 5c 1e 3d be b3 42 3e
       0.48768088 -0.05920347 0.038662102 0.19013879
000210 e2 5a ab 3d 5d 72 2d 3d dc 21 bf 3e 0d 18 b7 bc
       0.08366944 0.042345393 0.3733052 -0.022350335
000220 fd 0f 9a be 5b c2 7b 3e 33 c4 0e 3e c1 0f 1a 3d
       -0.30090323 0.2458586 0.13942032 0.03761268
000230 37 27 32 3c c7 f1 12 be 33 be bd 3e 95 af 7c 3e
       0.010873607 -0.14350043 0.37059173 0.24676354
000240 6d 82 00 be c2 8f 42 3d 34 71 07 3d 5a 8f 9b 3e
       -0.12549753 0.04750038 0.033066943 0.30382806
000250 1b a8 45 bd b0 4d 81 3e d7 d8 2a be 8d 50 df 3e
       -0.04825602 0.25254583 -0.1668428 0.43616143
000260 7e 23 e2 3d e2 63 c2 3d 50 65 78 3c 72 be 28 bc
       0.11041926 0.094917074 0.0151608735 -0.010299312
000270 75 3a 11 3e 84 03 b8 3e 84 b9 06 be 25 5c 7c 3e
       0.14182456 0.35940182 -0.13156706 0.24644525
000280 44 12 c3 bd f1 3d bc 3e 99 3d f1 bd 07 1d 11 3d
       -0.09524968 0.36766008 -0.11779327 0.035428073
000290 8f be a6 3d a8 74 b1 3d 50 45 e2 bd a9 57 e4 bd
       0.08141815 0.086648285 -0.110483766 -0.11149532
0002a0 e2 cf 43 3d 80 58 8b 3e c0 40 f3 3d 11 d8 43 3e
       0.047805674 0.27215958 0.118775845 0.19125392
0002b0 d2 0b 8b bc 16 21 4f 3d cd 93 d3 3c 4f 8a 0b 3e
       -0.01697341 0.050568663 0.025827313 0.1362698
0002c0 69 29 92 3d a4 9e 8e 3d 45 b0 59 3e 1c c9 b5 bd
       0.071368046 0.06963852 0.21258648 -0.08876249
0002d0 8c 77 26 be 76 e5 2a be cb 68 3e 3e 88 8d 80 be
       -0.16256541 -0.16689095 0.18594663 -0.2510798
0002e0 0a 3d 44 3e b4 53 03 bd 4e 1c 7a bd ce f7 da 3d
       0.1916391 -0.032062247 -0.06106215 0.10691796
0002f0 55 6d 9e 3e 92 c5 b6 bd 3f 29 16 be 4d fc 15 be
       0.3094279 -0.08924402 -0.14664172 -0.14647026
000300 ed a5 41 be c6 99 36 be 33 17 2c 3c 60 c4 9f bd
       -0.18910952 -0.17832097 0.010503578 -0.078011274
000310 f9 99 8b be ad 7a 8b bc a9 78 b2 bd 7a a8 ba 3d
       -0.2726591 -0.01702627 -0.0871442 0.091141656
000320 a2 3a b6 3e ee c4 97 3d 80 47 c2 bd b1 f9 c8 bd
       0.35591608 0.07410608 -0.09486294 -0.0981325
000330 76 81 b3 3d e9 80 ed bd 8c f5 f8 3e fb fd 4f 3e
       0.08764927 -0.11596853 0.48624837 0.2031173
000340 72 d9 90 3e c8 4f 71 be 90 2e aa 3e fc 95 38 3e
       0.28290898 -0.2356559 0.3323865 0.18025964
000350 a2 a5 c2 be b5 f7 50 3e a1 80 45 3e 62 e7 3f 3e
       -0.38016993 0.20406993 0.1928735 0.1874061
000360 e0 82 b4 3e 54 cf 8c 3d 4c 60 d5 3e 88 51 90 be
       0.352561 0.06875482 0.4167503 -0.28187203
000370 69 60 8a be 14 5a 8a 3e 10 44 00 be 9a 2f 2d 3e
       -0.2702668 0.2702185 -0.12525964 0.1691269
000380 d6 0d 25 3d fa 07 4a bc 9f 17 ec be ee c2 8a 3e
       0.040296398 -0.012331003 -0.4611177 0.27101845
000390 29 51 a4 3e d4 ee 40 be 7a 94 80 be 99 10 53 bd
       0.3209317 -0.18841106 -0.2511328 -0.0515295
0003a0 0c d8 cf be f1 86 f3 bd 6a dc 36 be 25 05 8e 3d
       -0.40594518 -0.118909724 -0.17857519 0.06934575
0003b0 91 e7 34 be a4 74 09 be 25 1a 87 3e db 1e 09 be
       -0.1766646 -0.13423401 0.26387134 -0.13390677
0003c0 28 8e a3 3d 31 8c f9 bc d3 1c 6c 3e ef a1 78 3e
       0.079860985 -0.030462356 0.2305787 0.24280523
0003d0 27 85 5f be 0f 61 d6 3d d8 2a 0a 3e ca 15 8a bd
       -0.21828137 0.10467731 0.13492906 -0.06742437
0003e0 0e 76 4e 3e f6 cb 7b 3e 8a 79 47 3d a5 dc e5 bd
       0.20162222 0.24589524 0.048699893 -0.11223725
0003f0 75 be ad be 5f a0 b1 bd 86 39 65 be 03 d0 25 bc
       -0.3393437 -0.086731665 -0.22385225 -0.010120395

fc4_adv.bias f4 [38]
000000 52 f8 87 3d ad 8a 20 3d f5 76 f9 bd 9f 53 7b 3b
       0.0663916 0.03919475 -0.121808924 0.0038349403
000010 d6 b1 7e 3d 8e 50 fd 3b 0b 6f 4c 3e 99 bc cd bc
       0.062181316 0.00773055 0.19964235 -0.025114344
000020 26 24 f7 bc f7 cd 33 3d 5a f1 f1 bd b9 0e 23 be
       -0.030168604 0.043897595 -0.11813612 -0.15923585
000030 5f 3c 3b 3e d5 e5 a6 3d 0d e3 d5 bb 37 a1 c6 3d
       0.18284748 0.08149306 -0.0065273107 0.09698718
000040 8b d1 a9 3d 89 94 cd 3d b2 39 9f bc 75 25 9f bd
       0.0829192 0.100380965 -0.019436691 -0.07770816
000050 d0 94 a5 3d bc 22 3b 3e 63 cc e9 bc a9 6f ea 3d
       0.08085024 0.18274969 -0.028539842 0.11447079
000060 ba 89 b2 3d da 48 02 3e cf 19 14 3e 08 bd 59 bd
       0.087176755 0.12723103 0.1446297 -0.05315879
000070 ed 68 e8 bd 2c 4b f8 3d 36 1a 37 3d 32 03 df bd
       -0.11348138 0.12123713 0.04470273 -0.10889281
000080 b9 81 64 3d 4c 92 86 3d da 5a 05 be 9b 98 35 3e
       0.055787776 0.06570873 -0.13022938 0.17733996
000090 89 9c 97 be 37 c0 87 3e
       -0.29611614 0.26513836

fc4_val.weight f4 [1, 76]
000000 06 cf ce be 48 4c c0 3e 0c 4f 5b bf 38 6d 83 be
       -0.4039232 0.37558198 -0.8566749 -0.25669265
000010 98 51 9e 3e 8f 1e dc 3e d6 c0 30 3e 56 61 65 3e
       0.30921626 0.42992064 0.17261061 0.22400412
000020 b4 f7 8a 3e dc 52 50 3e c4 97 b7 bf 26 b1 13 c0
       0.27142107 0.20344108 -1.434319 -2.3076873
000030 8e 57 dc be 7b 38 84 3e 73 ca c3 be d3 bb 8b bf
       -0.4303555 0.2582434 -0.38240394 -1.0916694
000040 e5 6f ee be c0 ad b4 3e 44 21 69 bf 14 91 45 bf
       -0.46569744 0.3528881 -0.91066384 -0.77174497
000050 80 77 e4 be 99 9c 93 bf 6b 75 d3 be 98 96 7f bf
       -0.4462242 -1.1532165 -0.4130052 -0.9983916
000060 bf 83 d5 be 2f 42 d0 be eb 50 ad bf d0 d6 93 bf
       -0.41702077 -0.40675494 -1.3540319 -1.154993
000070 be 6f 92 3e 5b 35 56 3e 3e 3b 7f bf a9 6c 8f 3e
       0.28600878 0.20918791 -0.9969977 0.2801259
000080 c8 0f 89 bf d1 4b c7 be 82 4a 06 bf 84 21 5e 3e
       -1.0707941 -0.3892503 -0.5245744 0.21692473
000090 9a 2b b7 be 90 42 ca 3e 26 6d a5 3e 76 c8 a2 bf
       -0.35775453 0.39503908 0.32309836 -1.2717426
0000a0 65 0c b9 bf 3e 24 5a bf 20 df df 3e 63 8c ea be
       -1.4456908 -0.8521155 0.43724918 -0.45810232
0000b0 81 20 80 bf 9f 2e 7a 3e 9e 3f 82 be 20 5b 20 3e
       -1.000992 0.24431847 -0.2543916 0.15659761
0000c0 32 69 42 3e 52 a6 82 bf 93 ae 2b 3e 2b e7 be bf
       0.18985441 -1.0207007 0.16765814 -1.4914297
0000d0 dd a6 7e bf 1c 73 a0 3e 63 78 39 3e fc 88 20 3e
       -0.99473363 0.3133782 0.1811233 0.15677255
0000e0 1e 7a 66 3e c7 bd 62 3e 26 3f b8 3e d9 ed 68 3e
       0.22507522 0.22142707 0.35985678 0.22746982
0000f0 4d 63 b2 bf dd 37 ab 3e c4 56 32 3e 1b 50 73 bf
       -1.3936554 0.33441058 0.17415911 -0.95044106
000100 8a 54 5b 3e 74 c8 64 bf 0c 60 15 3e ad 59 8b bf
       0.21418968 -0.8936837 0.1458742 -1.0886742
000110 68 02 77 be 8c fd d0 3e d8 e1 c3 3e 54 f2 28 bf
       -0.24122012 0.4081844 0.38258243 -0.65994763
000120 10 15 32 bf ff 15 e5 be ac d3 cb 3e 45 37 97 3e
       -0.6956339 -0.44743344 0.3980993 0.29534355

exp_avg f4 [1, 6, 1, 4]
000000 74 e6 27 40 c0 3d f6 3d fc 67 02 be ad 9f c5 ba
       2.6234407 0.12023497 -0.1273498 -0.0015077494
000010 c6 b7 68 40 04 00 00 00 04 00 00 00 00 00 00 00
       3.6362166 6e-45 6e-45 0.0
000020 99 b7 15 bd 99 b7 15 bd 99 b7 15 bd 40 21 b5 3c
       -0.036552045 -0.036552045 -0.036552045 0.022110581
000030 95 25 6a 3d 59 af d1 3d 59 af d1 3d 81 dc c9 bc
       0.057164747 0.10238523 0.10238523 -0.024641277
000040 9d 4a 8b bd e2 a5 4c bc e2 a5 4c bc 77 a0 43 bd
       -0.06801341 -0.012490721 -0.012490721 -0.047760453
000050 0c 3b 32 3d 2d 45 b0 3d 2d 45 b0 3d 00 00 00 00
       0.043513343 0.08606944 0.08606944 0.0

exp_avg_sq f4 [1, 6, 1, 4]
000000 6d a1 34 42 44 c8 9d 40 36 06 29 3f d3 89 97 3c
       45.157642 4.9306965 0.660251 0.018498337
000010 6e 7c 2e 43 f4 01 00 00 f4 01 00 00 00 00 00 00
       174.48605 7e-43 7e-43 0.0
000020 0c 86 51 40 0c 86 51 40 0c 86 51 40 d4 30 38 3e
       3.2738066 3.2738066 3.2738066 0.17987376
000030 25 f2 3f 3f 79 18 21 3f 79 18 21 3f e8 99 13 3d
       0.7497886 0.6292797 0.6292797 0.03603545
000040 08 48 04 3f 7a c5 f5 3e 7a c5 f5 3e 3a dd 3b 3d
       0.5167241 0.48002225 0.48002225 0.045865275
000050 df 51 17 3f b2 4b 0f 3f b2 4b 0f 3f 00 00 00 00
       0.591093 0.55974877 0.55974877 0.0

exp_avg f4 [1, 6, 2, 4]
000000 0b ab 3a 3f 18 ba de 3d 55 44 91 3c 20 1f 9b 3c
       0.7291724 0.10875338 0.017732779 0.01893574
000010 3f 43 09 3f fc 8e fd bd 01 9e 33 bd af 52 06 bc
       0.53618234 -0.12380788 -0.043851856 -0.008198424
000020 8e ee be 3f a0 7b 3c 3e 63 73 b4 bd 83 fd d5 3e
       1.4916551 0.18406534 -0.08811071 0.41794977
000030 3f 0d eb 3f c1 5c 75 3e 7c ba 5b 3d 6b dd 40 3d
       1.8363417 0.23961164 0.053644642 0.04708616
000040 ce 11 6b 3e ce 11 6b 3e ce 11 6b 3e ca 72 52 3c
       0.2295601 0.2295601 0.2295601 0.012844751
000050 d4 d3 cb 3d d4 d3 cb 3d d4 d3 cb 3d f0 24 6d 3d
       0.099525124 0.099525124 0.099525124 0.057896554
000060 6d 34 24 3e 2d a5 44 3e 2d a5 44 3e c1 20 3b bc
       0.16035624 0.19203635 0.19203635 -0.011421383
000070 8f 73 75 3d 3e 54 c1 3d 3e 54 c1 3d 77 4c 70 bc
       0.05992466 0.09439896 0.09439896 -0.014666668
000080 55 a9 2a bd f5 b5 b7 bc f5 b5 b7 bc f3 ab b1 3b
       -0.041665394 -0.022425631 -0.022425631 0.0054221093
000090 6f 9d b0 bd 41 73 5c bd 41 73 5c bd 90 ab 72 3b
       -0.08623778 -0.053820852 -0.053820852 0.0037028529
0000a0 72 57 0a 3d 4c f6 24 3c 4c f6 24 3c c5 59 70 3c
       0.0337748 0.010068487 0.010068487 0.01466984
0000b0 4f 50 32 3e df 4b 26 3e df 4b 26 3e 7a 37 ce b7
       0.17413448 0.1623988 0.1623988 -2.4582947e-05

exp_avg_sq f4 [1, 6, 2, 4]
000000 76 a8 a3 40 bf 25 3c 3f f3 28 10 3e 3a ab f7 3a
       5.114314 0.73495096 0.14078121 0.0018895634
000010 ee fe 90 40 0c 57 45 3f e2 dd 14 3e ff 19 16 3b
       4.5311193 0.7708595 0.14537767 0.0022903678
000020 1a af 15 43 58 f0 96 42 4f 7f a2 41 9d 91 13 40
       149.68399 75.46942 20.312162 2.3057625
000030 c0 8e 15 43 e8 aa 7d 42 ce 28 3d 41 b9 6c a9 3e
       149.55762 63.4169 11.822462 0.3309076
000040 b3 a0 63 3f b3 a0 63 3f b3 a0 63 3f 72 a1 ec 3c
       0.8891708 0.8891708 0.8891708 0.028885577
000050 fa 2a 34 3f fa 2a 34 3f fa 2a 34 3f eb 70 f0 3c
       0.7037808 0.7037808 0.7037808 0.029350718
000060 fb 03 a0 3e 75 bc 84 3e 75 bc 84 3e 32 0b ea 3b
       0.31253037 0.2592503 0.2592503 0.007142448
000070 e2 e8 a4 3e 56 3d 8c 3e 56 3d 8c 3e 91 e2 a5 3a
       0.32208925 0.27390546 0.27390546 0.0012656023
000080 9b db 17 3e c6 c8 10 3e c6 c8 10 3e 38 28 82 38
       0.14829867 0.14139089 0.14139089 6.2063744e-05
000090 8d 00 8e 3e e5 dc 85 3e e5 dc 85 3e 82 45 24 3c
       0.27734795 0.26145092 0.26145092 0.010026338
0000a0 66 82 31 3e f8 6a 22 3e f8 6a 22 3e 7d f7 95 3b
       0.173349 0.15861118 0.15861118 0.004576622
0000b0 1e 60 9b 3e eb 49 95 3e eb 49 95 3e f2 5d e7 3b
       0.3034677 0.29157957 0.29157957 0.0070607597

exp_avg f4 [1, 6, 3, 4]
000000 e5 f8 a1 3d 5a d2 fa 3c 42 4a 2b bd a0 81 c8 bb
       0.07908801 0.030617882 -0.041818865 -0.006118968
000010 1f 0e 0e 3e 63 af cb 3d fd f4 88 3c c3 fc 0f bb
       0.13872574 0.09945562 0.016718382 -0.0021970726
000020 cf da a7 3e b3 71 2d 3e 30 65 46 3d 7b f6 4d 3c
       0.32784125 0.16937904 0.048436344 0.012570973
000030 4d dc 6d 3f 2c 6a 1e 3f 0a 53 5a 3e 63 01 0d be
       0.9291428 0.61880755 0.2132074 -0.1377006
000040 57 05 3d 3f 95 cd b9 3e 85 cb 8e 3e 18 40 58 3d
       0.7383627 0.3628966 0.27889648 0.0527955
000050 ed ab 1a 3f b0 3c e7 3e 88 bb cd 3d dc e2 f4 bd
       0.6041859 0.45163488 0.10045534 -0.119573325
000060 f2 ad 3e 3d f2 ad 3e 3d f2 ad 3e 3d 36 d6 06 3b
       0.046552606 0.046552606 0.046552606 0.0020574457
000070 94 83 33 3d 8e 83 33 3d 96 83 33 3d 77 2d b8 3a
       0.043826655 0.043826632 0.043826662 0.0014051636
000080 37 50 99 3d 36 50 99 3d 34 50 99 3d 4c 1d 97 bc
       0.07486003 0.07486002 0.07486001 -0.018446587
000090 19 a2 95 3c 16 4d a8 3c 14 4d a8 3c ea f4 f7 3b
       0.01826577 0.02054457 0.020544566 0.007567038
0000a0 8c 82 92 3c a0 38 61 3c 9b 38 61 3c d6 d5 62 3b
       0.017884515 0.013746411 0.013746406 0.003461232
0000b0 a4 95 56 3d 32 6f 2f 3d 34 6f 2f 3d 92 cb e8 bb
       0.052388802 0.042830653 0.04283066 -0.0071043456
0000c0 91 69 49 3d 64 6e 42 3d 64 6e 42 3d 60 f6 4e ba
       0.04917294 0.047468558 0.047468558 -0.0007894989
0000d0 08 3f 0a 3d 2d d2 cb 3c 2f d2 cb 3c 9d 7c d5 bc
       0.033751518 0.024880493 0.024880497 -0.026060397
0000e0 ea 61 2a 3d c0 0a db 3c c0 0a db 3c 17 4c 2d 3b
       0.041597284 0.026738524 0.026738524 0.0026443058
0000f0 62 3d 65 bd 05 9f e0 bc 06 9f e0 bc 4f 3c 16 bc
       -0.055966742 -0.027419576 -0.027419578 -0.009169652
000100 04 7b 75 bc 08 77 63 3c 01 77 63 3c 4f 31 87 ba
       -0.0149829425 0.01388336 0.013883353 -0.0010314378
000110 c0 8a 14 bd 2b 18 a5 bc 2e 18 a5 bc 39 f2 cf ba
       -0.036265135 -0.020153126 -0.020153131 -0.0015865035

exp_avg_sq f4 [1, 6, 3, 4]
000000 99 66 95 3f f0 81 0d 3e 8d d4 9e 3c 26 65 09 3a
       1.1671935 0.13819098 0.019388461 0.00052412075
000010 92 07 a9 3f 66 ae 1a 3e 3f 3c 03 3d 92 cb f4 3a
       1.3205435 0.1510559 0.032039877 0.0018676391
000020 25 8b a6 3f ea ec 31 3e 8c 03 35 3d b1 f7 f2 3a
       1.3011214 0.17375532 0.044192836 0.0018536953
000030 34 4a a3 41 5e 68 3f 41 c8 44 76 40 d5 b5 17 3f
       20.411232 11.96298 3.847948 0.5926183
000040 21 5c a4 41 03 3d 3b 41 a3 b1 68 40 dd 09 0c 3f
       20.544985 11.702395 3.635842 0.5470255
000050 50 17 a8 41 18 5d 3f 41 5c 0d 79 40 76 64 1a 3f
       21.011383 11.960228 3.8914404 0.6030954
000060 d8 6b db 3d d6 6b db 3d d8 6b db 3d c0 d2 b5 3b
       0.10713929 0.107139274 0.10713929 0.005548805
000070 c4 3e 03 3e c4 3e 03 3e c3 3e 03 3e 4c af c9 3b
       0.12816912 0.12816912 0.1281691 0.00615493
000080 30 bb f3 3d 32 bb f3 3d 35 bb f3 3d eb 30 ae 3b
       0.119009376 0.11900939 0.11900941 0.00531589
000090 86 e7 42 3d a8 1a 38 3d a9 1a 38 3d 25 af 02 3b
       0.04758408 0.044947296 0.0449473 0.001994082
0000a0 ba cc 2e 3d 6e 3f 24 3d 6d 3f 24 3d 8b 06 9a 3a
       0.04267571 0.040099554 0.04009955 0.0011751218
0000b0 bf 98 43 3d a8 10 38 3d a8 10 38 3d ac 4f 9c 3a
       0.047753092 0.04493776 0.04493776 0.00119256
0000c0 ca 81 37 3d 87 fc 2a 3d 87 fc 2a 3d 9f 79 5d 3a
       0.04480151 0.041744735 0.041744735 0.0008448604
0000d0 5f 77 35 3d ed 7c 29 3d ec 7c 29 3d bc b6 d1 3a
       0.044303294 0.041378904 0.0413789 0.0015999894
0000e0 93 e0 2e 3d 8f d0 25 3d 90 d0 25 3d 61 b3 3e 3b
       0.04269464 0.0404821 0.040482104 0.0029098617
0000f0 e8 6c 41 3d dc 6f 33 3d dc 6f 33 3d cd ad ad 3a
       0.047223 0.04380785 0.04380785 0.0013250649
000100 4b ea 19 3d e2 67 0e 3d e3 67 0e 3d 84 27 6f 3a
       0.037576955 0.03476704 0.034767043 0.0009123015
000110 43 73 22 3d d9 12 17 3d da 12 17 3d a2 78 b5 3a
       0.039660703 0.03688321 0.036883213 0.0013845155

exp_avg f4 [1, 6, 4, 4]
000000 18 c1 a3 3f 94 1b c9 3c 22 63 81 bc a4 79 ed 3b
       1.2793303 0.024549283 -0.01579434 0.0072471667
000010 db de 86 3f 02 a6 46 3c d2 e2 63 bd 67 e4 9c bb
       1.053676 0.01212454 -0.055636235 -0.00478797
000020 07 a2 aa 3f 22 87 28 3e be 3d 6f 3b 5b 70 3a 3a
       1.3330697 0.16457799 0.0036505307 0.0007112079
000030 fa 99 a5 3f cc 86 55 3e 61 25 bc bc 63 2e 59 bc
       1.2937615 0.20852202 -0.022967042 -0.013255688
000040 2e bc d6 3f a6 89 b5 3e 13 1d 6d bd 1f 91 af 3e
       1.6776178 0.3545658 -0.057889055 0.34290406
000050 bc bf c6 3f ed 28 35 3d 10 68 2e bd 5b 88 4c 3e
       1.5527263 0.044228483 -0.04257971 0.1997389
000060 ba ad c2 3f aa ff a6 3c 42 cc 80 be ce 3b 1c 3e
       1.5209267 0.020385582 -0.25155836 0.15257189
000070 9b 7c 9c 3f d0 42 9f bd 41 df 06 be 71 ce 61 3e
       1.2225527 -0.07776415 -0.13171102 0.22051407
000080 a3 fe d4 3d a5 fe d4 3d a7 fe d4 3d 70 5a 17 3c
       0.104001306 0.10400132 0.104001336 0.009237871
000090 ea 25 af 3d ec 25 af 3d ef 25 af 3d 9f 7c de bc
       0.085521534 0.08552155 0.08552157 -0.027159033
0000a0 43 d5 ee 3d 47 d5 ee 3d 44 d5 ee 3d 4a e2 80 3c
       0.1166177 0.11661773 0.11661771 0.015732903
0000b0 89 20 76 bd 96 20 76 bd a1 20 76 bd 7c 66 df 3c
       -0.06008962 -0.06008967 -0.06008971 0.027270548
0000c0 50 24 ce 3d 15 6b 06 3e 15 6b 06 3e 24 8e 6e b7
       0.1006552 0.13126786 0.13126786 -1.4219e-05
0000d0 d4 ac c3 3d b2 24 06 3e b1 24 06 3e 2d 12 b4 bb
       0.09554449 0.13099936 0.13099934 -0.005495331
0000e0 09 6f 78 3d 56 d5 e3 3d 53 d5 e3 3d ce e9 c0 bc
       0.060652766 0.11124675 0.11124673 -0.023548987
0000f0 ad 8f 36 bd e4 c0 15 bb 04 c1 15 bb c2 e1 87 bc
       -0.044570614 -0.0022850567 -0.0022850642 -0.016587142
000100 21 18 a9 bd 73 b3 dc bc 78 b3 dc bc e1 e2 19 bc
       -0.08256555 -0.026941037 -0.026941046 -0.009392471
000110 b7 7d 20 bd 6c d8 1a 3c 7c d8 1a 3c 8f 3a f4 bb
       -0.03918239 0.009451013 0.009451028 -0.00745327
000120 f9 b5 cc bd 41 a6 41 bd 41 a6 41 bd 3c 61 0b 3a
       -0.09995646 -0.047277693 -0.047277693 0.0005316918
000130 0f aa c9 bd a9 da 81 bd a8 da 81 bd 98 75 a2 bc
       -0.09846889 -0.06340534 -0.063405335 -0.019831464
000140 9d d2 47 3a e6 4a 23 bd e6 4a 23 bd c3 d9 a2 3b
       0.00076226314 -0.03986635 -0.03986635 0.004969807
000150 6c 2b d8 3c ea be 8c 38 ea c2 8c 38 79 42 c7 3b
       0.026387893 6.711281e-05 6.712026e-05 0.006080922
000160 bf 04 d3 3c 0a f8 a9 3c 0e f8 a9 3c ac b8 32 ba
       0.025759099 0.020748157 0.020748165 -0.00068176794
000170 5e b6 84 bb ab e7 7f bb b6 e7 7f bb e4 74 45 bb
       -0.00405006 -0.0039047997 -0.0039048023 -0.0030129487

exp_avg_sq f4 [1, 6, 4, 4]
000000 bc 05 09 41 4a 9e 18 3f 87 71 91 3d 3c 35 e3 3a
       8.5639 0.5961653 0.07101732 0.0017334591
000010 59 69 e3 40 d4 1b dc 3e d4 4b 05 3d 4e f9 b5 3a
       7.10661 0.4298998 0.03254302 0.0013883503
000020 c3 50 08 41 52 61 fc 3e 6a e3 64 3d 4e d0 8a 3b
       8.519717 0.49293 0.05588094 0.0042362576
000030 67 d8 fb 40 ba 26 15 3f ef bc 94 3d 92 25 8f 3a
       7.8701663 0.5826222 0.07262599 0.0010921231
000040 55 df d6 42 e0 13 40 42 2a 49 48 41 68 3a d3 3f
       107.436195 48.01941 12.517862 1.6502199
000050 4c b8 db 42 c4 be 44 42 ac 54 56 41 5f 31 e7 3f
       109.859955 49.186295 13.395672 1.8061942
000060 e2 a0 d6 42 91 e6 3e 42 c9 58 4f 41 47 74 d7 3f
       107.314224 47.725163 12.959176 1.683236
000070 c1 a2 d5 42 67 c7 3b 42 be cc 4c 41 5e 8e d3 3f
       106.81788 46.94473 12.799986 1.6527822
000080 a5 28 07 3f a4 28 07 3f a5 28 07 3f 13 60 74 3c
       0.52796394 0.5279639 0.52796394 0.014915484
000090 61 da 05 3f 60 da 05 3f 61 da 05 3f ae 5d 8f 3c
       0.52286345 0.5228634 0.52286345 0.017500725
0000a0 14 e3 07 3f 14 e3 07 3f 14 e3 07 3f dc 7f 60 3c
       0.5308087 0.5308087 0.5308087 0.013702359
0000b0 bd ce 09 3f be ce 09 3f bd ce 09 3f 70 fb 87 3c
       0.5383108 0.5383109 0.5383108 0.016599387
0000c0 a0 2e 3e 3e de 44 14 3e de 44 14 3e 13 94 46 3b
       0.18572474 0.14479396 0.14479396 0.0030300661
0000d0 42 4b 25 3e 8c ec f9 3d 8c ec f9 3d c5 8d 78 3b
       0.1614199 0.12203321 0.12203321 0.0037926298
0000e0 26 74 3a 3e 71 cf 16 3e 71 cf 16 3e b3 79 1c 3b
       0.1820837 0.1472757 0.1472757 0.002387625
0000f0 35 61 28 3e ae a0 04 3e af a0 04 3e e4 bc 43 3b
       0.16443332 0.1295192 0.12951921 0.0029867226
000100 8d e0 12 3e c0 c1 ff 3d c0 c1 ff 3d 3a 2d 11 3b
       0.14343472 0.12488127 0.12488127 0.0022152201
000110 b8 0a 14 3e 86 0e 06 3e 87 0e 06 3e 22 6e 23 3b
       0.14457214 0.13091478 0.13091479 0.002493747
000120 94 e5 15 3e 08 85 07 3e 08 85 07 3e ca 03 2a 3b
       0.14638358 0.13234341 0.13234341 0.00259422
000130 a8 76 06 3e 14 e8 fa 3d 13 e8 fa 3d 52 28 8e 3b
       0.13131201 0.12251297 0.12251296 0.0043383026
000140 d8 4d 12 3e 5e fc 04 3e 5d fc 04 3e 15 af 53 3b
       0.14287508 0.12986895 0.12986894 0.0032300402
000150 6e 44 12 3e a8 21 05 3e a8 21 05 3e d3 c6 7a 3b
       0.14283916 0.1300112 0.1300112 0.003826548
000160 f5 f8 0a 3e c8 6d ff 3d c8 6d ff 3d 95 49 70 3b
       0.13571532 0.12472111 0.12472111 0.0036664952
000170 30 da 17 3e 60 1a 0e 3e 60 1a 0e 3e 44 b2 7a 3b
       0.14829326 0.13877249 0.13877249 0.0038253227
