TrainedModel/Dueling DQN-2/900_0-12_DuelingDQN.pth (torch, 291157 bytes, 33 tensors)

conv1.weight f4 [1, 6, 1, 4]
-0.037737656 0.03980694 0.07850397 0.14838101 -0.21739261 -0.48395896 0.0140050305 0.19744077
0.016571237 0.37680566 -0.2672865 0.25971577 0.23348849 0.16995302 -0.15628822 0.34010184
0.33433434 -0.3685198 0.3396334 0.31441075 -0.4508275 0.038022406 0.11627407 -0.39970577
00000000: cd92 1abd 9a0c 233d b0c6 a03d 31f1 173e
00000010: 2b9c 5ebe 78c9 f7be 5b75 653c ea2d 4a3e
00000020: 67c0 873c acec c03e c7d9 88be 77f9 843e
00000030: 9b17 6f3e 2a08 2e3e 050a 20be d421 ae3e
00000040: df2d ab3e a1ae bcbe 6ee4 ad3e 72fa a03e
00000050: ddd2 e6be 62bd 1b3d 1a21 ee3d 3ca6 ccbe

conv2.weight f4 [1, 6, 2, 4]
0.20008157 -0.008029246 -0.2786676 0.08324258 0.49075335 -0.21233854 0.13563395 -0.13530058
-0.03191502 -0.064365536 -0.07193976 -0.20692731 0.10159659 -0.16356553 -0.3069489 0.075600736
0.21979918 -0.05235245 -0.24566585 0.2397567 -0.19614781 -0.097010426 0.008735015 0.16388041
0.18064882 -0.06850206 -0.23864573 0.19298108 0.22643057 -0.23304982 0.018500317 -0.12282784
-0.16675624 0.36749715 -0.23513442 -0.15535751 0.13344683 0.07343135 -0.093207896 -0.05033373
-0.0025826287 -0.13974941 0.19865803 0.059204806 0.083828755 -0.05388501 0.14190672 0.12211304
00000000: 2fe2 4c3e 198d 03bc 85ad 8ebe 167b aa3d
00000010: 0644 fb3e 466f 59be a0e3 0a3e 3c8c 0abe
00000020: 53b9 02bd 14d2 83bd 2755 93bd c1e4 53be
00000030: df11 d03d b97d 27be 6828 9dbe 8fd4 9a3d
00000040: 0913 613e 866f 56bd d48f 7bbe c882 753e
00000050: f9da 48be 67ad c6bd 4f1d 0f3c 44d0 273e
00000060: 01fc 383e cf4a 8cbd 8c5f 74be d59c 453e
00000070: 6add 673e 9da4 6ebe fa8d 973c 2a8d fbbd
00000080: 26c2 2abe 9628 bc3e 14c7 70be 0a16 1fbe
00000090: 49a6 083e 2d63 963d c8e3 bebd be2a 4ebd
000000a0: 5241 29bb 781a 0fbe 036d 4b3e bd80 723d
000000b0: 69ae ab3d 87b6 5cbd ff4f 113e 6716 fa3d

conv3.weight f4 [1, 6, 3, 4]
0.3810903 -0.024849372 -0.2148945 0.20061103 0.16602276 -0.14024122 0.15490034 0.03496841
0.34528902 0.03509126 -0.058743037 0.01553738 0.115204275 0.14096907 0.07885345 -0.1888305
-0.047310635 -0.24097273 -0.14710693 -0.098317645 -0.16243736 -0.08740942 0.15155618 -0.11970112
0.22695328 -0.07526502 0.014366484 0.19038628 -0.14277703 0.03206181 -0.17459388 0.005553672
0.21578787 0.21392283 0.06677406 -0.23956147 0.101815544 0.04396151 0.020615201 0.20216195
0.05596808 -0.0493891 -0.22438984 0.14817572 -0.28708583 -0.0366684 0.16018589 0.025050066
-0.23074299 0.16962923 -0.007059631 0.19407678 -0.2175024 -0.22937003 0.10575316 -0.17200099
-0.016605597 0.18897414 -0.16152063 -0.005508084 0.04844337 -0.07002409 0.07812722 -0.021716101
0.005181387 0.029340658 -0.24043898 -0.015727738 0.098219424 0.01873603 -0.11853264 0.05942559
00000000: 451e c33e e990 cbbc 4e0d 5cbe fa6c 4d3e
00000010: df01 2a3e 659b 0fbe 329e 1e3e 093b 0f3d
00000020: b9c9 b03e dabb 0f3d 8a9c 70bd 7f90 7e3c
00000030: 38f0 eb3d 325a 103e eb7d a13d c85c 41be
00000040: ccc8 41bd 8ec1 76be 33a3 16be c35a c9bd
00000050: fb55 26be b603 b3bd 8b31 1b3e dc25 f5bd
00000060: 7166 683e 8c24 9abd 6761 6b3c 9ff4 423e
00000070: 2434 12be 3f53 033d bdc8 32be 94fb b53b
00000080: 7ff7 5c3e 960e 5b3e d7c0 883d 9a4f 75be
00000090: ab84 d03d fc10 343d 36e1 a83c 8b03 4f3e
000000a0: c93e 653d 3a4c 4abd 73c6 65be 60bb 173e
000000b0: eafc 92be 9b31 16bd c507 243e cc35 cd3c
000000c0: e447 6cbe 49b3 2d3e 7a54 e7bb 10bc 463e
000000d0: f3b8 5ebe fadf 6abe 1d95 d83d 0721 30be
000000e0: 7608 88bc 7082 413e aa65 25be 287d b4bb
000000f0: 8e6c 463d ca68 8fbd 2a01 a03d f7e5 b1bc
00000100: a0c8 a93b d25b f03c a335 76be 75d7 80bc
00000110: 4427 c93d 4e7c 993c 3ec1 f2bd 3f68 733d

conv4.weight f4 [1, 6, 4, 4]
0.25847656 0.09084996 -0.002163451 -0.072443835 -0.020550758 -0.03172844 -0.120359704 0.09698343
0.09894169 0.027444733 0.043806147 -0.21237579 0.25158772 0.20465484 0.07248776 0.090718806
0.2064794 -0.0796063 -0.057287056 -0.29903218 0.25803825 0.06357337 -0.10416711 -0.3832628
-0.09216047 -0.14819378 -0.097807795 -0.10133035 0.01438315 0.17598505 -0.30358955 -0.227797
-0.17947465 0.082581736 0.06577643 0.040068053 0.09974448 0.061918687 0.067206435 0.023286467
-0.08424389 -0.080998376 0.0021833472 0.20970665 -0.13372722 0.14416966 -0.21619156 0.024078166
-0.026211763 0.16931285 -0.16873349 0.22423466 -0.11845421 0.017512215 0.06838404 0.12201247
-0.14372568 -0.057241324 0.23356278 -0.1001131 0.06927879 -0.115430474 -0.012308612 0.016720554
-0.0063554826 0.12605244 -0.024006398 -0.22234534 0.20165244 -0.21178652 -0.01080693 -0.027475007
-0.010274525 -0.09354933 0.08478404 -0.32494345 -0.21717459 0.02565931 -0.0116262585 0.08141666
0.18583699 -0.03490867 -0.04585629 0.10963745 -0.14155865 0.042356767 -0.08096415 -0.12819004
-0.19270678 0.17543484 -0.17614616 -0.18002084 -0.15496454 -0.072350115 0.057570625 -0.20119034
00000000: 0a57 843e 8b0f ba3d afc8 0dbb 6f5d 94bd
00000010: 105a a8bc aef5 01bd 267f f6bd 409f c63d
00000020: f1a1 ca3d c7d3 e03c 136e 333d 0a79 59be
00000030: 1bd0 803e 0a91 513e 7674 943d c8ca b93d
00000040: 566f 533e a108 a3bd d5a5 6abd bf1a 99be
00000050: 971d 843e c132 823d 9155 d5bd 063b c4be
00000060: a1be bcbd 1cc0 17be 744f c8bd 4986 cfbd
00000070: 4ea7 6b3c 6d35 343e 1770 9bbe 9e43 69be
00000080: 34c8 37be 9d20 a93d cbb5 863d 661e 243d
00000090: d546 cc3d 739e 7d3d 87a3 893d 43c3 be3c
000000a0: 1088 acbd 7ae2 a5bd 7d16 0f3b 57bd 563e
000000b0: caef 08be 36a1 133e 5261 5dbe 933f c53c
000000c0: 0dba d6bc 5960 2d3e 79c8 2cbe c59d 653e
000000d0: 1f98 f2bd c775 8f3c ee0c 8c3d ade1 f93d
000000e0: d32c 13be e175 6abd 152b 6f3e 1908 cdbd
000000f0: 0ae2 8d3d d066 ecbd 0faa 49bc 8bf9 883c
00000100: a741 d0bb e413 013e 11a9 c4bc 7fae 63be
00000110: fa7d 4e3e 91de 58be 8d0f 31bc 4413 e1bc
00000120: 7b56 28bc cb96 bfbd 41a3 ad3d fd5e a6be
00000130: 0463 5ebe 7933 d23c 107c 3ebc c7bd a63d
00000140: 0d4c 3e3e 65fc 0ebd ced3 3bbd 9989 e03d
00000150: c0f4 10be 4a7e 2d3d 88d0 a5bd 4044 03be
00000160: ed54 45be 31a5 333e a95f 34be 6257 38be
00000170: 06af 1ebe 4c2c 94bd 2dcf 6b3d d704 4ebe

fc3_adv.weight f4 [76, 130]
0.012742282 0.07065285 0.10579869 -0.10961846 0.053962458 -0.016593207 0.3128494 0.15057097
0.08935224 0.17190039 0.20386973 -0.03304201 -0.031521626 0.25852692 0.1874137 0.16203389
0.1052494 0.042263027 0.29092878 0.12628451 0.27978298 0.025381876 0.09350764 0.103967294
-0.02782925 0.16968566 0.10560982 0.025972078 0.049660787 -0.07819413 -0.0692028 -0.0034835846
0.0919823 0.24689147 0.069593534 -0.0734797 -0.10987831 0.19456927 -0.13232897 -0.08604374
0.18553771 -0.07065421 0.058392502 0.02401691 -0.0043321247 -0.08420925 -0.11838038 0.16169058
0.15419441 0.1263854 0.1108599 0.032454476 -0.061114892 0.16137652 0.13808149 0.027732449
-0.07451172 0.060697466 -0.044095412 0.159747 0.1506416 0.18983912 -0.043237828 -0.026976598
0.18634373 0.022977354 0.1996568 -0.046368126 0.046161138 0.00082972227 -0.15948027 -0.04328329
-0.14512767 0.19268341 -0.06561759 0.08790541 0.070215665 -0.0038843194 -0.11600758 0.023465049
0.19666085 -0.11328828 0.13168477 -0.028571934 -0.044613726 0.099733695 -0.044003632 -0.06383195
0.032672293 -0.169084 0.13867863 0.077648625 0.17343055 0.07943582 -0.03702208 0.10659182
0.005810946 0.0797458 0.14794219 0.06583702 0.09522618 -0.0047949445 0.19021973 0.16789708
0.002318216 -0.025392544 0.033158537 -0.091063894 0.27602407 -0.04000561 0.106637135 0.14469333
0.061813403 0.21705121 0.23190707 -0.027433695 0.14257129 0.20404087 -0.006862859 0.24211857
0.12859868 0.06598816 0.081480645 0.084166884 0.10499409 0.06317245 0.27124712 0.059468225
0.30417472 0.12794492 -0.09719246 0.097500354 -0.075320736 0.12508109 0.011202183 -0.07312881
-0.07439685 0.14593999 -0.06277057 0.010007505 -0.09600965 0.16625413 0.20845327 0.23056236
0.052869342 0.12435866 0.1958722 0.11099356 0.1808997 0.10472322 -0.21218404 -0.034134276
-0.15497394 -0.038310915 0.12370507 0.10430922 0.15101011 0.09609286 0.12429034 -0.059211086
0.12513223 0.1453529 -0.030561058 0.035987202 0.10446293 0.17895517 0.0898004 0.13486223
-0.03479116 -0.030134585 -0.059132703 -0.097499155 -0.07214068 0.1937881 -0.022837799 0.17649205
0.16199806 0.22297469 0.18396057 0.3560706 -0.035823114 -0.13892405 -0.025760256 0.16382053
0.0029253645 -0.20345913 -0.10836382 -0.1413358 -0.11704454 -0.19965313 0.039882638 -0.04996817
-0.11266231 0.13686317 0.13176155 0.084818944 0.03453743 0.1302791 0.10407269 0.0027331656
-0.18447399 0.04929091 -0.15418133 -0.08750711 -0.1388392 -0.03659072 0.17035879 0.09895742
-0.05399143 0.055233236 0.113089815 -0.016495112 -0.090037614 -0.03134074 -0.16031498 0.1309191
-0.099067755 -0.09059886 -0.09574468 -0.02734059 -0.013119116 -0.08044547 0.015518573 -0.064288445
0.07250109 0.18462886 0.17438664 0.20620647 0.14974207 0.16700847 0.18620057 -0.046224467
-0.03913909 -0.10980231 0.19988413 0.10377008 0.09810472 0.21721269 -0.06386184 -0.002912286
0.13104595 -0.0068682767 0.06621257 0.2035099 -0.10045051 -0.0208653 0.11510142 -0.010392959
0.054170348 -0.14104919 0.054906465 0.086003 -0.062077507 -0.11221286 0.160272 0.05006124
00000000: 01c5 503c 71b2 903d fcac d83d a57f e0bd
00000010: bd07 5d3d 7aee 87bc cc2d a03e 472f 1a3e
00000020: 4ffe b63d a806 303e 3ac3 503e 0f57 07bd
00000030: d21c 01bd a45d 843e 61e9 3f3e 36ec 253e
00000040: ff8c d73d ff1b 2d3d 9ef4 943e ba50 013e
00000050: b73f 8f3e a7ed cf3c ef80 bf3d ceec d43d
00000060: 2bfa e3bc 14c2 2d3e f649 d83d 65c3 d43c
00000070: 1c69 4b3d 3e24 a0bd 33ba 8dbd da4c 64bb
00000080: 3761 bc3d 1ed1 7c3e 0e87 8e3d 867c 96bd
00000090: e107 e1bd 2b3d 473e 3f81 07be b337 b0bd
000000a0: 99fd 3d3e 28b3 90bd fa2c 6f3d 1cbf c43c
000000b0: 7ff4 8dbb e675 acbd 6a71 f2bd 3792 253e
000000c0: 24e5 1d3e 2d6b 013e 840a e33d fcee 043d
000000d0: 9c53 7abd e33f 253e 3c65 0d3e 292f e33c
000000e0: 9a99 98bd e89d 783d 649d 34bd b894 233e
000000f0: cb41 1a3e 3065 423e 261a 31bd 07fe dcbc
00000100: e4d0 3e3e 013b bc3c d572 4c3e 81ec 3dbd
00000110: 7613 3d3d b881 593a cc4e 23be d249 31bd
00000120: 599c 14be cd4e 453e 8462 86bd c007 b43d
00000130: 3bcd 8f3d 1190 7ebb 6295 edbd c639 c03c
00000140: 7661 493e b003 e8bd 5fd8 063e b00f eabc
00000150: e2bc 36bd 2e41 cc3d 273d 34bd 53ba 82bd
00000160: 62d3 053d 5b24 2dbe c501 0e3e 3e06 9f3d
00000170: c797 313e 3faf a23d 77a4 17bd d04c da3d
00000180: c069 be3b c451 a33d 287e 173e 8fd5 863d
00000190: f205 c33d e91e 9dbb f6c8 423e 36ed 2b3e
000001a0: 36ed 173b 0604 d0bc 3fd1 073d b57f babd
000001b0: 0753 8d3e ecdc 23bd 9264 da3d 7d2a 143e
000001c0: 0d30 7d3d ac42 5e3e 0c79 6d3e a1bc e0bc
000001d0: 35fe 113e 17f0 503e d5e1 e0bb eeed 773e
000001e0: 5faf 033e cd24 873d 53df a63d b05f ac3d
000001f0: 2407 d73d 8f60 813d e7e0 8a3e f494 733d
00000200: cabc 9b3e fe03 033e d70c c7bd 44ae c73d
00000210: c241 9abd 4215 003e 5c89 373c 8fc4 95bd
00000220: 605d 98bd 4b71 153e db8d 80bd 85f6 233c
00000230: b5a0 c4bd 863e 2a3e c674 553e 8a18 6c3e
00000240: 868d 583d c1af fe3d b992 483e 9750 e33d
00000250: c53d 393e 2179 d63d c646 59be 62d0 0bbd
00000260: 7db1 1ebe e8eb 1cbd 1559 fd3d 13a0 d53d
00000270: 65a2 1a3e 55cc c43d ef8b fe3d 5387 72bd
00000280: aa22 003e 64d7 143e 2f5b fabc 5167 133d
00000290: a9f0 d53d 0640 373e 46e9 b73d 5319 0a3e
000002a0: 2d81 0ebd cedc f6bc 2235 72bd a3ad c7bd
000002b0: 7ebe 93bd 6370 463e 5616 bbbc 55ba 343e
000002c0: d2e2 253e 7a53 643e 2960 3c3e e34e b63e
000002d0: 42bb 12bd 1b42 0ebe 2c07 d3bc 92c0 273e
000002e0: 79b7 3f3b 9757 50be daed ddbd 55ba 10be
000002f0: 0cb5 efbd df71 4cbe fa5b 233d 6cab 4cbd
00000300: 7fbb e6bd dc25 0c3e 80ec 063e 8eb5 ad3d
00000310: 1f77 0d3d e267 053e 1024 d53d e91e 333b
00000320: c0e6 3cbe 44e5 493d b6e1 1dbe ed36 b3bd
00000330: dd2b 0ebe 27e0 15bd 8972 2e3e 30aa ca3d
00000340: 1e26 5dbd 3f3c 623d a29b e73d c220 87bc
00000350: a465 b8bd 265f 00bd 9c29 24be a80f 063e
00000360: 09e4 cabd e58b b9bd c915 c4bd 5ff9 dfbc
00000370: 90f1 56bc 98c0 a4bd 9d41 7e3c a9a9 83bd
00000380: 747b 943d 590f 3d3e 6992 323e ca27 533e
00000390: fc55 193e 4504 2b3e 5dab 3e3e de55 3dbd
000003a0: 4f50 20bd 09e0 e0bd 6dae 4c3e 6885 d43d
000003b0: 21eb c83d 016d 5e3e ffc9 82bd 0ddc 3ebb
000003c0: e930 063e 480f e1bb 759a 873d e664 503e
000003d0: ffb8 cdbd b5ed aabc 4bba eb3d 3b47 2abc
000003e0: bae1 5d3d 336f 10be 9ae5 603d 5722 b03d
000003f0: fc44 7ebd dbcf e5bd 581e 243e 040d 4d3d

fc3_adv.bias f4 [76]
0.031752087 0.07860907 -0.028251883 -0.06050865 0.005988458 -0.060474306 0.11412359 0.14318277
0.043081578 -0.0046903915 -0.009028792 -0.009072003 0.16133915 -0.015333384 0.06448119 0.13965894
0.10494814 0.033099025 0.12905654 0.121327944 0.06919162 -0.046785105 0.16266094 0.01975038
0.11114686 0.041517556 0.011546969 0.11866142 0.04904752 -0.009524517 0.1257805 0.02880068
-0.036755204 -0.0057548075 0.106603324 0.10627831 0.10596594 -0.050332762 0.08218932 0.19835542
0.197649 0.043900307 0.055014588 0.03514904 0.03640979 0.058511358 0.061977543 0.04746503
0.10812444 0.011586354 -0.021001078 0.07511017 0.11261896 0.10341842 0.07279917 0.06831187
-0.060460396 0.010859304 0.098388635 0.152502 0.0067564007 0.20386529 0.08786234 0.0955067
0.12333979 0.012303531 0.07527173 -0.008745911 0.07486106 0.0690105 -0.04383241 0.117866054
0.0569894 0.012616412 0.13116983 0.07497987
00000000: 7a0e 023d cbfd a03d 7e70 e7bc ebd7 77bd
00000010: d43a c43b e8b3 77bd a1b9 e93d 819e 123e
00000020: 4f76 303d dbb1 99bb 80ed 13bc bda2 14bc
00000030: 1736 253e e038 7bbc b70e 843d c102 0f3e
00000040: 0def d63d d892 073d 6627 043e c97a f83d
00000050: 56b4 8d3d bda1 3fbd 9790 263e 8dcb a13c
00000060: f7a0 e33d 500e 2a3d 802f 3d3c c204 f33d
00000070: 0de6 483d b80c 1cbc 9acc 003e 67ef eb3c
00000080: a08c 16bd d392 bcbb d852 da3d 71a8 d93d
00000090: ac04 d93d ba29 4ebd e052 a83d af1d 4b3e
000000a0: 8064 4a3e cfd0 333d fa56 613d 71f8 0f3d
000000b0: 6f22 153d 9ba9 6f3d 2adc 7d3d b16a 423d
000000c0: 5970 dd3d b1d4 3d3c 740a acbc 5cd3 993d
000000d0: c5a4 e63d 09cd d33d bb17 953d 18e7 8b3d
000000e0: 52a5 77bd 39eb 313c fb7f c93d 7c29 1c3e
000000f0: cc64 dd3b 10c2 503e 2cf1 b33d 0499 c33d
00000100: 9299 fc3d c094 493c 1128 9a3d 024b 0fbc
00000110: c150 993d 6155 8d3d 9d89 33bd c263 f13d
00000120: b86d 693d 11b5 4e3c 6251 063e 0c8f 993d

fc3_val.weight f4 [76, 130]
0.076234125 -0.120833494 0.004330304 -0.1856203 -0.04917575 -0.012805708 -0.11757516 -0.08973738
0.016353006 -0.017080307 0.022510873 0.022474892 -0.020278657 0.09398892 0.044420846 -0.10805032
0.079379275 0.18785827 -0.017183708 -0.11408281 0.05276534 -0.15931642 -0.058229826 -0.027940217
-0.21229112 -0.18532594 -0.011370605 -0.07228574 -0.08872913 0.009084672 0.019317776 0.026278755
0.23924363 -0.010173926 -0.14965172 -0.023038464 0.01487237 0.16261509 -0.10710862 0.22422238
0.16291212 -0.096792124 0.20038424 0.08634683 0.27990767 0.14480448 0.17160408 0.007473545
0.18530144 0.10957419 0.259301 -0.037580892 0.16571333 0.1387334 0.031152867 0.14316015
0.037493758 -0.044380847 0.029264549 0.002775139 0.072311155 -0.14147036 -0.08868009 0.20536388
-0.111382164 -0.0043720477 -0.264464 -0.13539045 0.025741339 -0.027861783 0.108996466 0.079119325
0.18410198 -0.093655124 -0.10131992 0.10166545 -0.007603855 0.2048281 0.10825807 -0.033087768
-0.064451665 0.06062029 0.03261087 -0.13254374 0.04704986 0.16829273 0.04172795 0.0798216
-0.005389449 0.07783556 -0.12669918 -0.027145788 -0.11517793 -0.08234836 -0.08245462 -0.1144947
-0.14348076 0.16081122 0.06681009 -0.15190388 -0.095875435 -0.08973148 -0.14023246 0.086972386
-0.082781084 -0.06677528 0.17305285 0.23701027 0.025571885 -0.11545265 -0.08802336 0.1855164
0.18575887 0.023427261 0.19000788 -0.07434279 -0.0076214233 -0.1270817 0.097788654 0.034395896
0.07095544 -0.06735426 -0.08101328 -0.13694455 -0.09067957 -0.035725534 0.18358462 -0.07293663
0.08956376 -0.18286611 0.19083287 0.30667418 0.14410824 0.25089833 0.20107216 0.22580746
0.3671776 0.14784296 0.25567788 0.07953235 0.15351716 0.19041191 0.36548635 0.28770903
0.2023392 0.03231589 0.2874441 0.18766177 0.114174835 0.23039638 0.018529037 0.33862424
0.23098513 0.100743406 0.17779405 0.17774269 0.35404554 0.20484738 0.37811354 0.10144458
0.064802356 0.17981572 0.024216203 0.33522803 0.15307829 0.2714857 0.15188858 0.1411157
0.14965196 0.22526586 0.28463212 0.1660846 0.23031458 0.14452922 0.0040085325 0.25998107
0.34322223 0.25804332 0.18204583 0.04006398 0.1970453 0.04281865 0.006558873 0.27816322
0.064892635 0.12308704 0.18357994 0.08456884 0.17081545 0.20726807 0.037698105 0.25192577
0.33017814 0.17587458 0.32034886 0.07592719 0.21697335 0.21525474 0.121462 -0.025093867
0.12684414 0.22074063 0.066379234 0.2524533 0.020197758 -0.038498197 -0.080565624 0.13296627
0.2142167 0.15513842 0.16410817 0.16635647 0.09782665 -0.058100797 0.056458402 0.26230454
-0.0074349614 0.056451958 0.21795772 0.2344796 0.23399349 -0.07893993 -0.0076268376 0.0829529
0.31676406 0.19697346 0.1623806 0.21855728 0.08685683 0.019568501 0.1850755 0.082585014
0.08670002 0.1200362 0.115508884 0.20821562 0.09309219 0.059732065 0.2673772 0.09339452
0.014222702 0.17991717 0.22137555 0.2918605 0.17630139 -0.018645195 0.1945824 0.2540198
0.031022465 0.020627273 0.18289451 0.14032218 0.048669606 0.29126245 0.28264964 0.19115333
00000000: a320 9c3d 8d77 f7bd 39e5 8d3b 3f13 3ebe
00000010: 836c 49bd 08cf 51bc 3fcb f0bd 3bc8 b7bd
00000020: bdf6 853c 00ec 8bbc b968 b83c 441d b83c
00000030: 6d1f a6bc 437d c03d a2f2 353d 7c49 ddbd
00000040: 9a91 a23d eb5d 403e d9c4 8cbc 40a4 e9bd
00000050: 7820 583d d823 23be 6682 6ebd e2e2 e4bc
00000060: d862 59be 15c6 3dbe c64b 3abc 8c0a 94bd
00000070: 9eb7 b5bd e0d7 143c 5040 9e3c 8b46 d73c
00000080: 48fc 743e 8ab0 26bc 4d3e 19be 29bb bcbc
00000090: 3eab 733c 9284 263e c45b dbbd 8d9a 653e
000000a0: 6fd2 263e f33a c6bd 8731 4d3e 9bd6 b03d
000000b0: 0f50 8f3e a047 143e fbb8 2f3e a4e4 f43b
000000c0: a9bf 3d3e 6f68 e03d 1ac3 843e 6cee 19bd
000000d0: c1b0 293e 2110 0e3e 4c34 ff3c 9398 123e
000000e0: 0e93 193d b1c8 35bd 35bc ef3c 1bdf 353b
000000f0: df17 943d 9bdd 10be e89d b5bd e94a 523e
00000100: 551c e4bd 6543 8fbb d367 87be cba3 0abe
00000110: 80df d23c 653e e4bc 8a39 df3d 5009 a23d
00000120: 3b85 3c3e 42ce bfbd d180 cfbd fa35 d03d
00000130: c229 f9bb 75be 513e 68b6 dd3d 0a87 07bd
00000140: 3cff 83bd fb4c 783d fa92 053d 8cb9 07be
00000150: 5bb7 403d ee54 2c3e edea 2a3d 8279 a33d
00000160: fa99 b0bb 4068 9f3d 6ebd 01be d860 debc
00000170: 68e2 ebbd 42a6 a8bd f8dd a8bd 337c eabd
00000180: 9fec 12be b2ab 243e bad3 883d b18c 1bbe
00000190: 575a c4bd 23c5 b7bd 1999 0fbe 941e b23d
000001a0: 2189 a9bd 7ac1 88bd c434 313e d2b2 723e
000001b0: 217c d13c 7072 ecbd 9745 b4bd 03f8 3d3e
000001c0: 9337 3e3e 87ea bf3c 6d91 423e 0841 98bd
000001d0: 22bd f9bb b521 02be 6b45 c83d b6e2 0c3d
000001e0: 1651 913d 08f1 89bd 4aea a5bd 313b 0cbe
000001f0: 36b6 b9bd f054 12bd 9bfd 3b3e cd5f 95bd
00000200: 346d b73d 4141 3bbe b169 433e 6604 9d3e
00000210: 1c91 133e bf75 803e dce5 4d3e 123a 673e
00000220: b4fe bb3e 2564 173e 36e8 823e dbe1 a23d
00000230: 9a33 1d3e 57fb 423e 0721 bb3e 994e 933e
00000240: 0232 4f3e ab5d 043d e02b 933e 682a 403e
00000250: 7fd4 e93d 07ed 6b3e 35ca 973c 2860 ad3e
00000260: 5e87 6c3e 8f52 ce3d a50f 363e 2e02 363e
00000270: 7545 b53e 83c3 513e 1998 c13e 2dc2 cf3d
00000280: 19b7 843d 9d21 383e 0f61 c63c 02a3 ab3e
00000290: 8ec0 1c3e 2c00 8b3e ae88 1b3e a280 103e
000002a0: 5d3e 193e 18ac 663e 4dbb 913e 1512 2a3e
000002b0: 96d7 6b3e 78ff 133e 025a 833b 3d1c 853e
000002c0: d3ba af3e 411e 843e 396a 3a3e 211a 243d
000002d0: 3ec6 493e 9c62 2f3d d1eb d63b 696b 8e3e
000002e0: 6ee6 843d 0f15 fc3d 61fc 3b3e 6e32 ad3d
000002f0: 3fea 2e3e 153e 543e 5469 1a3d 6afc 803e
00000300: 1c0d a93e 7718 343e c404 a43e b77f 9b3d
00000310: 432e 5e3e bd6b 5c3e 12c1 f83d a791 cdbc
00000320: 6ee3 013e d509 623e d6f1 873d 8f41 813e
00000330: c575 a53c 49b0 1dbd 97ff a4bd 4f28 083e
00000340: 9f5b 5b3e 9bdc 1e3e f90b 283e 5a59 2a3e
00000350: 5759 c83d 1afb 6dbd ed40 673d c84c 863e
00000360: faa0 f3bb 2b3a 673d 4f30 5f3e 6c1b 703e
00000370: fd9b 6f3e 42ab a1bd 8dea f9bb 36e3 a93d
00000380: e62e a23e 69b3 493e 1a47 263e 7bcd 5f3e
00000390: fee1 b13d 1f4e a03c 6f84 3d3e 5522 a93d
000003a0: c88f b13d 8ad5 f53d ec8f ec3d 7a36 553e
000003b0: 1ea7 be3d 9ca9 743d aae5 883e a045 bf3d
000003c0: 5606 693c 353c 383e 46b0 623e bd6e 953e
000003d0: 5a88 343e cfbd 98bc 9c40 473e e20e 823e
000003e0: d322 fe3c 87fa a83c b348 3b3e 9eb0 0f3e
000003f0: c859 473d 5a20 953e 74b7 903e b3bd 433e

fc3_val.bias f4 [76]
0.07591495 -0.014041533 0.14936751 0.045186438 -0.020805914 0.021070115 -0.024789335 0.048701346
0.059264723 0.032392092 0.07923956 0.17869359 0.04033337 0.04302576 0.10443351 0.13469304
0.14335121 -0.013262952 0.05845234 0.078656845 0.06761075 0.09757779 0.08256386 0.07650472
0.02081984 -0.006624328 0.07309903 -0.008239344 0.007682134 0.061413642 0.07053567 0.019011622
0.0132933 0.07496182 0.10810323 0.083893806 0.13365972 0.020367546 0.07614645 0.04313415
0.1546035 0.04382046 -0.0052894386 0.07603128 0.14073396 0.016499728 0.15178168 0.03427202
0.07867906 0.15710343 0.037744157 0.12963334 0.15794277 -0.039732717 0.0038405184 -0.014011458
0.07513329 0.058841042 0.03675561 -0.019434396 -0.07268206 0.108162254 0.04187943 0.2410686
-0.00555491 0.039076146 -0.008412819 0.00045018227 0.09876571 -0.02023227 0.051056292 0.04628552
-0.012039055 -0.0083136745 0.08064353 -0.050647933
00000000: 4c79 9b3d 750e 66bc ccf3 183e 6a15 393d
00000010: 2a71 aabc 3c9b ac3c 0113 cbbc 107b 473d
00000020: 91bf 723d 92ad 043d 5a48 a23d 74fb 363e
00000030: 9b34 253d c83b 303d 3ce1 d53d f9ec 093e
00000040: a9ca 123e da4c 59bc b96b 6f3d d716 a13d
00000050: 8177 8a3d ddd6 c73d 3e17 a93d 82ae 9c3d
00000060: 5e8e aa3c e410 d9bb f2b4 953d 50fe 06bc
00000070: 69ba fb3b df8c 7b3d 0175 903d 43be 9b3c
00000080: 24cc 593c 9585 993d 3a65 dd3d 84d0 ab3d
00000090: 18de 083e d7d9 a63c acf2 9b3d 6fad 303d
000000a0: 6150 1e3e 157d 333d 0753 adbb 4ab6 9b3d
000000b0: 901c 103e 702a 873c a86c 1b3e d160 0c3d
000000c0: 7d22 a13d b9df 203e 9e99 1a3d 9abe 043e
000000d0: c0bb 213e c6be 22bd 35b1 7b3b 5090 65bc
000000e0: 7bdf 993d 4e03 713d 0d8d 163d e234 9fbc
000000f0: 55da 94bd 2c84 dd3d c489 2b3d b0da 763e
00000100: f605 b6bb 4f0e 203d ecd5 09bc 7106 ec39
00000110: ad45 ca3d 25be a5bc 6720 513d e395 3d3d
00000120: 753f 45bc 1436 08bc 6f28 a53d 3574 4fbd

fc4_adv.weight f4 [38, 76]
-0.083129175 0.07513068 -0.37803653 -0.20677426 0.0035225288 -0.031982675 0.2478416 -0.008468631
0.2889496 0.020387316 -0.11775873 0.2577594 -0.12640153 -0.09117675 0.0530226 -0.2592187
0.08505676 0.10852801 0.061106928 0.2016491 0.21024638 0.1813922 -0.15814349 -0.015508497
-0.2385918 -0.018177334 0.04087726 0.051443987 0.038803063 -0.16382006 -0.15563694 -0.14921813
0.081428885 0.16010278 -0.089336075 -0.01203906 0.032903086 0.08194511 0.11869296 0.020283086
-0.23279753 -0.16081351 -0.11087385 -0.11233422 0.08324915 0.3132812 -0.039299905 0.05565444
-0.073835045 0.23305537 0.18017836 -0.048066422 -0.027973553 -0.27863336 -0.14231588 0.013369465
0.20740062 0.087818615 0.16380472 0.15888502 -0.13419913 0.13609177 0.2134332 0.22911273
0.0018704665 -0.051169522 -0.04061418 0.22288544 -0.21933526 -0.18572979 -0.20295365 0.19547899
0.15716068 0.015199816 -0.26333773 0.07218607 0.09978051 0.096884914 -0.026903415 0.08748032
-0.06368493 -0.022226784 -0.09376307 0.16039187 -0.259528 0.13151707 -0.0068848208 0.26259094
-0.14282423 -0.07591021 -0.048601825 0.02087746 -0.0050433534 -0.09335235 -0.1151641 -0.16593488
-0.07713664 -0.06447974 -0.050782688 0.19611445 -0.14259957 -0.16276278 -0.1702103 -0.11689638
0.26845673 0.13646583 0.19652034 0.013385734 -0.16792904 0.095951565 0.0048231636 -0.14264658
0.016636621 0.22743116 -0.16227652 0.22326481 -0.037239008 0.29234496 0.07348759 0.23595917
-0.12410752 -0.018211016 -0.09316628 0.08534569 -0.17685813 -0.16028889 0.07905032 0.05599566
0.24108456 0.112947516 -0.22879924 0.061566163 0.16783376 0.09124642 0.15626383 -0.014190039
-0.2197258 0.08993129 -0.0705077 -0.049495332 -0.15153112 0.035197515 0.1732519 0.23120983
-0.08692841 0.12426773 -0.007582278 0.20947793 -0.1238715 0.26637295 0.099543385 0.26315582
0.06846883 0.029938389 0.0570308 0.011536466 0.21737167 0.17841746 -0.031228313 0.18976891
-0.14325158 0.14559963 0.1111069 -0.048859477 0.058042727 0.10078854 -0.10803761 -0.025405658
0.0108919125 0.22089796 0.11081109 0.13872862 -0.04317576 0.033721644 0.019314121 0.04442737
0.13613886 0.16889893 0.196205 -0.08640413 -0.12575646 -0.17952853 0.20505965 -0.20830701
0.13822676 -0.13300818 -0.029887017 0.14345767 0.12001898 -0.001443739 -0.134737 -0.13292821
-0.18839297 -0.20675157 0.04666741 -0.10292959 -0.25513282 -0.18759692 -0.1666956 0.09942119
0.23130448 -0.0751325 -0.21942978 -0.09348275 0.019778483 -0.055704787 -0.036964424 0.12960948
-0.13587205 -0.15283278 0.11710868 0.2046038 -0.19343886 0.08321755 0.09841494 0.32627112
0.2473193 0.15516219 0.14333047 -0.2759609 -0.18189333 0.22035202 -0.010777499 0.17211981
-0.0043911366 -0.0025432338 -0.32967708 0.18041773 0.20658484 -0.19753377 -0.22878692 0.05098483
-0.23592475 -0.10024389 -0.20276846 0.052615684 -0.17963476 -0.121430784 -0.06932992 -0.18334225
0.04522717 -0.067938924 0.24060841 0.13748826 -0.23567957 0.065170564 0.18460794 -0.07472774
0.11289627 0.18287106 0.021459743 -0.122939765 -0.2701265 -0.16464445 -0.21392019 -0.06536975
00000000: a13f aabd 1dde 993d 018e c1be a2bc 53be
00000010: 3ada 663b 4400 03bd 30ca 7d3e 03c0 0abc
00000020: 34f1 933e 4d03 a73c 7d2b f1bd 0af9 833e
00000030: 676f 01be e0ba babd 3a2e 593d 50b8 84be
00000040: 3d32 ae3d ef43 de3d 424b 7a3d 1a7d 4e3e
00000050: d44a 573e e0be 393e 5ef0 21be 5a17 7ebc
00000060: 6951 74be a2e8 94bc ea6e 273d eeb6 523d
00000070: f6ef 1e3d 72c0 27be 4a5f 1fbe a3cc 18be
00000080: 30c4 a63d fcf1 233e d5f5 b6bd 7a3f 45bc
00000090: 63c5 063d d6d2 a73d 4b15 f33d b728 a63c
000000a0: 7a62 6ebe 4cac 24be d411 e3bd 7c0f e6bd
000000b0: 887e aa3d 6566 a03e f0f8 20bd e9f5 633d
000000c0: d436 97bd 11a6 6e3e ad80 383e 4ce1 44bd
000000d0: cb28 e5bc 08a9 8ebe 41bb 11be 9a0b 5b3c
000000e0: d460 543e 3fda b33d 6dbc 273e c1b2 223e
000000f0: 7f6b 09be a45b 0b3e 3c8e 5a3e 879c 6a3e
00000100: 712a f53a 2297 51bd 0e5b 26bd 153c 643e
00000110: 6c99 60be f32f 3ebe 15d3 4fbe a52b 483e
00000120: bbee 203e a608 793c 34d4 86be 4ad6 933d
00000130: b959 cc3d 996b c63d 8d64 dcbc e228 b33d
00000140: 3f6d 82bd f214 b6bc da06 c0bd c43d 243e
00000150: dbe0 84be 69ac 063e 109a e1bb 5272 863e
00000160: 8440 12be d076 9bbd b512 47bd 3507 ab3c
00000170: b742 a5bb 842f bfbd 28db ebbd d5ea 29be
00000180: d1f9 9dbd f40d 84bd 8201 50bd 3ad2 483e
00000190: 9f05 12be 49ab 26be 9c4b 2ebe 5f67 efbd
000001a0: 2973 893e b3bd 0b3e a13c 493e d64f 5b3c
000001b0: 97f5 2bbe 4182 c43d a10b 9e3b f211 12be
000001c0: 8649 883c b7e3 683e d12b 26be 889f 643e
000001d0: ee87 18bd 3dae 953e a980 963d 489f 713e
000001e0: 152c febd 452f 95bc f6cd bebd b9c9 ae3d
000001f0: 4c1a 35be c522 24be 22e5 a13d b55b 653d
00000200: dfde 763e 0751 e73d 594a 6abe cd2c 7c3d
00000210: 9ddc 2b3e 67df ba3d a003 203e 567d 68bc
00000220: cdff 60be e52d b83d 5766 90bd 9ebb 4abd
00000230: f92a 1bbe 452b 103d f268 313e 45c2 6c3e
00000240: 8607 b2bd 1480 fe3d c274 f8bb 6281 563e
00000250: 57b0 fdbd 0962 883e 67dd cb3d 5cbc 863e
00000260: 6339 8c3d 5a41 f53c 2199 693d 7203 3d3c
00000270: ae96 5e3e 11b3 363e 85d2 ffbc c852 423e
00000280: 8bb0 12be 1218 153e 048c e33d e020 48bd
00000290: 36be 6d3d 396a ce3d d342 ddbd 871f d0bc
000002a0: fe73 323c 1333 623e edf0 e23d e00e 0e3e
000002b0: 11d9 30bd b51f 0a3d a638 9e3c 79f9 353d
000002c0: fc67 0b3e d7f3 2c3e f7e9 483e a6f4 b0bd
000002d0: 4dc6 00be 54d6 37be 28fb 513e 6f4e 55be
000002e0: 518b 0d3e 4c33 08be 9ed5 f4bc 91e6 123e
000002f0: 83cc f53d d83b bdba 7ff8 09be 551e 08be
00000300: 16ea 40be afb6 53be 5326 3f3d c0cc d2bd
00000310: c5a0 82be 6819 40be 40b2 2abe 569d cb3d
00000320: 15db 6c3e 11df 99bd 33b2 60be e273 bfbd
00000330: 7c06 a23c b42a 64bd 0268 17bd 59b8 043e
00000340: 0b22 0bbe 3280 1cbe add6 ef3d a983 513e
00000350: d614 46be f66d aa3d c68d c93d 020d a73e
00000360: 4541 7d3e d6e2 1e3e 39c5 123e bf4a 8dbe
00000370: 3f42 3abe f6a3 613e 1b94 30bc 2d40 303e
00000380: 86e3 8fbb 62ac 26bb 6fcb a8be 6dbf 383e
00000390: fa8a 533e 4b46 4abe 1e47 6abe 78d5 503d
000003a0: 4296 71be ab4c cdbd 89a2 4fbe 8b83 573d
000003b0: 2df2 37be b4b0 f8bd d8fc 8dbd 12be 3bbe
000003c0: 2040 393d 9023 8bbd 0d62 763e b9c9 0c3e
000003d0: fc55 71be 2578 853d dd09 3d3e db0a 99bd
000003e0: 2936 e73d 8d42 3b3e 58cc af3c d8c7 fbbd
000003f0: 054e 8abe 8e98 28be e50d 5bbe 93e0 85bd

fc4_adv.bias f4 [38]
0.054687828 -0.026842665 -0.074700505 -0.079049625 0.012693305 -0.004798372 0.07841442 -0.04070718
0.011999247 0.020590795 -0.09468716 -0.14521915 0.09394918 0.0966177 -0.091193914 0.05572018
0.11714355 0.0329752 0.030176504 -0.09554817 -0.00467244 0.026834996 -0.0032606903 0.08665236
0.04089369 0.07263263 0.11522631 -0.03358006 0.008395301 0.11789157 0.13020544 -0.05980883
0.15463638 0.08890167 -0.08544516 -0.041283127 0.025748748 0.046514872
00000000: 5800 603d 26e5 dbbc 94fc 98bd c5e4 a1bd
00000010: 94f7 4f3c a93b 9dbb bd97 a03d 92bc 26bd
00000020: 7d98 443c 07ae a83c 57eb c1bd 54b4 14be
00000030: 6d68 c03d 80df c53d e0c3 babd d83a 643d
00000040: f5e8 ef3d 0111 073d b734 f73c c2ae c3bd
00000050: 441b 99bb 11d5 db3c 4eb1 55bb cb76 b13d
00000060: 2480 273d 6bc0 943d c6fb eb3d 3f8b 09bd
00000070: 728c 093c 2371 f13d 9354 053e 1bfa 74bd
00000080: 0059 1e3e 1412 b63d dffd aebd 7f18 29bd
00000090: 0aef d23c 6186 3e3d

fc4_val.weight f4 [1, 76]
-0.3015664 0.38621256 -0.44844422 -0.23465832 0.32567036 0.44849896 0.18373103 0.2342874
0.28822374 0.2158138 -0.45112118 -0.35696918 -0.36387998 0.2692935 -0.30624762 -0.36915547
-0.38726163 0.3718791 -0.26550096 -0.2627549 -0.4033476 -0.37800497 -0.36736926 -0.40498358
-0.39684907 -0.37045094 -0.23951241 -0.36511216 0.30786487 0.2236523 -0.18207386 0.29104522
-0.31611034 -0.34388462 -0.19608465 0.23291093 -0.27936065 0.40633246 0.34167662 -0.262755
-0.4811518 -0.42204455 0.45909062 -0.42133865 -0.36496207 0.26121828 -0.19524184 0.17364296
0.20621769 -0.3461832 0.19005938 -0.31517744 -0.32820216 0.33257294 0.20213798 0.1742279
0.23642202 0.24078916 0.38445714 0.24085021 -0.37480244 0.36701342 0.1958117 -0.3962793
0.22996144 -0.27122444 0.16469112 -0.22943959 -0.2100801 0.42220592 0.39785567 -0.35674074
-0.3165262 -0.2223902 0.42161587 0.2980992
00000000: e966 9abe a7bd c53e 7b9a e5be 454a 70be
00000010: 44be a63e a8a1 e53e fd23 3c3e 09e9 6f3e
00000020: 1092 933e 4bfe 5c3e 5bf9 e6be aac4 b6be
00000030: 7a4e babe d6e0 893e 7dcc 9cbe f201 bdbe
00000040: 2847 c6be f066 be3e beef 87be cf87 86be
00000050: 9483 cebe de89 c1be d317 bcbe 025a cfbe
00000060: cd2f cbbe bfab bdbe be42 75be fbef babe
00000070: 77a0 9d3e 1c05 653e 9271 3abe e103 953e
00000080: 37d9 a1be a511 b0be 6aca 48be 3480 6e3e
00000090: 5c08 8fbe cf0a d03e 3df0 ae3e d387 86be
000000a0: 8759 f6be 3916 d8be ed0d eb3e b3b9 d7be
000000b0: 4fdc babe 67be 853e 7aed 47be 76cf 313e
000000c0: bb2a 533e ed3e b1be ed9e 423e f05e a1be
000000d0: 1d0a a8be 0047 aa3e 42fd 4e3e cc68 323e
000000e0: 9d18 723e 6f91 763e 91d7 c43e 70a1 763e
000000f0: 1be6 bfbe 2fe9 bb3e dd82 483e 1fe5 cabe
00000100: 037b 6b3e eedd 8abe caa4 283e 36f2 6abe
00000110: 3d1f 57be 602b d83e bdb3 cb3e b9a6 b6be
00000120: b90f a2be 42ba 63be 09de d73e 75a0 983e

exp_avg f4 [1, 6, 1, 4]
1.53529 0.5790494 0.092718184 -0.0377869 2.4488935 6e-45 6e-45 0.0
-0.30140585 -0.30140585 -0.30140585 -0.049761236 0.17236258 0.21821664 0.21821664 0.081932336
0.20287423 0.2288401 0.2288401 0.05911875 6e-45 6e-45 6e-45 0.0
00000000: 6284 c43f 953c 143f 08e3 bd3d 70c6 1abd
00000010: acba 1c40 0400 0000 0400 0000 0000 0000
00000020: de51 9abe de51 9abe de51 9abe 70d2 4bbd
00000030: d17f 303e 2f74 5f3e 2f74 5f3e 24cc a73d
00000040: 43be 4f3e 0f55 6a3e 0f55 6a3e 8126 723d
00000050: 0400 0000 0400 0000 0400 0000 0000 0000

exp_avg_sq f4 [1, 6, 1, 4]
30.614923 3.8754272 0.5505558 0.016814373 114.27734 0.00051879714 3.2652526e-06 0.0
2.262967 2.262967 2.262967 0.14008798 0.40977624 0.32265246 0.32265246 0.03591468
0.37755746 0.30812857 0.30812857 0.040763564 0.00017506063 0.0001748938 0.0001748938 0.0
00000000: 5deb f441 0007 7840 3af1 0c3f 4cbe 893c
00000010: 008e e442 e3ff 073a 9d20 5b36 0000 0000
00000020: 74d4 1040 74d4 1040 74d4 1040 3973 0f3e
00000030: 31ce d13e b432 a53e b432 a53e 461b 133d
00000040: 364f c13e 07c3 9d3e 07c3 9d3e b2f7 263d
00000050: 7b90 3739 b263 3739 b263 3739 0000 0000

exp_avg f4 [1, 6, 2, 4]
0.9562381 0.37520435 -0.026426233 -0.03558105 1.0933186 0.61800605 0.054701015 -0.03326807
2.2045074 1.434066 1.4605631 0.45654735 2.2900512 1.4099351 0.500613 0.43573514
0.28976616 0.28976616 0.28976616 -0.014690791 0.069477715 0.069477715 0.069477715 -0.04690876
0.154837 0.107582465 0.107582465 0.04497188 0.3867342 0.31933898 0.31933898 0.01665418
-0.04985968 -0.029100038 -0.029100038 0.035527166 0.21018094 0.24540363 0.24540363 0.05072534
0.1627662 0.1124925 0.1124925 -0.012685415 0.1211907 0.058701556 0.058701556 -0.017381068
00000000: 05cc 743f c91a c03e d47b d8bc 6fbd 11bd
00000010: ddf1 8b3f a535 1e3f 2c0e 603d 1a44 08bd
00000020: a616 0d40 7a8f b73f bbf3 ba3f 93c0 e93e
00000030: 3390 1240 c178 b43f 2c28 003f ad18 df3e
00000040: 3b5c 943e 3b5c 943e 3b5c 943e a5b1 70bc
00000050: 554a 8e3d 554a 8e3d 554a 8e3d 6623 40bd
00000060: 978d 1e3e 3254 dc3d 3254 dc3d 6f34 383d
00000070: 0602 c63e 6680 a33e 6680 a33e 596e 883c
00000080: aa39 4cbd 3463 eebc 3463 eebc ef84 113d
00000090: ac39 573e 174b 7b3e 174b 7b3e 60c5 4f3d
000000a0: 2fac 263e 7862 e63d 7862 e63d 7dd6 4fbc
000000b0: d432 f83d 0b71 703d 0b71 703d be62 8ebc

exp_avg_sq f4 [1, 6, 2, 4]
10.749488 1.4256192 0.12865952 0.0028511833 11.841396 1.564717 0.18108317 0.0069372295
112.68316 36.9333 6.1281357 0.40038684 106.89904 29.533758 0.7675957 0.26118332
0.9693993 0.9693993 0.9693993 0.048737694 0.4786662 0.4786662 0.4786662 0.045126762
0.23954111 0.19348896 0.19348896 0.015680213 0.3945567 0.32628366 0.32628366 0.010262297
0.20286654 0.17758465 0.17758465 0.0051580714 0.3527821 0.3213253 0.3213253 0.021622483
0.29139712 0.2638375 0.2638375 0.01127377 0.39115757 0.36134624 0.36134624 0.017427236
00000000: e7fd 2b41 b17a b63f 52bf 033e ebda 3a3b
00000010: 5c76 3d41 a648 c83f de6d 393e b351 e33b
00000020: c75d e142 b3bb 1342 b019 c440 81ff cc3e
00000030: 4fcc d542 2345 ec41 2781 443f d2b9 853e
00000040: 8d2a 783f 8d2a 783f 8d2a 783f 2da1 473d
00000050: bc13 f53e bc13 f53e bc13 f53e d7d6 383d
00000060: 444a 753e f821 463e f821 463e ca73 803c
00000070: 5603 ca3e a70e a73e a70e a73e 3123 283c
00000080: 3fbc 4f3e c0d8 353e c0d8 353e 0a05 a93b
00000090: db9f b43e c084 a43e c084 a43e a221 b13c
000000a0: 0132 953e b515 873e b515 873e 9eb5 383c
000000b0: ce45 c83e 6002 b93e 6002 b93e 90c3 8e3c

exp_avg f4 [1, 6, 3, 4]
0.6329419 0.42858797 0.13516122 -0.005322897 0.58038265 0.26391926 -0.005743194 -0.015033362
0.5020159 0.3416313 0.13155198 -0.0068324674 1.2632991 0.85840696 0.68568885 0.2003939
1.558668 0.7374034 0.6054421 0.42585623 1.2326752 0.72182494 0.78451556 0.26475924
0.017215574 0.017215528 0.017215582 -0.015210434 0.044633545 0.044633538 0.04463354 -0.01211819
0.18216714 0.18216713 0.18216714 -0.009436879 0.022144105 -0.011156014 -0.011156012 0.02929477
0.09880918 0.083944894 0.083944894 0.027230259 0.0015286899 0.03027711 0.03027711 0.0014884322
0.09196981 0.08150327 0.08150327 0.0051950896 0.109415926 0.1018654 0.1018654 0.0015322325
0.061448816 0.06153634 0.061536342 0.0033197403 0.042799428 0.03675571 0.036755703 0.014450621
0.13564254 0.095441945 0.095441945 -0.002633615 0.04659108 0.005382025 0.005382029 0.016439367
00000000: 7b08 223f e26f db3e b467 0a3e b26b aebb
00000010: f593 143f 6d20 873e 6731 bcbb 7e4e 76bc
00000020: 1d84 003f 4cea ae3e 90b5 063e e4e2 dfbb
00000030: c9b3 a13f 8fc0 5b3f 4e89 2f3f 0f34 4d3e
00000040: 6f82 c73f 78c6 3c3f 41fe 1a3f d409 da3e
00000050: 4dc8 9d3f 85c9 383f 03d6 483f 868e 873e
00000060: ad07 8d3c 9407 8d3c b107 8d3c 2f35 79bc
00000070: aad1 363d a8d1 363d a9d1 363d 5f8b 46bc
00000080: 068a 3a3e 058a 3a3e 068a 3a3e 249d 1abc
00000090: 8e67 b53c b7c7 36bc b5c7 36bc 96fb ef3c
000000a0: 785c ca3d 4deb ab3d 4deb ab3d fe11 df3c
000000b0: 525e c83a b407 f83c b407 f83c 7f17 c33a
000000c0: ab5a bc3d 30eb a63d 30eb a63d 923b aa3b
000000d0: 7515 e03d cf9e d03d cf9e d03d 31d5 c83a
000000e0: c1b1 7b3d 870d 7c3d 880d 7c3d 0090 593b
000000f0: 744e 2f3d 288d 163d 268d 163d 4cc2 6c3c
00000100: e1e5 0a3e 1177 c33d 1177 c33d ba98 2cbb
00000110: 4ad6 3e3d b35b b03b bb5b b03b daab 863c

exp_avg_sq f4 [1, 6, 3, 4]
3.448272 0.46653497 0.05196934 0.00067257823 3.1283324 0.4990986 0.08466234 0.003367334
3.2084718 0.5167776 0.07862636 0.0031073326 25.775988 11.060768 2.516286 0.31682092
21.148958 5.7608657 1.1257876 0.3101917 21.542067 7.7585707 2.4213936 0.31254926
0.36658663 0.3665866 0.36658663 0.017487103 0.13601252 0.13601252 0.13601252 0.00850731
0.52823454 0.5282345 0.5282345 0.021608492 0.08661431 0.078912504 0.078912504 0.0064073335
0.06791432 0.061452392 0.061452378 0.0053066444 0.032743927 0.029937197 0.029937193 0.0013761445
0.04488905 0.041851163 0.04185117 0.0025729171 0.033868685 0.030767076 0.03076708 0.0009965874
0.04932303 0.047976457 0.04797646 0.005350641 0.08252402 0.078417696 0.078417696 0.007821347
0.07038175 0.05974294 0.05974294 0.004835395 0.063288815 0.057419524 0.057419527 0.0070153777
00000000: 7db0 5c40 acdd ee3e cddd 543d f64f 303a
00000010: 9936 4840 da89 ff3e 7363 ad3d 7dae 5c3b
00000020: 9a57 4d40 894b 043f db06 a13d 64a4 4b3b
00000030: 3935 ce41 e8f8 3041 d40a 2140 5a36 a23e
00000040: 1131 a941 0359 b840 cf19 903f 72d1 9e3e
00000050: 2756 ac41 3646 f840 1df8 1a40 7506 a03e
00000060: 3eb1 bb3e 3db1 bb3e 3eb1 bb3e 1d41 8f3c
00000070: de46 0b3e de46 0b3e de46 0b3e 3f62 0b3c
00000080: 613a 073f 603a 073f 603a 073f 4b04 b13c
00000090: d862 b13d e19c a13d e19c a13d 9cf4 d13b
000000a0: aa16 8b3d 81b5 7b3d 7db5 7b3d 5ce3 ad3b
000000b0: 7f1e 063d da3e f53c d83e f53c bf5f b43a
000000c0: 95dd 373d 206c 2b3d 226c 2b3d 639e 283b
000000d0: e4b9 0a3d 3c0b fc3c 3e0b fc3c ed9f 823a
000000e0: f206 4a3d f682 443d f782 443d 6e54 af3b
000000f0: 5a02 a93d 7599 a03d 7599 a03d 1b25 003c
00000100: 4f24 903d 03b5 743d 03b5 743d 3c72 9e3b
00000110: 919d 813d bc30 6b3d bd30 6b3d 41e1 e53b

exp_avg f4 [1, 6, 4, 4]
1.5378339 0.596552 0.16058508 -0.013976401 1.6468314 0.5282395 0.081285626 -0.025776213
1.4874483 0.5306083 0.1573779 -0.012216741 1.431786 0.6024987 0.083459914 -0.0175875
3.0228698 1.7104006 1.3833318 0.69108856 3.0310185 1.8790408 1.4043757 0.5265071
3.1215866 2.2170954 1.7411065 1.2527229 2.982333 2.2650316 1.2524934 0.840304
-0.12935679 -0.12935682 -0.12935683 -0.033633 0.18864247 0.18864252 0.18864247 -0.008498218
0.08962236 0.0896224 0.08962236 -0.02534106 0.054599524 0.05459954 0.054599546 0.014712983
0.19853508 0.1660147 0.1660147 0.05751484 0.14729849 0.09004659 0.09004655 0.04315156
0.15621945 0.072854824 0.072854824 0.05047363 0.2606357 0.13804042 0.13804041 0.052032784
0.04937259 0.09222133 0.09222131 0.018232526 0.1058629 0.14396246 0.1439624 0.0247579
0.023401538 0.053606607 0.0536066 0.024773354 0.073749125 0.10952397 0.109523974 0.031101242
0.26888034 0.18347867 0.18347868 0.0001666015 0.25191873 0.15416557 0.15416557 0.017827094
0.2118739 0.115524605 0.11552459 0.021933684 0.19124125 0.11024669 0.110246696 0.010459204
00000000: bed7 c43f a2b7 183f 6a70 243e 46fd 64bc
00000010: 5fcb d23f b43a 073f 1479 a63d a328 d3bc
00000020: b564 be3f f2d5 073f ac27 213e ba28 48bc
00000030: c344 b73f 5b3d 1a3f 08ed aa3d a913 90bc
00000040: b376 4140 68ee da3f 0411 b13f 2eeb 303f
00000050: 35fc 4140 6984 f03f 95c2 b33f 2bc9 063f
00000060: 13c8 4740 e4e4 0d40 94dc de3f 3959 a03f
00000070: 8bde 3e40 47f6 1040 b451 a03f 2a1e 573f
00000080: 1b76 04be 1d76 04be 1e76 04be c2c2 09bd
00000090: 7e2b 413e 812b 413e 7e2b 413e 1c3c 0bbc
000000a0: ee8b b73d f38b b73d ee8b b73d 0e98 cfbc
000000b0: c0a3 5f3d c4a3 5f3d c6a3 5f3d b90e 713c
000000c0: c84c 4b3e c2ff 293e c2ff 293e ae94 6b3d
000000d0: 6ad5 163e 596a b83d 536a b83d b1bf 303d
000000e0: fef7 1f3e e934 953d e934 953d 70bd 4e3d
000000f0: 0b72 853e 785a 0d3e 775a 0d3e 5420 553d
00000100: ea3a 4a3d 89de bc3d 87de bc3d 615c 953c
00000110: a6ce d83d e56a 133e e16a 133e 14d1 ca3c
00000120: 95b4 bf3c 9a92 5b3d 9892 5b3d 7df1 ca3c
00000130: c809 973d 1a4e e03d 1b4e e03d 08c8 fe3c
00000140: afaa 893e d5e1 3b3e d6e1 3b3e c0b1 2e39
00000150: 7efb 803e 94dd 1d3e 94dd 1d3e 200a 923c
00000160: 79f5 583e 2a98 ec3d 2898 ec3d 45ae b33c
00000170: bfd4 433e 04c9 e13d 05c9 e13d 155d 2b3c

exp_avg_sq f4 [1, 6, 4, 4]
12.123814 1.2049801 0.15409753 0.00374304 10.730168 0.9769478 0.10251663 0.0028769886
10.828551 1.1301458 0.14483161 0.0035551933 10.648052 1.1762698 0.13834605 0.00425139
163.33717 65.344086 13.561296 1.3491502 167.87788 69.7418 13.750114 0.9009808
163.214 66.73698 16.166367 3.1701536 163.99222 70.74163 13.831928 1.4333022
1.1269529 1.1269528 1.1269528 0.03502154 1.2511773 1.2511773 1.2511771 0.040178396
0.96975434 0.96975434 0.9697543 0.035889257 0.9001989 0.900199 0.900199 0.023836428
0.28658986 0.2450358 0.2450358 0.014465609 0.26879328 0.2237311 0.22373112 0.01258788
0.26839477 0.22269845 0.22269846 0.01123675 0.30266997 0.2351126 0.23511258 0.008682356
0.2415947 0.20629303 0.20629302 0.011706351 0.25091216 0.21557096 0.21557096 0.012800178
0.22334632 0.19798154 0.1979815 0.009308707 0.20691465 0.18171217 0.18171217 0.011557647
0.34562925 0.28949058 0.28949055 0.011888799 0.28747916 0.24404432 0.24404435 0.011998325
0.2658049 0.23308432 0.23308435 0.008457346 0.27735025 0.24836645 0.24836645 0.00759917
00000000: 24fb 4141 ca3c 9a3f becb 1d3e ca4d 753b
00000010: c5ae 2b41 4019 7a3f 3df4 d13d dc8b 3c3b
00000020: bf41 2d41 9ea8 903f bd4e 143e 3ffe 683b
00000030: 6c5e 2a41 0290 963f 96aa 0d3e 3f4f 8b3b
00000040: 5156 2343 2cb0 8242 12fb 5841 f4b0 ac3f
00000050: bde0 2743 cd7b 8b42 7800 5c41 ada6 663f
00000060: c936 2343 5579 8542 b854 8141 cce3 4a40
00000070: 02fe 2343 b77b 8d42 944f 5d41 7276 b73f
00000080: fe3f 903f fd3f 903f fd3f 903f bf72 0f3d
00000090: 9426 a03f 9426 a03f 9226 a03f 1a92 243d
000000a0: d241 783f d241 783f d141 783f 9d00 133d
000000b0: 6f73 663f 7173 663f 7173 663f 9d44 c33c
000000c0: e8bb 923e aaea 7a3e aaea 7a3e 2901 6d3c
000000d0: 469f 893e c419 653e c519 653e 653d 4e3c
000000e0: 0a6b 893e 100b 643e 110b 643e 581a 383c
000000f0: 8ff7 9a3e 5bc1 703e 5ac1 703e 7140 0e3c
00000100: 9a64 773e 7b3e 533e 7a3e 533e ffcb 3f3c
00000110: 8f77 803e a2be 5c3e a2be 5c3e d6b7 513c
00000120: e6b4 643e acbb 4a3e aabb 4a3e 8c83 183c
00000130: 6fe1 533e c112 3a3e c112 3a3e 495c 3d3c
00000140: 51f6 b03e 1c38 943e 1b38 943e 3dc9 423c
00000150: 7830 933e c1e6 793e c3e6 793e 9f94 443c
00000160: 9417 883e a8ad 6e3e aaad 6e3e ae90 0a3c
00000170: da00 8e3e c653 7e3e c653 7e3e 7502 f93b

exp_avg f4 [76, 130]
-0.001275083 -0.0015583545 -0.0013183538 -0.002224684 -0.0020527842 -0.00048311346 -0.0017478383 0.0011825392
4.2122338e-06 -0.0048766662 -0.00027639797 -0.0005183944 -0.000441638 -0.0019330742 -0.0028464908 0.0010719942
-0.002410019 -0.0022049714 -0.0037757906 0.00016384963 -0.00072495244 0.0011769376 -0.0014171666 -0.0004348669
0.00028413863 -0.0005462134 -0.00043474208 -0.0009895541 -0.0004199039 0.00064761954 0.0008915845 -0.0015421585
0.0022371325 -0.000780818 -0.0041283923 0.00038284244 0.005501913 -0.00047435594 0.0040215636 -0.002606537
-0.003358472 0.008029118 0.0011742652 -0.0031724896 -0.0023461026 -0.00020176754 -0.0020028262 0.0044444357
0.004944369 -0.0032083692 -0.0027646262 -0.0015016984 0.004659237 0.001303575 -0.00027462817 -0.0031720607
-0.001812077 0.0033157931 0.001171154 9.407834e-05 -0.004240933 0.0021721364 0.0028629699 0.0053473646
0.005384403 0.0040654084 0.00048395884 -0.0008498762 -0.00073262124 0.0010228276 0.0031555465 0.005490715
0.0031847886 0.003348316 0.0026283741 -0.0027854268 0.0031665433 -0.001209027 0.0035425134 0.0015788014
0.004839092 0.005217002 -0.0004963738 -0.0030393384 -0.0019608687 -0.0005183072 0.0034951654 -0.004844071
-0.0019516592 0.0006877374 0.0020229523 -0.00028479876 0.0021868767 -0.0050884625 0.002743275 -0.0024570194
0.0043415334 0.0038805709 0.0007146051 0.0042394726 -0.003960704 -0.0025005136 -0.002906481 -0.005254744
0.0062387995 0.0014365066 -0.009835704 0.007637456 -0.008463642 -0.0035549295 -0.003968289 0.000518223
-0.0040222383 -0.0019842794 -0.0072164047 -0.001176087 -0.0001834242 -0.004353195 -0.008625366 -0.005509366
-0.0011796 0.0053041647 -0.004697927 -0.0002729416 -0.0025540828 0.0017824917 -0.008408004 1.1917526e-05
-0.0043370062 -0.004467238 -0.0020380507 0.00027417397 0.00031118293 -0.0020974712 0.0022556342 -0.0010289603
-0.0008724829 -0.00046797516 0.0011764187 0.0029511428 0.00012967463 -0.0005024074 -0.00063307147 0.0001028704
0.000841136 0.002392149 -0.0009319008 0.0010256164 -0.0013946693 0.00024124658 0.00048174002 0.0012349595
0.0034963603 0.0018200099 0.0012128971 0.0008714393 -0.0013972053 0.0017937189 -0.0012380078 0.0013437024
0.001262655 0.0011038118 0.0011087639 -0.00017834565 0.0021179672 -0.00039961564 2.4194222e-05 0.011746375
0.0057089487 0.0075654685 0.0094116535 0.0051143505 0.006636582 0.0037576593 0.005110502 0.003348749
0.004104412 0.002505302 0.0033906293 -0.00084364705 -0.00013919691 0.00021014619 5.979713e-07 0.004008302
0.006590748 0.0065818406 0.00754515 0.0051306123 0.0025154634 0.0030414166 0.0035561903 0.0010716636
0.0018189879 0.0048132217 0.00357406 0.0028124736 0.00060918403 0.0010022289 0.00094893057 0.0028401846
0.011356387 0.0033294272 0.0037402508 0.0062431423 0.0046199034 0.0047037806 0.0057525956 0.0080897305
0.006426431 0.00365027 0.007014655 0.00027103632 -0.0011611915 -0.0005771004 -0.0036307084 -0.0001859568
0.0041139177 0.007771417 0.01055189 0.009450018 0.0030910606 0.0030455939 -0.0021804755 0.0071497736
0.0015253022 0.0046119383 0.0049346923 0.008538354 0.0015932411 0.0021006274 0.009944152 0.014414818
0.0070868493 0.010108735 0.006908134 0.012935032 0.0053715575 0.005196789 0.006896248 0.009867868
0.011241047 0.008186901 0.0037590845 0.0030869783 0.0072284015 0.00049208844 0.0058457456 0.0063318023
0.0068244156 0.010291698 0.014465758 0.009322783 0.0060928306 0.0018893891 0.005933489 -0.0021129444
00000000: b020 a7ba b341 ccba 9dcc acba 01cc 11bb
00000010: 0188 06bb 644a fdb9 b917 e5ba 6eff 9a3a
00000020: d056 8d36 71cc 9fbb 82e9 90b9 dce4 07ba
00000030: a68b e7b9 355f fdba 318c 3abb 2882 8c3a
00000040: 69f1 1dbb 4881 10bb 4173 77bb 0dcf 2b39
00000050: bc0a 3eba 7943 9a3a 38c0 b9ba d9fe e3b9
00000060: 71f8 9439 c32f 0fba 18ee e3b9 edb3 81ba
00000070: 8c26 dcb9 03c5 293a 39b9 693a 4122 caba
00000080: db9c 123b cfaf 4cba 7747 87bb 3eb8 c839
00000090: 6449 b43b fab2 f8b9 52c7 833b 6fd2 2abb
000000a0: cf19 5cbb 908c 033c cde9 993a 8be9 4fbb
000000b0: 12c1 19bb 9091 53b9 d941 03bb a1a2 913b
000000c0: 6004 a23b 8143 52bb bb2e 35bb a3d4 c4ba
000000d0: 83ac 983b b8dc aa3a f8fb 8fb9 59e2 4fbb
000000e0: 3783 edba c74d 593b 6881 993a ed4b c538
000000f0: 86f7 8abb 675a 0e3b aaa0 3b3b f238 af3b
00000100: a56f b03b 1e37 853b dbbb fd39 3aca 5eba
00000110: 610d 40ba 6610 863a 49cd 4e3b 75eb b33b
00000120: e3b7 503b 6c6f 5b3b cd40 2c3b b58b 36bb
00000130: c885 4f3b 3778 9eba 8329 683b c9ef ce3a
00000140: 3f91 9e3b 62f3 aa3b 151f 02ba a32f 47bb
00000150: eb81 00bb 02df 07ba 250f 653b 03bb 9ebb
00000160: d1ce ffba 4749 343a 8293 043b 0b51 95b9
00000170: b451 0f3b 1ebd a6bb 84c8 333b f205 21bb
00000180: 6c43 8e3b 2d51 7e3b 5654 3b3a 46eb 8a3b
00000190: cbc8 81bb a8df 23bb a97a 3ebb fd2f acbb
000001a0: d86e cc3b 2a49 bc3a ef25 21bc a043 fa3b
000001b0: 16ab 0abc d2f9 68bb 6c08 82bb 5bd9 073a
000001c0: fbcc 83bb af0a 02bb 9777 ecbb ee26 9aba
000001d0: 8f55 40b9 3fa5 8ebb 6851 0dbc e987 b4bb
000001e0: cf9c 9aba 8fce ad3b 11f1 99bb 9a19 8fb9
000001f0: 6662 27bb 7fa2 e93a bac1 09bc 62f1 4737
00000200: 721d 8ebb e961 92bb d190 05bb 02bf 8f39
00000210: 4426 a339 ba75 09bb 43d3 133b 2ede 86ba
00000220: 56b7 64ba 905a f5b9 1032 9a3a f667 413b
00000230: 45f9 0739 fdb3 03ba b5f4 25ba 20bc d738
00000240: ae7f 5c3a 9ac5 1c3b ce4a 74ba fa6d 863a
00000250: 56cd b6ba 23f7 7c39 0d92 fc39 5dde a13a
00000260: 3123 653b 668d ee3a 13fa 9e3a 4d71 643a
00000270: 6e22 b7ba 381b eb3a a644 a2ba 2c1f b03a
00000280: ac7f a53a c7ad 903a f153 913a 4c02 3bb9
00000290: 98cd 0a3b 8183 d1b9 b2f4 ca37 de73 403c
000002a0: 2212 bb3b c0e7 f73b 5633 1a3c 4896 a73b
000002b0: af77 d93b 1043 763b ff75 a73b af76 5b3b
000002c0: 4e7e 863b fe2f 243b 5235 5e3b 3228 5dba
000002d0: 63f5 11b9 b05a 5c39 4684 2035 1358 833b
000002e0: 34f7 d73b 7bac d73b 4e3d f73b b21e a83b
000002f0: 79da 243b 8152 473b f90e 693b 1077 8c3a
00000300: 1b6b ee3a 3bb8 9d3b c73a 6a3b 7a51 383b
00000310: a6b1 1f3a 395d 833a a7c1 783a 6422 3a3b
00000320: 2410 3a3c 8532 5a3b ff1e 753b 4693 cc3b
00000330: 8f62 973b 2c22 9a3b 4580 bc3b ca8a 043c
00000340: cf94 d23b 5e39 6f3b 31db e53b e119 8e39
00000350: 1f33 98ba 8d48 17ba 2ef1 6dbb 66fd 42b9
00000360: 0bce 863b 5fa7 fe3b d6e1 2c3c 40d4 1a3c
00000370: 6493 4a3b 9698 473b 4fe6 0ebb a648 ea3b
00000380: a6ec c73a be1f 973b 33b3 a13b 74e4 0b3c
00000390: 4dd4 d03a aeaa 093b ccec 223c 212c 6c3c
000003a0: cd38 e83b 1c9f 253c a15d e23b 75ed 533c
000003b0: e403 b03b d349 aa3b ecf9 e13b d7ac 213c
000003c0: 5e2c 383c 5a22 063c f95a 763b e74e 4a3b
000003d0: 3adc ec3b 7fff 003a ab8d bf3b 027b cf3b
000003e0: 599f df3b 839e 283c c901 6d3c 96be 183c
000003f0: 5ea6 c73b 61a5 f73a b76d c23b 5379 0abb
