TrainedModel/Dueling DQN-2/9600_0-125_DuelingDQN.pth (torch, 291221 bytes, 33 tensors)

conv1.weight f4 [1, 6, 1, 4]
00000000: 1470 f1bc 96fa 7b3e 679d d43e f729 f73d
00000010: a66a 8fbe edcc 00bf 5b75 653c ea2d 4a3e
00000020: 6987 d839 95a5 b83e f220 91be d391 523e
00000030: 4a00 dc3d f252 d93d 7868 61be 2146 0d3e
00000040: 622a 113e a119 d2be 4079 983e 3e36 903e
00000050: 3865 05be dd53 d93d 9d50 173e 3ca6 ccbe
-0.029472388 0.2460731 0.41526338 0.12068551 -0.28011054 -0.5031269 0.0140050305 0.19744077
0.0004129962 0.3606383 -0.28345448 0.2056344 0.10742243 0.10611524 -0.22012508 0.13796283
0.14176324 -0.41035178 0.29780006 0.28166384 -0.13026893 0.10611699 0.14776845 -0.39970577

conv2.weight f4 [1, 6, 2, 4]
00000000: 27ba 133f ea2c 83be 2854 72be c41a d13e
00000010: 3403 813f a35b e7be 371b 05be 2ed3 f33e
00000020: a8e8 90bd 3061 4d3d e6a3 f13c 379a d9bc
00000030: 3284 a73b b83e b3bd 73b4 33be 0403 cdbc
00000040: 7309 823e 3fe6 94bc 1490 58be acbc e73e
00000050: 83b8 4bbe d667 ccbd fa97 c23b 2b27 d83e
00000060: 4d85 f43d da6c 693d ecbc e7bd 119d 503e
00000070: 0313 fa3d 264a 44be 9a32 753d e10a 9bbe
00000080: 0ca7 86be ecd1 d23e ef72 43be d1a4 4dbd
00000090: 6c44 9f3d 74bb f33d ce16 43bd dde4 b3bd
000000a0: e797 89ba 8bb1 29be a062 303e 73f2 6dbd
000000b0: e5b7 34bd a98c 1abe a6bf 323d 5923 9f3e
0.5770592 -0.25620204 -0.23664916 0.40840733 1.0079103 -0.451871 -0.12998663 0.47622055
-0.07075626 0.050141513 0.029497098 -0.026562793 0.0051121945 -0.08752197 -0.17549305 -0.025025852
0.25397834 -0.018176196 -0.21148711 0.45261133 -0.19894604 -0.09980743 0.005938527 0.42217383
0.119394876 0.056988575 -0.11315331 0.20372416 0.122106574 -0.1916891 0.05986271 -0.30281737
-0.26299322 0.41175783 -0.19086812 -0.05020601 0.07776722 0.11900988 -0.04762917 -0.087838866
-0.0010497541 -0.16571634 0.17225122 -0.058092546 -0.044120688 -0.1509272 0.0436398 0.31081656

conv3.weight f4 [1, 6, 3, 4]
00000000: 534b 313f 3cde 133d 7bd7 64bd f59c 4e3f
00000010: 05dc c53e 8b98 7b3e b2aa c6bd a466 1c3f
00000020: 9a9b 023f 3e9e 403f 9ac9 c73e af36 f93e
00000030: b537 523e 33f2 4b3e 88e8 393e 0b2f 3c3e
00000040: a1dd 313d f5cb 863d 8f56 a13d 2037 4f3e
00000050: dcc5 0b3d 67fc 173e b8f9 0e3e 6394 a03e
00000060: cf65 58bd aec9 b5be 55e5 87be a944 443f
00000070: e5f3 f3bd 753b 643d 468e 1abe 340e e43e
00000080: 56ce 06bc e85b 25bc 9904 21be e3c6 e13e
00000090: 2cc0 3f3b bcf4 7bbd 6dca adbd e141 b6be
000000a0: 8278 963c 54b4 073d 2e46 11be 1097 23be
000000b0: 4f63 e4be 0433 12be fa82 5d3d 83fb 683e
000000c0: ad43 3abe 7438 b33c ad86 1ebe 12d6 e5bc
000000d0: 0bf4 0fbe b315 91be 3b00 543d 7b78 d33e
000000e0: 9bab bd3d edda 973e 25ca 5cbd 9fe1 783e
000000f0: 02c6 fbbd 51f6 88be 7aa1 f4bd 8590 54be
00000100: 8efe 9e3d 5337 173e 4066 f5bd c812 7ebd
00000110: 03e0 82bd 2ceb f5bb bb3e 12be b74c 86be
0.6925556 0.03610061 -0.05586956 0.8070825 0.38644424 0.2456991 -0.09700526 0.6109412
0.5101868 0.7524146 0.39020997 0.48674533 0.20529063 0.1991661 0.1815511 0.1837732
0.043424252 0.065818705 0.07877838 0.20235872 0.03412424 0.14842378 0.13962448 0.3136321
-0.052831467 -0.35505432 -0.26542154 0.7666727 -0.119117536 0.055720765 -0.15093336 0.44542086
-0.008227905 -0.010092713 -0.1572441 0.4409705 0.002925883 -0.061512694 -0.08485875 -0.35597137
0.01836801 0.03313096 -0.14186928 -0.15975595 -0.44607016 -0.14277273 0.054079987 0.22752194
-0.18189879 0.021877505 -0.15481062 -0.028056178 -0.14057939 -0.28336868 0.051758032 0.41302857
0.09261247 0.29659215 -0.053903718 0.24304818 -0.12293626 -0.26750425 -0.11944862 -0.20758255
0.07763396 0.14767198 -0.11982393 -0.06202963 -0.06390383 -0.0075048413 -0.14281742 -0.26230404

conv4.weight f4 [1, 6, 4, 4]
00000000: 17a6 d23d 8378 8abe 0a5d 8abe 5627 cbbd
00000010: 56f3 74be b6c3 9fbc 294b 19bd 214c ad3e
00000020: 62f5 07be 530a 90be cd74 cebd 3f35 62bd
00000030: a9ee 0b3e 2697 cf3c 1ba2 0dbd f672 e33e
00000040: 3a16 483e 5b46 29bd 4e09 16be bef4 99be
00000050: b0aa 913e bccb 4d3e 0d0c 1bbc 39ee 2ebc
00000060: 24a0 98bd db11 23be fc57 d7bd 1b97 fcbd
00000070: f9ff 823d c707 2b3e 996e fbbd 0a24 4fbe
00000080: c494 c03a 9fec 863e e2a3 7c3e 9612 40be
00000090: b970 063e 0f69 bf3d 403d ca3d 4ca6 32be
000000a0: d13a 063c 6469 3b3c afc8 c13d 6cdc 5a3d
000000b0: a67d b33c fd80 993e bf05 78bd 725f cb3d
000000c0: 43f9 e2bd 352a 233e 45fe 36be 5286 2bbd
000000d0: e8dc dcbd f791 133e 68a8 473e 76ba 693e
000000e0: 41dc 4abe b9c2 80bd b066 693e 9d2b 193e
000000f0: 53f3 3a3e 3670 e13d 0f51 5a3e c524 01be
00000100: 6a1b dabd 3911 153e d403 93bb 874f 81be
00000110: 6aab e93d f6be 01be 871b 983d 12dc 4c3e
00000120: 9197 bebd 920a 353c 8fed 413e 293d e93c
00000130: 7584 7dbe 0692 4e3e b463 283e 9048 82bb
00000140: 73b4 7f3e f542 f3bd 81a5 05be a9a3 ca3e
00000150: 4ad3 2abd 37a0 913c 99e4 d7bd 9c8e 483e
00000160: ec7b 0d3d 8f69 a23e 368a 11bd 8e0f c43e
00000170: c0d3 eabc a090 eabb d705 f93d e7dd 1f3e
0.102855854 -0.27045068 -0.27024108 -0.09919612 -0.2392095 -0.019502502 -0.037425194 0.33847144
-0.132772 -0.28132877 -0.10080872 -0.05522656 0.1366526 0.025340628 -0.034578424 0.44423646
0.19539729 -0.04132686 -0.14651987 -0.30069536 0.28450537 0.2009725 -0.009463322 -0.010676914
-0.074524194 -0.1592478 -0.105148286 -0.123335086 0.06396479 0.16702186 -0.12276954 -0.20228592
0.0014692773 0.26352403 0.24671891 -0.1875709 0.13128938 0.0934621 0.09874964 -0.1744625
0.008192734 0.011438701 0.094621055 0.053432867 0.0219105 0.29981223 -0.060552355 0.09930314
-0.11082699 0.1593407 -0.17870434 -0.041876145 -0.10784322 0.1441115 0.19497836 0.22825035
-0.19810583 -0.062871404 0.22793078 0.14958043 0.18256883 0.11007731 0.21319984 -0.12611683
-0.1064976 0.14557351 -0.0044865403 -0.25255987 0.11409648 -0.12670502 0.074271254 0.20005825
-0.09306253 0.011049883 0.18938278 0.028471546 -0.2475756 0.20172891 0.16444284 -0.0039759353
0.2497118 -0.118780054 -0.13051416 0.39577988 -0.041705407 0.017776592 -0.105416484 0.19585651
0.03454201 0.3172116 -0.0355322 0.38293117 -0.028665423 -0.007158354 0.12159317 0.15611993

fc3_adv.weight f4 [76, 130]
00000000: 0c01 22be beb3 973e dda5 673d 1cc6 c2bd
00000010: 73e3 a03e ddbb dc3c 37f4 fe3e d5a1 353e
00000020: 53b3 683e 2e00 f43e 258d fa3e ba99 823e
00000030: d17e b93c b0f0 c23e 0b3e 963e f7cc 0c3f
00000040: 22b7 9c3e 7241 933e 5411 253f afc9 e93e
00000050: 7c78 323f 0e3e 9c3e 1dae a83e c803 753e
00000060: 4c16 373e 6452 bf3e a56c 923e 2413 16be
00000070: d86c f93d 4123 f93c 51a1 f43e 4039 87bd
00000080: d5c2 4dbd 197f bb3e 0c53 e4bd 156e eb3c
00000090: 17bf 8abd f58c a03e fc59 02bd e4af 47be
000000a0: eca8 263d 6acb 8bbe 1df1 db3d 3212 423e
000000b0: 5db3 493d 3b7a 03bd f277 bfbd c72c 0fbe
000000c0: 49c6 bd3e a577 bc3e e4a4 c2bd c32b 6bbe
000000d0: 3b7e abbd e5aa 9b3e 727e 9ebd 863e abbe
000000e0: 455d 543d 060f c23e 65b8 403d 6590 493d
000000f0: 428f 203e 3b53 9d3d da5c a5bc 99af 48be
00000100: efd3 9b3d 376c 3aba 4ff5 a23d 2110 abbe
00000110: 60bb 333a 2c78 3e3e 977d 12be 1b3f 4a3d
00000120: d967 693c 4cc4 ba3d 509d 2c3e 2491 16bd
00000130: 6243 263e 5249 c9bd 2341 aebe e59c 25be
00000140: dc60 443e 99c0 69be a9ad 953d 7170 f4bd
00000150: ad68 13be db53 173e 4470 823c 39c4 8fbe
00000160: ee8a 55be d457 14be a4d7 483e 9a4d b13d
00000170: a5a7 9b3c 70e0 fbbd b28a 82bd 5ffd d83d
00000180: 33d0 62bd 2e1e bbbd 85e6 9fbd 36e1 743e
00000190: 882b f53d 17b6 ba3d 2937 6a3e 3577 493e
000001a0: fc0a 2d3e 9ba0 c93d 21ed 213e 3491 ae3d
000001b0: 680c 273e fb8c f0bd 7be2 703d 41a2 863e
000001c0: 516e 873e 5c62 d63d 9080 a53e b35d 263e
000001d0: 3c52 973e 0b62 9b3d 7541 e73d b468 ce3e
000001e0: 5d86 9f3e 7d08 043e f8cf bf3d 2ff2 813d
000001f0: 4daf 973d dbf7 3c3e 7d2c 533e 016e b6bc
00000200: 38d2 8b3e cb61 723e aba3 62bd eb7b af3e
00000210: b2cf 933e 6a0d 413e af0f 09be cee9 6e3e
00000220: cb72 50bd 894e d53d 132c 0bbe 3d6b 383e
00000230: a6d1 873e 1fa3 113f a9e3 233f 95a0 8a3e
00000240: c918 193e 6972 3c3e 35b4 fb3d e433 db3e
00000250: a637 22bd 1957 22bd f6b7 1bbe aa22 d6be
00000260: 58dd fabe 3dd8 d9be 3db1 10bf a6b2 6bbd
00000270: c585 09bd fb97 693e 11bc 7c3e 20f4 7d3e
00000280: 1aef 753c 3583 be3e e0f0 b8bd f8d1 b83e
00000290: e83a 1a3d 1a6f 3f3e 7033 483e 504c 463e
000002a0: 3b0a 0e3e 9671 42be 194d 2dbe 6397 fc3d
000002b0: d387 adbd b29f fc3d b8ea 7f3d bd53 d03d
000002c0: 360e 3bbe de39 403e 9e2c d23c 559f 673e
000002d0: dd5a 0f3e e5f8 91bd 3936 06be 700e 9c3e
000002e0: 1653 243e 7d2f d8bb ee2f 29be 5777 cebe
000002f0: 4d35 8bbc e44c 23bd d7aa f4bd c9da eb3d
00000300: 8a8d 5fbe dff1 3cbe 38fa fc3c 04fa 77be
00000310: d129 7cbd 8c3d 9dbc 957f 493e 0c48 63bc
00000320: 7100 8cbe b260 bebc c884 31be 77a8 aabe
00000330: c35d 5ebd 0c6b e73c 02e6 373e 0a93 c33d
00000340: 49f6 613a ec4e cd3c b265 fc3d bd30 22bc
00000350: 7477 5abd 73d1 8b3d 7f3a 22be a22d 6bbd
00000360: 3d75 73be e690 463c 8057 56bd c532 58be
00000370: 9979 b0be dc17 20bd 37ac 6dbd 2a3c 21be
00000380: f70f 5e3e 3b90 7bbe 5a2a 723e 1b4c 0b3c
00000390: fe76 00be 7551 843e 4d9b 923e 6de8 d33d
000003a0: 6602 903e f23d a63d 6517 923e 6f8a 523e
000003b0: 1e30 823c f26a 153e 6638 9f3d 83d3 d1bc
000003c0: 10d9 853e 7da6 c7bc 13ea 18bc 0896 c23e
000003d0: d2a3 2d3e 5bb7 44be 66e2 953e afb6 563e
000003e0: f9ba 073e ccbd 86bc 0176 b1bd efb9 8d3c
000003f0: 4bb3 893d aa64 b1bd d26a 813e a442 b73d
-0.15820712 0.2962932 0.056554664 -0.095104426 0.3142353 0.026945049 0.49795696 0.17737515
0.22724657 0.47656387 0.4893581 0.2550791 0.022643479 0.38074255 0.2934421 0.5500025
0.3060847 0.28760868 0.64479566 0.45661685 0.69715095 0.30516094 0.32945338 0.23927224
0.178796 0.37367547 0.28598514 -0.14655739 0.121789634 0.030412318 0.47779325 -0.066027164
-0.050234634 0.36620405 -0.111486524 0.028739015 -0.06774729 0.31357542 -0.031824097 -0.1950069
0.04068844 -0.2730363 0.10739348 0.18952253 0.04924332 -0.03209899 -0.0934905 -0.13981925
0.37065342 0.36810032 -0.09504107 -0.22965913 -0.08373686 0.3040382 -0.07738961 -0.3344614
0.05184676 0.37902087 0.047050852 0.04920997 0.15679649 0.076818906 -0.020185877 -0.19598235
0.076087825 -0.0007111462 0.07956945 -0.33410743 0.0006856229 0.1860053 -0.14305721 0.04937659
0.014245951 0.09119472 0.16856885 -0.03675951 0.16236642 -0.09828438 -0.3403407 -0.16173132
0.19177574 -0.22827376 0.07308514 -0.11935509 -0.143954 0.14778082 0.015922673 -0.28079394
-0.20853779 -0.14486629 0.1961351 0.086573794 0.019000838 -0.122986674 -0.0637411 0.10595202
-0.055374335 -0.09136616 -0.0780764 0.23914036 0.119711936 0.09116762 0.22872604 0.1967438
0.16898721 0.09845086 0.15813114 0.08523789 0.16313326 -0.1174564 0.05880974 0.26295665
0.26451352 0.10467979 0.32324648 0.16246681 0.29554927 0.075870596 0.11291782 0.40314257
0.311572 0.12893863 0.09365839 0.06345021 0.07406483 0.18453924 0.2062244 -0.02226925
0.27308822 0.23670118 -0.055331867 0.3427423 0.28869396 0.18852773 -0.13384889 0.23331377
-0.050890725 0.1041537 -0.13591032 0.18009658 0.26527137 0.5688953 0.64019257 0.2707564
0.14950861 0.18403019 0.12290231 0.42813027 -0.03960385 -0.039633844 -0.15206894 -0.41823322
-0.48996997 -0.4254779 -0.56520444 -0.05754342 -0.03357484 0.22811882 0.24681117 0.24800158
0.01501062 0.37209478 -0.09030318 0.36097693 0.037653834 0.18694726 0.19550872 0.19365048
0.1387109 -0.18988642 -0.16923942 0.12333562 -0.08473172 0.12335147 0.062479705 0.10172222
-0.1826714 0.18772075 0.02565604 0.22619374 0.13999505 -0.07127551 -0.13106622 0.30479765
0.1604732 -0.006597458 -0.1652219 -0.40325424 -0.01699319 -0.03986825 -0.119466476 0.11516339
-0.21831337 -0.18451641 0.030881032 -0.24216467 -0.061563317 -0.019194387 0.19677575 -0.013872158
-0.27344087 -0.023239467 -0.17335808 -0.33331653 -0.054288637 0.028249286 0.17958835 0.0954953
0.0008619768 0.025062047 0.12324084 -0.009899315 -0.053336576 0.06827059 -0.15842627 -0.057416566
-0.23775192 0.012119507 -0.05232954 -0.21113117 -0.34467772 -0.039085254 -0.058025565 -0.15745607
0.21685778 -0.24566738 0.23648968 0.008502032 -0.12545392 0.25843397 0.2863411 0.10347066
0.2812683 0.08117284 0.28533474 0.2056062 0.015892085 0.14591578 0.07774429 -0.025613552
0.26142168 -0.02437138 -0.009333151 0.3800509 0.16957024 -0.1921057 0.2927429 0.20968126
0.13254918 -0.016447924 -0.086650856 0.017300574 0.067236505 -0.08661778 0.2527681 0.089482576

fc3_adv.bias f4 [76]
00000000: 7801 1b3e 0e09 ed3d 9ab2 003e e909 87bd
00000010: 157f 8ebc 6e78 75be 611f ef3a f848 95bd
00000020: 0a3e 733e 8fa6 1d3e 872f 38be 656f 64be
00000030: 2fd4 913e 8c5f e0bc 6d42 8b3e de9a 413e
00000040: ba9a c03e 01a6 dc3d 0a94 523e b12f df3d
00000050: dc99 703c d3bb 79bc 7fd3 563e 3b2c 85bd
00000060: cc0d a1bd 6de0 a9bd 4c5a 2abe 986d 673e
00000070: ed50 cebd 4795 323e 732c 4d3e fe02 9b3d
00000080: 45e7 f5bd d936 823d ea0b 4a3d 2c1f 4e3e
00000090: 1df9 123e 6e84 96be d384 b93b 1baf 8f3d
000000a0: ebd1 c23e 4470 363d d10a 14be a9b6 583e
000000b0: 34b7 ca3c 0cbb e13d 010f 353e 268e 6f3e
000000c0: ae87 243e 6792 253e 8fbb f3bb 19ce 803d
000000d0: 690e 493e 1836 4abd 46ed e93d 50ae b83d
000000e0: 70b3 89bd 2ed1 13be 858c 153e f5a4 323e
000000f0: 38b1 b73c 2bf1 9a3e 89b0 293e 6bff aa3d
00000100: 9b10 1f3e f037 69bd c8ed 6c3e 5bbd 943d
00000110: 421f 133d 8ef5 523d 694d bbbc e084 1a3e
00000120: 86f6 b33d 76fc 8d3e 1bca 5d3e 94ad b33e
0.15137279 0.11573993 0.12568131 -0.06593687 -0.017394582 -0.23971722 0.0018243605 -0.07289308
0.23754135 0.15395568 -0.1798688 -0.22308119 0.28482196 -0.02738931 0.27199116 0.18906733
0.37618047 0.1077385 0.20564285 0.10897768 0.01468512 -0.015242535 0.20979117 -0.06502577
-0.0786396 -0.08294759 -0.16636008 0.226004 -0.10074029 0.17439757 0.20036487 0.0756893
-0.12007002 0.063581176 0.04932777 0.20129079 0.14352842 -0.2939791 0.005661586 0.070158206
0.3805078 0.04454066 -0.14457251 0.2116343 0.024745561 0.110220045 0.17681505 0.23394069
0.16067383 0.1616913 -0.00743813 0.0628931 0.19634403 -0.049367994 0.114222094 0.090176225
-0.06723678 -0.14435264 0.14604385 0.17445739 0.022423372 0.30262122 0.16571249 0.08349498
0.15533678 -0.05693811 0.23137581 0.07262679 0.03591848 0.05150371 -0.02286406 0.1508975
0.08787255 0.27731675 0.21659128 0.35093367

fc3_val.weight f4 [76, 130]
00000000: 5d58 963e e8d5 fbbd d415 a73d 2069 bc3d
00000010: 446a 113d 9b6b f43c 41fc cdbd b22a 0bbe
00000020: 0b5b e93d 2344 963d 1dc4 a539 7a5f 013e
00000030: cf00 d43d 9e20 db3d b0c0 07bc 7524 c1bd
00000040: 642c d33d 66fd a13e 9b00 223d 021c 20bd
00000050: d328 bf3d 048f b9bd dcfc a4bd 7df1 5ebb
00000060: f07e 25be 2ca7 0fbc 2656 7e3d c4b3 c5bd
00000070: 753a 623d 4d01 b1bc a0e6 903d f7ca acbd
00000080: 302b 703e 1d12 493d 175c 44be ef7c 79bd
00000090: ecc7 05bc 09cc 7f3e 229e c13b 3e32 813e
000000a0: 1bf0 573e e318 cfbc dc85 bc3e ff8f ec3d
000000b0: 1f62 b03e 4631 243e 51a4 8b3e a271 3d3d
000000c0: 095a 513e c1bb 2b3e b58a a63e 17eb ac3d
000000d0: 4dd4 5b3e c157 663e 3cea 173e 8c41 6e3e
000000e0: dba1 3c3d 2f3a bd3d 3f8a 953d 622e 413c
000000f0: 799e 113e 66e3 dfbd b0ff 98bd 0855 8a3e
00000100: 5397 c3bd 47f1 19bb 9921 b0bd 158d 3dbe
00000110: 8963 0bbe 895d 2bbd 3711 483c 02d7 ad3c
00000120: 7769 083e 570f 79bd 791b 1bbe 46ba fd3c
00000130: 81fd 9dbd d80d 513d 2977 1cbc e775 78bd
00000140: c8fc 0fbe b52f 82bd e225 a73d 5b38 e2bd
00000150: 33c0 ae3d 8d43 683e 169d 373d 5f17 393d
00000160: 7097 a6bd c0a4 773c c759 95bd d62e ccbd
00000170: 3212 acbd 6bb6 98bd 9512 1d3d 2ee6 35bc
00000180: 5e22 09be 279b 3f3e 3575 233e 8753 19be
00000190: ce1d 38be 9d8c 0dbe 20a6 2abe 4de5 0b3d
000001a0: d992 02bd 52ad c5bd dda8 403e 09f1 713e
000001b0: 68bc 3d3d 5be4 06be 829c 73bd e50d 273e
000001c0: c280 7d3e c464 eb3c 704e e63d 1d23 13be
000001d0: 350a bdbd 4021 93be 0e57 163d a0fb 983b
000001e0: 2649 053d c4f2 09be a420 22be 4fbe 47be
000001f0: 5c37 0fbe f252 22bd cc74 313e afde 203c
00000200: 705d 913d b941 30bd 0bd9 e33d c5be a13e
00000210: b289 0e3e 66b2 e73d ff89 503e ea02 843e
00000220: 68d3 9e3e 9382 903e 2105 763e ef50 493d
00000230: a0b9 113e 60c6 363e dcf9 863e 8652 ac3e
00000240: 6636 713e 3e79 13bc 4e07 9d3e ff39 2a3e
00000250: 2867 613d 2ada 843e e68f a63c 75ce bf3e
00000260: 4a4d 993e f303 cd3d 8c40 c43d 9fff e33d
00000270: c274 a83e 1ae7 243e e293 c13e 4874 003e
00000280: 801e ad3c 77a4 483e bc76 0b3d 99f7 993e
00000290: 5a6f 6f3d 05b7 543e 5246 cd3d 9ece c73d
000002a0: a3b0 bf3d 14f0 623e b70b 983e ed06 f53d
000002b0: c2bb 093e 1d06 033e c2b6 25bd 6fa5 843e
000002c0: c3c8 773e 78fc 483e d709 033e 47dc 0f3d
000002d0: 432f 553e da13 85bd 6fea ccbc 9fd7 703e
000002e0: f581 523d a0cc 903d bb92 443e e9b1 383d
000002f0: dc01 353e 45e0 563e 6d99 8dbb d2a1 863e
00000300: 1471 a43e 2403 3c3e 60a6 b93e bb72 863d
00000310: 42af d93d 7de8 0f3e 09f4 653e ef50 1d3b
00000320: 2093 663e 444b 8d3e 403f 473d d45f 6e3e
00000330: 1dc6 ab3c d899 07bd 4caa 1ebd 4cae 6b3e
00000340: 0ed8 693e 1c43 bf3d 1de9 323e 40f8 573e
00000350: aab4 b43d 848d 97bd b180 033d 1718 863e
00000360: 90d2 1639 779c dd3d fbfa 863e 246c 8a3e
00000370: 6148 553e 8aa7 c1bc 225b 70bd be81 ea3c
00000380: 97f5 593e 4ee0 c63d 73cf c23d c870 073e
00000390: 3a57 9c3b 3424 73bd 42b4 713e 3f45 a03d
000003a0: c4d1 a03d 7308 f93d 1693 103e a489 443e
000003b0: 177a 9f3d 4d1d a33d a5c0 933e 6190 b93d
000003c0: 5920 6d3c acbe 4e3e 0863 603e bdc6 8d3e
000003d0: 6336 5a3e e650 07bd 3559 3c3e a769 8f3e
000003e0: 3cfd e13c ba3b 13bd 862a 203e 40ce 163e
000003f0: c0f9 213d d39e 9a3e c7fe 873e 795a 3d3e
0.2936429 -0.12296659 0.0815846 0.091997385 0.035501733 0.029836467 -0.10057879 -0.13590506
0.11394318 0.07337215 0.00031617368 0.12634078 0.10351717 0.106995806 -0.008285686 -0.09430782
0.10311201 0.3163864 0.03955136 -0.03908921 0.093339585 -0.09060481 -0.080560416 -0.003401845
-0.16161704 -0.008767884 0.062093876 -0.09653428 0.05523153 -0.021607066 0.07075238 -0.0843715
0.23453975 0.04908954 -0.19175754 -0.06091016 -0.008165341 0.24980177 0.0059087435 0.25233644
0.21087687 -0.025280422 0.36820877 0.115509026 0.3444986 0.16034421 0.272738 0.046250947
0.20444502 0.16770841 0.325277 0.08443277 0.21467705 0.22494413 0.14835447 0.23267192
0.046052795 0.09239613 0.07301759 0.011790844 0.14220609 -0.10932045 -0.074706435 0.27018
-0.09550347 -0.002348976 -0.08600158 -0.1851085 -0.13612188 -0.04183725 0.012211136 0.021220688
0.13321482 -0.060805645 -0.15147199 0.030972611 -0.07714368 0.051038593 -0.009549894 -0.060659315
-0.14061272 -0.06356756 0.081615224 -0.11045905 0.08532753 0.22682019 0.044827543 0.045188304
-0.08134353 0.015114963 -0.07292514 -0.09969871 -0.08401908 -0.074566685 0.0383478 -0.011102242
-0.13392016 0.1871153 0.1596268 -0.1497327 -0.1798012 -0.13823171 -0.16664934 0.034154225
-0.031878326 -0.09652199 0.18814416 0.23627104 0.046322256 -0.13173048 -0.05947543 0.16313894
0.24756148 0.028734572 0.112454295 -0.14368863 -0.092304625 -0.28736305 0.036704116 0.004668668
0.032540463 -0.13471514 -0.15832764 -0.1950619 -0.13985962 -0.039629884 0.1732971 0.009818717
0.070979 -0.043031428 0.11125382 0.31590858 0.13919714 0.11313324 0.20365141 0.25783473
0.31020665 0.2822462 0.24025394 0.04914945 0.14230967 0.17849112 0.26362503 0.3365671
0.23555908 -0.009001074 0.30669636 0.16623686 0.055030018 0.25947696 0.020332288 0.37462202
0.2994178 0.10010519 0.09582624 0.1113274 0.3290158 0.16103783 0.37808138 0.12544358
0.021132708 0.19593988 0.03404878 0.30071715 0.058455803 0.20772941 0.10023178 0.09756206
0.09359863 0.22161895 0.29696438 0.119642116 0.1345053 0.12795301 -0.040457495 0.25907466
0.24197678 0.19627559 0.12796722 0.035122182 0.2081881 -0.06497927 -0.02501413 0.23519753
0.051393468 0.07070279 0.19196598 0.045091543 0.1767649 0.2098399 -0.0043212683 0.26295334
0.32117522 0.18360573 0.36259747 0.06564852 0.10629131 0.14053531 0.22456373 0.002400454
0.22517061 0.27596486 0.048644304 0.23278743 0.020968491 -0.0331057 -0.038736627 0.23015708
0.22836325 0.09338972 0.17471738 0.21090794 0.088235214 -0.07400039 0.03210515 0.26190254
0.00014383555 0.10820859 0.26363358 0.2703563 0.20828392 -0.02363946 -0.05868066 0.028626319
0.21285091 0.097107515 0.09512224 0.13226616 0.0047711404 -0.059360698 0.23603919 0.07825708
0.078525096 0.12159815 0.14118609 0.1919313 0.07786959 0.07964573 0.28857914 0.09060741
0.014473044 0.20189923 0.21912777 0.27690688 0.2130981 -0.033036135 0.18393405 0.28010294
0.027586572 -0.03594563 0.15641221 0.14727116 0.03954482 0.30199298 0.26561567 0.18491544

fc3_val.bias f4 [76]
00000000: 6972 4c3e 1901 68be e33c d23e 08ca 573e
00000010: 4e13 6fbe eef7 43be 7ea3 73be 43f6 27be
00000020: 5308 1dbe 00d8 38be 2355 1f3f 1958 283f
00000030: de02 4c3e a4db 2dbe 6909 8e3e a220 fc3e
00000040: 5d2e b03e 1045 67be c6c5 c23e 15e0 a73e
00000050: 9214 733e 6a26 3a3f 9d98 8c3e 9f94 b23e
00000060: 6a2b 423e 8fe3 243e 8f5d 233f 3b16 7f3e
00000070: 4af7 51be 7b23 1bbe db1c 083f 515d 46be
00000080: 1a2a bc3d d4c9 6f3e 7542 a93e 61ef 03be
00000090: 22a0 a13e 89cb 44be 55a5 0bbe c1cb a03e
000000a0: fa19 1b3f 4cbf c03e 8a07 5fbe 0edf 863e
000000b0: f6f5 273f caf8 48be b5bd b13e 37e0 36be
000000c0: db4e 09be c201 0f3f 0f13 33be 3e3e 103f
000000d0: 6d91 3c3f 8d31 81be fcf7 55be ffa3 68be
000000e0: 4200 0dbe 5a70 1dbe 4300 34be a2cb 6dbe
000000f0: 9753 673b 33b9 d5bd e217 2fbe 8b4a 1d3f
00000100: 168e 5fbe 24f1 683e f9dc 62be 4d72 c2bb
00000110: 25c0 9b3e ff61 6ebe 2f72 25be 6191 e73d
00000120: d59d c13d 21c5 9a3d 0101 07be 4cea 86be
0.19965519 -0.22656669 0.41062078 0.21073163 -0.23347208 -0.19137546 -0.23792836 -0.16402535
-0.15335207 -0.18051147 0.62239283 0.65759426 0.19922969 -0.16978317 0.27741554 0.49243647
0.34410372 -0.22584939 0.38041514 0.3278815 0.23738316 0.72714865 0.27460185 0.34879014
0.18961874 0.16102432 0.63814634 0.24910824 -0.2050449 -0.15150253 0.5316903 -0.19371535
0.09187718 0.23416835 0.33058515 -0.12884285 0.31567484 -0.19218268 -0.13637288 0.31405452
0.6058651 0.37645948 -0.2178022 0.26342052 0.6560968 -0.19626155 0.34715047 -0.17858969
-0.13408987 0.5586206 -0.17487739 0.56344974 0.736594 -0.25233117 -0.2089538 -0.2271881
-0.1376963 -0.1537489 -0.17578225 -0.23222211 0.0035297626 -0.104357146 -0.17098954 0.6144187
-0.21831545 0.22748238 -0.22154607 -0.005934036 0.30420032 -0.2327957 -0.16156839 0.11307026
0.09453932 0.075571306 -0.13183977 -0.2635063

fc4_adv.weight f4 [38, 76]
00000000: 67c7 5e3c 33e8 3e3c 148b e9be 3573 4bbe
00000010: bec7 84bd d903 4a3e 05d2 9b3e 63ef 8a3d
00000020: 9faf ec3e fbcf c63c d5cf e7be 9fa4 103d
00000030: 90c5 8dbd 24db 83bd b361 733d 021f 9ebe
00000040: 720b 1a3e c064 0b3e 2364 183e 4920 963e
00000050: 1b1f 5c3e 1607 8e3e 634a e8bd cb8d 19bd
00000060: c090 7bbe 6227 56bd 66b1 8f3d 9ab1 ca3d
00000070: 0699 dc3d 14dc 11be 968f 08be 31ed 40be
00000080: ad86 583b 7218 593e cf87 e0bd 2651 383d
00000090: 06aa ae3c 34c7 0abe c695 e53c 352a 623d
000000a0: 9ae3 4bbe daf5 69be 042a 5ebe 5f57 febd
000000b0: 7d90 c23d 6a83 c73e 1dc7 c1bc ae66 aa3d
000000c0: afac cabd e3d3 073f 6bdd 873e 6138 fe3c
000000d0: 870b 4f3d 0020 88be eb3b 8c3e b64e 5abd
000000e0: 29a6 8a3e 98bd e93d 979e 143e 5381 413e
000000f0: e079 6ebe 854d 603e b399 973e 42fb dd3e
00000100: 7d07 0b3e 1ae9 71bc 381e 063d 1706 6f3e
00000110: e9fb 06be 62d0 32be a40c 4bbe 8351 593e
00000120: 8aa5 7a3e 68f3 083e 1d6e 60be 6310 003e
00000130: 821c 833e 82b7 1e3e 6a4d 50be 0ffe 8e3e
00000140: 80d0 d4bd 64c3 203d d26a 0dbe de7f 873e
00000150: 4197 b5be 1ef0 053f 2243 0fbf 3b4d 3e3e
00000160: a354 dcbd cd9f f6bd 5f51 9fbc dcd9 42be
00000170: 5af1 a43d f895 48bd 6035 1ebe 252a 76be
00000180: 5eed a4bd fbcf c9bc 7035 98bb fb49 c53e
00000190: ec3f 44be 6bec d8be e43f 41be 209f b9bd
000001a0: 53a1 c13e f3f3 173e 1299 7d3e a162 a4bd
000001b0: 4b70 19be 4f5c 6c3e 3f7b 20bd 93c6 39be
000001c0: fe16 6c3d 99ca 07bd 0548 b0bd 3abd 8b3e
000001d0: 559e f1bd 31b0 c63e d754 c63c 3fd9 de3d
000001e0: 2a95 81be 701c 893d 9669 47bd 76fc ce3c
000001f0: c16a 65be 5878 13be 8ae7 813d 05a2 6a3c
00000200: cf4e 053f eac2 93bd 0f6a 16bd 2cfc 173e
00000210: 4c7b 353e b54e 483d d4d7 c63e a453 b3bb
00000220: f471 9fbe f9ef 943e 96d2 073e 4f6a d3bd
00000230: 3fbf 8cbc 8b75 f3bd e51f c43e 5c71 673e
00000240: 02b4 1bbe 980d b33d 8b66 843d 92c2 993e
00000250: 3425 9cbd cc78 723e 836b 95bd db13 ef3e
00000260: 6a73 023e 987e 393a 18ae 4939 c304 033d
00000270: 5a76 1f3e de6b a83e 1b8b babd ce3c 753e
00000280: ec22 ddbd c251 aa3e ddb9 9dbe 8ba5 7ebc
00000290: 40b7 933d 8ab6 113e 897a bcbc fe42 15be
000002a0: aabf f23b 22cc 793e f6f3 b33d 269e c33d
000002b0: f755 b1bc 136f 053d fbd3 2c3d 7869 0a3e
000002c0: fa95 d43d 1591 b23d 6a8c 643e e689 d2bd
000002d0: 6253 17be 7555 4cbe 8d0f 3e3e 22c3 87be
000002e0: ce03 113e a590 a8bd dca2 5dbd a8ae 0b3e
000002f0: 0237 873e a09a 86be f1d5 00be b2e4 efbd
00000300: bf6d 51be 0573 4fbe 8daa 96ba 38ec 9bbd
00000310: c50f 92be 9cc4 35be 9c27 acbd 9e6a b43d
00000320: 58f7 bc3e 2aa9 643d a67e 73bc e357 86bd
00000330: 5a93 d93d fd64 c9bd aaf7 033f 7c0e 403e
00000340: afe7 663e af7d 4ebe c3fc 863e 81a5 4b3e
00000350: 765c b7be 9e01 5d3e 5c45 833e 4755 6b3e
00000360: b3ae d23e 93ad 823d 63fe bb3e b2bb 8cbe
00000370: 42a3 78be 72ff 933e ee7b 1bbe 2c54 313e
00000380: 6d8c 0b3d 6dbd bb3d f217 ebbe 0f71 8f3e
00000390: 85b9 b03e c1a6 25be f2b1 7abe 90a5 08be
000003a0: 923c b9be 9758 06be 8a36 43be 0b31 853d
000003b0: 2085 3ebe 8aa4 6dbe 72da 40bd 0ac3 b63c
000003c0: 7dae 743d 639a 37bd baac 543e c419 463e
000003d0: 7823 52be 71d1 c93d 2765 063e a992 c3bd
000003e0: 4e24 473e 8d1d 843e 40b2 8c3c 807a a7bd
000003f0: d5b1 b9be ba5b 88bd ac4a 78be 5d1d 70bc
0.013597346 0.01165204 -0.4561392 -0.19868167 -0.0648341 0.1972803 0.3043367 0.06783941
0.46227738 0.024269095 -0.4527575 0.035313245 -0.06922448 -0.06438282 0.059419345 -0.30883032
0.15043429 0.13612652 0.14881949 0.29321507 0.21496241 0.2773978 -0.11342313 -0.03748874
-0.24566936 -0.052283652 0.07016258 0.09897156 0.107713744 -0.1424411 -0.13336024 -0.18840481
0.0033039257 0.21200731 -0.109634034 0.044999264 0.021321308 -0.13552552 0.02802552 0.055216033
-0.19911042 -0.22847691 -0.21695715 -0.124190085 0.09500215 0.38967448 -0.023654515 0.08320366
-0.09896218 0.5305769 0.26536116 0.031032743 0.050548103 -0.26586914 0.27389464 -0.05329772
0.27079895 0.11413115 0.14513622 0.1889699 -0.23288679 0.21904571 0.2960945 0.43355757
0.13577075 -0.014765048 0.032743663 0.23342167 -0.13182034 -0.17462304 -0.19829041 0.212225
0.2447721 0.13374102 -0.21917005 0.12506251 0.25607687 0.1549969 -0.20342031 0.27928206
-0.10391331 0.03924884 -0.1381028 0.26464742 -0.3546696 0.52319515 -0.5596181 0.18584149
-0.10758331 -0.12042198 -0.01944798 -0.1902842 0.08053847 -0.048971146 -0.15450048 -0.24039514
-0.08053087 -0.024635306 -0.004645042 0.38533005 -0.1916501 -0.42367873 -0.18872029 -0.09063554
0.37818393 0.14839153 0.24765423 -0.080266245 -0.14984243 0.23082088 -0.039180037 -0.18142156
0.057639115 -0.033152197 -0.08607487 0.27292806 -0.117977776 0.38806298 0.024210377 0.1088128
-0.25309116 0.06694877 -0.04868468 0.025266867 -0.22404005 -0.14401376 0.06342991 0.014320855
0.5207338 -0.07214911 -0.03672224 0.1484229 0.17722815 0.048903186 0.3883654 -0.005472617
-0.31141627 0.29089335 0.13263926 -0.10323011 -0.017181037 -0.11887654 0.38305584 0.22601837
-0.15205386 0.08742827 0.06464871 0.30031258 -0.076242834 0.23678893 -0.07295897 0.46694836
0.1273934 0.0007076054 0.00019233709 0.031986963 0.15572491 0.32894796 -0.091085635 0.23948976
-0.107976764 0.332655 -0.30805865 -0.015542398 0.072126865 0.1422979 -0.023007648 -0.14576337
0.007408102 0.24394277 0.08786766 0.09551649 -0.021647437 0.03257663 0.042194348 0.13516796
0.10380168 0.087190785 0.22319189 -0.10280208 -0.14777902 -0.19954474 0.1856062 -0.26516062
0.14161608 -0.08230714 -0.054110393 0.13640845 0.26409155 -0.26289845 -0.12581612 -0.11713542
-0.20452021 -0.2025872 -0.001149492 -0.076134145 -0.28527656 -0.17750782 -0.084059924 0.08809398
0.36907458 0.05582539 -0.014861738 -0.06559732 0.10623808 -0.09833715 0.5154978 0.18755525
0.22549318 -0.20165132 0.26364717 0.19887353 -0.3581273 0.21582648 0.25638855 0.2298175
0.4114891 0.06380763 0.3671752 -0.2748695 -0.24281028 0.28905827 -0.15183994 0.17317265
0.034069467 0.091669895 -0.45916706 0.28015944 0.3451654 -0.16176893 -0.24481943 -0.13344407
-0.36179024 -0.13119732 -0.19063774 0.06503495 -0.1860547 -0.23207298 -0.047083326 0.022309799
0.059736717 -0.04482497 0.20769015 0.19345766 -0.20521343 0.09854401 0.13124524 -0.095494576
0.19447443 0.25803795 0.01717484 -0.08177662 -0.36268488 -0.066581205 -0.24247235 -0.014655438

fc4_adv.bias f4 [38]
00000000: 4733 a83d 87e9 883c 6409 e0bd 27b0 0abc
00000010: 6939 973d 0566 90bb 13b6 533e a128 0aba
00000020: 31b9 0cbd 9019 5f3d a4cf e1bd 53f9 18be
00000030: d87a 453e 1c0d ad3d 11e0 333b b6e3 dc3d
00000040: a58c ae3d a917 da3d 2d66 0abd 9b9d afbd
00000050: 6d7b 693d d3c9 2f3e 16a3 8dbc 7501 073e
00000060: 33be d13d bcab ec3d b2ac 103e ea53 7bbd
00000070: 475d dfbd cf31 043e f6ff 023d 029e c2bd
00000080: 9067 383d 29c0 893d f64a 09be ac0a 2f3e
00000090: 0041 a9be 3b79 843e
0.082129054 0.016712917 -0.10939291 -0.00846485 0.07383997 -0.004406693 0.20674925 -0.00052703364
-0.0343563 0.054467738 -0.110259324 -0.1493886 0.19285142 0.08449766 0.0027446786 0.1078562
0.085229196 0.10649044 -0.03378885 -0.08574983 0.057002474 0.17166834 -0.01728968 0.1318415
0.10241356 0.11556193 0.14128378 -0.061359324 -0.10906463 0.12909625 0.031982385 -0.09502794
0.04502064 0.06726105 -0.13407502 0.17093915 -0.33057404 0.25873742

fc4_val.weight f4 [1, 76]
00000000: 1e6d e5be 1eed c13e b409 66bf 9d0c 89be
00000010: 6e53 9f3e 1ae3 dc3e e97b 353e 0b3a 6a3e
00000020: 006c 8d3e 2599 543e d0a0 b8bf ec39 19c0
00000030: cc88 ccbe b989 863e 2735 bdbe c543 a5bf
00000040: 25cc e9be 78d1 b63e 6de3 79bf b37e 3ebf
00000050: defb e1be 1316 91bf 3fc5 c8be d729 95bf
00000060: 72a2 cdbe 56e4 c8be 1c2e b0bf d326 c1bf
00000070: 9fd9 933e 1a31 553e 7604 8bbf 43e0 8f3e
00000080: 8206 afbf e697 19bf 759d 22bf 9838 623e
00000090: 2777 b1be 86cb cb3e e265 a73e df8f a8bf
000000a0: b698 c0bf 4f3f 53bf f4f9 e03e 6ab9 e2be
000000b0: 85b3 7cbf 945a 7d3e 71e1 75be 9b86 243e
000000c0: 4f69 453e 4869 89bf c769 313e 270f b0bf
000000d0: c7e9 79bf 915e a23e 2465 3d3e 771b 223e
000000e0: 592b 6b3e 4da6 673e c6ee b93e 812d 6c3e
000000f0: e62f dcbf 8d24 ad3e aeb4 383e 7636 71bf
00000100: 76cd 5d3e 011f 8ebf 8dbe 153e fce9 82bf
00000110: c6dd 6bbe 4517 d33e 7a42 c53e f1c3 3abf
00000120: d3c6 40bf de01 09bf 50e5 cb3e 368c 963e
-0.44809812 0.3787622 -0.89858556 -0.26767436 0.3111834 0.43142015 0.17723049 0.22873704
0.2762146 0.20761545 -1.4424076 -2.3941603 -0.39948118 0.2627695 -0.36954615 -1.2911307
-0.45663562 0.35706687 -0.9761265 -0.7441208 -0.44137472 -1.1334862 -0.39212987 -1.1653394
-0.40162998 -0.39236706 -1.3764071 -1.5089973 0.2887697 0.20819512 -1.0860736 0.28100786
-1.3673861 -0.59997404 -0.6352151 0.22091901 -0.3466122 0.39803714 0.32694918 -1.3168906
-1.5046604 -0.82518476 0.439407 -0.44282085 -0.98711425 0.24741584 -0.2401178 0.16066973
0.19278453 -1.0735254 0.17325507 -1.3754624 -0.9762234 0.31712773 0.18495613 0.1583079
0.22965755 0.22622032 0.36314982 0.23064233 -1.7202117 0.3381695 0.18037674 -0.94223726
0.21660408 -1.1103212 0.1462347 -1.0227656 -0.23033819 0.4122869 0.3852728 -0.7295523
-0.7530338 -0.53518474 0.3982339 0.29403847

exp_avg f4 [1, 6, 1, 4]
00000000: 6a09 13c0 718a 31bf 2038 f6bd 7475 19bd
00000010: 8738 a2c0 0400 0000 0400 0000 0000 0000
00000020: 12b3 06bf 12b3 06bf 12b3 06bf 5886 49bd
00000030: 509b 21be c2ea e3bd c2ea e3bd e864 dd3c
00000040: bf8d eabd e422 0cbe e422 0cbe 2f38 963d
00000050: 546b 16be 5ccd eabd 5ccd eabd 0000 0000
-2.2974496 -0.6935187 -0.12022424 -0.037465528 -5.0694003 6e-45 6e-45 0.0
-0.5261699 -0.5261699 -0.5261699 -0.049200386 -0.15781903 -0.11128761 -0.11128761 0.027025655
-0.11452817 -0.13685185 -0.13685185 0.07334935 -0.1468938 -0.114649504 -0.114649504 0.0

exp_avg_sq f4 [1, 6, 1, 4]
00000000: d19f 5442 6740 b740 6465 173f b66c 693c
00000010: 436e 3f43 f401 0000 f401 0000 0000 0000
00000020: a342 6c40 a342 6c40 a342 6c40 b12d 5b3e
00000030: 4a88 443f 9d60 363f 9d60 363f a5c0 463d
00000040: 6518 3b3f 6ab1 2d3f 6ab1 2d3f f29e 503d
00000050: 0ae0 fe3e f12e ed3e f12e ed3e 0000 0000
53.15607 5.7266116 0.59139085 0.01424711 191.43071 7e-43 7e-43 0.0
3.6915672 3.6915672 3.6915672 0.21404149 0.7677046 0.7124117 0.7124117 0.048523564
0.730841 0.6784884 0.6784884 0.050932832 0.49780303 0.46324876 0.46324876 0.0

exp_avg f4 [1, 6, 2, 4]
00000000: 041c 16bf 7cd4 afbd 1acd 3abd be6f d1bc
00000010: fa0e 07bf de86 a7bd ab84 3abd 60da 83bc
00000020: 87c7 83c0 df46 00c0 b6f9 8cbe 0a3e 793e
00000030: f7fd 85c0 1278 fcbf f0b6 99be 136d 403e
00000040: bd6d d7be bd6d d7be bd6d d7be 49b6 43bd
00000050: ab2a 40be ab2a 40be ab2a 40be 9cb4 14ba
00000060: 34b2 63bd 3baa cebc 3baa cebc b50d 97b9
00000070: f62d 6ebe a474 4cbe a474 4cbe 35b1 da3c
00000080: 6d8e 9d3d 2719 ab3d 2719 ab3d 688f ab3c
00000090: 7f69 8e3d 1db8 8c3d 1db8 8c3d 8ead 083d
000000a0: baa9 b93b fd5a e53c fd5a e53c 917c 62bb
000000b0: 80b9 69bd 290b 30bd 290b 30bd f468 ca3c
-0.586365 -0.0858545 -0.045605756 -0.025565978 -0.5275723 -0.08180021 -0.04553668 -0.01609534
-4.1181064 -2.0043256 -0.27534264 0.24340072 -4.1872516 -1.9724143 -0.30022383 0.18791609
-0.4207591 -0.4207591 -0.4207591 -0.047781263 -0.18766277 -0.18766277 -0.18766277 -0.0005672665
-0.05558987 -0.025227657 -0.025227657 -0.00028811177 -0.2325972 -0.1996637 -0.1996637 0.026695827
0.07693181 0.08354407 0.08354407 0.020942405 0.069537155 0.06871054 0.06871054 0.03336864
0.005665985 0.027997488 0.027997488 -0.003455911 -0.057061672 -0.042979393 -0.042979393 0.024708249

exp_avg_sq f4 [1, 6, 2, 4]
00000000: bc9b 0141 8bcf a13f 2924 043e 2fd6 0c3b
00000010: e3ad d140 e835 993f 2b42 123e 4756 d93a
00000020: 4983 6443 90fc e642 2ea0 ff41 6286 5d40
00000030: 20eb 6543 6db3 c742 a5b1 a141 e681 d03f
00000040: 6c96 883f 6c96 883f 6c96 883f 7012 043d
00000050: de74 e93e de74 e93e de74 e93e 5e80 053d
00000060: 6861 fe3e 2586 e63e 2586 e63e 97ad fb3c
00000070: 559d dd3e 1b33 ca3e 1b33 ca3e a2cb c23b
00000080: 9b58 873e 64c8 843e 64c8 843e 1603 853c
00000090: 3cf7 d93e 1a19 d33e 1a19 d33e 3872 833c
000000a0: 098e 933e 3068 8a3e 3068 8a3e aaca 983b
000000b0: 84e1 c53e 27fc bc3e 27fc bc3e 9505 4b3c
8.100521 1.2641462 0.12904419 0.0021489968 6.5524764 1.1969576 0.14283054 0.0016581499
228.51283 115.493286 31.953213 3.461327 229.91846 99.85044 20.21174 1.6289642
1.0670905 1.0670905 1.0670905 0.032244146 0.45596975 0.45596975 0.45596975 0.032593124
0.4968369 0.4502422 0.4502422 0.030722423 0.43284097 0.39492115 0.39492115 0.005944685
0.26434788 0.25934136 0.25934136 0.016236823 0.42571437 0.41230088 0.41230088 0.016045675
0.28819302 0.27032614 0.27032614 0.0046628313 0.38648617 0.36911127 0.36911127 0.012391468

exp_avg f4 [1, 6, 3, 4]
00000000: af2b 12be 3008 0dbe bc97 84bc e1f7 6139
00000010: 7f19 05be e4fa 0d3d 44a1 4a3d 3e34 3f3c
00000020: 36ae 47bd f212 a83d 4c13 803d 4fee 313c
00000030: 1be8 0b3d f5cf d93c e795 06bd 9ced 34be
00000040: 4d72 22be 9f46 00be 55ab 9a3d a04f bebd
00000050: 4da1 6fbe 7b66 ae3d 38b3 023e adbd 49bd
00000060: 1bb7 bb3d 19b7 bb3d 1bb7 bb3d 10b6 d43c
00000070: 3eed 623d 3eed 623d 3eed 623d bb72 89bc
00000080: b2f6 babd aef6 babd aef6 babd 9af8 44bb
00000090: 43d2 993c 83d4 063c 7bd4 063c 1b42 febb
000000a0: f8dd 983d b8c8 803d b9c8 803d 04f1 c0bb
000000b0: 33ef 0a3c 7272 843b 6872 843b 1da3 10bc
000000c0: 1070 0ebb 82d6 153b 7dd6 153b 89e1 8abc
000000d0: cc42 31bd 7123 2cbd 7223 2cbd daad a5bc
000000e0: da62 163d 12f9 1f3d 16f9 1f3d 4a76 57bc
000000f0: 5c44 37bd 900a 07bd 900a 07bd e59f 3bbc
00000100: 8261 b5ba 5e0d 5b3c 680d 5b3c c095 34bc
00000110: f5ae 3e3d 699a 4a3d 6d9a 4a3d 0147 86bb
-0.14274476 -0.13772655 -0.016185634 0.00021550014 -0.12998007 0.034663096 0.0494702 0.01167017
-0.048750125 0.082067385 0.062536806 0.01086004 0.0341569 0.02658842 -0.0328578 -0.17668766
-0.15863915 -0.1252694 0.0755221 -0.09292531 -0.23401375 0.0851564 0.12763679 -0.049253155
0.09165784 0.091657825 0.09165784 0.02596572 0.055402033 0.055402033 0.055402033 -0.01677834
-0.09129085 -0.09129082 -0.09129082 -0.0030055405 0.018777018 0.008229378 0.00822937 -0.007759345
0.07464212 0.06288284 0.06288285 -0.0058881063 0.008479881 0.0040419633 0.0040419586 -0.008827952
-0.0021734275 0.0022863452 0.002286344 -0.016953247 -0.043276593 -0.042025987 -0.04202599 -0.0202245
0.036715366 0.03905589 0.039055906 -0.013150761 -0.044742927 -0.032969058 -0.032969058 -0.011451696
-0.0013838264 0.013369886 0.0133698955 -0.011022031 0.04655357 0.049463663 0.04946368 -0.00409782

exp_avg_sq f4 [1, 6, 3, 4]
00000000: 2083 a53f 531d 4d3e 262e cc3c 1597 ed39
00000010: f29e c63f 7a47 2f3e 1731 f53c 7768 443a
00000020: f30d b53f 2162 4b3e 4545 313d 2636 9a3a
00000030: ac6f b441 29c2 4f41 8b23 8040 4193 1b3f
00000040: 8581 b641 c81e 4841 2460 7140 d160 0e3f
00000050: 2c72 b341 75c4 4941 a907 8140 9a21 173f
00000060: c99e fa3d ca9e fa3d c79e fa3d 9de3 d63b
00000070: a20a 203e a20a 203e a20a 203e 7321 e23b
00000080: 837f 3e3e 827f 3e3e 847f 3e3e cb59 fd3b
00000090: 393f 603d b3ed 563d b5ed 563d 6364 db3a
000000a0: dde8 4b3d c709 403d c709 403d 658d 063b
000000b0: 46e0 463d 90cc 3a3d 91cc 3a3d 480e a03b
000000c0: d45d 353d 6f1f 313d 6f1f 313d a06f 323b
000000d0: 38ba 5a3d 175f 503d 185f 503d 42fc 823b
000000e0: fff1 713d 0c66 693d 0c66 693d 7d4f a53a
000000f0: f66a 323d 7477 2b3d 7577 2b3d a43e 0b3b
00000100: f52f 2d3d daaf 243d d9af 243d 1cf2 c93a
00000110: 99d3 1a3d 4008 123d 4008 123d 6036 ad3a
1.2930641 0.20030718 0.024924349 0.00045316727 1.5517256 0.1711711 0.029930634 0.0007492373
1.4144882 0.19861652 0.04327895 0.0011765405 22.554527 12.984902 4.0043387 0.60771567
22.813242 12.507515 3.771493 0.5561648 22.430748 12.610463 4.032185 0.59035647
0.12237317 0.12237318 0.122373156 0.0065578953 0.15629056 0.15629056 0.15629056 0.00690096
0.1860333 0.18603328 0.18603331 0.0077316514 0.054747794 0.05247278 0.05247279 0.0016738292
0.049782623 0.046884324 0.046884324 0.0020531055 0.048553728 0.045605242 0.045605246 0.004884515
0.044278935 0.043242868 0.043242868 0.0027227178 0.05340025 0.050871935 0.05087194 0.0039973566
0.059068676 0.056982085 0.056982085 0.001261219 0.043559037 0.041861966 0.04186197 0.0021247054
0.042282064 0.040206768 0.040206764 0.0015407237 0.03779945 0.0356524 0.0356524 0.0013215058

exp_avg f4 [1, 6, 4, 4]
00000000: 9f88 6dbf 8261 66be ccfa 21bd a2f5 1bbc
00000010: b99d 5ebf 974f 80be 4981 9bbd f051 2dbc
00000020: 7681 2fbf 0493 5fbe 119b 5fbd 6524 a4bc
00000030: 5d84 1bbf b853 5fbe cee9 4bbc 92ec 52bb
00000040: ac78 27c0 a9ce 51bf 36e2 3b3e 80f9 9a3e
00000050: ac35 29c0 2ce9 67bf 2701 fa3d 09ca 683e
00000060: 42e9 23c0 70d3 77bf dc3c 473c 66f1 a33e
00000070: f3a5 2cc0 6c9b 3bbf d1ba 42bd 5c03 873e
00000080: 5f75 84be 6075 84be 6175 84be b6bf 43bc
00000090: f198 72be f098 72be f098 72be 48fa dcbc
000000a0: fc04 9cbe fb04 9cbe fc04 9cbe 082b 5cbc
000000b0: f94c 10be f84c 10be f94c 10be bcd1 9aba
000000c0: 2c5c dfbd 6ac4 e1bd 68c4 e1bd 55a6 c43b
000000d0: c045 40bd e5bf 1fbd eabf 1fbd c236 fb3b
000000e0: efb8 87bc 7839 033c 8839 033c 035a ff3b
000000f0: 68bb 05be 8d4d c3bd 8c4d c3bd 54b4 733c
00000100: 49a9 913c 9919 ab3b 7119 ab3b d3f8 c73c
00000110: 6970 723d 4a5b 3c3d 415b 3c3d 6895 fa3c
00000120: 56eb 1e3d 8d79 013d 8d79 013d e186 1d3d
00000130: 424f 0e3d 8a8a 113d 888a 113d 94d9 f63c
00000140: 6919 d73c 5f66 493d 6466 493d e675 053b
00000150: 6037 bcbc 0832 a33a 9531 a33a 8da3 963b
00000160: bc15 0dbd 285a 4ebc 295a 4ebc 6108 133c
00000170: a23f 91bd 42c4 64bd 40c4 64bd dfd1 e93b
-0.9278659 -0.22498134 -0.03954582 -0.009519013 -0.86959416 -0.25060722 -0.075930186 -0.010578617
-0.68556917 -0.21833426 -0.054591242 -0.020036886 -0.60748845 -0.2180928 -0.01244588 -0.0032184464
-2.6167402 -0.81955963 0.18348011 0.30268478 -2.6439009 -0.9059017 0.12207251 0.2273332
-2.561112 -0.96807003 0.012160506 0.3202011 -2.6976287 -0.7328403 -0.047541443 0.2636975
-0.25870797 -0.258708 -0.25870803 -0.011947563 -0.23691155 -0.23691154 -0.23691154 -0.026974812
-0.30472553 -0.3047255 -0.30472553 -0.013437994 -0.14091863 -0.14091861 -0.14091863 -0.0011811773
-0.10906252 -0.11023791 -0.1102379 0.0060012736 -0.04694152 -0.039001364 -0.039001383 0.0076664397
-0.016567675 0.008009307 0.008009322 0.0077927127 -0.13059771 -0.09536276 -0.09536275 0.014874537
0.017780917 0.0052215573 0.0052215387 0.02441064 0.059189234 0.045985498 0.045985464 0.03058882
0.038798653 0.03161006 0.03161006 0.03845871 0.034743555 0.03553251 0.035532504 0.030133046
0.026257234 0.049169894 0.049169913 0.0020364462 -0.022975624 0.0012450824 0.001245069 0.0045971335
-0.034444556 -0.012594737 -0.012594738 0.008974166 -0.07092215 -0.05585123 -0.05585122 0.0071356143

exp_avg_sq f4 [1, 6, 4, 4]
00000000: 40db 1b41 4acd 183f 6dba 523d 8d52 723a
00000010: 4603 0d41 a746 1b3f 281c 6c3d 5e7a df3a
00000020: 24ee 1b41 f986 103f fe9e 933d 6554 3e3b
00000030: 8035 1a41 9224 3f3f a906 a83d fe4b 093b
00000040: b5a7 0043 44bd 5c42 5113 5a41 aaaa d73f
00000050: 4c27 0143 bb96 6042 5ede 6741 4f36 f43f
00000060: ba12 0043 4997 5e42 2274 6141 7f06 ec3f
00000070: eee5 0143 1afd 5f42 7d2c 6041 2484 e53f
00000080: 9d87 213f 9c87 213f 9d87 213f 8a74 983c
00000090: f496 143f f296 143f f396 143f b7eb 843c
000000a0: cd61 1e3f cc61 1e3f cd61 1e3f 5b68 963c
000000b0: 4f6f 253f 4e6f 253f 4f6f 253f df93 9e3c
000000c0: fee7 413e 6f1a 233e 701a 233e 148e 8a3b
000000d0: bb9f 3a3e 45fe 243e 45fe 243e 0b05 a23b
000000e0: e380 603e c445 4d3e c245 4d3e 8298 c43b
000000f0: 5be4 283e df48 193e df48 193e 5bcc da3b
00000100: 4a20 423e caab 353e c9ab 353e 1934 603b
00000110: 9410 273e 75af 1d3e 75af 1d3e 56d0 b23b
00000120: f872 193e 6243 123e 6343 123e a16d b63b
00000130: 254e 233e 01fc 1e3e 01fc 1e3e 4916 c33b
00000140: 9c07 293e 441f 153e 451f 153e 9568 3e3b
00000150: 75a6 333e fa76 253e f876 253e 3fb5 f63b
00000160: be42 1b3e 2caa 0d3e 2aaa 0d3e a54e 963b
00000170: 2268 3c3e 1989 2e3e 1889 2e3e 64c3 8d3b
9.741028 0.59688246 0.05144732 0.00092438684 8.813299 0.6065468 0.05764404 0.0017050018
9.74564 0.5645595 0.0720806 0.0029042002 9.638062 0.74665177 0.08204395 0.0020949836
128.6551 55.18483 13.629716 1.6848958 129.1535 56.147198 14.491789 1.9079074
128.07315 55.64774 14.090853 1.8439482 129.89816 55.99717 14.010861 1.7930951
0.63097554 0.6309755 0.63097554 0.018610258 0.58042836 0.58042824 0.5804283 0.016225679
0.6186798 0.61867976 0.6186798 0.018360307 0.6462297 0.6462296 0.6462297 0.01935762
0.18936154 0.15928052 0.15928054 0.004228363 0.18224995 0.16112621 0.16112621 0.004944449
0.21924166 0.20046145 0.20046142 0.0059996257 0.1649336 0.14969204 0.14969204 0.006677193
0.1895763 0.17741314 0.17741312 0.003421074 0.16314918 0.15398963 0.15398963 0.0054569645
0.14985263 0.14283517 0.14283518 0.005567268 0.15947779 0.1552582 0.1552582 0.0059535843
0.16506809 0.14562708 0.1456271 0.0029054035 0.17543967 0.16158667 0.16158664 0.0075289304
0.15162179 0.13834447 0.13834444 0.004587012 0.18399099 0.17044486 0.17044485 0.004326271

exp_avg f4 [76, 130]
00000000: a810 0ebb 8c50 363b 0cc8 e738 bf3d 1abb
00000010: 9f80 57ba 9e68 163b 5331 703a c6d7 843b
00000020: 8abd 00bb 5a02 89ba 7a05 9d3a da07 e23a
00000030: 62c1 ff3a 2266 75ba 06ed e83a 6ef1 bcba
00000040: 9700 4fb9 0cb2 1a3b 86a1 fc3a 234b ce3a
00000050: de25 b8bb d74b 94bb 233e 1e3b 1f0b 793b
00000060: 4826 83bb a5f0 a93a 9dcb bcba 51e8 f03a
00000070: 470a 73b8 68bb 163b a19b fc3a 850f 0bbb
00000080: 6bff 113b 1ef1 2b3a dd76 003c 837b c63b
00000090: 64b0 e93a cdcc c6bb 29f3 b6ba accf 1dbc
000000a0: 8ea3 283b 4043 e939 5d26 9c3a 25a2 063b
000000b0: a8a1 223b 92ca 4a3c 68a8 fe3b d448 a6ba
000000c0: b0f2 40bb f94f f9ba 552c c23b 167c 2a3b
000000d0: df63 4ebb afcd e3bb fa22 08bc a280 71bb
000000e0: d36d dabb 36ac e9ba 85f5 8eb9 ed7d 5bba
000000f0: 7b78 a8bb 0f66 823b a07a e6b9 82ec 4cbb
00000100: 7159 60bb 4fa2 6d3a c806 e9ba 6f76 e3b9
00000110: df28 36bb 3667 22bc cb97 a1bb 3fcc 8abc
00000120: 9ea4 f9bb d39f cdbb 1d74 c6bb 2cee 34bc
00000130: 756f 2ebc 4e4e 823b 0876 c73b 73ff 183c
00000140: 26b4 71bb 7a16 bebb 90fe 02bc 8590 2239
00000150: cb2b e6bb 443b 9bbc 5e49 abbc b51b 81bc
00000160: 89f4 80bc b926 61bc 8403 9dbb 1875 45bb
00000170: ba03 9abb 9c55 52bc 1210 d0bb 96d7 0abc
00000180: 1630 fdbb 300c 1bbc a1aa 15bb 065e 6dbc
00000190: ff94 e9bb 7131 00ba 3db9 27bc 6d16 7bbb
000001a0: fac1 c2bb 0860 b0bc e831 c5bb f280 cabb
000001b0: ba6b 41bc 69cf 21bc 122a 88bc 0c7b 35bc
000001c0: 935f 33bc 58ce 46bc 2bba 0fbc a004 80bc
000001d0: 1350 0bbc debe 43bc 8f6e c8ba 8d6f 27ba
000001e0: bae0 fdbb 6745 7dbc 3fe9 2dbc dfec 1dbb
000001f0: 3739 0cbc 358d 94bb 46f6 36bc 0445 0dbc
00000200: f2c5 71bc 61d0 32bc 659d 45bb c38e ac3a
00000210: f571 b639 dc3d 87bb c5e9 b1ba 079b 75ba
00000220: 77f3 8dbb 2822 053b 3194 0f3b a083 9b3b
00000230: e48b 06ba dd49 a93a 6e6c 333a 64b4 1c3b
00000240: ec11 3bbb d2c0 443a aac0 43ba 9afd 323a
00000250: 8e5d 1a3b dc50 f033 095a 533b 474d a33a
00000260: d4f7 1c3a 985e 303a 0df3 87bb 079e 3e3a
00000270: 39e0 84ba c2ca 7fba 663e 783b de8a 553b
00000280: b883 9b3b d8b1 253b e4f2 593b 24b4 d73a
00000290: bf81 91bb 5d71 22bb 885d edbb 2749 26bb
000002a0: c3a8 05bc b8d2 f3ba ff8f 7ebb f1a7 e03b
000002b0: f9c8 b53b 2023 94ba 27b8 5a3c 593f e03b
000002c0: 1b89 d63a cc86 ffbb a784 ecbb fa41 18bc
000002d0: e113 35ba 6b0a 9c3b 6d26 323a a407 8b3b
000002e0: 4d7d 253b 82b4 7d3b 00eb b83a 46e3 2bbc
000002f0: 8a30 29bc 9cc6 edbb 682d c9bb 8cfd 90bb
00000300: c7f3 953b efd9 c23b f242 833b 8da5 ee3b
00000310: e6ac ba3b 6013 07bb d2d6 03bb 0860 a83a
00000320: 0400 4e3b e492 203c b45f 9f3b 1b6d 6c3c
00000330: f467 1e3a b8f8 573c f699 ea3b f07f 5a3c
00000340: 9631 783c aaab 0f3b bcb0 483b b095 4f3a
00000350: ed91 803a 61aa b33b a8e7 df3b 32b0 293c
00000360: 42d4 f13b 5575 213c 4aef 083b a4b9 16bb
00000370: 2257 c8bb 6a2e a2bb 18af 223b df50 473c
00000380: 7282 3e3c e326 2d3c 2be5 023c 5d49 873c
00000390: 9824 303c 997e 0a3c 08db 813b 0af3 3f3c
000003a0: b8ef fe3b 9c81 883b 35ff 113c fd1b fc3b
000003b0: 1e9c 453b 779a 4a3a d1e3 b73b 18d9 283a
000003c0: 29cc 7a3b 6cb7 023c a624 083c 5c9d ec3b
000003d0: 67c3 c63b 6df3 533b d64d 443b 1c5f eb3b
000003e0: 24af 403b efd2 fb3b 0701 3b3c a90f e73b
000003f0: b24a 9a3c 6c52 103c c753 4b3b b83c 2c3b
-0.0021677408 0.0027819006 0.000110522 -0.0023535339 -0.0008220765 0.002295054 0.00091626233 0.0040540425
-0.0019644224 -0.0010452971 0.0011979782 0.0017244772 0.0019512589 -0.0009361227 0.0017770834 -0.0014415213
-0.00019741278 0.002360466 0.0019274212 0.0015738945 -0.0056197485 -0.0045256424 0.0024145923 0.0038001013
-0.004002366 0.0012965394 -0.0014403943 0.0018379783 -5.7945286e-05 0.0022999886 0.0019272455 -0.0021218967
0.0022277485 0.00065590616 0.007840839 0.006057204 0.0017829058 -0.0060668946 -0.0013957965 -0.009632032
0.0025732252 0.00044491328 0.0011913289 0.0020543423 0.0024815593 0.012377398 0.0077715404 -0.0012686499
-0.0029441528 -0.0019021026 0.005925695 0.0026013902 -0.0031492633 -0.0069520096 -0.00830912 -0.0036850353
-0.006665924 -0.0017827812 -0.00027267277 -0.00083729514 -0.0051413155 0.0039794515 -0.0004396038 -0.00312689
-0.0034232999 0.00090650184 -0.001777851 -0.00043385054 -0.0027795357 -0.009912303 -0.004931425 -0.016943095
-0.007618501 -0.006275156 -0.0060563223 -0.011043113 -0.010646691 0.00397662 0.0060870685 0.009338248
-0.0036881058 -0.0058010193 -0.007995263 0.00015503362 -0.0070242635 -0.018949158 -0.020909008 -0.015760282
-0.015741603 -0.013742142 -0.004791679 -0.0030129608 -0.0047001513 -0.012837794 -0.006349572 -0.008474251
-0.0077266796 -0.009463355 -0.0022837298 -0.014487749 -0.0071283574 -0.000489018 -0.010237035 -0.0038312927
-0.005943534 -0.021530166 -0.006017912 -0.0061799223 -0.011805469 -0.009876111 -0.016621623 -0.0110767
-0.01094808 -0.012134157 -0.008772413 -0.015627205 -0.008502978 -0.011947362 -0.0015291738 -0.0006387167
-0.0077477368 -0.015458441 -0.010614692 -0.0024097485 -0.008558563 -0.0045334348 -0.011167115 -0.008622412
-0.0147566665 -0.010913939 -0.003015363 0.0013165105 0.0003479865 -0.0041272473 -0.0013573697 -0.0009369109
-0.004332002 0.0020314548 0.0021908397 0.0047459155 -0.00051325397 0.001291569 0.00068444654 0.0023911232
-0.0028544618 0.0007505539 -0.0007467369 0.0006827951 0.0023554298 1.1190579e-07 0.003224971 0.0012458944
0.0005987857 0.0006727963 -0.004148847 0.0007271473 -0.0010137624 -0.00097576913 0.003787899 0.0032583992
0.0047459267 0.0025283005 0.0033256346 0.0016456884 -0.004440516 -0.0024786808 -0.007243816 -0.0025373192
-0.008157912 -0.0018602228 -0.0038843153 0.0068559577 0.0055476394 -0.0011301972 0.013349569 0.006843489
0.0016367765 -0.0077980515 -0.007217962 -0.009293074 -0.0006907564 0.004761984 0.0006795887 0.004242854
0.0025251687 0.0038712327 0.0014108121 -0.010491198 -0.010326514 -0.007256342 -0.006139446 -0.0044247564
0.0045761797 0.00594639 0.0040057832 0.007282919 0.0056968806 -0.0020610914 -0.0020117057 0.0012846002
0.0031433115 0.009800646 0.0048637036 0.01443031 0.0006042712 0.013181858 0.007159467 0.013336167
0.015148541 0.0021922388 0.003062292 0.00079187285 0.0009809114 0.005482957 0.0068330355 0.01035695
0.0073800394 0.009854634 0.002089458 -0.0022998834 -0.0061139027 -0.0049493806 0.0024823602 0.012165277
0.01162778 0.010568353 0.007989208 0.016514475 0.010750912 0.008453035 0.003962878 0.01171566
0.0077800415 0.0041658413 0.008910944 0.007693766 0.0030152868 0.00077287055 0.0056118746 0.0006441041
0.0038268662 0.0079783015 0.008309519 0.007220907 0.0060657742 0.0032341138 0.002995362 0.007182969
0.0029401267 0.0076850574 0.011413819 0.0070514274 0.018834446 0.008808713 0.0031025277 0.0026281308
