TrainedModel/Dueling DQN-1/11000_0-13_DuelingDQN.pth (torch, 291221 bytes, 33 tensors)

conv1.weight f4 [1, 6, 1, 4]
000000 be 43 9d 3f 16 69 85 3e 4d 80 45 3e 48 d7 69 3e
       1.2286298 0.26056737 0.19287224 0.2283603
000010 1a a9 5d 3e 68 b6 aa 3d 6f ad 53 3e 3f e0 43 3d
       0.21646538 0.083355725 0.20671628 0.04782128
000020 3b ce 0e 3e 7e fd 96 3d a7 01 91 be 6a d0 c1 be
       0.13945858 0.073725685 -0.28321573 -0.3785432
000030 f5 17 05 bd ef 82 c6 3e 92 11 d6 be 5b 46 07 be
       -0.03249355 0.3877177 -0.4181028 -0.13210432
000040 07 75 f2 bd f3 07 09 bc a1 b9 93 bd af 70 e6 be
       -0.118387274 -0.008363712 -0.0721314 -0.45007846
000050 5c 34 84 bd a4 16 b9 3d f4 aa 9a be 30 db ec be
       -0.06455299 0.090375215 -0.30208552 -0.46260977

conv2.weight f4 [1, 6, 2, 4]
000000 62 34 9d bd 8a c8 90 bd a8 39 4f 3e b6 4c ad bc
       -0.07676007 -0.070695 0.20236838 -0.021154743
000010 fd 4f 1a be f3 d9 10 3f 0c b8 b9 3e d8 d9 20 be
       -0.15069576 0.56582564 0.3627323 -0.15708101
000020 11 1f 19 3e 1d 28 f8 3e 7b ab ac 3e b5 79 5f be
       0.14953257 0.48468104 0.3372458 -0.21823771
000030 ed 6a 03 3c 33 a0 07 bf 29 5f 27 bf ca 7b 26 be
       0.008021099 -0.5297882 -0.6537958 -0.1625816
000040 62 a7 bb 3e fe 32 d8 3d 26 37 bd 3d 5a 90 9c bd
       0.3665114 0.10556601 0.09239034 -0.076447204
000050 5f 2a c5 3d 73 23 87 be 45 22 9d 3e 62 43 4b bf
       0.09627222 -0.26394233 0.30690208 -0.79399693
000060 50 9f 07 bc ab 6f a5 bd 1e 12 b3 3e 14 c9 94 ba
       -0.008277729 -0.080779396 0.3497476 -0.001135143
000070 31 5a 32 bd a3 b8 78 be 20 6e aa 3e d8 01 fb bd
       -0.043543044 -0.24289183 0.33287144 -0.12256211
000080 ef d2 30 bd 46 fc 31 be e8 40 ca 3e f9 09 55 3e
       -0.043169912 -0.17381391 0.39502645 0.20804586
000090 12 5a 20 be 77 1a 1f 3e e5 d1 d5 bd 3e 90 82 be
       -0.15659359 0.1553744 -0.10440425 -0.25500673
0000a0 c4 2f 6a 3e 3d d2 2b 3e 9f 48 ea bd 12 4e 7b 3e
       0.22869784 0.16779418 -0.114396326 0.245415
0000b0 5b c1 6a bd 62 ad 8c 3d dd c2 46 3d 9f 2a e1 3d
       -0.057313304 0.06869008 0.04852568 0.109944575

conv3.weight f4 [1, 6, 3, 4]
000000 b3 86 a8 3d fd 92 8f 3e 0a fa 50 3d 28 55 a4 3e
       0.08228817 0.2804183 0.051019706 0.3209622
000010 1f ff 90 3e 9a ef f3 3e d6 54 3b be 6c 02 fd 3e
       0.28319642 0.4764374 -0.18294081 0.4941591
000020 34 fc e2 3d ff a0 b8 3e 6c c8 b0 3b 92 c2 0c 3f
       0.1108326 0.3606033 0.005394986 0.5498439
000030 40 aa c8 bd 97 32 81 be e7 b7 f2 bd fa 6d 95 bd
       -0.097980976 -0.2523391 -0.11851483 -0.07296367
000040 8b 44 df bb 25 ea 31 be fb 11 85 bd 52 a6 a3 bd
       -0.006813591 -0.17374475 -0.0649757 -0.079907075
000050 4f d3 ed 3d ef 4e 8e 3e b3 8c eb 3d 1e 52 1a bd
       0.116125695 0.27794597 0.115014456 -0.03767597
000060 35 cd 26 3d 14 8a c0 bd 97 f8 bd bd 3b fa 64 3d
       0.040723044 -0.09401336 -0.092759304 0.0559027
000070 c7 bb 53 be e6 8a a4 3d a3 2a ca bc bb 18 ea 3d
       -0.206771 0.08034305 -0.024678534 0.11430498
000080 5c 09 38 3e a0 6f 4e be 8c 35 1a 3e 1c 94 16 3f
       0.1797232 -0.20159769 0.15059489 0.58819747
000090 a4 62 44 be 6d 1e 83 3d 71 14 04 3e 52 94 1d 3e
       -0.19178253 0.06402288 0.12898423 0.15388611
0000a0 63 a4 d4 3d da be a1 3d b2 7a 69 be a2 68 ef bd
       0.10382917 0.0789773 -0.22800711 -0.11689879
0000b0 0f ee a5 3d 1c f4 c1 bd 7e 26 28 3e 0b 0c 6f 3e
       0.08102047 -0.09470388 0.16420934 0.23344438
0000c0 16 3f ed bc 8f b3 38 3c 9f 57 1e 3d 3d c4 ff bd
       -0.028960746 0.011273279 0.03865778 -0.12488601
0000d0 57 18 31 3e 13 2f 89 be 61 4b 64 3e 39 80 92 3e
       0.17294441 -0.26793727 0.2229438 0.2861345
0000e0 13 4b 05 3a d0 5d 87 3e be cd ca bd 55 51 96 be
       0.00050847343 0.2643876 -0.099025235 -0.29358926
0000f0 11 a3 6a bd a3 09 40 3d c8 b3 97 3d dc 62 dd 3d
       -0.05728442 0.04688419 0.074073374 0.108098716
000100 40 46 16 be 46 15 2f 3d 52 60 c0 3d ed 0f 2a be
       -0.14675236 0.042744897 0.09393372 -0.16607638
000110 42 f0 04 3e df 06 df bd d1 d9 0f 3e 28 a3 a1 3e
       0.12982276 -0.108899824 0.14047934 0.3156979

conv4.weight f4 [1, 6, 4, 4]
000000 bd 98 9c 3e eb fb 95 bd 13 18 89 3d 5d 8f d3 3b
       0.3058528 -0.0732344 0.06694045 0.006456299
000010 3b 02 9e 3e b4 d5 ae be 06 d5 3a be 8c 10 07 bc
       0.30861077 -0.34147418 -0.18245324 -0.008243691
000020 77 2b 9d 3c 2c b8 19 be f5 92 80 bc ce 1f 3c 3d
       0.019185765 -0.15011662 -0.015695075 0.04592877
000030 7c 18 98 3e 1f 85 c9 be fa b5 0d be eb 2f c4 bd
       0.2970618 -0.39359376 -0.1383895 -0.09579452
000040 1c ab 07 3e 59 15 4a 3e 17 1b ef 39 61 6c bd bd
       0.13248867 0.19734706 0.00045605816 -0.09249187
000050 c4 b4 eb bd f2 9c 28 bd db ff 18 3c a4 f5 68 bd
       -0.11509088 -0.0411653 0.009338344 -0.056874886
000060 9f 7a 12 bd 04 1c 09 be df 13 6e bd 28 fd 54 bd
       -0.03576147 -0.13389593 -0.05812442 -0.05199924
000070 1e 43 07 bd db 48 e6 bd b6 7a 02 be af b1 cb bd
       -0.033022992 -0.11244365 -0.12742123 -0.09946
000080 0c f9 7c 3d 25 84 e5 bd 6f 9b 01 3e 95 42 56 3e
       0.061760947 -0.11206845 0.1265695 0.20923837
000090 2f cf d8 3d 24 69 06 bd da 75 04 be 3d e1 32 3c
       0.10586392 -0.032815114 -0.12935582 0.010917959
0000a0 33 03 51 3e 19 90 6f be b9 5a 64 bd 2c 70 69 bd
       0.20411377 -0.23394813 -0.055750582 -0.05699174
0000b0 f0 19 7d be 1f 00 29 3e c4 a2 50 3d c1 15 9b 3d
       -0.24716926 0.16503952 0.050936475 0.075725086
0000c0 ae 15 8e 3d 89 c1 14 bd d9 0e a7 3d ff be 10 3e
       0.06937729 -0.036317382 0.08157129 0.14135359
0000d0 15 f5 b2 bc aa 24 f3 3d 2f 27 46 bd c5 2c 98 3d
       -0.02184538 0.118722275 -0.048377212 0.07430414
0000e0 5c 39 ea 3d 9b d2 57 bd 9a 54 99 bd 1e bb 2c be
       0.11436722 -0.052691083 -0.074868396 -0.16868255
0000f0 14 dd ef 3b 12 3e 0c bd 2c c2 93 3d 97 1b d7 bb
       0.0073200557 -0.034238882 0.0721477 -0.0065645683
000100 0b 3c 82 bb ad a8 c5 bd 5c 5e 6d 3d d7 f4 0d 3e
       -0.003974443 -0.09651313 0.057951316 0.1386293
000110 34 d7 a5 3b f0 0f 92 bd 2e 97 83 3c 8c 2a 96 bd
       0.0050610546 -0.07131946 0.016063299 -0.07332334
000120 c8 ba ee 3b c2 59 f9 bd 19 4d f4 3d 96 fd d1 3c
       0.0072854497 -0.12175323 0.11928768 0.025633615
000130 08 34 34 3c 36 4c fb bd 7e e9 db 3d 43 0e 20 be
       0.010998733 -0.122703955 0.107378945 -0.1563044
000140 35 89 0f bd 2b 96 a8 3d 71 f7 1a bc 65 e4 2c bd
       -0.03504296 0.08231767 -0.009458409 -0.04221
000150 47 86 04 3e 45 eb 0c bb a9 04 3a be ed c5 60 be
       0.12941848 -0.0021502536 -0.1816584 -0.21950503
000160 41 93 14 be 12 c4 8a bd 4a 6b f4 3d ac 68 b1 bb
       -0.14509298 -0.06775679 0.11934526 -0.005414089
000170 30 67 23 be 8d 0b 27 3d 22 8d 37 3d bf 9c 9f bd
       -0.15957332 0.0407825 0.04481233 -0.07793569

fc3_adv.weight f4 [76, 130]
000000 62 a3 9d 3e 53 4c 29 3e 32 c6 52 3e 12 82 93 ba
       0.30788714 0.16533022 0.20583418 -0.0011253974
000010 70 ed 38 3d d2 63 2b bd 69 9a 79 3e d5 d9 a5 3d
       0.045148313 -0.041843243 0.24375309 0.08098189
000020 02 04 2e 3e da ba 4f 3d 69 8e ad bd 1d 88 0e be
       0.16993716 0.050715305 -0.08474428 -0.1391911
000030 97 01 91 3e d8 a5 b5 3e bf 2b 31 3e c3 57 89 bd
       0.28321525 0.3547809 0.17301844 -0.06706192
000040 5e 38 e0 3d a1 96 be 3d 6b 87 1a 3e 11 d0 cb bd
       0.10948251 0.09306074 0.1509072 -0.09951795
000050 71 b0 85 3e 5d fc dd 3d 17 2c eb be 59 d9 a2 be
       0.26111177 0.1083915 -0.45932075 -0.31806448
000060 fa 63 9c be 6e 49 cb be de 0a c8 3b 13 12 ad bb
       -0.30545026 -0.3970446 0.006104811 -0.0052816956
000070 0b 8f 61 3e eb bf 49 3d ae a7 76 3c 6a 22 9e 3e
       0.22027223 0.049255293 0.015054626 0.3088563
000080 2e f2 07 3e b2 41 4f 3d 16 8f 37 be fb 65 5e 3e
       0.13275978 0.05059976 -0.17925677 0.2171859
000090 d1 a0 56 3e d0 3a 89 bd d5 e3 41 bc fe b2 fb 3d
       0.20959784 -0.06700671 -0.011834105 0.122899994
0000a0 ca 51 09 bd 15 da 31 3e b2 f7 f6 bb 51 02 88 3d
       -0.033525266 0.17368348 -0.007536852 0.06641067
0000b0 fd e2 dd bd da de 45 3e 43 3d 2f 3e cb 15 88 3e
       -0.1083431 0.19323292 0.17113213 0.26579127
0000c0 26 83 ac 3e 85 06 38 bd 77 e7 57 3e c0 5a e5 bd
       0.33693808 -0.044928093 0.2108439 -0.1119895
0000d0 47 86 07 be 88 27 9d bd 18 44 2f 3e f4 b5 2e 3e
       -0.13234816 -0.076735556 0.1711582 0.17061597
0000e0 48 bf ad bd 15 9b 08 be d7 60 74 bc 20 3e c3 3c
       -0.0848375 -0.13340409 -0.014915667 0.023833334
0000f0 67 f7 cb 3d 39 00 f2 3d 09 52 07 be fe 94 c0 3d
       0.099592976 0.11816449 -0.13214888 0.09403418
000100 e9 f6 c9 be 83 76 28 bb d2 c4 cf 3e 68 a2 92 3e
       -0.3944619 -0.0025705404 0.4057985 0.2863953
000110 db 90 4e 3e 96 0c 85 3e 4d b2 9c 3e 5e db d8 3c
       0.20172445 0.25986165 0.30604783 0.02647179
000120 3d 84 b0 3c 9c 76 71 3e c1 30 9c bd 94 5b 80 bd
       0.021547431 0.23580402 -0.076264866 -0.06267467
000130 12 f5 27 3e 79 44 0f bc 77 67 86 3b d4 6e ae 3e
       0.1640208 -0.0087443525 0.0041016894 0.3406893
000140 af 9d 6b 3d 34 f8 ba 3d f8 d7 a8 bd bc 7e 72 3e
       0.057523426 0.09129372 -0.08244318 0.23681158
000150 3c af 1d bd 27 eb 9b be dd bd 7d bd b1 0f 0a 3e
       -0.038497195 -0.30452845 -0.061948646 0.13482548
000160 7e af b0 bd b0 0f 0c be 02 2d b5 be 55 a9 0e bf
       -0.086272225 -0.1367786 -0.353859 -0.5572713
000170 8f a8 93 be f9 9d 3c 3e fd f3 ee 3d ef f7 09 3e
       -0.28839538 0.18419637 0.11667631 0.13473485
000180 4a 09 80 bc a5 41 27 3e 78 fb 0f be e5 0d b9 3d
       -0.01562943 0.16333635 -0.14060771 0.09035853
000190 3c 11 90 3e 70 db 06 3e e4 42 58 bc 07 4d 04 be
       0.2813815 0.13169646 -0.013199542 -0.12920009
0001a0 8a 8a 2d bd 7b 22 3c 3d 08 44 42 3d 6f 17 b1 3c
       -0.04236845 0.04593132 0.04742816 0.02161762
0001b0 55 0f 9d 3d ac d3 a8 bd fa b0 28 3d 6f 9d b6 bd
       0.0766894 -0.08243498 0.041184403 -0.08916747
0001c0 74 7f 31 3d b1 6b 59 be 43 77 3f bd d2 ca d3 3d
       0.04333444 -0.21232487 -0.046744596 0.10341419
0001d0 a3 2f 13 be c4 08 2a be 2f 1e ad bd 93 30 c0 3d
       -0.1437364 -0.16604906 -0.08453023 0.09384265
0001e0 82 10 2a be 2c 80 78 be db ad b0 bd 2f 6e 92 bd
       -0.1660786 -0.24267644 -0.0862691 -0.07149922
0001f0 32 45 1c be 31 b0 80 bd 87 67 3d 3c 19 8e e6 3c
       -0.15260771 -0.06283606 0.011560327 0.02814393
000200 2c ab d1 bd c3 64 35 3d 1d 18 9d 3e 8b 1e 5f 3e
       -0.102377266 0.044285547 0.3068246 0.21788995
000210 e1 96 70 3e 6c 8e c5 3e c8 71 6b 3e 7a c0 b3 3e
       0.23495056 0.38585222 0.22992623 0.35107785
000220 4d 7a a9 bc 57 ed 4e 3e 43 4f ae 3e f2 58 a8 3e
       -0.0206882 0.20207725 0.34044847 0.3288036
000230 96 73 8c 3e 8b 72 c2 3e 2c 49 da 3e 6a 9c 63 3e
       0.27431935 0.37978014 0.4263395 0.22227636
000240 c5 45 82 3d 0b 8f a5 3e ce d7 95 3e ba 11 ca 3e
       0.06360964 0.32335696 0.29266208 0.3946665
000250 5b ee db 3d a6 ec f6 3d fd 5a a7 3e 62 08 89 3e
       0.10738822 0.12056856 0.32686606 0.26764208
000260 56 ed 1c 3d 50 c9 a2 3d db 51 a3 3e f7 30 c9 3e
       0.03831228 0.079485536 0.31898388 0.3929517
000270 6b 3a ca 3e f3 8a a5 3d d3 6e 5e 3e bc 48 46 3e
       0.39497694 0.08083143 0.21721964 0.19363683
000280 ed 4d 00 3f 28 cf 2a 3e a6 a4 78 3e 02 b6 43 3e
       0.50118905 0.16680586 0.24281558 0.19112399
000290 e3 3d c0 bd 2c ce 4f be 40 5b 88 be e1 f5 ef 3d
       -0.09386804 -0.20293492 -0.26632118 0.117168196
0002a0 4d df 80 3d 09 68 10 be 5a 15 37 be fc 37 66 bd
       0.06292591 -0.14102186 -0.17879239 -0.056205735
0002b0 49 d7 3f bd c1 df 49 be de bd 8a bc b3 e7 a0 bc
       -0.04683617 -0.19714262 -0.016936239 -0.019641733
0002c0 97 6b 89 3e 0b fb e5 bc eb e7 03 be 73 8d 41 be
       0.26839897 -0.028073808 -0.12881438 -0.18901615
0002d0 b0 2d 43 3d 65 72 a9 be f8 77 32 bd f8 fe 98 bd
       0.047650993 -0.3309509 -0.043571442 -0.074705064
0002e0 c4 dc 34 be fc af 84 be b9 14 a5 3d 8a 9f 20 bd
       -0.1766234 -0.25915515 0.08060593 -0.03921465
0002f0 a8 38 9a 3d 86 8a 2d be a0 6d 32 be 81 4b 92 bd
       0.075303376 -0.16947374 -0.17424631 -0.071433075
000300 f5 d7 9d be 1e 2a 99 bc 30 72 17 bd 53 55 c5 bd
       -0.30828825 -0.01869684 -0.036974132 -0.09635415
000310 b7 d5 40 bd 4f 9a 44 3e cc da ab 3d 82 72 26 3e
       -0.047078814 0.19199489 0.083913416 0.16254619
000320 0c ba 2b 3b 7a e8 59 3e 5b 5f 02 3d ed 12 71 bb
       0.0026203422 0.21280089 0.03182922 -0.0036784962
000330 4d 8d cf 3d 81 87 5b 3d 3b 0b ec 3d 7e db ad 3d
       0.10134373 0.053596023 0.115255795 0.084891304
000340 a7 bc e3 3d c6 dd d2 3e 17 18 38 3e 5a 99 7d bd
       0.11119967 0.41184825 0.1797794 -0.061913826
000350 ed 71 50 3c 12 47 00 3c 3c 76 b5 3c 2f 57 28 3e
       0.0127224745 0.0078294445 0.022151105 0.16439508
000360 41 9e 45 3b f3 1b d2 3c dd fa d5 3d f4 4f 24 3b
       0.003015414 0.025648093 0.10448239 0.002507207
000370 48 d0 1d 3e ad 01 74 3e 77 31 a2 3d f1 1d 2d be
       0.15411484 0.23828764 0.07919591 -0.16905953
000380 1c af 80 be a4 a2 83 bb 85 e7 e2 bd 37 41 03 3e
       -0.25133598 -0.004017191 -0.11079315 0.12817846
000390 12 af ae 3d 93 3b 32 bd 7c 8b 58 be fd 77 76 3d
       0.08529486 -0.043513846 -0.21146959 0.060173023
0003a0 03 d8 ed bc d7 c4 f5 bd 0d f7 4e be 37 8c 1c bc
       -0.029033666 -0.12000435 -0.2021143 -0.009554914
0003b0 f7 fe 58 be e1 ca 6c bd f7 53 c3 bc 5b 37 f8 bb
       -0.21191011 -0.057810668 -0.023843748 -0.0075749583
0003c0 30 c4 41 be d1 c9 00 3c d3 93 97 3d 41 9b ef bd
       -0.18922496 0.007860617 0.07401242 -0.11699534
0003d0 86 3b 6d be 89 1c 61 be 43 cd 39 3e 3f 74 de bc
       -0.23167238 -0.21983542 0.18144707 -0.02715504
0003e0 5c 6f 82 bd e4 23 52 bd 04 37 47 be c0 35 b0 bd
       -0.06368896 -0.05130376 -0.1945458 -0.08604002
0003f0 bd 2a a6 bd 7c f9 bf 3c 22 12 5f 3c 07 ec 57 3e
       -0.081136204 0.023434393 0.013615163 0.21086131

fc3_adv.bias f4 [76]
000000 26 32 ae 3d 8f 08 b6 3d 3b 11 8d bd e8 b5 2a 3e
       0.08505659 0.08888351 -0.06888052 0.16670954
000010 f0 28 40 3e fc 17 8a 3e 09 66 f1 3d cf 3f fd 3d
       0.18765616 0.26971424 0.1178704 0.12365686
000020 37 cb 93 3d c8 50 b5 3d a7 d4 04 3c c2 29 62 3d
       0.072164945 0.088532984 0.008107341 0.055215605
000030 78 74 f4 3d d1 05 cc 3d ee 32 31 3f 25 23 81 3d
       0.11936277 0.09962047 0.6921834 0.063055314
000040 e2 54 25 3e e3 f5 13 3e a5 96 50 3d 85 6a ca 3d
       0.16145661 0.14449267 0.050924916 0.09883598
000050 3f ad dd 3d 04 cc 81 bb 1b 2d 95 3e 75 95 24 3e
       0.1082406 -0.003961088 0.29135975 0.16072638
000060 08 d0 cf 3d 83 5f e3 3d 56 ac b8 3d 4d ed 8e bd
       0.10147101 0.11102202 0.090172455 -0.06978855
000070 2d 2b d7 3d d6 49 85 3c 9b c1 4b 3e 96 02 95 3d
       0.10506282 0.01627056 0.19898073 0.07275884
000080 e3 9a 71 3e 29 ab 37 3e 7e 68 8c 3d 38 d4 45 3c
       0.23594241 0.17936386 0.06855868 0.012074523
000090 22 19 99 3d 71 c1 5a 3d 52 67 37 3e 49 bf 93 3d
       0.07475497 0.053407136 0.17910507 0.07214219
0000a0 16 ad 3a 3e 36 6a b7 3d 40 12 b4 3d f7 e7 e0 3c
       0.1823009 0.08955805 0.087925434 0.02745436
0000b0 92 16 01 3e da 6f 12 3e 45 dd 26 3e c2 83 4a 3e
       0.12606266 0.1430048 0.16295345 0.19776824
0000c0 87 e6 9a 3d 92 bb 38 3e d0 36 64 3e cc 65 2f 3e
       0.07563501 0.18040302 0.22286534 0.17128676
0000d0 9b 57 59 bc fa 55 2d 3d fc 84 46 3e 46 9a ba 3d
       -0.013265516 0.04231832 0.19386667 0.091114566
0000e0 a2 d5 e0 bc a3 34 81 3d 55 01 21 3e 53 c0 a3 3d
       -0.027445618 0.06308868 0.15723164 0.07995667
0000f0 c9 82 04 bd 33 69 f4 3d f5 d0 94 3c 5b 92 24 3e
       -0.03235129 0.11934128 0.018166045 0.16071455
000100 c6 0e 36 3e 9b 19 98 3d bf fa 6e 3d 1d 92 4e ba
       0.17779073 0.07426759 0.0583446 -0.0007880049
000110 92 49 a8 3a 45 e2 a9 3b 44 22 16 3d b3 66 ce 3c
       0.0012839308 0.005184444 0.036653772 0.025195455
000120 45 07 43 3e 5a f5 a3 3c 20 14 55 3e 3b e2 95 3d
       0.19045742 0.020014454 0.20808458 0.07318541

fc3_val.weight f4 [76, 130]
000000 f3 1a ab 3d 10 7f 47 bc e7 fb 28 3c 6d 6c 8a 3d
       0.083547495 -0.01217629 0.010313964 0.06758962
000010 69 6d 0e 3d e1 3f 85 3d 11 b1 a7 bd 8a 39 32 3c
       0.03477231 0.065063246 -0.081880696 0.010877976
000020 73 0d f5 3d d6 ae 42 3e 5c be 56 3d 20 67 d7 bd
       0.11965456 0.19012007 0.052427635 -0.105177164
000030 36 32 5b 3c 54 bf a2 bd 2a 86 21 3d 53 65 10 be
       0.01337867 -0.07946649 0.03943459 -0.14101152
000040 ec a8 27 3e e0 5f 1a be e9 a2 36 3d 4c f5 f7 bd
       0.16373032 -0.15075636 0.044588957 -0.121073335
000050 dd 7a e4 bd 1e ed b3 3d 6e 12 ee bd 27 11 12 be
       -0.11156247 0.08785461 -0.11624609 -0.14264356
000060 a8 45 90 3c ae 5a 28 3e 7d f1 c3 3d d9 cf d2 bd
       0.01761134 0.16440842 0.095675446 -0.1029355
000070 23 3f 55 3e f3 7c 5d 3e 9e 5b 85 3d 46 3d 76 bd
       0.20824866 0.21629696 0.06511615 -0.06011703
000080 28 1c a1 3e ef a0 24 3e c1 e3 1c 3e 81 8e 24 3e
       0.31466794 0.16077016 0.15321256 0.16069986
000090 cc 25 f2 bc b7 19 1f 3e 98 20 4a 3c f2 29 86 3d
       -0.029559039 0.15537153 0.0123368725 0.06550969
0000a0 d7 ff 0b 3e 49 8a 4d 3e 4b 05 ab 3d 54 d4 9c bc
       0.13671814 0.20072283 0.08350619 -0.019144215
0000b0 f6 ff 8f 3e 83 9c 2a 3b a0 20 99 bd 77 56 f3 3d
       0.2812497 0.002603323 -0.07476926 0.11881726
0000c0 09 cb 36 3e d8 91 37 3e b2 f7 a5 3d 7f 12 8b 3e
       0.1785089 0.17926729 0.08103885 0.2716255
0000d0 2d b3 5e 3b ac 05 59 3e 0b 85 0f 3e 18 2b dc 3d
       0.0033981309 0.2119357 0.14015596 0.10750407
0000e0 e5 ac b3 bc 7c 21 d1 3d fd 8b b1 3d 72 fe 83 3d
       -0.021933028 0.10211465 0.08669279 0.06445016
0000f0 dc 20 99 3d f1 07 73 3e 1c 40 44 bd d9 d7 03 3e
       0.074769706 0.23733498 -0.047912702 0.12875308
000100 9f 38 75 3d 58 04 e6 3d 09 fa d4 3d 6b af a4 3d
       0.05986845 0.11231297 0.10399253 0.08041271
000110 49 ba a2 3d 16 c9 61 3e 77 a9 d4 bc ca fb 09 3c
       0.07945687 0.22049364 -0.025959713 0.008421848
000120 c3 62 ba 3d 0b c3 9f 3e cd 63 4c 3e d9 8c 41 3e
       0.091008686 0.31203493 0.19959946 0.18901385
000130 a0 67 1c 3e 73 20 80 3e d3 3b ba 3d df 6f 60 3d
       0.15273905 0.25024757 0.09093442 0.05479419
000140 0e 89 bb bb af cf 21 3b 25 e5 02 3c 36 ff b8 3d
       -0.0057231253 0.002469044 0.007989203 0.090330526
000150 76 03 3e 3e b9 2c 00 3e 2a 39 5c 3e da e2 31 3e
       0.18556008 0.1251706 0.21506181 0.17371693
000160 61 df 62 3e c6 65 ca 3d 70 15 52 3e a8 ca fd 3d
       0.22155525 0.09882693 0.2051599 0.12392169
000170 b8 a5 f6 bc ab 24 b9 3a 78 54 0a 3d 9a 39 9d 3d
       -0.030108318 0.0014125308 0.033771962 0.07677002
000180 11 0a 04 3e df b6 64 3e 2e f9 f9 3d 62 a3 9e 3e
       0.12894465 0.22335385 0.122057304 0.30984026
000190 fe e6 19 3e ea 04 69 3e fe ef c5 3c 57 0d b8 3d
       0.15029523 0.22755781 0.024162289 0.089869194
0001a0 a2 70 b0 3e 20 0a 3c 3e 9a 31 6a 3e cc 08 9d 3e
       0.34460932 0.18363237 0.22870484 0.30670774
0001b0 1d f9 8e 3d e2 fe e3 3d ba 2c 60 3e 96 d7 bc 3d
       0.06981108 0.111325994 0.21892062 0.09220807
0001c0 bc c2 4b 3e 23 15 78 3e dc bc 2b 3e c0 6b 04 3d
       0.19898504 0.24226813 0.16771263 0.03232932
0001d0 f7 21 c2 3e 19 9b 9e 3e f2 5a 43 3e 52 6a b1 3e
       0.37916538 0.30977705 0.19077662 0.34651428
0001e0 12 f1 97 3d 27 c7 55 3e f6 1f 0d 3e 18 cb a3 3e
       0.074190274 0.20876752 0.13781723 0.31990886
0001f0 d2 45 86 3e 48 8e dd 3e ae 75 c4 3e 25 d2 ad 3e
       0.26225144 0.43272614 0.38371032 0.3394939
000200 96 1f b3 3e 0c a8 4e 3e a8 4e b8 bd 15 1f b3 3d
       0.34985036 0.20181292 -0.089993775 0.08746163
000210 5e d1 07 3e f4 d5 93 bb b1 7e c8 3a 59 34 e2 bd
       0.13263461 -0.004511589 0.0015296546 -0.11045141
000220 d9 2d 85 3d 70 0e 0a bd e2 13 be bd 61 b5 4a bc
       0.06502885 -0.033705175 -0.09281136 -0.012372346
000230 a0 e6 1d 3e 5c 5a fb 3b 2a 5e eb 3d e4 b2 e1 3d
       0.15420008 0.007670684 0.1149257 0.11020449
000240 ee 52 32 be 4c 96 18 3e 4d 54 85 3d 89 4e 1f 3e
       -0.17414448 0.14901084 0.0651022 0.15557303
000250 7b 14 f1 3c 1d 2a 0d be a5 18 ae bb 55 2d 09 bd
       0.029428711 -0.13785596 -0.0053129965 -0.033490498
000260 71 6c c3 3d 20 a8 c6 bd 64 1c 81 3a d1 f3 eb bc
       0.09542168 -0.09700036 0.000985038 -0.028802784
000270 49 3b 73 bd ca 72 31 3e e4 3c 96 bd d3 6f 05 bd
       -0.05938271 0.17328945 -0.07335833 -0.032577347
000280 83 8a 13 3e 88 93 d6 3d b6 0a c8 3c 4d f6 06 bd
       0.14408307 0.10477358 0.02441917 -0.032949734
000290 11 b1 b9 3d 64 64 5a 3d e0 18 b8 3d e8 4f 0a 3e
       0.09066976 0.053318396 0.089891195 0.13507044
0002a0 2c ce dd bb 9f 91 82 3e dc 32 54 3d 15 52 82 bb
       -0.0067689624 0.25501725 0.051806316 -0.00397707
0002b0 7e a0 a2 3d 06 4e 8c bd 87 56 b1 3d 04 d0 70 3e
       0.07940768 -0.06850819 0.08659082 0.23516852
0002c0 74 89 0f 3e af a0 40 bc 07 c0 5f 3e ee f2 46 3e
       0.14017278 -0.01175706 0.21850596 0.19428608
0002d0 95 e4 6c 3e a7 e2 f5 3d 5b b0 52 3e 77 a4 36 bd
       0.23134072 0.12006121 0.20575087 -0.04459044
0002e0 c3 64 02 3e 16 5f 8e 3c 49 da 4b 3e dc dd 95 bd
       0.1273375 0.017379325 0.19907488 -0.07317707
0002f0 6c b4 7c 3e 08 66 0b 3e fa c1 90 3e 8a 03 6d 3e
       0.246782 0.1361314 0.28272992 0.23145881
000300 cc f6 be 3d 71 21 f8 bc ad f2 11 bd 9d 08 87 3d
       0.093244165 -0.030289384 -0.035631824 0.0659344
000310 d2 1c 1e bd 3e ab 9c 3e 4e 0b 89 3e 29 f0 7f 3e
       -0.038601704 0.30599397 0.26766437 0.24993958
000320 67 74 2f 3e 43 a5 0b 3c 81 9e 35 3d 52 b3 a5 3e
       0.17134248 0.008523288 0.044340614 0.32363373
000330 72 29 72 3e 12 a0 03 3e ca 0d bb 3d 88 26 1f 3b
       0.23648623 0.1285403 0.091334894 0.002428444
000340 57 de 83 3d 00 8c 00 3c 8f c5 6e 3e 37 ae e8 3d
       0.06438892 0.007845879 0.2331755 0.11361354
000350 c5 6b 4e 3e 37 9e 76 3e 2a ec 2c 3e a6 ef 4b 3e
       0.20158298 0.24083792 0.16886964 0.19915637
000360 c2 2b c2 3d 14 eb d0 3d d4 d3 02 bd f9 fe 9f bc
       0.094810024 0.102010876 -0.031940296 -0.01953076
000370 eb 51 8f 3e 08 01 0b 3e e8 b6 81 bd dc b4 a6 3c
       0.27992186 0.13574612 -0.06333715 0.020349912
000380 e2 a8 ba 3d 6d 90 8e 3d 9b 8f c5 3d 46 dd 6c 3e
       0.09114243 0.06961141 0.09646531 0.23131284
000390 a8 49 2b 3c 60 68 13 3e 5c 70 b2 3e 5e 9a 68 3d
       0.010454573 0.14395285 0.34851348 0.05678784
0003a0 c0 88 95 3d 60 71 4f 3e 1a c6 86 3e a7 bc 1f 3e
       0.073014736 0.20258093 0.26323014 0.15599309
0003b0 a1 b6 aa 3e f9 57 19 3e 7b 05 9b 3e b4 03 88 3e
       0.3334246 0.14974965 0.3027762 0.26565325
0003c0 68 50 0f 3e e9 59 9a 3e 3d df ce 3c 52 fa ea 3d
       0.13995516 0.3014672 0.025252933 0.11473526
0003d0 8b 28 37 3e f6 1e 82 3e 55 ae b8 3e dc 69 79 3e
       0.1788656 0.25414246 0.36070505 0.24356788
0003e0 1d 61 57 3d 95 e4 8e 3e 1e 54 1f 3d 83 5a f7 3d
       0.05258285 0.2790877 0.03889858 0.120778106
0003f0 b5 6f 22 3e 92 8f 2b 3e e7 3a c7 3e 00 90 f9 3d
       0.15862925 0.16753986 0.38912126 0.12185669

fc3_val.bias f4 [76]
000000 e0 54 85 be 7e c5 ca be 78 f4 d8 3e c2 18 0c 3f
       -0.26041317 -0.396038 0.42374015 0.5472528
000010 81 62 00 3f 02 1d 94 be 47 44 80 be 30 84 d8 3e
       0.50150305 -0.2892838 -0.2505209 0.4228835
000020 8c 50 b2 be 7e c6 87 be 04 54 a5 be d1 e0 ad be
       -0.34827077 -0.26518625 -0.3229066 -0.33960584
000030 70 e4 9b 3e 57 b7 98 be f4 66 b8 be 64 a6 08 3f
       0.3044772 -0.29827377 -0.36016047 0.5337889
000040 2b 50 ee 3e b7 e6 b9 be 69 0d 93 be ca 73 a8 be
       0.46545538 -0.36308834 -0.2872117 -0.3290084
000050 9f 48 b4 be 9e 07 b9 be dd df cc 3e 31 c0 76 be
       -0.35211655 -0.36138624 0.40014544 -0.24096753
000060 a2 6b be be c6 a8 a3 be be 43 6e be 3f 87 02 3f
       -0.37191492 -0.319647 -0.23268029 0.5098762
000070 1d 83 0d 3f 8e 36 a7 be ff 33 c2 be 0e 5b d9 3e
       0.5527819 -0.3265881 -0.37930295 0.42452282
000080 c4 9b 4a 3f 3b 3d e5 3e a5 3f 93 be 4e 6f 8d be
       0.7914393 0.44773278 -0.28759494 -0.2762398
000090 02 de f9 3e 34 f6 c9 be c3 aa e2 3e ef 5f 9a be
       0.4880219 -0.3944565 0.44270906 -0.30151317
0000a0 47 a1 c5 be b1 fb cd be 27 a4 af 3f 30 39 fd 3e
       -0.38599607 -0.40231088 1.372197 0.49457693
0000b0 f7 c1 a0 be 0f b2 c8 3e 61 f1 e7 3e df 92 d4 be
       -0.31397983 0.39198348 0.45301345 -0.41518304
0000c0 46 84 ef 3e 33 7f a6 be 2a 7e 01 3f e9 92 82 be
       0.46780604 -0.3251892 0.50583136 -0.2550271
0000d0 79 50 b8 be ad 03 67 be 72 7e 0e 3f b7 e0 c8 be
       -0.35998896 -0.22559996 0.5566169 -0.39233944
0000e0 64 a6 e3 3e 66 e0 b7 3e 8f ac 7f be bb d4 81 be
       0.44462883 0.3591339 -0.2496817 -0.25357613
0000f0 df 25 72 be 92 cc 84 be 13 0b d0 3e 07 74 c6 be
       -0.23647259 -0.25937325 0.4063345 -0.38760397
000100 88 8d 88 be 87 1a 9a be fb 4d b5 be 97 ce f6 3e
       -0.2667048 -0.30098364 -0.35411057 0.4820449
000110 25 c6 a5 be 72 db c2 be 3c ae da 3e 06 e1 a9 be
       -0.32377735 -0.38058048 0.42711055 -0.33179492
000120 d2 97 9d be 67 bd 79 be 1f ad 91 be 9a af ff 3e
       -0.30779892 -0.24388658 -0.28452393 0.4993866

fc4_adv.weight f4 [38, 76]
000000 e3 b1 8c be 83 c4 09 be 83 38 8c 3e f0 e2 a7 3e
       -0.27479467 -0.1345387 0.27386865 0.32790327
000010 7f 4b e0 3d f8 bd ee bb 3b c7 a2 3d aa c9 e4 3d
       0.109519 -0.0072858296 0.079481564 0.11171277
000020 cb 4f 88 3e 55 aa 05 3e 21 5c 3f bd af b0 15 3e
       0.26623377 0.13053258 -0.04671872 0.1461818
000030 fa 25 ac bd 84 65 b4 bd 82 7b 04 3f 9c c6 69 be
       -0.08405681 -0.08808425 0.5175096 -0.2282967
000040 b4 be 33 3e 16 77 0c 3e ac 54 ba 3d 76 49 1e 3e
       0.17553216 0.13717303 0.09098181 0.1545771
000050 0d 89 ef 3c 60 cb b8 be 25 1c 4d 3e a1 44 d9 3e
       0.029240156 -0.36092663 0.20030268 0.42435172
000060 c7 3c 2e 3d a7 ce 51 3e 90 2b cc 3d e8 07 de 3d
       0.04253843 0.20488988 0.099692464 0.10841352
000070 de 52 3c bd 63 cb 13 be 44 3f 04 3d 5c 1c 4e 3e
       -0.045977466 -0.14433055 0.032286897 0.20128006
000080 b4 52 2f 3d 37 f9 28 3e f6 cd 2e 3d 2f ab a7 3d
       0.04280348 0.16501318 0.04267689 0.081869476
000090 13 09 39 3e 6f 7a 65 3e 0b 2e 96 3c 02 25 1c 3d
       0.18069868 0.22409986 0.018332502 0.03812123
0000a0 f1 a3 01 3e d7 84 bb 3d a4 b6 ad 3d 6e 05 7d 3c
       0.12660195 0.091561966 0.084821016 0.015443189
0000b0 6b d7 d2 bd 2d 22 29 3e 1c b7 0f be 44 fc f2 3e
       -0.10294994 0.16516943 -0.14034694 0.47458088
0000c0 cc 31 c6 be b1 51 8b 3e ad 4d a8 3e a9 6f 73 3e
       -0.38709867 0.27210763 0.32871762 0.23773064
0000d0 20 df 9c bd 5e f8 87 be 58 d7 24 3e 7c 40 f4 bd
       -0.07659745 -0.26556677 0.16097772 -0.11926362
0000e0 c6 c4 12 bd 5a 76 b2 bd 40 8a 9d bd 39 b1 08 3e
       -0.03583219 -0.0871398 -0.07692385 0.13348855
0000f0 ef 6e 1e 3d a6 3d 8f 3e 2e 05 19 3e 7b 35 6d 3e
       0.038680013 0.27976722 0.14943382 0.23164932
000100 e1 9e 2d 3e 68 b9 2b 3e 6d 09 4e be 00 88 ed 3d
       0.16955139 0.16769946 -0.20120783 0.115982056
000110 e1 5e 83 be 3a cb 2d bc a5 30 c5 bd 0d 77 fb bd
       -0.25658324 -0.010607535 -0.09628419 -0.122785665
000120 8f 35 8b 3e 0e 11 2c 3e d3 5e e4 3d 2b e9 78 be
       0.271893 0.16803381 0.11150899 -0.24307697
000130 a0 89 60 be a1 aa b2 bd cb 1f 3f 3d e9 b0 1b 3e
       -0.219275 -0.08723951 0.04666118 0.15204205
000140 ec 30 1a 3e ec 00 69 3d cb 36 96 3e 73 34 87 3e
       0.15057725 0.056885645 0.2933868 0.26407203
000150 84 dc 2d 3e 5b b0 91 3e 1d fa 44 3e 01 08 a7 be
       0.16978651 0.2845486 0.19236036 -0.32623294
000160 2b cc 2c be 7d b8 08 be cb ad 9a 3f b6 26 9c bd
       -0.16874759 -0.13351627 1.2084287 -0.07624571
000170 90 30 3e 3d ee 9a ec 3d e3 34 c5 bd 02 56 05 be
       0.04643303 0.11552988 -0.09629228 -0.1302109
000180 ba 7b a0 3e 54 c0 52 3d 45 07 62 be 33 07 c6 3e
       0.31344396 0.05145295 -0.22073086 0.38677368
000190 23 f9 16 3e 59 60 15 3b 27 95 8c bd 57 e6 2a 3e
       0.14743476 0.0022793023 -0.06864386 0.1668943
0001a0 f5 2d f8 3d 85 ba 33 3e 27 82 d6 bc 46 36 a9 3e
       0.121181406 0.1755162 -0.026185108 0.3304922
0001b0 22 80 08 bd 02 29 17 be fc 7e 05 bc a7 51 14 3e
       -0.033325322 -0.14761737 -0.008147951 0.14484273
0001c0 2e 66 09 be 5e 6a bd bd a1 23 2c 3d 0c cb 5f 3e
       -0.13417885 -0.092488036 0.042026166 0.218548
0001d0 24 a0 dd ba 18 60 a5 3d fa ab 97 bd 9e 2a 25 bd
       -0.0016908688 0.08074969 -0.07405849 -0.040323846
0001e0 3e c0 58 3b 63 74 8a 3d e6 75 88 3e b0 f9 59 3e
       0.003307357 0.0676048 0.2665245 0.21286654
0001f0 c5 f1 d1 bd ef 90 e6 bd d8 b8 57 3e b3 cd e9 3c
       -0.10251192 -0.11258113 0.21066606 0.028540468
000200 f5 e4 3b 3e 58 05 87 be 58 98 96 3e 51 1c 51 3e
       0.18349059 -0.26371264 0.29413104 0.20420958
000210 24 f7 4e be 52 6f 83 be 13 1a 5a 3e cc 75 0b 3e
       -0.20211464 -0.25670868 0.21299009 0.13619155
000220 88 8b 38 3e 71 07 8b 3d 87 fc 14 be 5b 37 3a 3e
       0.18021977 0.06788529 -0.14549457 0.18185179
000230 4b f4 38 bd 1d 04 6a bd 67 ef c1 3e 7f 89 2a be
       -0.04515485 -0.05713283 0.37877962 -0.16654013
000240 80 4a 31 bc ab 1f 39 be dd 5f 89 3e ee d8 0f 3d
       -0.010820985 -0.18078487 0.2683095 0.03511899
000250 51 d2 45 bc 9d b7 e8 bd a9 3a 84 bd 32 65 00 3d
       -0.012074069 -0.113631465 -0.06456501 0.031346507
000260 b8 eb 28 be 86 bf c8 bd 43 63 a4 3e 46 81 08 3b
       -0.1649617 -0.09802155 0.3210698 0.0020829006
000270 3f aa 6f 3e 56 89 0a 3e 19 4e e4 3d 84 0b c9 bc
       0.23404787 0.13528952 0.111477084 -0.024541624
000280 91 74 0d 3e 68 b1 24 be 8b 94 88 3e 78 26 47 bd
       0.13813998 -0.160833 0.2667583 -0.04862067
000290 17 bf 1d 3d ed a8 5e 3e dc d6 47 3f 9a 06 ca be
       0.038512316 0.21744128 0.78062224 -0.39458162
0002a0 d8 07 c9 3d e5 8d a7 bd 92 a7 31 be 6b 4a 96 bd
       0.09815949 -0.08181361 -0.17349079 -0.07338413
0002b0 d5 ab 4c 3e b2 ba 5d be c3 03 25 3e 75 9d 4e 3e
       0.19987424 -0.2165325 0.16114716 0.20177253
0002c0 da 6c e3 3e 03 13 be 3d ad b2 20 3d 46 0a 64 3d
       0.44418985 0.0928097 0.0392329 0.05567386
0002d0 bd 86 02 be 28 eb 87 3e df 92 92 bd 91 53 ac 3e
       -0.12746711 0.26546597 -0.0715692 0.33657506
0002e0 bb 2f dd 3d e4 04 a0 3e 37 fa 7b 3d 08 d3 01 be
       0.108001195 0.3125373 0.06151792 -0.12678158
0002f0 de 30 24 3e d6 15 01 bd ba 26 86 3e 65 66 15 be
       0.16034266 -0.031514965 0.2620142 -0.14589842
000300 56 15 14 3d 35 2f e4 3d 88 cb 78 3e de 82 93 bd
       0.03615316 0.111418165 0.24296391 -0.07202695
000310 d9 b0 23 3e 80 b6 30 bd 72 50 53 bd 8d 3e 9e 3e
       0.15985431 -0.043142796 -0.05159039 0.30907097
000320 dd f7 71 bd a3 8d 36 be be 5b 2d 3f 1c a0 67 3e
       -0.05907427 -0.17827468 0.6771811 0.2261967
000330 72 07 e7 3d ae 42 ed bc 7f 89 14 3e b7 66 86 3e
       0.11280717 -0.02896246 0.14505576 0.2625024
000340 de 38 51 3e 62 5b 81 3d 51 49 30 3f 6f 46 ad 3e
       0.2043185 0.06316258 0.6886187 0.338428
000350 cc 68 03 be 82 49 76 bd 23 25 33 be b1 a7 68 3e
       -0.12832946 -0.060128696 -0.17494635 0.22720219
000360 b6 5c 4e 3e 60 0d 13 3e 45 ca 8f bd ec 5c 62 be
       0.20152554 0.14360571 -0.07021002 -0.2210576
000370 90 62 4c be b9 b6 55 bc 58 9d 1b 3c 17 50 6b be
       -0.19959474 -0.013044053 0.009497963 -0.2297977
000380 68 53 2a 3e 3c de bd be 08 e8 22 bc e2 79 a2 be
       0.1663338 -0.37083614 -0.009943016 -0.31733614
000390 54 ab 67 be e0 35 ea bd e1 07 9a 3e 32 0f c2 3d
       -0.2262395 -0.11436057 0.30084136 0.094755545
0003a0 57 b2 88 3e 60 ce 2c 3e 09 32 49 bd 5a 9f 2a 3e
       0.26698563 0.16875601 -0.049119983 0.1666235
0003b0 76 2e 24 be 40 cd fc bb f3 2b 27 3e 41 c5 2f 3e
       -0.16033348 -0.0077148974 0.16325359 0.1716509
0003c0 b9 0b 13 bd ba c2 8d bc c3 ae 74 3f 07 2a b2 be
       -0.03589985 -0.017304767 0.95579165 -0.3479769
0003d0 63 5e 80 3e 0e 40 0c be b3 7a 41 be 10 af 34 3e
       0.2507201 -0.1369631 -0.18894462 0.17644906
0003e0 b4 5d 1a 3d d0 6d 50 3d 3f 3f 63 3e 01 35 f3 3d
       0.03768702 0.050885975 0.22192095 0.11875344
0003f0 ff 8e a7 3e 68 e2 d8 3d fd 49 9f 3e 4d 8c 7d 3e
       0.32726285 0.105900586 0.31111136 0.24760552

fc4_adv.bias f4 [38]
000000 38 ef 0e 3e 55 1a 8a 3c 09 b7 3b 3e aa 7d 92 bd
       0.13958442 0.01685826 0.18331541 -0.07152875
000010 37 04 b2 bc 82 64 66 bb bb 3e 67 3e 4d 4c f5 bd
       -0.021730525 -0.0035155122 0.22582524 -0.11977444
000020 17 4a 0b be 23 1b 0e be a0 c1 df bd fd 09 0c 3e
       -0.13602482 -0.1387754 -0.10925603 0.13675685
000030 1c c2 ba 3c c6 01 07 3c ac 0e 2a 3e 8f 77 e0 3d
       0.022797637 0.008240169 0.1660716 0.10960304
000040 5c f1 0f 3e e1 f9 2d be 93 22 19 3e bf f0 cf 3c
       0.14056915 -0.16989852 0.14954595 0.025383351
000050 56 f7 c9 3d a8 ba 20 3e 25 e7 12 3e 8a 06 26 3e
       0.09861629 0.15696204 0.14345987 0.16213432
000060 ef 18 35 3e be 79 e6 3b 42 8e f2 bd 2b e0 d8 bd
       0.17685293 0.007033556 -0.1184354 -0.10589632
000070 42 10 6f bd db 6e 4e 3d 4b 75 f9 bb 49 45 da 3b
       -0.058365114 0.05039869 -0.0076128594 0.0066610915
000080 ab 69 68 3d 68 45 0e 3e da 3e 44 be 0c c7 79 3e
       0.056741398 0.13893664 -0.19164601 0.24392337
000090 46 a0 6c bd bc df 8b 3e
       -0.057770036 0.27319133

fc4_val.weight f4 [1, 76]
000000 10 b7 55 3e c3 0f ab 3e 59 cc 9f be 22 6a f8 be
       0.20870614 0.33410463 -0.31210592 -0.48518473
000010 23 16 93 be 9b 7e 78 3e a5 a0 e8 3e 82 20 d8 be
       -0.28727826 0.24267046 0.45435062 -0.42212301
000020 b7 f2 bd 3e 83 05 a9 3e 28 9c cf 3e b8 92 8f 3e
       0.3709924 0.33012018 0.40548825 0.28041625
000030 86 14 ea be 4f 8a 46 3e df 2e 9a 3e d0 a4 9a be
       -0.45718783 0.19388698 0.30113885 -0.30203867
000040 a4 d3 b4 be 2e 42 ac 3e 91 ae 8a 3e 80 98 a1 3e
       -0.3531772 0.3364424 0.2708631 0.3156166
000050 9c f5 a5 3e 68 6a b2 3e 01 de c5 be d2 85 83 3e
       0.32413948 0.34846807 -0.38645938 0.25688034
000060 2f 46 80 3e 22 e0 51 3e 2c a5 c2 3e ea 4e 0c bf
       0.25053546 0.20495656 0.3801664 -0.54807913
000070 38 8f 06 bf ed 99 34 3e 55 7f 83 3e 71 f0 17 bf
       -0.52562284 0.17636843 0.25683084 -0.5935126
000080 e9 ff cf bf 00 ac e9 be 0e 3c 6d 3e 1b 09 a3 3e
       -1.6249973 -0.45639038 0.2316744 0.31842884
000090 0d 18 ed be 52 f8 b6 3e 5a bc d9 be 73 f3 94 3e
       -0.46307412 0.35736328 -0.42526513 0.29091987
0000a0 1e e1 97 3e 4e 7d c9 3e dd 2a 26 c0 e2 18 f4 be
       0.29663938 0.39353412 -2.5963662 -0.47675234
0000b0 c0 df ea 3e 03 09 0b bf 36 17 d5 bf f2 3f da 3e
       0.45873833 -0.54310626 -1.6647708 0.4262691
0000c0 bf 77 73 bf 9d ca 3f 3e 71 a5 fc be ae 16 a7 3e
       -0.95104593 0.18729635 -0.49344972 0.3263449
0000d0 21 65 76 3e 3f d3 32 3e 69 86 a8 be a3 f7 d6 3e
       0.24062015 0.17463396 -0.32915047 0.41985807
0000e0 e9 f5 ac be e1 84 00 bf 93 eb de 3e bb 59 5f 3e
       -0.33781365 -0.5020276 0.43539104 0.21811573
0000f0 30 3e 99 3e c8 68 22 3e 11 4e d1 be 09 3a 98 3e
       0.29930258 0.15860283 -0.40879872 0.29731777
000100 67 c6 4a 3e c3 f3 86 3e 90 3f cd 3e d5 f7 ca be
       0.19802247 0.2635785 0.40087557 -0.39642206
000110 2a 90 62 3e 6e 76 57 3e 3f bb e4 be 28 b2 77 3e
       0.22125307 0.21041271 -0.44674107 0.24189055
000120 7c 3c a6 3e 27 8e 58 3e 9c 00 3a 3e e4 c2 56 bf
       0.3246802 0.21147977 0.18164295 -0.8389113

exp_avg f4 [1, 6, 1, 4]
000000 54 1e 4c 3d 06 b8 7b be ae 6a 7d 3d e3 94 63 bd
       0.04983361 -0.24581918 0.061869316 -0.05556191
000010 a7 67 69 40 9e 14 ec 3f 80 3f 98 3e b9 f9 21 be
       3.6469514 1.8443792 0.29735947 -0.15817918
000020 2b 21 44 3f 2b 21 44 3f 2b 21 44 3f 00 00 00 00
       0.7661311 0.7661311 0.7661311 0.0
000030 c3 d1 97 bd 6e 9b 86 bd 6e 9b 86 bd f7 3f 35 2b
       -0.07413056 -0.065726146 -0.065726146 6.4392887e-13
000040 39 fc a4 bd 84 8b 0a bd 84 8b 0a bd 00 00 00 00
       -0.0805592 -0.03382446 -0.03382446 0.0
000050 9a 78 1b bd 38 26 34 bd 38 26 34 bd 04 00 00 00
       -0.03795681 -0.04398176 -0.04398176 6e-45

exp_avg_sq f4 [1, 6, 1, 4]
000000 6d 55 b5 42 4e 12 d4 40 00 e5 87 3f 83 ab dc 3c
       90.66685 6.6272345 1.061676 0.026937252
000010 8e 26 8b 44 41 52 0b 44 d8 97 1b 43 61 47 aa 41
       1113.2048 557.2852 155.59314 21.284853
000020 09 38 b7 40 09 38 b7 40 09 38 b7 40 00 00 00 00
       5.72559 5.72559 5.72559 0.0
000030 89 b3 da 3f fe 85 b0 3f fe 85 b0 3f bd e2 0b 3d
       1.708604 1.3790891 1.3790891 0.03415178
000040 3b cc 4f 3f 12 9a 33 3f 12 9a 33 3f 00 00 00 00
       0.81171006 0.7015697 0.7015697 0.0
000050 2d a8 35 3f ea 58 cf 3e ea 58 cf 3e f4 01 00 00
       0.7095974 0.40497524 0.40497524 7e-43

exp_avg f4 [1, 6, 2, 4]
000000 1d 84 c3 be e0 2f 66 3e 47 3c 55 bd 41 19 4a 3d
       -0.38186732 0.224792 -0.052059438 0.04934049
000010 e0 90 44 bf 36 e0 c8 3c d1 49 93 bc 57 bd 25 3d
       -0.7678356 0.024520975 -0.017979534 0.04046377
000020 1f 92 7e c0 ef bb 3c c0 25 00 04 be a7 e8 4e 3e
       -3.9776685 -2.9489706 -0.1289068 0.20205937
000030 b8 b7 4d c0 81 c9 cf bf b9 2a 92 be 03 61 1a bd
       -3.2143383 -1.6233369 -0.2854822 -0.037690174
000040 b7 79 31 bf b7 79 31 bf b7 79 31 bf 6f 41 ad bd
       -0.6932635 -0.6932635 -0.6932635 -0.08459746
000050 bf ad d0 be bf ad d0 be bf ad d0 be c1 47 40 bd
       -0.40757558 -0.40757558 -0.40757558 -0.04694343
000060 b6 e9 2d bd 8a 86 24 bd 8a 86 24 bd d5 b7 28 bc
       -0.042459212 -0.04016737 -0.04016737 -0.010297735
000070 c1 46 30 3c e8 65 3f 3b e8 65 3f 3b 9b 21 17 bd
       0.010759057 0.0029205028 0.0029205028 -0.036897283
000080 c9 f1 8e bd 3e 9b 03 be 3e 9b 03 be 27 44 01 bd
       -0.069797106 -0.12852189 -0.12852189 -0.031559136
000090 a8 23 82 bd f0 2b 01 be f0 2b 01 be 7f cc 16 bd
       -0.06354457 -0.12614417 -0.12614417 -0.036816116
0000a0 f9 a0 4b be 84 a6 49 be 84 a6 49 be 29 fe 04 bc
       -0.19885625 -0.19692427 -0.19692427 -0.008117237
0000b0 c4 0f 2d be 41 6c 2e be 41 6c 2e be 92 93 4a bd
       -0.16900545 -0.17033483 -0.17033483 -0.04945714

exp_avg_sq f4 [1, 6, 2, 4]
000000 d2 69 cc 41 69 63 bc 3f f5 b7 86 3e d2 f1 e9 3b
       25.55167 1.4717838 0.26312223 0.007139423
000010 b3 4b f9 41 1e 63 69 40 0a d9 04 3f 25 35 6b 3c
       31.161963 3.6466746 0.51893675 0.014355932
000020 f3 ba a7 43 01 55 23 43 c3 8d 27 42 d8 70 82 40
       335.46054 163.33205 41.88844 4.076275
000030 a1 74 89 43 35 fd 7a 42 bb 5f 51 40 da 5b 7a 3d
       274.91116 62.747272 3.271468 0.061122753
000040 30 08 24 40 30 08 24 40 30 08 24 40 b1 58 81 3d
       2.5629997 2.5629997 2.5629997 0.06315745
000050 ec b9 26 40 ec b9 26 40 ec b9 26 40 29 91 ac 3d
       2.6050978 2.6050978 2.6050978 0.084261246
000060 22 c7 08 3f 74 36 e3 3e 74 36 e3 3e 68 a2 a3 3c
       0.5342885 0.44377482 0.44377482 0.019974902
000070 72 e3 49 3f 59 8f 2a 3f 59 8f 2a 3f 99 c9 0a 3d
       0.7886268 0.6662498 0.6662498 0.033883665
000080 5e 80 0c 3f 88 51 00 3f 88 51 00 3f 64 22 9d 3c
       0.5488337 0.50124407 0.50124407 0.019181438
000090 24 b6 35 3f 14 b6 28 3f 14 b6 28 3f 6c b4 16 3d
       0.7098105 0.6590283 0.6590283 0.036793157
0000a0 75 f1 2f 3f e7 df fb 3e e7 df fb 3e 94 19 f4 3b
       0.6872781 0.4919426 0.4919426 0.007449338
0000b0 6e c9 72 3f b4 dd 3d 3f b4 dd 3d 3f 1d 37 a1 3c
       0.9483861 0.7416642 0.7416642 0.0196796

exp_avg f4 [1, 6, 3, 4]
000000 dd f3 59 3f ee 49 2e 3f 03 21 bf bd 84 81 3b 3d
       0.8513773 0.6808156 -0.09332468 0.045777813
000010 a8 c9 41 3f cc af 0f 3f 04 4f 62 bd a5 d2 80 3d
       0.7569833 0.5612762 -0.055251136 0.06290177
000020 76 23 66 3f 18 90 66 3f 00 ad 46 3d 77 52 6e 3d
       0.8989786 0.9006362 0.04850483 0.058184113
000030 d9 db 53 3e 58 67 18 3f 32 bb 91 3f b9 3d 7f 3e
       0.20689334 0.5953269 1.1385252 0.24925889
000040 aa e7 8f 3e 89 6f f1 3e 84 9c fa 3e 2b 93 d1 bd
       0.28106433 0.47155407 0.48947537 -0.10233148
000050 4a 62 91 3e 74 09 86 3f 60 4c 97 3f 24 8a df 3e
       0.283953 1.0471635 1.1820183 0.4366008
000060 a9 da 86 be ad da 86 be ad da 86 be 33 a1 9b 3a
       -0.263387 -0.2633871 -0.2633871 0.0011873603
000070 89 5e 15 bf 89 5e 15 bf 88 5e 15 bf 64 ec fd bb
       -0.58347374 -0.58347374 -0.5834737 -0.007749127
000080 ff cc 94 be fd cc 94 be 01 cd 94 be 82 f5 72 bc
       -0.2906265 -0.29062644 -0.29062656 -0.014829041
000090 55 93 bd 3e 34 dc a3 3e 35 dc a3 3e 43 f7 78 bd
       0.37026468 0.3200394 0.32003942 -0.060782682
0000a0 17 f7 ba 3e 96 af 9b 3e 96 af 9b 3e 86 fa 7c bd
       0.3651664 0.304074 0.304074 -0.061762355
0000b0 af 09 74 3e 1e cd 44 3e 20 cd 44 3e df 39 63 bd
       0.23831819 0.19218871 0.19218874 -0.055475112
0000c0 21 ee 72 ba 87 eb a1 bd 81 eb a1 bd 61 57 d7 bc
       -0.00092670514 -0.079062514 -0.07906247 -0.026286783
0000d0 ab 10 08 3d 73 9e 8f bc 63 9e 8f bc 5e 46 23 bd
       0.03321902 -0.01753161 -0.01753158 -0.03986203
0000e0 af b8 de 3c 2b 46 4e bc 1b 46 4e bc 41 96 f0 3b
       0.027187673 -0.012589972 -0.012589957 0.0073421304
0000f0 71 93 5c 3d 0b d5 ae 3d 12 d5 ae 3d 8e 75 67 3c
       0.05385155 0.085367285 0.08536734 0.014127148
000100 b6 bc 82 be 94 5b 68 be 96 5b 68 be 61 46 95 bc
       -0.255346 -0.22691184 -0.22691187 -0.018222036
000110 c9 57 25 be 3b 90 06 be 3c 90 06 be 77 96 8e bc
       -0.16146769 -0.13140957 -0.13140959 -0.017405732

exp_avg_sq f4 [1, 6, 3, 4]
000000 56 37 b4 42 b7 51 10 41 55 af ae 3f da d6 c2 3c
       90.10808 9.01995 1.3647257 0.02378409
000010 13 f2 a4 42 2d f8 07 41 14 55 9c 3f a1 8e eb 3c
       82.4728 8.49809 1.2213464 0.028754534
000020 6d 75 a0 42 9e 01 07 41 e3 e1 a6 3f 00 f1 09 3d
       80.22935 8.437895 1.3037685 0.0336771
000030 88 ce 81 44 af 22 c2 43 be bf ab 42 e2 5f 1a 41
       1038.4541 388.27097 85.8745 9.648409
000040 47 f6 83 44 cd 57 d6 43 d5 eb c2 42 56 d6 18 41
       1055.6962 428.68594 97.46061 9.552328
000050 4e bb 8f 44 00 43 17 44 cc 31 1a 43 8b 73 98 41
       1149.8533 605.0469 154.19452 19.056417
000060 52 7d bc 40 52 7d bc 40 51 7d bc 40 aa f6 6f 3e
       5.890298 5.890298 5.8902974 0.23433939
000070 af e9 be 40 af e9 be 40 b0 e9 be 40 43 fa 51 3e
       5.966026 5.966026 5.9660263 0.20505624
000080 f2 02 c4 40 f2 02 c4 40 f2 02 c4 40 69 58 6c 3e
       6.1253595 6.1253595 6.1253595 0.23080601
000090 7e a5 f5 3f 29 ba c4 3f 2a ba c4 3f 3d 40 20 3d
       1.9191129 1.5369312 1.5369313 0.039123762
0000a0 5c ae f3 3f 1c 6b bb 3f 1e 6b bb 3f 19 3b 4f 3d
       1.9037585 1.4642062 1.4642065 0.05059347
0000b0 c7 a0 f4 3f 1d 39 be 3f 1d 39 be 3f f5 ac 12 3d
       1.9111565 1.486118 1.486118 0.035809476
0000c0 5c 3b d0 3f 3c d5 b6 3f 3c d5 b6 3f 02 4d 58 3d
       1.6268115 1.4283824 1.4283824 0.052807815
0000d0 77 a2 c1 3f ef af ae 3f ee af ae 3f d0 a5 39 3d
       1.5127705 1.3647441 1.364744 0.045324147
0000e0 4c 31 b6 3f df 87 aa 3f de 87 aa 3f 8c 2e 64 3c
       1.4233794 1.3322715 1.3322713 0.013927113
0000f0 b7 78 03 40 75 ed d9 3f 76 ed d9 3f f4 d3 64 3d
       2.0542428 1.7025591 1.7025592 0.055866197
000100 03 19 fa 3f 71 26 cf 3f 71 26 cf 3f 87 fd 57 3d
       1.9538883 1.6183606 1.6183606 0.052732017
000110 58 f6 02 40 8e ab da 3f 8d ab da 3f 3a 78 25 3d
       2.0462856 1.7083604 1.7083603 0.04039786

exp_avg f4 [1, 6, 4, 4]
000000 6b 80 e5 3e a3 4d cb 3e cd c6 cf bd 41 fe 99 3d
       0.44824538 0.3970767 -0.1014534 0.07519198
000010 92 10 5b bd 65 5c d1 3e 71 2c dd bd 76 67 1c 3d
       -0.0534826 0.40890804 -0.10799492 0.038184606
000020 96 b4 4a 3d e7 c9 2d 3f 0e f3 50 3e ce 0b c5 3d
       0.049488626 0.67886204 0.20405218 0.09621392
000030 b9 58 7b 3e 5a 30 11 3f 6b 15 37 bb d6 5a a4 3d
       0.24545564 0.56714404 -0.002793635 0.08025138
000040 79 8d 72 c0 52 68 fc bf c5 07 a9 3e ea e9 92 bd
       -3.7898848 -1.9719336 0.3301374 -0.07173522
000050 96 f7 79 c0 f3 7c 1e c0 7b ec 7d 3f f2 e5 0a 3f
       -3.9057364 -2.4763763 0.99188966 0.5425712
000060 f1 f8 60 c0 99 d0 f7 bf 4b 75 d1 3f 93 40 2d 3f
       -3.5151942 -1.9360534 1.636392 0.6767666
000070 3c 86 6f c0 e1 83 05 c0 cb ae 24 3f ca 05 12 3f
       -3.742568 -2.0861742 0.6432921 0.57040083
000080 9e 04 a9 bf 9b 04 a9 bf 9c 04 a9 bf 72 62 78 bd
       -1.3204534 -1.320453 -1.3204532 -0.06064076
000090 15 62 1e bf 16 62 1e bf 14 62 1e bf fe d8 86 bd
       -0.6186841 -0.6186842 -0.61868405 -0.06584357
0000a0 ec 76 8e bf ec 76 8e bf ec 76 8e bf e2 f6 80 be
       -1.1130042 -1.1130042 -1.1130042 -0.25188357
0000b0 e7 4c 18 bf eb 4c 18 bf e7 4c 18 bf 78 f0 81 be
       -0.59492344 -0.5949237 -0.59492344 -0.25378776
0000c0 f1 e8 e6 3e 9d 13 c7 3e 9c 13 c7 3e 63 30 9f bd
       0.45099595 0.3888215 0.38882148 -0.07772901
0000d0 53 75 ec 3e 1c 09 c4 3e 1c 09 c4 3e da eb b8 bd
       0.4618326 0.382882 0.382882 -0.0902936
0000e0 52 53 b2 3e fc c8 8f 3e fc c8 8f 3e b2 d7 8e bd
       0.34829193 0.28083026 0.28083026 -0.06974734
0000f0 8d 65 b5 3e 25 50 9b 3e 26 50 9b 3e cc c5 cc bd
       0.3542904 0.30334583 0.30334586 -0.09998664
000100 2b 9a 05 be e9 45 79 be ea 45 79 be ae 2c 3b bd
       -0.13047092 -0.24343075 -0.24343076 -0.045696907
000110 82 2c 6a be c4 d1 a6 be c4 d1 a6 be 75 18 1b bd
       -0.22868541 -0.32581913 -0.32581913 -0.03786512
000120 46 5c 2d be 74 8d 80 be 75 8d 80 be c2 73 2a bd
       -0.16929731 -0.2510792 -0.25107923 -0.0416143
000130 fd f6 1a be 6f b6 7e be 6f b6 7e be e4 d6 7d bd
       -0.15133281 -0.2487428 -0.2487428 -0.061972514
000140 3a 81 9d be d2 bb 96 be d2 bb 96 be b0 0d ce ba
       -0.30762655 -0.2944017 -0.2944017 -0.0015720632
000150 99 9b a6 be 2c 35 a2 be 2d 35 a2 be ef b3 1c 3d
       -0.32540587 -0.31681192 -0.31681195 0.038257536
000160 9e fc 7a be cd 34 7c be cf 34 7c be 42 23 0e 3d
       -0.24510428 -0.24629517 -0.2462952 0.034701593
000170 af 25 d5 be dc 2b cf be db 2b cf be a9 9c 36 3b
       -0.41630313 -0.4046315 -0.40463147 0.0027864373

exp_avg_sq f4 [1, 6, 4, 4]
000000 4a 98 3d 43 28 18 89 41 fc a2 2b 40 0c cc 4d 3d
       189.59488 17.136795 2.6818228 0.050243422
000010 1a e1 3b 43 0c 6d 87 41 31 9c 1e 40 2e 6a 4f 3d
       187.8793 16.928246 2.4782832 0.05063837
000020 13 38 2f 43 5a 07 83 41 c3 05 2f 40 8c 11 86 3d
       175.21904 16.37859 2.7347267 0.065463156
000030 7b b2 2f 43 1c 4f 86 41 e7 5c 24 40 d3 e3 0e 3d
       175.69719 16.788628 2.5681703 0.03488524
000040 d7 f0 36 45 0a 45 a7 44 62 ea 9c 43 d7 22 08 42
       2927.0525 1338.1575 313.83112 34.034023
000050 54 70 32 45 75 dc 98 44 2f 06 91 43 eb 22 02 42
       2855.0205 1222.8893 290.0483 32.5341
000060 1e 5c 33 45 25 bd 96 44 14 6d 88 43 1c 2f f8 41
       2869.7573 1205.9108 272.85217 31.023003
000070 09 c1 32 45 d4 4b 94 44 57 ee 75 43 a3 e6 b4 41
       2860.0647 1186.3696 245.93102 22.612616
000080 0a e3 81 41 09 e3 81 41 09 e3 81 41 69 29 06 3f
       16.235859 16.235857 16.235857 0.52406937
000090 8e 99 6e 41 8f 99 6e 41 8f 99 6e 41 d3 09 d6 3e
       14.912489 14.91249 14.91249 0.4180437
0000a0 76 0b 75 41 76 0b 75 41 76 0b 75 41 72 63 03 3f
       15.315298 15.315298 15.315298 0.51323617
0000b0 e7 74 7f 41 e7 74 7f 41 e4 74 7f 41 08 de 0c 3f
       15.966041 15.966041 15.966038 0.5502629
0000c0 0a a9 85 40 a0 48 5c 40 a0 48 5c 40 47 ca de 3d
       4.1768847 3.4419327 3.4419327 0.10878425
0000d0 95 5e 8d 40 c2 d9 6a 40 c0 d9 6a 40 76 51 ac 3d
       4.4177957 3.669541 3.6695404 0.08413975
0000e0 f4 f7 89 40 7d d2 62 40 7e d2 62 40 f4 26 a1 3d
       4.3115177 3.5440972 3.5440974 0.07868758
0000f0 e8 fb 99 40 06 3c 80 40 07 3c 80 40 00 00 f0 3d
       4.8120003 4.007327 4.0073276 0.1171875
000100 e9 7a 53 40 92 a4 44 40 92 a4 44 40 11 fd 2d 3e
       3.3043768 3.0725446 3.0725446 0.16991068
000110 77 69 4d 40 78 74 42 40 77 74 42 40 a9 c2 ee 3d
       3.209562 3.0383587 3.0383584 0.11658222
000120 bf 30 85 40 5a 45 80 40 5a 45 80 40 84 ed 4f 3e
       4.1622005 4.008466 4.008466 0.20305449
000130 29 d1 8e 40 bb 90 88 40 bb 90 88 40 e5 7b 79 3e
       4.4630322 4.2676673 4.2676673 0.24363668
000140 a8 3f 75 40 53 1a 50 40 53 1a 50 40 ad 69 14 3e
       3.8320103 3.2516067 3.2516067 0.14493437
000150 a4 9d 81 40 a7 b6 5f 40 a8 b6 5f 40 85 f6 ef 3d
       4.0504932 3.4955232 3.4955235 0.11716942
000160 b7 4e 81 40 ea e4 62 40 e9 e4 62 40 ad 64 d3 3d
       4.0408587 3.5452218 3.5452216 0.10321937
000170 49 0a 95 40 a8 25 83 40 a8 25 83 40 e0 75 ee 3d
       4.6575055 4.0983467 4.0983467 0.116435766
