TrainedModel/Dueling DQN-1/19500_0-14_DuelingDQN.pth (torch, 291221 bytes, 33 tensors)

conv1.weight f4 [1, 6, 1, 4]
000000 ff fd a3 3f e8 f8 a7 3e 33 a6 86 3e 31 2a fd 3e
       1.2811888 0.32807088 0.26298675 0.49446252
000010 0f 8e 56 3e 94 3b 35 3e 24 25 91 3e 75 8c 75 3e
       0.20952629 0.17698509 0.2834865 0.23979361
000020 8c 91 f5 3d 84 e7 5d 3d 2d 04 9b be 6a d0 c1 be
       0.119906515 0.05417587 -0.30276623 -0.3785432
000030 15 45 6e 3c 38 fb 8d 3e a0 4c 07 bf 84 ed 16 be
       0.014542838 0.27730727 -0.52851295 -0.14739043
000040 f0 aa d8 bd da f3 2a be be 3f 6c be af 70 e6 be
       -0.10579479 -0.16694584 -0.2307119 -0.45007846
000050 bb be 5c 3d 1a 6d 4e 3d 97 23 af be 30 db ec be
       0.053892832 0.050397016 -0.3420684 -0.46260977

conv2.weight f4 [1, 6, 2, 4]
000000 ce 12 7a bd a8 7b 47 bc fa 20 88 3e 78 cc 31 3e
       -0.06105309 -0.012175478 0.2658766 0.17363155
000010 70 4c 37 be 7e 3b 29 3f 55 35 14 3f 26 26 f4 be
       -0.17900252 0.661064 0.5789388 -0.47685355
000020 d2 b2 32 3e a1 04 04 3f c7 c6 ba 3e 37 4e 30 be
       0.17451027 0.51569563 0.3647978 -0.17217337
000030 03 24 28 3c f5 09 03 bf f5 c8 ee be 7b 20 21 bd
       0.010262492 -0.5118707 -0.46637693 -0.039337616
000040 08 49 fb 3e d1 5d 6b 3e eb df 5d 3e 18 d4 d2 be
       0.49079156 0.22985007 0.21667449 -0.4117744
000050 05 6e b1 3d 6e 12 8c be 76 33 98 3e ee 5e 82 bf
       0.08663563 -0.2735781 0.29726762 -1.018522
000060 1c 70 e3 bd 3e a5 62 be 64 36 56 3e e8 17 45 3e
       -0.111053675 -0.22133347 0.20919186 0.19247401
000070 d4 8b 60 bd bc 2b 8e be d7 9e 98 3e 89 b2 0c be
       -0.05482085 -0.27767742 0.29808685 -0.13739981
000080 1f 55 e0 bd fd 88 8d be a8 b6 95 3e 08 7c d9 3e
       -0.109537356 -0.27643576 0.29240918 0.4247744
000090 55 bb cd bd cb 45 52 3e f2 f4 5e bd 28 23 2d be
       -0.100454964 0.20534436 -0.054432817 -0.16907942
0000a0 ca a5 08 3e 77 19 0b 3e f3 dc 15 be a9 3c d0 3e
       0.13344494 0.13583933 -0.14635067 0.4067128
0000b0 81 64 b1 bd 7b c1 97 3d 21 eb 5c 3d 62 5f af 3d
       -0.08661748 0.0740995 0.053935174 0.08563115

conv3.weight f4 [1, 6, 3, 4]
000000 60 5d 42 3e 94 f9 90 3e f9 8d 0e be 7e 11 4a 3e
       0.18980932 0.28315413 -0.13921346 0.19733235
000010 ad 53 a7 3e 61 26 23 3f 9e 7b 82 be 95 0d 03 3f
       0.32681027 0.63730437 -0.25484937 0.511926
000020 e4 af 75 3d 22 73 ec 3e 96 39 dd 3c 8a 59 0f 3f
       0.059982195 0.4618159 0.027004998 0.55996
000030 79 70 fc bd d3 36 75 be 9a 51 11 be a3 f0 f2 bd
       -0.1232614 -0.23946695 -0.14191285 -0.11862304
000040 ee 26 11 bc 96 36 ff bd d2 1b 86 bd 34 22 94 3c
       -0.008859379 -0.12461583 -0.06548275 0.018082716
000050 ce 60 f4 3d 5f 6b 83 3e 7f d4 12 3d 51 37 fd bc
       0.119325265 0.25667855 0.035847183 -0.030910166
000060 fe e7 ec 3c 68 b6 d8 bd e6 24 d6 bd c9 bf d0 3d
       0.028919216 -0.10581666 -0.104562566 0.1019283
000070 99 7a 38 be bb 0b db 3d db 83 fd 3a 0f 48 0d 3e
       -0.18015517 0.10695597 0.0019341664 0.1379702
000080 4c 95 08 3e 7f e3 7d be 4c 82 d5 3d 0b 20 f9 3e
       0.13338202 -0.24793814 0.10425243 0.4865726
000090 5a ec 4b be b8 8c 7e 3d f9 29 02 3e b7 bc 40 3d
       -0.1991438 0.06214592 0.12711324 0.047054972
0000a0 a9 c0 26 3e c9 64 4a 3e 5c ea df bd 98 ea 1d be
       0.16284432 0.19765009 -0.109333724 -0.15421522
0000b0 59 bf 15 bd 89 e7 1e be 09 71 d4 3d d7 cc af 3e
       -0.036559436 -0.15518011 0.10373122 0.34335968
0000c0 52 d9 cb bb 7d 7a 99 3d df 8f d1 3d a5 30 c2 bd
       -0.006220975 0.07494066 0.10232519 -0.094819345
0000d0 de 1a e2 3d f0 29 90 be 29 56 56 3e ee b8 8f 3e
       0.11040281 -0.28156996 0.20931305 0.28070778
0000e0 a5 c4 5c bd cd 8e 80 3e 7f 0c e6 bd fb f5 95 bd
       -0.053898472 0.25108948 -0.11232852 -0.07322308
0000f0 b6 6b 20 bd 02 e8 01 3c 78 d7 0f 3d 3c f8 01 3e
       -0.03916522 0.00792885 0.035117596 0.1269235
000100 b2 ec eb bd 86 7c 09 3d 9c 94 ad 3d a8 68 9a be
       -0.115197554 0.03356602 0.084756106 -0.3015797
000110 ef 2e 09 3e 99 b2 08 be cb 56 ed 3d c7 2f 8d 3e
       0.1339681 -0.1334938 0.1158882 0.27575514

conv4.weight f4 [1, 6, 4, 4]
000000 d8 dd a5 3e f4 13 ef bd b4 85 08 3e fb 31 25 3d
       0.32395816 -0.11673728 0.13332254 0.04033087
000010 52 cf b5 3e 8f 66 e5 be 8c 40 0a be 83 d4 5c bd
       0.35509735 -0.44804808 -0.13501185 -0.053913604
000020 44 b5 58 3d 57 ff 0f be c0 6c cf 3b ea ae 14 3e
       0.052907243 -0.14062248 0.0063301027 0.1451985
000030 81 e0 a0 3e 8d 43 cd be b9 3e f6 bd 8d 32 55 3d
       0.31421283 -0.400906 -0.12023682 0.052050162
000040 9c 7e f8 3d cb 03 1c 3e 20 9e 29 3d 86 49 c2 bc
       0.12133524 0.15235822 0.041410565 -0.0237167
000050 6a 25 b2 bd 0a 65 41 bd 16 47 9a 3c 68 85 96 3d
       -0.086985424 -0.0472155 0.018832725 0.07349664
000060 63 9d 09 bd 85 31 ce bd 40 fd b9 bd 2f 6a 95 bd
       -0.03359736 -0.10068039 -0.09081507 -0.072956435
000070 fc de 56 bd b1 26 8d bd 19 ac e6 bd 5c c9 d4 bd
       -0.05245875 -0.068921454 -0.11263294 -0.10389969
000080 f8 e2 66 3d db 8e f0 bd ff 2b f8 3d 9f e6 52 3e
       0.056368798 -0.117459975 0.121177666 0.20595787
000090 12 8b e7 3d 4f e5 d1 bc b2 30 fa bd ae c4 c6 3c
       0.113058224 -0.025622038 -0.12216319 0.024263706
0000a0 d7 6d 44 3e 72 25 7c be ef 58 8b bd 81 6d b3 bd
       0.19182526 -0.24623659 -0.06804072 -0.087611206
0000b0 72 43 92 be cc 94 01 3e 7c d5 4b 3c e0 63 91 3e
       -0.28567082 0.12654418 0.012441035 0.2839651
0000c0 f6 5a d5 3b 21 3c 9a bd e5 65 2e 3d 6a ea c5 3d
       0.0065110875 -0.07531 0.042577643 0.096638516
0000d0 05 44 c9 bd 83 77 98 3d 4f c1 bd bd f2 26 bb 3c
       -0.09827427 0.0744467 -0.09265386 0.022845719
0000e0 83 aa e5 3d e6 6d b2 bc 70 0e 34 bd 94 a9 4e be
       0.11214163 -0.02178092 -0.04395908 -0.20181876
0000f0 16 2f 4c 3c 22 82 48 bb ed 9c d3 3d d4 ea 3a bc
       0.012462398 -0.0030595143 0.103326656 -0.011408526
000100 14 95 d3 bc 50 30 88 bd 10 27 b4 3d 7e 96 11 3e
       -0.025827922 -0.0664984 0.08796513 0.14217564
000110 b0 b8 b0 bd 21 75 df bd 44 fd b1 bc ca 0b 8a 3b
       -0.08628976 -0.109110124 -0.021727212 0.004212831
000120 28 a6 0b bd ce fd f2 bd 03 ac fa 3d cf 02 18 3e
       -0.034094006 -0.11864816 0.1223984 0.14844821
000130 93 0c 8e bc e6 16 d6 bd 5e 8f 00 3e e1 57 9d bc
       -0.01733998 -0.10453586 0.1255469 -0.019206943
000140 76 90 ba bd 65 ce 16 3c d6 1a a9 bd 87 75 27 3d
       -0.09109585 0.009204482 -0.08257072 0.040883567
000150 10 9c 01 3e e6 e0 38 bc 5a 5e 43 be 78 28 eb bd
       0.1265719 -0.011284089 -0.19078961 -0.11482328
000160 a5 6b e2 bd 56 65 2d bd 7f 3e 14 3e 91 4c d5 bd
       -0.11055688 -0.04233297 0.14476965 -0.104149945
000170 b7 82 c0 bd 10 ca 96 3d d0 0a 9f 3d b9 bc 80 3a
       -0.09399932 0.07362759 0.07765734 0.0009821869

fc3_adv.weight f4 [76, 130]
000000 5f 02 42 3e e4 b7 30 3e 15 af 34 3e a4 2f 15 be
       0.18946217 0.17257649 0.17644913 -0.14568955
000010 f1 1c 71 bd 16 62 28 be 55 1c 6c 3e e5 cc fb 3d
       -0.05886549 -0.16443667 0.23057683 0.1229494
000020 9a ee cf 3d ef 0d 9b 3c e4 f5 0f 3c 0f 2c b7 3d
       0.101529315 0.018927542 0.008786652 0.089439504
000030 ae 7c a0 3e cd 7c ba 3e ba be c3 3d 77 d0 6b 3d
       0.31345123 0.3642334 0.095578626 0.057571854
000040 d9 d3 55 3e ff d4 1d 3e 3f 40 f5 3d d8 5f 2a 3d
       0.20881595 0.15413283 0.119751446 0.04159531
000050 2e fc 79 3e ff 91 76 be ae 77 7f bf b4 b8 0d bf
       0.24412605 -0.2407913 -0.9979199 -0.5535996
000060 5d cd 0f bf 2a bf 37 bf d2 5e f1 be 64 54 5f bb
       -0.56172734 -0.7177607 -0.47142655 -0.00340774
000070 d6 07 00 3e 04 a9 c9 3d a7 4c 96 bd ab 4b 2e 3c
       0.12502989 0.0984669 -0.07338839 0.010638158
000080 e0 e4 36 3d 4f 87 9a 3b 1d 4b 11 be 03 c9 50 3e
       0.044651866 0.004715837 -0.1418881 0.2038918
000090 c5 86 39 3e 0a fd e2 3c 79 70 98 bc 68 1f a3 3e
       0.18117817 0.027708549 -0.018608319 0.318599
0000a0 0c 72 13 3e ab 50 ad 3e 0c 18 3f 3e 0c 8e 81 3e
       0.14398974 0.33850607 0.18661517 0.25303686
0000b0 41 3e c2 3d 43 02 92 3e 8f 48 26 3e 7a b4 d6 3e
       0.0948453 0.2851735 0.16238616 0.41934568
0000c0 92 46 f6 3e c7 56 7c 3d f6 d1 6b 3e 51 f6 1a 3e
       0.48100716 0.061606195 0.23029312 0.15133025
0000d0 a4 28 7b bb 81 90 7a bd a7 f3 19 3e 7f a8 80 3e
       -0.0038323784 -0.061172966 0.15034352 0.25128552
0000e0 27 38 9c bd 6b 3b 50 bd f0 a3 09 3e 67 9e 77 3e
       -0.07627898 -0.050837915 0.13441443 0.2418152
0000f0 8b 16 79 3e d3 0d 7c 3e 4a dc 82 3d 65 c6 90 bd
       0.24325006 0.24614649 0.06389673 -0.07069091
000100 89 67 47 be aa 26 01 3e 19 70 95 3e 38 70 c6 3e
       -0.1947309 0.12612405 0.29187086 0.3875749
000110 5a 20 9d 3e ba 0d 7f 3e 4f dd 4d 3e b6 65 e0 bd
       0.30688745 0.2490758 0.20103954 -0.109569
000120 6f 3c 93 bd ea 5e ab 3e cd cb a5 3d dc c1 82 bc
       -0.07189261 0.3347085 0.080955125 -0.01596158
000130 57 11 88 3e a4 a2 3d 3e 1d 30 ad 3c e1 fd c5 3e
       0.2657573 0.18519074 0.021141106 0.38670257
000140 e1 a2 bf 3b 7e ca 32 3e 32 02 2b 3e f3 0c c4 3e
       0.005848274 0.17460057 0.16700056 0.3829113
000150 8b e1 f4 3d d3 82 e8 bd c5 3c 00 3c f2 6d bf 3d
       0.119570814 -0.11353078 0.007826989 0.09347142
000160 0d f0 e8 be ac 82 20 bf a1 75 17 bf 0e 7b 51 bf
       -0.45495644 -0.6269939 -0.5916386 -0.8182839
000170 99 39 26 bf 42 53 7a 3c 8e 5f e7 bd b0 08 f9 3d
       -0.6493164 0.015278639 -0.112975225 0.1215986
000180 0d 90 70 be eb db 3a bd 3c 09 2c bd 9f df 87 3c
       -0.23492451 -0.045619886 -0.042000994 0.016586123
000190 86 e5 96 3e 75 d4 f1 bc d4 c1 28 bc d4 84 d1 bd
       0.29471987 -0.029520253 -0.0103001185 -0.10230413
0001a0 82 f7 b4 3c 3a 10 b6 3d a0 55 b2 3c 2e 28 ab 3c
       0.022090677 0.08889814 0.021769345 0.020893183
0001b0 a8 2e 38 3e 27 3f 48 3d 6d af 1f 3e 24 61 63 3d
       0.17986548 0.04888835 0.15594263 0.055512562
0001c0 c5 a3 0c 3e 9b b1 bd bd f4 1d af 3d 45 47 c3 3e
       0.13734348 -0.09262391 0.08550635 0.38140312
0001d0 7d b0 82 3e 26 f0 75 be 04 d5 4e bc 77 bb 56 bd
       0.25525275 -0.2401739 -0.012624029 -0.052424874
0001e0 dc aa b4 be ee e4 90 be 3b a8 35 be 2e 1c 7e be
       -0.35286605 -0.2829966 -0.17739956 -0.24815437
0001f0 85 04 02 bf a6 4b 67 be 99 ac b1 bd 42 43 36 3d
       -0.50788146 -0.22587451 -0.086754985 0.044497736
000200 ba a0 1c be fe d9 04 3e e0 7d b5 3e e4 cf bc 3e
       -0.15295687 0.12973782 0.35447598 0.36877358
000210 ce ec 28 3e 2d e7 b6 3e bb 14 57 3e b4 b8 88 3e
       0.16496584 0.35723248 0.21004002 0.26703417
000220 95 03 c6 bb 70 9d 6b 3e e4 ed b0 3e 40 d5 90 3e
       -0.0060429075 0.23009276 0.34556496 0.28287697
000230 7f 1b 94 3e b8 23 df 3e ec 04 e2 3e 38 14 ab 3d
       0.28927228 0.4358194 0.4414438 0.08353466
000240 0e d0 ae bc 60 fd c4 3e 38 ea a8 3e 1f 61 ce 3e
       -0.021339443 0.3847456 0.32991195 0.40308473
000250 9f 0d f0 3d 3e f3 7f 3e dd a3 c0 3e 14 21 5a 3e
       0.11721348 0.24995133 0.37625018 0.21301681
000260 34 79 8c 3c 0f 3e 68 3e 0d a5 c5 3e f6 e9 bf 3e
       0.017147638 0.22679923 0.38602486 0.37483186
000270 01 75 a4 3e 71 b3 7b 3d 6c 78 4e 3e f7 92 4f 3e
       0.32120517 0.061450426 0.20163125 0.20270906
000280 ad 8a e8 3e ed dc 24 3e 02 23 9b 3e f4 9a 00 3e
       0.454183 0.16099901 0.30300146 0.1255911
000290 7b 69 12 be 64 31 49 be af 93 4d be ca 2e b8 3c
       -0.1429805 -0.19647747 -0.20075868 0.022483248
0002a0 9b f6 87 3d 4d 06 76 be 5e 0b 3f be 4b cd b2 3d
       0.06638833 -0.24025841 -0.1865668 0.08730563
0002b0 a6 5c c7 3d 5f 00 58 be b5 df ae bc 57 56 bd bd
       0.09734468 -0.21093892 -0.021346906 -0.09244984
0002c0 e5 dd 18 3e 7c 77 31 3d 4f 73 f4 bd 1d 50 e9 bd
       0.14928396 0.04332684 -0.11936056 -0.113922335
0002d0 6e 5c 81 bd 77 cd 87 be 61 18 05 be 9c b2 e7 bd
       -0.06316458 -0.26523945 -0.12997581 -0.11313364
0002e0 38 2c 2b bd 4d f7 15 be 56 1e 08 3e 5f bd 06 bd
       -0.041790217 -0.14645119 0.13292822 -0.032895442
0002f0 75 74 6f bd 16 61 77 bd ed 99 0c be ac 67 d3 3d
       -0.05846067 -0.060395323 -0.13730593 0.10322508
000300 ce cb c2 be c8 ee 5e bd 6f 11 8a bd c1 5d 86 bc
       -0.38046116 -0.05442694 -0.067416064 -0.016402127
000310 ee d8 db 3d 2f 5e e7 3d a2 1c 50 3c 93 ca 59 3e
       0.107347354 0.11297261 0.012702139 0.21268682
000320 b3 87 c0 3c b9 52 60 3e ee b9 63 3d f5 08 ee bd
       0.023502206 0.21906556 0.05559724 -0.11622802
000330 34 e9 27 bd a4 27 87 3d cf ed cf 3d 7c e9 33 3d
       -0.040993884 0.06599358 0.1015278 0.04392384
000340 74 35 e8 3b e6 82 98 3e fb 9b 49 3d 6d 25 d7 bd
       0.0070864502 0.29787368 0.04922102 -0.10505185
000350 d8 d6 0a bb 1f 38 2a 3c 01 20 4a 3d c4 15 51 3e
       -0.0021185186 0.010389357 0.049346928 0.20418459
000360 f5 50 75 bd c0 48 c0 3d 9d e6 34 3e dc 3c 12 3d
       -0.05989166 0.09388876 0.17666097 0.03570257
000370 e7 87 2a 3e d1 8a 98 3e 19 24 34 3d 58 de 1e be
       0.16653405 0.2979341 0.043979738 -0.15514505
000380 bf a5 75 be 31 36 75 bd 0f 7d 48 be 22 19 c3 3d
       -0.23989008 -0.059866134 -0.19578956 0.09526278
000390 55 c1 a2 3d 56 2d 2c 3d e7 64 70 be da 17 67 3d
       0.079470314 0.042035423 -0.23475991 0.05641923
0003a0 84 22 32 bc f7 66 36 be f3 51 12 be 62 e1 3f 3c
       -0.010872487 -0.17812715 -0.14289074 0.01171145
0003b0 f3 8f 0f be a1 c3 88 bd b7 1c 40 3d 63 5a 01 bd
       -0.14019756 -0.06677938 0.046902385 -0.03158034
0003c0 5f 32 3f be b5 df 8b bd dc 34 09 3b 0b af c5 bd
       -0.18671559 -0.06829778 0.0020936048 -0.096525274
0003d0 33 0c 46 be a4 86 3b be b7 bf 25 3e 18 a6 83 bd
       -0.19340591 -0.1831308 0.16186415 -0.06428164
0003e0 bd cb 19 bd a2 00 a7 bd 6b dd 80 be da 95 f5 bc
       -0.037547816 -0.081544176 -0.25168929 -0.029978681
0003f0 27 0f fd bd d4 3d 0c 3e 9c 22 2f 3b fd d5 94 3e
       -0.12356406 0.1369546 0.002672351 0.2906951

fc3_adv.bias f4 [76]
000000 6d 2a 1d 3e fc cc d9 3d 6c 88 d8 bd ae 7e 4d 3e
       0.15348215 0.10634801 -0.105728954 0.20067856
000010 9e fe 45 3e 48 91 87 3e 71 1b 18 3e 73 09 4f 3d
       0.1933541 0.26478028 0.14854218 0.05054612
000020 f8 77 a4 3d bb 92 e5 3d 61 2b 43 bc e2 1e 30 3d
       0.08030695 0.11209627 -0.011912198 0.042998202
000030 e7 0e 97 3d d6 af 84 3d d3 37 60 3f 6b ac bd 3d
       0.07375889 0.064788505 0.8758518 0.09261402
000040 f3 1b dc 3d 20 a8 3b 3e 87 1b 7e 3d ca ab 46 3e
       0.107475184 0.18325853 0.06203797 0.1940147
000050 33 2c 92 3d 6a f1 7b bc b4 74 93 3e 63 86 49 3e
       0.071373366 -0.015377382 0.28799975 0.1968017
000060 bf 52 37 3d 8b 31 a2 3d 12 52 7c 3d e7 9e bd bd
       0.044756647 0.07919606 0.061601706 -0.09258824
000070 4f 38 f2 3d 9a 69 21 3d f0 26 66 3e 18 0e 07 bc
       0.11827146 0.03940735 0.22475791 -0.008243106
000080 ed 27 7c 3e 3f 30 26 3e 32 dd a7 3d c2 70 f6 3c
       0.24624605 0.16229342 0.081964865 0.030083064
000090 d4 e5 96 3d 97 f4 c0 3c 0d 00 41 3e a0 a1 59 3d
       0.07368055 0.02355413 0.18847676 0.053132653
0000a0 2d 82 2c 3e b5 fe 94 3d 41 be cf 3c 5d 3b a8 bb
       0.16846533 0.07275144 0.025359275 -0.00513403
0000b0 ee 2a 8e 3d 93 05 e4 3d b4 3e 25 3e 74 c6 3b 3e
       0.06941782 0.11133876 0.161372 0.18337423
0000c0 b5 d8 c5 3d 1a 48 43 3e 7a 91 5b 3e 5f 25 01 3e
       0.09660474 0.19070473 0.21442214 0.12611912
0000d0 9d b4 03 bd 50 77 84 3d ee a5 db 3d c7 f4 3c 3d
       -0.032154668 0.064680696 0.10725008 0.046131875
0000e0 fc e6 0e 3d 95 1f 84 3d 49 b9 f7 3d b3 51 32 3d
       0.034888253 0.06451336 0.12095887 0.043534946
0000f0 bd c1 c7 bc 9b e6 df 3d 7c b3 ce 3c 98 1b 01 3e
       -0.024384374 0.109326564 0.02523207 0.12608182
000100 a3 ed 26 3e 71 52 0e 3e 66 eb a5 3c 19 d2 db 3c
       0.16301589 0.13898636 0.020253848 0.02683358
000110 5f 0b 43 bb 47 40 83 3c fb e5 55 3d 06 4d 92 bc
       -0.0029761416 0.01602186 0.05222128 -0.017858993
000120 21 27 12 3e 25 c1 89 3d 79 bf 3f 3e 86 47 fb 3d
       0.14272739 0.067262925 0.18725385 0.122695014

fc3_val.weight f4 [76, 130]
000000 06 f5 88 3d e1 6d 21 3b ef 9b 12 bb 20 7e 2d 3d
       0.066873595 0.0024632143 -0.0022370776 0.04235661
000010 c0 b6 4f 3d d8 b9 8d 3d 60 72 4b bd b0 5a ea 3c
       0.050711393 0.069202125 -0.049669623 0.028607696
000020 c8 e4 10 3e 56 ba 68 3e 5e 3b d6 3d b4 ab bb bd
       0.14149773 0.22727332 0.10460542 -0.09163609
000030 c7 81 f4 3c 14 ad 2d bd 59 31 75 3d d5 41 fb bd
       0.029847039 -0.04240139 0.059861515 -0.12268416
000040 c9 14 76 3e db 13 d3 bd 09 51 08 3d c0 fd 0a be
       0.24031366 -0.103065215 0.033280406 -0.1357336
000050 23 a9 e9 bd 5b 23 c0 3d 27 e8 8e bd bf 94 95 bd
       -0.114092134 0.093817435 -0.06977873 -0.07303762
000060 f1 d1 51 3d 5e fb 00 3e b8 40 58 3d 1d ea cc bd
       0.051225606 0.12595889 0.052796096 -0.10005591
000070 12 0b 4c 3e ee fe 68 3e f6 59 18 3d e2 51 be bc
       0.19926098 0.22753498 0.03719517 -0.023232404
000080 6e 33 a8 3e 81 1e 2d 3e 51 30 43 3e 07 69 49 3e
       0.32851738 0.16906168 0.190614 0.19668971
000090 ce f2 0c 3d ba 1f 70 3e 49 34 b7 3b 1f 5b ba 3d
       0.034411244 0.23449603 0.0055909497 0.09099411
0000a0 54 b2 2b 3e 24 62 6f 3e a8 7c bf 3d 6d 9f be 3c
       0.16767246 0.23377281 0.09349948 0.02326938
0000b0 8e 77 ab 3e d3 80 2c 3d e4 5d e8 bc d1 4e 07 3e
       0.3348965 0.042115044 -0.028365083 0.1321366
0000c0 28 43 76 3e 03 33 3e 3e 44 ee d6 3d 0b 39 8c 3e
       0.24049056 0.18574147 0.10494664 0.2738727
0000d0 1e ff 1e 3b c5 36 82 3e dd 15 11 3e 6a 73 b2 3d
       0.0024260948 0.2543241 0.14168496 0.0871342
0000e0 d8 22 c8 bc 8f d9 17 3e 9c 48 c3 3d 7a 4d 29 3d
       -0.024430677 0.14829086 0.095353335 0.041333653
0000f0 a8 17 30 3d d5 6b 76 3e 73 16 e4 bc 3a a9 14 3e
       0.04299131 0.24064572 -0.027842736 0.1451768
000100 6a 9e 6f 3d 3a 16 09 3e 34 fe 20 3e b8 18 81 3d
       0.058500685 0.13387385 0.15721971 0.06303543
000110 2a 5e 37 3d a6 90 5c 3e da a9 41 bd f6 b9 3b 3b
       0.044767536 0.21539554 -0.047281124 0.0028644777
000120 f7 5c bd 3d 71 70 91 3e 06 74 0b 3e d4 a5 18 3e
       0.09246247 0.28406098 0.13618478 0.14907008
000130 cd 47 09 3e 3b 4e 87 3e 4f 4c 88 3d 10 f1 5d 3d
       0.13406296 0.26426873 0.0665518 0.054184973
000140 95 7b 8e bc 45 8e 82 ba d9 b8 df bc 17 a8 a7 3d
       -0.017392913 -0.0009960613 -0.027309822 0.081863575
000150 25 8e 14 3e 60 6b f8 3d ec 96 4e 3e 9c c2 f3 3d
       0.14507349 0.12129855 0.2017476 0.11902353
000160 76 c1 5c 3e 0d a5 a2 3d db 09 42 3e e8 0f f3 3d
       0.21558174 0.07941637 0.18949072 0.11868268
000170 e7 1f 7a 3b 3d cc 94 bb 08 5d a9 3d 51 68 bc 3d
       0.0038165988 -0.0045409487 0.082696974 0.09199584
000180 f4 ee 39 3e 01 ec 51 3e 06 af 14 3e c5 3c 9c 3e
       0.1815756 0.20500185 0.14519891 0.30515113
000190 00 cd 14 3e 9c 81 74 3e 68 b5 04 bb 70 84 08 3d
       0.14531326 0.23877567 -0.0020249728 0.033329427
0001a0 fe 0d ab 3e cc 60 38 3e 18 c2 36 3e eb f4 96 3e
       0.33409113 0.18005675 0.17847478 0.29483733
0001b0 3c 57 b5 3d 6d 70 d4 3d bf 53 43 3e 58 06 7a 3d
       0.08854529 0.10373006 0.19074915 0.061041206
0001c0 57 c9 2d 3e 9c f2 6f 3e bb 12 2c 3e b5 61 f7 3c
       0.16971336 0.23432392 0.1680402 0.030197958
0001d0 fd 80 b6 3e 23 60 8f 3e 6d 44 72 3e e0 f6 ab 3e
       0.35645285 0.28003034 0.23658915 0.33586788
0001e0 22 98 e7 3d 95 d3 7d 3e 9a 0e 0c 3e 5b 95 ae 3e
       0.11308314 0.24787743 0.13677445 0.34098324
0001f0 63 5b 83 3e 62 be df 3e d5 d1 c6 3e 17 95 89 3e
       0.2565566 0.43699938 0.38831964 0.2687156
000200 34 01 c8 3e d7 b6 46 3e 71 e4 d9 bd c6 b3 d1 3d
       0.39063418 0.19405685 -0.10639275 0.10239367
000210 db 80 f6 3d de 8d f1 bc b9 91 91 3c 85 3c d9 bd
       0.12036296 -0.029486593 0.017769681 -0.10607246
000220 2a c6 c7 3d b6 dd 80 bc d9 c9 90 bd b0 f7 cc 3c
       0.09754594 -0.01573072 -0.070697494 0.02502045
000230 05 a0 53 3e 93 df af 3c 38 d6 06 3e 8f 00 17 3e
       0.20666511 0.021468913 0.13167655 0.14746307
000240 94 2b 1d be 73 9e 2b 3e f4 51 11 3e 66 69 50 3e
       -0.15348655 0.16759662 0.14191419 0.20352706
000250 18 b7 96 3c bc ea 1b be 51 36 f8 bb 32 66 df bc
       0.018397853 -0.15226263 -0.0075748344 -0.02727041
000260 d0 94 11 3e 87 29 de bc a1 b6 0e 3d c5 39 89 bd
       0.14216924 -0.027119411 0.034842137 -0.06700472
000270 0d ea d0 bd d3 be 34 3e cc ff a7 bd ba 8d ac bc
       -0.10200892 0.17650919 -0.08203086 -0.021063674
000280 3b 74 ee 3d e1 57 11 3e a4 dc 1d 3d 20 91 c7 bc
       0.11643263 0.1419368 0.038540497 -0.024361193
000290 51 60 03 3e 1f 6c b7 3d 60 cd 1d 3e 30 8f 5b 3e
       0.1282971 0.08956169 0.15410376 0.2144134
0002a0 1b 6a 59 bc 45 bc 8f 3e c9 ef a9 3d dc c4 ef 3c
       -0.013269926 0.28073326 0.082976885 0.029268675
0002b0 cd 83 b7 3d c8 ec d3 bc 90 db 0f 3e b1 c6 8c 3e
       0.08960686 -0.025869742 0.140486 0.2749534
0002c0 24 49 3f 3e f3 3d e5 3a df bd 8f 3e 9d d3 4d 3e
       0.18680245 0.0017489776 0.28074548 0.20100255
0002d0 4d cf 82 3e 56 f6 fa 3d 09 f2 51 3e 31 d6 03 bb
       0.25548783 0.12254016 0.20502485 -0.0020116682
0002e0 3d 3d 04 3e 2a e4 33 bb 3d 87 49 3e cc 76 db bc
       0.12913986 -0.0027449229 0.19680496 -0.026790045
0002f0 91 e7 82 3e a8 fe e7 3d 04 a0 80 3e 7a a8 70 3e
       0.25567296 0.11327869 0.25122082 0.23501769
000300 1c 7d e8 3d 23 ee 5f bc 0d af 16 bd 89 ab b3 3d
       0.11351988 -0.013667616 -0.036788035 0.08772952
000310 e1 70 72 3c a5 f0 93 3e c2 e7 6e 3e 3d 12 7b 3e
       0.01479742 0.28894535 0.23330596 0.24518676
000320 70 f2 19 3e 82 22 56 3b 08 eb 3c 3d c1 87 97 3e
       0.15033889 0.0032674377 0.04612258 0.2959576
000330 c1 87 31 3e 39 06 b6 3d 2a 61 95 3d 04 db 88 3c
       0.17336942 0.08887906 0.07293923 0.016705997
000340 8a 19 25 3d f9 c6 f6 3b d4 1d 63 3e 0d 1f e2 3d
       0.04030756 0.0075310436 0.22179347 0.11041079
000350 fd 8f 2a 3e 1b 3e 6e 3e f7 c1 03 3e f2 4b 48 3e
       0.1665649 0.23265879 0.1286696 0.19560221
000360 be 98 a7 3d 06 37 43 3d 4a e8 19 bd e3 3c 1e bd
       0.0818343 0.047659896 -0.037575044 -0.038632285
000370 48 77 87 3e c9 f2 05 3e 0c bd ee bc f1 62 71 3c
       0.26458192 0.13080896 -0.029142879 0.014733062
000380 29 ce 0f 3e 44 77 ae 3d c1 ff 18 3e 3b 67 5a 3e
       0.14043488 0.08518842 0.14941312 0.21328442
000390 0a fa 0a 3d 2d f6 0e 3e 89 10 b0 3e 0e ea 8b 3d
       0.033929862 0.13961096 0.34387615 0.06831752
0003a0 44 1c 41 3d 18 eb 15 3e 6c 90 81 3e c9 74 1c 3e
       0.047146097 0.14640462 0.25305498 0.15278925
0003b0 a9 29 91 3e 0d 82 0d 3e 5c c6 a4 3e 91 4d 84 3e
       0.28352097 0.13819142 0.32182586 0.25840428
0003c0 bc 9c e5 3d 11 8d 8a 3e b6 fb 73 bb a1 63 db 3d
       0.11211535 0.2706075 -0.0037228889 0.10712362
0003d0 7c d2 37 3e c1 36 81 3e c0 39 ad 3e 28 4a 5b 3e
       0.17951387 0.25237086 0.33833122 0.21415007
0003e0 e2 21 ca 3d 8e 9b 89 3e 16 f5 9f 3d 57 0e 24 3e
       0.09869744 0.2687649 0.07810418 0.16021095
0003f0 0c b6 21 3e 5c 76 41 3e de 81 c4 3e ae 93 01 3e
       0.15792102 0.18892807 0.3838033 0.12653992

fc3_val.bias f4 [76]
000000 bb 03 6d be ca c3 bb be b9 70 c8 3e 50 56 04 3f
       -0.23145954 -0.36672813 0.391485 0.516942
000010 8d 1b f1 3e af 37 85 be 64 5b 62 be 2c 4b c9 3e
       0.47091332 -0.26019046 -0.22105175 0.39315164
000020 4b 48 a3 be 5c 85 71 be 84 45 96 be 0d ec 9e be
       -0.31891093 -0.23586029 -0.2934991 -0.31039467
000030 c9 00 8d 3e 8a eb 89 be 4f 70 a9 be 50 d5 00 3f
       0.27539662 -0.26937515 -0.33093497 0.5032549
000040 8a b8 de 3e 43 e4 aa be 1b 1d 84 be 0c 77 99 be
       0.43500167 -0.33377275 -0.25803456 -0.29973638
000050 c0 44 a5 be 16 03 aa be de a0 c2 3e b1 f0 58 be
       -0.32279015 -0.3320548 0.38013357 -0.21185566
000060 f1 83 af be 69 d6 94 be 38 2e 50 be d4 08 f6 3e
       -0.3428035 -0.29069832 -0.20330131 0.4805361
000070 a1 c2 05 3f 44 7b 98 be 71 4c b3 be c2 15 cb 3e
       0.52250105 -0.29781544 -0.35019258 0.39665037
000080 61 eb 51 3f fa f8 d5 3e ed 5f 84 be 91 e4 7c be
       0.81999785 0.41791517 -0.25854436 -0.24696566
000090 8c 59 ea 3e c7 ee ba be ef b7 d3 3e 32 6a 8b be
       0.45771444 -0.36510298 0.41351268 -0.27229458
0000a0 d8 a7 b6 be 05 ec be be dd 2a be 3f ee b4 ed 3e
       -0.3567493 -0.37289444 1.4856831 0.464271
0000b0 20 ac 91 be e3 f5 cb 3e 00 db 1a 3f 76 80 c5 be
       -0.28451633 0.39836034 0.6049042 -0.3857457
0000c0 86 1a d5 3e c7 b8 97 be ea 78 f3 3e 83 25 67 be
       0.41621798 -0.2963316 0.47553188 -0.22572903
0000d0 11 6d a9 be c6 8a 49 be 51 af 06 3f de cc b9 be
       -0.33091024 -0.19681844 0.5261126 -0.36289114
0000e0 c6 87 d2 3e 87 9b c2 3e 2b 83 61 be d5 f8 65 be
       0.41119212 0.38009283 -0.22022693 -0.22458203
0000f0 c7 3c 54 be 5b 3f 6c be 83 a8 c0 3e d6 78 b7 be
       -0.2072631 -0.23071043 0.37628564 -0.35834378
000100 40 86 73 be 47 2c 8b be cd 3d a6 be 4b 3c e7 3e
       -0.23781681 -0.27182218 -0.32469025 0.45163187
000110 11 ec 96 be 3f 07 b4 be 4e 41 ce 3e cb fb 9a be
       -0.2947698 -0.35161778 0.402842 -0.30270228
000120 5b 99 8e be 75 12 5c be 89 ee 82 be 31 50 0f 3f
       -0.27851376 -0.21491416 -0.25572613 0.5598174

fc4_adv.weight f4 [38, 76]
000000 3d 77 47 be 5e 2e 05 be b3 8c 8a 3e d5 9b b1 3e
       -0.1947908 -0.13005969 0.2706047 0.34689203
000010 a9 1c 57 3d 68 cc 5c bd 77 31 13 3e 5b 76 13 3e
       0.052517567 -0.053905874 0.14374338 0.14400618
000020 69 4f 8f 3e d7 3e 03 3e bf b0 3d 3b 3c d3 1c 3e
       0.27990273 0.1281694 0.002894446 0.15314955
000030 0b 60 35 bd 50 34 64 bd a9 6d 82 3f 20 44 38 be
       -0.044281047 -0.05571395 1.0189716 -0.17994738
000040 5a 88 1d 3e 07 c7 2c 3e 8a 4a 37 3e c0 b3 85 3e
       0.15384045 0.16872798 0.17899528 0.261137
000050 14 52 94 3d 1b 04 93 be 89 7b 81 3e 14 21 f1 3e
       0.07242218 -0.2871407 0.25289562 0.4709555
000060 c1 5b 6e 3d 38 2d 14 3e 68 66 36 3b a3 32 10 3e
       0.058192972 0.14470375 0.0027832035 0.14081816
000070 1b 35 aa 3c a5 b6 4e be c7 90 a1 3c 7e d7 5a 3e
       0.020777276 -0.20186861 0.019722356 0.21371266
000080 c0 a6 a9 bc 2d 72 2c 3e da ff d1 bc ff f3 0f 3d
       -0.020709395 0.1684043 -0.025634695 0.035144802
000090 e3 ef 36 3e 36 d0 9f 3e 6d 62 18 be 76 01 39 3d
       0.17864947 0.3121354 -0.14881296 0.04516741
0000a0 1d f2 53 3d c2 a1 56 3d c5 28 27 3e 16 da 6a 3d
       0.05174457 0.052400358 0.16324146 0.05733689
0000b0 5e e7 70 bd 01 b6 72 3e 7d c6 97 bd 90 7c e5 3e
       -0.0588144 0.23702241 -0.074109055 0.44821596
0000c0 7d a9 83 be d3 45 60 3e eb 61 e8 3e 59 c7 37 3e
       -0.25715247 0.21901636 0.45387205 0.17947139
0000d0 2a dc f9 3b 9f 0b 7d be 1b 8e 41 3e 0a 7c ed bd
       0.0076251226 -0.24711464 0.18901865 -0.11595924
0000e0 17 5a 72 3c d2 1f 03 be 0f 43 9d bd 96 a3 3d 3e
       0.014791987 -0.12805107 -0.07678806 0.18519434
0000f0 fe 96 6f 3e 5f c9 7f 3e c9 dd 18 3e 6d c5 65 3e
       0.23397443 0.2497916 0.14928354 0.22438593
000100 3c ac e9 3d e7 13 4b 3e 9b f9 1a be 03 36 09 3e
       0.11409804 0.19831811 -0.1513428 0.1339951
000110 82 f3 70 be b0 fe 8d bd a8 4d 11 be 0b 90 f6 bd
       -0.23530391 -0.069333434 -0.1418978 -0.12039193
000120 ba 1b a9 3e 3d 5e 05 3e 94 0e bd 3d 84 60 59 be
       0.33028966 0.1302423 0.09231296 -0.21228224
000130 e6 f2 1c be ff f9 dd bd 21 b3 39 3d f5 93 70 3e
       -0.15327033 -0.108386986 0.045336846 0.23493941
000140 0c 9a 41 3e 24 77 8a 3d ad f5 6a 3e 7b 06 a1 3e
       0.1890642 0.067610055 0.2294528 0.31450257
000150 a8 70 9b 3e fa 53 8f 3e 76 95 53 3e dd 1a a4 be
       0.30359387 0.27993757 0.20662484 -0.32051745
000160 89 2c 18 be c9 90 f5 bd 6d 10 a8 3f d8 45 2c bd
       -0.14860739 -0.11990506 1.3130013 -0.042058796
000170 89 aa 94 3d 78 7a 24 3e 3c 73 9c bd 5d a2 7d bd
       0.072590895 0.16062343 -0.07639167 -0.06192242
000180 91 69 93 3e ab 7a 52 3d 3e 95 f3 bd c6 61 8c 3e
       0.28791478 0.051386517 -0.118937 0.27418345
000190 99 e2 0f 3e 18 15 10 3e e6 0e b7 bd 0d ed 28 3e
       0.14051284 0.14070547 -0.089383885 0.16496678
0001a0 07 5c 06 3e 8d c4 10 3e 65 68 24 3d b4 1c cd 3e
       0.13121043 0.14137478 0.04013862 0.4006096
0001b0 03 d5 73 bd d4 91 f9 bd 89 0c b4 3c 38 f2 3a 3e
       -0.059529316 -0.12186018 0.021978633 0.18256462
0001c0 0b 75 d0 bd 4b b1 96 bd 78 ad aa bd 73 de 81 3e
       -0.10178574 -0.07358035 -0.08333868 0.25365028
0001d0 ba f4 8f 3d 20 8c 09 3e c6 d0 ce bd 30 36 a5 bd
       0.070291 0.1343236 -0.10098414 -0.08066976
0001e0 be 6d 16 3d c7 dd 33 3c 57 30 8b 3e ff 28 3d 3e
       0.036725752 0.010978169 0.27185318 0.1847267
0001f0 30 d8 90 bd 7b eb 17 bd 86 f4 bb 3e fa 39 97 3e
       -0.070724845 -0.037089806 0.36709994 0.2953642
000200 e7 a9 3a 3e 7d cf 85 be f0 e9 92 3e a5 b1 41 3e
       0.18228875 -0.26134863 0.28694105 0.18915422
000210 71 1d 2e be 39 42 4e be 60 4f 16 3e 0d 42 ae 3d
       -0.17003419 -0.2014245 0.14678717 0.08508692
000220 c5 19 91 3e a5 a5 89 3d 92 f6 1a be 47 1c 0f 3e
       0.28339973 0.06721047 -0.15133122 0.1397563
000230 64 5a d7 3c 3e 9a df bd f0 bc cc 3e 35 df a2 bd
       0.026288219 -0.10918091 0.39987898 -0.079527296
000240 2c b6 ad 3c b9 d1 18 be 20 ef b6 3e d6 86 a7 3c
       0.02120503 -0.14923753 0.35729313 0.020450037
000250 4b 5f f0 bc 32 97 0d be 7c fd e6 bd dd b1 69 3c
       -0.029342314 -0.13827208 -0.11278817 0.014263597
000260 9c 16 60 bd e5 d6 c4 bd b4 6e b8 3e c6 8f 5e 3e
       -0.054709062 -0.096113004 0.3602196 0.21734533
000270 ed 7f 8e 3e d8 14 e5 3d c4 75 48 3e 40 48 44 3d
       0.27831975 0.11185616 0.19576174 0.047920465
000280 28 b7 1c 3e 48 2a 05 be 30 7a 87 3e 74 0e 1c bd
       0.15304244 -0.1300441 0.2646041 -0.03809972
000290 4c 7e 7a 3b 2a f5 4d 3e 44 99 37 3f 73 a8 d4 be
       0.0038222251 0.20113054 0.7171824 -0.41534767
0002a0 45 ae d6 3d 78 12 cb bd b9 3e 18 be b8 66 81 3c
       0.10482458 -0.09915632 -0.14867677 0.01579605
0002b0 90 ff 81 3e e9 aa 52 be b7 20 a6 3e 5c 25 ac 3e
       0.2539029 -0.2057301 0.32446834 0.33622253
0002c0 14 58 03 3f 2d 59 69 3e 1a 74 fa 3d 6a c5 a1 3d
       0.5130627 0.22787924 0.12229176 0.07898982
0002d0 31 c7 0b be 18 61 b6 3e 7d f1 13 bd fb 2a b4 3e
       -0.13650204 0.35620952 -0.036118973 0.35189041
0002e0 33 47 17 3e a4 4d 96 3e 48 bf 95 3d 83 70 fa bd
       0.14773254 0.2935611 0.07311875 -0.12228491
0002f0 45 97 20 3e a6 3f 44 3b e3 bb 61 3e 47 9f bc bd
       0.15682705 0.0029945164 0.2204433 -0.09210067
000300 d0 8a d6 3d 41 56 f2 3d fc b6 01 3e e4 71 87 bd
       0.10475695 0.11832858 0.12667459 -0.0661352
000310 55 86 ee 3d 15 43 ad bd 73 61 98 bd e3 25 c9 3e
       0.116467156 -0.084600605 -0.07440462 0.39286718
000320 1a 4e eb bb a8 11 19 be 10 29 a1 3f 50 e6 ef 3e
       -0.0071809413 -0.14948142 1.2590656 0.46855402
000330 e5 52 f5 3d 5d 4c 9e bd 07 02 1b 3e 52 54 ae 3e
       0.119787015 -0.07729409 0.15137492 0.34048706
000340 6e 93 5a 3e f1 8a 95 3d dd a2 31 3f 29 9e cd 3e
       0.21345302 0.073018916 0.69389135 0.4015973
000350 67 36 26 3e 9c dd 89 bc 98 0b 3d be 70 81 ab 3e
       0.1623169 -0.016829304 -0.18461454 0.3349719
000360 e0 23 80 3e ce 39 6e 3e 29 b7 ff bd 8f 16 6e be
       0.2502737 0.23264238 -0.12486107 -0.23250793
000370 73 86 22 be 6e b6 ed bb 9a 76 02 3e 08 21 70 be
       -0.15871601 -0.0072544133 0.12740555 -0.234501
000380 01 30 85 3e 25 c3 88 be af 66 c7 bc 33 9b ab be
       0.26013187 -0.26711383 -0.024340956 -0.33516845
000390 56 7c d6 bd d7 a2 b4 bd b1 39 a4 3e 4a 15 b3 3d
       -0.10472934 -0.08820122 0.32075265 0.08744295
0003a0 c4 86 76 3e bb 96 56 3e 76 cc 4d 3d 15 3c 4b 3e
       0.24074847 0.20955937 0.050243817 0.19847138
0003b0 5b 1f 3e be 22 bb 15 3d 1f 2c 2d 3e 09 3b 37 3e
       -0.18566649 0.036555417 0.16911362 0.17893614
0003c0 5d a7 72 3c 64 1b bd 3c 78 df 87 3f 95 01 8a be
       0.01481041 0.02308435 1.0615072 -0.26954332
0003d0 c2 d5 8a 3e 2b ad d6 bd 53 ed 45 be 21 01 d6 3d
       0.2711621 -0.10482248 -0.19328813 0.10449434
0003e0 65 90 42 3d 22 2d 86 3d 54 21 9a 3e 60 e1 1e 3d
       0.047500987 0.06551577 0.30103552 0.038789153
0003f0 e8 67 b2 3e 0b 31 46 3c f4 f9 b3 3e e5 f2 5d 3e
       0.348449 0.012096654 0.35151637 0.21674688

fc4_adv.bias f4 [38]
000000 9a d3 15 3e 63 5d 8d bc 98 68 1a 3e 43 ca 8d bd
       0.14631501 -0.017256444 0.15078962 -0.06923344
000010 c7 cc 09 bd 99 50 67 bc cf 9b 48 3e d2 05 f4 bd
       -0.033642557 -0.014118337 0.19590686 -0.11915173
000020 7d 13 ec bd 09 25 28 be 50 58 eb bd 8c dd 21 3e
       -0.115271546 -0.16420378 -0.11491454 0.1580717
000030 21 d1 f6 3c f3 8d b5 3c c5 da 19 3e a2 d8 c7 3d
       0.030129017 0.022162413 0.1502486 0.09758116
000040 4f c3 12 3e e0 f7 40 be 83 4a 45 3e d3 7e 10 3d
       0.14332317 -0.18844557 0.19266705 0.0352772
000050 f1 91 ff 3d 31 80 40 3e 96 a8 19 3e 44 36 4e 3e
       0.12479008 0.18798901 0.15005717 0.20137888
000060 e6 c9 47 3e 3d f0 9b 3c 99 42 0f be d3 45 c6 bd
       0.19510612 0.019035453 -0.13990249 -0.09681287
000070 c5 e8 11 bd 34 da cb 3c cb fd ba b9 a8 d6 4d 3b
       -0.035622377 0.02488432 -0.00035665775 0.0031408463
000080 c2 ac a3 3d 58 8e 38 3e 03 b8 eb bd 7c 27 5b 3e
       0.07991935 0.1802305 -0.11509707 0.21401781
000090 c2 e6 0c be 04 1f 79 3e
       -0.13759902 0.24328238

fc4_val.weight f4 [1, 76]
000000 9d f0 50 3e ac c3 a6 3e de 7a 97 be 1f d8 f2 be
       0.20404287 0.3257116 -0.29585928 -0.47430512
000010 0e 0d 86 be a2 84 76 3e 9f f4 e6 3e b8 2b cf be
       -0.26181835 0.24074033 0.45108506 -0.40463042
000020 68 96 ba 3e a5 6b a7 3e d9 af d1 3e 46 a6 8c 3e
       0.36442876 0.32699314 0.40954474 0.27470607
000030 1e bb dd be 28 15 46 3e 56 fa 97 3e a9 e5 93 be
       -0.43306822 0.19344008 0.2968318 -0.28886154
000040 83 2a a9 be 90 19 ab 3e 41 60 8b 3e fe 50 9f 3e
       -0.33040246 0.3341794 0.27221873 0.3111648
000050 f2 66 a5 3e 24 59 ae 3e 31 d5 fc be 09 7c 7e 3e
       0.32305104 0.34052384 -0.49381402 0.24852003
000060 c9 dc 7e 3e df 76 50 3e df ff c0 3e 81 48 06 bf
       0.2488891 0.20357846 0.37695214 -0.5245438
000070 19 a0 02 bf de 81 32 3e 2e a5 7c 3e ad 9a 11 bf
       -0.5102554 0.17432353 0.24672386 -0.5687664
000080 65 5d e7 bf 8d 6a dd be f3 2a 6a 3e 06 b4 a2 3e
       -1.8075377 -0.43245354 0.22867946 0.31777972
000090 cb 96 e3 be aa 55 b3 3e 54 d7 cf be 74 2e 91 3e
       -0.44450983 0.35026294 -0.4059397 0.28355753
0000a0 66 f5 93 3e 40 45 c4 3e fb 78 21 c0 b5 d0 e7 be
       0.28898162 0.38334084 -2.523009 -0.45276418
0000b0 92 84 e5 3e 23 61 3f bf 38 7a 17 c0 34 ac d7 3e
       0.44827706 -0.74757594 -2.3668346 0.42123568
0000c0 fd 89 9e bf f2 a9 3d 3e 4e 66 f1 be 7e 09 a6 3e
       -1.2385861 0.1852186 -0.47148365 0.32429117
0000d0 a3 b5 76 3e 4c c8 31 3e 2d 3b a1 be 30 43 d2 3e
       0.24092726 0.17361563 -0.3149046 0.41066885
0000e0 c3 b1 a2 be 94 cf 61 bf be b2 dc 3e 92 12 5d 3e
       -0.31776246 -0.88207364 0.4310512 0.21589115
0000f0 d8 10 92 3e b4 a7 21 3e d1 71 c5 be 80 94 97 3e
       0.28528476 0.1578663 -0.38563398 0.29605484
000100 4c 95 42 3e a8 25 85 3e f3 55 cc 3e 09 fb bf be
       0.19002265 0.26005292 0.39909324 -0.37496212
000110 8b bd 5f 3e 6d b5 52 3e 22 ac de be ba 38 75 3e
       0.21849649 0.20577021 -0.43490702 0.2394742
000120 10 24 a8 3e 76 6c 59 3e d9 79 34 3e 07 47 93 bf
       0.32840014 0.21232781 0.17624606 -1.1506051

exp_avg f4 [1, 6, 1, 4]
000000 e3 f3 4c c0 94 36 8a be ad 6c 46 bd 50 7f 55 bd
       -3.2023857 -0.26994765 -0.048443485 -0.052123368
000010 13 b1 f7 c0 6d 52 d9 c0 1f 1d 50 c0 8a 9c a3 bf
       -7.7403655 -6.7913117 -3.2517774 -1.2782147
000020 ae 7b cb be ae 7b cb be ae 7b cb be 00 00 00 00
       -0.39742798 -0.39742798 -0.39742798 0.0
000030 50 c3 bf bd 3c b6 3e be 3c b6 3e be 04 00 00 00
       -0.09363425 -0.18624204 -0.18624204 6e-45
000040 fb 84 cb bc 74 39 21 bd 74 39 21 bd 00 00 00 00
       -0.024843683 -0.039361432 -0.039361432 0.0
000050 03 7d 74 be 70 80 60 be 70 80 60 be 04 00 00 00
       -0.23875813 -0.21923995 -0.21923995 6e-45

exp_avg_sq f4 [1, 6, 1, 4]
000000 c2 ae 4a 43 96 52 5e 41 39 57 ef 3f 99 5d 09 3d
       202.68265 13.895163 1.8698493 0.033536527
000010 11 d9 ee 44 78 91 69 44 6e a2 81 43 a1 79 0e 42
       1910.7833 934.27295 259.26898 35.61878
000020 64 4c 19 41 64 4c 19 41 64 4c 19 41 00 00 00 00
       9.58115 9.58115 9.58115 0.0
000030 28 06 f6 3f fa 34 aa 3f fa 34 aa 3f f4 01 00 00
       1.9220629 1.3297417 1.3297417 7e-43
000040 0e af a4 3e f1 de 48 3d f1 de 48 3d 00 00 00 00
       0.32164806 0.04904074 0.04904074 0.0
000050 78 45 c0 3f db 6a 91 3f db 6a 91 3f f4 01 00 00
       1.50212 1.1360735 1.1360735 7e-43

exp_avg f4 [1, 6, 2, 4]
000000 16 44 20 40 fe b9 e0 3d 63 df 23 be bb eb cb bc
       2.5041556 0.10972975 -0.16003184 -0.024892678
000010 93 f7 3b 40 20 24 8b 3d 63 6e a9 bd 7e 78 03 3d
       2.9369857 0.06794 -0.08273008 0.032097332
000020 c0 10 ae 40 f3 e5 a4 40 6e 3b 43 40 35 4d 94 3f
       5.4395447 5.15307 3.0505023 1.1586062
000030 84 d6 b4 40 6f 4f 82 40 85 6b ab 3f 68 0b 5c 3f
       5.651186 4.0721965 1.3392187 0.85954905
000040 72 4e 81 3e 72 4e 81 3e 72 4e 81 3e 51 8d c7 bb
       0.25255162 0.25255162 0.25255162 -0.0060898443
000050 f7 f9 3e 3e f7 f9 3e 3e f7 f9 3e 3e 62 80 5d bd
       0.18650042 0.18650042 0.18650042 -0.054077514
000060 e0 6f 2c 3e 5a df 2a 3e 5a df 2a 3e 56 99 21 bb
       0.16839552 0.16686764 0.16686764 -0.0024658046
000070 dd 03 86 3d 95 f1 e7 3d 95 f1 e7 3d 24 8f 62 ba
       0.065437056 0.11325375 0.11325375 -0.00086425454
000080 03 c7 37 3e 17 e1 40 3e 17 e1 40 3e c9 6b a4 3c
       0.1794701 0.18835865 0.18835865 0.020070927
000090 c7 de d6 3d 6e 53 d9 3d 6e 53 d9 3d ad 1a 3c 3c
       0.1049171 0.10611616 0.10611616 0.011480969
0000a0 76 a7 af 3e f3 46 93 3e f3 46 93 3e 44 91 bc 3c
       0.3430745 0.28765067 0.28765067 0.023018487
0000b0 11 73 a1 3e 68 d8 86 3e 68 d8 86 3e cb e5 f2 3c
       0.315331 0.2633698 0.2633698 0.02965059

exp_avg_sq f4 [1, 6, 2, 4]
000000 d4 9e c0 42 02 54 6d 40 33 22 e9 3e 7c f1 12 3c
       96.31021 3.7082524 0.45533904 0.008968707
000010 e5 28 d9 42 87 a5 07 41 f0 87 66 3f ca a9 81 3c
       108.57987 8.477912 0.90051174 0.015828032
000020 bc 9a 61 44 8f 67 e7 43 14 6f 1e 43 8f 1b a8 41
       902.4177 462.80905 158.4339 21.013456
000030 d1 ec 40 44 ef 29 58 43 8b 42 22 42 26 a8 d3 40
       771.70026 216.1638 40.564983 6.614276
000040 f0 18 d3 40 f0 18 d3 40 f0 18 d3 40 84 a8 c7 3d
       6.596794 6.596794 6.596794 0.09748939
000050 a8 ff d2 40 a8 ff d2 40 a8 ff d2 40 64 02 bd 3d
       6.593708 6.593708 6.593708 0.092289716
000060 0e 7c 87 3f 30 60 3a 3f 30 60 3a 3f 4b e9 c8 3d
       1.0584733 0.7280302 0.7280302 0.09810122
000070 a1 1b f7 3f 3f 35 c2 3f 3f 35 c2 3f 42 72 1a 3e
       1.9305307 1.51725 1.51725 0.15082648
000080 57 f4 30 3f 57 c3 22 3f 57 c3 22 3f 34 7c 08 3d
       0.69122833 0.63579315 0.63579315 0.033321574
000090 49 0e b9 3f 73 aa b2 3f 73 aa b2 3f 28 19 36 3d
       1.4457484 1.3958267 1.3958267 0.044457585
0000a0 2b ca 09 40 99 b5 ed 3f 99 b5 ed 3f b3 6a 53 3d
       2.1529644 1.8571044 1.8571044 0.05161543
0000b0 c5 32 00 40 69 5d da 3f 69 5d da 3f e9 46 a7 3d
       2.0030987 1.7059757 1.7059757 0.08167822

exp_avg f4 [1, 6, 3, 4]
000000 78 6b 0d 40 c1 5b 9f be 6c 92 bd bd 3d 04 f8 3c
       2.2096844 -0.3112469 -0.092564434 0.030275458
000010 92 94 31 40 44 8c 8f 3e 8b 69 a4 bd 6b ea 24 3d
       2.774693 0.28036702 -0.08027943 0.04026262
000020 b8 6c 02 40 ec be 27 bf 6b c1 0c be 22 9c 56 3d
       2.0378857 -0.655257 -0.13745658 0.052394994
000030 25 b0 3a 3f 04 cf d0 3f d4 8d 12 3f a3 7c 8d 3e
       0.72925025 1.6313176 0.5724766 0.27634153
000040 2e 37 37 3f 2c b5 98 3f c3 a9 a7 3d 9b 71 1e be
       0.7156857 1.1930289 0.08186676 -0.15473025
000050 c4 46 91 bd bc 36 07 40 48 27 7c 3f 71 98 11 3f
       -0.070935756 2.1127157 0.9849744 0.5687323
000060 41 47 80 3e 40 47 80 3e 40 47 80 3e c7 80 d8 bc
       0.25054362 0.2505436 0.2505436 -0.026428593
000070 c4 9d b2 3e c5 9d b2 3e c7 9d b2 3e 56 4b df bd
       0.3488599 0.34885994 0.34886 -0.10903041
000080 c7 24 86 3d d0 24 86 3d c9 24 86 3d 91 d6 c7 bd
       0.065499835 0.0654999 0.06549985 -0.09757722
000090 69 a5 cb bd e4 bb 95 bd e4 bb 95 bd e6 80 a0 bb
       -0.09943659 -0.07311228 -0.07311228 -0.0048981784
0000a0 11 05 99 be 19 79 7e be 19 79 7e be 02 39 fd bb
       -0.29886678 -0.24850883 -0.24850883 -0.007727743
0000b0 fc 12 3d bd f2 c4 02 3d f2 c4 02 3d 34 f7 04 3c
       -0.046160683 0.031926103 0.031926103 0.008115578
0000c0 01 78 28 3d 51 ed 5d 3d 4d ed 5d 3d 61 06 64 3c
       0.04113007 0.0541814 0.054181386 0.0139175365
0000d0 48 98 40 3e 33 05 44 3e 33 05 44 3e 0c f8 84 3c
       0.1880809 0.19142608 0.19142608 0.01623156
0000e0 07 4f 42 3d 83 5b 6b 3d 7f 5b 6b 3d 6f 8f 4d bc
       0.047438648 0.05746032 0.057460304 -0.012546404
0000f0 91 77 c3 3e dc d9 bf 3e dc d9 bf 3e d6 64 33 bd
       0.3817716 0.374709 0.374709 -0.043797337
000100 63 31 14 3e c8 e9 26 3e c7 e9 26 3e 6c 35 92 bd
       0.14471965 0.16300118 0.16300116 -0.07139096
000110 db a8 31 3d 58 0d 34 3d 54 0d 34 3d ff 3e c5 bc
       0.043373924 0.043958038 0.043958023 -0.02407789

exp_avg_sq f4 [1, 6, 3, 4]
000000 bd e3 0f 43 23 fa 41 41 d9 18 d7 3f a8 69 89 3c
       143.8896 12.123569 1.6804458 0.016774014
000010 49 f7 0c 43 6f bd 5a 41 c2 66 e8 3f c6 e3 26 3d
       140.96596 13.671248 1.8156359 0.040744565
000020 21 f8 06 43 99 83 4d 41 2a c7 ab 3f 50 22 aa 3c
       134.96925 12.844628 1.3420155 0.020768315
000030 80 8c af 44 86 96 f6 43 e8 64 c1 42 3d 79 b6 40
       1404.3906 493.17596 96.69708 5.7022996
000040 6f 99 b2 44 a8 d6 07 44 ba 8d f6 42 5d ac 86 41
       1428.7948 543.354 123.27681 16.834162
000050 e1 ff bc 44 f9 5a 3a 44 3e 37 3d 43 4f 6f c3 41
       1511.9962 745.42145 189.21579 24.42935
000060 de 3a fe 40 de 3a fe 40 de 3a fe 40 14 8a 85 3e
       7.944686 7.944686 7.944686 0.26081908
000070 f1 f5 07 41 f1 f5 07 41 f1 f5 07 41 ce 99 7d 3e
       8.497544 8.497544 8.497544 0.24765703
000080 ba 20 eb 40 bb 20 eb 40 bb 20 eb 40 46 48 5f 3e
       7.347745 7.3477454 7.3477454 0.21804914
000090 18 24 4f 40 da 47 26 40 da 47 26 40 a0 06 1c 3e
       3.236578 2.5981355 2.5981355 0.15236902
0000a0 4b 8f 45 40 fa fc 22 40 f8 fc 22 40 73 86 e7 3d
       3.086871 2.5466905 2.54669 0.11304941
0000b0 ef 75 05 40 df 4f ba 3f e0 4f ba 3f be d5 17 3e
       2.085323 1.4555625 1.4555626 0.1482763
0000c0 d5 d8 2f 40 e6 55 23 40 e6 55 23 40 23 01 c9 3d
       2.7476094 2.5521178 2.5521178 0.0981467
0000d0 61 4d 1c 40 5c a6 12 40 5d a6 12 40 57 f7 9a 3d
       2.4422228 2.2914038 2.291404 0.075667076
0000e0 09 05 1f 40 4c 79 17 40 4d 79 17 40 c1 15 5d 3d
       2.4846823 2.3667784 2.3667786 0.053975824
0000f0 e7 da 35 40 35 6d 21 40 35 6d 21 40 d2 8e e9 3d
       2.8414857 2.5222905 2.5222905 0.11404194
000100 17 ea 32 40 28 ef 1c 40 29 ef 1c 40 0a d5 4f 3d
       2.7955377 2.452097 2.4520972 0.05074028
000110 ec d6 29 40 20 6b 17 40 1f 6b 17 40 2f 85 d5 3d
       2.6537428 2.3659134 2.3659132 0.104257934

exp_avg f4 [1, 6, 4, 4]
000000 4f db 58 40 2e ba e5 bc 32 98 a8 bd f9 1c 7a 3d
       3.3883855 -0.028042879 -0.08232154 0.061062787
000010 99 0f 1d 40 cd 75 cf bd 98 af a6 bd 44 3d 53 bc
       2.454077 -0.101298906 -0.081389606 -0.012893025
000020 82 9c 57 40 f8 13 2e bf 77 81 68 be bb 96 e2 3c
       3.3689275 -0.6799922 -0.22705637 0.027659765
000030 ad bb 87 40 cf cd 42 bf 4d ad 87 be 80 b8 4f 3d
       4.2416596 -0.7609529 -0.26499406 0.050713062
000040 b7 ab 69 40 a2 1c b6 40 32 71 29 40 1a b2 b9 3f
       3.6511056 5.690995 2.647534 1.4507477
000050 f7 4d 24 40 06 33 9f 40 ea 59 1c 40 28 b7 4c 3f
       2.5672586 4.9749784 2.442988 0.79966974
000060 bd e0 3b 40 8e 33 99 40 00 7f fd 3f aa 36 60 3f
       2.935592 4.7875433 1.9804382 0.8758341
000070 de e3 3c 40 6c 3c ae 40 4b 60 2c 40 fa ff 6e 3f
       2.951408 5.4448757 2.6933773 0.9335934
000080 04 40 9f 3e 05 40 9f 3e 06 40 9f 3e 84 11 1c 3d
       0.31103528 0.3110353 0.31103534 0.03810264
000090 47 77 ae 3e 47 77 ae 3e 47 77 ae 3e a9 08 f6 bc
       0.34075376 0.34075376 0.34075376 -0.030033426
0000a0 c6 de db be c4 de db be c6 de db be f9 b0 b0 bd
       -0.429434 -0.42943394 -0.429434 -0.08627505
0000b0 d9 41 3d bf d6 41 3d bf d6 41 3d bf 0d 56 2e be
       -0.739286 -0.7392858 -0.7392858 -0.17025013
0000c0 a3 db d2 be c3 d3 a5 be c6 d3 a5 be 1f ac 65 bd
       -0.41183195 -0.32388124 -0.32388133 -0.05607235
0000d0 5f cd 42 be 1b fb ab bd 19 fb ab bd 27 93 ef bc
       -0.19023655 -0.08397504 -0.083975025 -0.029244972
0000e0 6f 89 56 be 03 84 02 be 05 84 02 be 77 3e 50 bc
       -0.20950864 -0.12745671 -0.12745674 -0.012710205
0000f0 3f bc a9 be 9c 59 8a be 9e 59 8a be 4e 10 01 bd
       -0.33151433 -0.27021492 -0.27021497 -0.03150969
000100 c7 f1 a1 3d 51 3d c3 3d 4f 3d c3 3d e4 71 d7 3c
       0.079074435 0.095331796 0.09533178 0.026299424
000110 57 08 f6 3e e3 a0 fd 3e e4 a0 fd 3e ee 40 e4 3b
       0.48053238 0.4953681 0.49536812 0.006965748
000120 5d 05 ce 3e 69 e2 da 3e 69 e2 da 3e cb 75 c9 3b
       0.40238467 0.42750862 0.42750862 0.006148075
000130 5a 15 d5 3e ec c3 e6 3e eb c3 e6 3e 17 60 6a 3d
       0.41617852 0.45071352 0.4507135 0.057220545
000140 dd 07 1b bc a8 d9 3e bc a8 d9 3e bc 70 2b 4f bd
       -0.009462324 -0.011648573 -0.011648573 -0.050578535
000150 f9 93 5c bd ed 4c a5 bd ed 4c a5 bd 3a c2 22 bd
       -0.053852055 -0.08071313 -0.08071313 -0.03973601
000160 4c 66 57 3e 10 91 5a 3e 12 91 5a 3e f0 5c 19 bd
       0.21035117 0.213444 0.21344402 -0.037442148
000170 ba 53 90 3e 3c 59 86 3e 3d 59 86 3e 2c df eb 3a
       0.28188878 0.26239955 0.26239958 0.0017995588

exp_avg_sq f4 [1, 6, 4, 4]
000000 00 a2 a4 43 bf 90 c4 41 37 67 6d 40 6f a5 3e 3d
       329.26562 24.570677 3.7094247 0.04654449
000010 1c b1 a6 43 e6 80 d5 41 ad 8a 4a 40 c7 d3 07 3d
       333.38367 26.687939 3.164714 0.03316095
000020 3a ba 95 43 02 b9 c3 41 e2 55 2c 40 10 05 d1 3c
       299.4549 24.465336 2.6927419 0.02551511
000030 b7 5d 92 43 fe 91 ac 41 f2 61 1a 40 f3 c8 1f 3d
       292.73215 21.571285 2.412228 0.03901
000040 00 23 64 45 18 a6 ba 44 1f 8e b1 43 9a 94 2c 42
       3650.1875 1493.1904 355.11032 43.14512
000050 77 17 62 45 c3 52 ae 44 f6 6f ae 43 11 4c 30 42
       3617.4666 1394.5863 348.8747 44.074284
000060 e6 74 5f 45 3a c7 a8 44 90 13 95 43 05 8d 00 42
       3575.3062 1350.2258 298.15283 32.137714
000070 bc c5 5f 45 bd c6 aa 44 81 06 96 43 8d 1c f3 41
       3580.3584 1366.2106 300.0508 30.38894
000080 3c d2 a3 41 3b d2 a3 41 3a d2 a3 41 c8 41 d1 3e
       20.477654 20.477652 20.47765 0.408705
000090 d1 fc 9c 41 d1 fc 9c 41 d2 fc 9c 41 d4 cf c5 3e
       19.623446 19.623446 19.623447 0.38635123
0000a0 8a 41 a0 41 89 41 a0 41 88 41 a0 41 ed 15 d0 3e
       20.032001 20.032 20.031998 0.40641728
0000b0 37 b3 9e 41 37 b3 9e 41 36 b3 9e 41 dc 00 eb 3e
       19.837507 19.837507 19.837505 0.45899093
0000c0 07 5d c3 40 80 62 90 40 7f 62 90 40 7e e5 42 3e
       6.105106 4.512024 4.5120234 0.19032857
0000d0 cb 95 b8 40 c8 68 7c 40 c8 68 7c 40 cc e7 37 3e
       5.7682853 3.9438953 3.9438953 0.17959517
0000e0 fe 74 e2 40 cc 0d a4 40 cd 0d a4 40 93 94 3b 3e
       7.0767813 5.126684 5.1266847 0.18318395
0000f0 42 ed d5 40 db af 99 40 db af 99 40 f6 2f d7 3e
       6.685212 4.8027167 4.8027167 0.4202878
000100 60 d9 a2 40 2c 86 8e 40 2c 86 8e 40 55 12 ef 3d
       5.089035 4.4538784 4.4538784 0.116734184
000110 5c 5f 86 40 e7 a2 6a 40 e6 a2 6a 40 67 fa aa 3d
       4.1991405 3.6661928 3.6661925 0.08348542
000120 2f cf bd 40 ca d8 a8 40 cb d8 a8 40 08 84 ac 3d
       5.931541 5.2764635 5.276464 0.084236205
000130 e8 6b af 40 93 5f 9b 40 92 5f 9b 40 76 64 aa 3d
       5.481922 4.855417 4.8554163 0.08319943
000140 dd fe a5 40 c8 bb 98 40 c8 bb 98 40 80 40 e9 3d
       5.1873612 4.7729225 4.7729225 0.113892555
000150 1d 29 bc 40 09 dc ad 40 09 dc ad 40 39 81 67 3e
       5.8800187 5.4331098 5.4331098 0.22607888
000160 48 f8 d7 40 79 f9 c2 40 7a f9 c2 40 fa d3 51 3e
       6.749058 6.092953 6.0929537 0.20491019
000170 d3 a2 c6 40 5b 40 b2 40 5b 40 b2 40 b1 db 80 3e
       6.207376 5.570356 5.570356 0.2516761
