TrainedModel/Dueling DQN-1/20000_0-04_DuelingDQN.pth (torch, 291221 bytes, 33 tensors)

conv1.weight f4 [1, 6, 1, 4]
1.2839841 0.3464191 0.26492113 0.4922532 0.20982048 0.18001986 0.28284585 0.24396007
0.104360506 0.03863018 -0.31831208 -0.3785432 0.028792253 0.28898492 -0.51683223 -0.14739043
-0.09782016 -0.17376788 -0.23753394 -0.45007846 0.03171803 0.044670936 -0.34779564 -0.46260977
00000000: 9759 a43f d85d b13e bea3 873e 9d08 fc3e
00000010: 2edb 563e 2057 383e 2cd1 903e abd0 793e
00000020: f6ba d53d ae3a 1e3d cdf9 a2be 6ad0 c1be
00000030: bbdd eb3c d5f5 933e 1e4f 04bf 84ed 16be
00000040: f055 c8bd 35f0 31be 193c 73be af70 e6be
00000050: c4ea 013d dff8 363d 4512 b2be 30db ecbe

conv2.weight f4 [1, 6, 2, 4]
-0.065776415 -0.009887 0.29309434 0.16820534 -0.17585248 0.6625429 0.59418124 -0.47818446
0.17267925 0.51511055 0.36355945 -0.17762786 0.0019698988 -0.5186169 -0.4662597 -0.059330553
0.50236493 0.24142313 0.22824755 -0.37960958 0.082585186 -0.27762988 0.29321584 -0.93920374
-0.10560301 -0.21152037 0.21900496 0.24518786 -0.03650029 -0.25549975 0.32026452 -0.15540692
-0.07987496 -0.25324562 0.31559932 0.41565445 -0.08686658 0.21668826 -0.043089487 -0.17930599
0.13069136 0.1271973 -0.15499261 0.43656415 -0.067562416 0.08931929 0.06915478 0.08588052
00000000: c9b5 86bd 15fd 21bc 7610 963e 053e 2c3e
00000010: ac12 34be 699c 293f 431c 183f 98d4 f4be
00000020: d4d2 303e 49de 033f 7724 ba3e 14e4 35be
00000030: 6b19 013b 14c4 04bf 97b9 eebe 9804 73bd
00000040: fd9a 003f a037 773e bab9 693e 305c c2be
00000050: 6c22 a93d 8125 8ebe 6320 963e a86f 70bf
00000060: 6446 d8bd cc98 58be d642 603e 8712 7b3e
00000070: 5481 15bd ddd0 82be b6f9 a33e fe22 1fbe
00000080: 7c95 a3bd 69a9 81be 3c96 a13e a9d0 d43e
00000090: 1be7 b1bd 87e3 5d3e 9a7e 30bd fd9b 37be
000000a0: f5d3 053e 0240 023e 62b6 1ebe 5685 df3e
000000b0: 2a5e 8abd 08ed b63d 05a1 8d3d 20e2 af3d

conv3.weight f4 [1, 6, 3, 4]
0.20371157 0.27825788 -0.11532933 0.18644439 0.3314565 0.64615405 -0.21007746 0.55253726
0.061258208 0.4685534 0.03640409 0.5417935 -0.1237545 -0.2359508 -0.1397477 -0.089730226
-0.0099936435 -0.11813501 -0.060448933 0.015232772 0.11994624 0.25159204 0.03086879 -0.035049792
0.0361698 -0.09856616 -0.09731207 0.0948419 -0.18269801 0.104414046 -0.00060813053 0.100517265
0.13094868 -0.2503715 0.1018179 0.48081654 -0.19374228 0.0660945 0.1310615 0.044546593
0.1595 0.18982552 -0.1171584 -0.18912284 -0.036691274 -0.15612844 0.10278278 0.2879819
-0.023149243 0.059533175 0.08691783 -0.07188885 0.090359725 -0.30629382 0.18459247 0.27514365
-0.041488536 0.26178938 -0.10162987 -0.06696277 -0.029427178 0.018558362 0.045746967 0.16834801
-0.12535293 0.016129006 0.06731934 -0.27469417 0.13048922 -0.14231355 0.107067905 0.3225246
00000000: c499 503e d177 8e3e c931 ecbd 47eb 3e3e
00000010: abb4 a93e 5a6a 253f 8c1e 57be 1573 0d3f
00000020: e3e9 7a3d 3be6 ef3e 741c 153d fbb2 0a3f
00000030: 0073 fdbd 169d 71be 051a 0fbe 7bc4 b7bd
00000040: 61bc 23bc c5f0 f1bd 4d99 77bd e092 793c
00000050: 60a6 f53d acd0 803e 8be0 fc3c 5f90 0fbd
00000060: c926 143d 0edd c9bd 8d4b c7bd 783c c23d
00000070: 3015 3bbe 08d7 d53d f36a 1fba ffdb cd3d
00000080: 6917 063e b130 80be e785 d03d 962d f63e
00000090: 6064 46be 8e5c 873d fc34 063e 7d76 363d
000000a0: f853 233e 9f61 423e bef0 efbd 6ba9 41be
000000b0: 9749 16bd 22e0 1fbe c77f d23d 5d72 933e
000000c0: 7ba3 bdbc 0fd9 733d fa01 b23d 763a 93bd
000000d0: 850e b93d 8bd2 9cbe cf05 3d3e a1df 8c3e
000000e0: e2ef 29bd 4209 863e 5223 d0bd c723 89bd
000000f0: 4411 f1bc b507 983c 2c61 3b3d 6c63 2c3e
00000100: 855c 00be fa20 843c b9de 893d b7a4 8cbe
00000110: f79e 053e a5ba 11be 6b46 db3d f221 a53e

conv4.weight f4 [1, 6, 4, 4]
0.3271867 -0.11687204 0.16646254 0.069942616 0.36242187 -0.44475824 -0.11160606 -0.02361316
0.055841498 -0.14717503 0.019281827 0.15752126 0.31722873 -0.40744123 -0.09335193 0.09620479
0.11724264 0.14404634 0.044341836 -0.022815555 -0.08615997 -0.05081229 0.01913504 0.069974914
-0.032854293 -0.10060037 -0.080716096 -0.072569825 -0.053440575 -0.07196035 -0.10632442 -0.082628734
0.050953418 -0.122875385 0.115762256 0.15232398 0.11079861 -0.027881263 -0.12442281 0.0042761727
0.20017597 -0.23788588 -0.059690163 -0.076450884 -0.29249662 0.11971973 0.005616451 0.28994155
0.010542308 -0.06879355 0.049094185 0.0766129 -0.09279569 0.08600404 -0.081096515 -0.0052458
0.107764676 -0.017294494 -0.039472707 -0.22201732 -0.00042654725 -0.0073869624 0.098999165 -0.02533293
-0.05619724 -0.088372104 0.06609145 0.12846108 -0.06564347 -0.07689917 0.0104840575 0.016929412
-0.019083014 -0.09080976 0.15023655 0.17253365 -0.001766224 -0.07312529 0.15695687 -0.038129434
-0.09476324 0.00016241147 -0.09161318 0.09858024 0.14241463 -0.002189577 -0.18169507 -0.07759896
-0.114982136 -0.05234792 0.13475493 -0.06273571 -0.090464495 0.07418309 0.078212835 0.033927653
00000000: 0485 a73e 9c5a efbd 2875 2a3e 133e 8f3d
00000010: 5c8f b93e 5ab7 e3be b891 e4bd 6370 c1bc
00000020: 0eba 643d 0db5 16be ecf4 9d3c 414d 213e
00000030: ce6b a23e 239c d0be 4c2f bfbd 0407 c53d
00000040: e91c f03d e280 133e c99f 353d b0e7 babc
00000050: a374 b0bd 8c20 50bd 16c1 9c3c 024f 8f3d
00000060: 3992 06bd 9107 cebd 7b4e a5bd 7d9f 94bd
00000070: 81e4 5abd f35f 93bd 9ec0 d9bd 4139 a9bd
00000080: 88b4 503d 17a6 fbbd c314 ed3d d1fa 1b3e
00000090: 62ea e23d 3f67 e4bc 63d1 febd 231f 8c3b
000000a0: eefa 4c3e 5b98 73be ac7d 74bd 4892 9cbd
000000b0: 1ec2 95be 9e2f f53d 350a b83b 3873 943e
000000c0: a5b9 2c3c a2e3 8cbd fc16 493d 39e7 9c3d
000000d0: ab0b bebd e322 b03d ee15 a6bd f6e4 abbb
000000e0: bab3 dc3d 2fad 8dbc 22ae 21bd 8258 63be
000000f0: 34a2 dfb9 550e f2bb 13c0 ca3d 0187 cfbc
00000100: 142f 66bd 6ffc b4bd f45a 873d 4d8b 033e
00000110: 1570 86bd 507d 9dbd 53c5 2b3c 8daf 8a3c
00000120: fb53 9cbc 78fa b9bd 9cd7 193e a9ac 303e
00000130: a580 e7ba b6c2 95bd 4db9 203e 9c2d 1cbd
00000140: 3b13 c2bd ff4c 2a39 b19f bbbd 70e4 c93d
00000150: 24d5 113e 027f 0fbb 460e 3abe 34ec 9ebd
00000160: c17b ebbd c66a 56bd 32fd 093e 947b 80bd
00000170: 7345 b9bd 4eed 973d 0d2e a03d b9f7 0a3d

fc3_adv.weight f4 [76, 130]
0.22202937 0.15502848 0.15157802 -0.13602859 -0.039843988 -0.1400213 0.3064445 0.14609572
0.099143356 0.012530811 -0.0196402 0.05465143 0.33223435 0.38657752 0.14782679 0.08376918
0.24752529 0.13446677 0.10103725 0.07655581 0.28351095 -0.2391359 -1.0346215 -0.5527989
-0.58549875 -0.7356886 -0.4639195 -0.002068166 0.10395545 0.14400904 -0.04606426 0.03868416
0.03483214 0.01786072 -0.13206685 0.22837727 0.20834388 0.090615846 -0.021435449 0.31328577
0.1360367 0.32380334 0.15500073 0.34925136 0.12032841 0.2941484 0.14829354 0.440235
0.512767 0.035318974 0.24352297 0.16715962 0.008208597 -0.08275252 0.13275248 0.33602202
-0.06809529 -0.09701131 0.17374827 0.25848678 0.27525684 0.24363737 0.02656627 -0.0659645
-0.17729148 0.13937077 0.32381245 0.35940275 0.28657308 0.26214376 0.2217499 -0.06097272
-0.0023843276 0.38181677 0.12335554 -0.028373268 0.2161875 0.16678548 0.015874375 0.38759992
0.017961387 0.18266268 0.16750123 0.36452565 0.12631491 -0.09454282 0.037421253 0.062061403
-0.50263023 -0.65700865 -0.62835056 -0.8417629 -0.6916902 -0.0077487347 -0.10647151 0.11299211
-0.25563526 -0.03637873 -0.047905136 0.038434457 0.287484 -0.017839875 0.01043428 -0.06370944
0.067475095 0.0876415 0.01124621 0.0010212644 0.1851028 0.045512144 0.14083599 0.068218336
0.14305617 -0.09026376 0.07991998 0.37711164 0.22913317 -0.27596357 -0.02540674 -0.04323688
-0.3600719 -0.3034771 -0.17984407 -0.2383158 -0.51491183 -0.2112281 -0.10835408 0.027059106
-0.15357614 0.14578365 0.32276893 0.37852415 0.21275346 0.36409947 0.22433822 0.29121467
-0.0009479618 0.20573007 0.29984903 0.27978674 0.26266125 0.41396573 0.44850284 0.08445291
-0.026180198 0.37821957 0.31421763 0.4066843 0.105029516 0.26161912 0.38675785 0.2287423
0.0348815 0.22429858 0.39963704 0.4100474 0.30245176 0.05057089 0.19601835 0.19513921
0.4741437 0.18567614 0.3022621 0.100541905 -0.15794472 -0.18891475 -0.16593748 -0.001712213
0.07128351 -0.25035644 -0.17373791 0.080273814 0.13282746 -0.23988292 0.014856681 -0.07378435
0.16460042 0.04112679 -0.12266337 -0.115431674 -0.07592521 -0.24517716 -0.12766272 -0.14081964
-0.029620448 -0.13586807 0.1200364 -0.0073018307 -0.046713065 -0.053623725 -0.14968528 0.12183281
-0.35904676 -0.031681295 -0.08267899 -0.024523335 0.12789245 0.1401308 0.02753695 0.2542198
0.036432605 0.24624407 0.07728343 -0.1456783 -0.078402005 0.0539185 0.079879425 0.019522004
0.032564234 0.32418877 0.06791131 -0.1325762 -0.026599629 4.155665e-05 0.02294679 0.19820157
-0.073788315 0.06773458 0.19289061 0.03532304 0.15583837 0.31584492 0.03325715 -0.18388568
-0.24667212 -0.068368085 -0.18225153 0.1217148 0.07693617 0.010974615 -0.23387095 0.070277296
-0.029796593 -0.16173095 -0.15649022 -0.0032599594 -0.15324959 -0.09281101 0.04498104 -0.032309446
-0.19511451 -0.06842956 0.0024811646 -0.09999847 -0.17661044 -0.17631163 0.17038062 -0.047174096
-0.017916773 -0.079019375 -0.2405788 -0.03288148 -0.116101764 0.17091359 -0.005307239 0.28468585
00000000: ab5b 633e c9bf 1e3e 4537 1b3e 144b 0bbe
00000010: 7333 23bd be61 0fbe 4be6 9c3e 1e9a 153e
00000020: ac0b cb3d 084e 4d3c 7ce4 a0bc 2eda 5f3d
00000030: 9f1a aa3e 7ded c53e e85f 173e 2d8f ab3d
00000040: 4577 7d3e a8b1 093e 9eec ce3d 4bc9 9c3d
00000050: 5928 913e 0be0 74be 7a6e 84bf 3b84 0dbf
00000060: 3fe3 15bf 1756 3cbf db86 edbe 118a 07bb
00000070: 98e6 d43d 1b77 133e e1ad 3cbd 4873 1e3d
00000080: 25ac 0e3d a550 923c 883c 07be bbdb 693e
00000090: 1958 553e cd94 b93d 6599 afbc fe66 a03e
000000a0: 344d 0b3e 8dc9 a53e 83b8 1e3e 13d1 b23e
000000b0: be6e f63d 9e9a 963e 43da 173e 7b66 e13e
000000c0: b344 033f a1aa 103d 165e 793e e42b 2b3e
000000d0: 5a7d 063c 277a a9bd 44f0 073e 140b ac3e
000000e0: 8b75 8bbd dead c6bd 11eb 313e 6158 843e
000000f0: 77ee 8c3e 137c 793e 82a1 d93c 6518 87bd
00000100: e68b 35be 36b7 0e3e bfca a53e a303 b83e
00000110: b5b9 923e b537 863e 6812 633e 88be 79bd
00000120: 6142 1cbb 7d7d c33e d4a1 fc3d 0e6f e8bc
00000130: 4260 5d3e d0c9 2a3e fa0a 823c 7f73 c63e
00000140: c223 933c ed0b 3b3e 7185 2b3e 1ba3 ba3e
00000150: b258 013e aa9f c1bd 0747 193d 1934 7e3d
00000160: 60ac 00bf b831 28bf 95db 20bf c67d 57bf
00000170: 9c12 31bf 19e9 fdbb bc0d dabd 6868 e73d
00000180: a0e2 82be dd01 15bd 2d38 44bd 736d 1d3d
00000190: 1a31 933e ee24 92bc 8bf4 2a3c 187a 82bd
000001a0: 6230 8a3d 637d b33d 0642 383c f2db 853a
000001b0: 978b 3d3e f16a 3a3d 4f37 103e 0eb6 8b3d
000001c0: 517d 123e 35dc b8bd 16ad a33d c714 c13e
000001d0: e3a1 6a3e 194b 8dbe cc21 d0bc 2819 31bd
000001e0: 585b b8be 5a61 9bbe 0b29 38be 0f09 74be
000001f0: 43d1 03bf 2e4c 58be bee8 ddbd 0fab dd3c
00000200: 1043 1dbe 4f48 153e f841 a53e ebcd c13e
00000210: 0bdc 593e 3f6b ba3e ebb8 653e 171a 953e
00000220: a480 78ba e7aa 523e d085 993e 3540 8f3e
00000230: 897b 863e 51f3 d33e 2aa2 e53e a6f5 ac3d
00000240: db77 d6bc ffa5 c13e 22e1 a03e ed38 d03e
00000250: b719 d73d f1f2 853e 2005 c63e 6c3b 6a3e
00000260: e7df 0e3d 87ae 653e 3a9d cc3e bcf1 d13e
00000270: f5da 9a3e 6c23 4f3d 09b9 483e 93d2 473e
00000280: f7c2 f23e e321 3e3e 19c2 9a3e eae8 cd3d
00000290: 43bc 21be de72 41be 84eb 29be 566c e0ba
000002a0: 17fd 913d b82e 80be 5ae8 31be 9966 a43d
000002b0: ec03 083e dea3 75be 7069 733c 401c 97bd
000002c0: 038d 283e 9174 283d ef36 fbbd 7167 ecbd
000002d0: ad7e 9bbd b90f 7bbe 04ba 02be 0633 10be
000002e0: 95a6 f2bc 0021 0bbe a5d5 f53d 3244 efbb
000002f0: 3356 3fbd 8da4 5bbd 1947 19be 7b83 f93d
00000300: fad4 b7be 3fc4 01bd 9a53 a9bd 29e5 c8bc
00000310: 3df6 023e 737e 0f3e 2b95 e13c 1929 823e
00000320: 5b3a 153d 6827 7c3e c646 9e3d b12c 15be
00000330: 3b91 a0bd a5d9 5c3d d397 a33d 9cec 9f3c
00000340: 1362 053d 12fc a53e 1615 8b3d 0ec2 07be
00000350: 77e7 d9bc 1d4d 2e38 e8fa bb3c 5af5 4a3e
00000360: 541e 97bd 6db8 8a3d 1e85 453e e4ae 103d
00000370: 1894 1f3e 6db6 a13e a638 083d 874c 3cbe
00000380: 9e97 7cbe 9104 8cbd 25a0 3abe 9c45 f93d
00000390: b690 9d3d dfce 333c de7b 6fbe 8bed 8f3d
000003a0: fc17 f4bc cc9c 25be f93e 20be 0ba5 55bb
000003b0: 76ed 1cbe b313 bebd 0a3e 383d e956 04bd
000003c0: 19cc 47be cc24 8cbd 099b 223b ffcb ccbd
000003d0: 5ed9 34be 098b 34be 4278 2e3e a039 41bd
000003e0: 32c6 92bc e9d4 a1bd 4a5a 76be bbae 06bd
000003f0: c3c6 edbd f903 2f3e 59e8 adbb 58c2 913e

fc3_adv.bias f4 [76]
0.15819395 0.10507094 -0.10756612 0.20575385 0.19349651 0.26804453 0.15530458 0.043511104
0.08462217 0.113534436 -0.0059146876 0.047109272 0.071266994 0.065686986 0.8856316 0.092929274
0.10508826 0.1857171 0.060182106 0.19832523 0.06766827 -0.012896721 0.27921286 0.19798426
0.042882934 0.08027704 0.06259881 -0.09432641 0.12000097 0.043554217 0.21217282 -0.012573784
0.25092542 0.16350241 0.08170926 0.025637079 0.070534155 0.023732753 0.18530142 0.05721319
0.16512294 0.07036498 0.02674505 -0.006829145 0.06766126 0.10865864 0.16401696 0.1786532
0.09377521 0.1871891 0.2235571 0.13239074 -0.0282995 0.06229779 0.105146654 0.048768137
0.034207277 0.058841147 0.12525094 0.044571992 -0.024840146 0.11000037 0.022900885 0.12631257
0.16840862 0.13612318 0.020112965 0.02996491 0.0014496358 0.019182727 0.04756649 -0.021762481
0.1413409 0.06333857 0.18558347 0.1234355
00000000: 98fd 213e 6f2f d73d a04b dcbd 23b1 523e
00000010: f323 463e 223d 893e 2a08 1f3e b338 323d
00000020: 634e ad3d be84 e83d ffcf c1bb a7f5 403d
00000030: 6ef4 913d e686 863d c1b8 623f b451 be3d
00000040: 8338 d73d a02c 3e3e 8381 763d c515 4b3e
00000050: a995 8a3d c54c 53bc fdf4 8e3e 63bc 4a3e
00000060: 04a6 2f3d 4a68 a43d ce33 803d 342e c1bd
00000070: 12c3 f53d e865 323d d543 593e 4602 4ebc
00000080: 4c79 803e 2d6d 273e 2f57 a73d da04 d23c
00000090: 3674 903d 316b c23c a8bf 3d3e 6158 6a3d
000000a0: fd15 293e 841b 903d 6f18 db3c 05c7 dfbb
000000b0: fd91 8a3d 6c88 de3d 10f4 273e ddf0 363e
000000c0: 380d c03d 80ae 3f3e 27ec 643e 7091 073e
000000d0: 5ad4 e7bc f82b 7f3d 2157 d73d 19c1 473d
000000e0: ee1c 0c3d 6a03 713d c841 003e 1f91 363d
000000f0: 907d cbbc e047 e13d a39a bb3c 1558 013e
00000100: 4f73 2c3e e063 0b3e f2c3 a43c f978 f53c
00000110: b501 be3a 1825 9d3c 14d5 423d 3b47 b2bc
00000120: abbb 103e a7b7 813d 9809 3e3e c0cb fc3d

fc3_val.weight f4 [76, 130]
0.07299068 0.011788218 0.008454284 0.041258853 0.056811176 0.05929914 -0.06616434 0.038657073
0.15441991 0.22035371 0.09198476 -0.09895809 0.025883917 -0.034448307 0.06141868 -0.12683153
0.26382893 -0.10646505 0.038114127 -0.12681116 -0.11460835 0.09705736 -0.06881499 -0.07105243
0.028157858 0.11741115 0.05463539 -0.102539375 0.19442016 0.22417186 0.034754694 -0.01503537
0.31725737 0.16789068 0.19667885 0.19021384 0.024105126 0.22259916 0.004202942 0.091252886
0.17209505 0.22835246 0.081146434 0.03854624 0.3381741 0.029329345 -0.014337778 0.13997966
0.24041116 0.17790112 0.11800939 0.2553652 0.0004228851 0.2506568 0.13225491 0.08539206
-0.004225077 0.137886 0.08826428 0.06291327 0.048615836 0.23957443 -0.018445333 0.13925953
0.054494437 0.13657261 0.16261838 0.04005985 0.046770483 0.20726497 -0.07494287 0.0072985766
0.10841279 0.27678382 0.14496338 0.16422452 0.13996895 0.2592324 0.0632036 0.039551314
-0.009743466 0.0041599264 -0.021389524 0.075880505 0.15387295 0.11524682 0.18891883 0.1235321
0.22288322 0.0738014 0.18356071 0.11479821 -0.002510271 -0.0039500385 0.0916414 0.085350804
0.20117462 0.19613662 0.13386488 0.31029072 0.16111667 0.2442917 0.005399928 0.046037436
0.32561362 0.18257757 0.18191911 0.27952754 0.08116893 0.09459099 0.18955009 0.06875492
0.16921291 0.24226628 0.16891769 0.025028747 0.35744065 0.27300847 0.25218654 0.3339487
0.12842835 0.24705647 0.15102702 0.33208138 0.26303515 0.43763372 0.37768385 0.2633655
0.39501882 0.1857485 -0.10025942 0.111737914 0.13107362 -0.030570209 0.023885433 -0.11596006
0.081063814 -0.0056629595 -0.05775742 0.018109713 0.19405675 0.014159804 0.12772653 0.1554346
-0.15191498 0.1634643 0.16545776 0.20014186 0.02324875 -0.14332387 -0.008074822 -0.024015626
0.14314626 -0.025119739 0.011786164 -0.07553824 -0.10015146 0.17404254 -0.0868565 -0.024405096
0.11400808 0.1501518 0.027292935 -0.02551219 0.13437402 0.08309699 0.14380367 0.20252684
-0.01464266 0.28100634 0.08741912 0.023862181 0.07726482 -0.010574411 0.14377953 0.2621773
0.20084928 0.009608948 0.28067893 0.19317429 0.26856738 0.104042195 0.20303503 -0.0056668683
0.11972188 -0.0044696517 0.21702972 -0.037190877 0.2485947 0.13487844 0.25686184 0.23395805
0.12293075 -0.019573573 -0.040780634 0.090440325 0.020206088 0.26597747 0.23532438 0.23707151
0.122687064 0.0077232774 0.062099874 0.28869402 0.18216638 0.10405797 0.078865446 0.011686165
0.03697578 -0.007088636 0.22946773 0.1155904 0.17250733 0.22668996 0.13748938 0.18956661
0.06901839 0.052188322 -0.030252837 -0.04423213 0.25866812 0.12694207 -0.035453275 0.01534382
0.14940369 0.07856165 0.16903548 0.20443112 0.022609206 0.14477424 0.35970616 0.07385499
0.0545901 0.1591357 0.24459532 0.15533 0.2869877 0.12289285 0.31446603 0.24928325
0.110936314 0.27834424 -0.004204064 0.1150866 0.18041116 0.24722342 0.3393373 0.20714429
0.11431834 0.26686376 0.09347452 0.15940765 0.17220163 0.18004547 0.39030632 0.12719579
00000000: 237c 953d 5f23 413c d683 0a3c 0bff 283d
00000010: d6b2 683d a8e3 723d 2b81 87bd e156 1e3d
00000020: 4120 1e3e 67a4 613e 8162 bc3d 8aaa cabd
00000030: 820a d43c ab19 0dbd 2792 7b3d 20e0 01be
00000040: 9614 873e 590a dabd 8f1d 1c3d c9da 01be
00000050: c8b7 eabd 02c6 c63d e0ee 8cbd f083 91bd
00000060: 4fab e63c 4275 f03d 5cc9 5f3d 2a00 d2bd
00000070: 1416 473e 4f8d 653e f05a 0e3d ea56 76bc
00000080: 8f6f a23e 89eb 2b3e 2e66 493e 6bc7 423e
00000090: 1d78 c53c 09f1 633e d5b8 893b cbe2 ba3d
000000a0: af39 303e 3ad5 693e 1a30 a63d aae2 1d3d
000000b0: 2825 ad3e 1844 f03c 00e9 6abc d456 0f3e
000000c0: 582e 763e b62b 363e e8ae f13d 3abf 823e
000000d0: adb6 dd39 1756 803e d56d 073e 08e2 ae3d
000000e0: 8472 8abb fd31 0d3e e7c3 b43d acd8 803d
000000f0: 6621 473d 0053 753e ab1a 97bc 0d9a 0e3e
00000100: 8f35 5f3d b1d9 0b3e 6f85 263e cc15 243d
00000110: 6892 3f3d 453d 543e a67b 99bd e628 ef3b
00000120: 8607 de3d 9cb6 8d3e 4871 143e 792a 283e
00000130: 0554 0f3e 1cba 843e e470 813d 8f00 223d
00000140: 0fa3 1fbc fe4f 883b 1539 afbc 3d67 9b3d
00000150: df90 1d3e 8606 ec3d f073 413e 66fe fc3d
00000160: 803b 643e 3025 973d 57f7 3b3e 531b eb3d
00000170: 5c83 24bb 536f 81bb 7cae bb3d 67cc ae3d
00000180: b800 4e3e 0ad8 483e e013 093e 6dde 9e3e
00000190: c5fb 243e 9a27 7a3e e1f1 b03b c091 3c3d
000001a0: d4b6 a63e 9df5 3a3e 0149 3a3e 3c1e 8f3e
000001b0: e53b a63d ecb8 c13d 6b19 423e 61cf 8c3d
000001c0: 2646 2d3e a714 783e c2f8 2c3e 1609 cd3c
000001d0: 7602 b73e c4c7 8b3e 981e 813e 53fb aa3e
000001e0: b982 033e 5ffc 7c3e d4a6 1a3e 9206 aa3e
000001f0: 8bac 863e 8711 e03e c75f c13e d8d7 863e
00000200: e83f ca3e db34 3e3e d054 cdbd d9d6 e43d
00000210: 2a38 063e 606e fabc 62ab c33c 787c edbd
00000220: c904 a63d 5990 b9bb 0b93 6cbd d25a 943c
00000230: d0b6 463e 86fe 673c beca 023e 3f2a 1f3e
00000240: 9a8f 1bbe 2f63 273e c26d 293e fdf1 4c3e
00000250: 2a74 be3c 7ec3 12be 424c 04bc 6bbc c4bc
00000260: ef94 123e e9c7 cdbc c11a 413c cbb3 9abd
00000270: 351c cdbd 3538 323e d2e1 b1bd 32ed c7bc
00000280: 117d e93d 65c1 193e 6f95 df3c f1fe d0bc
00000290: 5899 093e c12e aa3d 4541 133e 3263 4f3e
000002a0: c4e7 6fbc 10e0 8f3e cc08 b33d 9f7a c33c
000002b0: 053d 9e3d 4b40 2dbc f13a 133e 1a3c 863e
000002c0: 6fab 4d3e d96e 1d3c 26b5 8f3e 7bcf 453e
000002d0: aa81 893e 1314 d53d 6ae8 4f3e 23b1 b9bb
000002e0: bf30 f53d 2876 92bb 0a3d 5e3e 7655 18bd
000002f0: 9c8f 7e3e 931d 0a3e 6583 833e b392 6f3e
00000300: 1ec3 fb3d c258 a0bc 9809 27bd c738 b93d
00000310: 3d87 a53c 332e 883e e0f8 703e e0c2 723e
00000320: 5b43 fb3d 8c13 fd3b 705c 7e3d b4cf 933e
00000330: d389 3a3e 581c d53d 3584 a13d 5477 3f3c
00000340: ea73 173d ca47 e8bb 97f9 6a3e a9ba ec3d
00000350: c3a5 303e 6a21 683e 04ca 0c3e c01d 423e
00000360: 8359 8d3d 6cc3 553d ccd4 f7bc c02c 35bd
00000370: 2670 843e 1afd 013e 7437 11bd a564 7b3c
00000380: 48fd 183e eee4 a03d a317 2d3e 6456 513e
00000390: f136 b93c b33f 143e 682b b83e 4941 973d
000003a0: de99 5f3d 78f4 223e 3277 7a3e d40e 1f3e
000003b0: 0df0 923e 3faf fb3d b101 a13e 1c44 7f3e
000003c0: 9432 e33d 2383 8e3e 3fc2 89bb 86b2 eb3d
000003d0: b4bd 383e 2328 7d3e 9ebd ad3e a21d 543e
000003e0: bc1f ea3d 5ea2 883e 926f bf3d c23b 233e
000003f0: a055 303e d75d 383e 3bd6 c73e 9d3f 023e

fc3_val.bias f4 [76]
-0.23160069 -0.36684853 0.3914144 0.51700217 0.47095796 -0.26032424 -0.22116037 0.39320764
-0.31902686 -0.2359788 -0.2936085 -0.31051764 0.27562797 -0.26951906 -0.33105728 0.5033049
0.4350517 -0.3338955 -0.25816512 -0.29985702 -0.32290798 -0.3321736 0.37904355 -0.2119838
-0.34293666 -0.2908409 -0.20341772 0.47900575 0.5225638 -0.2979658 -0.3503235 0.3946852
0.8180223 0.41797346 -0.2586803 -0.24708733 0.4577727 -0.36521947 0.41386962 -0.27242297
-0.3568723 -0.37300658 1.4866773 0.46433008 -0.2846285 0.40602472 0.6121362 -0.38585693
0.41101548 -0.29647687 0.47559172 -0.22584727 -0.33103964 -0.19696842 0.52616656 -0.36300087
0.41189632 0.3834968 -0.22033866 -0.22471821 -0.20739014 -0.23086464 0.3763641 -0.35846695
-0.237959 -0.2719494 -0.32479933 0.45166948 -0.29490536 -0.3517593 0.40519583 -0.30283242
-0.27863088 -0.21505259 -0.2558731 0.5583484
00000000: bb28 6dbe 92d3 bbbe 7867 c83e 415a 043f
00000010: 6721 f13e 3849 85be dd77 62be 8352 c93e
00000020: 7d57 a3be 6da4 71be da53 96be 2bfc 9ebe
00000030: 1c1f 8d3e 67fe 89be 5780 a9be 97d8 003f
00000040: 19bf de3e 5af4 aabe 382e 84be dc86 99be
00000050: 3254 a5be a812 aabe ff11 c23e 4812 59be
00000060: 6595 afbe 19e9 94be bc4c 50be 3e40 f53e
00000070: bec6 053f f98e 98be 9a5d b3be 2e14 ca3e
00000080: e969 513f 9e00 d63e bf71 84be 7604 7dbe
00000090: 2f61 ea3e 0cfe babe b8e6 d33e 067b 8bbe
000000a0: f7b7 b6be b8fa bebe 714b be3f acbc ed3e
000000b0: d4ba 91be 79e2 cf3e f5b4 1c3f 0a8f c5be
000000c0: 9f70 d23e d1cb 97be c280 f33e 8244 67be
000000d0: 077e a9be 17b2 49be dab2 063f 40db b9be
000000e0: 13e4 d23e b159 c43e 75a0 61be 881c 66be
000000f0: 155e 54be c867 6cbe ccb2 c03e fb88 b7be
00000100: 86ab 73be f43c 8bbe 194c a6be 3941 e73e
00000110: d6fd 96be cc19 b4be d475 cf3e da0c 9bbe
00000120: b5a8 8ebe bf36 5cbe cd01 83be ecef 0e3f

fc4_adv.weight f4 [38, 76]
-0.20184934 -0.13903381 0.2512886 0.30889046 0.047656994 -0.036744997 0.1100166 0.1262333
0.2608954 0.1271451 -0.011505994 0.15031616 -0.04725274 -0.06074084 1.007154 -0.18796287
0.14611815 0.14735793 0.1639447 0.319788 0.11114672 -0.27852353 0.22858168 0.42873913
0.07148411 0.20253332 0.015803307 0.13512485 0.008297333 -0.19642225 0.004376179 0.19630161
-0.018172735 0.16054374 -0.042683877 0.01450329 0.16372982 0.29917696 -0.17936938 0.048682254
0.05405247 0.07620372 0.14353849 0.05993015 -0.05759172 0.23342642 -0.04942482 0.44917062
-0.25242475 0.22561976 0.43549818 0.17835514 -0.006134848 -0.2633763 0.18843612 -0.0954995
0.018843701 -0.13825093 -0.086653285 0.20996572 0.21356624 0.2697384 0.15228018 0.24779359
0.124165125 0.16962427 -0.14294215 0.14147837 -0.22591738 -0.08706772 -0.109404795 -0.10144846
0.31912866 0.14289644 0.10757208 -0.21982718 -0.14967571 -0.12270529 0.04925627 0.2685973
0.17840578 0.06921421 0.18010245 0.30743405 0.28611568 0.28021386 0.213484 -0.31772757
-0.13999651 -0.1146089 1.3268816 -0.050466858 0.07950057 0.1492801 -0.087070405 -0.086745955
0.2849288 0.058762334 -0.03173661 0.24847734 0.1435709 0.107271805 -0.092936054 0.16152851
0.13984111 0.14290692 0.036037426 0.40267178 -0.05321666 -0.1099528 0.012860533 0.1716402
-0.09845822 -0.05930344 -0.08945119 0.24926908 0.072755985 0.12951021 -0.118753485 -0.07148954
0.032261197 0.015049722 0.26858342 0.18446973 -0.07848411 -0.045641027 0.4075413 0.30104303
0.18547857 -0.26675466 0.29831472 0.18224473 -0.18324493 -0.21237652 0.1551274 0.081893
0.29672912 0.07525716 -0.14958061 0.14839964 0.0020773013 -0.10614571 0.39216226 -0.08751698
0.014241139 -0.16147108 0.33600858 0.015855625 -0.013641235 -0.12459075 -0.12118079 0.0019134412
-0.06355699 -0.10273276 0.35473284 0.23004366 0.27155596 0.10253408 0.17111729 0.052352116
0.1496906 -0.12184068 0.25345597 -0.032212853 -0.010845343 0.19322395 0.7680151 -0.41787085
0.10763714 -0.098967865 -0.14172097 0.016925372 0.24540365 -0.21103907 0.33001855 0.37566054
0.5047869 0.21267879 0.09096216 0.068363644 -0.1555828 0.32709312 -0.015756784 0.34604293
0.13559195 0.28326133 0.057806272 -0.13472138 0.14657405 -0.0061799986 0.26221514 -0.081532456
0.09524976 0.12095029 0.15008757 -0.05204908 0.113510236 -0.072182335 -0.06740225 0.37627316
-0.01370396 -0.15797508 1.259595 0.4447718 0.12842427 -0.086346805 0.13747285 0.33540148
0.19295625 0.06727614 0.6914337 0.40319654 0.15415974 -0.023669153 -0.19370244 0.3317846
0.24885695 0.26125175 -0.115536235 -0.22076516 -0.16215 -0.010975486 0.14005814 -0.23463623
0.25365326 -0.28778628 -0.04044601 -0.34085128 -0.09388902 -0.09310275 0.31086457 0.08129775
0.24922836 0.20425898 0.11000555 0.21238938 -0.1959121 0.027004503 0.16834018 0.17463559
0.034561012 0.024139816 1.101492 -0.2695557 0.29224214 -0.106249414 -0.19348983 0.097651616
0.07884499 0.074268356 0.3433447 0.04495753 0.354767 0.023044957 0.34632203 0.21458939
00000000: 98b1 4ebe e15e 0ebe e6a8 803e e426 9e3e
00000010: fb33 433d ec81 16bd 6250 e13d 4d43 013e
00000020: 1594 853e 5332 023e a383 3cbc 7bec 193e
00000030: 178c 41bd 63cb 78bd 6cea 803f 5779 40be
00000040: ff9f 153e ffe4 163e 1fe1 273e 41bb a33e
00000050: e4a0 e33d a39a 8ebe 5111 6a3e b283 db3e
00000060: 4366 923d e564 4f3e f075 813c 2b5e 0a3e
00000070: 89f1 073c ea22 49be 0d66 8f3b 4a03 493e
00000080: fdde 94bc 9465 243e 4ad5 2ebd 359f 6d3c
00000090: caa8 273e b92d 993e 9bac 37be 0b67 473d
000000a0: 1f66 5d3d b210 9c3d c1fb 123e 5179 753d
000000b0: 4ce5 6bbd 5607 6f3e ae71 4abd b1f9 e53e
000000c0: d13d 81be de08 673e 9ef9 de3e bba2 363e
000000d0: d606 c9bb 42d9 86be 66f5 403e 3e95 c3bd
000000e0: 1b5e 9a3c a791 0dbe 4777 b1bd 4101 573e
000000f0: 1cb1 5a3e 271b 8a3e 56ef 1b3e 9abd 7d3e
00000100: 494a fe3d fcb1 2d3e 6d5f 12be b5df 103e
00000110: e356 67be 9050 b2bd 9f0f e0bd 36c4 cfbd
00000120: d564 a33e 7253 123e c04e dc3d 601a 61be
00000130: 9744 19be e94c fbbd f1c0 493d 9685 893e
00000140: 01b0 363e 2ec0 8d3d c76c 383e ff67 9d3e
00000150: c17d 923e 3178 8f3e 8d9b 5a3e 30ad a2be
00000160: 3f5b 0fbe 12b8 eabd 42d7 a93f 56b6 4ebd
00000170: 32d1 a23d e2dc 183e f851 b2bd dda7 b1bd
00000180: 30e2 913e c6b0 703d 3ffe 01bd d870 7e3e
00000190: 4004 133e 52b1 db3d 4255 bebd bb67 253e
000001a0: 8232 0f3e 3156 123e fb9b 133d ff2a ce3e
000001b0: b6f9 59bd ef2e e1bd fcb4 523c 73c2 2f3e
000001c0: 77a4 c9bd 2ae8 72bd 2f32 b7bd 6540 7f3e
000001d0: 1701 953d 539e 043e 0735 f3bd 1c69 92bd
000001e0: 5124 043d 1c93 763c c483 893e a2e5 3c3e
000001f0: 47bc a0bd 16f2 3abd 41a9 d03e 5022 9a3e
00000200: 18ee 3d3e 1194 88be b5bc 983e 5d9e 3a3e
00000210: 8fa4 3bbe 3b79 59be b8d9 1e3e 84b7 a73d
00000220: e1ec 973e 6d20 9a3d a92b 19be 13f6 173e
00000230: 5523 083b ec62 d9bd 7ec9 c83e 1a3c b3bd
00000240: ab53 693c ad58 25be 5109 ac3e a8e3 813c
00000250: 7d7f 5fbc 6f29 ffbd a22d f8bd 6fcc fa3a
00000260: 2b2a 82bd 8e65 d2bd 8b9f b53e 9190 6b3e
00000270: 6209 8b3e 63fd d13d 5f39 2f3e 2c6f 563d
00000280: 7e48 193e 9b87 f9bd fbc4 813e a0f1 03bd
00000290: aab0 31bc 80dc 453e a39c 443f 2bf3 d5be
000002a0: dc70 dc3d aaaf cabd 4d1f 11be 14a7 8a3c
000002b0: 184b 7b3e a01a 58be 31f8 a83e 9456 c03e
000002c0: b739 013f 78c8 593e 5e4a ba3d 3d02 8c3d
000002d0: 1951 1fbe c078 a73e 5f14 81bc 8a2c b13e
000002e0: 9ed8 0a3e a107 913e 45c6 6c3d 67f4 09be
000002f0: 8217 163e 9681 cabb 1041 863e 7dfa a6bd
00000300: 4e12 c33d c9b4 f73d 8eb0 193e 6b31 55bd
00000310: 0e78 e83d 55d4 93bd 310a 8abd e0a6 c03e
00000320: 9386 60bc 38c4 21be 693a a13f 21b9 e33e
00000330: a781 033e 98d6 b0bd afc5 0c3e beb9 ab3e
00000340: 5396 453e 13c8 893d cd01 313f c76f ce3e
00000350: 0ddc 1d3e d0e5 c1bc ef59 46be acdf a93e
00000360: 5bd4 7e3e cac2 853e 439e ecbd 4310 62be
00000370: a60a 26be 86d2 33bc 676b 0f3e 7b44 70be
00000380: d7de 813e b958 93be b7aa 25bd 0f84 aebe
00000390: e348 c0bd a8ac bebd a429 9f3e 6f7f a63d
000003a0: b835 7f3e 4429 513e 974a e13d 9a7c 593e
000003b0: 2e9d 48be 8c38 dd3c 5e61 2c3e acd3 323e
000003c0: d98f 0d3d ddc0 c53c b1fd 8c3f 3403 8abe
000003d0: c3a0 953e 4b99 d9bd 3322 46be 92fd c73d
000003e0: 7b79 a13d 021a 983d e0ca af3e 6325 383d
000003f0: 05a4 b53e c7c8 bc3c 1f51 b13e 52bd 5b3e

fc4_adv.bias f4 [38]
0.14071774 -0.017540844 0.15175189 -0.06237334 -0.03464666 -0.020027865 0.19125871 -0.11840014
-0.1222326 -0.16861393 -0.112833805 0.16072871 0.031416863 0.022772709 0.15026695 0.098536156
0.14365247 -0.18745005 0.20041192 0.037403986 0.12299059 0.18997774 0.1528778 0.19814041
0.19380835 0.018966319 -0.14173026 -0.08636851 -0.0291208 0.02297289 0.000515234 -0.0040232087
0.08588069 0.18920316 -0.11420946 0.21410196 -0.14522354 0.24336652
00000000: 5018 103e d1b1 8fbc d964 1b3e 307b 7fbd
00000010: a8e9 0dbd 7a11 a4bc 53d9 433e c67b f2bd
00000020: 1655 fabd 21a9 2cbe 6915 e7bd 1196 243e
00000030: f8ae 003d d58d ba3c 94df 193e 53cd c93d
00000040: a219 133e e8f2 3fbe c838 4d3e ec34 193d
00000050: 7ee2 fb3d 8689 423e ff8b 1c3e 52e5 4a3e
00000060: b275 463e 415f 9b3c bd21 11be f9e1 b0bd
00000070: be8e eebc a431 bc3c c510 073a 1fd5 83bb
00000080: 37e2 af3d 79be 413e a6e6 e9bd 8b3d 5b3e
00000090: 7bb5 14be 1335 793e

fc4_val.weight f4 [1, 76]
0.2026493 0.32503232 -0.29531685 -0.47292084 -0.26371884 0.2391089 0.45173338 -0.4016218
0.36143467 0.3268814 0.4074027 0.2739883 -0.43651018 0.19432613 0.29633287 -0.29000324
-0.33115613 0.3349358 0.27162477 0.31101993 0.32379255 0.34065846 -0.50434786 0.2479486
0.2496968 0.20451471 0.37582836 -0.52707744 -0.5143387 0.17388766 0.24699193 -0.5719026
-1.8121305 -0.43498713 0.22857593 0.3171155 -0.44809648 0.34804407 -0.40273595 0.28394395
0.2890673 0.38217115 -2.5232213 -0.45272976 0.4485242 -0.80533445 -2.3495188 0.42215714
-1.2580984 0.18515095 -0.4716749 0.325622 0.24018669 0.17390983 -0.31627747 0.41128314
-0.3168408 -0.87101763 0.43095186 0.21413332 0.28420576 0.15720344 -0.38720945 0.2951422
0.18885612 0.26131696 0.3991357 -0.3725393 0.21912298 0.20486356 -0.43582422 0.23911911
0.32785878 0.21276534 0.17604455 -1.1447049
00000000: 4c83 4f3e a36a a63e c533 97be ae22 f2be
00000010: 2806 87be f7d8 743e 9949 e73e 5fa1 cdbe
00000020: f70d b93e 005d a73e 1697 d03e 3248 8c3e
00000030: 437e dfbe 6efd 463e f1b8 973e 4e7b 94be
00000040: 4c8d a9be b57c ab3e 6712 8b3e 013e 9f3e
00000050: 23c8 a53e c96a ae3e f11c 01bf 3de6 7d3e
00000060: 85b0 7f3e 4e6c 513e 936c c03e 8cee 06bf
00000070: b3ab 03bf 9b0f 323e 74eb 7c3e 3568 12bf
00000080: e4f3 e7bf a2b6 debe cf0f 6a3e f65c a23e
00000090: e76c e5be d532 b23e 6833 cebe 1a61 913e
000000a0: a100 943e f0ab c33e 757c 21c0 32cc e7be
000000b0: f7a4 e53e 662a 4ebf 845e 16c0 fb24 d83e
000000c0: 5e09 a1bf 3698 3d3e 5f7f f1be edb7 a63e
000000d0: 80f3 753e 6b15 323e 1fef a1be b493 d23e
000000e0: f538 a2be 03fb 5ebf b9a5 dc3e c445 5b3e
000000f0: 6b83 913e f0f9 203e 5140 c6be e11c 973e
00000100: 8063 413e 56cb 853e 845b cc3e 79bd bebe
00000110: c661 603e c1c7 513e 5a24 dfbe a4db 743e
00000120: 1bdd a73e 28df 593e 0645 343e b185 92bf

exp_avg f4 [1, 6, 1, 4]
-3.6914647 -0.32614702 0.04882822 -0.12563205 -15.882057 -9.318065 -4.855711 -2.3847377
-1.345583 -1.345583 -1.345583 0.0 -0.27558196 -0.41783458 -0.41783458 6e-45
-0.031506263 -0.046688564 -0.046688564 0.0 0.056061614 0.05252919 0.05252919 6e-45
00000000: f540 6cc0 befc a6be 1a00 483d b0a5 00be
00000010: e81c 7ec1 cb16 15c1 fc61 9bc0 8b9f 18c0
00000020: 103c acbf 103c acbf 103c acbf 0000 0000
00000030: 1419 8dbe 6aee d5be 6aee d5be 0400 0000
00000040: b60c 01bd 823c 3fbd 823c 3fbd 0000 0000
00000050: dda0 653d d928 573d d928 573d 0400 0000

exp_avg_sq f4 [1, 6, 1, 4]
161.12613 11.949637 1.6730137 0.051427186 1884.3113 927.6896 255.97151 34.190376
10.021636 10.021636 10.021636 0.0 1.7404282 1.1632137 1.1632137 7e-43
0.43233785 0.09242163 0.09242163 0.0 1.202391 0.96816975 0.96816975 7e-43
00000000: 4a20 2143 b731 3f41 5025 d63f 50a5 523d
00000010: f689 eb44 22ec 6744 b5f8 7f43 f2c2 0842
00000020: 9f58 2041 9f58 2041 9f58 2041 0000 0000
00000030: 5ac6 de3f 30e4 943f 30e4 943f f401 0000
00000040: 635b dd3e 8d47 bd3d 8d47 bd3d 0000 0000
00000050: f3e7 993f f9d9 773f f9d9 773f f401 0000

exp_avg f4 [1, 6, 2, 4]
3.1510375 0.14105149 0.10729735 0.07532172 3.2615814 0.84832233 0.040240522 0.08425332
13.750199 8.142118 4.357338 1.4568223 12.2616625 4.548573 2.720814 1.0664711
1.6751891 1.6751891 1.6751891 -0.018731948 1.3452245 1.3452245 1.3452245 0.023015276
0.23762296 0.30288824 0.30288824 -0.06553056 0.19429958 0.27584827 0.27584827 -0.09147964
0.13273326 0.12956661 0.12956661 0.03728878 0.41442636 0.39081612 0.39081612 0.06618714
0.3026609 0.3303854 0.3303854 -0.013903201 0.28182846 0.32226655 0.32226655 0.0023990832
00000000: 99aa 4940 cd6f 103e b7be db3d 4642 9a3d
00000010: c0bd 5040 a72b 593f 3fd3 243d 018d ac3d
00000020: d100 5c41 1e46 0241 506f 8b40 2779 ba3f
00000030: c52f 4441 e98d 9140 d121 2e40 2082 883f
00000040: 996c d63f 996c d63f 996c d63f be73 99bc
00000050: 5130 ac3f 5130 ac3f 5130 ac3f 888a bc3c
00000060: 6f53 733e 2b14 9b3e 2b14 9b3e e334 86bd
00000070: 78f6 463e fc3b 8d3e fc3b 8d3e ad59 bbbd
00000080: 3aeb 073e 1cad 043e 1cad 043e 1fbc 183d
00000090: b12f d43e 0d19 c83e 0d19 c83e 208d 873d
000000a0: 5ff6 9a3e 4628 a93e 4628 a93e 40ca 63bc
000000b0: d24b 903e 1f00 a53e 1f00 a53e f039 1d3b

exp_avg_sq f4 [1, 6, 2, 4]
68.718575 3.6112225 0.52699685 0.01470727 81.0224 8.370823 1.0370181 0.01815379
880.8746 464.83752 162.76103 21.234922 756.9503 224.72342 43.760136 6.373525
7.178857 7.178857 7.178857 0.13593525 7.025965 7.025965 7.025965 0.11416617
0.9442052 0.78116894 0.78116894 0.03253831 1.5671327 1.3795688 1.3795688 0.13436922
0.6915653 0.64068836 0.64068836 0.035384897 1.462507 1.3925732 1.3925732 0.04104814
1.4304141 1.3082635 1.3082635 0.029911488 1.4509419 1.3175198 1.3175198 0.060029216
00000000: e96f 8942 451e 6740 44e9 063f c3f6 703c
00000010: 780b a242 e4ee 0541 02bd 843f 42b7 943c
00000020: f937 5c44 346b e843 d3c2 2243 1fe1 a941
00000030: d23c 3d44 32b9 6043 610a 2f42 ebf3 cb40
00000040: 32b9 e540 32b9 e540 32b9 e540 9c32 0b3e
00000050: b5d4 e040 b5d4 e040 b5d4 e040 f4cf e93d
00000060: 6fb7 713f b0fa 473f b0fa 473f e446 053d
00000070: ce97 c83f b695 b03f b695 b03f 1698 093e
00000080: 6c0a 313f 2704 243f 2704 243f c1ef 103d
00000090: 6e33 bb3f d73f b23f d73f b23f 1822 283d
000000a0: cf17 b73f 2e75 a73f 2e75 a73f f008 f53c
000000b0: 77b8 b93f 7da4 a83f 7da4 a83f 32e1 753d

exp_avg f4 [1, 6, 3, 4]
2.59294 0.9258103 0.04863796 0.07417769 2.0380058 0.6176826 -0.12262252 0.00045179573
2.5427585 0.9596485 0.2099477 0.1691074 12.045412 4.4863777 3.0679548 0.63406545
12.051123 5.601086 3.3250225 2.0111566 12.004076 5.8493843 4.8849764 1.6999612
1.14279 1.14279 1.1427898 -0.080701694 1.3015211 1.3015213 1.3015212 0.029049765
1.826248 1.826248 1.826248 0.06800516 0.07324189 0.16701555 0.16701558 -0.06868748
0.15620781 0.23950009 0.23950009 -0.05019602 -0.16415009 -0.08974859 -0.089748584 -0.05614622
0.54659337 0.57161766 0.5716176 0.0071546235 0.41969755 0.43652013 0.43652013 0.016152196
0.3471602 0.3293093 0.32930925 0.016259851 -0.01437893 -0.09115694 -0.09115696 -0.09009722
0.2641218 0.22541529 0.2254153 -0.04547822 0.35953107 0.33611843 0.3361185 -0.093285345
00000000: bbf2 2540 e701 6d3f 9938 473d 79ea 973d
00000010: b06e 0240 7220 1e3f 8421 fbbd ffde ec39
00000020: 8ebc 2240 86ab 753f 88fc 563e 7e2a 2d3e
00000030: 02ba 4041 6890 8f40 5f59 4440 1d52 223f
00000040: 66d1 4041 193c b340 2bcd 5440 cab6 0040
00000050: b210 4041 282e bb40 ba51 9c40 5498 d93f
00000060: f146 923f f146 923f f046 923f ee46 a5bd
00000070: 3e98 a63f 4098 a63f 3f98 a63f c6f9 ed3c
00000080: 7fc2 e93f 7fc2 e93f 7fc2 e93f 4a46 8b3d
00000090: d8ff 953d 2006 2b3e 2206 2b3e 06ac 8cbd
000000a0: f1f4 1f3e 833f 753e 833f 753e 589a 4dbd
000000b0: f616 28be 1cce b7bd 1bce b7bd 94f9 65bd
000000c0: 8bed 0b3f 8955 123f 8855 123f 5571 ea3b
000000d0: 99e2 d63e 917f df3e 917f df3e 9c51 843c
000000e0: fbbe b13e 3b9b a83e 399b a83e 6133 853c
000000f0: 9b95 6bbc 7db0 babd 80b0 babd e484 b8bd
00000100: f93a 873e 44d3 663e 45d3 663e 5f47 3abd
00000110: 7514 b83e b717 ac3e b917 ac3e 630c bfbd

exp_avg_sq f4 [1, 6, 3, 4]
115.06603 10.969746 1.4688307 0.027464569 105.45704 11.175574 1.4950066 0.019475274
102.465065 10.994584 1.5576689 0.062301826 1450.3645 518.5832 100.97171 8.546456
1461.3678 566.50586 122.87566 17.841106 1518.5369 749.3986 182.88202 24.031385
9.713478 9.713476 9.713478 0.322754 8.581945 8.581946 8.581949 0.28288892
7.54411 7.5441093 7.5441093 0.2739229 2.3195457 2.0195937 2.0195937 0.05388377
2.527439 2.2691593 2.2691593 0.08016514 1.6599667 1.4512609 1.4512607 0.102507904
2.410456 2.2552197 2.2552202 0.054821018 1.7810321 1.6768719 1.6768719 0.057454325
2.3089023 2.1250916 2.1250916 0.042195804 2.409479 2.1439981 2.1439981 0.070831515
2.2689354 2.056919 2.056919 0.033920158 2.2750177 2.118504 2.1185038 0.074550256
00000000: cf21 e642 1484 2f41 a502 bc3f 60fd e03c
00000010: 01ea d242 27cf 3241 605c bf3f 9c8a 9f3c
00000020: 1dee cc42 d1e9 2f41 b261 c73f 3330 7f3d
00000030: aa4b b544 53a5 0144 84f1 c942 49be 0841
00000040: c5ab b644 60a0 0d44 57c0 f542 96ba 8e41
00000050: 2ed1 bd44 8359 3b44 cce1 3643 4740 c041
00000060: 686a 1b41 666a 1b41 686a 1b41 0340 a53e
00000070: a64f 0941 a74f 0941 aa4f 0941 d1d6 903e
00000080: 5969 f140 5869 f140 5869 f140 9f3f 8c3e
00000090: 7073 1440 0641 0140 0641 0140 3ab5 5c3d
000000a0: 90c1 2140 e839 1140 e839 1140 9f2d a43d
000000b0: ca79 d43f ebc2 b93f e9c2 b93f aaef d13d
000000c0: e944 1a40 8555 1040 8755 1040 018c 603d
000000d0: dcf8 e33f bda3 d63f bda3 d63f 3a55 6b3d
000000e0: 0ec5 1340 8001 0840 8001 0840 82d5 2c3d
000000f0: e734 1a40 4437 0940 4437 0940 1d10 913d
00000100: 3d36 1140 90a4 0340 90a4 0340 ddef 0a3d
00000110: e499 1140 9295 0740 9195 0740 cead 983d

exp_avg f4 [1, 6, 4, 4]
5.4377937 1.4828744 0.07491565 0.08142633 4.324627 0.65847653 -0.106716886 0.097277746
4.9608927 1.3669101 0.14591374 0.10654265 4.740149 1.4907548 0.023614163 0.084984444
23.139378 11.787961 6.5565915 2.6900735 22.488897 10.973149 6.3464723 2.7586648
21.756777 10.637777 5.6310043 2.085327 22.262918 11.335861 6.0502477 1.6484044
2.4308546 2.430855 2.430855 -0.026497152 2.2085464 2.2085466 2.2085464 0.049318094
2.9640868 2.9640865 2.964086 0.05578203 2.3451672 2.3451674 2.3451674 -0.16340257
0.548497 0.74923325 0.74923325 -0.05319081 0.33029294 0.5269303 0.5269303 -0.041486677
0.1987756 0.37842575 0.3784258 -0.044326764 0.38136515 0.5516702 0.55167013 -0.11516025
0.5404382 0.5692333 0.56923324 0.029124513 0.44659138 0.4623787 0.46237868 0.02606491
0.30738366 0.3397282 0.33972815 -0.04915696 0.21955578 0.25954497 0.25954488 0.033598494
-0.0351237 -0.07067021 -0.07067021 -0.052287117 0.14394628 0.1353419 0.1353419 -0.12805884
0.5114913 0.53171724 0.53171724 -0.12627803 0.555739 0.62599295 0.62599295 -0.059010047
00000000: 6802 ae40 d4ce bd3f 606d 993d d9c2 a63d
00000010: 5863 8a40 eb91 283f 628e dabd 8e39 c73d
00000020: a2bf 9e40 e9f6 ae3f 696a 153e 0833 da3d
00000030: 4daf 9740 0ed1 be3f 7d72 c13c 530c ae3d
00000040: 721d b941 7d9b 3c41 99cf d140 2a2a 2c40
00000050: 43e9 b341 0592 2f41 4d16 cb40 f78d 3040
00000060: e10d ae41 5634 2a41 3031 b440 ff75 0540
00000070: 751a b241 b05f 3541 a19b c140 eafe d23f
00000080: 1f93 1b40 2193 1b40 2193 1b40 8e10 d9bc
00000090: d358 0d40 d458 0d40 d358 0d40 c501 4a3d
000000a0: 99b3 3d40 98b3 3d40 96b3 3d40 b37b 643d
000000b0: 3817 1640 3917 1640 3917 1640 0153 27be
000000c0: 4d6a 0c3f c0cd 3f3f c0cd 3f3f 9bde 59bd
000000d0: 281c a93e e7e4 063f e7e4 063f efed 29bd
000000e0: d58b 4b3e 05c1 c13e 07c1 c13e fb8f 35bd
000000f0: 4b42 c33e 423a 0d3f 413a 0d3f 23d9 ebbd
00000100: 285a 0a3f 46b9 113f 45b9 113f 8896 ee3c
00000110: a0a7 e43e e7bc ec3e e6bc ec3e 1486 d53c
00000120: 6461 9d3e dbf0 ad3e d9f0 ad3e cf58 49bd
00000130: 3bd3 603e 14e3 843e 11e3 843e 939e 093d
00000140: dedd 0fbd 8bbb 90bd 8bbb 90bd 042b 56bd
00000150: a766 133e 1197 0a3e 1197 0a3e db21 03be
00000160: 18f1 023f 9f1e 083f 9f1e 083f 074f 01be
00000170: e944 0e3f 1341 203f 1341 203f 85b4 71bd

exp_avg_sq f4 [1, 6, 4, 4]
255.07353 21.871336 2.6232924 0.051554587 247.66498 19.88718 2.0729332 0.054040633
240.09288 22.350845 3.3546152 0.046996534 246.57922 23.160248 3.1089933 0.045600064
3646.383 1489.9948 356.412 46.236107 3588.5117 1415.1617 332.94864 42.27596
3563.9028 1375.8999 294.8869 34.557755 3573.885 1378.984 297.87057 34.745007
22.505302 22.5053 22.505302 0.5780021 22.644238 22.644241 22.644241 0.46451965
21.442572 21.442572 21.442575 0.43832 18.425905 18.425905 18.425905 0.39849508
4.6558094 3.817549 3.817549 0.13129269 4.776205 3.8775609 3.8775609 0.122678645
5.296746 4.534574 4.534574 0.09595681 5.807358 4.8644075 4.864408 0.4183538
4.173985 3.587419 3.587419 0.0904033 4.0803866 3.503091 3.5030906 0.1499567
5.1701107 4.4337916 4.4337916 0.09410091 5.055956 4.372338 4.372338 0.1375584
4.212965 4.004937 4.004937 0.10495943 5.184171 4.8858304 4.88583 0.15686533
6.016849 5.8128376 5.8128366 0.15888043 6.0761776 5.9150753 5.9150753 0.15147789
00000000: d312 7f43 7ff8 ae41 06e4 2740 e72a 533d
00000010: 3caa 7743 f218 9f41 f0aa 0440 b659 5d3d
00000020: c717 7043 88ce b241 04b2 5640 707f 403d
00000030: 4894 7643 3048 b941 bff9 4640 22c7 3a3d
00000040: 21e6 6345 d53f ba44 bc34 b243 c6f1 3842
00000050: 3048 6045 2de5 b044 6d79 a643 951a 2942
00000060: 72be 5e45 ccfc ab44 8671 9343 243b 0a42
00000070: 295e 5f45 7d5f ac44 6fef 9443 e3fa 0a42
00000080: dc0a b441 db0a b441 dc0a b441 f2f7 133f
00000090: 6627 b541 6827 b541 6827 b541 85d5 ed3e
000000a0: 638a ab41 638a ab41 658a ab41 7b6b e03e
000000b0: 4168 9341 4168 9341 4168 9341 8c07 cc3e
000000c0: 64fc 9440 b952 7440 b952 7440 9771 063e
000000d0: acd6 9840 f529 7840 f529 7840 f13e fb3d
000000e0: f17e a940 3b1b 9140 3b1b 9140 0185 c43d
000000f0: e0d5 b940 3aa9 9b40 3ba9 9b40 7832 d63e
00000100: 4991 8540 4698 6540 4698 6540 5e25 b93d
00000110: 8792 8240 a532 6040 a332 6040 408e 193e
00000120: 8c71 a540 9fe1 8d40 9fe1 8d40 fab7 c03d
00000130: 64ca a140 31ea 8b40 31ea 8b40 1cdc 0c3e
00000140: 9cd0 8640 7228 8040 7228 8040 f8f4 d63d
00000150: bbe4 a540 b958 9c40 b858 9c40 4ea1 203e
00000160: 078a c040 c402 ba40 c202 ba40 8db1 223e
00000170: 0c70 c240 4c48 bd40 4c48 bd40 051d 1b3e

exp_avg f4 [76, 130]
0.13837929 0.025351437 0.010983722 0.08626826 -0.035246864 -0.019780604 0.015757801 -0.007113939
-0.007510407 -0.013228903 0.039046314 0.041314308 0.020391313 0.025594614 -0.021655861 0.009743124
0.04433719 0.04060444 0.051808454 0.052550387 -0.033117995 0.03132703 0.0473453 0.11891977
0.048510496 0.03679387 -0.0037698369 -0.006086553 0.02178372 0.014717882 0.016980855 -0.013155295
-0.020917537 -0.012676649 -0.026420247 -0.008064536 -0.052509665 0.01079023 0.066505715 -0.012552049
0.07814112 0.009254855 0.05422346 -0.037018687 0.041034706 -0.012687487 -0.05390104 0.12164977
0.023927221 -0.011178372 0.07994258 0.024841536 -0.013004255 0.048448164 0.0082739545 -0.017593091
0.03841639 -0.011690014 -0.00376813 0.0110047925 -0.015896939 -0.013281408 0.079223394 0.06666319
0.0040363073 -0.048572063 0.11114662 0.0708176 0.015322011 -0.031922683 -0.08225535 -0.030806653
-0.00473424 0.011951261 0.03405833 0.023726229 0.038570203 0.014601388 0.00011436855 -0.033097643
-0.010327301 0.07713245 0.045851078 0.033268888 0.059275474 0.04886939 0.03449191 0.045774695
0.022683999 0.05712348 0.053484406 0.0054094032 -0.0025942158 0.0058688745 -0.029563569 -0.02264378
0.018594852 0.03433462 -0.03153467 0.007407371 -0.0018954764 0.020586183 0.041940603 0.023846487
-0.005522386 0.0087079555 -0.010214286 -0.020579059 -0.02339604 -0.022289926 0.011573648 0.030763505
0.029310541 0.010744427 0.036739036 0.05502954 0.046429366 0.04846129 0.024269849 0.029258339
0.041601807 0.05265063 0.047082216 0.022632988 0.0066427034 0.0025165703 0.023454305 0.05785961
0.031099113 0.017907938 -0.018860111 -0.024677783 -0.024014087 -0.0024876287 -0.0117857205 -0.033526704
-0.015609559 -0.020341361 0.010664807 -0.027665848 0.017274631 -0.015635267 -0.035985988 -0.015643666
-0.02274642 -0.004894986 -0.013898161 -0.022930924 -0.027719112 -0.025445245 -0.0018306114 -0.026611367
-0.010655658 0.0016370524 0.027500242 -0.015184222 0.01465566 0.0023350783 -0.0042687464 -0.017943898
-0.026749706 -0.012542705 -0.0079488885 -0.021415561 -0.008715643 0.00082024955 -0.0046627093 -0.0074611288
-0.02402234 0.01021993 -0.0010000012 0.016505491 -0.022689857 -0.001031391 -0.0021002255 -0.028832713
-0.024743253 -0.0013473296 0.014162352 0.00021302355 0.0103734275 -0.032804623 -0.0051791384 -0.0039617373
0.014232758 -0.0058347066 0.029747166 0.009883679 -0.01985241 -0.017436842 -0.0446169 -0.016994629
-0.023057902 -0.005174855 -0.022048403 -0.013212593 -0.011631189 -0.018175598 -0.0062174024 -0.005074912
-0.014237034 -0.03332072 -0.02300903 -0.00025693033 0.010502675 0.009800579 0.001345057 -0.0008699456
-0.020926435 -0.019080492 -0.01576644 -0.00037451685 -0.014642666 -0.028943883 -0.032510683 -0.028474597
-0.016025003 0.0023527492 -0.010937478 0.008079454 0.016213432 -0.00037420282 0.006029766 -0.0014869059
-0.017002987 -0.014754114 -0.015508566 -0.013364393 -0.008941484 -0.013899758 -0.014516587 -0.012937469
-0.007938511 -0.012061816 -0.003859974 -0.009336407 -0.012451798 -0.0048003066 -0.014417915 -0.0094005605
-0.024114482 -0.023867512 -0.02772543 -0.021878656 -0.018941537 -0.009328228 -0.0152727375 -0.013509398
-0.009417967 -0.009207065 -0.015373812 -0.006931628 -0.0041056443 0.00033531958 0.0022121307 0.0005566256
00000000: 4db3 0d3e d1ad cf3c 12f5 333c 6aad b03d
00000010: 045f 10bd ef0a a2bc 8116 813c 0c1c e9bb
00000020: dc19 f6bb 0abe 58bc 07ef 1f3d 3139 293d
00000030: af0b a73c ccab d13c a267 b1bc a0a1 1f3c
00000040: ea9a 353d d750 263d 1a35 543d 133f 573d
00000050: bca6 07bd c650 003d 25ed 413d 358c f33d
00000060: f1b2 463d 2bb5 163d 5e0f 77bb b571 c7bb
00000070: c673 b23c 4523 713c 6f1b 8b3c 4e89 57bc
00000080: 415b abbc b8b1 4fbc 466f d8bc 1e21 04bc
00000090: 6014 57bd 81c9 303c 2634 883d 1ca7 4dbc
000000a0: 7408 a03d ada1 173c 6b19 5e3d e8a0 17bd
000000b0: 0214 283d 2ddf 4fbc 56c7 5cbd 8423 f93d
000000c0: 0503 c43c 7e25 37bc efb8 a33d 7a80 cb3c
000000d0: cc0f 55bc 9571 463d 7b8f 073c 631f 90bc
000000e0: 815a 1d3d 7987 3fbc bbf2 76bb 724d 343c
000000f0: 4c3a 82bc 439a 59bc e03f a23d b686 883d
00000100: 0043 843b 80f3 46bd d7a0 e33d d108 913d
00000110: 2c09 7b3c 5cc1 02bd 7e75 a8bd 3c5e fcbc
00000120: af21 9bbb 39cf 433c bf80 0b3d 825d c23c
00000130: cafb 1d3d a93a 6f3c 26d9 ef38 6591 07bd
00000140: d733 29bc 9ef7 9d3d 57ce 3b3d f544 083d
00000150: d7ca 723d 452b 483d 6447 0d3d 3f7e 3b3d
00000160: cbd3 b93c 4ffa 693d 7712 5b3d 5d41 b13b
00000170: b803 2abb b04f c03b 4c2f f2bc 737f b9bc
00000180: 3b54 983c 75a2 0c3d 802a 01bd 88b9 f23b
00000190: a271 f8ba 5ba4 a83c e9c9 2b3d b559 c33c
000001a0: 22f5 b4bb d0ab 0e3c d259 27bc 6a95 a8bc
000001b0: 0da9 bfbc 5d99 b6bc 669f 3d3c bf03 fc3c
000001c0: a91c f03c 6509 303c ac7b 163d a866 613d
000001d0: b82c 3e3d 587f 463d 90d1 c63c 2faf ef3c
000001e0: a866 2a3d 30a8 573d 48d9 403d d168 b93c
000001f0: 09ab d93b 0bed 243b 3e23 c03c 33fe 6c3d
00000200: 91c3 fe3c abb3 923c 8580 9abc 1029 cabc
00000210: 31b9 c4bc 7c07 23bb e518 41bc 4c53 09bd
00000220: 3cbf 7fbc eda2 a6bc 71bb 2e3c 7da3 e2bc
00000230: 8783 8d3c 8815 80bc 0b66 13bd 2527 80bc
00000240: b356 babc 1e66 a0bb 1db5 63bc a2d9 bbbc
00000250: 3113 e3bc 8c72 d0bc 20f1 efba 1500 dabc
00000260: 1295 2ebc 5d92 d63a 3048 e13c 3ec7 78bc
00000270: 4b1e 703c 1d08 193b d7e0 8bbb 15ff 92bc
00000280: 3322 dbbc eb7f 4dbc 0e3c 02bc b06f afbc
00000290: 0ecc 0ebc 0406 573a a4c9 98bb 7c7c f4bb
000002a0: 80ca c4bc 7e71 273c 7912 83ba 8636 873c
000002b0: 14e0 b9bc bd2f 87ba f0a3 09bb 9532 ecbc
000002c0: 5db2 cabc e198 b0ba 3609 683c 135f 5f39
000002d0: 4ff5 293c 245e 06bd c3b5 a9bb 76d1 81bb
000002e0: 8430 693c 1131 bfbb 54b0 f33c 28ef 213c
000002f0: 85a1 a2bc b5d7 8ebc 36c0 36bd 5238 8bbc
00000300: ede3 bcbc d491 a9bb da9e b4bc a279 58bc
00000310: be90 3ebc fee4 94bc 5abb cbbb 734b a6bb
00000320: 7342 69bc 4f7b 08bd 6f7d bcbc 9bb4 86b9
00000330: 6913 2c3c 9c92 203c a04c b03a 100d 64ba
00000340: ea6d abbc b14e 9cbc 9f28 81bc cd5a c4b9
00000350: cbe7 6fbc b91b edbc ec29 05bd 8f43 e9bc
00000360: de46 83bc 9530 1a3b 1c33 33bc b05f 043c
00000370: 08d2 843c a730 c4b9 5895 c53b 48e4 c2ba
00000380: d949 8bbc 3dbb 71bc a417 7ebc 54f6 5abc
00000390: 4d7f 12bc d0bb 63bc fbd6 6dbc aef7 53bc
000003a0: 8710 02bc ec9e 45bc 9ef7 7cbb bbf7 18bc
000003b0: a002 4cbc e44b 9dbb 1e39 6cbc cf04 1abc
000003c0: bc8b c5bc cd85 c3bc 7120 e3bc de3a b3bc
000003d0: 482b 9bbc 6dd5 18bc 813a 7abc 8656 5dbc
000003e0: d14d 1abc 3bd9 16bc 71e2 7bbc b622 e3bb
000003f0: a488 86bb d5cd af39 65f9 103b 83ea 113a
