TrainedModel/Dueling DQN-1/20500_0-065_DuelingDQN.pth (torch, 291221 bytes, 33 tensors)

conv1.weight f4 [1, 6, 1, 4]
00000000: 4f62 a43f 5598 b83e 8018 913e 4651 fc3e
00000010: f533 563e 2c01 393e e917 933e c913 863e
00000020: ced7 bc3d 93e8 d83c ad32 a9be 6ad0 c1be
00000030: c9c5 c63c 6a4f 953e 9ca2 03bf 84ed 16be
00000040: 9b22 bbbd 65da 0abe 4926 4cbe af70 e6be
00000050: f16c d33c c95c 6e3d 9b25 abbe 30db ecbe
1.2842501 0.3605372 0.28339005 0.49280757 0.20918258 0.18066853 0.2872918 0.2618697
0.09220849 0.026478088 -0.33046475 -0.3785432 0.024264233 0.2916215 -0.5142 -0.14739043
-0.0913746 -0.13559873 -0.1993648 -0.45007846 0.025808783 0.058193956 -0.33427128 -0.46260977

conv2.weight f4 [1, 6, 2, 4]
00000000: b8a7 87bd ac14 d3bb 38af 903e 92dc 183e
00000010: 9693 31be e4e8 253f 8f4b 1b3f 5767 01bf
00000020: abbd 2c3e 1ea6 043f a745 bb3e a369 38be
00000030: 99a1 05bc 96d4 06bf 3b43 f6be 0baf c0bd
00000040: 7325 023f 9661 7d3e b0e3 6f3e a56a aebe
00000050: d59f a83d 1f46 8ebe c5ff 953e b64b 5dbf
00000060: 80af 93bd a3d8 39be ff02 7f3e d155 9d3e
00000070: 8518 5abc 99fe 74be 634b ac3e bcf6 22be
00000080: ce5a 70bd dd29 76be 9f2a a83e 1c21 da3e
00000090: 31de e1bd 0950 403e 0c66 93bd a3f2 5abe
000000a0: 488c 0b3e 9604 003e 86f1 20be 671d d03e
000000b0: 8a10 41bd 8f46 cf3d 8cfa a53d eca6 403c
-0.06623787 -0.0064416733 0.2825868 0.14927891 -0.17341456 0.6480849 0.6066217 -0.5054831
0.16869228 0.51815975 0.36576578 -0.18009047 -0.008156204 -0.5266813 -0.48098168 -0.09408387
0.5083839 0.24744257 0.234267 -0.34065738 0.082336105 -0.27787873 0.292967 -0.8644365
-0.07211208 -0.18149047 0.24903487 0.30729535 -0.01331151 -0.23925246 0.33651266 -0.15914434
-0.058680348 -0.24039407 0.32845017 0.42603385 -0.11028708 0.18780531 -0.07197198 -0.21381621
0.13627732 0.1250175 -0.15717134 0.40647432 -0.047134914 0.1012088 0.08104429 0.011758547

conv3.weight f4 [1, 6, 3, 4]
00000000: 64d3 623e 9f74 8e3e f13a 9abd be04 1c3e
00000010: 430e b13e f363 293f 47a0 40be e119 113f
00000020: ad02 943d 9ff6 ee3e 66ba 2d3d af1d 013f
00000030: db48 00be b6dc 6dbe cf11 16be 84db 82bd
00000040: 4876 34bc 1039 e5bd e264 80bd 00cd 103a
00000050: 1cff f23d a288 783e 8033 ee3c 045f 5ebd
00000060: a7be 123d 3c91 cabd bcff c7bd eaa6 f23d
00000070: 644c 43be a268 c53d f969 0dbc 7b0b 953d
00000080: 1c55 063e ed11 80be d900 d13d 7c10 fd3e
00000090: d0e8 43be 5d82 9d3d 1648 113e b08e 853d
000000a0: 664e 0d3e a20e 333e 4f4b 07be 5ff9 3cbe
000000b0: e7f6 cebc 5a67 0dbe 7871 f73d a62d 8e3e
000000c0: 26ca 27bd 80b6 193d b4f0 843d a6ec 9abd
000000d0: cead b73d e0a8 a0be ee58 353e e5d8 783e
000000e0: bb08 51bd 4d30 7f3e ece7 e9bd c83b 8fbd
000000f0: 4d3e 553b 43d2 613d c197 a83d 66c5 243e
00000100: 6578 ebbd b2ff b13c 7b56 953d d328 8abe
00000110: 8da2 063e 22aa 13be f466 d73d 3fd4 9b3e
0.22150952 0.2782335 -0.075307734 0.15236184 0.34581193 0.66168135 -0.18811141 0.56680113
0.07227073 0.46672532 0.04241409 0.5043592 -0.12527792 -0.23228726 -0.14655231 -0.063895255
-0.011014529 -0.111925244 -0.06269242 0.00055237114 0.118650645 0.24270871 0.029077291 -0.054289833
0.03582635 -0.098909825 -0.09765574 0.118482426 -0.1907211 0.09639098 -0.008631223 0.0727758
0.13118404 -0.25013676 0.1020524 0.4942664 -0.1913178 0.076908804 0.14187655 0.06521356
0.13799438 0.1748605 -0.13212322 -0.18454503 -0.025264217 -0.13808957 0.12082189 0.27769202
-0.04096427 0.03752756 0.06491223 -0.07564668 0.089686975 -0.3137884 0.17709705 0.24301489
-0.051033717 0.24920769 -0.11421189 -0.06993824 0.0032538355 0.05513216 0.0823207 0.16090927
-0.11497573 0.02172837 0.072918855 -0.2698427 0.13147946 -0.1442037 0.105176836 0.30435368

conv4.weight f4 [1, 6, 4, 4]
00000000: 277a aa3e 4db9 f1bd 87b1 463e ef22 6e3d
00000010: bc8d be3e 0c39 e5be a0eb ecbd 81d1 33bd
00000020: d6f6 753d 6a52 21be 518e 0e3a f426 023e
00000030: 360c a63e e366 d7be a0ba aebd bbde ba3d
00000040: a710 ee3d 42fc 123e 6f86 313d 493b 06bd
00000050: be8d afbd bdf7 5cbd 75d7 c73c fb1b 4e3d
00000060: 776f f7bc dc78 d2bd 7d2f 84bd 925f 8bbd
00000070: 6140 5abd b83f 97bd cd0e c8bd 8e81 96bd
00000080: b86f 343d 35e4 04be 80f2 de3d cfe2 e53d
00000090: 90e8 e23d 726e e4bc 2bd3 febd 52c1 08bc
000000a0: 0962 563e 4031 6abe 82e0 4ebd 2145 38bd
000000b0: 62f9 92be 8029 003e 051e 353c f361 a33e
000000c0: 5559 a8bb 5110 a9bd 71bd 103d 734f 913d
000000d0: f454 d3bd c3b9 a23d 0d7f b3bd 9123 0dbc
000000e0: 705d d63d 432a 9cbc e2ec 28bd dfad 70be
000000f0: 570a 8fbc 8014 d1bc f59b a53d a90b 3ebd
00000100: ca6d 69bd 7e2d cabd eb53 643d 3e2e f23d
00000110: e082 7bbd 86c3 a2bd 5f93 013c bad6 04bd
00000120: b6f7 f73a f159 9abd 0da8 293e ae07 293e
00000130: 1343 003d d746 30bd 0489 3f3e 170c 64bd
00000140: 6929 89bd 3010 8d3c dcb0 98bd 055a 003e
00000150: fb64 223e cecd 483b ffac 34be c2f6 4bbd
00000160: 97cd d1bd 7d96 49bd 1532 0d3e 9cd5 bcbd
00000170: 9ced cfbd e9f5 563d 5f77 673d 4024 883c
0.3329632 -0.118029214 0.19403659 0.058138784 0.3721751 -0.44770086 -0.115683794 -0.04390097
0.060049854 -0.15754095 0.0005438077 0.12710172 0.3243119 -0.42070684 -0.0853169 0.09124514
0.1162427 0.14354041 0.043341096 -0.032771382 -0.08571957 -0.0539472 0.02439473 0.050319653
-0.030204518 -0.10276958 -0.0645437 -0.06805338 -0.053284053 -0.073852 -0.09768448 -0.07348929
0.044051856 -0.12977679 0.10886097 0.11224901 0.11079514 -0.027884696 -0.12442621 -0.008346872
0.20935835 -0.2287035 -0.050507076 -0.0449878 -0.2870589 0.12515831 0.0110545205 0.31910667
-0.0051376023 -0.08255065 0.035336915 0.07095232 -0.10318938 0.079455875 -0.087644674 -0.008614437
0.104670405 -0.01906312 -0.041241534 -0.23503827 -0.017460985 -0.02552247 0.08086387 -0.04639784
-0.05698947 -0.09871958 0.055744093 0.11825226 -0.06140411 -0.079474494 0.007908671 -0.03243134
0.0018918428 -0.07536686 0.16568013 0.16506836 0.031313967 -0.04303631 0.18704611 -0.055675592
-0.066973515 0.017219633 -0.07455608 0.1253434 0.15858833 0.0030640247 -0.17644118 -0.049795873
-0.10244291 -0.049215782 0.13788636 -0.0922043 -0.10152742 0.052480612 0.056510326 0.016618848

fc3_adv.weight f4 [76, 130]
00000000: 4129 543e 6f5d 1b3e 4222 153e bced 0cbe
00000010: 86d1 68bd bddc e2bd d97b b03e 65e2 063e
00000020: c00c c53d 9325 10bd 9547 4ebd 204d 8d3c
00000030: c3ad 9b3e d7e4 bc3e f412 183e 1e35 ab3d
00000040: f55c 7d3e 6ded 023e 8cf4 283e 01ac 173e
00000050: 8106 a53e 9f3f 85be 5614 8cbf 1fcd 10bf
00000060: c487 20bf f31a 46bf 6476 cdbe d214 413c
00000070: 444d c53d 8b28 1b3e 5ad5 ce3b c48c de3d
00000080: 2b2b 453d 8d07 26bc fc05 8abd 6f93 4e3e
00000090: b175 733e 1896 163e 80b7 3ebc 512a 993e
000000a0: c508 143e 0c8b a53e 5ebd 193e 6c82 d03e
000000b0: ff2c e43d 0c69 a33e dc9b 213e 3f99 f03e
000000c0: e8b1 ff3e efe6 0a3d 7551 803e 84fe 503e
000000d0: ad50 8f3b f10e a8bd 64cb 063e 9ffd bc3e
000000e0: 2630 c9bd ec39 b9bd f970 4b3e 5237 623e
000000f0: 8a1e b83e 13ab 813e a1f1 e43c 07a6 63bd
00000100: f374 0bbe 35e8 153e 51f5 a93e c4cd c63e
00000110: 2ec1 9d3e d6f4 8f3e a571 843e a691 39bb
00000120: 6966 eb3c ee3b c83e 0e73 213e 361d 20bd
00000130: 6cae 533e 77bc 0f3e 1ce7 80bc 0907 c23e
00000140: b5ad 0b3d e908 2c3e e24e 1b3e 47c2 be3e
00000150: 0025 103e 1515 79bd 31f1 a13d 9d9e 5b3d
00000160: 4d62 09bf 8a49 32bf 2fc6 2abf a8a6 53bf
00000170: 171d 2fbf 11a7 0ebc d89b 76bd eb40 123e
00000180: 08da 6bbe 2ba7 e03c ac85 2dbc 73d3 2a3d
00000190: 2aa6 983e 8d7e 9fbb 8fc8 dd3c c619 21bd
000001a0: 78e2 013e c9e7 f03d 77bb 0b3d 88dd a1bc
000001b0: b053 2d3e ff6a e53c cc56 fe3d a372 283d
000001c0: 7934 003e 22a0 debd 18a1 ae3d 4834 c83e
000001d0: 523a 843e 111d 61be a5a9 9d3c 1392 9dbc
000001e0: ad8c bbbe 1164 a1be 70ec 42be 4089 84be
000001f0: bb69 04bf 3203 32be 8214 c7bd 1f8c c63c
00000200: 9671 f0bd 5ca3 503e f98c 9c3e 0a64 cd3e
00000210: 6b56 723e 6f29 bb3e aec2 773e 93d2 973e
00000220: 39d8 d0bc a22a 5a3e 58b0 a23e f02e 873e
00000230: 1042 7f3e 5f6c c53e 990d da3e 60ec 8c3d
00000240: e33d 14bd 8a8d c53e a3cc 933e eaaf c53e
00000250: 0d23 e13d dbb7 703e 5480 d03e d6c8 6a3e
00000260: 2df1 973c 5afc 2e3e f86a c83e ba6d da3e
00000270: 0656 a03e e0a0 b83d 111a 403e f82c 3e3e
00000280: 6e45 ff3e 7979 413e 909c a83e 5383 4a3d
00000290: 06ad 17be 5eda 5dbe a6c4 06be 0584 1ebd
000002a0: 1c47 823d 2f67 8bbe 8cfa 12be 8276 763d
000002b0: 799c 0c3e a4dd 5abe bae3 d13c bf91 6abd
000002c0: ad26 173e 3712 e33c ccff ebbd 4b5b f5bd
000002d0: 852d 61bd 0a8d 64be c0ca 09be a27b 09be
000002e0: bfe0 f93a 88a2 07be 441c cb3d 7d6a 81bc
000002f0: ccf8 5abd d112 e5bc 69e9 04be 023c 243e
00000300: 94de abbe 9ed0 aabc 3269 adbd 4168 2abc
00000310: e421 fa3d acd6 1e3e 8688 1e3d dc8e 8b3e
00000320: 280b a83d e0aa 893e 7c31 9f3d 8073 13be
00000330: ac04 91bd 37fc 463d a2b0 a03d 2a3d e93b
00000340: 857a de3c f965 a03e 9136 783d 0eed 2bbe
00000350: 08e0 4fbd 6f00 86b9 e91c 91bb d932 1f3e
00000360: 41f7 aebd f2bc 803d b082 4d3e bc1e bf3b
00000370: 56a6 113e 6675 a23e 1b5a 603d 2a69 18be
00000380: 627c 5cbe d8d1 31bd c38f 33be f905 0b3e
00000390: a1ab bd3d c0d5 923b e22f 5cbe 59a8 a13d
000003a0: 7423 03bd d49c 1cbe 7f25 1cbe 24dd f73a
000003b0: 6786 19be 8de9 c8bd 0507 b33c ef05 49bd
000003c0: 9cbd 56be 4a4b a2bd 2868 783c cba1 c7bd
000003d0: eba5 17be fc97 45be 9e5e 2f3e 3d3a ecbc
000003e0: 89c2 b3bc 230c 99bd d23a 77be 93c5 5dbd
000003f0: 0451 02be 26f5 343e 0898 81bc 8859 8d3e
0.20718862 0.15172361 0.1456385 -0.13762563 -0.056840442 -0.11077259 0.34469488 0.131723
0.096215725 -0.035192084 -0.050361235 0.01724869 0.30406007 0.3689334 0.1485098 0.08359741
0.24742492 0.12785883 0.16499537 0.14811708 0.32231525 -0.26025102 -1.0943706 -0.5656299
-0.6270716 -0.7738487 -0.40129387 0.011784749 0.09633878 0.15152185 0.0063120546 0.10866693
0.04813687 -0.010133636 -0.06739423 0.20173429 0.23775364 0.14705694 -0.0116404295 0.29915097
0.1445647 0.32332647 0.15013644 0.40724504 0.11141395 0.31916082 0.15782112 0.46991917
0.4994042 0.03391164 0.25062147 0.2040959 0.004373631 -0.08205975 0.13163525 0.36912248
-0.09823637 -0.09044251 0.19867314 0.22091416 0.359608 0.25325832 0.027947249 -0.055578258
-0.13618831 0.14639361 0.33194974 0.38828862 0.30811447 0.28116482 0.25867954 -0.0028315573
0.028735356 0.39108223 0.15766546 -0.039090358 0.20672005 0.14036737 -0.015735202 0.37895992
0.034101207 0.16800274 0.1516681 0.37257597 0.14076614 -0.06081112 0.07907332 0.053618062
-0.5366562 -0.6964346 -0.66708654 -0.8267617 -0.6840376 -0.008706824 -0.060207218 0.14282577
-0.23032391 0.027423462 -0.010590952 0.04170556 0.29814273 -0.004867381 0.027073173 -0.03933122
0.12684047 0.117629595 0.034114327 -0.019758955 0.16926455 0.028005121 0.12418899 0.04112495
0.12520017 -0.10870387 0.0852682 0.39102387 0.25825745 -0.21983744 0.019245932 -0.019234693
-0.36630765 -0.31521657 -0.19035506 -0.25885963 -0.5172383 -0.17384031 -0.097207084 0.024236737
-0.11740415 0.20374817 0.30576304 0.40115386 0.23665778 0.3655505 0.24195358 0.29652843
-0.025493728 0.21305326 0.31775165 0.26402998 0.24927545 0.38559243 0.425885 0.068810225
-0.036191832 0.38584548 0.28867063 0.38610774 0.109930135 0.23507635 0.40722907 0.22928175
0.018547619 0.17088452 0.3914411 0.4266184 0.3131563 0.090150595 0.18759944 0.18571842
0.49857658 0.18893994 0.32931948 0.049441647 -0.14812097 -0.21665332 -0.13160953 -0.038700122
0.06361219 -0.2722716 -0.14353389 0.06017161 0.13731565 -0.21373612 0.025621284 -0.0572679
0.14760847 0.027718646 -0.11523399 -0.119803034 -0.05497505 -0.22319427 -0.13456249 -0.13426068
0.0019064172 -0.13245595 0.099175006 -0.015797848 -0.053459927 -0.027963074 -0.12979664 0.16038516
-0.3356825 -0.02085143 -0.0846733 -0.010400833 0.122134954 0.15511578 0.038704418 0.2725743
0.08205253 0.2688818 0.0777311 -0.14399529 -0.07080969 0.048580375 0.0784619 0.007117887
0.027158031 0.313278 0.060598914 -0.16789648 -0.050750762 -0.00025558795 -0.004428495 0.1554674
-0.08543254 0.062860385 0.20069385 0.0058325212 0.14223608 0.31730193 0.05477343 -0.14883867
-0.21531823 -0.043413013 -0.1753531 0.13576497 0.09261251 0.0044810474 -0.21502641 0.07893438
-0.032016233 -0.152942 -0.15248679 0.001891051 -0.14992677 -0.09810171 0.021853933 -0.049077924
-0.20970768 -0.079245165 0.015161552 -0.097476564 -0.14809386 -0.19296259 0.17125937 -0.028836364
-0.021943348 -0.07473018 -0.24143532 -0.0541435 -0.12726218 0.17671642 -0.015819564 0.2760737

fc3_adv.bias f4 [76]
00000000: 6a54 2d3e 1d7e d43d 5a56 d2bd b3ed 4a3e
00000010: a56b 413e 6f17 8c3e 0e52 243e 3aef 233d
00000020: cbea bb3d 6c5f df3d b50c 4dbc 9c18 4b3d
00000030: 532c 893d c901 873d 40c2 653f 00ed ba3d
00000040: 76ae d13d faca 423e da4d 7a3d 3aac 563e
00000050: 5586 833d 6668 91bc 94d3 903e 5391 4e3e
00000060: 41cb 2b3d 4c68 ae3d f1e4 963d acd0 cbbd
00000070: da11 e53d 848d 143d 926d 5b3e 79e3 66bc
00000080: 13d8 7c3e 975e 283e 1222 a13d 5eae ba3c
00000090: 517a 7f3d f968 b53c 092e 363e ec55 813d
000000a0: 44cf 243e 668b 953d cdd1 0f3d 979d c7bb
000000b0: c9b2 8d3d ff67 e43d 21d2 2a3e e49e 373e
000000c0: c59c c63d f598 3f3e 3d11 623e 1e1c 083e
000000d0: 8ad4 02bd 9b67 8a3d 4039 c63d 7cc3 473d
000000e0: 59a6 133d 343d 613d 932c fa3d 500b 3d3d
000000f0: 3c91 fdbc addf e03d f78c b73c 2e11 ec3d
00000100: 784f 2f3e ba8e 0a3e 559e c63c b97b 1f3d
00000110: 9d4e 943b b30a 873c 8d33 493d 6a74 bbbc
00000120: c683 093e e51f 593d 6c12 433e 4cf8 073e
0.16926733 0.10375617 -0.102703765 0.19817238 0.1888872 0.27361628 0.16046926 0.040023066
0.091756426 0.10906872 -0.012515237 0.049584016 0.06697907 0.06592137 0.89749527 0.091272354
0.10238354 0.19022742 0.0611094 0.20964137 0.06422106 -0.017749976 0.2828642 0.20172624
0.041941885 0.08515987 0.07367886 -0.099519104 0.111850455 0.036267772 0.21428517 -0.01409232
0.24691801 0.16442333 0.078678265 0.022788223 0.06237251 0.022144781 0.17790999 0.063152164
0.1609469 0.07301979 0.03511219 -0.006091784 0.06918866 0.11152648 0.1668172 0.17931706
0.0969787 0.18710692 0.22076888 0.13291976 -0.031940974 0.067580424 0.09678888 0.048770413
0.036047313 0.05499001 0.12215533 0.046153367 -0.030953042 0.10980163 0.022406084 0.11526714
0.17120159 0.13531008 0.02424542 0.03893635 0.004525973 0.016484594 0.04912143 -0.022882659
0.13429174 0.053008933 0.19049996 0.13278311

fc3_val.weight f4 [76, 130]
00000000: a9bc af3d f4ae ae3c 0c03 d73b 3ca2 343d
00000010: 4fca 3c3d 7050 743d 3583 60bd 1be0 213d
00000020: e0f0 1c3e 435e 583e 8502 9e3d 7dae c7bd
00000030: a491 1e3d bd90 d1bc fcde 893d c4de 0bbe
00000040: c509 913e baab ffbd 3bfd 493d 2cd9 0bbe
00000050: 86bb e0bd 9e90 ce3d eaa7 60bd 4400 9ebd
00000060: e97b d23c cea6 f13d 2ee7 4f3d 7338 dabd
00000070: b1e7 423e 7657 6d3e 4dbf 1c3d b5d1 3bbc
00000080: 12b7 a43e 0298 333e cbb6 4b3e 1f51 3c3e
00000090: fe1d 653c d14a 613e 3aeb 893c 750d cf3d
000000a0: 94b8 333e db06 5c3e 1696 9a3d 0d70 db3c
000000b0: a6fc ac3e a2d4 003d f9f1 d7bc 13d5 173e
000000c0: 6b6c 693e 11f8 2b3e a8e1 e73d b731 813e
000000d0: 7718 263c 528b 763e cf41 043e 3d6d e53d
000000e0: 83d5 543c f01c f63d 64ab b43d 2177 6b3d
000000f0: caaf 4f3d 35cd 743e d3f4 9bbc 70de 1a3e
00000100: 9012 563d ac1e 0c3e fac4 2c3e 9b18 0b3d
00000110: 0e0c 163d e1b2 503e 01a8 95bd e86d 46bb
00000120: 0ec4 f73d a00c 8f3e c5d6 1c3e 5f40 3c3e
00000130: c1c4 0b3e e5c5 823e 8d02 9a3d bda2 293d
00000140: 68f4 85bc 780c bc3a 1973 13bd a5ea 633d
00000150: 33c1 2b3e b5a8 f53d 73c0 403e 0306 0a3e
00000160: 700d 6c3e 77f4 8e3d cb2e 2f3e 1f2c ce3d
00000170: 19ef 36bc b23f 82bc f266 ab3d 057d 763d
00000180: fc3d 4b3e 4892 4f3e 6abf 023e 0131 9c3e
00000190: 13bb 263e 833f 783e 57dd 9fbb 1f2f 5f3d
000001a0: c386 ab3e 8a9b 443e b8db 3a3e 90b3 883e
000001b0: e0af 963d d734 c03d b13c 463e cd04 a03d
000001c0: aca7 353e 324f 823e 1532 263e 6fab bc3c
000001d0: ecc7 b53e edf9 833e d06a 823e d8a5 a93e
000001e0: e92c 0c3e eb61 823e 4c00 303e 8ac2 a63e
000001f0: cbb6 8d3e a91c dc3e 383d be3e 1365 8b3e
00000200: eb4c ce3e c45e 3f3e 150a b3bd ec65 f83d
00000210: 714e 043e c6fb e2bc 921b 583c 70bb ecbd
00000220: 044f bd3d 837d 9cbb 1437 71bd 7ca3 143c
00000230: e18c 373e 821d 803c 0ff3 0f3e ef42 283e
00000240: 037f 15be 676a 1d3e 895d 3d3e 2d28 3a3e
00000250: 962e 0d3d 62bb 1cbe d621 50bb da61 a5bc
00000260: 87e5 203e da90 ffbc 560d 193c c075 99bd
00000270: ceff d4bd cc23 2e3e 1e33 babd 1c6c 89bc
00000280: 6abb f03d 676f 1d3e a01f 023d 7b70 93bc
00000290: 80ef 0b3e d84b 9d3d 6dea 083e 05c2 4c3e
000002a0: e843 02bb ffec 943e df0f ba3d dc6a 2a3c
000002b0: 18b0 923d 9cbf b6bc 3bef 123e fa54 873e
000002c0: c761 413e 49cf 923c a557 893e 17a1 3b3e
000002d0: 2f11 873e c9e8 ce3d 15df 593e 5f7b 7ebc
000002e0: e5e1 ee3d c1ac b53c b6e2 6f3e 59cc 60bd
000002f0: 1189 7e3e 5895 043e d797 843e 6d11 6f3e
00000300: 1498 fa3d f048 f8bb 4c1a 30bd 25ce b93d
00000310: 36a5 d73c a311 853e b19e 663e 7d3f 6f3e
00000320: 1e23 ff3d b2b1 28bb acf8 983d 5529 953e
00000330: d6f4 423e ba50 fd3d 3d73 9a3d 4461 013c
00000340: a3ab 483d 0f7b aabb d13b 643e 4233 e73d
00000350: 42b8 213e 7b70 533e 0701 1b3e f8f5 463e
00000360: e301 8c3d 7cfc 813d 7419 b9bc 3c76 45bd
00000370: 951e 7c3e e618 e73d 288e 34bd 9e81 603b
00000380: fae0 103e 2cd0 5a3d 875c 2a3e b716 583e
00000390: cac8 863c 59ec 0e3e 660e b93e 0380 933d
000003a0: d8a1 353d 67a2 2b3e bb0e 823e 2ebb 283e
000003b0: 243d 933e 7c14 e23d 1022 9d3e 9088 7e3e
000003c0: aa86 eb3d c553 933e 6f3d 833b 2e69 023e
000003d0: 7bff 313e 8624 7b3e 0887 ac3e c989 443e
000003e0: 555d ef3d 3450 873e dbcf d03d 6508 2b3e
000003f0: 33b4 453e d5dd 313e 16e4 ce3e f8be f43d
0.08580906 0.021323659 0.0065616425 0.04410003 0.046091374 0.059647024 -0.05481263 0.039520364
0.15326262 0.21129708 0.07715324 -0.09750078 0.038713112 -0.025581712 0.06731984 -0.13659197
0.28327766 -0.12483926 0.049313765 -0.13657063 -0.10973267 0.10086177 -0.054847635 -0.077148944
0.02569385 0.117993936 0.05075758 -0.10655298 0.19033696 0.23177895 0.038268376 -0.011463572
0.32170922 0.17538455 0.19893949 0.1839032 0.0139842015 0.22001196 0.016835798 0.101099886
0.1755088 0.2148699 0.07548158 0.026786828 0.33786505 0.031452782 -0.026360499 0.14827375
0.22795264 0.16793849 0.113223374 0.25233242 0.010137669 0.24076584 0.12915729 0.11202476
0.012990358 0.12017238 0.08821753 0.057486657 0.050704755 0.23906405 -0.01903764 0.15123916
0.052263796 0.13683575 0.16872016 0.033959012 0.03663259 0.20380737 -0.07307435 -0.0030277912
0.12097941 0.2793932 0.15316303 0.1838393 0.13649274 0.25541607 0.07520018 0.041414965
-0.016351894 0.0014346978 -0.035998438 0.055643696 0.16772918 0.11995069 0.18823414 0.13478856
0.23052001 0.06980222 0.17107694 0.10067009 -0.011165404 -0.015899513 0.08369245 0.06017782
0.19847864 0.20270646 0.12768331 0.30506137 0.162823 0.24242978 -0.0048786807 0.054488298
0.33501253 0.19199958 0.18247879 0.26699495 0.07357764 0.093850784 0.1935909 0.07813416
0.17739743 0.25451046 0.16230042 0.023030965 0.3550409 0.25776616 0.25472116 0.3313434
0.13689007 0.2546533 0.17187613 0.32570297 0.27678522 0.42990616 0.3715608 0.2722555
0.4029306 0.18688494 -0.08742157 0.12128815 0.12920548 -0.027707946 0.013190167 -0.11559188
0.09243587 -0.0047757044 -0.058890417 0.009072181 0.17924835 0.01563907 0.14057563 0.16431783
-0.14599232 0.1537262 0.18492712 0.18179388 0.034468256 -0.15305856 -0.003175845 -0.02018826
0.15712558 -0.031197 0.009341558 -0.07493162 -0.10400353 0.17005843 -0.09091781 -0.016775183
0.117544964 0.15374528 0.03176844 -0.01799797 0.13665581 0.07680482 0.13370676 0.19995888
-0.00198769 0.29087064 0.090850584 0.010401454 0.071624935 -0.022308163 0.14349072 0.2643202
0.18884955 0.017921107 0.2682468 0.1832317 0.26380298 0.10102994 0.21276505 -0.015532344
0.1166418 0.022177102 0.23426327 -0.05488238 0.24856974 0.12947595 0.25897095 0.23346491
0.12236038 -0.007577054 -0.04299383 0.09072522 0.026323896 0.25990018 0.22521473 0.23364063
0.1245787 -0.002574068 0.074693054 0.29133096 0.1903871 0.12368913 0.07541511 0.007896725
0.04899181 -0.005202658 0.22288443 0.112890735 0.15792945 0.20648377 0.1513711 0.19429767
0.06836297 0.06346986 -0.022595145 -0.04820846 0.24621041 0.11284046 -0.044080883 0.0034256945
0.14148322 0.053421184 0.16636859 0.21102415 0.016453166 0.13957347 0.36143798 0.07202151
0.0443438 0.1676117 0.25401863 0.16477653 0.28757584 0.11039063 0.3069005 0.24856782
0.115002945 0.2877485 0.004005126 0.12735435 0.17382614 0.24525651 0.3369677 0.19193186
0.116877235 0.26428378 0.10195895 0.16702421 0.19307022 0.17369778 0.4040839 0.11950487

fc3_val.bias f4 [76]
00000000: 47fe 6ebe 79ba bcbe 4c3b c93e 40ca 043f
00000010: 17ff f13e 5432 86be 5944 64be 3c11 ca3e
00000020: e33e a4be 9572 73be 2f3a 97be 3fe4 9fbe
00000030: 7825 8e3e ebe8 8abe 8b68 aabe 7047 013f
00000040: 449d df3e c6db abbe 3b17 85be da6e 9abe
00000050: be3b a6be f6f9 aabe 7c07 c13e 4fe3 5abe
00000060: 507e b0be 41d3 95be 781a 52be 6e9a f53e
00000070: ac36 063f b47a 99be 6246 b4be 911a ca3e
00000080: 515e 503f fedf d63e fa5a 85be 6cd3 7ebe
00000090: ab40 eb3e dae4 bbbe bebe d43e 8563 8cbe
000000a0: d49f b7be b6e1 bfbe 94b4 be3f 679b ee3e
000000b0: cfa0 92be 5e1e d23e 915f 1d3f d375 c6be
000000c0: 18f7 cf3e aab6 98be 4c60 f43e 9713 69be
000000d0: f266 aabe 1489 4bbe 0c22 073f 9dc1 babe
000000e0: 26c4 d33e 6c8f c73e e56c 63be 69f0 67be
000000f0: 9d2e 56be 9640 6ebe 4585 c13e 2170 b8be
00000100: 9281 75be ac25 8cbe 4f33 a7be 7d1f e83e
00000110: 6fe7 97be f703 b5be caac d03e 13f6 9bbe
00000120: d38f 8fbe d70a 5ebe 8eed 83be 9f65 113f
-0.23339187 -0.36861017 0.39303052 0.5187111 0.4726493 -0.26210272 -0.22291698 0.39466274
-0.3207923 -0.23774178 -0.29536578 -0.31228825 0.2776296 -0.27130827 -0.33282885 0.5049963
0.43674672 -0.3356611 -0.25994286 -0.30162698 -0.32467455 -0.3339383 0.37701023 -0.21375774
-0.3447137 -0.29262736 -0.2051791 0.47969383 0.5242717 -0.29976428 -0.35209948 0.39473394
0.81393915 0.41967767 -0.26045972 -0.24885339 0.45947775 -0.36698037 0.41551775 -0.27419677
-0.35864127 -0.3747689 1.4898858 0.46602938 -0.28638312 0.41038793 0.6147395 -0.38761768
0.40618205 -0.29826862 0.4772972 -0.22761379 -0.33281666 -0.1987651 0.52786326 -0.3647584
0.41360587 0.3897661 -0.22209509 -0.22650303 -0.20916219 -0.23266825 0.3779699 -0.36023048
-0.23975208 -0.2737249 -0.32656333 0.45336524 -0.29668757 -0.35354587 0.40756828 -0.30461177
-0.28039417 -0.21683823 -0.25767177 0.56795686

fc4_adv.weight f4 [38, 76]
00000000: b92c 4bbe f6e1 0abe d7ad 773e 7c01 a73e
00000010: 13f0 783d 4e18 20bd 5262 773d 4d52 fe3d
00000020: 077a 893e 4f88 053e 8e17 4dbc 93fd 123e
00000030: 781e 62bd 7181 67bd 8a2a 843f 9277 46be
00000040: 0be6 1e3e a823 123e ff98 1b3e c8bd 953e
00000050: 0109 eb3d 794a 90be d276 5a3e f461 d23e
00000060: 132c af3d 6fab 373e 3ece 493c a86f 133e
00000070: 4379 fb3a 8eb2 5dbe a7ba abba 0635 433e
00000080: 30ed 6fbc 51c0 183e 95cc 45bd f2b9 433c
00000090: 37b9 233e ab4e a03e dbc6 2abe 4d36 543d
000000a0: aced 283d 8d95 c63d 3470 163e c739 853d
000000b0: 2efe 74bd 5fa4 673e d924 3cbd f98f e93e
000000c0: 9964 72be 524d 6f3e 92d2 d93e c7ae 453e
000000d0: 1348 c9bb ffb9 87be 8f60 2d3e b93b b9bd
000000e0: de9f c33c 9e25 11be 0b0f acbd 292e 5b3e
000000f0: 8f6a 5f3e 8129 8f3e 7443 143e 1927 903e
00000100: d037 eb3d 0cf7 203e de86 07be 5f84 133e
00000110: 6aed 62be 35f0 b5bd 9c30 a4bd f1cb cbbd
00000120: 3bda 9f3e 5849 213e 6d9f d43d 6a21 65be
00000130: 9a16 20be 2f50 e1bd b066 843d c8fc 773e
00000140: 4249 2e3e 9888 9a3d 3e34 363e d798 973e
00000150: 9e1a 933e e08b 8a3e 3db5 533e b1ae 9abe
00000160: b4e9 06be 6473 dabd 8d2f ad3f c3ec 0bbd
00000170: 4a42 a33d d039 153e e92d c7bd 3532 d1bd
00000180: 700d 903e d863 963d 9646 843c 93af 733e
00000190: c154 193e 8b40 ac3d 9fd2 8abd 8943 2b3e
000001a0: 892e 1c3e 7982 283e 878f 593d 41b8 d03e
000001b0: 7474 21bd d436 ccbd 44b3 5a3c b34e 2b3e
000001c0: 8dcd cebd 1485 d6bc 6598 a5bd d53c 773e
000001d0: 8ae4 853d 8bc8 043e 4fce febd 797b 8fbd
000001e0: d4e6 c23c a84d 163d 887a 853e 7cb0 303e
000001f0: 9fa8 96bd 802f 2ebd fb9a e13e a4ca 843e
00000200: 2548 403e b243 83be 963f a73e 5877 373e
00000210: aefb 3cbe 6417 5dbe c23f 2d3e e04d 8b3d
00000220: 75b4 a03e cba3 a43d ca86 16be b80e 1c3e
00000230: cdc6 c13b 5427 e0bd 4d5b c63e 3fef a4bd
00000240: 7364 d33b 102c 26be 6b48 a53e f3fb c43c
00000250: c968 ef3b eff6 e5bd bf00 00be 33dc 533b
00000260: 285a c8bd 9c67 c4bd f05c b63e 1ae3 873e
00000270: e035 853e c41a ab3d 8053 1e3e 4a97 823d
00000280: e083 203e bb10 ebbd 798e 8a3e 086f 97bc
00000290: f4e1 5cbc 3c4d 3c3e 8527 403f 1652 d3be
000002a0: 22a8 e23d 780f aebd f51f 01be fa46 293b
000002b0: fd4d 6b3e e601 5cbe 1855 833e 44e8 ec3e
000002c0: 69b8 fa3e fac5 2b3e 3742 333d ebb8 9a3d
000002d0: e041 2dbe d3f0 983e bafc 623d cb74 ad3e
000002e0: 8718 eb3d 261e 8c3e 0198 833d a91f 14be
000002f0: 2616 1c3e f638 e9bb db05 a03e a5aa 89bd
00000300: ce62 9e3d 9179 f93d f217 3e3e f8f0 4abd
00000310: 29c1 f23d 256d 90bd a8f5 89bd f62d b23e
00000320: d9b2 f1bc 5615 2bbe 01d5 963f ed34 cd3e
00000330: 48ae 0d3e a85b b3bd 42e7 013e 9320 a53e
00000340: 8e8c 403e 0649 803d a854 2e3f 5e0f d43e
00000350: d2c5 1a3e d359 04bd 411e 42be bbbc ad3e
00000360: 08cb 733e f2e2 933e 3e3e f3bd 9dea 43be
00000370: 6e58 1abe b277 8c3a ef80 e33d 8359 76be
00000380: 5c6f 823e 2ec7 95be 1195 71bd 6c7f abbe
00000390: 8086 97bd 3edb aebd 45f3 9d3e bb4c c33d
000003a0: 7320 7b3e 754a 433e 8132 3d3e 7216 543e
000003b0: b9be 46be d458 bb3c feb2 333e 6209 313e
000003c0: a1d2 e73c 7058 9f3c ec4b 903f 882d 87be
000003d0: 8437 903e 34ee d1bd 5fce 4cbe 4c9b bd3d
000003e0: 9119 b23d 0eae 833d 3c04 b03e 9301 dc3d
000003f0: 17e0 ac3e 9734 b13c a191 b13e 7d25 533e
-0.19841279 -0.1356276 0.24187408 0.3261832 0.060775828 -0.03908568 0.0603965 0.124180414
0.26850912 0.13040279 -0.012517823 0.14354543 -0.05520484 -0.05651993 1.0325482 -0.1938155
0.15517442 0.14271414 0.15195082 0.29246354 0.11476327 -0.28181818 0.21334389 0.41090357
0.08553328 0.1793649 0.012317238 0.14398062 0.0019185919 -0.21650144 -0.0013101891 0.19063196
-0.014643952 0.14917113 -0.048290808 0.011946188 0.15988623 0.3131002 -0.1667742 0.051809598
0.041242287 0.09696493 0.1469124 0.06505161 -0.059812717 0.22621296 -0.04593358 0.45617655
-0.23671187 0.23369339 0.42543465 0.19304954 -0.006142625 -0.2650909 0.16931365 -0.09044594
0.023879942 -0.14174506 -0.08401307 0.21404327 0.21817993 0.27961352 0.14478856 0.2815483
0.11485255 0.15719241 -0.13235041 0.14405964 -0.22160879 -0.088837065 -0.08017084 -0.09951008
0.31221184 0.15750635 0.103819706 -0.22376028 -0.15633622 -0.11001622 0.064648986 0.24217522
0.17020133 0.075455844 0.17793366 0.29608795 0.28731245 0.2705984 0.20674606 -0.30211404
-0.13175088 -0.1066654 1.3530136 -0.03416134 0.07971628 0.14572835 -0.097255535 -0.10214654
0.28135252 0.073432624 0.01614694 0.23797445 0.14973737 0.08410748 -0.06778454 0.16724981
0.15252127 0.16456021 0.053115394 0.40765575 -0.0394177 -0.09971395 0.013348404 0.1672924
-0.100977995 -0.026186503 -0.080857076 0.241443 0.06537731 0.12967126 -0.12441694 -0.070059724
0.023791708 0.036695153 0.26070046 0.17254823 -0.07356381 -0.04252577 0.44063553 0.25935853
0.18777521 -0.25637585 0.326657 0.1791662 -0.18455383 -0.21590954 0.16918853 0.06801963
0.31387678 0.080390535 -0.14699855 0.1523999 0.0059135915 -0.10945001 0.38741532 -0.08053445
0.0064511835 -0.16227746 0.32281813 0.02404592 0.0073061925 -0.112287395 -0.12500285 0.0032327294
-0.09782821 -0.095900744 0.3561778 0.26540452 0.26017666 0.083547145 0.1546154 0.06376512
0.15675306 -0.114778005 0.27061823 -0.018485561 -0.013481606 0.18388838 0.750603 -0.41273564
0.11067225 -0.08499044 -0.12609847 0.002582966 0.22978969 -0.21485099 0.2565086 0.46270955
0.4896882 0.16774741 0.04376432 0.075548016 -0.1691966 0.29871234 0.0554168 0.33878168
0.114792876 0.2736675 0.06425477 -0.14465202 0.15242824 -0.007117386 0.31254467 -0.06722001
0.07733689 0.1218139 0.18563822 -0.049546212 0.118532486 -0.07052068 -0.06736308 0.3480069
-0.029504227 -0.16707358 1.1783754 0.40079442 0.13836014 -0.087577164 0.12685874 0.32251415
0.18803617 0.06263928 0.68097925 0.41417974 0.15114525 -0.032312226 -0.18956853 0.33933052
0.23807919 0.28884083 -0.11877106 -0.19132467 -0.15072796 0.0010716824 0.111085765 -0.24057584
0.25475585 -0.29253525 -0.05898005 -0.33495653 -0.07398701 -0.08537911 0.30849662 0.095361196
0.24524097 0.19071372 0.18476297 0.20711687 -0.19408692 0.022869505 0.17548749 0.17288736
0.028298678 0.01945135 1.127317 -0.26401925 0.28167355 -0.10250512 -0.200006 0.09258136
0.08696283 0.06429683 0.3437823 0.10742488 0.33764717 0.021631522 0.3468142 0.2061977

fc4_adv.bias f4 [38]
00000000: 8d89 103e 6195 80bc a910 183e d9ee 75bd
00000010: 50a1 15bd 99cf a1bc bc3b 3e3e 79bd f9bd
00000020: 1dc1 00be d0c6 25be 3afe e2bd 8779 2a3e
00000030: a5f1 f43c 6b52 a53c 68ff 103e 5775 cd3d
00000040: 1787 123e f9f2 3fbe 5ca7 4a3e 37e6 2d3d
00000050: 5a65 fd3d 9a5d 4d3e e61f 273e b51f 513e
00000060: ae93 3f3e bd86 983c 249b 14be ec9d a0bd
00000070: a847 e6bc ddd8 a23c 79a3 8bbb 214b f4bb
00000080: dbfc b23d 4ae7 3f3e ea18 e9bd b002 5d3e
00000090: 5041 14be 38fa 7a3e
0.14114971 -0.01569623 0.14850105 -0.060042236 -0.036530793 -0.01975231 0.18577474 -0.12194342
-0.12573667 -0.16189122 -0.11083646 0.16647922 0.029900381 0.020180902 0.1415993 0.100321464
0.14309345 -0.1874503 0.19790405 0.042455878 0.12372847 0.20055237 0.16320762 0.20422252
0.18708679 0.018618936 -0.14512306 -0.07842621 -0.02811034 0.0198788 -0.004261431 -0.007455245
0.087396346 0.18740574 -0.11381705 0.21583056 -0.1447804 0.24509513

fc4_val.weight f4 [1, 76]
00000000: 973c 503e 114d a63e 76e0 94be 31d2 f0be
00000010: 5877 89be dc52 743e 82ef e73e 0c19 cbbe
00000020: 22cf b83e 445f a73e 6698 cf3e c849 8c3e
00000030: ffd3 ddbe 263f 473e d723 983e 873b 95be
00000040: 465f abbe 6b1b ac3e 96ff 8a3e 67c9 9f3e
00000050: bc7a a53e 4e5b ae3e 5a22 08bf 88c8 7c3e
00000060: 6763 7e3e 462d 523e 1178 bf3e ef72 06bf
00000070: 5492 04bf 65d6 323e 52af 7d3e f5b9 12bf
00000080: 8749 e9bf 8334 dfbe 7cd5 693e 6ef8 a13e
00000090: 6ce0 e6be 6ac7 b13e bb6f ccbe a5b6 913e
000000a0: 641f 943e ce5e c43e e76f 21c0 15c0 e6be
000000b0: 0cd8 e43e 7406 57bf 0670 19c0 a170 d83e
000000c0: 56d1 a4bf a7b2 3d3e 1d73 efbe 7031 a73e
000000d0: b69b 753e ade5 323e 58ba a2be 9003 d33e
000000e0: b0b2 a1be f8ed 60bf 6dc0 dc3e a3ab 5a3e
000000f0: 8124 913e cc2f 213e 791d c5be 72ab 973e
00000100: a523 423e 13ad 853e 8d76 cc3e b358 bcbe
00000110: 922b 613e 894f 533e 9fe8 ddbe 7af2 733e
00000120: c50a a83e 7ae6 5a3e 2f1c 343e 83b1 95bf
0.20335613 0.32480672 -0.290775 -0.47035363 -0.26848865 0.23859733 0.45299917 -0.39667547
0.3609553 0.3268987 0.40545958 0.2740004 -0.43325803 0.19457683 0.29714844 -0.29146978
-0.33471125 0.33614668 0.27148122 0.31208345 0.323202 0.34054035 -0.53177416 0.24685872
0.24842606 0.20525083 0.3739629 -0.52519125 -0.5178578 0.17464598 0.2477391 -0.57315
-1.8225564 -0.4359475 0.22835344 0.3163485 -0.45093095 0.34722453 -0.39928994 0.2845966
0.289302 0.3835358 -2.522455 -0.45068422 0.4469608 -0.8399422 -2.3974624 0.4227343
-1.2876384 0.18525182 -0.46767512 0.32654905 0.2398518 0.17470427 -0.31782794 0.41213655
-0.3158164 -0.8786311 0.4311556 0.21354537 0.28348163 0.1574089 -0.38499048 0.2962299
0.1895891 0.26108608 0.39934197 -0.36786422 0.21989277 0.20635809 -0.43341538 0.23822966
0.32820717 0.21376982 0.17588876 -1.1694797

exp_avg f4 [1, 6, 1, 4]
00000000: 35d2 03c1 e2dd 32c0 0d27 96bf e3fa 5fbd
00000010: 368e 9fc1 b008 2dc1 d9cc 91c0 c65e a9bf
00000020: b5d8 bbbe b5d8 bbbe b5d8 bbbe 0000 0000
00000030: 4044 7abe f130 9abe f130 9abe 0400 0000
00000040: cacd b9bc b589 06be b589 06be 0000 0000
00000050: b183 10bf cc8e e5be cc8e e5be 0400 0000
-8.23882 -2.7947927 -1.1730667 -0.054682624 -19.944439 -10.814621 -4.556256 -1.3232048
-0.36688772 -0.36688772 -0.36688772 0.0 -0.24440098 -0.30115464 -0.30115464 6e-45
-0.022681136 -0.13138469 -0.13138469 0.0 -0.56450945 -0.44835508 -0.44835508 6e-45

exp_avg_sq f4 [1, 6, 1, 4]
00000000: ad19 3943 7400 5e41 5c1a 0240 fcce 933d
00000010: 9b44 d244 fad9 4f44 519d 6543 ffa1 fd41
00000020: 1565 0540 1565 0540 1565 0540 0000 0000
00000030: 7098 a73f 9b57 713f 9b57 713f f401 0000
00000040: 4f13 ca3e 3ad7 f23d 3ad7 f23d 0000 0000
00000050: c7ba cc3f 87d1 883f 87d1 883f f401 0000
185.1003 13.875111 2.0328588 0.072172135 1682.1439 831.4059 229.61452 31.7041
2.0842946 2.0842946 2.0842946 0.0 1.3093395 0.942743 0.942743 7e-43
0.39467856 0.118574575 0.118574575 0.0 1.59945 1.0688943 1.0688943 7e-43

exp_avg f4 [1, 6, 2, 4]
00000000: 751c 8140 df58 893f 15e1 f03e b30c d83c
00000010: 331a 9840 c8f6 fb3f a31b 4d3f 63a0 893d
00000020: d802 4a41 c1d7 cf40 9f42 1740 5472 313f
00000030: 681e 3041 29ca 6a40 9289 b03f e15d b63e
00000040: 522e 14be 522e 14be 522e 14be 5bd9 39bd
00000050: d520 83be d520 83be d520 83be 0a52 543c
00000060: 25a0 1b3f 170a 213f 170a 213f 92b3 98bc
00000070: c2a2 db3e 9a54 ee3e 9a54 ee3e 911b 84bd
00000080: 9376 d73e a8de f13e a8de f13e 32b5 f13c
00000090: ce8a 923f 836d 993f 836d 993f 6ab2 473d
000000a0: 7d99 043e 840f 2d3e 840f 2d3e c902 b63c
000000b0: 1aa1 c83e fe4a f83e fe4a f83e a60f 633c
4.0347238 1.0730246 0.47046724 0.026373243 4.753198 1.9684687 0.80120295 0.067200445
12.625694 6.495087 2.3634412 0.69315076 11.007423 3.6685889 1.3791983 0.356185
-0.14470795 -0.14470795 -0.14470795 -0.045373302 -0.25610986 -0.25610986 -0.25610986 0.012959013
0.60791236 0.6290602 0.6290602 -0.018640313 0.42897612 0.4654892 0.4654892 -0.064505704
0.42082652 0.47240186 0.47240186 0.029505346 1.144861 1.1986545 1.1986545 0.048754133
0.12949176 0.1690045 0.1690045 0.022218125 0.3918541 0.48494714 0.48494714 0.013858711

exp_avg_sq f4 [1, 6, 2, 4]
00000000: 7006 9d42 9db5 9340 147b 263f 2cff ef3c
00000010: eafa af42 8d29 1341 7631 653f c470 c43c
00000020: 01f7 6244 56bf de43 afe7 1143 1025 9941
00000030: 2174 3444 955f 4643 3839 1942 d82c ba40
00000040: f5b4 d340 f5b4 d340 f5b4 d340 a5ad 223e
00000050: 6566 ce40 6566 ce40 6566 ce40 4227 053e
00000060: 8247 693f b919 383f b919 383f 1ef5 513d
00000070: 051b cf3f ddda af3f ddda af3f 7828 bd3d
00000080: a2ae 593f 00b1 4a3f 00b1 4a3f 6583 d43c
00000090: b9f8 c83f 96e0 be3f 96e0 be3f c892 203d
000000a0: b8f9 9e3f c088 893f c088 893f 06ec c53c
000000b0: fe1f ea3f aa8d c53f aa8d c53f 68ca a23d
78.51257 4.6159196 0.6503155 0.02929648 87.99007 9.197644 0.89528596 0.023979552
907.85944 445.4948 145.90501 19.143097 721.8145 198.37337 38.305878 5.817974
6.6158395 6.6158395 6.6158395 0.15886553 6.4499993 6.4499993 6.4499993 0.13003257
0.9112474 0.7191425 0.7191425 0.051259153 1.6180121 1.3738667 1.3738667 0.092362344
0.85032094 0.7917633 0.7917633 0.02594156 1.5700904 1.4912288 1.4912288 0.03920248
1.2419958 1.0744858 1.0744858 0.024160396 1.8291013 1.5433857 1.5433857 0.07948762

exp_avg f4 [1, 6, 3, 4]
00000000: 3035 cd40 f0fa b83f b14c bb3e 38b2 253d
00000010: 4b34 a440 c2be bc3f d9e8 213f ab7a e33c
00000020: c5ab a640 4df4 0340 072b 203f 2d0b 923c
00000030: e75a 9241 a44a 0741 5c91 4940 dc54 573f
00000040: e527 9441 6794 1141 1465 7c40 7d9d 853f
00000050: 8045 9641 992e 2841 df9a 9340 5690 6a3f
00000060: 9994 e73e 9994 e73e 9994 e73e 3ca9 0ebe
00000070: ef8a 003f ec8a 003f ec8a 003f 435c 0fbd
00000080: 4000 1f3f 3e00 1f3f 3f00 1f3f 8690 9fbd
00000090: fbad c83e 8993 d23e 8b93 d23e e9b0 06bb
000000a0: 9220 fb3e 2f16 033f 2f16 033f ab37 e0bc
000000b0: ff91 6abc dd6c 043d dd6c 043d b883 313c
000000c0: 4624 843f a728 8d3f a828 8d3f 5569 ef3d
000000d0: 6edc c03f 1da9 cb3f 1da9 cb3f ea2b f43d
000000e0: ff5f 4a3f 111b 603f 111b 603f e3ef 823a
000000f0: 516a 553f debd 2d3f ddbd 2d3f 6470 213d
00000100: ec83 343f 02f8 1b3f 02f8 1b3f 0fe2 8d3c
00000110: 6851 8d3f 4316 843f 4416 843f e5ff a03d
6.4127426 1.445158 0.36581948 0.040453166 5.1313834 1.4745715 0.6324592 0.027768454
5.208468 2.061786 0.62565655 0.017827595 18.294386 8.455723 3.149497 0.8411386
18.51948 9.098731 3.9436693 1.0438687 18.783936 10.511376 4.612655 0.9162649
0.4523056 0.4523056 0.4523056 -0.13931745 0.50211996 0.5021198 0.5021198 -0.035000097
0.62109756 0.62109745 0.6210975 -0.077912375 0.39195237 0.41128185 0.4112819 -0.0020552224
0.49048287 0.51205724 0.51205724 -0.027370295 -0.014317035 0.032330383 0.032330383 0.010834627
1.032357 1.1028031 1.1028032 0.11690012 1.506727 1.5910984 1.5910984 0.119224384
0.7905273 0.875413 0.875413 0.0009989705 0.8336535 0.6786784 0.67867833 0.039413825
0.70513797 0.60925305 0.60925305 0.017319707 1.1040468 1.0319294 1.0319295 0.07861308

exp_avg_sq f4 [1, 6, 3, 4]
00000000: e94f 0243 1c85 3441 8b9c 983f 2514 3c3d
00000010: 5a8c e642 ffca 3241 cc99 d73f f1cd af3c
00000020: 4cd0 e142 5031 3741 1cb8 983f 402a e03c
00000030: b450 ae44 0c36 f343 cb5e ce42 efee 2241
00000040: 1465 b344 e0b2 0544 3f30 ec42 60e2 8341
00000050: ba83 bb44 527e 2f44 3524 2843 5043 a541
00000060: 39a5 0941 39a5 0941 38a5 0941 39f6 a23e
00000070: 89e5 e940 8be5 e940 88e5 e940 5002 803e
00000080: 3e82 d140 3f82 d140 4082 d140 c194 943e
00000090: 842f 1d40 7f41 0d40 7e41 0d40 a784 973d
000000a0: c639 1a40 0388 0c40 0488 0c40 0eb7 bb3d
000000b0: 034d f63f 14e0 e33f 13e0 e33f 33b2 af3d
000000c0: 5423 1a40 5ae9 1240 5ae9 1240 2cbd 643d
000000d0: 6900 1540 4925 0d40 4a25 0d40 9b5d 3f3d
000000e0: 8d12 1940 ed44 0b40 ed44 0b40 6612 013d
000000f0: b561 2f40 63a1 0440 62a1 0440 bc3b a83d
00000100: 9569 2040 b8f3 eb3f b6f3 eb3f 3952 563d
00000110: c800 2640 580f 0d40 580f 0d40 b2e8 053e
130.31215 11.282497 1.1922773 0.04591765 115.274124 11.17456 1.684381 0.021460505
112.90683 11.449539 1.1931186 0.027363896 1394.522 486.42224 103.18514 10.183333
1435.1587 534.7949 118.09423 16.485535 1500.1165 701.97375 168.14143 20.657867
8.602838 8.602838 8.602837 0.31828478 7.3092694 7.3092704 7.309269 0.25001764
6.5471487 6.547149 6.5471497 0.2901974 2.4560251 2.2071226 2.2071223 0.07398348
2.4097762 2.1958015 2.1958017 0.09165774 1.9242252 1.7802758 1.7802757 0.08578911
2.4084063 2.2954926 2.2954926 0.05584447 2.32815 2.2054007 2.205401 0.04672013
2.3917572 2.176082 2.176082 0.031511687 2.7403386 2.0723503 2.07235 0.082145184
2.5064442 1.8433752 1.843375 0.052324507 2.5937977 2.2040615 2.2040615 0.13077047

exp_avg f4 [1, 6, 4, 4]
00000000: 6eb3 2c41 b591 4440 b872 873f c538 a63d
00000010: 2b58 1e41 fdc0 7140 6bca a13f ae3b b43d
00000020: 5a38 2041 6fcb 6640 d562 aa3f e4e7 d83d
00000030: 4a7e 1441 f39b 2640 1c6d 8a3f d9c3 043e
00000040: 786a d141 b24f 4341 c0eb 9340 d476 d83f
00000050: 953f d241 e0b0 3641 3d1b 9240 af09 a43f
00000060: c67d d541 466f 5741 c511 ab40 c2e3 af3f
00000070: bbed d341 d300 4d41 efc1 b840 b8fc c23f
00000080: c815 0cbe c615 0cbe c215 0cbe 5b64 733c
00000090: 1e59 07be 0e59 07be 1059 07be 181c 23bd
000000a0: 10b3 21be 10b3 21be 06b3 21be 9968 17bd
000000b0: 2283 7e3e 2283 7e3e 2283 7e3e 35d3 0e3c
000000c0: 7e82 4f3f 7b44 6e3f 7b44 6e3f 9282 4ebd
000000d0: 3921 fc3e 8659 0e3f 8659 0e3f 1838 04bd
000000e0: 7031 d63e 70dc fa3e 72dc fa3e 1b2c 663b
000000f0: f6db 833f 546c 8b3f 536c 8b3f d4ca f338
00000100: d098 e33f bb6b f33f bb6b f33f 5ce4 2f3e
00000110: c540 0340 5d72 0a40 5d72 0a40 1d6c 7a3e
00000120: 5b8f 8e3f 4101 9e3f 4101 9e3f 99b3 bc3c
00000130: 9c85 843f 350e 923f 350e 923f 416c 3a3e
00000140: c79d 553f f8f7 2d3f f5f7 2d3f fb2e 6a3c
00000150: 5c8f 803f 3a96 643f 3a96 643f 35ca 2c3d
00000160: 1721 503f 2f80 493f 2f80 493f dfa7 ce3d
00000170: 300d 6c3f 3e59 763f 3e59 763f 9152 8c3d
10.793806 3.0713933 1.0581884 0.08116297 9.896525 3.777404 1.2639898 0.088004455
10.013758 3.6061666 1.3311411 0.105911046 9.280832 2.6032684 1.0814548 0.12965335
26.176987 12.206957 4.622528 1.6911263 26.281046 11.418182 4.565825 1.2815455
26.686413 13.464666 5.345919 1.3741381 26.49108 12.812701 5.7736735 1.5233374
-0.13680184 -0.13680181 -0.13680175 0.01485547 -0.1321759 -0.13217565 -0.13217568 -0.039821714
-0.15790963 -0.15790963 -0.15790948 -0.036964986 0.2485471 0.2485471 0.2485471 0.008717348
0.8105849 0.9307324 0.9307324 -0.05041749 0.49244097 0.5560535 0.5560535 -0.032280058
0.41834593 0.48996305 0.4899631 0.0035121504 1.0301502 1.0892434 1.0892433 0.000116249226
1.778101 1.9017252 1.9017252 0.17176956 2.0508282 2.1632302 2.1632302 0.24455304
1.1137499 1.2344133 1.2344133 0.023034858 1.0353274 1.1410586 1.1410586 0.18205358
0.83443874 0.67956495 0.6795648 0.014293428 1.004375 0.8929173 0.8929173 0.042185027
0.8130049 0.7871122 0.7871122 0.100906126 0.9220762 0.9622992 0.9622992 0.06851686

exp_avg_sq f4 [1, 6, 4, 4]
00000000: 8bb4 aa43 cadc e041 35d5 5140 5480 043e
00000010: 34db a543 ef69 d541 b9f7 3340 5a9e 023e
00000020: b063 9c43 3ab9 e841 2bc3 5140 a478 9c3d
00000030: cd39 9a43 423b e741 5caf 4d40 b8bc 063e
00000040: ae44 7945 6932 c144 7db9 b543 cbc2 3542
00000050: 0ba1 7945 0ddd ba44 7a96 a543 faf7 2e42
00000060: 9080 7945 dd7f b944 90bd 9943 627e 1742
00000070: 4cb6 7a45 0008 ba44 d736 9943 562d 0b42
00000080: 5687 ad41 5687 ad41 5687 ad41 f45c 0e3f
00000090: cc6d aa41 cd6d aa41 cd6d aa41 0387 f93e
000000a0: 1cf4 a641 1cf4 a641 1df4 a641 8959 e63e
000000b0: 2b3c 9b41 293c 9b41 2a3c 9b41 58c6 e43e
000000c0: 8da0 ab40 e806 9940 e806 9940 eb37 223e
000000d0: 9cde a840 3439 9840 3539 9840 a83e 763e
000000e0: 9454 ac40 d574 9f40 d674 9f40 8e6a 013e
000000f0: 5fe7 c940 d33b b840 d33b b840 fd3f e13e
00000100: 1a39 9040 06d8 8840 08d8 8840 304b a03d
00000110: 231f 9c40 e9c3 9440 e9c3 9440 b956 093e
00000120: b408 cc40 1b3f c040 1a3f c040 a7de f93d
00000130: 189a b840 1121 ae40 1021 ae40 5028 eb3d
00000140: b6dc a140 5827 8840 5827 8840 6ceb 2b3e
00000150: 6630 c640 d0cf a340 d0cf a340 779c 003e
00000160: 7c25 c340 f029 ae40 f029 ae40 130c 873e
00000170: 2c28 b940 beb2 a540 c0b2 a540 0a8d 343e
341.4105 28.107807 3.2786381 0.12939578 331.71252 26.676725 2.8119948 0.12755719
312.7788 29.090443 3.277537 0.07640198 308.45157 28.903934 3.213828 0.13157928
3988.2925 1545.5753 363.44913 45.440228 3994.0652 1494.9078 331.1756 43.742165
3992.0352 1483.9957 307.48096 37.87342 4011.3936 1488.25 306.42844 34.794273
21.691082 21.691082 21.691082 0.55610585 21.303612 21.303614 21.303614 0.48735818
20.869194 20.869194 20.869196 0.44990185 19.404379 19.404375 19.404377 0.44682574
5.3633485 4.782093 4.782093 0.15841644 5.277174 4.756983 4.7569833 0.24047339
5.3853245 4.9830117 4.983012 0.12638304 6.3094935 5.7573028 5.7573028 0.43994132
4.5069704 4.27637 4.276371 0.07826841 4.878801 4.648915 4.648915 0.13411988
6.3760624 6.0077033 6.007703 0.12200671 5.7688103 5.4415364 5.441536 0.114822984
5.0581923 4.2548027 4.2548027 0.16789025 6.193408 5.1191177 5.1191177 0.12559687
6.0983257 5.4426193 5.4426193 0.263764 5.786154 5.178069 5.17807 0.17631927

exp_avg f4 [76, 130]
00000000: f5d1 7cbd b487 acbc c70b 7ebd 25c9 77bc
00000010: 38b1 fc3c 4999 c23b d70b 69bc 5767 64bc
00000020: 12ac 89bc 3324 a1bc 3f7d 3ebc 0b45 aabb
00000030: de0f 763d f36f 80bd 9a16 88bc 8cbc 08bd
00000040: 69cb 84bc 2639 b5bc 502b b9bd f2b6 1ebd
00000050: f30f 42bd dae3 16bd 7d10 26bc dc83 72bd
00000060: 38c4 683d a92d 0d3c e943 6fbd 71ed 04bd
00000070: 6979 913b 2241 1e3b 2f97 08bc 539d 1dbd
00000080: 30ec 8bbc e714 ba3c 70b9 42bd acea b338
00000090: 5eea 8abc 9d33 e13a 5684 b4bc d43d 803c
000000a0: 64e1 21bd 99b6 88bc 612d 24bc 1987 37bd
000000b0: 5faa 043c 656e f43b cc04 c5bc 3517 8fbc
000000c0: d659 a33b 0237 efbc d4d3 89ba e3de a8bc
000000d0: 2ab7 35bc ddb2 8ebc 4375 89bc b8a6 c53c
000000e0: 4af7 c93a 23e0 73bd cce2 5cbd 7a44 aebb
000000f0: 36cf 42bd 2265 57bc 7ead 16bd 5e81 3dbc
00000100: d631 a5bc 51b1 e33c 85f8 59bd 25f3 49bd
00000110: cb08 87bd d72b 37bd bc19 48bc 0b15 0dbd
00000120: 70d3 2abd 0cd6 ffbc 10af 0ebd e74b 22bb
00000130: 157e 6ebc 29e9 b8bc ca18 993c 9c11 0abc
00000140: ac6d c5bc b406 a9bc 7d6e f0bc faa9 31bd
00000150: 7386 2fbd 6781 27bd b0c7 47bd b8c1 63bd
00000160: 95fe 2ebd c71b 82bc 850f 14b9 6758 17bd
00000170: d03e 58bd 1fe4 1fbd 3d11 9fbc 208d 4dbc
00000180: 82e2 f9bc bbc3 14bd 0af4 9abc 8a73 89bd
00000190: 4ffb 2ebd 3fa7 46bd 22aa e6bc 4565 f5bc
000001a0: 2c6a eabb e770 a8bc 7f78 07bd 6463 aabc
000001b0: bd70 e0bc cad1 debc 3c90 81bc 9db2 e6bc
000001c0: 7a2e 3cbd 61b9 19bd 1a5e 0bbd 55f3 09bd
000001d0: 9655 1fbd e7fe 78bd 8209 3bbd 2d48 64bd
000001e0: 5022 85bc 9185 2cbd 3b01 47bc 9f50 4a3c
000001f0: 4276 15bb c209 9fbc 9b2f dabc cbe0 f0bc
00000200: 87dc 03bd 69e5 0dbd 0be4 cbbd 69f8 85bd
00000210: b2fd 8ebd ca81 3ebc 9e57 f1bc f3b7 a6bc
00000220: b514 77bd cdf2 35bd 6e94 21bd adae 4bbc
00000230: bbaf b73c 1363 afbc 0d64 973b 41e7 f9bc
00000240: a9ef a3bc be15 b6bc e023 0cbd 09ec 95bd
00000250: b9a4 80bd f6ec a5bd af21 b0bd 6e34 5dbd
00000260: 54f6 bebc 52e1 58bd 8b5d 96bc 2607 1cbd
00000270: 018e aebd 4bb2 69bd a5ab 95bc cb68 0abd
00000280: 8b53 d1bb dc66 a1bc 4f6c 01bc 53fd dcbb
00000290: c687 fcb9 214d 4d3b d639 f3bb 2bd1 31bc
000002a0: 850d 9f3c 68cd 18bd d137 acbb 313b 27bd
000002b0: c0c6 aabc a917 40bd 2354 063c 7fd1 e9bc
000002c0: aeaa b1bc 1797 b1bb ddb1 1cbd 337b b7bb
000002d0: 617a 3ebd 3725 63bd 0d14 503c 7a48 dabc
000002e0: 0d18 cdbc b6bd 92bc 9180 c7bb e0f6 1bbd
000002f0: 50e2 40bc dcb1 96bd 6696 33bd e03d acbc
00000300: 95ac 8138 4ebe 62bd 3900 e1bc 8eaf 32bd
00000310: fb26 39b9 a626 81bd 3e67 85bd d843 31bd
00000320: 5667 11bd 3a06 0fbd 7c21 3abd b6a0 3bbd
00000330: 3239 f5bc 83a2 69bc 25bb 03bc 4bab 71bc
00000340: 26c2 553c 8da8 0cbc dfa0 d5bc f5f7 cebc
00000350: dae8 47bd 480f 48bd 2a43 8abd 9ab1 86bd
00000360: 1ae4 8ebd 53eb 8ebd e9f9 5fbd e056 09bd
00000370: 6894 23bd 71fc 4ebd f824 85bd a520 8ebd
00000380: 650e 62bd c81c d1bc d3f7 66bb bb45 84bc
00000390: 8cfa e2bc 7bc0 8abd 3d2e 8dbd e447 ffbc
000003a0: 703c 3bbd cd7b 1abd 6437 13bd ac67 fabc
000003b0: 17d2 dabc 407f 96bc abf6 1bbc 2445 cfbc
000003c0: 060a dabc f6c2 3bbd 4baf fbbc 00a9 dbbc
000003d0: b315 f7bc 7281 44bd 4521 7abd a90f 6bbd
000003e0: 17b1 79bd 2283 4abd 97fc 12bd e1b1 0dbd
000003f0: e2e4 febc 9d79 bcbc 6361 d6bc ba02 febc
-0.061723668 -0.021060802 -0.06202295 -0.01512364 0.030846223 0.005938683 -0.014224014 -0.013940654
-0.016805682 -0.019670581 -0.011626541 -0.005196219 0.060073726 -0.062713526 -0.01661234 -0.033382937
-0.016210275 -0.022121977 -0.09041464 -0.03874869 -0.04737849 -0.03683839 -0.010135767 -0.059207782
0.056827754 0.008616843 -0.058414374 -0.032453004 0.004439522 0.002414771 -0.008336826 -0.038480114
-0.017080396 0.022715045 -0.04754013 8.579096e-05 -0.016957458 0.001718152 -0.022035759 0.015654482
-0.03952159 -0.016688632 -0.010020585 -0.044806574 0.00809726 0.007459449 -0.024050139 -0.01746712
0.0049850745 -0.029201034 -0.00105154 -0.020614093 -0.011091033 -0.017419273 -0.016779548 0.02412735
0.0015408781 -0.059539925 -0.053927228 -0.0053182216 -0.047560893 -0.013146671 -0.03678655 -0.011566488
-0.020165365 0.027794512 -0.053215522 -0.049304146 -0.06593474 -0.044719543 -0.012213167 -0.034443896
-0.04170555 -0.031229995 -0.03483492 -0.002476448 -0.0145564275 -0.022572117 0.018688578 -0.00842705
-0.024100147 -0.02063308 -0.02934956 -0.043374993 -0.04285283 -0.040894892 -0.04877442 -0.055604666
-0.042723257 -0.015882386 -0.00014120161 -0.03694954 -0.052794278 -0.039035913 -0.0194174 -0.012545854
-0.030503515 -0.036319476 -0.018915195 -0.067114905 -0.042720135 -0.048499342 -0.028157298 -0.029955516
-0.00715377 -0.020561649 -0.0330739 -0.020799346 -0.027397508 -0.027199645 -0.015815847 -0.028161341
-0.04594276 -0.037530307 -0.03402529 -0.033679325 -0.03889998 -0.06078997 -0.045663364 -0.055732895
-0.016251713 -0.042119566 -0.012146289 0.012348323 -0.0022806083 -0.019413833 -0.026634028 -0.029404065
-0.032192733 -0.03464261 -0.09955605 -0.06541521 -0.06981982 -0.011627624 -0.029460724 -0.020351386
-0.060322482 -0.044421006 -0.039448194 -0.012431783 0.022422662 -0.021409547 0.0046200813 -0.030505778
-0.02001174 -0.022227164 -0.0342139 -0.07320411 -0.06281418 -0.08101837 -0.08600175 -0.05400508
-0.023310818 -0.052949257 -0.018355152 -0.038092755 -0.08523179 -0.0570548 -0.018270323 -0.033791345
-0.006388133 -0.019702367 -0.007899358 -0.006744066 -0.00048166345 0.003132649 -0.007422666 -0.010853092
0.019415626 -0.037305266 -0.0052556773 -0.040827934 -0.020846725 -0.046897564 0.008198771 -0.028542278
-0.021687832 -0.0054196226 -0.03825556 -0.0055994033 -0.04650343 -0.055455413 0.012700093 -0.026645888
-0.025035882 -0.017912727 -0.0060883244 -0.038077235 -0.011772707 -0.07358143 -0.043844603 -0.021025598
6.183345e-05 -0.05535727 -0.027465926 -0.043624453 -0.00017657496 -0.063062 -0.065138325 -0.04327759
-0.03549894 -0.034918047 -0.04544209 -0.045807563 -0.0299345 -0.014259937 -0.008040224 -0.014750312
0.013046777 -0.0085851075 -0.026077686 -0.02526472 -0.04880605 -0.0488427 -0.06751092 -0.065768436
-0.06977101 -0.06978478 -0.054681692 -0.033530116 -0.039936453 -0.050533716 -0.06501192 -0.0693982
-0.05518951 -0.02552642 -0.003524293 -0.016146531 -0.02770736 -0.06774994 -0.06893585 -0.03116221
-0.045711935 -0.037715722 -0.035941496 -0.030567013 -0.026711507 -0.018371224 -0.009519259 -0.025301524
-0.026616108 -0.045840226 -0.030723235 -0.026813984 -0.030161714 -0.04797501 -0.061066885 -0.05738798
-0.0609599 -0.049441464 -0.03588542 -0.034593467 -0.031115 -0.023007208 -0.026169484 -0.03100716
