TrainedModel/Dueling DQN-1/22500_0-08_DuelingDQN.pth (torch, 291221 bytes, 33 tensors)

conv1.weight f4 [1, 6, 1, 4]
000000 94 01 a9 3f 4b 4c be 3e 15 a2 a6 3e 7b cd e7 3e
       1.3203607 0.37167582 0.32545534 0.45273957
000010 f2 4a 57 3e a7 8a 42 3e f5 92 96 3e 87 4d 92 3e
       0.21024683 0.18998204 0.29408994 0.28574774
000020 31 50 d6 3d 20 64 1f 3d af d4 a2 be 6a d0 c1 be
       0.10464514 0.038913846 -0.3180289 -0.3785432
000030 be d3 97 3c 9e c6 9f 3e 7f ce fc be 84 ed 16 be
       0.018533584 0.3120622 -0.49376294 -0.14739043
000040 35 c2 da bd 79 53 a0 bd 6e 75 11 be af 70 e6 be
       -0.10681573 -0.07828421 -0.14204952 -0.45007846
000050 3d af c9 bb c3 bc 9b 3d a0 01 a2 be 30 db ec be
       -0.0061549232 0.07604363 -0.31641865 -0.46260977

conv2.weight f4 [1, 6, 2, 4]
000000 25 dd a9 bd 03 71 bc 3c 54 1c 64 3e 28 12 8b 3e
       -0.08294133 0.023003107 0.22276431 0.2716229
000010 ff 33 2c be a8 44 29 3f e0 85 15 3f 52 56 0f bf
       -0.1681671 0.66120386 0.584074 -0.5599109
000020 69 b2 38 3e 04 a5 03 3f 8d a2 bb 3e 47 ca 43 be
       0.18036808 0.5142367 0.36647454 -0.19120131
000030 e4 5c 77 bc 6b f4 05 bf c5 7b fb be a9 05 f1 bd
       -0.01509783 -0.5232608 -0.49117866 -0.11768658
000040 c3 1d 14 3f 75 a2 a2 3e 51 e3 9b 3e 1e 0a cf be
       0.5785791 0.3176457 0.30446866 -0.40437406
000050 5d 81 e3 3d 5e 1b 7f be 30 b8 a4 3e d1 cc 76 bf
       0.111086585 -0.24912784 0.32171774 -0.96406275
000060 cb 49 b9 bd 5f 70 4b be 72 6b 6d 3e 22 ba 9e 3e
       -0.09047278 -0.19867085 0.23185518 0.31001383
000070 de 87 dc 3c 40 d1 51 be df e1 bd 3e 42 19 fe bd
       0.026920255 -0.20489979 0.37086388 -0.12407161
000080 e6 48 1f bd 99 54 81 be e6 ea a1 3e 0b 37 8d 3e
       -0.03888788 -0.25259855 0.31624526 0.27581057
000090 ee 09 8f bd 67 51 4c 3e 37 c9 76 bd f2 e0 92 be
       -0.06984316 0.19952928 -0.060250487 -0.28687245
0000a0 1e 33 34 3e 9f f5 e1 3d 9a fb 2f be 37 ca c2 3e
       0.17597625 0.11033177 -0.17185822 0.38044903
0000b0 bf 43 df bc 1a de 9f 3d 1d 24 6d 3d 69 7b af bd
       -0.027253984 0.078060344 0.05789577 -0.085684605

conv3.weight f4 [1, 6, 3, 4]
000000 97 7f 8c 3e 0b 22 a5 3e ae 60 c1 bd 94 4f dc 3d
       0.27441093 0.32252535 -0.09442268 0.10757366
000010 38 42 c5 3e 6d 24 40 3f dc 2c 14 be cd e3 02 3f
       0.38527083 0.7505558 -0.14470237 0.51128846
000020 7b 0a ba 3d 57 6d 07 3f 27 ce cd 3d 9a 94 fb 3e
       0.0908403 0.52901214 0.10049086 0.49136811
000030 2f da 05 be 3f d5 79 be a1 c6 06 be 87 be ae bc
       -0.13071512 -0.24397753 -0.13161708 -0.021331085
000040 99 cf 5a bc f1 9f c3 bd d6 10 85 bd 5e d6 a5 bc
       -0.013355159 -0.09551991 -0.06497352 -0.02024382
000050 15 c4 e7 3d 63 16 67 3e 3a ab d8 3c 7e 9d 5f bc
       0.113166966 0.22567134 0.026448835 -0.013648389
000060 80 10 e6 3c 05 6d da bd 84 db d7 bd 79 78 2e 3e
       0.02808404 -0.10665325 -0.10539916 0.17038144
000070 7d d4 3a be 9c 57 d6 3d 78 11 be b9 88 d5 df 3d
       -0.1824512 0.10465929 -0.0003625264 0.109294
000080 4e e1 18 3e b1 97 6d be 70 19 f6 3d 70 a5 f7 3e
       0.14929697 -0.23202397 0.120165706 0.48368406
000090 c0 c0 1d be 0c be c6 3d de e5 25 3e 29 b0 0a bd
       -0.1540556 0.09704217 0.16200969 -0.033859406
0000a0 8f 75 e5 3d bb 01 0b 3e 39 58 2f be e0 c8 81 be
       0.11204063 0.13574879 -0.17123498 -0.25348568
0000b0 79 55 43 bb a1 02 06 be 7d 1d 03 3e f7 82 66 3e
       -0.0029805584 -0.1308694 0.12804218 0.22510897
0000c0 ab ea f1 bc 95 04 9e 3c cc 2c 3f 3d d4 01 0e be
       -0.029530844 0.019289294 0.04667358 -0.13867885
0000d0 96 6b 07 3e 78 98 9d be 99 7a 3b 3e a7 32 5e 3e
       0.13224635 -0.30780387 0.18308486 0.2169901
0000e0 a5 6d 7c bd 4c 34 42 3e 17 f0 31 be 52 a6 f7 bd
       -0.061628003 0.18965262 -0.17376743 -0.1209227
0000f0 70 ac f8 3c 41 fd 8f 3d 01 ac c7 3d f0 3e ce 3d
       0.030355662 0.07030726 0.09749604 0.10070598
000100 30 6b 12 be d0 68 95 bc ed f8 06 3d 63 f2 91 be
       -0.14298701 -0.018238455 0.032952238 -0.2850524
000110 a3 66 10 3e 91 f2 0b be 78 d6 e6 3d 97 65 8a 3e
       0.14101653 -0.1366675 0.112713754 0.27030632

conv4.weight f4 [1, 6, 4, 4]
000000 03 a6 ad 3e 8a cb cd bd 77 d2 07 3e 9e 9e c7 3d
       0.3391572 -0.100485876 0.1326388 0.09747051
000010 21 10 c6 3e ad 1d df be 68 da 16 be 63 5b 4c bc
       0.3868418 -0.43577328 -0.14731753 -0.01247296
000020 20 83 98 3d 00 3a 2a be c0 8f 97 bd ef 6d 38 3e
       0.07446885 -0.16623688 -0.07400465 0.18010686
000030 fd 89 a9 3e 5f 2b d8 be c3 7b c8 bd 4e d6 4b 3e
       0.3311309 -0.4222059 -0.09789231 0.1990597
000040 45 fc f2 3d 6d 52 0b 3e 15 54 3d 3d 08 12 6b bc
       0.11864523 0.13605662 0.046222765 -0.014347561
000050 4f a1 b3 bd 24 8a 49 bd c7 2f 21 3d 47 6e 19 3d
       -0.087710015 -0.049204007 0.039352205 0.037458684
000060 9e 45 08 bd e0 88 d6 bd 93 7c 63 bd 3e 79 5f bd
       -0.033269517 -0.104753256 -0.055538725 -0.054558985
000070 2a 9e 6a bd 47 b3 8d bd 72 83 c2 bd dd e1 83 bd
       -0.057279743 -0.0691896 -0.094977275 -0.064395644
000080 33 f4 47 3d 16 03 00 be bd b4 e8 3d 65 c7 f0 3d
       0.04881687 -0.12501177 0.11362598 0.117567815
000090 ec 62 04 3e 51 f0 19 bc e0 f5 d8 bd 76 f0 9c 3d
       0.1292836 -0.009395675 -0.10593772 0.07663052
0000a0 9d f5 6d 3e a9 9d 52 be 96 25 e1 bc 8c 15 fe bb
       0.23238225 -0.20567955 -0.027483743 -0.0077540334
0000b0 6e 16 83 be f2 ef 1f 3e ce 61 2c 3d a7 54 89 3e
       -0.2560305 0.15618876 0.04208546 0.26822397
0000c0 51 f8 8e 3c ac 68 ab bd d2 0c 0c 3d 3e 2c a0 3d
       0.01745239 -0.08369574 0.034191914 0.078209385
0000d0 da 75 ad bd ed ea c8 3d dd 4d 8d bd 20 bb 35 bd
       -0.08469744 0.098104335 -0.06899617 -0.04436791
0000e0 09 db fd 3d 54 e4 7f bc ef d0 1a bd 0e c9 36 be
       0.12395293 -0.0156184025 -0.03779691 -0.17850134
0000f0 be 71 0b bc 44 9e 3c bd 01 24 77 3d 46 16 5f 3d
       -0.008511005 -0.04604937 0.06033707 0.0544646
000100 bb 86 2c 3c 56 12 69 bd 2a ce c7 3d 4e 2b 10 3e
       0.010530169 -0.056902252 0.097561195 0.1407902
000110 87 7e 0b bd 1f 73 c5 bd b6 ea 13 bc 20 fe bd bd
       -0.034056213 -0.09641098 -0.009028127 -0.09276986
000120 ac 81 61 3b 72 a8 00 be 7a 59 ec 3d b2 4a 0d 3e
       0.0034409566 -0.12564257 0.11540504 0.13798025
000130 31 dd 58 3d 98 02 9d bd 88 19 1d 3e a8 92 26 be
       0.05294532 -0.0766651 0.1534177 -0.16266882
000140 87 dc d5 bc 89 c9 92 3c 94 42 97 bd 6b 9c 7a 3d
       -0.026106132 0.017918365 -0.07385746 0.061184328
000150 f3 eb 24 3e 79 14 de bc ce 92 53 be 2c 5e 9f bd
       0.16105632 -0.027109371 -0.2066147 -0.07781634
000160 8b b1 a1 bd ca 81 4b bd 19 b7 0c 3e 8d e2 09 be
       -0.07895192 -0.049684323 0.13741721 -0.13465329
000170 b5 ed 3f bd 6f ba 9c 3d 3b fb a4 3d 0a f2 d9 bd
       -0.046857554 0.07652747 0.08055731 -0.106418684

fc3_adv.weight f4 [76, 130]
000000 d0 6b 19 3e 41 52 c7 bc 19 8e 13 3d 7c ce bd bd
       0.14982533 -0.024331214 0.036024187 -0.092678994
000010 fc d5 0a be 46 06 34 be aa 40 56 3e 88 d6 6d 3d
       -0.13558191 -0.17580518 0.20923105 0.05806592
000020 c4 79 db 3d 0d d6 f9 bc 76 f8 d0 bc 97 31 31 bb
       0.10716584 -0.030497575 -0.0255091 -0.0027037614
000030 40 52 7a 3e 0c e3 a6 3e 01 ca 00 3e 7b 3b bc 3d
       0.24445438 0.32595098 0.12577058 0.091910325
000040 da 93 32 3e 30 a1 eb bc 64 3a 49 3e 96 19 3d 3e
       0.17439213 -0.028763384 0.1965118 0.18466792
000050 62 32 70 3e c0 aa bb be 24 73 a8 bf 8d d2 26 bf
       0.2345672 -0.3665371 -1.3160138 -0.65165025
000060 06 b2 4d bf b2 64 54 bf 1e 92 c1 be 0b 23 8e 3c
       -0.8034977 -0.8296615 -0.3780679 0.017350694
000070 0b a0 a5 3d 2c 16 27 bd cb 7d 27 3d 0a 7a 81 3c
       0.080871664 -0.04079263 0.04089145 0.015805263
000080 2f 94 83 3d 62 7c cb bd 56 cd 4f bd 85 ee 6a 3e
       0.06424748 -0.099358335 -0.050732933 0.2294255
000090 ae 5b ac 3e 76 5a 10 3e f8 e4 1e bd b6 99 c9 3e
       0.33663696 0.14097008 -0.03879258 0.39375085
0000a0 bf 9a 6d 3e 91 c6 a4 3e 9c eb 84 3d 71 5f 03 3f
       0.23203562 0.32182744 0.064902514 0.5131751
0000b0 f1 71 a1 3d 0f be 9a 3e ce 75 91 3e 01 41 f9 3e
       0.07883061 0.30223128 0.2841019 0.48682407
0000c0 3d a1 10 3f fa 45 89 3d d6 3d 8d 3e 87 12 1c 3e
       0.5649603 0.067028 0.2758624 0.15241443
0000d0 c7 5e b4 bd b7 da 71 bd 03 1d 42 3e 6d 5f d3 3e
       -0.0880714 -0.059046473 0.1895638 0.41283742
0000e0 bc 09 d4 bd 10 85 fb 3d 5b 75 5c 3e 09 b1 46 3e
       -0.10353419 0.12281239 0.21529143 0.19403471
0000f0 d3 f4 f1 3e 47 32 96 3e 42 ae 47 3e ae 78 80 bd
       0.472571 0.29335234 0.19500068 -0.06273018
000100 19 44 da 3b 07 a5 a6 3d 25 3e c3 3e 81 62 b4 3e
       0.00666095 0.08136945 0.3813335 0.35231403
000110 18 0c 88 3e 48 f8 9f 3e 56 1d ab 3e 3c 4b 94 bc
       0.26571727 0.3124411 0.3342082 -0.01810228
000120 f1 52 49 bd cc fb b8 3e 17 dc 54 3e 61 b7 93 bd
       -0.049151365 0.36129606 0.20787083 -0.07212711
000130 ad 3d 3c 3e 41 2c 1c 3e 76 df 37 bc 85 28 e2 3e
       0.18382902 0.15251257 -0.011222711 0.4417154
000140 3c 71 e2 3d 98 22 34 3e c1 5c ce 3d ca 19 af 3e
       0.11056754 0.17591321 0.10076285 0.34199363
000150 fb 2b 1e 3e af a2 69 bd b8 78 a7 3d 17 2d c8 3b
       0.15446465 -0.057039913 0.08177322 0.0061088908
000160 b6 1d 2f bf 6d 90 65 bf fd 20 42 bf 24 9d 4a bf
       -0.6840471 -0.896735 -0.75831586 -0.7914603
000170 6c df 24 bf 2d 6c 7a 3d ae 67 bd bc 63 a4 4e 3e
       -0.64403415 0.06113832 -0.023120727 0.20179896
000180 6b 30 dd bd 5c ba 40 3e db 72 e9 3b 58 12 e1 3c
       -0.108002506 0.1882109 0.0071242875 0.027474567
000190 43 3c 95 3e d1 e7 bc bc 71 91 de 3b 41 50 bd bd
       0.2914754 -0.023059757 0.0067922403 -0.09243823
0001a0 72 da 00 3e 00 82 a0 3d d7 e0 3e 3c 02 dc 4d 3c
       0.1258333 0.078372955 0.011650286 0.012564661
0001b0 66 84 7c 3e 67 21 e5 3c 26 43 08 3e fb 16 15 bc
       0.24659881 0.027970029 0.13306865 -0.009099717
0001c0 41 08 97 3d 0a 69 d3 bd b6 d5 17 3e 64 ce d0 3e
       0.07374621 -0.10322769 0.14827618 0.40782464
0001d0 27 67 aa 3e 44 11 1e be 91 e3 2e 3d 4e 79 93 bd
       0.33281824 -0.15436274 0.042697493 -0.072008714
0001e0 e3 22 e0 be e3 75 ae be 99 e1 78 be 5e 2a b4 be
       -0.43776616 -0.34074315 -0.24304809 -0.35188574
0001f0 b5 4d f8 be 5d 3a 0e be 5e 43 32 bd 89 96 dc 3c
       -0.48496786 -0.13889451 -0.043521278 0.02692725
000200 60 69 16 be d9 d1 7d 3e 0c 1f 94 3e cb 69 b7 3e
       -0.14688635 0.24787082 0.28929937 0.358229
000210 09 5e 6c 3e aa a9 80 3e 54 b4 62 3e a8 78 7f 3e
       0.23082747 0.25129443 0.22139102 0.2494837
000220 c2 fc 50 bd f4 6a 43 3e 9c c2 a9 3e d0 96 9d 3e
       -0.0510223 0.19083768 0.33156288 0.30779123
000230 a4 02 80 3e e6 66 d5 3e 7d 7c df 3e 5d 6c ac 3d
       0.25002015 0.41680068 0.43649665 0.08419106
000240 47 6e 00 bd d4 bd a6 3e 95 87 95 3e 03 15 d7 3e
       -0.03135517 0.32566702 0.29205003 0.42008218
000250 13 56 8f 3d 61 d3 43 3e e5 46 d2 3e cd d0 97 3e
       0.06998839 0.19123603 0.41069713 0.2965149
000260 4d 4a 64 bd cd 3b 0a 3e d9 b9 c2 3e b6 dd d7 3e
       -0.05573492 0.13499375 0.38032416 0.4216134
000270 44 d9 a2 3e b0 bd 93 3d 3d 1a 05 3e 4c a9 4c 3e
       0.31806386 0.072139144 0.1299829 0.19986457
000280 6d 24 e0 3e d0 dc 55 3e 74 cb 64 3e 41 b1 1f 3e
       0.4377779 0.20885015 0.22343236 0.15594961
000290 3d 8a 24 be 25 d5 74 be 26 80 33 be 6f c1 a8 bb
       -0.16068359 -0.23909433 -0.17529353 -0.005150012
0002a0 33 3d 81 bc b1 82 89 be 65 aa ee bd f0 a5 9d bc
       -0.015776252 -0.26857522 -0.11653594 -0.019244164
0002b0 28 d3 0e 3e 83 55 01 be b5 77 b8 3d e5 a0 bb bc
       0.13947737 -0.12630276 0.09007207 -0.022903869
0002c0 4e 18 3a 3e 92 67 b0 3c fa 12 0b bd 84 9d bd bd
       0.18173334 0.021533761 -0.033953644 -0.09258559
0002d0 5e b5 ce 3c 69 bf 60 be d3 88 17 be 72 77 8e bd
       0.025232967 -0.21948017 -0.14798288 -0.06956376
0002e0 78 33 14 bd 1a cd 07 be 3c 0d 19 3d 6e 43 94 bc
       -0.036181897 -0.13261834 0.037366137 -0.01809856
0002f0 c4 45 2c bd a7 ed 13 3d e0 d8 54 be 8d 36 28 3e
       -0.04205872 0.036115315 -0.20785856 0.1642706
000300 b2 6c 9d be 21 c2 28 bd 7e 5d 9d bd 0d 03 2f 3d
       -0.3074699 -0.04120076 -0.07683848 0.04272752
000310 99 d5 ef 3d 22 b7 ea 3d 4b e9 72 3d 49 21 92 3e
       0.117106624 0.11460711 0.059304517 0.2854102
000320 8d 48 f7 3d 53 bb a0 3e ef 8e 25 3d e6 9f 1b be
       0.12074385 0.31392917 0.040419515 -0.15197715
000330 3f 3c 94 bc 3b 13 af 3d dd b1 c1 3d aa 47 08 3d
       -0.018095134 0.0854859 0.09457753 0.03327147
000340 38 1a d4 3c 6e 91 b6 3e cd 60 9f 3d 6f 44 3d be
       0.025891408 0.3565783 0.07782135 -0.18483137
000350 6b c8 d7 bb 3c c3 a9 3c da 5b 6d bc cc ba 08 3e
       -0.006585171 0.020722978 -0.014487231 0.13352507
000360 c1 5a e3 bc 2c f9 b7 3d 6b 0f 36 3e a1 e7 4c bd
       -0.027753236 0.08983073 0.17779319 -0.050025586
000370 b6 da f1 3d 76 6b 88 3e 22 1a 82 3d a6 67 f3 bd
       0.11809294 0.26644486 0.06352641 -0.11885004
000380 b4 a1 73 be f0 f4 ba bd 62 e8 44 be 18 83 f7 3d
       -0.23792154 -0.09128749 -0.19229272 0.12085551
000390 4c bb f3 3d d2 d4 e6 bc e6 c8 56 be 62 21 a9 3c
       0.119009584 -0.028177653 -0.20975074 0.020645801
0003a0 c5 53 f9 bd 0a 19 21 be 58 2e 28 be 41 93 09 3d
       -0.12174181 -0.15732208 -0.16423929 0.033587698
0003b0 f4 c5 f1 bd c8 36 b5 bd 0e 7d 1c 3c 0f 72 46 bd
       -0.11805335 -0.08848339 0.0095513 -0.04844862
0003c0 35 0c 78 be f4 88 b4 bd 43 52 4c 3c 45 ab ca bd
       -0.24223407 -0.08815184 0.012470785 -0.09895948
0003d0 74 e7 2b be 0e 41 5b be b2 31 5e 3e b2 c1 f2 bc
       -0.16787511 -0.21411535 0.21698645 -0.029633377
0003e0 f2 7b 71 bd 44 2c db bd 23 0e 48 be b0 7d bb bd
       -0.058956094 -0.107018024 -0.19536643 -0.09154832
0003f0 47 81 dc bd 49 5a 5d 3e 8d 67 7c 3c 31 78 84 3e
       -0.10766845 0.21616472 0.015405548 0.2587295

fc3_adv.bias f4 [76]
000000 14 a3 38 3e a7 af c7 3d e2 db d5 bd 51 f0 57 3e
       0.1803096 0.097503 -0.1044233 0.21087767
000010 3c 07 31 3e d3 6a 8c 3e 6b be 42 3e 7f 18 43 3d
       0.17287916 0.2742525 0.19017951 0.047630783
000020 e0 47 b3 3d 4d cd e1 3d a4 8e 87 bc da c0 66 3d
       0.087539434 0.11025486 -0.016547509 0.05633626
000030 be ca 66 3d 73 9e 8c 3d 55 ff 6d 3f 80 04 b4 3d
       0.056345694 0.06866159 0.9296773 0.08789921
000040 31 7d b8 3d ed d7 52 3e 87 4b 4f 3d de 9d 5b 3e
       0.09008253 0.20590182 0.050609138 0.2144694
000050 68 98 57 3d f9 55 a0 bc 1f 8f 8f 3e f0 0d 40 3e
       0.05263558 -0.019572245 0.2803888 0.18755317
000060 46 ed 3c 3d c2 c4 c8 3d 97 5b a7 3d 08 6f 01 be
       0.04612472 0.098031536 0.08171766 -0.12640011
000070 a7 9f e4 3d d7 62 34 3d 36 1a 61 3e 25 67 5c bc
       0.11163264 0.044039574 0.21982655 -0.013452326
000080 39 6f 77 3e 5a 24 23 3e f4 f5 6a 3d e9 dd ad 3c
       0.24163522 0.15931836 0.057363465 0.02122398
000090 97 47 35 3d e0 2c 61 3c 23 c3 16 3e 6c eb 8e 3d
       0.044257727 0.013743609 0.14722876 0.06978497
0000a0 4f 99 28 3e c8 44 62 3d 11 bf fd 3c 7b 60 e6 bb
       0.16464733 0.055241376 0.030974897 -0.0070305443
0000b0 a4 bc 91 3d e6 ee df 3d 0a 85 32 3e 9f b0 41 3e
       0.071160585 0.10934238 0.17433563 0.18915032
0000c0 8e ba e8 3d 24 fd 41 3e de 97 75 3e e5 d6 0d 3e
       0.113637075 0.18944222 0.23983714 0.13851507
0000d0 ad 34 0e bd 16 33 87 3d 5d 44 ab 3d d6 a9 3d 3d
       -0.034718204 0.06601541 0.08362649 0.046304546
0000e0 d4 01 4c 3d 23 8f 66 3d 5a 83 04 3e 18 fa 54 3d
       0.04980643 0.05628885 0.12940732 0.05199632
0000f0 61 ba 23 bd 9b 46 c6 3d ed 39 80 3c d6 fb ec 3d
       -0.039972667 0.09681436 0.015652621 0.115714714
000100 85 fd 25 3e b4 5e fe 3d 42 33 cc 3c eb a0 0d 3d
       0.16209991 0.12420407 0.024926785 0.03457729
000110 20 47 45 3c 55 da 97 3c ff 85 9a 3d 49 df e4 bc
       0.012040883 0.018536726 0.07545089 -0.027938502
000120 89 39 05 3e 9b d9 15 3d c3 2e 47 3e ba 66 17 3e
       0.13010229 0.036584478 0.19451432 0.14785281

fc3_val.weight f4 [76, 130]
000000 eb 3c c5 3d cb 11 03 3d 39 35 03 bc f2 22 49 3d
       0.0963076 0.03199939 -0.008008295 0.049105592
000010 c5 c5 1d 3d c2 a4 82 3d cc 1f 67 bd 37 59 9e 3c
       0.038518686 0.06379081 -0.05642681 0.01932965
000020 17 6b 45 3e 67 33 57 3e 2e 36 af 3d de 8a cf bd
       0.19279133 0.21015702 0.08555256 -0.10133909
000030 56 b3 b7 3c 1b 33 70 bd e7 c3 69 3d d6 17 ee bd
       0.022424381 -0.058642488 0.057071593 -0.1162564
000040 4e 8c 82 3e 72 c5 fb bd 02 07 a0 3d e2 02 24 be
       0.2549767 -0.12293519 0.07813837 -0.16016725
000050 ba a4 05 be 52 de 98 3d 6d 82 30 bd a0 aa 6e bd
       -0.1305112 0.07464279 -0.043093134 -0.05826819
000060 da b3 24 3d 02 96 f2 3d 45 71 91 3d 08 1d 99 bd
       0.040210582 0.11845018 0.071016826 -0.074762404
000070 b9 82 5c 3e 01 52 57 3e e2 ff 77 3d 9c 51 2f bb
       0.21534242 0.21027376 0.060546763 -0.0026751524
000080 66 fa ab 3e 8a e8 16 3e 9e a2 37 3e e0 d0 35 3e
       0.33589476 0.14737144 0.17933127 0.1775546
000090 68 ec 2c 3d bf f6 81 3e 4f f9 54 3c 0e 5e 06 3e
       0.042217642 0.25383565 0.012998893 0.13121817
0000a0 cc 56 24 3e 7e a7 80 3e 04 2f c5 3d e8 ff cc 3b
       0.16048735 0.25127786 0.09628108 0.0062560923
0000b0 b3 84 93 3e 05 45 29 3d d1 55 64 bc be 98 eb 3d
       0.2881218 0.041325588 -0.013936476 0.11503743
0000c0 c6 7b 4f 3e 1c 88 14 3e c7 7c 13 3e 1b c9 93 3e
       0.2026206 0.14505047 0.14403068 0.2886437
0000d0 39 89 bf 3c 06 27 66 3e 25 94 10 3e be ff 13 3e
       0.023380863 0.22475824 0.14119013 0.14453027
0000e0 83 b8 8d bc 57 18 0e 3e a5 fc a2 3d 17 80 86 3d
       -0.017299896 0.13876472 0.07958344 0.065674
0000f0 ba 4e a7 3d 9f c4 85 3e e0 2e d3 3a 82 b8 0f 3e
       0.08169313 0.26126572 0.0016111992 0.14035228
000100 15 0f 99 3d 48 54 ff 3d 4a 87 0a 3e 36 5e 1e 3d
       0.0747358 0.12467247 0.13528171 0.038664065
000110 03 b3 d1 3c ce c6 5b 3e bf ba 6c bd 21 80 b0 bb
       0.025598055 0.21462557 -0.057795282 -0.005386368
000120 1c fd cd 3d 17 f5 89 3e 61 3c 2a 3e 24 cc 5d 3e
       0.100580424 0.269448 0.16624595 0.21659905
000130 17 e2 0d 3e 18 15 82 3e 06 e7 bc 3d a1 3b 24 3d
       0.13855778 0.25406718 0.09223752 0.04009593
000140 f1 f4 22 bd ef 0c a6 bb f7 8f 0e bd a5 ed ba 3d
       -0.039784376 -0.00506746 -0.034805264 0.09127358
000150 c7 d5 10 3e 9c 79 d1 3d ff 58 43 3e d2 3b 26 3e
       0.1414405 0.10228273 0.19076918 0.16233757
000160 00 32 5c 3e 71 e0 4e 3d 85 2e 36 3e 6d 96 d5 3d
       0.21503448 0.050507013 0.17791183 0.10429082
000170 9d 22 64 bc 79 de be 3c e9 08 5b 3d b1 87 81 3d
       -0.013924268 0.023299443 0.053475294 0.06324709
000180 d9 9e 4d 3e 7c 8a 43 3e 61 70 f8 3d b1 15 8e 3e
       0.20080127 0.19095796 0.121308096 0.27750924
000190 a9 4b 1c 3e 03 49 63 3e 52 ec 49 bc 21 50 2e 3d
       0.15263237 0.2219582 -0.01232441 0.042556886
0001a0 c7 d8 aa 3e f5 8e 3c 3e 55 00 26 3e 6d 30 8c 3e
       0.33368513 0.18413909 0.16211064 0.27380696
0001b0 6e d0 a2 3d 0f ff c4 3d fd 60 35 3e 2d 19 7b 3d
       0.07949911 0.09618961 0.1771278 0.061303306
0001c0 98 51 42 3e cb cd 73 3e ee b9 14 3e e8 3e 00 3d
       0.18976438 0.23808973 0.14524052 0.031309992
0001d0 b1 a4 b8 3e aa 8d 8c 3e c0 4c 83 3e a4 2a bd 3e
       0.3606315 0.2745183 0.25644493 0.36946595
0001e0 cb 76 1b 3e f2 77 97 3e 3e 48 17 3e ca 96 84 3e
       0.15182035 0.295837 0.14773652 0.25896293
0001f0 98 63 7d 3e 68 5e db 3e fe 75 bd 3e ad 6a 90 3e
       0.24745023 0.42845464 0.37004083 0.28206387
000200 7c 32 bc 3e d8 0f 40 3e 3d 5e 9d bd b9 2f 07 3e
       0.36757267 0.18756044 -0.0768399 0.13201798
000210 db e2 ea 3d 86 91 b9 bc 8f 4e ba 3b 5c 24 e4 bd
       0.114690505 -0.022652399 0.0056856344 -0.111397475
000220 da 26 ba 3d 18 f5 cb bc 7a 05 9e bc e9 f0 02 3c
       0.090894416 -0.024897143 -0.01928972 0.007992008
000230 d7 36 40 3e 5e 14 43 3c 2e 9d fe 3d c7 78 06 3e
       0.1877092 0.011906711 0.124323234 0.1313201
000240 70 ed 1f be fa 57 32 3e 90 6e 20 3e 1f 3c 3c 3e
       -0.15617919 0.17416373 0.15667176 0.1838231
000250 da c4 81 3d 14 d1 34 be e0 a6 c3 bc cf 02 3e bd
       0.063363746 -0.17657882 -0.023883283 -0.046389397
000260 dd fb 2c 3e 52 0a 48 bc 21 fd c3 3c ec 55 98 bd
       0.16892953 -0.012209492 0.023924412 -0.07438263
000270 8e 58 ab bd 6d d0 4e 3e 1e c9 86 bd 98 bf 1c bd
       -0.083665 0.20196696 -0.06581329 -0.038268656
000280 21 40 0f 3e 04 85 26 3e d9 8b 3c 3d 7b 25 3c bd
       0.13989307 0.16261679 0.046031807 -0.04593418
000290 74 c9 ef 3d ce 67 90 3d 74 e1 25 3e 31 81 6f 3e
       0.11708346 0.07051049 0.16199285 0.23389126
0002a0 46 14 bb bb 44 62 a4 3e 0d 61 9b 3d 5f d8 3f 3d
       -0.005709204 0.3210622 0.0758687 0.046837207
0002b0 32 6c bd 3d 9e 36 2f bd 5a 03 c0 3d 6e 6d 8c 3e
       0.09249152 -0.042776696 0.09375639 0.27427238
0002c0 c5 31 4e 3e 2b fb 79 bc 13 c1 78 3e 2f 3d 24 3e
       0.20136173 -0.015257637 0.24292402 0.16038965
0002d0 30 e0 96 3e 4a ad 0c 3e ad 8e 67 3e 35 dc 00 bd
       0.29467916 0.1373798 0.2261302 -0.031460006
0002e0 8d e2 03 3e c6 2f 60 3d 21 df 50 3e d0 58 14 bd
       0.12879391 0.05473306 0.20397617 -0.03621751
0002f0 85 cd 75 3e 59 02 0d 3e 06 7b 94 3e 2d f5 82 3e
       0.2400418 0.13770427 0.2900011 0.2557768
000300 a1 91 12 3e 81 f4 96 bc d8 6c a7 bc f8 f1 a0 3d
       0.14313366 -0.018427135 -0.020437643 0.07858652
000310 6a da e7 bb 0a 87 87 3e 01 69 5b 3e 24 6b 7a 3e
       -0.0070755975 0.26470214 0.21426775 0.24454933
000320 77 47 0f 3e ff 08 9f bb 45 b5 5e 3d f1 1a 90 3e
       0.13992105 -0.0048533673 0.05437209 0.28145555
000330 64 75 50 3e 47 48 20 3e 70 d5 9e 3d 6a 1e d8 3b
       0.20357281 0.15652572 0.07755554 0.0065954225
000340 4b 55 87 3d 76 37 d2 bb 81 55 4c 3e 41 0f da 3d
       0.06608065 -0.006415303 0.19954492 0.10647441
000350 ac 09 23 3e 40 0e 78 3e 0d 22 00 3e 35 e9 34 3e
       0.15921658 0.24224186 0.1251299 0.17667086
000360 b7 54 91 3d ff 95 ba 3d 7d a3 1b bd 0b 0f 8a bd
       0.07096236 0.09110641 -0.03799771 -0.067411505
000370 99 9d 81 3e 52 bc ee 3d f7 83 3f bd 37 12 2f 3d
       0.2531555 0.11657013 -0.04675671 0.04274198
000380 38 f6 e3 3d 84 cc 67 3d 1b dc 2c 3e ec 24 4c 3e
       0.11130947 0.056591526 0.16880839 0.1993596
000390 43 7e 26 3c ce 86 e5 3d b5 e0 b3 3e 64 6a 53 3d
       0.010161939 0.112073526 0.35132375 0.051615134
0003a0 b3 79 17 3d 52 86 1f 3e ec 6b 81 3e 60 c6 20 3e
       0.036981296 0.15578583 0.2527765 0.15700674
0003b0 48 da 88 3e aa 27 f0 3d 98 36 a0 3e 28 82 80 3e
       0.26729035 0.11726315 0.31291652 0.250993
0003c0 15 08 ca 3d d9 bc 8a 3e 8a cf 86 3c 86 58 e3 3d
       0.09864823 0.27097204 0.016456384 0.11100869
0003d0 b4 9e 20 3e 8d dd 81 3e 5d 70 af 3e d5 d1 55 3e
       0.1568554 0.25364342 0.34265414 0.20880826
0003e0 71 14 f3 3d e0 e3 9a 3e cd 85 ef 3d cb 4a 55 3e
       0.11869133 0.3025198 0.11695442 0.20829313
0003f0 1c 0b 2d 3e b9 22 db 3d be e6 bf 3e a2 07 f2 3d
       0.16898769 0.10699982 0.3748073 0.11817862

fc3_val.bias f4 [76]
000000 72 48 6b be 06 d3 ba be 6a 18 c7 3e 69 c7 03 3f
       -0.22976854 -0.36489123 0.38885814 0.5147615
000010 fc f0 ef 3e 22 51 84 be 41 6b 60 be 2a df c7 3e
       0.46863544 -0.2584315 -0.21915914 0.39037448
000020 6a 55 a2 be f0 a1 6f be f7 4e 95 be ec ff 9d be
       -0.3170579 -0.23401618 -0.29161808 -0.30859315
000030 2b 95 8c 3e bf 0c 89 be 28 82 a8 be 0f 40 00 3f
       0.27457556 -0.26767537 -0.329118 0.50097746
000040 f2 92 dd 3e 46 f3 a9 be 6a 34 83 be c7 87 98 be
       0.43276173 -0.33193415 -0.25625926 -0.2979109
000050 3c 54 a4 be ab 10 a9 be 2d e3 c2 3e b5 1f 57 be
       -0.32095516 -0.3302053 0.38063946 -0.21008189
000060 b7 9c ae be b8 f6 93 be cf 45 4e be 47 dc f4 3e
       -0.3410394 -0.2889917 -0.20143817 0.47824308
000070 3c 33 05 3f 97 a3 97 be cb 64 b2 be 7f 7b c8 3e
       0.520313 -0.29616997 -0.34842524 0.3915672
000080 56 24 4c 3f 7a d9 d4 3e 19 7b 83 be 0b 03 7b be
       0.79742944 0.4157217 -0.25679854 -0.2451288
000090 3b 3a e9 3e 3f fc b9 be 16 ff d1 3e cd 7d 8a be
       0.4555224 -0.3632526 0.41014928 -0.27049103
0000a0 b2 bb b5 be 16 f8 bd be 06 96 be 3f 47 94 ec 3e
       -0.35494763 -0.37103337 1.4889534 0.46206877
0000b0 83 b4 90 be 69 79 df 3e 51 f4 24 3f 2d 8a c4 be
       -0.2826272 0.43647316 0.644353 -0.3838667
0000c0 dc fd c7 3e 69 dc 96 be 05 5a f2 3e 08 41 65 be
       0.39060867 -0.29465035 0.47334304 -0.22388089
0000d0 fd 85 a8 be 0b d9 47 be 77 1b 06 3f 25 d6 b8 be
       -0.32914725 -0.19516389 0.5238566 -0.3610088
0000e0 73 49 d2 3e 68 0f ca 3e da 93 5f be 77 34 64 be
       0.41071662 0.3946488 -0.21833745 -0.22285639
0000f0 72 64 52 be b8 95 6a be db 4b bf 3e ff 8a b6 be
       -0.2054613 -0.22908676 0.3736256 -0.3565292
000100 2a cc 71 be ae 43 8a be c5 47 a5 be ed ad e5 3e
       -0.23613039 -0.2700476 -0.32281318 0.44859257
000110 ee 08 96 be 01 27 b3 be 18 64 c9 3e 32 15 9a be
       -0.29303688 -0.34990695 0.39334178 -0.30094296
000120 fd a7 8d be 71 4e 5a be eb 15 82 be f7 30 15 3f
       -0.27667227 -0.21318986 -0.25407347 0.5827784

fc4_adv.weight f4 [38, 76]
000000 a2 3a 85 be 3a 8a 03 be 1a 36 8a 3e 65 5f dd 3e
       -0.26021296 -0.12845698 0.269944 0.43236843
000010 ae 00 b2 3d bb 60 24 bd da 10 1e 3d 82 69 f8 3d
       0.08691536 -0.040131312 0.03859029 0.12129499
000020 59 b0 92 3e 5f 72 0e 3e 18 b2 16 3d 91 9f 11 3e
       0.28650168 0.13910817 0.036790937 0.14221026
000030 bd a5 a9 bd f3 83 7b bd a3 8e 8a 3f cd 54 55 be
       -0.08283565 -0.061405133 1.0824779 -0.2083313
000040 25 74 34 3e ea 75 1f 3e ad b6 67 3e a3 97 5d 3e
       0.1762243 0.15572324 0.22628279 0.21639876
000050 af 35 f0 3d ed 3e 9b be 2e 7c 82 3e 4b 14 e8 3e
       0.11728989 -0.30321446 0.25485367 0.45327982
000060 b0 56 62 3d 5c 0a 98 3d 72 8f a2 3b bd c0 e4 3d
       0.055258453 0.07423851 0.0049609477 0.111695744
000070 55 7e 13 bd 28 90 7c be cb 1d 45 bc 9a f7 72 3e
       -0.03600915 -0.24664366 -0.012031029 0.23727265
000080 9a 5a a2 bc 35 77 18 3e 7e ec dd bc 1d b8 9a 3c
       -0.019818593 0.14889224 -0.027090307 0.01888662
000090 67 10 48 3e f5 16 b6 3e bc b5 a2 bd 86 a5 93 3d
       0.19537507 0.3556439 -0.07944819 0.072093055
0000a0 ad 81 b4 bc a7 3a b7 3d 16 13 e0 3d 18 98 98 3d
       -0.02203449 0.08946734 0.1094114 0.074508846
0000b0 bb ff ab bd b0 9d 5d 3e 8f 27 6a bd 18 cc fb 3e
       -0.08398386 0.21642184 -0.057166632 0.4917915
0000c0 3b 98 87 be e8 57 5d 3e e5 30 19 3f d7 a2 73 3e
       -0.2648333 0.21615565 0.5984023 0.23792587
0000d0 bf 28 b7 bb d4 b5 84 be 23 eb 37 3e 24 97 e1 bd
       -0.005589574 -0.25919974 0.17960791 -0.11015156
0000e0 a4 34 12 3d fc ac de bd 37 3f 47 bd 9a 79 50 3e
       0.035694733 -0.10872838 -0.04864427 0.20358887
0000f0 5b 99 53 3e 1b 66 94 3e 2b 46 ff 3d ee 8d 95 3e
       0.20663969 0.2898415 0.12464555 0.29209846
000100 ac 6d b1 3d 19 d5 46 3e 62 1a f6 bd 2a 8b e7 3d
       0.086634964 0.19417228 -0.12016751 0.1130584
000110 19 55 5d be 01 ab 90 bd 74 9e 1b be 82 e6 0d be
       -0.21614493 -0.070638664 -0.15197164 -0.13857463
000120 e3 76 a1 3e f2 78 16 3e 61 4d b8 3d 22 f2 3f be
       0.31536016 0.14694574 0.08999134 -0.1874471
000130 fc e6 d5 bd d6 2b b8 bd e5 eb 67 3d 7d 0d ad 3e
       -0.104444474 -0.08992736 0.05662145 0.33799353
000140 cf e3 25 3e 01 07 87 3d 31 19 4e 3e 3e 9b 9a 3e
       0.16200183 0.06593133 0.20126797 0.30196565
000150 31 fd ac 3e aa 5f 84 3e 0a 3f 78 3e 6e f8 92 be
       0.3378692 0.25854236 0.24242797 -0.28705162
000160 0a 32 f9 bd e4 79 99 bd 8b b9 aa 3f d5 51 42 bd
       -0.12167747 -0.07493952 1.3337873 -0.047441322
000170 24 4f bc 3d 63 ad 05 3e 14 f7 8a bd 5f 3b 0e be
       0.091947824 0.13054423 -0.06785408 -0.13889836
000180 e6 b9 7c 3e 0b 6c be 3d 1c a8 a2 3d 91 e8 95 3e
       0.2468029 0.09297951 0.079422206 0.29278997
000190 cf c2 2f 3e b0 7d 9f 3c c8 43 51 bd 75 a7 2a 3e
       0.17164157 0.019469112 -0.05109003 0.16665442
0001a0 17 3d eb 3d c3 bc 47 3e 03 63 d6 3c 84 a2 cc 3e
       0.11486261 0.195056 0.02617026 0.3996774
0001b0 b9 76 99 3c bc 04 c1 bd 26 6d f6 3c 00 a0 14 3e
       0.01873337 -0.09424731 0.030081343 0.1451416
0001c0 5b be 0f be 7f 1d c8 3b 0c dc 5e bc e5 cb 73 3e
       -0.14037459 0.006107032 -0.013602268 0.23808248
0001d0 15 18 c4 3d 5c be 18 3e 0c d0 e6 bd 6d a8 a1 bd
       0.09574906 0.14916366 -0.112701505 -0.07893453
0001e0 67 4b 5a 3c c1 98 41 3d cf 65 7a 3e e5 b6 05 3e
       0.013323641 0.047264818 0.244529 0.1305805
0001f0 d1 d0 0c 3b 9f b5 4d bd df 6d f0 3e 70 35 8a 3e
       0.002148677 -0.050222035 0.46958825 0.26993895
000200 db da 48 3e 0c 60 6d be 0b fc aa 3e c7 b3 1b 3e
       0.19614737 -0.2318117 0.3339542 0.15205298
000210 fb 62 51 be d6 5b 5c be bc ee 0b 3e ee be 5f 3d
       -0.20447914 -0.21519408 0.13665289 0.054625444
000220 d8 f5 6a 3e 12 4d 9d 3d 75 f5 ed bd ee 3f f5 3d
       0.22945344 0.076807156 -0.11619083 0.11975084
000230 e8 ca e8 3c 39 de 93 bd a3 3a be 3e de 46 a0 bd
       0.028417066 -0.0722012 0.3715411 -0.07826017
000240 3f 73 10 3d 9e 67 10 be 8a 18 93 3e 88 20 30 3d
       0.035266157 -0.14102027 0.2872966 0.042999774
000250 6f c3 48 3d 22 7e ec bd 24 63 eb bd 22 49 92 ba
       0.049014505 -0.115474954 -0.11493519 -0.0011160711
000260 56 0b 6d bd dd b5 a1 bd a3 6c 98 3e c1 9d 97 3e
       -0.05787214 -0.07896016 0.29770383 0.29612544
000270 86 36 87 3e ab 92 bf 3d ca ef 87 3c 12 ac ac 3d
       0.26408786 0.093541466 0.016593833 0.08431257
000280 1a 8e 02 3e a0 64 e8 bd f9 36 8c 3e f4 c3 01 bd
       0.1274952 -0.11347318 0.2738569 -0.031681016
000290 bd 2a cf 3c e0 4d 1a 3e bd f8 60 3f ca c8 c5 be
       0.025288934 0.1506877 0.87879544 -0.38629752
0002a0 20 dd d5 3d cf f0 a1 bd 61 41 cc bd f1 a6 95 3c
       0.10442567 -0.07907259 -0.099734075 0.01826808
0002b0 9e e9 78 3e 24 9a 3c be cf aa 21 3e 7b 6a d9 3e
       0.24307868 -0.18418175 0.15787815 0.4246405
0002c0 fb f5 f2 3e fa 2e 11 3e 90 8c 42 3d 67 c9 e1 3d
       0.47453293 0.14178076 0.047497332 0.110247426
0002d0 53 be 16 be 17 91 84 3e 50 fe 3d 3d 15 ed 9f 3e
       -0.1472104 0.25891945 0.04638511 0.31235567
0002e0 b9 4e c6 3d 17 96 8d 3e e1 63 6c 3d 1b c0 fb bd
       0.09682984 0.27653572 0.05771244 -0.122925006
0002f0 62 87 1d 3e c5 78 f4 bc 52 d8 9a 3e c4 0b c8 bd
       0.15383676 -0.029842744 0.30243164 -0.09767869
000300 a2 da e9 3d 8b 8f 07 3e a7 a2 84 3e e3 09 74 bd
       0.11418654 0.13238351 0.25905344 -0.05957974
000310 bf 33 23 3e c0 a4 18 bd a9 b7 85 bd 5c f6 b8 3e
       0.15937708 -0.037266493 -0.06529171 0.36125457
000320 8e be 2b bd a4 64 27 be c9 24 91 3f 5b d0 d0 3e
       -0.041929774 -0.16346985 1.1339351 0.40783963
000330 5b c2 0c 3e e0 b6 8b bd 0f 89 0b 3e 8e 33 9a 3e
       0.13746016 -0.0682199 0.13626502 0.30117458
000340 cb ba 6e 3e ff ea c4 3d 6c d0 24 3f 79 7c ca 3e
       0.23313443 0.096151344 0.64380527 0.3954809
000350 b0 ec 02 3e e9 e7 31 bd 30 69 53 be 13 45 b4 3e
       0.12785602 -0.043434057 -0.20645595 0.3520895
000360 63 c8 4c 3e 5a b8 9c 3e ea ff fb bd 70 69 16 be
       0.19998316 0.306094 -0.12304671 -0.14688659
000370 ec fe 0b be db 3d c0 3c fa 6d 53 3e d6 22 83 be
       -0.13671464 0.023466995 0.20647421 -0.25612515
000380 2d 2c 66 3e e7 13 92 be 43 28 3d bd 1e 4d a4 be
       0.22477789 -0.2853081 -0.046180975 -0.32090086
000390 94 16 99 bd c5 bf bb bd 3b a2 94 3e e5 fb 58 3d
       -0.074750096 -0.091674365 0.29030022 0.0529746
0003a0 ed b7 67 3e 87 06 5f 3e 2a 4a 64 3e ca 21 61 3e
       0.22628756 0.21779834 0.22293916 0.21985546
0003b0 2a f5 17 be 98 65 0f 3d 5a 12 2c 3e f7 69 3a 3e
       -0.14839616 0.035008997 0.16803876 0.18204485
0003c0 52 22 13 bd 2b 1c b7 3c dc 18 96 3f 76 7a 93 be
       -0.035921402 0.022352299 1.1726336 -0.28804368
0003d0 fc e6 99 3e 73 87 df bd 78 09 35 be a3 bd ab 3d
       0.3005904 -0.10914507 -0.17679393 0.0838578
0003e0 0e 27 ac 3d f7 8e a3 3d 30 9b c3 3e af 72 98 3e
       0.084058866 0.07986253 0.38204336 0.29774997
0003f0 78 7b ad 3e db 54 01 3d 50 52 c1 3e 2a 52 45 3e
       0.33883262 0.031575065 0.37758112 0.19269624

fc4_adv.bias f4 [38]
000000 06 e6 0c 3e 7e f0 84 bc b6 52 1d 3e a7 95 6f bd
       0.13759622 -0.016227957 0.15363583 -0.05849233
000010 35 6b 2b bd 58 9b c8 bc 4e 0a 2f 3e f8 cf fa bd
       -0.041850287 -0.024488136 0.17093775 -0.12246698
000020 fb 4b 0e be 0f 27 26 be 41 3d e8 bd 7c dc 26 3e
       -0.13896172 -0.16225837 -0.11339808 0.16295046
000030 72 9f 0c 3d 5a 7c cb 3c 68 99 0a 3e a2 3b ca 3d
       0.034331746 0.024839569 0.13535082 0.09874655
000040 87 e4 14 3e 92 24 37 be 9b da 4b 3e 37 30 4b 3d
       0.14540301 -0.17885044 0.1990761 0.049606528
000050 40 76 08 3e 8b 72 5f 3e ea 62 32 3e 19 a6 57 3e
       0.13326359 0.21821038 0.17420545 0.21059455
000060 f6 dc 49 3e f1 d4 68 3b 45 2a 03 be 8d 55 a8 bd
       0.19713196 0.0035527314 -0.12809093 -0.082194425
000070 68 0e 0f bd 0a b5 ba 3c 87 24 21 3c 82 be 01 bc
       -0.03492585 0.022791404 0.009835369 -0.007918956
000080 45 92 b5 3d b5 16 3a 3e 67 01 f1 bd 1e 0f 59 3e
       0.08865789 0.18172725 -0.117678456 0.21197173
000090 0f 0c f7 bd a6 06 77 3e
       -0.12062847 0.2412363

fc4_val.weight f4 [1, 76]
000000 5d e4 4c 3e 4a 9c a6 3e 8a b3 93 be 8d f1 ee be
       0.20008989 0.32541114 -0.28847915 -0.46668664
000010 5d cc 87 be 20 3a 74 3e 37 8e e5 3e 89 15 ca be
       -0.26523104 0.23850298 0.44835064 -0.39469555
000020 33 65 b7 3e 22 76 a7 3e 67 d5 d0 3e 0b a0 8b 3e
       0.35819396 0.32707316 0.40787813 0.2727054
000030 62 c5 d9 be e9 51 46 3e 7c e3 96 3e a7 ed 94 be
       -0.42533404 0.19367184 0.29470432 -0.29087564
000040 28 0c a9 be 24 04 ab 3e e9 a8 89 3e 8a b7 9f 3e
       -0.33017087 0.33401597 0.2688668 0.31194717
000050 cb ad a3 3e 4f d8 ae 3e 34 4e 31 bf e3 f2 78 3e
       0.3196853 0.34149405 -0.69259953 0.24311404
000060 e8 97 7d 3e a7 7d 4e 3e 33 ec c0 3e 2d 7c 01 bf
       0.24764979 0.2016512 0.37680206 -0.505801
000070 64 8a 04 bf 35 92 31 3e 16 dd 78 3e 11 1a 12 bf
       -0.5177367 0.1734093 0.24303088 -0.57071024
000080 fd d0 00 c0 9b e1 db be 37 20 68 3e 40 1c a1 3e
       -2.0127556 -0.4294556 0.22668539 0.31466866
000090 0b 22 de be 23 23 b3 3e 4a c6 c9 be 68 3c 92 3e
       -0.43385348 0.34987745 -0.39409095 0.2856171
0000a0 5c 02 94 3e 24 e0 c2 3e 5c b1 20 c0 d8 74 e3 be
       0.2890805 0.3806163 -2.5108252 -0.44425082
0000b0 8e c3 e3 3e 47 20 7c bf 6f 41 21 c0 72 76 d7 3e
       0.44485134 -0.9848675 -2.5196187 0.42082554
0000c0 aa b5 b0 bf 2b 84 3d 3e 32 ed ee be 59 2e a4 3e
       -1.380544 0.1850745 -0.4666534 0.3206661
0000d0 b0 4d 74 3e ba 8c 31 3e 45 a5 9f be 5f 7f d1 3e
       0.2385776 0.17338839 -0.31180778 0.4091749
0000e0 05 4e 9f be 46 5b 66 bf e3 b2 db 3e f2 f8 58 3e
       -0.31114212 -0.8998302 0.42909917 0.21188715
0000f0 67 02 92 3e 4e 8f 23 3e 1f 41 c7 be e0 f6 96 3e
       0.28517458 0.15972635 -0.3891687 0.29485226
000100 c0 11 3f 3e 50 17 84 3e f6 f6 cd 3e ae 91 b8 be
       0.18659115 0.25799036 0.4022748 -0.36048645
000110 16 70 5e 3e c7 09 51 3e 66 98 db be 2c 82 72 3e
       0.21722445 0.20413886 -0.42889708 0.23682469
000120 5c 1f a7 3e ed 08 5a 3e 6a 90 34 3e 08 e3 a9 bf
       0.32641113 0.21292467 0.17633215 -1.327241

exp_avg f4 [1, 6, 1, 4]
000000 c2 b6 71 3f 06 4b f4 bd 13 00 26 be 27 70 93 3c
       0.9441949 -0.11928372 -0.16210966 0.017997814
000010 17 b4 68 40 55 01 da 3e d3 c1 0b c0 14 d2 a6 bf
       3.6359918 0.4257914 -2.183705 -1.3032861
000020 04 59 e6 3e 04 59 e6 3e 04 59 e6 3e 00 00 00 00
       0.4498979 0.4498979 0.4498979 0.0
000030 ea f4 c7 3e 61 70 e1 3d 61 70 e1 3d 04 00 00 00
       0.39054042 0.11007763 0.11007763 6e-45
000040 2e ef c6 3e 33 48 05 3e 33 48 05 3e 00 00 00 00
       0.38854355 0.13015823 0.13015823 0.0
000050 81 78 0e 3e b5 80 07 3e b5 80 07 3e 04 00 00 00
       0.13913156 0.13232692 0.13232692 6e-45

exp_avg_sq f4 [1, 6, 1, 4]
000000 c9 88 6f 43 cc 53 82 41 75 79 38 40 8b 23 99 3d
       239.53432 16.290916 2.8824131 0.074774824
000010 7b 7a 18 45 fa 40 8b 44 fb 32 94 43 95 cc 28 42
       2439.655 1114.0305 296.3983 42.199787
000020 54 be 42 41 54 be 42 41 54 be 42 41 00 00 00 00
       12.171467 12.171467 12.171467 0.0
000030 fe e6 72 40 c6 92 3a 40 c6 92 3a 40 f4 01 00 00
       3.7953486 2.9152083 2.9152083 7e-43
000040 68 ee ea 3f ff 75 b7 3f ff 75 b7 3f 00 00 00 00
       1.8354006 1.4332885 1.4332885 0.0
000050 47 94 ba 3f 39 5e a2 3f 39 5e a2 3f f4 01 00 00
       1.4576501 1.2685004 1.2685004 7e-43

exp_avg f4 [1, 6, 2, 4]
000000 40 75 53 bf d0 8f e3 bd 0a 87 f2 3c ee 07 c8 bc
       -0.82600784 -0.111114144 0.029605407 -0.024417844
000010 4e 15 3b bf 2e 3b 8e bd 28 43 77 bd ae 50 8c bc
       -0.73079383 -0.069448814 -0.06036678 -0.017128315
000020 00 ff b5 c0 34 28 65 c0 d9 a2 60 3f db 94 ef 3e
       -5.687378 -3.5805788 0.87748486 0.46793255
000030 79 1f 8a c0 c6 ec d1 bf a6 b7 e5 3e 62 5b e3 3e
       -4.316342 -1.6400383 0.44866675 0.44405657
000040 df 4d fe be df 4d fe be df 4d fe be 7a 3a e5 3d
       -0.49668786 -0.49668786 -0.49668786 0.11192794
000050 8c 23 7c bf 8c 23 7c bf 8c 23 7c bf 25 25 d9 3c
       -0.9849174 -0.9849174 -0.9849174 0.02650697
000060 61 72 97 3d 1f 2b 29 3e 1f 2b 29 3e eb 4b 6d bd
       0.07394863 0.16520356 0.16520356 -0.05793373
000070 93 8a d1 bd 2e 40 12 bd 2e 40 12 bd c9 03 61 bd
       -0.10231509 -0.035705738 -0.035705738 -0.05493525
000080 c3 7d eb be dc df be be dc df be be f0 3c 70 3d
       -0.45994386 -0.37280166 -0.37280166 0.058651865
000090 a1 8e bb bd 7f bd ef 3a 7f bd ef 3a 1c a4 bf bc
       -0.09158064 0.0018290727 0.0018290727 -0.023393683
0000a0 83 c4 89 be 3e 05 4c be 3e 05 4c be cb 25 99 3c
       -0.2690774 -0.19923875 -0.19923875 0.018694779
0000b0 fe 88 9f be f2 81 77 be f2 81 77 be dd 64 20 3d
       -0.31159204 -0.24170664 -0.24170664 0.03915869

exp_avg_sq f4 [1, 6, 2, 4]
000000 e8 cf cb 42 d8 72 b9 40 58 54 64 3f a7 a8 c4 3c
       101.90607 5.795269 0.891912 0.024006201
000010 67 6c e3 42 97 2f 25 41 74 49 a3 3f e4 d5 3d 3d
       113.71172 10.324119 1.2756791 0.04634656
000020 55 b4 81 44 3d 1e f9 43 d5 17 1a 43 95 de 84 41
       1037.6354 498.23624 154.0931 16.608683
000030 77 0e 58 44 7b 69 60 43 2f 94 09 42 c7 c5 55 40
       864.226 224.41203 34.39471 3.3401964
000040 6e 62 06 41 6e 62 06 41 6e 62 06 41 c9 60 65 3e
       8.399031 8.399031 8.399031 0.22400202
000050 10 a3 02 41 10 a3 02 41 10 a3 02 41 c3 27 22 3e
       8.16481 8.16481 8.16481 0.1583548
000060 c6 f6 a0 3f 3b 88 80 3f 3b 88 80 3f 8f 15 6b 3d
       1.2575309 1.0041574 1.0041574 0.057393607
000070 7c a5 05 40 24 c8 e6 3f 24 c8 e6 3f df 14 9c 3d
       2.0882254 1.8029828 1.8029828 0.07621168
000080 8c 37 7c 3f 4a da 5b 3f 4a da 5b 3f 72 0a b6 3c
       0.9852226 0.8587996 0.8587996 0.022221778
000090 31 72 01 40 05 9c e6 3f 05 9c e6 3f 34 bf 71 3d
       2.0225947 1.8016363 1.8016363 0.059020236
0000a0 c1 f9 a2 3f ed 77 97 3f ed 77 97 3f 2f b4 10 3d
       1.2732469 1.1833473 1.1833473 0.035328086
0000b0 b1 8f d1 3f c0 b3 c5 3f c0 b3 c5 3f 8c 95 0d 3d
       1.6371976 1.544548 1.544548 0.034566447

exp_avg f4 [1, 6, 3, 4]
000000 83 70 bf bf 50 d8 08 bf 4a d3 8e bd 74 66 fd bb
       -1.4956211 -0.53455067 -0.06973894 -0.0077331606
000010 3b 34 18 be 77 4b 21 3e 7c d1 5c 3e 4b 53 78 bc
       -0.14863674 0.15751444 0.21564287 -0.015156577
000020 c3 17 45 bf 68 47 c9 bd 3a 2a b3 bb aa 2b 49 bc
       -0.7698938 -0.09828073 -0.0054676803 -0.012278477
000030 c7 02 85 c0 3d 8d 36 c0 13 70 12 3f 60 d5 dd 3e
       -4.156589 -2.8523705 0.5720226 0.43326855
000040 bd 65 8d c0 3c 71 13 c0 11 0b 8e 3f b1 94 73 3f
       -4.418669 -2.3037863 1.1097127 0.9514876
000050 0f 05 8a c0 c8 2e 34 bf 78 ac c2 3f e2 bf 05 3f
       -4.3131175 -0.7038388 1.5208883 0.52245915
000060 42 08 8b 3d 4a 08 8b 3d 52 08 8b 3d 64 3e 60 3d
       0.067886844 0.067886904 0.06788696 0.054747
000070 fd 0c 40 be f7 0c 40 be f4 0c 40 be 56 8e 3e 3e
       -0.18754955 -0.18754946 -0.18754941 0.18608984
000080 87 af 92 be 84 af 92 be 85 af 92 be ba c6 eb 3d
       -0.28649542 -0.28649533 -0.28649536 0.115125135
000090 16 08 02 bf cb 1e 75 be cb 1e 75 be bc 23 7a bd
       -0.5079359 -0.23937528 -0.23937528 -0.061069235
0000a0 10 3e aa be 84 a5 ad bd 83 a5 ad bd ff 0b 27 bd
       -0.33250475 -0.08478835 -0.084788345 -0.040782925
0000b0 45 94 cf be 03 4d 7c be 03 4d 7c be a6 e3 6b bd
       -0.40542808 -0.24638753 -0.24638753 -0.05759015
0000c0 ba 21 ea be f4 7e d9 be f3 7e d9 be 8d cb 96 3d
       -0.45728856 -0.4247967 -0.42479667 0.07363043
0000d0 1c 99 d8 be 00 41 b6 be ff 40 b6 be e1 64 76 3c
       -0.42304313 -0.35596466 -0.35596463 0.0150387
0000e0 62 fc ec be 8b 23 de be 8b 23 de be e6 e5 aa 3d
       -0.46286303 -0.43386492 -0.43386492 0.08344631
0000f0 8b 83 81 3e 48 e7 9b 3e 48 e7 9b 3e 7a 56 07 3e
       0.25295672 0.3044989 0.3044989 0.13216582
000100 57 cc 83 bc 44 d3 dc 3c 44 d3 dc 3c 44 63 ef 3c
       -0.016088648 0.026956208 0.026956208 0.029222138
000110 5d 57 52 be 07 ce 05 be 07 ce 05 be 11 e6 e2 bc
       -0.20541139 -0.13066874 -0.13066874 -0.027697595

exp_avg_sq f4 [1, 6, 3, 4]
000000 6b 4a 16 43 0d 07 63 41 20 36 14 40 cd 03 2d 3d
       150.2907 14.189221 2.3158035 0.042239953
000010 23 a2 0e 43 f5 c7 6c 41 0b 77 0a 40 9b 1e 8c 3d
       142.63335 14.798818 2.1635158 0.06841775
000020 44 25 0d 43 d9 d7 64 41 f0 19 ed 3f 10 85 32 3d
       141.14557 14.302697 1.852354 0.04358393
000030 2a 1f f8 44 31 1f 37 44 67 34 1a 43 28 f1 aa 41
       1984.9739 732.48737 154.2047 21.367752
000040 3b ef fa 44 4e fe 41 44 83 58 30 43 a8 14 c6 41
       2007.476 775.9735 176.34575 24.760086
000050 9c f2 04 45 55 83 77 44 70 f5 6d 43 11 ec 02 42
       2127.163 990.05206 237.95874 32.730534
000060 3c 50 1a 41 3c 50 1a 41 3c 50 1a 41 07 83 a3 3e
       9.644588 9.644588 9.644588 0.31935903
000070 c4 1e 3a 41 c5 1e 3a 41 c4 1e 3a 41 79 69 ba 3e
       11.632511 11.632512 11.632511 0.36408594
000080 5f db 3d 41 5f db 3d 41 60 db 3d 41 89 2d aa 3e
       11.866057 11.866057 11.866058 0.33237866
000090 fe e0 80 40 9a 46 58 40 99 46 58 40 d7 20 b8 3d
       4.027465 3.3793092 3.379309 0.08990639
0000a0 4a 83 70 40 f9 5c 45 40 f8 5c 45 40 97 a9 b0 3d
       3.7580132 3.0837996 3.0837994 0.08626097
0000b0 f9 39 38 40 6d fb 19 40 6d fb 19 40 5d 3b bb 3d
       2.8785384 2.4059708 2.4059708 0.09142182
0000c0 9e c9 52 40 5b 2c 24 40 5b 2c 24 40 9d 0a ee 3d
       3.2935557 2.5652072 2.5652072 0.11623118
0000d0 64 82 45 40 a4 5e 1c 40 a4 5e 1c 40 e2 a6 9a 3d
       3.0860834 2.4432764 2.4432764 0.075513616
0000e0 82 51 1d 40 5c 88 fd 3f 5c 88 fd 3f a1 1c 77 3d
       2.4580998 1.9807239 1.9807239 0.060330037
0000f0 39 36 55 40 1e a6 48 40 1e a6 48 40 77 dc 1f 3e
       3.3314345 3.135139 3.135139 0.15611444
000100 aa d4 16 40 a3 0c 0b 40 a4 0c 0b 40 dc 9c be 3c
       2.35673 2.1726463 2.1726465 0.023268156
000110 45 81 36 40 0d 21 2b 40 0d 21 2b 40 ce 1a c9 3d
       2.85164 2.6738923 2.6738923 0.09819566

exp_avg f4 [1, 6, 4, 4]
000000 b4 31 2a c0 7b 5c 51 be 0c f9 7c 3e 0e a0 0d bd
       -2.6592836 -0.20445435 0.24704379 -0.03457647
000010 19 e2 01 c0 9d a2 07 3e 44 d0 8e 3e 38 0f 01 bd
       -2.029425 0.13245626 0.2789327 -0.031508654
000020 3b 8c 69 bf 69 b8 ca 3d 4b 28 ac 3d 08 4a 3b bd
       -0.912296 0.09898455 0.08406123 -0.0457249
000030 e3 ce f5 bf 61 13 16 bf 24 40 46 3d c2 f0 82 bd
       -1.9203762 -0.5862332 0.048401013 -0.06393577
000040 b1 01 4c c1 67 8e c1 c0 56 5d a9 3f 3e 64 d8 3f
       -12.750413 -6.048633 1.3231609 1.6905591
000050 74 45 42 c1 ed a7 8c c0 2c 34 ec 3f a9 43 b1 3f
       -12.141956 -4.3954988 1.8453422 1.3848773
000060 d1 a3 55 c1 b2 f0 a5 c0 82 c0 e4 3f 7c 5d 6a 3f
       -13.352494 -5.1856318 1.7871249 0.91548896
000070 d8 3c 49 c1 82 d9 ae c0 7c 16 cb 3f d0 a9 6f 3f
       -12.577354 -5.4640512 1.5866237 0.9361849
000080 05 1d de be 06 1d de be 0b 1d de be a2 dc 1b 3e
       -0.43381515 -0.43381518 -0.43381533 0.15220883
000090 ab cf 7e bf ad cf 7e bf ab cf 7e bf 2b c8 aa 3d
       -0.99535626 -0.9953564 -0.99535626 0.0833896
0000a0 d7 00 98 bf d6 00 98 bf d7 00 98 bf 36 96 96 3d
       -1.1875256 -1.1875255 -1.1875256 0.07352869
0000b0 d5 bc bf bf d5 bc bf bf d6 bc bf bf 09 ed 09 3e
       -1.4979502 -1.4979502 -1.4979503 0.13469328
0000c0 98 0f 5b bf 32 6c 0b bf 33 6c 0b bf ca 1d ef bd
       -0.8557067 -0.5446197 -0.54461974 -0.11675604
0000d0 bc 30 10 bf 88 00 81 be 89 00 81 be f5 99 8c bd
       -0.5632436 -0.25195718 -0.2519572 -0.068653025
0000e0 5c b7 05 bf c5 3d 8d be c5 3d 8d be 78 24 bc bd
       -0.5223291 -0.2758619 -0.2758619 -0.09186643
0000f0 d5 6b 9a be 00 a2 02 be 00 a2 02 be 00 f3 ab bd
       -0.30160394 -0.1275711 -0.1275711 -0.08395958
000100 1a a4 95 bf 4c 07 65 bf 4d 07 65 bf e7 f1 90 bd
       -1.1690705 -0.8946426 -0.89464265 -0.07077389
000110 48 d9 60 bf 3b 4e 24 bf 3b 4e 24 bf 94 24 59 3d
       -0.87831545 -0.6418187 -0.6418187 0.0530134
000120 99 3a 7c bf 08 73 37 bf 08 73 37 bf 2d fe af bd
       -0.9852691 -0.716599 -0.716599 -0.08593402
000130 37 01 f1 be bb b6 66 be bf b6 66 be d8 c6 4b bd
       -0.4707124 -0.22530644 -0.2253065 -0.04975018
000140 ec 66 51 bd bb 89 a0 3c b1 89 a0 3c 6c 37 fb 3d
       -0.051123545 0.019596925 0.019596906 0.1226643
000150 8d d3 36 be b2 e1 d8 bd b2 e1 d8 bd 69 ce bd bc
       -0.17854138 -0.10589923 -0.10589923 -0.023169713
000160 16 03 6a 3d 3c 62 c5 3d 30 62 c5 3d 51 a2 19 bc
       0.05713185 0.09637877 0.096378684 -0.009377078
000170 52 16 94 be 31 7a 80 be 32 7a 80 be 20 e8 f3 3c
       -0.2892328 -0.25093225 -0.25093228 0.029773772

exp_avg_sq f4 [1, 6, 4, 4]
000000 a5 c3 b3 43 8c 69 03 42 d5 05 cc 40 f7 6a a2 3d
       359.52847 32.853073 6.375712 0.07930558
000010 eb 78 ba 43 8b 5e 0c 42 8b 6b a4 40 d0 6b 97 3d
       372.94467 35.092327 5.138128 0.073936105
000020 fe f8 aa 43 40 de f3 41 37 a7 83 40 3a 89 b5 3d
       341.94525 30.48352 4.114162 0.088640645
000030 a9 d0 a8 43 0b b6 ff 41 dc d6 9d 40 c5 a9 c5 3d
       337.63016 31.963888 4.932478 0.096515216
000040 a6 e5 96 45 be 9e e4 44 b1 da cf 43 20 17 58 42
       4828.706 1828.9607 415.70853 54.022583
000050 a4 64 96 45 3e 60 dc 44 fc e9 ca 43 46 e6 57 42
       4812.58 1763.0076 405.828 53.974876
000060 37 d9 96 45 b8 a0 e3 44 a4 61 c3 43 73 ca 47 42
       4827.152 1821.0225 390.76282 49.947704
000070 71 61 96 45 ca a6 e5 44 d8 b5 c0 43 45 45 3a 42
       4812.18 1837.2122 385.42065 46.567646
000080 17 86 d3 41 17 86 d3 41 1b 86 d3 41 dc 94 06 3f
       26.440474 26.440474 26.440481 0.5257089
000090 7d 85 dd 41 7e 85 dd 41 7d 85 dd 41 22 27 f1 3e
       27.69018 27.690182 27.69018 0.47100168
0000a0 6f b0 e9 41 6f b0 e9 41 6f b0 e9 41 fd df f8 3e
       29.21115 29.21115 29.21115 0.4860839
0000b0 79 44 d9 41 78 44 d9 41 79 44 d9 41 2f 46 01 3f
       27.158434 27.158432 27.158434 0.50497717
0000c0 0f a6 fd 40 ff 31 cf 40 00 32 cf 40 18 86 3c 3e
       7.926521 6.474853 6.4748535 0.18410528
0000d0 99 70 ec 40 69 f7 c0 40 6a f7 c0 40 c2 dc 2f 3e
       7.388745 6.0302014 6.030202 0.17174056
0000e0 04 c9 dc 40 34 ee be 40 35 ee be 40 3c 9b 36 3e
       6.899538 5.9665775 5.966578 0.17832655
0000f0 99 90 d8 40 a2 54 c1 40 a2 54 c1 40 45 27 3e 3e
       6.767651 6.041581 6.041581 0.18569668
000100 7b fa e1 40 7e db ae 40 7d db ae 40 d9 30 f1 3d
       7.061826 5.4642935 5.464293 0.11776895
000110 a3 60 da 40 bd 22 ae 40 bd 22 ae 40 9c 4a f0 3d
       6.8242965 5.4417405 5.4417405 0.117329806
000120 d6 a0 ca 40 19 73 9d 40 19 73 9d 40 0a 33 18 3e
       6.3321333 4.9203 4.9203 0.1486322
000130 9f 47 d6 40 66 c9 af 40 66 c9 af 40 b6 4d 42 3e
       6.696243 5.493335 5.493335 0.18974957
000140 a3 b6 92 40 5a a5 89 40 5a a5 89 40 1b 9a 80 3e
       4.5847945 4.3014345 4.3014345 0.25117573
000150 33 8d a3 40 d2 47 9a 40 d2 47 9a 40 55 e8 6a 3e
       5.110986 4.821267 4.821267 0.2294019
000160 39 06 b3 40 ee b4 a9 40 ec b4 a9 40 ac 06 47 3e
       5.5945096 5.303336 5.303335 0.19436139
000170 86 ea c3 40 5d fe b9 40 5e fe b9 40 e4 59 47 3e
       6.1223783 5.8123 5.8123007 0.19467884
