TrainedModel/Dueling DQN-1/23500_0-09_DuelingDQN.pth (torch, 291221 bytes, 33 tensors)

conv1.weight f4 [1, 6, 1, 4]
0	0x3fac53c1	1.346306
1	0x3ed13a84	0.40864956
2	0x3eaa6dd5	0.3328692
3	0x3efac48f	0.48978087
4	0x3e555de1	0.20836593
5	0x3e4b9664	0.19881588
6	0x3e96ad62	0.29429156
7	0x3e8fe45a	0.28103906
8	0x3dbe8cb1	0.093041785
9	0x3cdfb95b	0.027310064
10	0xbea8c58e	-0.32963222
11	0xbec1d06a	-0.3785432
12	0x3aba99a4	0.0014236462
13	0x3e9f8fa6	0.31164283
14	0xbefd05b9	-0.4941843
15	0xbe16ed84	-0.14739043
16	0xbdc33d34	-0.09533158
17	0xbdb05e5f	-0.0861175
18	0xbe197b21	-0.14988376
19	0xbee670af	-0.45007846
20	0xbd97dd3e	-0.074152455
21	0x3d2af4b0	0.04173726
22	0xbeb391d8	-0.35072207
23	0xbeecdb30	-0.46260977

conv2.weight f4 [1, 6, 2, 4]
0	0xbd939baa	-0.07207425
1	0x3d2b5c95	0.04183634
2	0x3e3a69b4	0.18204385
3	0x3e807d41	0.2509556
4	0xbe34d79a	-0.1766037
5	0x3f26bd5a	0.6513268
6	0x3f151028	0.5822778
7	0xbf2e1a5e	-0.68008983
8	0x3e437e75	0.19091208
9	0x3f03385e	0.51257885
10	0x3eb81e57	0.35960647
11	0xbe5185ac	-0.20461148
12	0xbc40dd52	-0.011771517
13	0xbf061617	-0.52377456
14	0xbef26c2b	-0.4734815
15	0xbde26414	-0.11054245
16	0x3f1b7488	0.6072469
17	0x3eb1500b	0.3463138
18	0x3eaa90e7	0.33313677
19	0xbec401de	-0.38282675
20	0x3dfd3ae5	0.12364749
21	0xbe723e9d	-0.23656698
22	0x3eab26bc	0.3342799
23	0xbf7e5a46	-0.99356496
24	0xbd8a9f54	-0.06768671
25	0xbe49d6e0	-0.19710875
26	0x3e6f04f1	0.23341729
27	0x3e7dd6e4	0.24789006
28	0x3d2a9f56	0.04165586
29	0xbe47416f	-0.19458555
30	0x3ec329d7	0.3811786
31	0xbe3885f7	-0.18019854
32	0xbd4478e9	-0.04796687
33	0xbe79f3bc	-0.24409384
34	0x3ea6458f	0.32474944
35	0x3ebd2eae	0.36949676
36	0xbde94a91	-0.113911755
37	0x3e2d7e18	0.16942632
38	0xbdb90b3c	-0.09035346
39	0xbe318034	-0.17334062
40	0x3e634d28	0.22197402
41	0x3de11e91	0.10992158
42	0xbe30674e	-0.17226908
43	0x3eb76256	0.35817212
44	0x3b6526a6	0.0034965663
45	0x3d83a319	0.06427593
46	0x3d34ae3c	0.044111475
47	0xbd97ccf3	-0.07412138

conv3.weight f4 [1, 6, 3, 4]
0	0x3e957d90	0.2919736
1	0x3e94663a	0.28984243
2	0xbdf29d47	-0.118464045
3	0x3d678deb	0.056531828
4	0x3ec6b9e0	0.38813686
5	0x3f4a27c2	0.78966916
6	0xbdc29ed0	-0.09502947
7	0x3f007693	0.5018093
8	0x3dba45ba	0.090953305
9	0x3f111fd6	0.566892
10	0x3e1a9231	0.1509483
11	0x3ee8ce01	0.45469669
12	0xbe0c28f8	-0.13687503
13	0xbe79e1f7	-0.24402605
14	0xbdf57041	-0.11984301
15	0xbd1dcf55	-0.038527805
16	0xbc9673fd	-0.018365854
17	0xbdb2a2b5	-0.0872244
18	0xbd4cfd62	-0.050046332
19	0xbc661853	-0.014043885
20	0x3de2c1ba	0.11072107
21	0x3e6580e1	0.22412445
22	0x3cd4f28c	0.025994562
23	0xbd591d6f	-0.053006586
24	0x3d60c55e	0.054875724
25	0xbda38e9b	-0.07986184
26	0xbda0fd19	-0.078607745
27	0x3e3db767	0.18526994
28	0xbe474f3a	-0.19463816
29	0x3dbd6189	0.09247119
30	0xbc4d9fb0	-0.0125502795
31	0x3e0dad0c	0.13835543
32	0x3e07f5b0	0.13277316
33	0xbe7e8339	-0.24854745
34	0x3dd441c7	0.103641085
35	0x3f01a410	0.50640965
36	0xbe014a78	-0.12626064
37	0x3dd9b20b	0.10629662
38	0x3e2f5f98	0.1712631
39	0xbd502462	-0.050815947
40	0x3e089c35	0.13340838
41	0x3e094a96	0.13407359
42	0xbe310f9e	-0.17291114
43	0xbe831188	-0.25599313
44	0x3c90d244	0.017678387
45	0xbe0cf2a0	-0.13764429
46	0x3df85ade	0.121267065
47	0x3e418e23	0.18901877
48	0xbd7b52eb	-0.061358374
49	0xb9f87e1f	-0.00047396214
50	0x3cdc734d	0.026910448
51	0xbe1e9e6a	-0.15490118
52	0x3e0798cb	0.1324188
53	0xbe997a9d	-0.2997636
54	0x3e43b642	0.19112495
55	0x3e5dbf03	0.21654896
56	0xbd892f84	-0.06698516
57	0x3e3fa7ab	0.18716304
58	0xbe347cb8	-0.17625701
59	0xbd3a6980	-0.04551077
60	0x3c21e4d7	0.00988122
61	0x3d0f7249	0.0350211
62	0x3d7ecfcf	0.0622099
63	0x3de92d80	0.113856316
64	0xbdfc2e24	-0.12313488
65	0xbc1fed13	-0.009761113
66	0x3d29b21c	0.041429624
67	0xbe876b0c	-0.26448858
68	0x3e1f519b	0.15558474
69	0xbe0917c4	-0.13387972
70	0x3dec8c17	0.115501575
71	0x3eb276c5	0.3485624

conv4.weight f4 [1, 6, 4, 4]
0	0x3eb28711	0.34868672
1	0xbddc836c	-0.10767254
2	0x3e01e2be	0.12684152
3	0x3d9dc868	0.0770424
4	0x3ec9b784	0.39397824
5	0xbee49a54	-0.44648993
6	0xbe0c1386	-0.13679323
7	0xbcce1cb8	-0.025160179
8	0x3d9f671d	0.07783339
9	0xbe0fbdae	-0.14037201
10	0xbd587e78	-0.052854985
11	0x3e09b57f	0.13448142
12	0x3eaca1e3	0.3371726
13	0xbedd772e	-0.4325499
14	0xbdccba34	-0.09996453
15	0x3e264a93	0.16239385
16	0x3df367fb	0.11885067
17	0x3e0fbfc3	0.14037995
18	0x3d584e4b	0.05280904
19	0xbc0f1a3d	-0.008734283
20	0xbdad136e	-0.084509715
21	0xbd424eb1	-0.047438327
22	0x3d00cfba	0.031448103
23	0x3cb1dfa5	0.021713087
24	0xbd108fee	-0.035293512
25	0xbdbb7747	-0.0915361
26	0xbd831081	-0.06399632
27	0xbd8ab236	-0.06772272
28	0xbd6b72e6	-0.057482623
29	0xbd83e9f5	-0.06441108
30	0xbdb3e27c	-0.08783433
31	0xbd9c5ad2	-0.0763451
32	0x3d71c88f	0.05902916
33	0xbdeb1c2f	-0.11479985
34	0x3dfd9efd	0.1238384
35	0x3df3665e	0.11884759
36	0x3df04964	0.11732748
37	0xbcaee9b5	-0.021351675
38	0xbdf17281	-0.11789418
39	0x3dd06be0	0.101768255
40	0x3e54905a	0.20758191
41	0xbe6c02ec	-0.2304799
42	0xbd5626b3	-0.052283
43	0x3dab8195	0.08374325
44	0xbe8f8396	-0.2803008
45	0x3e071591	0.1319182
46	0x3c91f056	0.017814796
47	0x3e9a7e19	0.3017433
48	0xbb5b76d4	-0.0033487575
49	0xbdfaa75d	-0.12238953
50	0xbb93835f	-0.0045017446
51	0x3da48d3c	0.08034751
52	0xbd7efa56	-0.062250458
53	0x3de343dc	0.110969275
54	0xbd65e9e7	-0.05613127
55	0xbd3890b3	-0.04505987
56	0x3e071711	0.13192393
57	0xbcb511bd	-0.022103185
58	0xbd3560a4	-0.044281617
59	0xbe4e4742	-0.2014437
60	0xbc633eaf	-0.013869925
61	0xbd93728e	-0.07199584
62	0x3d0cdd27	0.034390595
63	0xbced6e1e	-0.028983172
64	0x3b570f88	0.0032815654
65	0xbd6a82b1	-0.057253543
66	0x3dc715b1	0.09720934
67	0x3e438ce2	0.19096711
68	0xbcb2f2e7	-0.02184434
69	0xbd8e6058	-0.0695197
70	0x3c9255a6	0.017863106
71	0xbd8c6533	-0.0685524
72	0x3c9431c7	0.018090142
73	0xbdcc7737	-0.09983676
74	0x3e109966	0.14121017
75	0x3e59b889	0.21261801
76	0x3d67513d	0.05647396
77	0xbd86139c	-0.06546709
78	0x3e289109	0.16461577
79	0xbe08ffa3	-0.13378768
80	0xbcb78cec	-0.022406064
81	0xbab32b12	-0.0013669452
82	0xbdbec1ce	-0.09314309
83	0x3d4d4599	0.0501152
84	0x3e4f6747	0.20254241
85	0xbbc1fec3	-0.0059202625
86	0xbe3de00c	-0.18542498
87	0xbd2f329b	-0.04277287
88	0xbdc3982c	-0.09550509
89	0xbdaebc42	-0.08532001
90	0x3dd0736d	0.10178266
91	0xbe1ce8b4	-0.15323144
92	0xbd382086	-0.04495289
93	0x3d61f919	0.0551692
94	0x3d727aac	0.05919902
95	0xbe0c16f7	-0.13680635

fc3_adv.weight f4 [76, 130]
0	0x3e2b8165	0.16748579
1	0xbbc2f1c8	-0.0059492327
2	0xba229dcf	-0.0006203325
3	0xbdcdde44	-0.100521594
4	0xbe16be54	-0.14721042
5	0xbe4337de	-0.1906428
6	0x3e4cb5c7	0.19991218
7	0x3da94da8	0.08266765
8	0x3db2f138	0.08737415
9	0x3b01aedf	0.001978807
10	0xbd83e47f	-0.064400665
11	0xbda164d0	-0.078805566
12	0x3e41ed8d	0.18938275
13	0x3e8a945d	0.27066317
14	0x3d2c3401	0.042041782
15	0x3ca8c00d	0.02059939
16	0x3dc628fc	0.09675786
17	0xbd6bc3ec	-0.057559893
18	0x3e549c37	0.20762716
19	0x3e4b6066	0.19860992
20	0x3e83d6b9	0.25749758
21	0xbee1fc60	-0.4413786
22	0xbfadf2ea	-1.3589756
23	0xbf39634a	-0.7241713
24	0xbf4b9b58	-0.7953391
25	0xbf58ccc6	-0.8468746
26	0xbec81895	-0.39081255
27	0xbce9205a	-0.02845781
28	0x3dce617a	0.10077186
29	0x3c6ff4bc	0.014645752
30	0x3d8fab07	0.07015043
31	0xbcb39186	-0.021919977
32	0x3da63f80	0.081175804
33	0xbddba439	-0.10724682
34	0xbddfe95f	-0.10933184
35	0x3e65b895	0.22433694
36	0x3eba3204	0.36366284
37	0x3ea83faa	0.32861072
38	0xbc99c7b7	-0.01877199
39	0x3ed68991	0.4190183
40	0x3e7ab4e1	0.24483062
41	0x3eec262c	0.46122873
42	0x3e03054b	0.12794988
43	0x3f0f76d4	0.5604069
44	0x3df2498f	0.118304364
45	0x3e9e8a31	0.30964807
46	0x3ea53bf6	0.3227231
47	0x3f03de59	0.5151115
48	0x3f12f792	0.5740901
49	0x3e3e31d2	0.18573692
50	0x3e6f1f7b	0.23351853
51	0x3e2b32a6	0.1671854
52	0xbdbfd800	-0.093673706
53	0xbd850f1f	-0.06497025
54	0x3ea36b39	0.31917742
55	0x3ec4d103	0.38440713
56	0xbd92291e	-0.07136749
57	0x3e0486af	0.12942003
58	0x3e86c112	0.26319176
59	0x3e4fdcbb	0.20299046
60	0x3f0016ff	0.5003509
61	0x3ea93067	0.3304474
62	0x3e37be2d	0.1794364
63	0xbda8ca91	-0.082417615
64	0x3caa29fc	0.020771973
65	0x3dffe6cc	0.12495193
66	0x3ed96430	0.4245925
67	0x3ec4df96	0.38451833
68	0x3e8ad963	0.27118978
69	0x3e9bb99b	0.30415043
70	0x3eb612dd	0.35561267
71	0x3d030ce7	0.031994727
72	0x39ed4b5e	0.00045260316
73	0x3ecc19a7	0.3986332
74	0x3e8600a3	0.2617236
75	0x3c65a718	0.014016889
76	0x3e5dc832	0.216584
77	0x3dc6f399	0.09714431
78	0xbdc4f435	-0.09616891
79	0x3ec459e6	0.38349837
80	0x3d47bf4e	0.048766427
81	0x3deff2e2	0.11716248
82	0x3d5257eb	0.051353376
83	0x3e9be9d7	0.30451843
84	0x3e247ba9	0.16062798
85	0x3b034505	0.0020030153
86	0x3df3169e	0.11869548
87	0x3c32396b	0.010877947
88	0xbf3e5ddf	-0.74361986
89	0xbf8115c4	-1.0084767
90	0xbf55227a	-0.8325573
91	0xbf51cece	-0.81956184
92	0xbf2b6915	-0.6695722
93	0x3ce8460c	0.028353713
94	0x3d6b25c6	0.05740907
95	0x3e953cec	0.29148042
96	0xbdbb59e4	-0.09148005
97	0x3e0a36ab	0.13497417
98	0x3d1eb641	0.03874803
99	0x3d36e2a5	0.04464974
100	0x3e9f7fab	0.3115209
101	0xbca72368	-0.020402625
102	0x3c15bee3	0.009139749
103	0xbdb39413	-0.08768477
104	0x3e015058	0.12628305
105	0x3dcc84ca	0.09986265
106	0x3c726c5d	0.014796344
107	0xbccf8eb3	-0.025336599
108	0x3e669dfc	0.22521204
109	0xbc96df07	-0.018416895
110	0x3dbf1791	0.09330667
111	0xbda452a4	-0.08023575
112	0x3c8ed705	0.017436514
113	0xbe126feb	-0.14300506
114	0x3dffb09e	0.12484859
115	0x3ed5ef7a	0.4178427
116	0x3ecf9ab9	0.40547732
117	0xbe0c80ba	-0.1372098
118	0x3d83a9b5	0.064288534
119	0xbd8a7ec9	-0.067624636
120	0xbee8c930	-0.45465994
121	0xbeafc94f	-0.34333274
122	0xbe7d4664	-0.24733883
123	0xbea99d16	-0.3312766
124	0xbee99fa6	-0.45629615
125	0xbdaa6745	-0.08320478
126	0xbcddd059	-0.027076887
127	0x3d60db8c	0.054896876
128	0xbd68b5a4	-0.05681385
129	0x3e97103b	0.2950457
130	0x3e7bebcc	0.24601668
131	0x3ed0d049	0.4078391
132	0x3e69f76d	0.22848292
133	0x3e7a464f	0.24440883
134	0x3e2c763e	0.16841981
135	0x3e5ed51f	0.21760987
136	0xbd109b1d	-0.035304178
137	0x3e4eafa0	0.20184183
138	0x3eb816cc	0.35954893
139	0x3ea0c276	0.31398362
140	0x3e8a7d84	0.27048886
141	0x3ec551c5	0.38538948
142	0x3edb2fed	0.42810002
143	0x3d97b80a	0.074081495
144	0xbbf7efad	-0.0075664134
145	0x3e7a7902	0.24460223
146	0x3e88ea1c	0.2674111
147	0x3edac720	0.42730045
148	0x3d726581	0.059178833
149	0x3e223ce3	0.15843539
150	0x3ee3ebf1	0.44515947
151	0x3ea6fc3a	0.3261431
152	0xbd465eba	-0.048430182
153	0x3db774c4	0.08957818
154	0x3ea70c12	0.32626396
155	0x3eca70fb	0.39539322
156	0x3e7980e9	0.24365582
157	0x3d0edd53	0.03487904
158	0x3e2f5154	0.17120868
159	0x3e60bf71	0.21948029
160	0x3f03d8c2	0.5150262
161	0x3e375cd9	0.17906512
162	0x3e7b1a3f	0.24521731
163	0x3e060ff8	0.13092029
164	0xbe2b47be	-0.16726586
165	0xbe55cb66	-0.20878372
166	0xbe34915d	-0.17633577
167	0x3ca267c9	0.01982488
168	0x3c0644bd	0.008195099
169	0xbe85d35b	-0.26137814
170	0xbdbb5560	-0.09147143
171	0xbba1b5bb	-0.004934994
172	0x3e000a86	0.12504014
173	0xbe1596ae	-0.14608261
174	0x3d5ae81b	0.05344401
175	0x3a9aa7b9	0.0011799253
176	0x3e8438b0	0.258245
177	0x3d1a34aa	0.03764788
178	0xbd8b2a34	-0.06795159
179	0xbe0a2460	-0.13490438
180	0x3d71bfc5	0.059020776
181	0xbe5b96b8	-0.21444213
182	0xbde5ffd9	-0.1123044
183	0xbdd575f3	-0.10422888
184	0xbd57ddb9	-0.052701686
185	0xbe1b7cfe	-0.151844
186	0x3d478c05	0.048717517
187	0x3d3689cd	0.04456501
188	0xbd4d61a5	-0.05014195
189	0x3cfa06e7	0.03052087
190	0xbe4dd36f	-0.20100187
191	0x3e5965e8	0.2123028
192	0xbe9b0495	-0.30276933
193	0xbca2731a	-0.019830275
194	0xbd693e22	-0.05694402
195	0x3ca8dc48	0.02061285
196	0x3e00999b	0.12558596
197	0x3e16dae7	0.14731942
198	0x3dbff76e	0.09373365
199	0x3ea3baa9	0.31978348
200	0x3e138c4b	0.14408986
201	0x3ea3142d	0.3185133
202	0x3cf2fa2d	0.029660309
203	0xbe263577	-0.16231333
204	0xbc82f46a	-0.015985686
205	0x3de50342	0.11182262
206	0x3df2573a	0.118330434
207	0xbadb0584	-0.0016710018
208	0xbd0d54a3	-0.034504544
209	0x3eb4bdfc	0.35301197
210	0x3dc3fd99	0.09569854
211	0xbe56f6f1	-0.20992638
212	0xbd5536e3	-0.052054297
213	0x3c1c4792	0.009538548
214	0x3c7a7764	0.015287254
215	0x3e3a1f66	0.1817604
216	0x3c6df6b4	0.014524151
217	0x3de8deac	0.11370596
218	0x3e471cfb	0.19444649
219	0xbd762d37	-0.060101714
220	0x3dfadf34	0.12249604
221	0x3e818465	0.25296322
222	0x3cb53d1d	0.022123868
223	0xbe186ab7	-0.14884458
224	0xbe30c9f1	-0.17264535
225	0xbb16d54d	-0.002301532
226	0xbe2b8f50	-0.16753888
227	0x3defecea	0.1171511
228	0x3de0ba66	0.10973053
229	0xbb94a9a2	-0.0045368234
230	0xbe3a6a16	-0.18204531
231	0x3cccc6df	0.024997173
232	0xbe2a9265	-0.16657408
233	0xbe3e9cd1	-0.18614508
234	0xbe31a12b	-0.17346637
235	0x3d6b34c2	0.05742336
236	0xbdb0eb08	-0.08638579
237	0xbda7616f	-0.08172881
238	0x3c4939ae	0.012281818
239	0xbd0401d7	-0.032228317
240	0xbe72594c	-0.23666877
241	0xbd9650a7	-0.07339602
242	0x3c0d66b4	0.008630443
243	0xbda699e1	-0.08134819
244	0xbe3403af	-0.1757953
245	0xbe3ed89c	-0.18637317
246	0x3e6e3692	0.23263004
247	0xbcad6c8b	-0.021169921
248	0xbd4a6ea1	-0.04942191
249	0xbdd5bc90	-0.10436356
250	0xbe22dac7	-0.1590377
251	0xbddf52e2	-0.109044805
252	0xbe064f38	-0.13116157
253	0x3e44738d	0.19184704
254	0x3d548a41	0.05188966
255	0x3e80264a	0.25029212

fc3_adv.bias f4 [76]
0	0x3e48fcf3	0.19627742
1	0x3ddb173a	0.106977895
2	0xbdef959c	-0.116984576
3	0x3e5d2641	0.21596624
4	0x3e3b6231	0.18299176
5	0x3e8c13d6	0.27358884
6	0x3e3d141c	0.18464702
7	0x3d314c14	0.043285444
8	0x3db825c7	0.089915805
9	0x3ddc5c0d	0.10759745
10	0xbc993203	-0.018700605
11	0x3d74585a	0.05965457
12	0x3d54a55b	0.051915508
13	0x3d87db4c	0.066336244
14	0x3f6fbe88	0.936501
15	0x3dbd9b62	0.092581525
16	0x3dab6414	0.08368698
17	0x3e52ff6e	0.20605251
18	0x3d68764d	0.056753445
19	0x3e6c7dee	0.23094913
20	0x3d3c969f	0.04604208
21	0xbca18e6d	-0.019721234
22	0x3e926566	0.28592986
23	0x3e3bffa2	0.18359235
24	0x3d1fbaa8	0.03899637
25	0x3dd9018d	0.10595999
26	0x3da15fcd	0.07879601
27	0xbe093577	-0.13399301
28	0x3dc2d9b7	0.09514182
29	0x3d17197c	0.03688954
30	0x3e693f07	0.2277795
31	0xbcaf42cf	-0.021394162
32	0x3e754868	0.23953402
33	0x3e1d7327	0.15375958
34	0x3d778b5a	0.06043563
35	0x3c862941	0.016377093
36	0x3d33d0d4	0.043900326
37	0x3c61cb73	0.013781416
38	0x3e278c5f	0.16362141
39	0x3d94b188	0.07260424
40	0x3e2485c0	0.16066647
41	0x3d63e6b2	0.05563993
42	0x3ce9f146	0.028557431
43	0xbbb1ea98	-0.005429577
44	0x3d97459d	0.073863246
45	0x3dd56722	0.10420062
46	0x3e349e95	0.17638619
47	0x3e3cc9b1	0.18436314
48	0x3e0e1f2d	0.1387908
49	0x3e433030	0.19061351
50	0x3e81dff6	0.2536618
51	0x3e20612e	0.15662071
52	0xbd237e90	-0.03991562
53	0x3d914ed7	0.07095116
54	0x3d9bd6f6	0.0760936
55	0x3d408235	0.046999175
56	0x3d53aad2	0.05167658
57	0x3d678497	0.056522932
58	0x3dffaecf	0.12484514
59	0x3d5a95b7	0.053365435
60	0xbd1971db	-0.037462097
61	0x3dc94dbb	0.09829279
62	0x3c9d8df0	0.01923272
63	0x3ddad9c9	0.106860705
64	0x3e347bde	0.17625377
65	0x3e022774	0.12710363
66	0x3cce62c7	0.025193585
67	0x3d27aa60	0.040933967
68	0x3c8d73e1	0.01726717
69	0x3c94c4d5	0.018160263
70	0x3d80897b	0.06276222
71	0xbcc9d4d2	-0.024637613
72	0x3df35913	0.11882224
73	0x3d08279c	0.0332409
74	0x3e43b610	0.1911242
75	0x3e290ee2	0.16509584

fc3_val.weight f4 [76, 130]
0	0x3de757ec	0.11296067
1	0x3ca030e3	0.019554561
2	0xb97cb42b	-0.0002409971
3	0x3d12169c	0.035666093
4	0x3d4dcdcf	0.050245102
5	0x3da59805	0.08085636
6	0xbd817389	-0.06320865
7	0x3c62dced	0.013846618
8	0x3e279f23	0.163693
9	0x3e67c7dc	0.22634834
10	0x3da379a4	0.079821855
11	0xbdd7f704	-0.10545161
12	0x3d11937b	0.03554104
13	0xbd20ad35	-0.039227683
14	0x3d303679	0.0430207
15	0xbdd9309d	-0.106049754
16	0x3e70140e	0.2344515
17	0xbdedd5e2	-0.116130605
18	0x3dc44d23	0.09585025
19	0xbe099bda	-0.13438359
20	0xbdeb562b	-0.114910446
21	0x3da1777d	0.07884119
22	0xbd1d38af	-0.038384136
23	0xbd203d04	-0.03912069
24	0x3d1949cc	0.037423894
25	0x3df40c40	0.11916399
26	0x3d7a6360	0.061129928
27	0xbda4a41b	-0.08039113
28	0x3e5b83d6	0.2143701
29	0x3e3a369f	0.18184899
30	0x3d98f16b	0.07467922
31	0xbc0f23b2	-0.008736538
32	0x3eade029	0.33960083
33	0x3e0f9391	0.14021136
34	0x3e50add1	0.20378806
35	0x3e28caab	0.16483562
36	0x3d551319	0.052020166
37	0x3e68c1fb	0.22730248
38	0x3cb5809a	0.022156049
39	0x3e07a98a	0.13248268
40	0x3e2762ca	0.16346279
41	0x3e5b1ef3	0.21398525
42	0x3daee2e4	0.0853937
43	0x3c07b024	0.008281741
44	0x3e8f4b6f	0.2798724
45	0x3d32ac65	0.04362144
46	0xbd0ac8ed	-0.033883024
47	0x3ddc9003	0.107696556
48	0x3e5b936f	0.2144296
49	0x3e0bcbb1	0.13651921
50	0x3debbb3f	0.11510324
51	0x3e950855	0.2910792
52	0x3ca53cef	0.020170657
53	0x3e7122f1	0.23548485
54	0x3e26d813	0.16293363
55	0x3e1f36cc	0.15548247
56	0xbcb2ae69	-0.02181168
57	0x3e06f373	0.13178806
58	0x3db5b024	0.08871487
59	0x3db10036	0.08642618
60	0x3daccff7	0.08438104
61	0x3e8e7b55	0.2782847
62	0xbc9a55a2	-0.018839661
63	0x3e0e4a2a	0.13895479
64	0x3daba1a3	0.08380439
65	0x3ddc07cb	0.10743674
66	0x3e09a95c	0.13443512
67	0x3d36132a	0.04445187
68	0x3cf5e992	0.030018602
69	0x3e4f8ff6	0.2026976
70	0xbd6a7722	-0.05724252
71	0xbbc8cfbf	-0.006128281
72	0x3dbe3477	0.092873506
73	0x3e8f1316	0.2794425
74	0x3e2135bc	0.15743154
75	0x3e589523	0.21150641
76	0x3e129579	0.14314832
77	0x3e875d03	0.2643815
78	0x3de122ed	0.1099299
79	0x3d75a8a4	0.05997528
80	0xbd088675	-0.033331353
81	0x3bc688bf	0.006058782
82	0xbd0b3ccd	-0.03399353
83	0x3d9ff2b6	0.07809965
84	0x3e1099a8	0.14121115
85	0x3dd9ee93	0.106412075
86	0x3e2e86b5	0.17043574
87	0x3e0096ec	0.12557572
88	0x3e620aec	0.22074479
89	0x3d6565fa	0.056005456
90	0x3e380013	0.17968778
91	0x3db27e1d	0.087154604
92	0xbbf92414	-0.007603178
93	0x3d1ec48e	0.038761668
94	0x3d3668ca	0.04453353
95	0x3da71e2c	0.08160052
96	0x3e623a23	0.2209249
97	0x3e4aa597	0.1978973
98	0x3dde46c7	0.108533435
99	0x3e9390fd	0.28821555
100	0x3e15cad3	0.14628153
101	0x3e697e55	0.22802098
102	0xbada5e44	-0.0016660173
103	0x3d824409	0.06360633
104	0x3eba0ee6	0.36339492
105	0x3e40a56a	0.188131
106	0x3e0f1e30	0.1397636
107	0x3e751692	0.23934391
108	0x3d83f7df	0.06443762
109	0x3d96be51	0.07360519
110	0x3e32e7cf	0.1747124
111	0x3d486db5	0.04893275
112	0x3e43de12	0.19127682
113	0x3e67ab1b	0.22623865
114	0x3e064a80	0.13114357
115	0x3c02353c	0.007947262
116	0x3eb1395b	0.3461407
117	0x3e8b2f79	0.27184656
118	0x3e895941	0.26825908
119	0x3ec6486b	0.38727126
120	0x3e2b0cc9	0.16704096
121	0x3e95751e	0.29190916
122	0x3e16b34f	0.14716838
123	0x3e875f57	0.26439926
124	0x3e86fcbe	0.26364702
125	0x3ee4e6c5	0.44707313
126	0x3ebc926d	0.36830464
127	0x3e96cc78	0.29452872
128	0x3eb1d85b	0.3473538
129	0x3e52a405	0.20570381
130	0xbd765da6	-0.060147904
131	0x3df4f338	0.11960453
132	0x3dfae400	0.12250519
133	0xbd13b021	-0.03605664
134	0x3c8ef4bf	0.017450688
135	0xbdc11814	-0.09428421
136	0x3dac5590	0.08414757
137	0xbcf88e8a	-0.030341405
138	0xbd461c17	-0.048366632
139	0x3cc6712d	0.024223888
140	0x3e3a609d	0.18200918
141	0x3c00532a	0.007832328
142	0x3e0cc871	0.13748337
143	0x3e1a64ce	0.15077516
144	0xbe2e4826	-0.1701971
145	0x3e3cd5fe	0.18441007
146	0x3e0b7279	0.13617887
147	0x3e434069	0.1906754
148	0x3da62295	0.08112065
149	0xbe1a6042	-0.15075782
150	0xbc07095c	-0.008241978
151	0xbd2caf8d	-0.042159606
152	0x3e31d8d5	0.17367871
153	0x3be5089e	0.0069895526
154	0x3cad6a65	0.021168897
155	0xbd96cd6d	-0.073634006
156	0xbdbf855f	-0.093516104
157	0x3e491472	0.19636706
158	0xbd88b037	-0.06674235
159	0xbd888699	-0.066662975
160	0x3e1dc5ce	0.15407488
161	0x3e205bf2	0.15660074
162	0x3d4be82e	0.04978197
163	0xbd594d2d	-0.053052116
164	0x3e10fc8e	0.14158842
165	0x3d6cdbf5	0.057826955
166	0x3e2ff27e	0.17182347
167	0x3e545c4f	0.20738338
168	0x3b64af60	0.003489457
169	0x3ea50c10	0.32235765
170	0x3da18a8c	0.07887754
171	0x3c1cba98	0.009565972
172	0x3da72ee9	0.08163244
173	0xbd26c7ed	-0.040718008
174	0x3daf30bd	0.08554218
175	0x3e8d9e23	0.2765971
176	0x3e39cd20	0.18144655
177	0xbcb8e235	-0.022568801
178	0x3e8270be	0.2547664
179	0x3e1b88ba	0.15188876
180	0x3e8813df	0.2657766
181	0x3e0f34f0	0.13985038
182	0x3e644e95	0.22295602
183	0xbca9901f	-0.020698605
184	0x3e1a2fba	0.15057269
185	0x3d869872	0.065720454
186	0x3e4c47ee	0.19949314
187	0xbd30ce6c	-0.04316561
188	0x3e7f3158	0.24921167
189	0x3e224dd4	0.15850002
190	0x3e95e02d	0.29272595
191	0x3e8bb0ab	0.27283224
192	0x3dfb4ef4	0.122709185
193	0xbca22ae4	-0.019795842
194	0xbc399cde	-0.011328904
195	0x3d7b63ce	0.061374478
196	0xbc017144	-0.00790054
197	0x3e8a82c0	0.2705288
198	0x3e5ffc42	0.21873572
199	0x3e6e3ed1	0.2326615
200	0x3e0fe231	0.14051129
201	0xbbb60f2a	-0.005556007
202	0x3d3f4e54	0.04670556
203	0x3e953dc4	0.29148686
204	0x3e477806	0.19479379
205	0x3e1b1c7a	0.15147582
206	0x3da8520b	0.082187735
207	0x3c8aeb2b	0.01695784
208	0x3dabaae8	0.08382207
209	0x3c5d5062	0.013507934
210	0x3e52fa3e	0.20603272
211	0x3df0ed61	0.117640264
212	0x3e23e907	0.16006862
213	0x3e6a9a3f	0.22910403
214	0x3dffde19	0.12493534
215	0x3e392e0f	0.18083976
216	0x3d4f81b6	0.05066081
217	0x3d5eb1a9	0.05436865
218	0xbd041677	-0.032247987
219	0xbd7d646c	-0.061863348
220	0x3e828c30	0.2549758
221	0x3dcbb3ee	0.09946428
222	0xbd2578eb	-0.04039852
223	0x3d6e931a	0.058245756
224	0x3dd1b9fa	0.1024055
225	0x3d9993fc	0.07498929
226	0x3e4183fb	0.18898003
227	0x3e534c42	0.20634559
228	0xbb286fcd	-0.0025701404
229	0x3dfb8ce1	0.1228273
230	0x3eb0a559	0.3450115
231	0x3d6c711e	0.057725064
232	0x3d43525b	0.047685962
233	0x3e352185	0.17688568
234	0x3e90a98c	0.28254354
235	0x3e24e9bd	0.16104789
236	0x3e7add10	0.24498391
237	0x3da9a3b7	0.08283179
238	0x3e988530	0.29789114
239	0x3e69ec8a	0.22844139
240	0x3dc52aa2	0.09627272
241	0x3e846ca3	0.25864133
242	0x3c938a4c	0.018010281
243	0x3dcb2810	0.09919751
244	0x3e123948	0.14279664
245	0x3e6bd864	0.23031765
246	0x3ea80a93	0.32820567
247	0x3e53200c	0.20617694
248	0x3e05af09	0.13055052
249	0x3ea4088d	0.32037774
250	0x3e076667	0.13222657
251	0x3e5150ee	0.20441028
252	0x3e2c8213	0.16846494
253	0x3de65d36	0.11248247
254	0x3ec83923	0.39106092
255	0x3e0c232b	0.1368529

fc3_val.bias f4 [76]
0	0xbe67a28c	-0.226206
1	0xbeb8fa0f	-0.3612828
2	0x3ec4f35d	0.3846692
3	0x3f02d36e	0.51103866
4	0x3eee0325	0.46486774
5	0xbe827b70	-0.254848
6	0xbe5cb353	-0.21552782
7	0x3ec5f566	0.38663787
8	0xbea07b21	-0.3134394
9	0xbe6bee88	-0.23040211
10	0xbe9373c9	-0.28799275
11	0xbe9c289d	-0.30499735
12	0x3e8a30e0	0.26990414
13	0xbe873978	-0.26411033
14	0xbea6a9b2	-0.32551342
15	0x3efe924a	0.49720985
16	0x3edba787	0.4290125
17	0xbea818eb	-0.3283151
18	0xbe815d34	-0.2526642
19	0xbe96aec3	-0.29430208
20	0xbea27bb4	-0.31735003
21	0xbea7366a	-0.32658702
22	0x3ec3032b	0.38088354
23	0xbe53734a	-0.20649448
24	0xbeacc671	-0.3374515
25	0xbe92231b	-0.28542408
26	0xbe4a9222	-0.19782308
27	0x3ef32c74	0.47494853
28	0x3f0432ba	0.516399
29	0xbe95d241	-0.29261974
30	0xbeb08f1c	-0.34484184
31	0x3ec834d1	0.39102796
32	0x3f4ad9e9	0.79238755
33	0x3ed2efa7	0.41198465
34	0xbe81a642	-0.25322157
35	0xbe775155	-0.2415212
36	0x3ee750de	0.45178884
37	0xbeb8228e	-0.35963863
38	0x3ecfe40b	0.4060367
39	0xbe88a5fb	-0.26689133
40	0xbeb3e3b4	-0.3513466
41	0xbebc1d9a	-0.36741334
42	0x3fbe23b0	1.4854641
43	0x3eeaaa7f	0.45833203
44	0xbe8ed8db	-0.27899823
45	0x3ee353f3	0.44399986
46	0x3f290507	0.66023296
47	0xbec2ae9c	-0.3802384
48	0x3ec6fa78	0.38862967
49	0xbe950a84	-0.29109585
50	0x3ef070e0	0.46961117
51	0xbe618ebc	-0.22027105
52	0xbea6b043	-0.32556352
53	0xbe443672	-0.19161394
54	0x3f052572	0.5201026
55	0xbeb6fa7f	-0.35737988
56	0x3ed153a2	0.4088412
57	0x3ec53a8f	0.3852124
58	0xbe5bdc68	-0.21470797
59	0xbe608c1c	-0.21928447
60	0xbe4eb6c6	-0.2018691
61	0xbe66f73d	-0.22555251
62	0x3ebd99e5	0.37031475
63	0xbeb4b25b	-0.35292324
64	0xbe6e278d	-0.23257275
65	0xbe886d76	-0.26646012
66	0xbea36c6b	-0.31918654
67	0x3ee3a3f3	0.4446102
68	0xbe9433e2	-0.28945833
69	0xbeb1534a	-0.34633857
70	0x3ec2b46b	0.38028273
71	0xbe983f99	-0.2973602
72	0xbe8bce59	-0.27305868
73	0xbe56a5e6	-0.20961723
74	0xbe80451e	-0.25052732
75	0x3f15fa29	0.5858484

fc4_adv.weight f4 [38, 76]
0	0xbe819bbd	-0.2531413
1	0xbe0c68f6	-0.13711914
2	0x3e95dbfb	0.29269394
3	0x3ec708bd	0.38873854
4	0x3da8b2ed	0.082372524
5	0xbd2df2f6	-0.042468034
6	0x3e29334e	0.16523477
7	0x3e0c4a05	0.13700111
8	0x3e99ba3c	0.30024898
9	0x3e1179e6	0.14206657
10	0x3c0ef65f	0.008725732
11	0x3e272031	0.16320874
12	0xbdfd215b	-0.12359878
13	0xbd607869	-0.054802332
14	0x3f842c1d	1.0325962
15	0xbe388c4c	-0.18022269
16	0x3e2a6d86	0.16643342
17	0x3e2da4d4	0.16957408
18	0x3e68e600	0.22743988
19	0x3e81be64	0.2534057
20	0x3e1d0703	0.15334706
21	0xbeaa3e26	-0.3325054
22	0x3e50b10b	0.20380037
23	0x3ef9bf2c	0.48778665
24	0x3d8a48bf	0.067521565
25	0x3dc1a483	0.09455206
26	0x3c8cb865	0.01717777
27	0x3d83aadb	0.064290725
28	0xbcf3a08c	-0.02973964
29	0xbe580d44	-0.2109881
30	0x3d4595ba	0.048238494
31	0x3e78e994	0.24307853
32	0xbc6657d0	-0.014059022
33	0x3e022790	0.12710404
34	0x3b5c44b5	0.0033610289
35	0x3d2e125f	0.04249799
36	0x3e0a794c	0.13522834
37	0x3ea60dcb	0.32432398
38	0xbd8bc054	-0.06823793
39	0x3db12227	0.08649092
40	0x3cadaf7d	0.021201843
41	0x3d9ff05e	0.07809518
42	0x3df19624	0.11796215
43	0x3d81752f	0.06321179
44	0xbdbad504	-0.09122661
45	0x3e42cfe0	0.1902461
46	0xbd324c85	-0.043530006
47	0x3ef98def	0.487411
48	0xbe6230de	-0.22088954
49	0x3e5f255b	0.21791594
50	0x3f1cebf7	0.61297554
51	0x3e5c6af9	0.21525182
52	0x3b49783a	0.0030741827
53	0xbe8ff59a	-0.28117067
54	0x3e3255db	0.17415564
55	0xbdc2bdab	-0.095088325
56	0x3cbf496b	0.023350438
57	0xbde05ea2	-0.1095555
58	0xbda36f85	-0.07980255
59	0x3e4c4729	0.1994902
60	0x3e59ce5e	0.21270129
61	0x3e9aa6ee	0.30205482
62	0x3e16175c	0.14657348
63	0x3e7df0de	0.24798915
64	0x3e3bfb0b	0.18357484
65	0x3e966a69	0.2937806
66	0xbdffe3a0	-0.12494588
67	0x3df0612d	0.11737285
68	0xbe507560	-0.20357275
69	0xbd8b490f	-0.06801044
70	0xbd62ddc9	-0.055387292
71	0xbe01ff3b	-0.12695019
72	0x3ea25485	0.31705108
73	0x3de0d3d3	0.10977902
74	0x3dc9a1b5	0.09845296
75	0xbe3351b7	-0.1751164
76	0xbd569fce	-0.052398495
77	0xbd983089	-0.07431132
78	0x3de3fabc	0.11131808
79	0x3ecfed27	0.4061062
80	0x3e558ed4	0.20855266
81	0x3d8886d1	0.06666339
82	0x3e8bede9	0.2732995
83	0x3e9e34cc	0.30899656
84	0x3ea4d99d	0.32197276
85	0x3e87fcf1	0.26560166
86	0x3e752fba	0.23943987
87	0xbe96dd5f	-0.29465768
88	0xbdfe9988	-0.124316275
89	0xbdab9864	-0.083786756
90	0x3fad6aa9	1.3548175
91	0xbce5a367	-0.028032018
92	0x3db5c961	0.088763006
93	0x3e19a703	0.15005116
94	0xbcc4b9b3	-0.02401433
95	0xbe10f390	-0.14155412
96	0x3e748be9	0.23881496
97	0x3dad4cd6	0.08461921
98	0x3d516c53	0.051128697
99	0x3e8b4326	0.27199668
100	0x3e17658c	0.14784831
101	0x3d29deb1	0.04147214
102	0xbd17a626	-0.037023686
103	0x3e237c66	0.15965423
104	0x3dcfbc3c	0.10143325
105	0x3e7620b2	0.2403591
106	0x3cad12b8	0.02112709
107	0x3ed32048	0.41235566
108	0x3cb2260d	0.02174666
109	0xbdffaafe	-0.12483786
110	0x3d8137f8	0.06309503
111	0x3e2ffae5	0.17185552
112	0xbe1837ad	-0.14864989
113	0xbbb4184d	-0.005496061
114	0xbc30d241	-0.010792316
115	0x3e717418	0.23579443
116	0x3df39bd2	0.11894955
117	0x3e2b6f02	0.16741565
118	0xbda88fa9	-0.08230526
119	0xbd85a1eb	-0.06525024
120	0x3c6dadde	0.014506785
121	0x3d43b762	0.04778231
122	0x3e6ce22d	0.23133154
123	0x3e093f01	0.1340294
124	0x3d21ca45	0.03949954
125	0xbd709756	-0.058738075
126	0x3edbae83	0.4290658
127	0x3e812a61	0.25227645
128	0x3e431ca2	0.19053891
129	0xbe6a259a	-0.22865906
130	0x3eb8efa1	0.36120322
131	0x3e339664	0.17537838
132	0xbe34db6f	-0.17661832
133	0xbe46492e	-0.19363853
134	0x3dfa2a37	0.12215083
135	0x3d77367b	0.06035469
136	0x3e28c2ab	0.1648051
137	0x3d81fcc6	0.06347041
138	0xbe04268c	-0.1290533
139	0x3deac63f	0.11463594
140	0x3bb88b43	0.0056318357
141	0xbd086482	-0.033298977
142	0x3eb35266	0.35023803
143	0xbdac8d3b	-0.08425375
144	0x3d882e2d	0.06649432
145	0xbde833cd	-0.11338005
146	0x3e79bfbd	0.24389549
147	0x3d0814be	0.033222906
148	0x3cf496ef	0.029857127
149	0xbdf3c27b	-0.119023286
150	0xbdf3d1c0	-0.11905241
151	0x3cf3bc2f	0.029752819
152	0xbd4c92f9	-0.04994485
153	0xbdbd7477	-0.092507295
154	0x3eaa4847	0.33258268
155	0x3e985170	0.29749632
156	0x3e8b499a	0.2720459
157	0x3df4e2d5	0.11957327
158	0x3bf37b13	0.007430443
159	0x3dbca9e5	0.09212092
160	0x3de69f8d	0.11260901
161	0xbdd61f96	-0.10455243
162	0x3e9be4f0	0.30448103
163	0xbcb22c88	-0.02174975
164	0x3cebc2c7	0.0287794
165	0x3e5f583e	0.21811005
166	0x3f7871a1	0.97048384
167	0xbec3bcf4	-0.38230097
168	0x3e0f7a0b	0.140114
169	0xbd8e4677	-0.06947034
170	0xbe10c2b9	-0.14136781
171	0x3c833900	0.01601839
172	0x3e831432	0.25601345
173	0xbe1d444d	-0.15358086
174	0x3e7f634f	0.24940227
175	0x3ecfd955	0.405955
176	0x3efe2810	0.4963994
177	0x3e2e9dd4	0.17052394
178	0x3d2f9a1d	0.042871583
179	0x3dcd2db2	0.10018481
180	0xbdfc2b0e	-0.123128995
181	0x3e8e9306	0.27846545
182	0x3c9d07df	0.019168792
183	0x3e9ef548	0.3104651
184	0x3d9915ae	0.07474838
185	0x3e999360	0.2999525
186	0x3d613096	0.054977976
187	0xbe0c4dde	-0.13701579
188	0x3e1d8a6f	0.1538484
189	0xbcad67ed	-0.02116772
190	0x3e9c8319	0.3056877
191	0xbdbd0298	-0.0922901
192	0x3dbcfca9	0.092278786
193	0x3de925a6	0.11384134
194	0x3e7acfb7	0.244933
195	0xbd43993e	-0.047753565
196	0x3e25d2ce	0.16193697
197	0xbc8d4361	-0.017244043
198	0xbd91f442	-0.071266666
199	0x3ebac72a	0.36480075
200	0xbd959da8	-0.07305461
201	0xbe274d89	-0.16338171
202	0x3f9f96e4	1.2467923
203	0x3ebf4dff	0.37364194
204	0x3e1f7631	0.1557243
205	0xbd9336d2	-0.071881905
206	0x3e01365d	0.12618394
207	0x3e9e7911	0.3095174
208	0x3e63607b	0.22204773
209	0x3d92a1e2	0.07159783
210	0x3f2b745b	0.6697442
211	0x3ed29ef2	0.4113689
212	0x3d8c92f9	0.0686397
213	0xbd167605	-0.036733646
214	0xbe432601	-0.19057466
215	0x3ec23450	0.37930536
216	0x3e5970c0	0.21234417
217	0x3e911ce3	0.2834235
218	0xbdfb2132	-0.12262191
219	0xbe1f9b1e	-0.15586516
220	0xbe180f44	-0.14849573
221	0x3cdce16e	0.026962962
222	0x3e45f57d	0.19331928
223	0xbe7c7cbb	-0.24656956
224	0x3e7e5066	0.24835357
225	0xbe92e09a	-0.28686982
226	0xbd383d4b	-0.04498033
227	0xbea60611	-0.32426503
228	0xbd2debb9	-0.04246113
229	0xbdaf9448	-0.08573204
230	0x3e7c8a28	0.24662077
231	0x3dd9dd1f	0.106378786
232	0x3e70bb81	0.23509027
233	0x3e65a203	0.22425084
234	0x3e726210	0.2367022
235	0x3e7e23aa	0.24818292
236	0xbdfe621f	-0.12421059
237	0x3d2ba81f	0.04190838
238	0x3e1f6014	0.15563995
239	0x3e2a19b1	0.16611363
240	0xbd337623	-0.043813836
241	0x3c6776d6	0.014127454
242	0x3f98e5b4	1.19451
243	0xbea7c7a0	-0.3276949
244	0x3eb851b9	0.3599985
245	0xbdf3d08e	-0.11905013
246	0xbe3f002e	-0.18652412
247	0x3dbe62b9	0.092961736
248	0x3dcd1aa4	0.10014847
249	0x3d96d9af	0.073657386
250	0x3ed5fc80	0.41794205
251	0x3ebc7b2d	0.36812726
252	0x3ec03937	0.3754365
253	0x3d8122ae	0.06305443
254	0x3eb78329	0.35842255
255	0x3e41b5f0	0.1891706

fc4_adv.bias f4 [38]
0	0x3e01052d	0.1259963
1	0xbc973fe0	-0.018463075
2	0x3e17ea57	0.14835487
3	0xbd7d5893	-0.06185205
4	0xbd40817c	-0.046998486
5	0xbce21784	-0.027599104
6	0x3e29d38c	0.16584605
7	0xbdf81d4c	-0.12114963
8	0xbe083746	-0.13302335
9	0xbe2ce23a	-0.16883174
10	0xbdd62bca	-0.10457571
11	0x3e2d5aa7	0.16929112
12	0x3cc6a31f	0.024247704
13	0x3ccc0582	0.02490497
14	0x3e0941da	0.13404027
15	0x3dc1286b	0.09431537
16	0x3e139844	0.14413553
17	0xbe2dd62c	-0.16976231
18	0x3e49d473	0.19709949
19	0x3d36617e	0.04452657
20	0x3e06fe22	0.13182881
21	0x3e609454	0.21931583
22	0x3e3e2da8	0.18572104
23	0x3e60c788	0.21951115
24	0x3e483082	0.19549754
25	0x3b12c7f1	0.0022397006
26	0xbe0630e5	-0.1310459
27	0xbd9a6086	-0.07537942
28	0xbcc99dbf	-0.024611352
29	0x3cc224ff	0.023699282
30	0x3b500201	0.0031739476
31	0xbbcd35cb	-0.006262516
32	0x3db8bcaf	0.090203635
33	0x3e40bc6d	0.18821879
34	0xbde71cfb	-0.112848245
35	0x3e554af0	0.20829368
36	0xbe045dcf	-0.1292641
37	0x3e734278	0.23755825

fc4_val.weight f4 [1, 76]
0	0x3e4b06ac	0.19826764
1	0x3ea61f6d	0.3244585
2	0xbe913cb3	-0.28366622
3	0xbeeb2558	-0.4592693
4	0xbe868c7a	-0.2627905
5	0x3e73d683	0.23812298
6	0x3ee4bad6	0.44673795
7	0xbec8c378	-0.3921163
8	0x3eb75cdc	0.35813034
9	0x3ea9295e	0.33039373
10	0x3ed05216	0.40687627
11	0x3e8bbc4b	0.27292094
12	0xbedf297a	-0.43586332
13	0x3e481e27	0.19542752
14	0x3e987709	0.29778317
15	0xbe937c61	-0.2880583
16	0xbeaa8704	-0.33306134
17	0x3eab6914	0.33478606
18	0x3e8b578c	0.2721523
19	0x3e9fd76f	0.3121905
20	0x3ea4e255	0.32203928
21	0x3eaea8d4	0.3411318
22	0xbf3f3231	-0.7468596
23	0x3e7b0ee0	0.24517393
24	0x3e7c0c29	0.24614014
25	0x3e4e259d	0.20131536
26	0x3ec0462a	0.3755353
27	0xbf026fc9	-0.5095182
28	0xbf056dc7	-0.5212063
29	0x3e3303d6	0.17481932
30	0x3e77635e	0.24159
31	0xbf12411b	-0.57130593
32	0xc00611aa	-2.0948281
33	0xbed9f008	-0.42565942
34	0x3e666cb1	0.225024
35	0x3ea07ccb	0.3134521
36	0xbedf0ca7	-0.4356434
37	0x3eb1e8c7	0.34747908
38	0xbec9cb27	-0.39412805
39	0x3e92ac9d	0.28647318
40	0x3e943f5f	0.28954598
41	0x3ec39734	0.38201296
42	0xc020c3ae	-2.5119433
43	0xbee3aa0b	-0.4446567
44	0x3ee4c34f	0.4468026
45	0xbf8574b0	-1.0426235
46	0xc023d0ab	-2.559611
47	0x3ed7bcdd	0.4213628
48	0xbfb7bf23	-1.4355205
49	0x3e3a1103	0.18170552
50	0xbeeecc3e	-0.466402
51	0x3ea4826b	0.3213075
52	0x3e74f103	0.23920064
53	0x3e3334d4	0.17500621
54	0xbe9d698a	-0.30744582
55	0x3ed13f0c	0.40868413
56	0xbea29e31	-0.31761315
57	0xbf6367d2	-0.8883029
58	0x3edbe8b6	0.42950982
59	0x3e593d39	0.21214761
60	0x3e92153a	0.2853182
61	0x3e230117	0.15918384
62	0xbec43751	-0.38323453
63	0x3e9657de	0.29363912
64	0x3e3f3aff	0.18674849
65	0x3e84651a	0.25858384
66	0x3ece707b	0.4032019
67	0xbebbd8fb	-0.3668898
68	0x3e5f4d57	0.21806847
69	0x3e50fe21	0.20409442
70	0xbee0a8a7	-0.43878672
71	0x3e71e0a4	0.2362085
72	0x3ea7c86e	0.32770103
73	0x3e5af81e	0.21383712
74	0x3e33f040	0.17572117
75	0xbfb03391	-1.3765737

exp_avg f4 [1, 6, 1, 4]
0	0x3fc434e8	1.5328646
1	0x3edc6f18	0.43053508
2	0xbd3c5d07	-0.045987155
3	0xbd390580	-0.04517126
4	0x3ea41171	0.32044557
5	0xc01edf21	-2.4823687
6	0xc009f94c	-2.1558409
7	0xbfb9e49d	-1.4522892
8	0x3d86896c	0.0656918
9	0x3d86896c	0.0656918
10	0x3d86896c	0.0656918
11	0x00000000	0.0
12	0xb8977a92	-7.2230716e-05
13	0xbe67851e	-0.22609374
14	0xbe67851e	-0.22609374
15	0x00000004	6e-45
16	0xbe20e225	-0.15711267
17	0xbe9f679f	-0.31133744
18	0xbe9f679f	-0.31133744
19	0x00000000	0.0
20	0x3dde4ef3	0.10854902
21	0x3d95dce6	0.07317524
22	0x3d95dce6	0.07317524
23	0x00000004	6e-45

exp_avg_sq f4 [1, 6, 1, 4]
0	0x43875ad6	270.70966
1	0x4199fcd3	19.24845
2	0x401e94f7	2.477842
3	0x3d7648f7	0.06012818
4	0x453abfc6	2987.9858
5	0x44bf9031	1532.506
6	0x43c22c40	388.3457
7	0x423ec895	47.69588
8	0x408c4a4c	4.3840694
9	0x408c4a4c	4.3840694
10	0x408c4a4c	4.3840694
11	0x00000000	0.0
12	0x40a1b5dc	5.0534496
13	0x405fb991	3.495701
14	0x405fb991	3.495701
15	0x000001f4	7e-43
16	0x404463cb	3.0685909
17	0x4029d55f	2.6536481
18	0x4029d55f	2.6536481
19	0x00000000	0.0
20	0x4010f868	2.2651615
21	0x40012eef	2.0184896
22	0x40012eef	2.0184896
23	0x000001f4	7e-43

exp_avg f4 [1, 6, 2, 4]
0	0xbfac8103	-1.3476871
1	0xbf08830d	-0.5332497
2	0xbc725f01	-0.0147931585
3	0x3bc19642	0.0059078047
4	0xbf872c9d	-1.056049
5	0x3e71f042	0.23626807
6	0x3eb3e386	0.35134524
7	0x3cab374b	0.02090039
8	0x3fb113ae	1.3834131
9	0x4026b99f	2.6050794
10	0x401e8b10	2.4772377
11	0x3fc459ae	1.5339868
12	0x3f5eb560	0.86995506
13	0x403b2f8f	2.9247777
14	0x40019ce7	2.0252016
15	0x3f3c1af0	0.73478603
16	0x3f531ade	0.8246287
17	0x3f531ade	0.8246287
18	0x3f531ade	0.8246287
19	0x3c58de5a	0.0132366065
20	0x3f1df0d0	0.61695576
21	0x3f1df0d0	0.61695576
22	0x3f1df0d0	0.61695576
23	0x3dbbacce	0.09163819
24	0xbec7cee6	-0.39025038
25	0xbe8bb901	-0.27289584
26	0xbe8bb901	-0.27289584
27	0xbd58c60f	-0.05292326
28	0x3e782be6	0.24235496
29	0x3ea23b60	0.31685925
30	0x3ea23b60	0.31685925
31	0xbd9ebfff	-0.07751464
32	0x3e19fcdc	0.15037864
33	0x3e7e9007	0.2485963
34	0x3e7e9007	0.2485963
35	0x3c46b7b8	0.012128763
36	0xbe3e3329	-0.18574204
37	0xbd21519e	-0.039384477
38	0xbd21519e	-0.039384477
39	0x3c42c448	0.011887617
40	0xbe6fb0f9	-0.23407353
41	0xbe679814	-0.22616607
42	0xbe679814	-0.22616607
43	0x3d142b6e	0.03617423
44	0xbd5bf973	-0.05370469
45	0xbcd95b11	-0.026532682
46	0xbcd95b11	-0.026532682
47	0xbcca04da	-0.024660517

exp_avg_sq f4 [1, 6, 2, 4]
0	0x42e59667	114.793755
1	0x40e8e810	7.278328
2	0x3f6df2be	0.9294852
3	0x3c3dfcff	0.0115959635
4	0x43014f2c	129.30927
5	0x413676dd	11.404019
6	0x3fbc16d1	1.4694463
7	0x3cc4b8d8	0.024013922
8	0x44a50781	1320.2345
9	0x44269848	666.3794
10	0x4350ead8	208.91736
11	0x41c3e49f	24.486631
12	0x448b2253	1113.0726
13	0x439a65f7	308.7966
14	0x42697ccd	58.371876
15	0x40f07f47	7.515537
16	0x411bee67	9.745704
17	0x411bee67	9.745704
18	0x411bee67	9.745704
19	0x3e8449b8	0.25837493
20	0x4123e93b	10.244441
21	0x4123e93b	10.244441
22	0x4123e93b	10.244441
23	0x3eac9611	0.33708242
24	0x3fd61c44	1.6727376
25	0x3f8839a2	1.0642588
26	0x3f8839a2	1.0642588
27	0x3d335b73	0.043788385
28	0x40426044	3.0371256
29	0x401667ba	2.350081
30	0x401667ba	2.350081
31	0x3d86ff26	0.065916345
32	0x401c9345	2.4464886
33	0x4015afcd	2.338855
34	0x4015afcd	2.338855
35	0x3e2010f4	0.15631467
36	0x402264fa	2.5374131
37	0x40168b8b	2.352267
38	0x40168b8b	2.352267
39	0x3d910878	0.070816934
40	0x3ffa3e37	1.9550236
41	0x3ff04384	1.8770604
42	0x3ff04384	1.8770604
43	0x3d9016cf	0.070356004
44	0x4014cf6e	2.3251605
45	0x400e04a8	2.2190342
46	0x400e04a8	2.2190342
47	0x3da82607	0.08210378

exp_avg f4 [1, 6, 3, 4]
0	0xc04432b4	-3.0655947
1	0xbf6f4a7e	-0.9347304
2	0x3e3c956e	0.18416378
3	0x3cd0a619	0.025469827
4	0xc008566b	-2.1302745
5	0xbf901f14	-1.1259484
6	0xbe1b7149	-0.15179934
7	0x3c955402	0.018228535
8	0xc029d957	-2.6538904
9	0xbfa8f3e1	-1.3199426
10	0xbe3e03ca	-0.18556133
11	0x3d1266a1	0.035742406
12	0xc02176b2	-2.5228696
13	0xbf9147ee	-1.1350076
14	0x3f0a5033	0.54028624
15	0x3f481907	0.7816319
16	0xc03e49ee	-2.9732623
17	0xbfd50472	-1.6641982
18	0xbe034273	-0.12818317
19	0x3f97892d	1.1838738
20	0xc014c357	-2.3244226
21	0xbf67ab98	-0.90496206
22	0xbf8e5ea7	-1.1122636
23	0x3f39e5f7	0.72616524
24	0x3e94f6c5	0.2909452
25	0x3e94f6c0	0.29094505
26	0x3e94f6c0	0.29094505
27	0xbe452b5d	-0.19254823
28	0x3ea8a7ac	0.32940423
29	0x3ea8a7ae	0.3294043
30	0x3ea8a7b1	0.32940438
31	0xbe23351b	-0.15938227
32	0x3e9fcea9	0.31212357
33	0x3e9fceac	0.31212366
34	0x3e9fcead	0.3121237
35	0xbe4de8f8	-0.20108402
36	0xbec7a9b2	-0.38996655
37	0xbb517585	-0.0031960916
38	0xbb51768b	-0.0031961526
39	0xbde3496e	-0.1109799
40	0xbebaa6d3	-0.36455402
41	0xbcf3f499	-0.02977972
42	0xbcf3f498	-0.029779717
43	0xbdcc5a37	-0.099781446
44	0xbe25ac31	-0.16178967
45	0x3e278ac0	0.16361523
46	0x3e278ac0	0.16361523
47	0xbd97dbd8	-0.07414979
48	0xbeac6c73	-0.3367649
49	0xbdd9ee27	-0.10641127
50	0xbdd9ee25	-0.106411256
51	0x3cb194d0	0.021677405
52	0xbe7d168b	-0.2471563
53	0x3d0af841	0.03392816
54	0x3d0af83b	0.033928137
55	0x3cc91295	0.024544993
56	0xbebbfed7	-0.36717865
57	0xbdd4bbf4	-0.10387412
58	0xbdd4bbf2	-0.1038741
59	0x3c587242	0.013210835
60	0xbee63c50	-0.4496789
61	0xbedee9b5	-0.4353768
62	0xbedee9b5	-0.4353768
63	0xbd3b9783	-0.04579879
64	0xbda75317	-0.08170145
65	0xbd6bbe08	-0.057554275
66	0xbd6bbe13	-0.057554316
67	0xbd8d91b8	-0.06912559
68	0x3cfa81b4	0.030579425
69	0x3d65a79f	0.05606806
70	0x3d65a78f	0.056068
71	0xbd5c43c9	-0.053775582

exp_avg_sq f4 [1, 6, 3, 4]
0	0x432a1008	170.06262
1	0x418957bf	17.167845
2	0x400e49cd	2.2232544
3	0x3d2cd53f	0.042195555
4	0x431c7c35	156.48518
5	0x418a878c	17.316185
6	0x400dd293	2.2159774
7	0x3d122a54	0.0356849
8	0x431ab7e3	154.7183
9	0x41900f70	18.007538
10	0x40119fb6	2.275373
11	0x3d25d715	0.04048832
12	0x4512d78d	2349.472
13	0x445c4228	881.0337
14	0x433bf409	187.95326
15	0x41b4c86b	22.59786
16	0x45155d42	2389.8286
17	0x446f3d93	956.9621
18	0x4359900a	217.56265
19	0x41da65f0	27.299774
20	0x451f1176	2545.0913
21	0x44994b9d	1226.3629
22	0x43916ebb	290.86508
23	0x4209a8e7	34.414944
24	0x4160619f	14.023833
25	0x4160619e	14.023832
26	0x416061a0	14.023834
27	0x3eed802a	0.46386844
28	0x413d1514	11.817646
29	0x413d1513	11.817645
30	0x413d1513	11.817645
31	0x3ec146bc	0.3774928
32	0x414984fc	12.594967
33	0x414984fd	12.594968
34	0x414984fd	12.594968
35	0x3f0e2c0d	0.55535966
36	0x40919803	4.549806
37	0x40563d65	3.3474972
38	0x40563d66	3.3474975
39	0x3dbdbd4a	0.0926462
40	0x40929592	4.580758
41	0x405d8a69	3.461573
42	0x405d8a69	3.461573
43	0x3d74a136	0.059724055
44	0x40819430	4.0493393
45	0x4054d184	3.3252878
46	0x4054d183	3.3252876
47	0x3db7877e	0.0896139
48	0x40776251	3.8653758
49	0x405c1908	3.4390278
50	0x405c1907	3.4390275
51	0x3d62f18f	0.05540615
52	0x40981cc8	4.7535133
53	0x4089f134	4.3106937
54	0x4089f133	4.3106933
55	0x3db33960	0.08751178
56	0x40417410	3.022709
57	0x40311d28	2.7674046
58	0x40311d26	2.767404
59	0x3dd8fecf	0.10595476
60	0x40837654	4.1081944
61	0x4076296a	3.8462777
62	0x40762968	3.8462772
63	0x3df77df1	0.12084568
64	0x403d5a5c	2.95864
65	0x402fbd7a	2.7459397
66	0x402fbd7a	2.7459397
67	0x3ed9f4d8	0.42569613
68	0x405b3241	3.4249423
69	0x404ed95a	3.232016
70	0x404ed95a	3.232016
71	0x3e356529	0.17714371

exp_avg f4 [1, 6, 4, 4]
0	0xc01ad923	-2.419503
1	0xbf35043c	-0.70709586
2	0xbd955b40	-0.07292795
3	0x3d1e376f	0.038627084
4	0xc0048654	-2.0706987
5	0xbf6da438	-0.928287
6	0xbd386487	-0.045017745
7	0x3d8e81f6	0.06958382
8	0xc00663fe	-2.099853
9	0xbf86b480	-1.0523834
10	0xbe760175	-0.24023993
11	0x3d28f758	0.04125151
12	0xc0275913	-2.6148117
13	0xbf61d7c8	-0.8821988
14	0xbe30d00e	-0.17266867
15	0x3d11a05b	0.035553318
16	0xbf44e2db	-0.76908654
17	0x3e1514c9	0.1455871
18	0x3f96dba4	1.1785779
19	0x402d5cd3	2.7087905
20	0xbf998def	-1.199644
21	0x3f8c7c89	1.0975505
22	0x3f23a75a	0.63927233
23	0x3fdb46d7	1.7130994
24	0xc0112754	-2.2680254
25	0xbf8c64af	-1.0968226
26	0xbf802ced	-1.001371
27	0x3f8f1220	1.1177406
28	0xbfe2a133	-1.7705444
29	0x3e9948b0	0.2993827
30	0x3f43d53e	0.76497257
31	0x3ff6aff0	1.9272442
32	0x3f86e303	1.0538028
33	0x3f86e305	1.0538031
34	0x3f86e304	1.053803
35	0xbe0dd29d	-0.13849874
36	0x3f4ebcb0	0.80756664
37	0x3f4ebcb0	0.80756664
38	0x3f4ebcb0	0.80756664
39	0xbe83da0c	-0.25752294
40	0x3f83b6cf	1.0290164
41	0x3f83b6d0	1.0290165
42	0x3f83b6d2	1.0290167
43	0xbe696157	-0.22791038
44	0x3d424163	0.04742564
45	0x3d424161	0.04742563
46	0x3d424144	0.047425523
47	0xbd9865bd	-0.0744128
48	0xbed6261e	-0.41825956
49	0xbe07f336	-0.13276371
50	0xbe07f338	-0.13276374
51	0xbe239f18	-0.15978658
52	0xbf5cb2fb	-0.862106
53	0xbf27b281	-0.6550675
54	0xbf27b282	-0.65506756
55	0xbe225fd8	-0.15856874
56	0xbf1c178d	-0.60973436
57	0xbec8a34a	-0.3918708
58	0xbec8a34a	-0.3918708
59	0xbe0807bf	-0.13284205
60	0xbf126142	-0.57179654
61	0xbe9d9f5a	-0.30785638
62	0xbe9d9f5a	-0.30785638
63	0xbe054be5	-0.13017233
64	0xbf16ba00	-0.58877563
65	0xbec36afe	-0.38167566
66	0xbec36aff	-0.3816757
67	0x3d1cd1d9	0.038286064
68	0xbf46610f	-0.7749185
69	0xbf1110e1	-0.5666638
70	0xbf1110e3	-0.5666639
71	0x3cf09f67	0.029372884
72	0xbf00b013	-0.5026867
73	0xbe80f1e4	-0.25184548
74	0xbe80f1e4	-0.25184548
75	0x3cd9d2c8	0.026589766
76	0x3e9a470b	0.30132326
77	0x3f067abb	0.5253102
78	0x3f067abb	0.5253102
79	0x3d486b11	0.04893023
80	0xbec2b2d1	-0.3802705
81	0xbeb7b72a	-0.3588193
82	0xbeb7b729	-0.35881928
83	0xbd05e026	-0.032684468
84	0xbdc1d771	-0.0946492
85	0xbd7e9601	-0.062154774
86	0xbd7e9600	-0.06215477
87	0xbe0bb046	-0.13641462
88	0x3f0f81f9	0.560577
89	0x3f1fa700	0.62364197
90	0x3f1fa700	0.62364197
91	0x3f158660	0.58408165
92	0x3e88bb2e	0.26705307
93	0x3eb285af	0.34867617
94	0x3eb285b1	0.34867623
95	0x3edff5bf	0.43742177

exp_avg_sq f4 [1, 6, 4, 4]
0	0x43b68f6b	365.12045
1	0x4208eec6	34.233177
2	0x408feb82	4.4974985
3	0x3ddf6a4b	0.10908946
4	0x43ba5d5d	372.7294
5	0x42096450	34.34796
6	0x408ea818	4.4580193
7	0x3db45e80	0.08807087
8	0x43a97456	338.90887
9	0x42092e0c	34.294968
10	0x408027eb	4.004873
11	0x3d782238	0.06057951
12	0x43a7f4e6	335.91327
13	0x4202d411	32.707096
14	0x40758533	3.8362548
15	0x3d516ab0	0.051127136
16	0x45b06e1b	5645.763
17	0x450cf2d9	2255.178
18	0x44002937	512.644
19	0x427bd9d8	62.962738
20	0x45b01bf6	5635.495
21	0x4505e24b	2142.1433
22	0x43f70f47	494.11935
23	0x42699be0	58.40222
24	0x45aef9c1	5599.219
25	0x450670be	2151.0464
26	0x43e9ce62	467.61237
27	0x42527837	52.617397
28	0x45ae8957	5585.1675
29	0x4508ebf0	2190.746
30	0x43f14f55	482.61978
31	0x426344db	56.81724
32	0x41f9da61	31.23163
33	0x41f9da62	31.231632
34	0x41f9da62	31.231632
35	0x3f0372d8	0.5134711
36	0x420af396	34.737877
37	0x420af399	34.73789
38	0x420af398	34.737885
39	0x3f356338	0.7085452
40	0x4214b00d	37.171925
41	0x4214b00d	37.171925
42	0x4214b00d	37.171925
43	0x3f22b97a	0.63564265
44	0x41f222bc	30.26696
45	0x41f222bc	30.26696
46	0x41f222bb	30.266958
47	0x3f767064	0.96265244
48	0x4105ad02	8.354738
49	0x40b51133	5.6583495
50	0x40b51132	5.658349
51	0x3e1b6cc6	0.15178213
52	0x4111c599	9.110742
53	0x40c7da6b	6.2454123
54	0x40c7da6b	6.2454123
55	0x3e1f67cd	0.1556694
56	0x4126912f	10.410445
57	0x40ee5097	7.4473376
58	0x40ee5098	7.447338
59	0x3e84ffa3	0.25976285
60	0x411ed88e	9.92787
61	0x40f83559	7.756512
62	0x40f8355a	7.7565126
63	0x3e801855	0.25018564
64	0x41148205	9.281743
65	0x41091f69	8.5701685
66	0x41091f69	8.5701685
67	0x3e96e11e	0.29468626
68	0x41007726	8.029089
69	0x40ee2577	7.4420733
70	0x40ee2576	7.442073
71	0x3dd3f76e	0.10349928
72	0x40d69afb	6.7064185
73	0x40c77539	6.2330594
74	0x40c7753b	6.2330604
75	0x3dc93184	0.098238975
76	0x41084c46	8.518621
77	0x410087cc	8.033154
78	0x410087cd	8.0331545
79	0x3e7f3938	0.24924171
80	0x41043aba	8.264338
81	0x40fb2db1	7.8493276
82	0x40fb2db1	7.8493276
83	0x3fa631ca	1.2983944
84	0x411b79a8	9.717201
85	0x41155a3d	9.334531
86	0x41155a3d	9.334531
87	0x3f2bdbe8	0.67132425
88	0x41228e08	10.159676
89	0x411dc426	9.860388
90	0x411dc426	9.860388
91	0x3f5ffb1f	0.87492555
92	0x410e8293	8.906878
93	0x410a788c	8.65443
94	0x410a788b	8.654429
95	0x3f30d4d2	0.6907474
