TrainedModel/Dueling DQN-1/25500_0-095_DuelingDQN.pth (torch, 291221 bytes, 33 tensors)

conv1.weight f4 [1, 6, 1, 4]
00000000: 4d03 b13f 3d80 e33e 3afd b73e 7aa0 fb3e
00000010: 7e4e 513e f147 403e e14c 933e 97e9 863e
00000020: d6a2 ef3d 3d08 523d 8a80 9cbe 6ad0 c1be
00000030: 92cb 05bd 1034 a63e 4f61 f6be 84ed 16be
00000040: c0e8 c9bd a353 abbd eaf5 16be af70 e6be
00000050: 29dc b13c c642 7f3d 1b08 a9be 30db ecbe
1.3829132 0.44433776 0.35935384 0.4914587 0.20440099 0.18777443 0.2876959 0.2635009
0.1170098 0.051277388 -0.30566818 -0.3785432 -0.032664843 0.32461596 -0.48121116 -0.14739043
-0.09858847 -0.08365562 -0.14742246 -0.45007846 0.021711426 0.06231954 -0.33013996 -0.46260977

conv2.weight f4 [1, 6, 2, 4]
00000000: 640e a6bd c1b9 913d 12ac 183e 60fd d53e
00000010: 2b78 4abe e0e7 2e3f 5dc2 193f eab2 11bf
00000020: adfc 453e 5020 013f 144b af3e a8dd 51be
00000030: ae98 b9bc d34b 0abf 743b 00bf 1fed f1bd
00000040: 9fdd 283f 9323 cc3e 6f64 c53e 4a98 cebe
00000050: 9a60 323e 977b 3ebe 1108 c53e ef64 89bf
00000060: 7402 a4bd 0012 79be d1c9 3f3e e0b7 233e
00000070: b38e 273d d24d 5dbe f223 b83e d146 c6bd
00000080: fea5 21bd ad60 81be d0de a13e 2bce 763e
00000090: 05a7 84bd df4f 503e e2cf 66bd e90b aabe
000000a0: a06a 7d3e a3c6 153e f42f 0bbe 4c84 b33e
000000b0: d58c 1dbd 721d 023d 2116 3e3c 5909 36bd
-0.081082135 0.07115508 0.1490939 0.41794872 -0.19772403 0.68322563 0.600622 -0.56913626
0.1933467 0.5043993 0.34236968 -0.20494711 -0.022655811 -0.5402195 -0.5009072 -0.118128054
0.65963167 0.3987089 0.38553187 -0.40350562 0.17419663 -0.18601833 0.38482717 -1.0733927
-0.080082804 -0.24323273 0.1872933 0.15988111 0.040907573 -0.21611717 0.35964924 -0.09681476
-0.039464943 -0.2526907 0.31615305 0.24102084 -0.06477169 0.20342968 -0.056350596 -0.33212212
0.24747705 0.14626555 -0.13592511 0.35061872 -0.038464386 0.031766362 0.011601956 -0.04444251

conv3.weight f4 [1, 6, 3, 4]
00000000: 0eec af3e a27b 8e3e 6c2a aebd dccc ad3d
00000010: 5500 da3e 92f7 533f 8e61 01be 0b74 113f
00000020: 96b4 df3d 339f 1a3f 0dbd 0e3e b3c0 e83e
00000030: 4268 16be 103d 67be d20c edbd 9385 8ebd
00000040: d1f9 cabc 6f94 8dbd 057f 74bd 880b dabc
00000050: a690 d53d f13e 5f3e 6b4c 463c 8f92 15bd
00000060: e428 8c3d e3c7 87bd 6836 85bd 721c 5b3e
00000070: 268d 5fbe 9de4 8c3d 6e61 14bd 5567 183e
00000080: 35de 203e c29a 65be 3d09 033e dc2b de3e
00000090: 9620 0bbe 6e41 d53d 0527 2d3e b186 1f3d
000000a0: 3886 1b3e 6a71 223e cbe8 17be 2592 a5bd
000000b0: 5946 f73c b79d 14be aa03 e93d c3de 143e
000000c0: 974c 263c 8406 623d d418 a93d 51a1 75be
000000d0: ea23 c43d 9442 b0be 8c27 163e 0567 b23d
000000e0: 0583 0bbd f7d0 5f3e 0d53 14be 2490 0a3d
000000f0: 5a21 4fbd f132 d33b 94c3 093d 316e a33d
00000100: 2c43 01be 867a 103d f213 b13d 1f9a abbe
00000110: 27d3 3a3e 11d3 78bd 3e29 413e 7b1c d73e
0.34359783 0.278287 -0.08504185 0.084863394 0.42578378 0.8279964 -0.1263487 0.5681769
0.10923116 0.6039917 0.13939305 0.45459518 -0.14688209 -0.22581887 -0.11574711 -0.06959071
-0.024777325 -0.06913077 -0.059691448 -0.026616827 0.1042798 0.21801354 0.01210318 -0.036516722
0.06843737 -0.06629922 -0.06504518 0.2139757 -0.21831188 0.06879542 -0.03622573 0.14883168
0.15709765 -0.22422317 0.12796493 0.43392837 -0.1358665 0.1041287 0.16909416 0.03894681
0.15187919 0.15863577 -0.14834897 -0.080845155 0.030184912 -0.14513288 0.11377652 0.14538102
0.010150096 0.055181995 0.08256689 -0.23987319 0.095771626 -0.34425795 0.14663523 0.08711056
-0.034060497 0.21857058 -0.14484806 0.03382887 -0.050568916 0.0064452817 0.033633783 0.07980002
-0.1262328 0.035273097 0.086463824 -0.33516023 0.1824461 -0.060748164 0.18863389 0.42013916

conv4.weight f4 [1, 6, 4, 4]
00000000: 62fe b03e df80 e9bd 5986 bf3d 4ff3 003e
00000010: 852d c73e d1d7 edbe b15a 21be bb28 04bd
00000020: 0e92 a83d 3b23 e3bd a5f4 97bd c372 5d3e
00000030: b3cf b43e dce2 d2be 7cc4 10be bcb8 713e
00000040: d71f e63d c14d 0f3e f6f3 5f3d 7430 73bc
00000050: 29aa a6bd 6dc2 1dbd ade9 ba3c 682f 053d
00000060: d79a 16bd d01e c0bd 870d 87bd 440f 30bd
00000070: f806 86bd 3da5 8abd d1f1 b2bd 0be4 b7bd
00000080: d158 6e3d 04d4 ecbd cce6 fb3d 4f51 873d
00000090: 7c26 eb3d eb74 c3bc d894 f6bd 299d c63d
000000a0: c0e4 753e 84ae 4abe 20a9 a1bc 5519 a73d
000000b0: 18ff 8cbe 9c1d 0c3e 5f2f ba3c a68e 753e
000000c0: 0dba 1bbc 8597 0cbe 61ff 9ebc efc5 583e
000000d0: 34d5 3cbd 64a8 e43d 0e21 63bd 1c16 77bc
000000e0: ec9d 263e 8023 80ba 08b1 bdbc 8d9c 55be
000000f0: 2ee5 8d3d a808 b73b 8051 e53d 2f2a 1a3d
00000100: 6289 3dbd 0586 e0bd 47a1 373d 0fc7 88bd
00000110: b867 04bd 1ed0 a4bd 135a e23b 16d3 22be
00000120: 3844 6a3c 587f e4bd 2495 043e 6339 4f3e
00000130: eb34 bf3d 13b3 1fbd 7cae 433e 1452 5bbe
00000140: 140d aabb 89a8 433d fc41 34bd 34a8 813d
00000150: 62c9 0e3e 37a4 22bd ee78 60be 6b8f b23d
00000160: e762 a0bd b7d8 41bd c221 0f3e 881e 703d
00000170: a337 aabd d8ed e13c bc78 013d 60c0 18bd
0.3456908 -0.11401533 0.09351797 0.12592815 0.38901916 -0.46453717 -0.15757252 -0.032265406
0.08230983 -0.11090704 -0.07419709 0.2162581 0.35314712 -0.41188705 -0.14137453 0.23605627
0.11236542 0.13994505 0.05467602 -0.014843095 -0.08137924 -0.038515497 0.022816503 0.032515913
-0.03676876 -0.09380877 -0.06594377 -0.04298331 -0.06544298 -0.06769798 -0.08737529 -0.089790426
0.05819017 -0.11563876 0.122998804 0.06607305 0.1148195 -0.023859462 -0.120401084 0.09697945
0.24013042 -0.19793135 -0.019733965 0.081591286 -0.2753837 0.1368317 0.022727666 0.23980197
-0.009504807 -0.13729675 -0.019408884 0.21169256 -0.046101764 0.111649305 -0.055451445 -0.015080955
0.1627118 -0.0009776205 -0.023155704 -0.208605 0.06928478 0.0055857487 0.111971855 0.037637886
-0.046273597 -0.10963062 0.04483154 -0.066785924 -0.032325476 -0.08047508 0.0069077103 -0.15900835
0.014298491 -0.111571014 0.12947518 0.20236735 0.09336265 -0.038989138 0.1910953 -0.21418029
-0.0051895473 0.04776815 -0.04400824 0.0633091 0.13944009 -0.03970739 -0.21921131 0.08718761
-0.07831364 -0.047325816 0.13977721 0.058622867 -0.08311393 0.027579233 0.031609282 -0.037292838

fc3_adv.weight f4 [76, 130]
00000000: 9297 043e 4a4c 8cbc c4a4 8dbd 4ae6 cebd
00000010: ef51 dfbd 41f0 f3bd 28b5 2c3e d8dc 1a3d
00000020: 5f64 cb3d f0ca a9bc 42e2 02be 468c 233c
00000030: e4c9 853e e7a7 783e 3a65 043e 95c0 a43b
00000040: 019b 583d 347b 61bd f178 753e 740f 5f3e
00000050: c13b d63e b320 c8be f572 b2bf 107c 41bf
00000060: 5f10 60bf 1e77 68bf dd88 d1be 9565 173e
00000070: 47cd 0f3e d660 d6bc b38c b13d 9201 8f3c
00000080: c0c3 493e 5891 f83c d077 a0bd a47a 433e
00000090: 2087 b13e 555f b73e 9900 113d 35dd dc3e
000000a0: 2bb4 413e 0457 de3e d12a 2d3e 3464 283f
000000b0: 3d7d 883e ae69 cf3e 0d4f 9e3e 5495 3b3f
000000c0: 5242 0f3f 5b1e 873e bde2 533e fb79 813e
000000d0: 5a19 fabd a4d8 b8bd a946 a43e 534a c43e
000000e0: 422a 23be 3d39 dc3d 1796 9f3e a11a 5e3e
000000f0: 143b 043f da2e e63e b2f0 c53d bb6d d9bc
00000100: 82ca 50bd c013 533e d26f fd3e ac1d d43e
00000110: 39cd 543e b1d0 503e efa2 953e dc61 683d
00000120: 9761 773c d078 b53e e745 3b3e 1b5a 84bd
00000130: fae0 773e 014e 423e 6e78 b1bc e677 9c3e
00000140: 1d88 143d 7e29 023e 4488 a9bc 36c5 863e
00000150: a2e5 e63d 66dc b43c 9fd9 3c3e 7522 703d
00000160: d4ae 46bf 5c7c 98bf 383b 80bf b533 63bf
00000170: 62c0 33bf 2968 94bc fba2 fb3c b3ca 2c3e
00000180: b1ca 09be 308a e53d 3158 b53c 7784 333d
00000190: ec09 913e 57a8 093d 6f18 6f3d 6254 1bbd
000001a0: 25a1 d93d d9ef ae3d 1b3d 0fbd 9c84 b6bb
000001b0: 6938 713e e51e d43a 7040 2a3e 20b9 6abd
000001c0: 1ec6 ae3d e85f 43be 2903 cb3d 4395 d43e
000001d0: 5a00 e13e 34dc f6bd e525 f53d 910a 0ebd
000001e0: a2ea fabe 310e b4be 878e 93be 1929 bcbe
000001f0: 4369 00bf 865c 62bb db39 b53d 6d6f a73d
00000200: 2f51 013c 5d0b a53e 72aa 5f3e 79de bb3e
00000210: 5666 3b3e 9471 873e d7a3 383e b824 583e
00000220: 2b59 63bd 4123 313e 7a49 c43e 7a03 973e
00000230: 272b 933e 735d b73e 9982 e53e f0da 103e
00000240: c2d0 77bc f526 863e 6ba9 a93e 9903 e43e
00000250: 3bb5 803d 5b3b 103e 1423 d43e 396f 853e
00000260: aacd 61bd eae8 a33d ea41 b23e 9732 d63e
00000270: a7f2 493e d974 253d d3a4 e53d 84f4 393e
00000280: 864e 153f 7965 603e f51e 873e 0817 2a3e
00000290: 5a84 04bd 7dff 31be 7f30 4ebe 5cec 65bc
000002a0: b701 c33c 5a98 6dbe ddc9 32be 84eb c03b
000002b0: f168 cd3b b028 cdbd 7f16 193c b387 503d
000002c0: 6c90 863e 2013 9f3d 3872 f4bc db05 1dbe
000002d0: 3946 0f3d d9ba 9dbe b22d 72be 3d15 01be
000002e0: 4621 9cbd a965 25be 5a1f 193d 83a6 973d
000002f0: 739d 02bd ab6e f2bc bd2f 13be 57eb 603e
00000300: 6df2 94be 436a 1abd 8739 16bd ce39 193d
00000310: a1e0 f13d 4a9d c63d d43c 973d 87bb 8b3e
00000320: c1f6 d23d 5f8e 8a3e ca65 493d a545 d1bd
00000330: 7e29 f73b a2e2 fa3d 8c4e ca3d f1fa 1ebd
00000340: be63 92bc a995 cd3e 6fa0 da3d ee2e 2dbe
00000350: 94f9 f2bc 5f80 283d 493a 19bc 8f1a 0b3e
00000360: 0b43 52bc 8289 023e 67c9 3d3e 77d5 43bd
00000370: b5c4 323e c47f 953e c0b7 213d 13e6 1cbe
00000380: bdbd 68be 6081 85bd d40a 25be 4a6c 813d
00000390: a16d 043e cd4b b9bc d517 85be 5346 333d
000003a0: ac87 23be 48fa 23be b5af 44be 7b65 d43c
000003b0: 10e2 d9bd c941 d5bc 70ba fb3c 3b38 08bc
000003c0: abba 43be 1a43 0abd b848 703d 2c7a 80bd
000003d0: c51b 08be aa10 10be 5b81 6e3e 788b 10ba
000003e0: aa6f 5abd 7b9f d3bd 6f34 63be 3bfc cbbd
000003f0: c8bf 21be ec55 573e 5d21 7d3d b214 7d3e
0.12948444 -0.017126221 -0.06916192 -0.10102518 -0.109042995 -0.11911059 0.1686598 0.03780827
0.09931254 -0.020726651 -0.12781623 0.009982174 0.26130593 0.242828 0.1292924 0.0050278404
0.0528822 -0.055049136 0.23971917 0.21783239 0.41842464 -0.39087448 -1.3941332 -0.7557993
-0.8752498 -0.9080676 -0.4092473 0.14784844 0.14043151 -0.026169222 0.08669414 0.017456803
0.19703579 0.030342743 -0.078353524 0.19089752 0.34673405 0.3581492 0.03540096 0.43137518
0.18916385 0.43425763 0.16910864 0.657779 0.2665805 0.40510315 0.30919686 0.7327473
0.5596057 0.26390347 0.20691963 0.25288376 -0.12211867 -0.09025696 0.3208516 0.38337955
-0.15934089 0.10753105 0.31169197 0.21689846 0.51652646 0.4495762 0.096650496 -0.026541581
-0.050974376 0.20613003 0.49499375 0.41428888 0.20781411 0.2039211 0.2922587 0.05673395
0.015098951 0.35443735 0.18288384 -0.06462499 0.24206915 0.18975069 -0.02166387 0.30560225
0.03626262 0.1271114 -0.02069486 0.26322335 0.11274268 0.02207775 0.18442391 0.05862661
-0.77610517 -1.1912951 -1.0018072 -0.88750774 -0.7021543 -0.018116074 0.030717364 0.16874199
-0.13456227 0.11207998 0.02213678 0.0438275 0.28327882 0.033607807 0.05837291 -0.03792227
0.10626439 0.08541841 -0.034970384 -0.0055700075 0.23556675 0.0016183524 0.16626143 -0.057305455
0.085338816 -0.19079554 0.09912712 0.41520128 0.4394558 -0.12053719 0.119701184 -0.034678046
-0.49007136 -0.35167077 -0.28819677 -0.36750105 -0.50160617 -0.0034540012 0.08848926 0.0817555
0.007892891 0.32235232 0.21842363 0.3669317 0.18300757 0.2645384 0.1803125 0.21107757
-0.05550496 0.17298605 0.38337308 0.2949484 0.2874386 0.35813484 0.448262 0.14146018
-0.015125455 0.26201597 0.33137068 0.44533995 0.06284567 0.14085142 0.41433012 0.2606142
-0.055127777 0.08003409 0.34815913 0.41835472 0.19721471 0.040394638 0.11213078 0.18159682
0.5832294 0.21913709 0.26390806 0.16610348 -0.032352783 -0.17382617 -0.20135687 -0.014033403
0.023804529 -0.23202649 -0.17459817 0.0058874507 0.0062686135 -0.10017526 0.009343742 0.050910663
0.2628206 0.0776732 -0.02983962 -0.15334265 0.03497908 -0.30806616 -0.23650244 -0.12605758
-0.07623534 -0.16152062 0.037383415 0.074048065 -0.031888437 -0.029593786 -0.1437368 0.21964775
-0.29091206 -0.037698995 -0.036675956 0.037408642 0.11810423 0.09697969 0.07384649 0.2729151
0.10300971 0.27061746 0.04916934 -0.10218362 0.007542788 0.12250258 0.09878263 -0.038813535
-0.017869826 0.40153244 0.106751315 -0.16912434 -0.029660024 0.04113805 -0.009352275 0.1358435
-0.012833367 0.12747768 0.1853386 -0.047810998 0.1745785 0.2919904 0.03948188 -0.15322141
-0.2272863 -0.06518817 -0.16117412 0.063194826 0.12932445 -0.022619152 -0.25994745 0.04376824
-0.15969723 -0.16013443 -0.19207652 0.025927296 -0.10638821 -0.026032345 0.030728549 -0.008314188
-0.19114177 -0.0337554 0.0586631 -0.062733024 -0.13291843 -0.14068857 0.23291533 -0.00055139465
-0.053329147 -0.10333153 -0.2218797 -0.099602185 -0.15795815 0.2102887 0.061799396 0.24714926

fc3_adv.bias f4 [76]
00000000: 6468 4e3e ff59 c33d 183a debd 7d75 663e
00000010: 1730 393e 53bc 913e 2dd9 0e3e 5d72 4d3d
00000020: 23eb b43d 6c7a fd3d e028 a1ba 9a19 6f3d
00000030: 26f8 853d 541c a13d 10e0 7f3f fe95 c23d
00000040: b3f1 d53d 9101 3d3e 70e4 8f3d f04e 6d3e
00000050: 4140 153d a81a 46bc d85f 963e 21b7 273e
00000060: 01a7 1d3d bb8f f03d 668b 9a3d 4024 0abe
00000070: ee8e cc3d 13dd 333d d5b9 623e 1ecc 69bc
00000080: 3949 803e ee35 173e 6630 1a3d 10cf 1cbb
00000090: 0055 8b3d cbad c23c 85e0 033e 10ee 933d
000000a0: 83d9 273e d7c0 623d c4fa 383d 649b 903c
000000b0: be04 c13d b10c ee3d 480d 423e ab54 3f3e
000000c0: b5cb 123e c7da 403e d4d0 803e 9bdc 173e
000000d0: e8c4 26bd 1864 753d e0d4 773d 2056 5a3d
000000e0: 5381 913d da81 403d 417c 043e f02f 823d
000000f0: 873d 5cbd a728 d63d 898b 093d 064a d43d
00000100: 2bbc 303e 7320 043e 24ee 0c3d 5d69 033d
00000110: ba24 d43c c272 6d3c d854 8c3d 33d9 afbc
00000120: a623 003e f1fe 153d d746 4d3e 47a4 1d3e
0.2015701 0.0953865 -0.10850924 0.22505756 0.18084751 0.28463992 0.13950033 0.050157893
0.08833911 0.12376866 -0.0012295507 0.058374025 0.06541471 0.07866731 0.9995127 0.09501265
0.10446491 0.18457629 0.07025993 0.23174644 0.03643823 -0.012091316 0.29369998 0.16378452
0.038489345 0.117461644 0.075461194 -0.13490391 0.09988199 0.043912005 0.22141202 -0.014269857
0.25055864 0.14766666 0.037643813 -0.002392713 0.06803322 0.023764512 0.12878616 0.07223141
0.16391568 0.055359688 0.045161024 0.017652221 0.094247326 0.116235144 0.18950379 0.18684642
0.1433552 0.18833457 0.25159323 0.14830248 -0.04071513 0.05990991 0.060505748 0.05330479
0.07104745 0.046998836 0.12938024 0.063567996 -0.053769615 0.104569726 0.033580337 0.10365681
0.1725928 0.12903003 0.034406796 0.032082904 0.025896419 0.014492692 0.0685212 -0.021465873
0.12513599 0.036620084 0.20046555 0.15394698

fc3_val.weight f4 [76, 130]
00000000: 9130 d83d ea3d 813c 976b 02bc 9e60 443d
00000010: b810 8f3d f42d 943d 1033 47bd 39bb 9b3c
00000020: 531f 1f3e c7db 6d3e 0d09 873d cd04 cdbd
00000030: e062 2e3d 3e4b 23bd 438c 7b3d 00f7 ddbd
00000040: f9b5 803e d34d 11be 9305 9f3d 3e74 0fbe
00000050: e02a 01be e648 763d 0d66 00bd 5d7b c1bc
00000060: 1f88 133d efa9 043e f498 933d 0517 86bd
00000070: 863b 713e f26a 4b3e 1724 883d ac4d 94bc
00000080: a1db b03e 7621 0b3e 834c 3d3e 86b3 373e
00000090: 9460 443d f62e 523e 19da 133d 081c 0b3e
000000a0: f865 313e e9d7 7e3e 34bb b53d d504 b1bc
000000b0: b2de 9e3e eca3 193d e83c c83b c4e2 223e
000000c0: b5a5 753e 1198 333e bb88 a73d 3efb 913e
000000d0: 5374 dc3c 1604 5e3e 4593 0d3e 704e eb3d
000000e0: f009 633b edce 073e 459a 9d3d fb1e b13d
000000f0: 91f1 ab3d 2426 773e b4b2 c9bb a97b 0a3e
00000100: 9d0a 913d e445 063e 1429 1c3e 024f 903d
00000110: 2e18 453d a976 4a3e f9c6 51bd b009 183c
00000120: 2c19 e83d 4bb6 943e afbe 0b3e 4c15 473e
00000130: c6e1 093e 2a17 843e 23e8 8d3d 45f0 473d
00000140: d6e7 bdbc 9ba4 7eba bf4e 62bd fc32 8f3d
00000150: f651 253e a530 f13d dd5c 373e a599 f43d
00000160: c979 733e 2bb3 493d c52c 353e 5a4a c13d
00000170: d8ab bfbc 9c9b d33c 56e2 e13c 3ef5 6e3d
00000180: b145 533e c15d 453e 431f fd3d 4778 983e
00000190: 68a6 3c3e ce0f 643e 138b 48bc 09af 463d
000001a0: 472a a13e 2ecf 323e 59c4 253e 81c3 783e
000001b0: 350e bb3d a3c4 b63d b7c9 463e 6302 8a3d
000001c0: 8c57 483e 8c9f 7c3e bea2 223e 0bbd 8b3c
000001d0: ad95 a53e a10d 873e ed50 823e ab49 c83e
000001e0: 9ef4 423e 1aaf 8c3e 89c6 103e 8a7f 943e
000001f0: df6f 603e 7981 e63e b3c0 ae3e 35c2 853e
00000200: d426 b13e 17fd 3a3e 572c 8abd 1157 ed3d
00000210: 873c eb3d 6456 c2bc 2c13 183d e261 d2bd
00000220: e656 ca3d 7d95 cdbc 2def 67bd 3668 f73c
00000230: 8e2f 2c3e 4819 593c aa11 143e 83ce 193e
00000240: cf64 1bbe fc80 3a3e 36d9 1c3e d4ea 283e
00000250: f60d 813d 0629 20be 5cce 9ebc fe19 79bd
00000260: 1a26 393e 4ae0 b83c 357f a23c d66e 81bd
00000270: 15ef a8bd c274 583e 3f2c 3abd 97f2 4bbd
00000280: d673 153e cbdb 163e e00d 643d f6d2 6abd
00000290: 1d66 fb3d c460 943d e3da 2b3e c8d6 3d3e
000002a0: a247 8f3c 67d2 a63e 73c7 b53d 973b 363d
000002b0: 9d22 ae3d e77f 90bd aeb6 ed3d 3883 8a3e
000002c0: 10cf 623e 1971 ec3c 9682 8f3e 0965 433e
000002d0: f91e 6e3e 712a 093e cd47 6b3e b933 21bd
000002e0: fd05 013e 7e5b ce3c 0c3f 663e 1c12 2dbd
000002f0: d730 733e b470 223e 44af 953e cd93 713e
00000300: aab4 0a3e 4b6c c0bc 9b78 c6bc d857 ae3d
00000310: 21ab 273c a6db 973e f896 723e 2038 693e
00000320: 2b23 163e 0cd0 223c 94af 893d 3be9 9a3e
00000330: 1110 323e 84ae 093e b310 973d 396a 2e3c
00000340: 633f 313d 3906 1f3b c474 5d3e 21ab e23d
00000350: d639 0e3e a44f 623e e3b2 143e 2ddc 443e
00000360: 7920 733d 45ce 453d 4b30 78bc 8469 8cbd
00000370: c82b 813e c0a5 da3d 50d3 65bd 400a 3a3d
00000380: ae34 af3d 843c 543d 62a2 323e c11f 4e3e
00000390: ced7 4d3c 95a6 073e 081f c43e 5c0d 573d
000003a0: e24f 183d 47be 253e eca1 6f3e 6235 173e
000003b0: 28cd 883e 9a36 b13d 2954 a63e 7108 7a3e
000003c0: a419 ed3d 88ee 8d3e 25f2 b73c 0436 f53d
000003d0: 3ba3 2e3e e13e 753e 686f 9c3e cdf9 4a3e
000003e0: 7166 ef3d c115 a63e 3e66 1f3e f5db 3f3e
000003f0: 93ac 263e 0083 0d3e d87e b13e 386e 0f3e
0.10556138 0.015776593 -0.007960222 0.047943704 0.06985611 0.07235327 -0.04863268 0.019010173
0.15539293 0.2322837 0.06593523 -0.10010681 0.042574763 -0.03986668 0.06141306 -0.10838127
0.25138834 -0.14189844 0.07764735 -0.14009187 -0.12614012 0.060128115 -0.031347323 -0.023618395
0.036018487 0.1295545 0.07206908 -0.065473594 0.23557863 0.19865015 0.066475086 -0.018103443
0.34542564 0.13586983 0.18486218 0.17939577 0.047943667 0.20525727 0.036096666 0.13584912
0.17324054 0.2488705 0.08873597 -0.02160875 0.31029278 0.037509844 0.006110776 0.15906817
0.23988993 0.17538477 0.08180376 0.28511995 0.026910936 0.21681246 0.1382571 0.1148957
0.0034643374 0.1326253 0.0769544 0.08648487 0.083956845 0.24135643 -0.0061553363 0.13523735
0.070821024 0.13112599 0.15250045 0.070463195 0.048118763 0.19771828 -0.051215146 0.009279653
0.11332926 0.29045328 0.13646959 0.19441718 0.13465032 0.25798923 0.06929042 0.048813123
-0.023181837 -0.0009713859 -0.05525088 0.069921464 0.16144547 0.11776856 0.17906518 0.11943368
0.23776926 0.049243134 0.1769286 0.094380096 -0.023397371 0.025831036 0.027573746 0.05833935
0.20632054 0.19274046 0.12359478 0.29779264 0.18422854 0.22271654 -0.012240189 0.04850677
0.31477568 0.17461845 0.16188182 0.24293329 0.09133569 0.08924224 0.19412886 0.067387365
0.19564646 0.24670237 0.15882394 0.017057916 0.32340756 0.26377586 0.25452366 0.39118704
0.19038627 0.27477342 0.14138235 0.29003555 0.21917675 0.45020655 0.34131393 0.2612473
0.34599936 0.18260609 -0.067467384 0.11588872 0.11486154 -0.023722835 0.03712766 -0.10272576
0.09879856 -0.025095696 -0.05662458 0.030201059 0.16815016 0.013250656 0.14459863 0.15020184
-0.15175174 0.18213266 0.15317234 0.1649583 0.06301491 -0.15640649 -0.01938551 -0.060815804
0.18080941 0.022567887 0.019836048 -0.063199684 -0.08248726 0.2113829 -0.045452353 -0.0497919
0.14594969 0.14732282 0.055677295 -0.057330094 0.12275336 0.07245019 0.16782717 0.18538964
0.017490212 0.325824 0.088759325 0.044490423 0.08502696 -0.070556454 0.11607109 0.27053237
0.221493 0.028862523 0.28029317 0.1908151 0.23254003 0.13395096 0.22976609 -0.039355967
0.1259994 0.025190111 0.22484988 -0.0422536 0.237491 0.15863305 0.2923528 0.23591538
0.1354548 -0.023489138 -0.024227431 0.085128486 0.010233671 0.29659766 0.23690403 0.22775316
0.14661853 0.009937298 0.06722942 0.30256066 0.17388941 0.13445479 0.07376232 0.010645443
0.04327334 0.0024265184 0.21626574 0.110677965 0.1388925 0.22100693 0.14521365 0.19224615
0.05935714 0.048292417 -0.015148233 -0.06856063 0.25228715 0.106761456 -0.056109726 0.04541993
0.0855497 0.051815525 0.17444757 0.201293 0.012563659 0.1324714 0.38304925 0.052502975
0.037185557 0.16185866 0.23401612 0.14766458 0.26719022 0.086529925 0.32486084 0.24417283
0.11577156 0.27721047 0.02245433 0.11973193 0.17054455 0.23949768 0.30553746 0.19821854
0.11689461 0.32438472 0.15566346 0.1873625 0.1627677 0.13819504 0.34667087 0.14006889

fc3_val.bias f4 [76]
00000000: 2447 64be 4840 b7be 660b c33e fee6 013f
00000010: 9a2a ec3e 9dc8 80be 2235 59be d919 c43e
00000020: c7bf 9ebe f37b 68be 63b5 91be 6973 9abe
00000030: 6532 7f3e fe8c 85be f3f0 a4be 9cb7 fc3e
00000040: 8fc8 d93e bf5e a6be b950 7fbe dff5 94be
00000050: 85c1 a0be 127b a5be 23ff bf3e 590d 50be
00000060: 3b13 abbe 6975 90be 8019 47be 27de f23e
00000070: 2747 033f b929 94be 99dc aebe 7950 c23e
00000080: d4ac 483f 6814 d13e 82e8 7fbe 86e0 73be
00000090: a376 e53e 0367 b6be dac1 cd3e 2fef 86be
000000a0: 8a2c b2be 2461 babe 5391 bd3f bdcf e83e
000000b0: 9919 8dbe f3e7 e93e a1d5 313f 05f1 c0be
000000c0: 718f c63e 2960 93be 5096 ee3e 3719 5ebe
000000d0: f6fd a4be 6ce4 40be 7b35 043f 3e3d b5be
000000e0: 89d2 cd3e a911 c53e 7761 58be 052d 5dbe
000000f0: 5d4a 4bbe aaad 63be 456f bd3e 1cfa b2be
00000100: e2d2 6abe 8ab9 86be e9af a1be a95e e13e
00000110: f783 92be c3a5 afbe 1366 ba3e b98d 96be
00000120: 2514 8abe df46 53be e238 7dbe f4e8 1d3f
-0.22292763 -0.3579123 0.38094634 0.5074309 0.46126252 -0.25153056 -0.21211675 0.3830097
-0.3100569 -0.22703533 -0.284587 -0.30166176 0.24921568 -0.2608413 -0.3221508 0.49358833
0.42535827 -0.3249416 -0.24933137 -0.29093835 -0.31397644 -0.32320458 0.3749934 -0.20317592
-0.3341311 -0.28214577 -0.19443321 0.47435114 0.51280445 -0.28938082 -0.34152678 0.3795202
0.78388715 0.4083588 -0.24991038 -0.23816118 0.44817075 -0.35625467 0.4018696 -0.26354358
-0.34799606 -0.36402237 1.4809974 0.45470992 -0.27558592 0.45684776 0.69466597 -0.37683883
0.38781312 -0.28784302 0.46599054 -0.21689306 -0.32225007 -0.18837136 0.51644105 -0.35398287
0.40199688 0.38490036 -0.2113093 -0.21599205 -0.19852586 -0.22234216 0.36998954 -0.34956443
-0.22932008 -0.2631343 -0.3157952 0.44017532 -0.28616306 -0.34306154 0.36406 -0.29405
-0.26968494 -0.20632504 -0.2472873 0.61683583

fc4_adv.weight f4 [38, 76]
00000000: cf64 62be c465 f0bd 3341 913e 750e bb3e
00000010: 7a61 ca3d 0d1d d8bc 0f7a 3e3e e7cc 203e
00000020: 30d0 8a3e 1add 083e 8756 f33b 8cd8 2d3e
00000030: 8f1e 9dbd 58cc 5cbd 5e2a a43f c504 1dbe
00000040: 92bb 1b3e 5cd7 283e 9974 5a3e dcd4 763e
00000050: cc91 1b3e c77a 94be 8326 5e3e adf2 203f
00000060: 2a2c 893d 96ad b83d 99ba 353d 74d9 e33c
00000070: 2525 3c3d 9c3c 17be e39f 0abc 17f2 693e
00000080: bda4 2d3d 02fd 013e efd2 13bc 066f 023d
00000090: f889 2c3e c723 983e db5f a7bc 2149 b13d
000000a0: 3ab8 ac3d d1d9 853d bcf3 d63d b456 8a3d
000000b0: 0190 adbd 5633 3c3e e84e f5bc 685c e63e
000000c0: 6599 29be d7a8 793e 0adf 133f 1f68 593e
000000d0: 9a0c 41bd fb31 89be 81e0 583e 9bab c5bd
000000e0: 32b0 c23c 9526 c8bd 26f4 cebd 2c49 2b3e
000000f0: ffe3 263e e317 873e eb0c 383e 7d14 643e
00000100: 993d 5a3e 35ef 493e 3d2a eebd 91a5 b53d
00000110: 2b09 1abe 445a 99bd b097 783d f90b ddbd
00000120: d2c0 a23e 4c68 003e c36d e13d c667 34be
00000130: 8804 babd d47e 73bd e359 003e 6e44 da3e
00000140: a1ab 7f3e c001 983d e498 9d3e 1dbe 8d3e
00000150: 2179 a03e f8f5 883e a881 7b3e 97d8 96be
00000160: 730c eebd 0529 fabd 8362 b53f 4ac9 cebc
00000170: bf02 0a3e ce19 2b3e 625e 89bd 2188 0fbe
00000180: d8d7 753e bbe6 913d 7768 8e3d a94b 673e
00000190: 67a2 1d3e a192 173c a655 2dbc 5505 293e
000001a0: 873a 9e3d cd3d 7a3e 9b49 6f3d bddb dc3e
000001b0: 7526 ea3c 66e0 f3bd 8717 f23d 3028 4b3e
000001c0: c64c 0abe 8a92 34bd 2e1f 69bd d1d2 623e
000001d0: 1f0a 223e b2a4 333e 4a7a f53c 4913 6bbd
000001e0: 04b4 a03c 82e8 853d 8e5e 633e 442e 363e
000001f0: a595 d9bc 7613 31bd 1098 ee3e 98dd 673e
00000200: d17a 3d3e 6000 58be fa81 d73e 9aa2 2c3e
00000210: 916b 2abe 50a2 3dbe 2857 123e 0edc 8a3d
00000220: 4e2b 3d3e adf9 a13d ab4c 0abe 8d05 093e
00000230: d89f 483d 8bd9 ef3c 7d24 ba3e 4252 9bbd
00000240: b9fe 393d 309a d5bd f3c2 7d3e b188 fd3c
00000250: 6eb5 e63c b3e4 09be 7a1d 04be 0c7d 603d
00000260: 8474 14bd 11f3 cfbd 8143 ac3e 1087 883e
00000270: 750d 9c3e 4964 043e 34ce 203e 9a4c dc3d
00000280: 0868 c33d 9c20 d9bd 839d 843e a00c c03c
00000290: d75b a43c 16ea 823e cd81 9c3f d920 d5be
000002a0: 76f4 113e de41 8cbd 6c5c 1abe 994e 4c3d
000002b0: b1da 6e3e 2714 1ebe 4240 8b3e 3e4c 923e
000002c0: bc57 013f 1852 753e cce7 143e 6c19 703d
000002d0: dcca 0dbe 037f dd3e 7a60 233d 71e8 a73e
000002e0: 04f7 9b3d eeb4 8b3e 842c 223b 134f 08be
000002f0: 63d5 233e 2a66 523c 34c4 8f3e e1c9 90bd
00000300: 8bbb 243e ade5 0d3e e56c 733e 3c35 10bd
00000310: 3867 333e 11d4 5ebc 5acf 71bd d359 d83e
00000320: 72c8 72bd 6b93 05be bef9 ba3f 86d9 043f
00000330: 8add 063e dd44 9cbd 28cb 603e 032d a83e
00000340: bdc9 903e 00c7 a23d 6b01 253f 202e cb3e
00000350: ae98 823d a27d 5abd b4f2 47be a8c8 a73e
00000360: d929 5e3e 225c 6a3e a379 03be c38b 34be
00000370: 4df5 e1bd f25f 7a3d ef83 333e 985c 6fbe
00000380: 657e 713e fe23 99be 3b69 7fbc 1fc1 b2be
00000390: 37a9 81bc c3ef b3bd e45f 813e 8e34 d83d
000003a0: 678c 693e 3e2e 5e3e 3851 963e c73e 733e
000003b0: 7f9d 19be 9f48 1d3d 3d68 353e d5f2 223e
000003c0: 91a9 36bd 4f7e df3c 94ef a33f ca7c b7be
000003d0: dfb8 be3e c82f b4bd 5781 4fbe 4923 9d3d
000003e0: 1c3f b93d 47f4 b93d 7799 dc3e 8142 be3e
000003f0: 2db3 bb3e 94bf 843d 6926 b63e c060 0e3e
-0.22108768 -0.1173816 0.28370056 0.36534467 0.098818734 -0.02638104 0.18601249 0.15703164
0.2711196 0.13365594 0.0074260863 0.16977137 -0.07671844 -0.053905815 1.282543 -0.1533385
0.15208271 0.16488403 0.21333541 0.24104637 0.15192336 -0.28999922 0.21694379 0.62870294
0.06697877 0.09017484 0.044367407 0.02781365 0.04593386 -0.14769214 -0.0084609715 0.22846256
0.042393435 0.12694171 -0.009022458 0.03184416 0.16849506 0.29714796 -0.02043145 0.08656526
0.08433576 0.06535686 0.104957074 0.067548186 -0.08474732 0.18378958 -0.029944852 0.44992375
-0.16562422 0.24380814 0.57762206 0.21231125 -0.04713116 -0.26795945 0.21179391 -0.09651872
0.023765657 -0.09772984 -0.10105161 0.16727132 0.16297911 0.26385412 0.17973678 0.2227344
0.2131256 0.19720156 -0.1162915 0.0886947 -0.1504256 -0.0748792 0.060691535 -0.10793299
0.31787735 0.12539786 0.110072635 -0.17617711 -0.090828955 -0.059447125 0.12534289 0.42630333
0.24967815 0.07422209 0.3078071 0.27684107 0.31342414 0.2675016 0.24561179 -0.2946212
-0.11623468 -0.12214855 1.4170688 -0.025242466 0.1347761 0.16709062 -0.06707455 -0.14016773
0.24008119 0.071240865 0.06953519 0.22587456 0.15393983 0.009251268 -0.010579502 0.1650594
0.07726007 0.24437638 0.058419805 0.43136397 0.02858279 -0.11908035 0.11820894 0.19839549
-0.13505849 -0.044085063 -0.0569145 0.22150733 0.15824173 0.17543295 0.029965539 -0.05739144
0.019617088 0.06538488 0.22204039 0.17791086 -0.026560614 -0.04323145 0.4660039 0.22643125
0.18503882 -0.21093893 0.42091352 0.16858903 -0.16642596 -0.18518949 0.1429106 0.06780253
0.1847355 0.0790895 -0.13505809 0.13381024 0.048980564 0.029278537 0.36355963 -0.07584049
0.045408938 -0.104297996 0.24781398 0.030948969 0.028162684 -0.13466148 -0.1290187 0.054806754
-0.03624393 -0.10153783 0.3364525 0.26665545 0.30479017 0.12928881 0.1570366 0.10756798
0.09541327 -0.10601923 0.25901422 0.02344352 0.020063324 0.25569218 1.2227112 -0.41626623
0.1425341 -0.06848501 -0.15074319 0.049879644 0.23325612 -0.15437375 0.27197462 0.28573793
0.505245 0.23957098 0.14541548 0.058617994 -0.13846916 0.43260965 0.03988693 0.32794526
0.07615474 0.27286476 0.0024745772 -0.13311414 0.1599937 0.012841741 0.2807938 -0.07069755
0.16087167 0.13857146 0.23772009 -0.03520702 0.17519844 -0.013600365 -0.059035636 0.4225603
-0.05927319 -0.13044517 1.4607465 0.51894414 0.13170448 -0.07630322 0.21952498 0.3284684
0.28278914 0.079481125 0.6445529 0.39683628 0.063767776 -0.05334247 -0.19526178 0.32770276
0.21695651 0.22886708 -0.1283937 -0.1763144 -0.110331155 0.061126657 0.17530797 -0.23375165
0.23583372 -0.29910272 -0.015589054 -0.34912965 -0.015827758 -0.08785965 0.2526847 0.10556899
0.22807465 0.21697327 0.2935884 0.23754416 -0.15001486 0.038399335 0.17715545 0.15912946
-0.044595305 0.027281908 1.2807488 -0.35837394 0.3725042 -0.08798176 -0.20264183 0.07672746
0.0904524 0.09079795 0.43085834 0.37160113 0.36660138 0.06481853 0.3557618 0.13904095

fc4_adv.bias f4 [38]
00000000: a53b 0a3e 765c b3bc df96 1b3e 3910 92bd
00000010: 2c6e 22bd e3f4 60bc 9c7f 2b3e 0208 dcbd
00000020: 1ab9 fabd 3689 2dbe 2b6a c8bd efe3 283e
00000030: a819 fb3c 5426 143d 9bff da3d 3b36 cf3d
00000040: 4fd6 0e3e 8e54 24be 277a 3b3e 38fe 053d
00000050: da93 053e 6915 5e3e 65d8 413e 371d 5b3e
00000060: bc8f 513e b7e7 903b 19dd 01be 4b20 89bd
00000070: d902 3abc 7359 943c e259 ce3b c760 08bc
00000080: c93e c33d 1104 523e 1058 05be 34b1 513e
00000090: e358 0fbe bca8 6f3e
0.13499315 -0.021894675 0.15194272 -0.071320005 -0.03965585 -0.013730261 0.16747898 -0.10743715
-0.122423366 -0.16946873 -0.09785875 0.164932 0.030651882 0.036169365 0.10693284 0.101177655
0.1394894 -0.1604788 0.18308316 0.032713145 0.13044682 0.21687855 0.18930204 0.21397863
0.20464987 0.004422154 -0.12681998 -0.066956125 -0.011353218 0.018109059 0.006297336 -0.008323855
0.0953346 0.20509364 -0.13021874 0.20477754 -0.13998751 0.23404211

fc4_val.weight f4 [1, 76]
00000000: 2a63 493e 1f47 a53e 4724 8dbe c037 ebbe
00000010: 89c1 85be aa65 733e c237 e53e c336 c7be
00000020: ce60 b73e b0c6 a63e bd78 cf3e 712d 8c3e
00000030: ddc3 e0be d44c 453e bcaf 973e 846c 94be
00000040: 225e a7be b97c a93e 6985 8a3e 7e5b 9e3e
00000050: 2294 a43e bb65 af3e b147 4cbf e779 7b3e
00000060: d66f 7c3e 6579 4c3e 81a7 be3e 9b4c 01bf
00000070: 927f 02bf f31f 303e 0738 753e 0462 10bf
00000080: 02a6 0dc0 a5ea d8be 0f33 663e 54e2 a03e
00000090: 0f53 dfbe 0407 b13e 0000 c4be 7673 903e
000000a0: 5f87 933e 6f3d c43e d09b 20c0 7287 e1be
000000b0: 93cb e23e 67e1 94bf e93f 21c0 6a8c d73e
000000c0: b5e7 bbbf b612 3c3e 2d5d eabe 1f57 a53e
000000d0: 0d78 743e 7193 2f3e 5bab 99be 5825 d13e
000000e0: aade 9fbe 5f87 6fbf 9555 da3e 8443 593e
000000f0: 3b7b 903e 0bd5 1e3e 9161 c2be 0b6b 963e
00000100: 94af 3c3e 9b07 843e 405d cd3e 6976 b7be
00000110: 58fc 5b3e d1a8 4d3e 1b1f 00bf ddea 6f3e
00000120: 2ec5 a53e adc5 5a3e 7f78 333e c561 b9bf
0.19666734 0.32280824 -0.2756674 -0.4594097 -0.26124218 0.2376925 0.44769102 -0.38908967
0.35816044 0.32573462 0.40521803 0.2737842 -0.43899432 0.19267589 0.29626262 -0.2898904
-0.32689005 0.33102968 0.2705491 0.30929178 0.32144266 0.34257302 -0.7979689 0.24558221
0.24652037 0.19968183 0.3723717 -0.50507516 -0.50975907 0.17199688 0.23947154 -0.5639956
-2.2132573 -0.4236652 0.22480415 0.31422675 -0.43618056 0.34575665 -0.3828125 0.2821309
0.28814217 0.3832812 -2.50951 -0.4404865 0.4429594 -1.1631287 -2.5195258 0.42099315
-1.4680086 0.18366513 -0.45774212 0.3229303 0.2387392 0.17146088 -0.30013546 0.40848804
-0.31224567 -0.93565935 0.4264342 0.21217161 0.28219017 0.15510957 -0.37965062 0.29378542
0.18426353 0.25787053 0.40110207 -0.35832527 0.2148298 0.2008393 -0.50047463 0.23429437
0.32377 0.2136447 0.17526434 -1.4482962

exp_avg f4 [1, 6, 1, 4]
00000000: 6fb9 48c0 6d8c 4c3f aa1f d73e 22b3 c3bd
00000010: 7f0e e340 1060 1241 f87f 9e40 1c89 2140
00000020: a56d 603f a56d 603f a56d 603f 0000 0000
00000030: 3863 fc3e da14 ba3e da14 ba3e 0400 0000
00000040: 5fde 2f3e 107d 8c3e 107d 8c3e 0000 0000
00000050: 9b12 5c3e 909a 893d 909a 893d 0400 0000
-3.136318 0.7990177 0.42016345 -0.09555651 7.0955195 9.148453 4.953121 2.5239935
0.87667304 0.87667304 0.87667304 0.0 0.49294448 0.36344033 0.36344033 6e-45
0.17174672 0.27439165 0.27439165 0.0 0.21491472 0.067189336 0.067189336 6e-45

exp_avg_sq f4 [1, 6, 1, 4]
00000000: ff84 9b43 8e15 b141 2cba 3140 ce4d be3d
00000010: bff1 6045 52eb cb44 8f85 d643 5d7c 5842
00000020: ff44 9941 ff44 9941 ff44 9941 0000 0000
00000030: aa69 9a40 5296 8a40 5296 8a40 f401 0000
00000040: dd39 1c40 b600 0740 b600 0740 0000 0000
00000050: f8c9 2e40 6017 f43f 6017 f43f f401 0000
311.03903 22.135525 2.776988 0.09292184 3599.1091 1631.3538 429.04343 54.12145
19.15869 19.15869 19.15869 0.0 4.8253984 4.3308496 4.3308496 7e-43
2.4410317 2.1094184 2.1094184 0.0 2.7310772 1.9069633 1.9069633 7e-43

exp_avg f4 [1, 6, 2, 4]
00000000: 7a6f 8040 83ba c83e e61f d9bd 6921 8a3c
00000010: c8f5 2440 54d8 c7bd 0f85 8abe 8ef0 db3c
00000020: 03ba f4bf c426 71c0 976c 55c0 e5e1 a9bf
00000030: 5004 46c0 4b27 9ec0 087c e9bf 5f82 25bf
00000040: 38d5 71bf 38d5 71bf 38d5 71bf 3d42 d3bc
00000050: 3f4b 8ebf 3f4b 8ebf 3f4b 8ebf 5e63 f2bb
00000060: b31b 1cbe 4a19 43bd 4a19 43bd e328 89bc
00000070: acbf 60be e869 fabd e869 fabd 6b85 d1bd
00000080: 4234 dc3c 2996 2fbd 2996 2fbd ddc7 c8bd
00000090: a6b2 233c b956 bbbd b956 bbbd 03ec 37bd
000000a0: caae 58bd 16f2 abbc 16f2 abbc 0963 4abd
000000b0: 3abf 2abe d529 31be d529 31be 2b03 d3bc
4.013608 0.39204797 -0.10601787 0.016861634 2.5775013 -0.09758058 -0.2705464 0.026848104
-1.9119266 -3.767991 -3.3347528 -1.3272063 -3.0940132 -4.9422965 -1.8240976 -0.64652056
-0.9446597 -0.9446597 -0.9446597 -0.02578842 -1.1116713 -1.1116713 -1.1116713 -0.0073970994
-0.15244941 -0.04763154 -0.04763154 -0.01674313 -0.21948117 -0.12227231 -0.12227231 -0.102305256
0.026880387 -0.042867813 -0.042867813 -0.09803746 0.009991324 -0.091474004 -0.091474004 -0.044902813
-0.052901067 -0.020989459 -0.020989459 -0.049410854 -0.1667451 -0.17301114 -0.17301114 -0.025758347

exp_avg_sq f4 [1, 6, 2, 4]
00000000: df81 e942 1b4c 0341 491d 423f 5be6 0b3d
00000010: 274c 0143 9e87 5441 5bfb ae3f 8c03 063d
00000020: bb88 a644 72ac 2144 4bb2 5043 8e0c aa41
00000030: dd00 8844 b0c7 9743 3644 4c42 876c aa40
00000040: 8731 2041 8731 2041 8731 2041 09c6 7d3e
00000050: 480b 2641 480b 2641 480b 2641 a1d4 473e
00000060: 485f db3f d4c5 bc3f d4c5 bc3f 7233 ab3d
00000070: 93ba 3740 ead1 2340 ead1 2340 c45a e03d
00000080: c2f4 993f 5b28 873f 5b28 873f e00a a13d
00000090: 42ba 0040 8c70 e63f 8c70 e63f 8636 e53d
000000a0: 4a41 3440 6c2f 0140 6c2f 0140 813d 6c3d
000000b0: cae8 6140 8f0e 0d40 8f0e 0d40 8166 6d3d
116.753654 8.20608 0.75825936 0.03415523 129.29747 13.28311 1.3670458 0.032718226
1332.2728 646.69446 208.69646 21.25613 1088.027 303.56006 51.066612 5.325748
10.012092 10.012092 10.012092 0.24782576 10.377754 10.377754 10.377754 0.19514705
1.7138453 1.4747872 1.4747872 0.08359422 2.8707626 2.5596871 2.5596871 0.10954812
1.2027819 1.055919 1.055919 0.07863402 2.0113683 1.8003097 1.8003097 0.1119204
2.816485 2.0185194 2.0185194 0.057675842 3.5298333 2.2040136 2.2040136 0.057959083

exp_avg f4 [1, 6, 3, 4]
00000000: ae15 a33f 8681 ec3c 8666 67be a2bf 0d3d
00000010: 5760 3440 8f20 85be 947f 83bc 38f3 903d
00000020: 219b 1640 6966 7bbe e0fd 083c a093 5d3d
00000030: bc46 4cc0 c22b c5c0 7ce8 5cc0 9c7f 83bf
00000040: c01c 16c0 6224 cac0 7b0f 8ec0 61ac acbf
00000050: b3c0 33c0 68de e0c0 b61c 88c0 2a1f c4bf
00000060: 43a9 15bf 40a9 15bf 45a9 15bf fec7 aa3b
00000070: 5808 19bf 5908 19bf 5908 19bf 87b9 d0bc
00000080: 3bfb 6abf 39fb 6abf 38fb 6abf adc8 6dbd
00000090: cf8a e8be fbdf b4be fbdf b4be 80b3 20be
000000a0: 1f2d 0dbe 936f 54bd ae6f 54bd 27f1 2fbe
000000b0: 3b77 16bf 6fb7 03bf 6fb7 03bf 9729 2fbe
000000c0: 8b0c 7f3d fb77 bebd f777 bebd 5462 0abe
000000d0: 6768 013e 8bf8 c3bc bbf8 c3bc bbda 14bc
000000e0: b7ca 563c b765 1ebe b765 1ebe 081a 12be
000000f0: d17e c5be 3f60 21be 4160 21be ebcb abbd
00000100: 232b 87be 03e1 f1bd ffe0 f1bd 7a3d acbc
00000110: 643b 5bbe bb39 dabd c639 dabd 2e18 9f3c
1.2740991 0.028870355 -0.22597703 0.034606583 2.81838 -0.26001403 -0.016052045 0.0707764
2.3532183 -0.24550785 0.00836131 0.054095864 -3.1918173 -6.1615915 -3.4516897 -1.0273318
-2.3455048 -6.3169413 -4.4393897 -1.3490106 -2.8086364 -7.027149 -4.2535048 -1.532201
-0.584614 -0.5846138 -0.5846141 0.005211829 -0.59778357 -0.5977836 -0.5977836 -0.025479091
-0.917896 -0.91789585 -0.9178958 -0.058052707 -0.45418403 -0.35327134 -0.35327134 -0.15693474
-0.13786744 -0.051864218 -0.05186432 -0.17181836 -0.5877568 -0.5145177 -0.5145177 -0.17105709
0.06226782 -0.09300228 -0.09300225 -0.13514072 0.12637483 -0.023922225 -0.023922315 -0.0090853525
0.013109854 -0.15468489 -0.15468489 -0.14267743 -0.38573316 -0.15759371 -0.15759374 -0.08388504
-0.26400098 -0.11810496 -0.11810493 -0.021025408 -0.21409374 -0.106555425 -0.10655551 0.01942071

exp_avg_sq f4 [1, 6, 3, 4]
00000000: 824c 4343 5965 9641 ef95 e63f 4d16 083d
00000010: a8b3 3043 62e6 9641 a0a0 0640 b6a3 833d
00000020: 9a91 3543 2c40 8941 5880 0440 87f2 943d
00000030: f6b8 2245 74ae 5844 1a44 1d43 f17b 5241
00000040: af2d 2645 c3cc 7944 727f 5243 aa65 c741
00000050: 08ca 2d45 d10a 9b44 83c8 9143 5d59 0542
00000060: abf4 a741 aaf4 a741 acf4 a741 53dc be3e
00000070: a7db 6541 a6db 6541 a6db 6541 e96c 973e
00000080: 6145 6741 6145 6741 6145 6741 879d be3e
00000090: e893 bf40 be27 aa40 be27 aa40 8d55 293e
000000a0: 7449 a640 4322 9340 4222 9340 8f91 103e
000000b0: 68a6 6f40 3bdb 5140 3bdb 5140 918a e93d
000000c0: ae9f 8d40 f156 7f40 f356 7f40 54ca 613e
000000d0: 44a2 6840 99b6 5240 96b6 5240 d0ed aa3e
000000e0: 720e 6a40 ca3a 5640 cb3a 5640 ddeb f03d
000000f0: ddee 9640 6ecd 6540 6dcd 6540 6c38 e13d
00000100: 5425 9440 d0ef 6b40 d1ef 6b40 3d27 823c
00000110: cb3d b040 0ca4 8f40 0da4 8f40 7ce6 af3d
195.29886 18.799486 1.8014506 0.033224393 176.70178 18.862492 2.1035538 0.0642771
181.56876 17.156334 2.0703335 0.07272821 2603.56 866.7258 157.26602 13.155259
2658.8552 999.1994 210.49783 24.92464 2780.627 1240.338 291.5665 33.33727
20.994467 20.994465 20.994469 0.3727747 14.366126 14.366125 14.366125 0.2957528
14.454438 14.454438 14.454438 0.3722956 5.986805 5.3173513 5.3173513 0.16536541
5.1964664 4.5979323 4.597932 0.14118026 3.7445316 3.2790058 3.2790058 0.114033826
4.425742 3.9896815 3.989682 0.22049838 3.634904 3.2923949 3.2923942 0.33384562
3.6571317 3.3473382 3.3473384 0.11763737 4.716658 3.5906634 3.5906632 0.1099709
4.6295567 3.686512 3.6865122 0.01588785 5.507543 4.4887753 4.4887757 0.08588883

exp_avg f4 [1, 6, 4, 4]
00000000: c158 9440 119e abbe 3c90 c8be 1436 bf3d
00000010: b58b bf40 fc37 19bf 7aa1 56be 2ca1 913d
00000020: 5453 c140 ff5e bd3e 211b 2e3c df9d 713d
00000030: b1c7 9b40 5e6f a53d ead1 34be 2e21 a63d
00000040: 7822 8ec0 5d33 27c1 92e5 c8c0 6766 2ec0
00000050: 0547 97c0 fe0f 19c1 2518 99c0 6092 0cc0
00000060: ccb9 82c0 7644 08c1 e9cd 95c0 3683 fcbf
00000070: 3305 3cc0 b39e c7c0 1c64 3bc0 8cde 88bf
00000080: 9b80 5fbf 9c80 5fbf 9b80 5fbf 1a2e 863d
00000090: ee1d f3bf ee1d f3bf ef1d f3bf fb13 7cbd
000000a0: 2b72 61bf 2a72 61bf 2b72 61bf 8f69 63bd
000000b0: 09a1 a3bf 0aa1 a3bf 0aa1 a3bf 3598 e7bc
000000c0: cffc 99be b71b f2bd b91b f2bd 1948 46be
000000d0: 3851 49bf 61fc 2abf 61fc 2abf bcdf 88be
000000e0: 526e 2abf 0f86 18bf 0d86 18bf 843f 71be
000000f0: 0c7e 80be 250c 23be 1e0c 23be 02e9 22be
00000100: 6de6 5d3e 20d5 3a3d 18d5 3a3d ec4d 673e
00000110: 1975 bbbe 832d 08bf 832d 08bf 5ea4 25be
00000120: a77a ebba e438 46be e438 46be 748a c4bd
00000130: 66dd 193e 7773 1cbc 6e73 1cbc 1e1b febd
00000140: 2ae2 973d b2d4 8f3e b0d4 8f3e 31f9 34bd
00000150: 8205 f4be b8ee 8dbe b8ee 8dbe 7ce9 12bd
00000160: fd93 13bf ed5e eabe ec5e eabe 7035 4a3c
00000170: b646 33be bae8 e2bd bae8 e2bd 2919 7e3c
4.635834 -0.33519033 -0.39172542 0.093364865 5.985804 -0.5985105 -0.20960036 0.07110819
6.041422 0.3698654 0.010626585 0.05898845 4.8681264 0.08077882 -0.17658201 0.08111797
-4.4417076 -10.45004 -6.2780237 -2.7250001 -4.7274194 -9.566404 -4.7841973 -2.196434
-4.0851803 -8.516714 -4.6813855 -1.9727542 -2.9378173 -6.2381225 -2.9279852 -1.0692916
-0.8730561 -0.8730562 -0.8730561 0.06551762 -1.8993509 -1.8993509 -1.899351 -0.061542492
-0.8806483 -0.88064826 -0.8806483 -0.05552059 -1.2783519 -1.278352 -1.278352 -0.02827082
-0.3007569 -0.118216924 -0.11821694 -0.1936344 -0.78639555 -0.6679135 -0.6679135 -0.26733196
-0.66574585 -0.5957956 -0.59579545 -0.23559386 -0.25096166 -0.15922602 -0.15922591 -0.15909198
0.21669932 0.045613408 0.04561338 0.22588319 -0.36612776 -0.53194445 -0.53194445 -0.16175982
-0.001796563 -0.1935764 -0.1935764 -0.0959672 0.15025863 -0.009549013 -0.009549005 -0.12407516
0.07416184 0.2809196 0.28091955 -0.04418296 -0.47660452 -0.2772119 -0.2772119 -0.0358672
-0.5764769 -0.45775548 -0.45775545 0.012341842 -0.17507443 -0.11079545 -0.11079545 0.015508928

exp_avg_sq f4 [1, 6, 4, 4]
00000000: 7091 be43 bb6c 0a42 5509 8940 df7b ad3d
00000010: 1390 c843 7446 ff41 34c6 6540 9472 103e
00000020: 3a1c b543 445d 0942 84c3 6740 a1af d33d
00000030: c81f b143 7584 0a42 0725 7840 d41b ca3d
00000040: 5696 b545 56fc 0d45 d42e 0744 da5a 7942
00000050: 83ca b245 9000 0945 3904 0544 9890 7442
00000060: eb58 b145 df1b 0845 f09b fb43 cec1 6042
00000070: 21f6 b245 37ff 0b45 0b10 fc43 420b 5a42
00000080: 29a6 1142 2aa6 1142 29a6 1142 adaf 083f
00000090: 71bc f841 70bc f841 70bc f841 f8dc e33e
000000a0: 3f7c 0f42 417c 0f42 407c 0f42 a1cb f53e
000000b0: da20 f841 d820 f841 d820 f841 41da 073f
000000c0: b43a 0441 c9b2 e940 c9b2 e940 0e71 713e
000000d0: 2b48 e740 cf8f cb40 d08f cb40 8934 713e
000000e0: abe5 ea40 3721 d040 3721 d040 b131 8d3e
000000f0: 7d8e df40 55f5 c540 55f5 c540 bb7d 763e
00000100: 07a4 0241 b41a f140 b41a f140 263f 663f
00000110: 36c3 cf40 8074 bd40 7f74 bd40 2739 b23e
00000120: 1ced d940 e969 c640 e969 c640 af66 f33e
00000130: 668e 0341 9119 f140 9119 f140 9a89 883e
00000140: 54d1 0841 a1e3 dc40 a0e3 dc40 136b 1c3e
00000150: 0452 1141 69a6 e740 68a6 e740 5899 153e
00000160: 22ae 0c41 bda6 db40 bda6 db40 7fed 2d3e
00000170: 5049 0941 8b1e dc40 8a1e dc40 4129 1d3e
381.13623 34.606182 4.282389 0.08470892 401.12558 31.9094 3.5902224 0.14106208
362.22052 34.34108 3.6213083 0.10336233 354.2483 34.629353 3.87726 0.09868589
5810.792 2271.771 540.7317 62.338722 5721.314 2192.0352 532.066 61.141205
5675.1147 2177.742 503.21826 56.189262 5726.766 2239.951 504.12534 54.510994
36.412266 36.41227 36.412266 0.5339306 31.092012 31.09201 31.09201 0.44504523
35.871334 35.87134 35.871338 0.4800692 31.01604 31.016037 31.016037 0.53067404
8.264332 7.3030744 7.3030744 0.23578283 7.2275596 6.3613048 6.361305 0.23555197
7.3405356 6.5040545 6.5040545 0.27576974 6.9861436 6.1861978 6.1861978 0.240714
8.165046 7.5345097 7.5345097 0.89940107 6.4925795 5.920471 5.9204707 0.3480923
6.810194 6.2004285 6.2004285 0.4753928 8.222265 7.534371 7.534371 0.26667482
8.5511055 6.9027867 6.9027863 0.1527522 9.082523 7.2390637 7.2390633 0.14609277
8.792513 6.864104 6.864104 0.16985129 8.580399 6.8787284 6.878728 0.15347768

exp_avg f4 [76, 130]
00000000: 066e b33c 6cea d73c 6e00 eebc 5326 89bd
00000010: 8f5d 96bd fd61 90bb 9579 01be 3735 bcbd
00000020: 9ac4 15bd fd64 233c 7662 1d3d d972 243c
00000030: 4c4b 39bd ac80 a8bd f515 89bd 6428 4bbd
00000040: ca2e 26bd 9d4a 56bd c971 1a3d 0740 1bbd
00000050: 6eef aabd fae9 f3bd 6b87 84bd e59e bc3b
00000060: 4eba aabd 3130 ecbc e1d4 7bbd 1e09 80bd
00000070: f11d 87bc e14f 8b3c cff5 66bd 2ccf cf3b
00000080: db47 aabc c170 16bd 5940 3fbd f0a1 cbbd
00000090: 111f b6bd de1a 81bd d8e6 2abd a6f0 9cbc
000000a0: 94f9 66bc da94 26bd 75f1 41bc 8c33 47bd
000000b0: 19df 83bd 6557 66bd 4248 69bd 0bfb afbc
000000c0: c00c 4dbd 84d1 0cbd c000 fd3c 5254 ecbd
000000d0: adf3 0bbd 434f 05be f0fd a7bc 9283 23bd
000000e0: be20 52bd bb3d fe3c f6f8 1abd 9eea 61bd
000000f0: e26f 4d3c 1eba 7cbd c12e 02bd 7d4d 8fbd
00000100: ec0f ac3c 9ad6 22bd e358 63bd c6c9 e53c
00000110: 73dd b0bc 80fb 8fbd 9835 71bd b7b9 15bd
00000120: 90b5 38bd 1bdb 2ebd f996 f6bc 336e 5dbc
00000130: 0f14 cabb 218e d6bb a814 a3bc 1a73 8cbd
00000140: e046 20bd 8331 b6bc d5fe acbd f863 34bd
00000150: 743e 873c 123f f63b 90cd 45bd 6425 bcbd
00000160: 344a 69bd afbc 21bd 9af2 12bd 4dd6 04bd
00000170: 1ec6 37bd 240e f2bc 8f6c f93b 02ec 3d3c
00000180: 26ed 0dbd 5d6a e2bc fca3 f9bb d17c 94bc
00000190: b32c 09bd d961 adbc 67d2 7cbd a037 49bd
000001a0: 618f 6bbd 6fce b9bd 486d 78bd 9784 0abd
000001b0: 84eb 0fbd ed5b b2bc 6e80 38bd 4c3d 7abd
000001c0: 7a0c 94bd ebd2 4fbd bdad 02bd 18d1 bcbc
000001d0: 70e0 3cbd 8d4e 60bd 3c59 99bd 5e73 91bd
000001e0: 2c02 a8bd c130 0ebd a837 ecbc 2c77 34bd
000001f0: 099e bdbc d1c8 f1bc 7fcc 65bd 8aff f0bc
00000200: 6dcb 10bd 52c3 ebbc a636 53bc 4708 31bd
00000210: d29d 58bc 971f db3c 2ea6 3e3c 81d7 1bbc
00000220: 206a 99bc 6b88 e63c 880f 5b3c 3ab2 483c
00000230: e59f 853c 7524 f63c 6bca 16bb 2c39 d5bc
00000240: bb3f 65bc 1d79 54bc cf74 a63c f781 abbc
00000250: bced bbbc 78d4 47bc 5546 e6bc dc13 973c
00000260: c188 0d3a 973d 103d f5ac b83c b6eb eb38
00000270: 647a 1b3b 9492 4f3d cd9c e73c 633c b73b
00000280: 6d80 85bc 0490 513c fc6c e23c c3b9 ee3b
00000290: 5419 cdbc 4ba7 50bb 3ea5 e83c 5bdc b73c
000002a0: a837 b6bc 850d 083d a390 003c a294 c6bb
000002b0: cb26 2e3d c5f1 983c 938b 843b f43a 903c
000002c0: 6b08 f43c 5706 833b cd6b d73c 887a ec3c
000002d0: 6ee0 68bb 2efe a1bc 7823 113c ca9e f33c
000002e0: e762 153d 4f90 29bc 7da6 64bc e430 153d
000002f0: 64e9 693d 4a42 c63a 582c 10ba 9b84 4fbc
00000300: 2a37 203d e446 40bc 6a2c 033d a541 ca3c
00000310: 558f 403c 8720 a3bc 0da1 e2bc 4b5d 053c
00000320: cacc c53c b293 5abb e3e1 743b 2715 8d3c
00000330: 356a a73b bc30 1e3b ea3c d23c 4da4 063d
00000340: 299f 603c 5208 bcbc c100 30bd b5f3 0dbd
00000350: 4c08 43bc 67b5 babc e0ab b4bc ef5a bcbc
00000360: dae4 9fbc 0926 a93b 914d 053d 115c d73c
00000370: 342d d33b b3ce 993c b3d3 2b3d 312d 373d
00000380: 0d35 d33c 3aaf b43c 3407 4f3a ce7f 113a
00000390: 70bf 843c 9bad 1fbc 8ca7 a03a efed 913b
000003a0: 1a7a 923b 5e4e 7db9 f028 adbb a12d 45bc
000003b0: 1c4e 4c3c 950c a83b 4fe3 c3ba 3627 28bc
000003c0: b61e 7abc 15a3 f7bc 44ee 80bc ac49 94bb
000003d0: aae2 e6ba b3af 983b 6ff1 9bbb 76ce d7bb
000003e0: cd26 2c3b deed ebbb 1e91 173b d38d 0a3c
000003f0: 3acf e83c c258 8b3c 0f21 58bb a186 28bc
0.02190305 0.026356898 -0.02905294 -0.06696763 -0.07342064 -0.0044062124 -0.12644036 -0.091898374
-0.036564447 0.009972808 0.038423978 0.010037147 -0.045237824 -0.08227667 -0.06693641 -0.049599066
-0.040571965 -0.05231725 0.03770617 -0.037902858 -0.08346449 -0.11909862 -0.064711414 0.0057562464
-0.08336316 -0.028831573 -0.061482314 -0.06251739 -0.01649377 0.017005863 -0.056386765 0.0063418355
-0.020786216 -0.036728624 -0.046692226 -0.099429965 -0.08892644 -0.06303953 -0.041724056 -0.019157719
-0.01409759 -0.0406693 -0.011837353 -0.048633143 -0.06439037 -0.05623569 -0.056953676 -0.021482011
-0.050060987 -0.034379497 0.030884147 -0.1153952 -0.034167934 -0.13018517 -0.020506829 -0.039920397
-0.051300757 0.031035295 -0.037835084 -0.05515539 0.012538882 -0.061700933 -0.03178287 -0.069972016
0.021003686 -0.03975544 -0.05550469 0.028050315 -0.02158997 -0.07030392 -0.058889 -0.036554065
-0.045095026 -0.042689424 -0.030101286 -0.013515043 -0.006166942 -0.006547705 -0.01990731 -0.068578914
-0.03913009 -0.022240406 -0.08447043 -0.04404065 0.016509272 0.007514843 -0.048291743 -0.09186819
-0.05695553 -0.039486583 -0.035875894 -0.032430936 -0.044866674 -0.029547758 0.007611818 0.011591913
-0.03464999 -0.027638609 -0.0076184254 -0.018125923 -0.033489894 -0.021164821 -0.061724093 -0.049125314
-0.057509784 -0.09072577 -0.060651094 -0.033817854 -0.035136715 -0.02177235 -0.045044355 -0.061093614
-0.07228942 -0.050738256 -0.03190397 -0.023048922 -0.046112478 -0.05476241 -0.07487723 -0.07102083
-0.08203539 -0.034714464 -0.028835133 -0.044058964 -0.023146646 -0.029514702 -0.056103226 -0.029418726
-0.035350252 -0.02877966 -0.012891447 -0.043220785 -0.013221221 0.026748462 0.0116363 -0.009511829
-0.018727362 0.028141221 0.013370402 0.012249524 0.016311595 0.030046681 -0.0023008834 -0.026028238
-0.013992245 -0.012968329 0.02031937 -0.020935996 -0.022940509 -0.012196653 -0.028109709 0.018442087
0.0005399101 0.035214987 0.02254341 0.00011249578 0.0023724074 0.050676897 0.02827301 0.0055919155
-0.01629659 0.012790684 0.027639858 0.007285328 -0.025036491 -0.0031837996 0.028399106 0.02244394
-0.022243336 0.03321602 0.007846984 -0.006060199 0.042517465 0.018669972 0.004044959 0.017606236
0.02978917 0.0039985585 0.02629652 0.028867021 -0.003553416 -0.019774523 0.008858554 0.029738802
0.036471274 -0.010349347 -0.0139557095 0.03642358 0.057107344 0.0015125957 -0.0005499772 -0.012665893
0.03911511 -0.011735652 0.03202478 0.024689505 0.011752923 -0.019912971 -0.027664686 0.008139919
0.024145503 -0.0033352193 0.0037366084 0.017222 0.0051090964 0.0024137935 0.025663812 0.032871533
0.013709822 -0.022953186 -0.04296947 -0.034656245 -0.011903834 -0.022791578 -0.022054613 -0.02299258
-0.019518305 0.005162005 0.032544676 0.026289018 0.0064445976 0.01877532 0.04194994 0.044720832
0.025782133 0.02205621 0.00078974967 0.00055503554 0.016204566 -0.009745981 0.0012256964 0.0044534127
0.004470122 -0.00024157154 -0.005284421 -0.012034805 0.012469795 0.005128453 -0.0014945063 -0.010263255
-0.015266111 -0.03022913 -0.015738614 -0.004525384 -0.0017615159 0.004659617 -0.0047590057 -0.0065858914
0.0026268244 -0.007199987 0.0023127268 0.008456665 0.028419126 0.017010096 -0.0032978689 -0.010286004
