TrainedModel/Dueling DQN-1/26000_0-085_DuelingDQN.pth (torch, 291221 bytes, 33 tensors)

conv1.weight f4 [1, 6, 1, 4]
1.3911407 0.46207288 0.3310556 0.5266906 0.20071459 0.18361367 0.29391322 0.25910443
0.13169736 0.06596446 -0.29098275 -0.3785432 -0.011743142 0.33113638 -0.47469074 -0.14739043
-0.09188272 -0.089077584 -0.15284397 -0.45007846 0.05206156 0.06569775 -0.3267624 -0.46260977
00000000: e610 b23f d194 ec3e 1f80 a93e 32d5 063f
00000010: 2088 4d3e 3905 3c3e cb7b 963e 56a9 843e
00000020: acdb 063e 6018 873d b1fb 94be 6ad0 c1be
00000030: 4f66 40bc b58a a93e aa0a f3be 84ed 16be
00000040: 022d bcbd 4f6e b6bd 2183 1cbe af70 e6be
00000050: 813e 553d 8b8c 863d 674d a7be 30db ecbe

conv2.weight f4 [1, 6, 2, 4]
-0.0795944 0.04341528 0.18683669 0.38951346 -0.1901593 0.67661685 0.60380024 -0.61409473
0.19507915 0.4992267 0.33758524 -0.20393017 -0.021064289 -0.54042536 -0.5180809 -0.11761648
0.678899 0.41797993 0.4048029 -0.35162565 0.19665906 -0.1635559 0.40728816 -1.0439487
-0.08091944 -0.23262797 0.19789806 0.14876015 0.02715822 -0.22290777 0.35285786 -0.07679755
-0.0008548367 -0.20650087 0.36234108 0.26309326 -0.042709183 0.22116739 -0.03861221 -0.30754593
0.22502942 0.1571466 -0.12504423 0.3188229 -0.08860619 0.012626656 -0.007537789 -0.10194933
00000000: 6402 a3bd 38d4 313d 1e52 3f3e 4f6e c73e
00000010: 1fb9 42be c336 2d3f a792 1a3f 5035 1dbf
00000020: d4c2 473e a49a ff3e f9d7 ac3e 12d3 50be
00000030: 048f acbc 5159 0abf f3a0 04bf e9e0 f0bd
00000040: 53cc 2d3f 7701 d63e 5342 cf3e 4708 b4be
00000050: fe60 493e 337b 27be 1388 d03e 1ca0 85bf
00000060: 17b9 a5bd 0736 6ebe caa5 4a3e 9554 183e
00000070: ea7a de3c ef41 64be c9a9 b43e 0948 9dbd
00000080: 1f17 60ba f774 53be c584 b93e 29b4 863e
00000090: d3ef 2ebd b479 623e d627 1ebd a976 9dbe
000000a0: 1d6e 663e 0aeb 203e 980b 00be c13c a33e
000000b0: 2a77 b5bd 09e0 4e3c 8fff f6bb cfca d0bd

conv3.weight f4 [1, 6, 3, 4]
0.35446694 0.29912826 -0.050078 0.10444985 0.4360689 0.8423399 -0.09696399 0.540641
0.11795994 0.62886083 0.17131855 0.4204987 -0.1472138 -0.21878071 -0.113458656 -0.06770999
-0.027425308 -0.07286031 -0.06555822 -0.051106848 0.1008239 0.21522847 0.011452494 -0.036458146
0.059988763 -0.0747478 -0.073493764 0.19844463 -0.19785759 0.08924937 -0.01577148 0.14345296
0.16192 -0.21940081 0.13278727 0.41852927 -0.15709376 0.09714051 0.1621061 0.03795122
0.12827419 0.14614317 -0.16084158 -0.052488968 0.029638583 -0.1367752 0.12213403 0.1679402
-7.403521e-05 0.05481114 0.08219624 -0.22982651 0.10037374 -0.33025235 0.16064288 0.047975168
-0.04762087 0.20900054 -0.15441811 0.029971378 -0.06022418 0.011299638 0.03848802 0.082612015
-0.122336514 0.057397515 0.10858855 -0.31478485 0.1558129 -0.070286 0.17909606 0.39542425
00000000: b17c b53e 5727 993e 971e 4dbd cee9 d53d
00000010: 6c44 df3e 96a3 573f 0e95 c6bd 7367 0a3f
00000020: fb94 f13d 06fd 203f 216e 2f3e 9b4b d73e
00000030: 37bf 16be 0d08 60be 035d e8bd 89ab 8abd
00000040: 0aab e0bc c937 95bd 6343 86bd 6a55 51bd
00000050: c37c ce3d da64 5c3e 3ea3 3b3c 2355 15bd
00000060: c7b6 753d 6015 99bd e683 96bd 1235 4b3e
00000070: 2e9b 4abe 60c8 b63d 3133 81bc 55e5 123e
00000080: 5bce 253e 9baa 60be 63f9 073e 7849 d63e
00000090: 30dd 20be 9bf1 c63d 24ff 253e bd72 1b3d
000000a0: 4f5a 033e 8ea6 153e a8b3 24be acfe 56bd
000000b0: 9dcc f23c cc0e 0cbe 6821 fa3d 84f8 2b3e
000000c0: 5a43 9bb8 a581 603d 8156 a83d a457 6bbe
000000d0: bf90 cd3d d616 a9be 917f 243e 9c81 443d
000000e0: 1a0e 43bd 3d04 563e c81f 1ebe 8986 f53c
000000f0: a1ad 76bd 1e22 393c 9da5 1d3d 7d30 a93d
00000100: 918b fabd a819 6b3d ac63 de3d 7b2b a1be
00000110: 6b8d 1f3e 1bf2 8fbd f564 373e 0c75 ca3e

conv4.weight f4 [1, 6, 4, 4]
0.3501078 -0.10916304 0.1078609 0.105435565 0.39354402 -0.48170808 -0.15238112 -0.062059145
0.082644776 -0.119499706 -0.0505536 0.16333768 0.3564491 -0.42145738 -0.15955997 0.20240615
0.11095988 0.14110416 0.05334757 -0.01241619 -0.0808679 -0.041098274 0.02212928 0.033878587
-0.03528686 -0.09006403 -0.06152724 -0.037272003 -0.06631759 -0.069279134 -0.090106286 -0.08921945
0.04717263 -0.12665598 0.1119811 0.06934305 0.12162203 -0.01705706 -0.11359854 0.108940125
0.23926705 -0.19879474 -0.02059855 0.10024939 -0.27560392 0.13661125 0.022507813 0.273343
-0.026965784 -0.1404549 -0.022566527 0.23080167 -0.07150337 0.09997645 -0.067124195 0.016890181
0.16159396 0.008903811 -0.013274245 -0.1759387 0.08354117 0.02715062 0.13353705 0.053932074
-0.06171564 -0.115886085 0.03857599 -0.13399532 -0.025403988 -0.06356191 0.023820465 -0.16433145
0.007441425 -0.11161649 0.12943006 0.22451599 0.085762 -0.04176586 0.18831871 -0.19625601
-0.004490667 0.06541411 -0.026362257 0.047144923 0.13662651 -0.023747437 -0.2032516 0.077636145
-0.08991951 -0.03824872 0.14885439 0.06816032 -0.10610506 0.022990683 0.027020704 -0.020989707
00000000: 5441 b33e df90 dfbd 2de6 dc3d 9aee d73d
00000010: 9a7e c93e 71a2 f6be cc09 1cbe bb31 7ebd
00000020: aa41 a93d 43bc f4bd 4b11 4fbd fe41 273e
00000030: 7f80 b63e 43c9 d7be b063 23be 8f43 4f3e
00000040: ef3e e33d 9c7d 103e fb82 5a3d 466d 4bbc
00000050: 129e a5bd aa56 28bd 7748 b53c 46c4 0a3d
00000060: f488 10bd 7d73 b8bd fd03 7cbd 87aa 18bd
00000070: 84d1 87bd 38e2 8dbd a589 b8bd b0b8 b6bd
00000080: 1638 413d 1bb2 01be 5956 e53d bb03 8e3d
00000090: f914 f93d 3fbb 8bbc 5aa6 e8bd 001c df3d
000000a0: 6c02 753e d990 4bbe 4abe a8bc 8d4f cd3d
000000b0: f51b 8dbe d2e3 0b3e 4e62 b83c 9df3 8b3e
000000c0: 59e7 dcbc 69d3 0fbe 70dd b8bc 4657 6c3e
000000d0: 5c70 92bd 74c0 cc3d 6978 89bd 475d 8a3c
000000e0: e378 253e 4ae1 113c 387c 59bc 4629 34be
000000f0: a217 ab3d fa6a de3c f0bd 083e e1e7 5c3d
00000100: 8ac9 7cbd af55 edbd db01 1e3d 1236 09be
00000110: 061c d0bc bf2c 82bd 2323 c33c 8146 28be
00000120: 33d7 f33b 3097 e4bd 5089 043e 85e7 653e
00000130: fda3 af3d ae12 2bbd 9fd6 403e 56f7 48be
00000140: 7226 93bb d5f7 853d a9f5 d7bc 091b 413d
00000150: d2e7 0b3e fc89 c2bc 3021 50be b3ff 9e3d
00000160: b827 b8bd b1aa 1cbd 496d 183e a397 8b3d
00000170: 9c4d d9bd f556 bc3c 865a dd3c 9bf2 abbc

fc3_adv.weight f4 [76, 130]
0.10770331 -0.012542402 -0.08900871 -0.15004443 -0.14267376 -0.11455928 0.19536892 0.06390575
0.12784182 -0.037171967 -0.121967845 -0.0125356 0.25949496 0.21458401 0.10294279 0.029749425
0.033204664 -0.0643064 0.18628691 0.19768545 0.4394082 -0.37289038 -1.4132223 -0.80498934
-0.88460183 -0.8910134 -0.37818375 0.14820112 0.16342735 -0.024612712 0.06607504 0.005190664
0.20353098 0.0482118 -0.08170897 0.19316009 0.4286576 0.34027445 0.051964127 0.41070896
0.16600202 0.45943624 0.19264352 0.6842296 0.2503534 0.38750428 0.2838659 0.7368835
0.5356888 0.20278639 0.17511542 0.24039501 -0.08381248 -0.07851039 0.29252565 0.3585414
-0.12497241 0.06997449 0.27451032 0.22658291 0.53988284 0.44239074 0.11867999 -0.013735345
-0.09322758 0.17983276 0.51854354 0.39414006 0.20152941 0.19794217 0.28322637 0.044680767
0.028878398 0.38778508 0.244999 -0.014441538 0.24328414 0.19266433 -0.0118756 0.28806195
0.033078413 0.122631736 -0.038191397 0.24449545 0.08067808 -0.03473039 0.18767202 0.118291885
-0.7991267 -1.2372869 -1.0263102 -0.90837604 -0.73854584 -0.027817607 0.033953797 0.16135395
-0.093289174 0.14223619 0.020798188 0.06744505 0.29930145 0.022869948 0.07067137 -0.025319234
0.17249821 0.13039075 0.0033711377 0.0014755595 0.24741308 0.010156552 0.15026085 -0.05946052
0.09404665 -0.17841452 0.1299022 0.4256902 0.45630097 -0.103571795 0.1423259 -0.041609216
-0.49830952 -0.37833568 -0.33909416 -0.36155158 -0.49574906 0.019372681 0.11376542 0.13292164
0.016600462 0.30907393 0.21808657 0.3703038 0.14884086 0.26151237 0.17248632 0.23415236
-0.027947051 0.16315001 0.40095794 0.2523516 0.28875637 0.3311001 0.4671512 0.15097773
-0.011033707 0.27387968 0.30621606 0.4443543 0.06516466 0.123214215 0.40998644 0.2658571
-0.020904304 0.10304303 0.32837695 0.4211846 0.18784925 0.04660872 0.13140015 0.15419467
0.59173346 0.22217642 0.2939256 0.16503787 -0.008599716 -0.14073436 -0.16065595 -0.0058033355
0.02456812 -0.21647044 -0.09916042 -0.025359394 -0.0035197786 -0.06411124 0.029211374 0.06495241
0.29009688 0.06736343 -0.028505024 -0.1742063 0.02993594 -0.28185213 -0.2618125 -0.09029988
-0.11120884 -0.13532609 0.073775105 0.0847002 -0.05480478 -0.010610164 -0.13322169 0.2137733
-0.2915243 0.0020254415 -0.027451048 0.043134674 0.19227378 0.063880846 0.057724256 0.2616637
0.078043886 0.25629127 0.04517635 -0.084063694 0.025276223 0.11976195 0.095396675 -0.03623219
-0.018725641 0.39728603 0.10269502 -0.17321134 -0.041455373 0.04429392 -0.0013690722 0.12516339
-0.014905949 0.12737218 0.18376113 -0.029822001 0.19683933 0.29214007 0.009074318 -0.15822104
-0.24398352 -0.09669943 -0.17419532 0.07363691 0.122505225 -0.020181715 -0.26967046 0.038999625
-0.1706708 -0.11143361 -0.16940226 0.06288734 -0.1167574 -0.018387787 0.00042331868 -0.024363194
-0.1990854 -0.02216588 0.06738071 -0.054178722 -0.13711561 -0.15174955 0.21184704 -0.0029617052
-0.066321775 -0.10787253 -0.20234738 -0.10292256 -0.18279628 0.20266801 0.043485124 0.25674105
00000000: 8e93 dc3d a67e 4dbc 334a b6bd 3fa5 19be
00000010: 1219 12be 0e9e eabd ca0e 483e 05e1 823d
00000020: f7e8 023e a241 18bd 47ca f9bd 1e62 4dbc
00000030: 86dc 843e e9bb 5b3e abd3 d23d 11b5 f33c
00000040: 9d01 083d 13b3 83bd ffc1 3e3e 0e6e 4a3e
00000050: 1dfa e03e 7deb bebe 78e4 b4bf c813 4ebf
00000060: 4475 62bf 7419 64bf 4da1 c1be 09c2 173e
00000070: 8059 273e 99a0 c9bc 5a52 873d 7216 aa3b
00000080: 6d6a 503e bd79 453d 0857 a7bd c2cb 453e
00000090: 0279 db3e 7438 ae3e 56d8 543d 7248 d23e
000000a0: 6ffc 293e 3a3b eb3e 5844 453e ac29 2f3f
000000b0: 522e 803e f666 c63e df56 913e 66a4 3c3f
000000c0: e722 093f 3ca7 4f3e 7551 333e 1c2a 763e
000000d0: e1a5 abbd 0eca a0bd ecc5 953e bd92 b73e
000000e0: 89f1 ffbd c94e 8f3d 9e8c 8c3e 5a05 683e
000000f0: c335 0a3f 0a81 e23e 7f0e f33d 360a 61bc
00000100: 1aee bebd 1426 383e 45bf 043f bacc c93e
00000110: ba5d 4e3e 5ab1 4a3e 0c03 913e 2e03 373d
00000120: 6492 ec3c c48b c63e 05e1 7a3e 339c 6cbc
00000130: 7a1f 793e cc49 453e e091 42bc db7c 933e
00000140: 3b7d 073d 5926 fb3d 956e 1cbd 045d 7a3e
00000150: 8d3a a53d 7441 0ebd 182d 403e 0443 f23d
00000160: 9193 4cbf 6b5f 9ebf 225e 83bf 558b 68bf
00000170: 5711 3dbf c0e1 e3bc 2313 0b3d f839 253e
00000180: 650e bfbd 5da6 113e f660 aa3c a120 8a3d
00000190: 0a3e 993e c259 bb3c 27bc 903d 486a cfbc
000001a0: 5fa3 303e 2785 053e 4eee 5c3b 9067 c13a
000001b0: db59 7d3e ab67 263c fbdd 193e e08c 73bd
000001c0: 889b c03d 4cb2 36be 1505 053e 11f4 d93e
000001d0: 48a0 e93e 731d d4bd e1bd 113e 6d6e 2abd
000001e0: 6d22 ffbe 37b5 c1be c09d adbe 4a1d b9be
000001f0: d2d2 fdbe 75b3 9e3c d8fd e83d 9c1c 083e
00000200: b1fd 873c f03e 9e3e 1652 5f3e 7698 bd3e
00000210: bd69 183e f3e4 853e 41a0 303e a3c5 6f3e
00000220: 37f1 e4bc cc10 273e 5c4a cd3e 3b34 813e
00000230: e0d7 933e f485 a93e 712e ef3e e899 1a3e
00000240: b9c6 34bc f539 8c3e 5ac8 9c3e 6882 e33e
00000250: 0d75 853d bc57 fc3d bee9 d13e 6c1e 883e
00000260: 813f abbc 3908 d33d 0621 a83e 82a5 d73e
00000270: 8e5b 403e c9e8 3e3d c38d 063e 35e5 1d3e
00000280: d87b 173f 3782 633e 6b7d 963e b0ff 283e
00000290: d3e5 0cbc ab1c 10be fe82 24be e829 bebb
000002a0: 1543 c93c 6daa 5dbe 9e14 cbbd 81be cfbc
000002b0: 16ac 66bb c14c 83bd b14c ef3c c505 853d
000002c0: 9487 943e d7f5 893d 5e83 e9bc 2363 32be
000002d0: 373c f53c ec4e 90be 4a0c 86be 25ef b8bd
000002e0: 76c1 e3bd ec92 0abe 6717 973d 4c77 ad3d
000002f0: fa7a 60bd 41d6 2dbc 446b 08be 63e7 5a3e
00000300: ac42 95be 45bd 043b 05e1 e0bc fcad 303d
00000310: 6be3 443e f6d3 823d 4570 6c3d c9f8 853e
00000320: 79d5 9f3d 9c38 833e d60a 393d 9629 acbd
00000330: 1510 cf3c c145 f53d 555f c33d 3468 14bd
00000340: 8466 99bc 1369 cb3e c451 d23d 505e 31be
00000350: 1ccd 29bd 8b6d 353d 7172 b3ba d52a 003e
00000360: 1538 74bc da6d 023e e12b 3c3e 454d f4bc
00000370: 4090 493e 6293 953e 73ac 143c b204 22be
00000380: d1d6 79be 5a0a c6bd 4260 32be f3ce 963d
00000390: 05e4 fa3d 2054 a5bc 3f12 8abe 12be 1f3d
000003a0: 54c4 2ebe 4e37 e4bd c977 2dbe 14cb 803d
000003b0: 811e efbd fca1 96bc dff0 dd39 5295 c7bc
000003c0: 0bdd 4bbe 3895 b5bc e6fe 893d 82ea 5dbd
000003d0: 0968 0cbe 3c64 1bbe 6eee 583e 2b19 42bb
000003e0: b6d3 87bd 46ec dcbd 2734 4fbe 10c9 d2bd
000003f0: f32e 3bbe 3488 4f3e 751d 323d 9073 833e

fc3_adv.bias f4 [76]
0.19382696 0.09492573 -0.10743371 0.22417143 0.17586213 0.28843385 0.13493863 0.04769607
0.08531449 0.12227714 0.0011895807 0.06453004 0.07120072 0.07658 1.0135258 0.101780206
0.10736246 0.1819228 0.06813341 0.23457602 0.04827981 -0.0034092197 0.29394263 0.15713122
0.038469814 0.11606209 0.07545446 -0.13058047 0.09844926 0.057790313 0.21870986 -0.012565985
0.25375867 0.15355271 0.03296182 -0.0087645305 0.06846846 0.03074601 0.11515746 0.07637913
0.15750666 0.05410302 0.043238487 0.020661067 0.100223966 0.1203503 0.19218494 0.1804268
0.1395395 0.1856745 0.2588942 0.15126072 -0.04702371 0.0629804 0.069056034 0.04914154
0.06300212 0.04643689 0.13369091 0.0655706 -0.034459893 0.106783226 0.038453143 0.10140013
0.17632419 0.120972 0.035657402 0.02996705 0.019890944 0.008944839 0.07963931 -0.023225421
0.13002943 0.03938781 0.20647827 0.14514741
00000000: 937a 463e 6c68 c23d 3406 dcbd 328d 653e
00000010: 3415 343e 9aad 933e 5a2d 0a3e f45c 433d
00000020: 5db9 ae3d 706c fa3d b4eb 9b3a 5328 843d
00000030: afd1 913d fad5 9c3d 37bb 813f 2472 d03d
00000040: d9e0 db3d f849 3a3e 8789 8b3d b234 703e
00000050: 0dc1 453d 376d 5fbb a67f 963e 02e7 203e
00000060: 8692 1d3d f6b1 ed3d de87 9a3d e3b6 05be
00000070: c49f c93d 89b5 6c3d 7af5 5f3e 90e1 4dbc
00000080: a8ec 813e ec3c 1d3e f902 073d 1b99 0fbc
00000090: 3139 8c3d 0edf fb3c add7 eb3d a96c 9c3d
000000a0: 6d49 213e 219b 5d3d d71a 313d 6641 a93c
000000b0: 3942 cd3d 387a f63d 21cc 443e cec1 383e
000000c0: 71e3 0e3e 7521 3e3e c88d 843e 17e4 1a3e
000000d0: ef9b 40bd defb 803d 406d 8d3d a448 493d
000000e0: 4107 813d 9c34 3e3d 45e6 083e e149 863d
000000f0: d125 0dbd 2ab1 da3d 0b81 1d3d dfaa cf3d
00000100: 548e 343e 2bc0 f73d 7f0d 123d 757d f53c
00000110: 55f2 a23c 608d 123c ef19 a33d 3d43 bebc
00000120: 6f26 053e 1d55 213d 0a6f 533e 86a1 143e

fc3_val.weight f4 [76, 130]
0.10578473 0.01130615 -0.0030867278 0.050179895 0.067481115 0.0807262 -0.067876406 0.026323052
0.15545411 0.21360822 0.06701685 -0.09757991 0.035545714 -0.030881358 0.06324899 -0.12232643
0.24726504 -0.112477824 0.07306412 -0.14819658 -0.11803712 0.052031934 -0.031242484 -0.011727358
0.04864692 0.14004953 0.08036784 -0.088583015 0.23008724 0.21498358 0.05940439 -0.014183384
0.3415494 0.12859754 0.19853927 0.18468484 0.04180868 0.22150844 0.027944269 0.1287924
0.17134397 0.24369778 0.08641426 -0.00507411 0.33604658 0.050734576 0.01945953 0.14680552
0.23217708 0.17424059 0.106029116 0.30358678 0.031095158 0.20799279 0.13268794 0.11145003
0.0002644537 0.1342663 0.07547831 0.06416667 0.07442621 0.24567343 -0.00051941763 0.1443746
0.06371632 0.13755372 0.14455374 0.064481445 0.054622825 0.1899227 -0.055837493 0.000229667
0.08969367 0.28441957 0.1393015 0.18945351 0.14126806 0.2644082 0.06879608 0.05218103
-0.009795644 0.0061618546 -0.043140728 0.058278706 0.14761129 0.10976574 0.17197691 0.11617179
0.2520762 0.04678332 0.14978889 0.07990564 -0.01788041 0.024113378 0.045190055 0.071789704
0.20976269 0.18663476 0.11507962 0.29612243 0.17924646 0.2269918 -0.012894145 0.052973762
0.32679248 0.1789509 0.1700028 0.24964815 0.086714625 0.08167265 0.20174144 0.06304491
0.18925932 0.23196322 0.15098108 0.012630321 0.3433851 0.26280656 0.26935127 0.38363642
0.19445245 0.2677057 0.16267845 0.2951497 0.22410661 0.4411088 0.345452 0.24530056
0.35621178 0.20221348 -0.067224525 0.11144036 0.119754165 -0.021468613 0.034774233 -0.09433596
0.07958302 -0.017759375 -0.056537353 0.011551603 0.1692515 0.015798585 0.1375941 0.15920573
-0.14989622 0.16820836 0.14906886 0.19439207 0.058455955 -0.16448851 -0.011261075 -0.068885945
0.18093255 0.034479238 0.032481622 -0.052683633 -0.07416598 0.18830223 -0.05091999 -0.03344117
0.13890283 0.15126431 0.05182409 -0.06457898 0.13644812 0.07775523 0.1617115 0.20165648
0.009359677 0.31878144 0.08687986 0.03933517 0.08272126 -0.054009106 0.1418351 0.28376982
0.23485947 0.016615307 0.2726052 0.18968935 0.25677857 0.15243462 0.23396902 -0.048155993
0.12045012 0.021764394 0.2216684 -0.040591765 0.23603104 0.13633645 0.28284168 0.24025124
0.1411057 -0.0143373795 -0.031311817 0.091571875 0.0023038934 0.29064026 0.24342813 0.21997815
0.14201653 0.00091158634 0.04362354 0.29655102 0.1767462 0.12951612 0.08039859 0.017085792
0.042800747 0.0058149826 0.22967096 0.11783 0.1510204 0.20938706 0.13140686 0.1842666
0.05229516 0.04505751 -0.0008194858 -0.07099839 0.22517344 0.09231312 -0.050571088 0.043726902
0.103187054 0.06529012 0.17791499 0.19521381 0.00407412 0.13082589 0.37809318 0.05680484
0.036559068 0.16635215 0.24605595 0.15202478 0.2753395 0.0932712 0.32026765 0.23663148
0.123408325 0.27289313 0.01609185 0.10501822 0.16272725 0.23509757 0.32553592 0.19727491
0.13174106 0.31685972 0.15975596 0.18032134 0.18408722 0.14333595 0.3516285 0.13100187
00000000: aaa5 d83d 6e3d 393c b34a 4abb 6f89 4d3d
00000010: 8a33 8a3d c753 a53d c902 8bbd 71a3 d73c
00000020: 5d2f 1f3e 1dbc 5a3e 2140 893d fad7 c7bd
00000030: 6298 113d e7fa fcbc b088 813d 4886 fabd
00000040: 0c33 7d3e c65a e6bd a4a2 953d d8c0 17be
00000050: 72bd f1bd 701f 553d 3df0 ffbc 1b24 40bc
00000060: fe41 473d 2569 0f3e e597 a43d 036b b5bd
00000070: fd9b 6b3e a824 5c3e 0552 733d 6d61 68bc
00000080: 90df ae3e 13af 033e e14d 4b3e 061e 3d3e
00000090: 943f 2b3d 1cd3 623e 61eb e43c 28e2 033e
000000a0: cb74 2f3e e98b 793e f6f9 b03d b844 a6bb
000000b0: 4c0e ac3e 0fcf 4f3d 9869 9f3c 3054 163e
000000c0: d4bf 6d3e 206c 323e cb25 d93d ba6f 9b3e
000000d0: 46bb fe3c 10fc 543e 59df 073e ea3f e43d
000000e0: 60a6 8a39 1b7d 093e 5f94 9a3d d169 833d
000000f0: c56c 983d d191 7b3e 8729 08ba efd6 133e
00000100: b47d 823d e2da 0c3e e505 143e d90e 843d
00000110: 2fbc 5f3d 197b 423e dbb5 64bd c4d2 7039
00000120: 51b1 b73d 719f 913e 0da5 0e3e 1a00 423e
00000130: 93a8 103e 8360 873e f6e4 8c3d c7bb 553d
00000140: e97d 20bc 62e9 c93b 55b4 30bd a7b5 6e3d
00000150: 6a27 173e dccc e03d b71a 303e 7aeb ed3d
00000160: 2210 813e de9f 3f3d 4262 193e 91a5 a33d
00000170: f079 92bc 6b89 c53c 3519 393d 7b06 933d
00000180: 08cc 563e 2f1d 3f3e ddae eb3d 5c9d 973e
00000190: 628c 373e 8a70 683e f741 53bc 04fb 583d
000001a0: 5851 a73e e83e 373e 3715 2e3e c4a3 7f3e
000001b0: 7097 b13d fe43 a73d 4f95 4e3e b11d 813d
000001c0: 32cd 413e c487 6d3e c99a 1a3e 68ef 4e3c
000001d0: 2cd0 af3e 958e 863e 69e8 893e fe6b c43e
000001e0: 8b1e 473e b910 893e 2e95 263e dd1d 973e
000001f0: 347c 653e 03d9 e13e 16df b03e 1230 7b3e
00000200: 6461 b63e 0d11 4f3e 03ad 89bd d83a e43d
00000210: ac41 f53d f2de afbc 6d6f 0e3d 3633 c1bd
00000220: 6cfc a23d 1c7c 91bc b693 67bd ef42 3d3c
00000230: 4450 2d3e 096c 813c 78e5 0c3e d406 233e
00000240: 657e 19be d03e 2c3e 82a5 183e b70e 473e
00000250: 836f 6f3d ad6f 28be 5f80 38bc 1314 8dbd
00000260: 6246 393e 1a3a 0d3d 730b 053d cbca 57bd
00000270: 55e4 97bd 4dd2 403e 7b91 50bd 9cf9 08bd
00000280: 8b3c 0e3e 08e5 1a3e 7f45 543d fc41 84bd
00000290: 0eb9 0b3e 223e 9f3d b397 253e 097f 4e3e
000002a0: 5559 193c 5237 a33e 11ee b13d ea1d 213d
000002b0: c469 a93d a738 5dbd 383d 113e 474a 913e
000002c0: 007f 703e d31c 883c e992 8b3e ed3d 423e
000002d0: 7b78 833e d217 1c3e 9395 6f3e 383f 45bd
000002e0: 8dae f63d 3e4b b23c 0bfd 623e 8d43 26bd
000002f0: 1fb2 713e c89b 0b3e a0d0 903e 6c04 763e
00000300: 037e 103e 54e7 6abc d240 00bd 098a bb3d
00000310: ebfc 163b cdce 943e 3945 793e f441 613e
00000320: c86c 113e 86f7 6e3a 99ae 323d 89d5 973e
00000330: f5fc 343e e09f 043e 04a8 a43d 81f7 8b3c
00000340: d64f 2f3d 9c8b be3b dd2e 6b3e db50 f13d
00000350: 17a5 1a3e 9069 563e 858f 063e 62b0 3c3e
00000360: 7333 563d 398e 383d c3d2 56ba 9b67 91bd
00000370: de93 663e a90e bd3d a123 4fbd fb1a 333d
00000380: bc53 d33d d4b6 853d 592f 363e 21e6 473e
00000390: 3280 853b 39f7 053e 6e95 c13e 31ac 683d
000003a0: f6be 153d 3858 2a3e 17f6 7b3e 62ac 1b3e
000003b0: 4df9 8c3e f904 bf3d 1ffa a33e 864f 723e
000003c0: 81bd fc3d a6b8 8b3e 0ed3 833c cb13 d73d
000003d0: f9a1 263e 6bbd 703e a5ac a63e 6f02 4a3e
000003e0: 21e7 063e 703b a23e 1197 233e 28a6 383e
000003f0: 5c81 3c3e a9c6 123e a708 b43e 5b25 063e

fc3_val.bias f4 [76]
-0.22167441 -0.35663518 0.37984982 0.5060977 0.45991963 -0.25027126 -0.21082793 0.38167077
-0.30877975 -0.22575697 -0.28330952 -0.3003966 0.2512163 -0.25959018 -0.32087696 0.4922993
0.42401645 -0.3236696 -0.24807315 -0.28967035 -0.31270644 -0.32193005 0.37621626 -0.20191105
-0.33286956 -0.28089577 -0.19315068 0.47303748 0.5114808 -0.28813857 -0.3402699 0.36869568
0.79170287 0.4070252 -0.2486495 -0.23688729 0.4468395 -0.35497844 0.40222934 -0.26227382
-0.34672803 -0.36274558 1.4801818 0.4533779 -0.2743052 0.46398157 0.701101 -0.37555915
0.38477004 -0.28659752 0.4645891 -0.21562022 -0.32098833 -0.18712796 0.51509255 -0.352704
0.40085435 0.386825 -0.21003015 -0.21473493 -0.19725342 -0.22110711 0.36847463 -0.34829682
-0.22806862 -0.26186967 -0.3145156 0.4392449 -0.28490573 -0.34180814 0.35876065 -0.2927866
-0.26840734 -0.2050678 -0.24603961 0.6281826
00000000: 9efe 62be e398 b6be ad7b c23e 9e8f 013f
00000010: 967a eb3e 8e23 80be 47e3 57be 5a6a c33e
00000020: 6118 9ebe d62c 67be f20d 91be 95cd 99be
00000030: 6c9f 803e 01e9 84be fc49 a4be a70e fc3e
00000040: af18 d93e 06b8 a5be e306 7ebe ac4f 94be
00000050: 0f1b a0be 04d4 a4be 6b9f c03e c5c1 4ebe
00000060: e16d aabe 92d1 8fbe 4bc9 45be f831 f23e
00000070: 68f0 023f e686 93be db37 aebe aec5 bc3e
00000080: 0aad 4a3f 9b65 d03e f99d 7ebe 9592 72be
00000090: 26c8 e43e bcbf b5be 01f1 cd3e c148 86be
000000a0: 5686 b1be cab9 b9be 9976 bd3f 2621 e83e
000000b0: bb71 8cbe fe8e ed3e 5b7b 333f 4a49 c0be
000000c0: 9400 c53e e9bc 92be 9fde ed3e 8ccb 5cbe
000000d0: 9558 a4be 799e 3fbe 1bdd 033f 9e95 b4be
000000e0: c83c cd3e ed0d c63e 2512 57be 79e3 5bbe
000000f0: cdfc 49be e769 62be b5a8 bc3e f653 b2be
00000100: d28a 69be c813 86be 3008 a1be b5e4 e03e
00000110: 2adf 91be 7a01 afbe 7aaf b73e 20e8 95be
00000120: b06c 89be 4bfd 51be cff1 7bbe 93d0 203f

fc4_adv.weight f4 [38, 76]
-0.21000667 -0.11998985 0.27499592 0.3956083 0.11100922 -0.017870972 0.14055777 0.16781577
0.26833057 0.1366708 0.005204317 0.15706526 -0.07675679 -0.04341995 1.3285909 -0.13499582
0.15285052 0.17428844 0.2101941 0.2170771 0.15455519 -0.28666237 0.21318305 0.6356204
0.064636156 0.07273567 0.05178239 0.021099605 0.038725805 -0.12678994 -0.02339191 0.22727151
0.055160332 0.11671422 -0.0078015714 0.039241634 0.17726274 0.29755032 -0.015807072 0.087074175
0.06834914 0.07105235 0.148138 0.058568757 -0.076848015 0.17155074 -0.043744903 0.43943873
-0.16351168 0.24239583 0.59596974 0.26351118 -0.059742168 -0.27188882 0.22713077 -0.106865704
0.009913383 -0.09709994 -0.09091318 0.14686255 0.16012906 0.26050296 0.19613078 0.22517519
0.1909536 0.2023804 -0.13044158 0.08647226 -0.14804874 -0.06904948 0.04182621 -0.117190294
0.29276785 0.12461846 0.117981926 -0.16888186 -0.101530164 -0.060612105 0.14578898 0.44663763
0.24680968 0.08653493 0.3255226 0.27982873 0.35450998 0.26338288 0.22901791 -0.2963543
-0.12073424 -0.120421 1.4093213 -0.03236528 0.1393289 0.1674431 -0.08151999 -0.14084698
0.22544208 0.059848886 0.09739981 0.24741368 0.17075978 0.0007071596 -0.016211178 0.15375444
0.06579112 0.21427856 0.05113899 0.43175563 0.032251418 -0.13157044 0.14470859 0.19759318
-0.11760863 -0.07325907 -0.112091325 0.20862442 0.14394283 0.17926566 0.05587312 -0.05901443
0.018741246 0.060718585 0.21472165 0.2086894 -0.031454258 -0.052513834 0.5482482 0.19855724
0.16749433 -0.18472315 0.40627322 0.14917494 -0.16227056 -0.17835857 0.15808876 0.05751073
0.14668325 0.06879487 -0.15388128 0.120785266 0.052008618 0.022302583 0.3618011 -0.075663336
0.050623327 -0.09258047 0.2576593 0.034047298 0.019756699 -0.13640071 -0.14643131 0.06337219
-0.055438034 -0.09661351 0.31892926 0.24392316 0.32312188 0.11373656 0.17842267 0.07623344
0.08816784 -0.11017291 0.24722795 0.020535411 0.019084483 0.23664032 1.2018881 -0.42837653
0.15304387 -0.07170659 -0.16103671 0.02641458 0.22056316 -0.16359867 0.26185045 0.2457024
0.49952078 0.23001593 0.14934243 0.078040585 -0.14080763 0.40257752 0.034938425 0.31687
0.06624327 0.26010755 0.003932738 -0.123835444 0.18221751 0.0250685 0.25248873 -0.07440963
0.1873936 0.13963157 0.21410726 -0.03091148 0.17209055 -0.013540852 -0.055678267 0.3952815
-0.08085912 -0.13026814 1.4789453 0.5058666 0.1388872 -0.08873069 0.21916372 0.33044162
0.27199757 0.081297874 0.6484886 0.39146522 0.044910446 -0.07057006 -0.18258539 0.34625265
0.19441748 0.17965685 -0.13105531 -0.16979668 -0.13406417 0.076240495 0.16988575 -0.23187716
0.22735852 -0.29548392 -0.02326362 -0.36175615 0.013570469 -0.09113753 0.2328726 0.11805046
0.19575419 0.21004248 0.34013534 0.23034056 -0.1676063 0.03512673 0.1715844 0.15628053
-0.023872066 0.02728469 1.3008459 -0.37026963 0.3693947 -0.09987272 -0.18786044 0.06524268
0.092531785 0.09512304 0.41008782 0.37634763 0.35955375 0.07014407 0.36540428 0.14644758
00000000: fd0b 57be 3dbd f5bd 44cc 8c3e 2c8d ca3e
00000010: cd58 e33d 2566 92bc 60ee 0f3e e6d7 2b3e
00000020: a062 893e 6ef3 0b3e fa88 aa3b b7d5 203e
00000030: aa32 9dbd 1ed9 31bd 440f aa3f 583c 0abe
00000040: d984 1c3e ab78 323e 1f3d 573e 7649 5e3e
00000050: b743 1e3e 69c5 92be a84c 5a3e 05b8 223f
00000060: f65f 843d 70f6 943d c519 543d 14d9 ac3c
00000070: f39e 1e3d 39d5 01be 64a0 bfbc ddb9 683e
00000080: cdef 613d dd07 ef3d 53a4 ffbb d6bb 203d
00000090: 5d84 353e 8458 983e d57d 81bc f253 b23d
000000a0: a2fa 8b3d e583 913d 7db1 173e cbe5 6f3d
000000b0: 7e62 9dbd ffaa 2f3e db2d 33bd 1dfe e03e
000000c0: 9b6f 27be 9d36 783e 7991 183f f0ea 863e
000000d0: 34b4 74bd 0335 8bbe f894 683e 68dc dabd
000000e0: be6b 223c 55dc c6bd b030 babd 2363 163e
000000f0: dff8 233e a560 853e 82d6 483e 5394 663e
00000100: 5789 433e cf3c 4f3e 7a92 05be 5e18 b13d
00000110: 179a 17be d069 8dbd f651 2b3d 7701 f0bd
00000120: abe5 953e f737 ff3d 82a0 f13d 5eef 2cbe
00000130: 0cef cfbd 6644 78bd b549 153e b0ad e43e
00000140: adbb 7c3e 3a39 b13d e6aa a63e b645 8f3e
00000150: 5582 b53e 1fda 863e ac83 6a3e c0bb 97be
00000160: 8343 f7bd 499f f6bd a464 b43f 7591 04bd
00000170: 3cac 0e3e 3476 2b3e f4f3 a6bd 313a 10be
00000180: 4ada 663e 1b24 753d 8d79 c73d 035a 7d3e
00000190: a7db 2e3e ad60 393a 4ecd 84bc ce71 1d3e
000001a0: 7fbd 863d d76b 5b3e 1e77 513d 130f dd3e
000001b0: 101a 043d 67ba 06be 7d2e 143e de55 4a3e
000001c0: cbdc f0bd da08 96bd 2390 e5bd a4a1 553e
000001d0: c065 133e 6b91 373e 36db 643d 1db9 71bd
000001e0: 3e87 993c 0db4 783d fedf 5b3e adb2 553e
000001f0: 2ed6 00bd bf18 57bd fe59 0c3f 9752 4b3e
00000200: a283 2b3e 1128 3dbe 0b03 d03e 51c1 183e
00000210: 412a 26be a1a3 36be 05e2 213e 5f90 6b3d
00000220: 2234 163e 53e4 8c3d 0e93 1dbe 445e f73d
00000230: fd06 553d e8b3 b63c fe3d b93e 61f5 9abd
00000240: 685a 4f3d d49a bdbd ebeb 833e 2e75 0b3d
00000250: cdd8 a13c a1ac 0bbe 17f2 15be 47c9 813d
00000260: fe12 63bd 4edd c5bd b24a a33e fec6 793e
00000270: 3b70 a53e b7ee e83d 6fb4 363e 4720 9c3d
00000280: 5791 b43d 56a2 e1bd 5329 7d3e e139 a83c
00000290: 1057 9c3c d751 723e 78d7 993f 2b54 dbbe
000002a0: 88b7 1c3e e8da 92bd cfe6 24be 6463 d83c
000002b0: 4fdb 613e 6986 27be 4311 863e 6999 7b3e
000002c0: 30c1 ff3e 4c89 6b3e 39ed 183e bed3 9f3d
000002d0: e02f 10be a41e ce3e 981b 0f3d c93c a23e
000002e0: 8daa 873d d12c 853e 33de 803b 709d fdbd
000002f0: 3a97 3a3e 745c cd3c 3446 813e 1364 98bd
00000300: 1ce4 3f3e 94fb 0e3e ef3e 5b3e 123a fdbc
00000310: 8138 303e 73da 5dbc e50e 64bd 5662 ca3e
00000320: 7799 a5bd 0365 05be 144e bd3f 7980 013f
00000330: 7238 0e3e 70b8 b5bd 746c 603e a52f a93e
00000340: 4443 8b3e 807f a63d 5903 263f 216e c83e
00000350: 04f4 373d 0987 90bd aaf7 3abe 0748 b13e
00000360: 6015 473e f7f7 373e 5d33 06be 2edf 2dbe
00000370: 1e48 09be fa23 9c3d 88f6 2d3e 3571 6dbe
00000380: acd0 683e ab49 97be 5993 bebc 1a38 b9be
00000390: ac56 5e3c 50a6 babd 2876 6e3e 71c4 f13d
000003a0: c973 483e 6015 573e 3826 ae3e 65de 6b3e
000003b0: fca0 2bbe 0ce1 0f3d d2b3 2f3e 0108 203e
000003c0: 5a8f c3bc 2484 df3c 1e82 a63f fb93 bdbe
000003d0: 4d21 bd3e 128a ccbd 7d5e 40be f49d 853d
000003e0: 4e81 bd3d decf c23d 08f7 d13e a3b0 c03e
000003f0: 6e17 b83e b2a7 8f3d 4516 bb3e 5bf6 153e

fc4_adv.bias f4 [38]
0.13778555 -0.025463723 0.14626482 -0.071757756 -0.041153915 -0.0129661895 0.17228268 -0.10296598
-0.12344754 -0.1686098 -0.098690495 0.16341424 0.030782778 0.03347936 0.10628648 0.10434853
0.1483039 -0.16513468 0.19259775 0.036082633 0.13003789 0.21595712 0.19084437 0.21054935
0.20541815 0.0041470467 -0.12740831 -0.06026176 -0.010467871 0.015860291 0.0023181457 -0.0070867087
0.09457321 0.21013173 -0.13655919 0.20346737 -0.13902633 0.23273194
00000000: a817 0d3e 4c99 d0bc 72c6 153e bbf5 92bd
00000010: 0291 28bd 2470 54bc df6a 303e d4df d2bd
00000020: 10d2 fcbd 0ca8 2cbe 3e1e cabd 1056 273e
00000030: 2a2c fc3c a721 093d baac d93d afb4 d53d
00000040: fadc 173e 1119 29be 5838 453e 62cb 133d
00000050: a728 053e dd23 5d3e b56c 433e 409a 573e
00000060: 2359 523e f3e3 873b 5377 02be 09d5 76bd
00000070: 6f81 2bbc 71ed 813c 08ec 173b 9f37 e8bb
00000080: 99af c13d c62c 573e 2cd6 0bbe c059 503e
00000090: eb5c 0ebe 4851 6e3e

fc4_val.weight f4 [1, 76]
0.1971278 0.32283032 -0.27502882 -0.45960647 -0.26002386 0.23853078 0.45007762 -0.3901155
0.35654524 0.32799926 0.4045767 0.27358025 -0.44419137 0.1933774 0.29670617 -0.2902778
-0.32745445 0.3321102 0.26974952 0.3101315 0.3221788 0.34115887 -0.8076235 0.24630459
0.24781993 0.20014675 0.37235218 -0.50852835 -0.5093423 0.17263505 0.23811777 -0.57496625
-2.2863865 -0.41916418 0.22609232 0.31569242 -0.4336185 0.345128 -0.3870192 0.28414488
0.28784126 0.3823485 -2.5088768 -0.4394586 0.44193342 -1.1853204 -2.5037494 0.42178106
-1.4938613 0.18222721 -0.45999166 0.3237801 0.23879515 0.17165788 -0.29796395 0.40895507
-0.31224352 -0.9604483 0.4252713 0.2105588 0.28258276 0.15659578 -0.37563822 0.29310906
0.18402691 0.25859752 0.400956 -0.3582612 0.21590748 0.20173277 -0.5447104 0.23629658
0.32372245 0.21485715 0.17507258 -1.4678239
00000000: dfdb 493e 044a a53e 94d0 8cbe 8a51 ebbe
00000010: d921 85be 6a41 743e 9370 e63e 38bd c7be
00000020: 198d b63e 85ef a73e ad24 cf3e b612 8c3e
00000030: 0d6d e3be ba04 463e dfe9 973e 4b9f 94be
00000040: 1ca8 a7be 590a aa3e 9c1c 8a3e 8ec9 9e3e
00000050: 9ff4 a43e 60ac ae3e 6ac0 4ebf 4537 7c3e
00000060: 82c4 7d3e 45f3 4c3e f2a4 be3e ea2e 02bf
00000070: 4264 02bf 3ec7 303e 25d5 733e fd30 13bf
00000080: 2854 12c0 b09c d6be bf84 673e 70a2 a13e
00000090: 3e03 debe 9eb4 b03e 6127 c6be 707b 913e
000000a0: ee5f 933e 2fc3 c33e 7091 20c0 b800 e1be
000000b0: 1945 e23e 94b8 97bf 6e3d 20c0 b0f3 d73e
000000c0: d936 bfbf c599 3a3e 0784 ebbe 81c6 a53e
000000d0: b786 743e 15c7 2f3e bb8e 98be 8f62 d13e
000000e0: 62de 9fbe f1df 75bf 29bd d93e ba9c 573e
000000f0: b0ae 903e a55a 203e a753 c0be 6412 963e
00000100: 8d71 3c3e e566 843e 1b4a cd3e 036e b7be
00000110: da16 5d3e 0993 4e3e 2472 0bbf bbf7 713e
00000120: f3be a53e 8303 5c3e 3a46 333e a7e1 bbbf

exp_avg f4 [1, 6, 1, 4]
-2.657598 -0.87859374 -0.17150737 0.06203969 -9.757432 -8.83034 -3.6939216 -1.5995985
-0.62594426 -0.62594426 -0.62594426 0.0 -0.7323935 -0.5298314 -0.5298314 6e-45
-0.41321144 -0.15926479 -0.15926479 0.0 -0.6057833 -0.23148504 -0.23148504 6e-45
00000000: 1616 2ac0 85eb 60bf a19f 2fbe 541d 7e3d
00000010: 711e 1cc1 1349 0dc1 3669 6cc0 a5bf ccbf
00000020: e23d 20bf e23d 20bf e23d 20bf 0000 0000
00000030: 247e 3bbf 08a3 07bf 08a3 07bf 0400 0000
00000040: 7390 d3be 4f16 23be 4f16 23be 0000 0000
00000050: 9d14 1bbf 6a0a 6dbe 6a0a 6dbe 0400 0000

exp_avg_sq f4 [1, 6, 1, 4]
321.87183 23.33769 3.3218803 0.110966355 3472.1191 1621.7069 425.38504 60.14215
17.71809 17.71809 17.71809 0.0 5.022042 4.3739576 4.3739576 7e-43
3.2154102 1.9280325 1.9280325 0.0 2.5761578 1.7328143 1.7328143 7e-43
00000000: 98ef a043 97b3 ba41 b099 5440 5442 e33d
00000010: e801 5945 9fb6 ca44 49b1 d443 9091 7042
00000020: a6be 8d41 a6be 8d41 a6be 8d41 0000 0000
00000030: 91b4 a040 76f7 8b40 76f7 8b40 f401 0000
00000040: 48c9 4d40 c5c9 f63f c5c9 f63f 0000 0000
00000050: c5df 2440 dccc dd3f dccc dd3f f401 0000

exp_avg f4 [1, 6, 2, 4]
0.62349117 0.9870667 0.35824063 -0.027716622 0.48843727 0.78281623 0.25457218 -0.031898078
6.6775723 7.405588 3.6170995 1.564606 6.6218543 5.843389 2.1812496 1.6285136
0.26309124 0.26309124 0.26309124 0.20775102 0.45614317 0.45614317 0.45614317 0.27733925
0.51860934 0.40491027 0.40491027 -0.04554073 0.63886005 0.555656 0.555656 -0.19251607
0.037709672 -0.016428057 -0.016428057 -0.08283401 0.23470575 0.22334449 0.22334449 -0.067644775
0.8322974 0.33238414 0.33238414 -0.07280953 1.0189929 0.34865054 0.34865054 -0.06957241
00000000: 1e9d 1f3f 67b0 7c3f 516b b73e f80d e3bc
00000010: 7314 fa3e a566 483f 4957 823e 8fa7 02bd
00000020: acae d540 94fa ec40 8f7e 6740 0245 c83f
00000030: 3be6 d340 0bfd ba40 9899 0b40 2273 d03f
00000040: e5b3 863e e5b3 863e e5b3 863e afbc 543e
00000050: 998b e93e 998b e93e 998b e93e 69ff 8d3e
00000060: 95c3 043f 6650 cf3e 6650 cf3e eb88 3abd
00000070: 558c 233f 793f 0e3f 793f 0e3f ef22 45be
00000080: 7575 1a3d 2294 86bc 2294 86bc e1a4 a9bd
00000090: b456 703e 6bb4 643e 6bb4 643e 5889 8abd
000000a0: 7111 553f 412e aa3e 412e aa3e 2a1d 95bd
000000b0: 5c6e 823f 5382 b23e 5382 b23e fb7b 8ebd

exp_avg_sq f4 [1, 6, 2, 4]
139.05276 8.83147 0.8586819 0.030587653 154.03293 13.941254 1.5561075 0.053444657
1304.4254 645.37415 212.32683 23.18394 1068.7102 312.7028 56.379456 6.0831475
9.595796 9.595796 9.595796 0.27560475 10.280156 10.280156 10.280156 0.1913302
1.5242335 1.3317982 1.3317982 0.022463042 3.0652416 2.8144896 2.8144896 0.097653575
1.7853806 1.5019299 1.5019299 0.07840953 2.54827 2.1661975 2.1661975 0.09252071
2.5905395 1.9866133 1.9866133 0.039944172 3.159981 2.0490916 2.0490916 0.058213543
00000000: 820d 0b43 b34d 0d41 94d2 5b3f f592 fa3c
00000010: 6e08 1a43 600f 5f41 882e c73f c9e8 5a3d
00000020: 9d0d a344 f257 2144 ab53 5443 b678 b941
00000030: ba96 8544 f559 9c43 9084 6142 25a9 c240
00000040: 6188 1941 6188 1941 6188 1941 111c 8d3e
00000050: 857b 2441 857b 2441 857b 2441 10ec 433e
00000060: 151a c33f 5d78 aa3f 5d78 aa3f 6a04 b83c
00000070: eb2c 4440 9920 3440 9920 3440 99fe c73d
00000080: 5a87 e43f 3d3f c03f 3d3f c03f 2d95 a03d
00000090: db16 2340 fba2 0a40 fba2 0a40 7f7b bd3d
000000a0: 66cb 2540 5849 fe3f 5849 fe3f 809c 233d
000000b0: 213d 4a40 5124 0340 5124 0340 5371 6e3d

exp_avg f4 [1, 6, 3, 4]
1.1964649 0.36333424 0.118317455 0.057292547 0.38560066 1.1398538 0.2531627 -0.021303484
0.51147854 0.82505435 0.18090218 -0.04964428 5.2609825 2.4061792 1.3266326 0.54148495
5.239617 3.0552523 1.005663 0.5446159 5.211952 3.3164275 1.2157958 0.37987745
0.44913945 0.44913948 0.44913948 0.42420194 0.41452828 0.4145284 0.4145284 0.38380343
-0.29210803 -0.29210812 -0.29210812 0.33072895 0.33230296 0.17342016 0.17342019 -0.09096472
0.25044635 0.15277188 0.15277185 -0.15293632 0.16913284 0.11021209 0.110212035 -0.12610939
0.15120295 -0.012465921 -0.012465859 -0.04318236 0.38835737 0.23264325 0.23264316 -0.06617738
0.12583213 0.048959225 0.048959285 -0.022655403 0.48030406 0.043108374 0.043108325 0.06879523
0.18301748 -0.122797936 -0.122797914 0.08085262 0.60948616 0.24570598 0.24570602 0.071132496
00000000: c325 993f f206 ba3e 6c50 f23d 97ab 6a3d
00000010: 736d c53e bbe6 913f 8b9e 813e a584 aebc
00000020: 42f0 023f c336 533f 6c3e 393e cd57 4bbd
00000030: f859 a840 d7fe 1940 19cf a93f c29e 0a3f
00000040: f1aa a740 4189 4340 91b9 803f f36b 0b3f
00000050: 50c8 a640 5940 5440 329f 9b3f 4c7f c23e
00000060: 9bf5 e53e 9cf5 e53e 9cf5 e53e ff30 d93e
00000070: 0d3d d43e 113d d43e 113d d43e e281 c43e
00000080: 2f8f 95be 328f 95be 328f 95be 4e55 a93e
00000090: 9d23 aa3e 0e95 313e 1095 313e b64b babd
000000a0: 813a 803e 3b70 1c3e 3970 1c3e 579b 1cbe
000000b0: 2931 2d3e e0b6 e13d d9b6 e13d d222 01be
000000c0: f2d4 1a3e dd3d 4cbc 9a3d 4cbc fcdf 30bd
000000d0: c7d6 c63e 083a 6e3e 023a 6e3e 0288 87bd
000000e0: 23da 003e 7889 483d 8889 483d d397 b9bc
000000f0: 6aea f53e 6892 303d 5b92 303d 83e4 8c3d
00000100: ef68 3b3e 7c7d fbbd 797d fbbd 0f96 a53d
00000110: 4907 1c3f 599a 7b3e 5c9a 7b3e eaad 913d

exp_avg_sq f4 [1, 6, 3, 4]
186.879 19.018095 2.5412014 0.06278498 173.32588 18.4706 2.0995672 0.050808888
179.37234 18.27078 2.4928124 0.06313789 2519.8418 875.88995 156.60355 13.061802
2511.1082 929.2944 182.4824 21.895756 2680.388 1207.1433 264.5237 31.488157
16.36714 16.367142 16.367142 0.35866368 11.934416 11.934415 11.934415 0.37495402
14.602969 14.60297 14.602969 0.36024612 5.343721 4.865348 4.865348 0.11657796
5.0567102 4.672332 4.672333 0.1260559 4.1196833 3.8589146 3.8589144 0.14749356
4.5660124 3.7056167 3.7056165 0.19006644 5.0206656 4.0557446 4.0557446 0.25230548
3.8115592 3.400097 3.400097 0.12747449 4.9910846 4.14558 4.145581 0.07338499
4.561454 3.6125622 3.612562 0.035473436 4.7247305 3.9265666 3.9265666 0.11392495
00000000: 06e1 3a43 0f25 9841 0ba3 2240 6995 803d
00000010: 6d53 2d43 cac3 9341 4f5f 0640 fb1c 503d
00000020: 525f 3343 8f2a 9241 3d8a 1f40 704e 813d
00000030: 787d 1d45 f5f8 5a44 829a 1c43 24fd 5041
00000040: bbf1 1c45 d752 6844 7f7b 3643 822a af41
00000050: 3586 2745 96e4 9644 0943 8443 bfe7 fb41
00000060: e7ef 8241 e8ef 8241 e8ef 8241 c4a2 b73e
00000070: 5ef3 3e41 5df3 3e41 5df3 3e41 f9f9 bf3e
00000080: c3a5 6941 c4a5 6941 c3a5 6941 2e72 b83e
00000090: c3ff aa40 eeb0 9b40 eeb0 9b40 6dc0 ee3d
000000a0: 92d0 a140 be83 9540 c083 9540 cc14 013e
000000b0: 72d4 8340 75f8 7640 74f8 7640 8d08 173e
000000c0: c61c 9240 d328 6d40 d228 6d40 c7a0 423e
000000d0: 4ba9 a040 a9c8 8140 a9c8 8140 2f2e 813e
000000e0: 96f0 7340 309b 5940 309b 5940 ac88 023e
000000f0: f7b6 9f40 97a8 8440 99a8 8440 df4a 963d
00000100: 6ef7 9140 3834 6740 3734 6740 984c 113d
00000110: fe30 9740 de4c 7b40 de4c 7b40 7c51 e93d

exp_avg f4 [1, 6, 4, 4]
2.433219 1.3001553 0.4777795 0.03047945 1.2904677 1.975433 0.31929064 -0.057962295
1.9432856 1.2048723 0.22511272 -0.004715705 3.4139392 1.3778735 0.25025895 -0.011543085
11.603935 7.1198006 2.4625788 1.3338771 10.515431 6.5330243 2.011381 1.8694007
9.234558 5.485885 0.6962012 1.3537321 9.540892 5.506668 1.1097561 2.0318465
1.496341 1.496341 1.4963411 0.47383928 0.4878535 0.48785356 0.48785332 0.25082827
-0.1259094 -0.1259093 -0.12590937 0.37181213 -0.23089108 -0.23089117 -0.23089108 0.4314077
0.25617644 -0.04852182 -0.04852186 -0.12470584 0.7046358 0.46732634 0.4673265 -0.14161716
0.55751276 0.40453333 0.40453336 -0.1801157 0.30905297 0.25424087 0.25424087 -0.3910159
0.7190919 0.56801116 0.5680113 -0.037714206 0.4670829 0.26587886 0.26587877 -0.1015021
0.8389949 0.6999743 0.69997436 -0.1703131 0.73816466 0.6051063 0.60510623 -0.12442997
0.4278524 -0.10931999 -0.10931999 0.008406398 0.50704336 -0.08214524 -0.08214531 -0.0037103505
1.4763596 0.96867967 0.9686798 -0.032913998 1.5341381 0.9234702 0.92347014 -0.023281485
00000000: dcb9 1b40 7d6b a63f 849f f43e 0ab0 f93c
00000010: 0c2e a53f fdda fc3f 107a a33e df69 6dbd
00000020: 95bd f83f 4139 9a3f f383 663e 3386 9abb
00000030: fb7d 5a40 295e b03f f121 803e 351f 3dbc
00000040: b8a9 3941 68d5 e340 e49a 1d40 7cbc aa3f
00000050: 353f 2841 890e d140 77ba 0040 8648 ef3f
00000060: c0c0 1341 5f8c af40 3e3a 323f 1847 ad3f
00000070: 7ea7 1841 a036 b040 7d0c 8e3f c609 0240
00000080: 1a88 bf3f 1a88 bf3f 1b88 bf3f 109b f23e
00000090: efc7 f93e f1c7 f93e e9c7 f93e 906c 803e
000000a0: 65ee 00be 5eee 00be 63ee 00be 295e be3e
000000b0: b66e 6cbe bc6e 6cbe b66e 6cbe 78e1 dc3e
000000c0: 8f29 833e d1be 46bd dcbe 46bd c765 ffbd
000000d0: 0363 343f 6645 ef3e 6b45 ef3e 1704 11be
000000e0: 28b9 0e3f fe1e cf3e ff1e cf3e 4070 38be
000000f0: 313c 9e3e dc2b 823e dc2b 823e 3c33 c8be
00000100: 6816 383f 2e69 113f 3069 113f 367a 1abd
00000110: 7d25 ef3e 4621 883e 4321 883e 55e0 cfbd
00000120: 5fc8 563f 8431 333f 8531 333f 8f66 2ebe
00000130: 5cf8 3c3f 3fe8 1a3f 3ee8 1a3f 24d5 febd
00000140: 780f db3e 29e3 dfbd 29e3 dfbd fdba 093c
00000150: 98cd 013f c33b a8bd cd3b a8bd 5a29 73bb
00000160: 5af9 bc3f 64fb 773f 66fb 773f d4d0 06bd
00000170: a35e c43f 8b68 6c3f 8a68 6c3f d0b8 bebc

exp_avg_sq f4 [1, 6, 4, 4]
409.7718 37.604538 4.7753673 0.09461634 419.4822 34.19744 3.9341445 0.08820931
402.6728 38.199482 4.3867106 0.122654736 400.72714 38.192677 5.005675 0.107695535
5634.278 2242.5557 527.51154 69.39532 5560.235 2172.7002 503.8091 65.954575
5531.815 2141.7112 478.0196 59.282795 5508.4995 2173.5227 474.86694 57.1895
31.650614 31.650616 31.650614 0.64111555 29.170532 29.17053 29.17053 0.5135408
37.496124 37.496117 37.496124 0.56570953 33.257965 33.25796 33.257965 0.67465985
7.5850763 6.781067 6.7810664 0.18263292 8.251733 6.9938097 6.993809 0.19110852
8.58195 7.8036194 7.803619 0.21698256 9.03637 8.363587 8.363587 0.30299675
9.214556 7.758583 7.758583 1.0459119 8.878679 7.4738564 7.473856 0.39671102
7.858586 6.7283354 6.7283354 0.3664522 8.707282 7.544948 7.544948 0.31809217
8.925838 7.825185 7.8251843 0.10938387 7.8510456 6.6607447 6.6607447 0.106155924
8.576112 6.753381 6.753381 0.15418983 9.001934 7.3318458 7.3318453 0.15448968
00000000: cae2 cc43 0c6b 1642 cfcf 9840 36c6 c13d
00000010: b9bd d143 2eca 0842 06c9 7b40 15a7 b43d
00000020: 1e56 c943 45cc 1842 ef5f 8c40 6832 fb3d
00000030: 135d c843 4dc5 1842 7d2e a040 7a8f dc3d
00000040: 3912 b045 e428 0c45 bde0 0344 67ca 8a42
00000050: e1c1 ad45 34cb 0745 91e7 fb43 bee8 8342
00000060: 85de ac45 61db 0545 8202 ef43 9521 6d42
00000070: ff23 ac45 5dd8 0745 f86e ed43 0cc2 6442
00000080: 7534 fd41 7634 fd41 7534 fd41 2620 243f
00000090: 405d e941 3f5d e941 3f5d e941 6977 033f
000000a0: 08fc 1542 06fc 1542 08fc 1542 57d2 103f
000000b0: 2808 0542 2708 0542 2808 0542 82b6 2c3f
000000c0: f2b8 f240 80fe d840 7ffe d840 2004 3b3e
000000d0: 1907 0441 4acd df40 49cd df40 f4b1 433e
000000e0: ab4f 0941 40b7 f940 3fb7 f940 ad30 5e3e
000000f0: f994 1041 41d1 0541 41d1 0541 6422 9b3e
00000100: d26e 1341 5046 f840 5046 f840 71e0 853f
00000110: 120f 0e41 d529 ef40 d429 ef40 b51d cb3e
00000120: 8979 fb40 864e d740 864e d740 9f9f bb3e
00000130: 0751 0b41 3770 f140 3770 f140 fadc a23e
00000140: 3cd0 0e41 ea67 fa40 e967 fa40 a704 e03d
00000150: c43b fb40 d224 d540 d224 d540 4768 d93d
00000160: c137 0941 b21b d840 b21b d840 f0e3 1d3e
00000170: ec07 1041 7b9e ea40 7a9e ea40 8b32 1e3e

exp_avg f4 [76, 130]
0.10125219 0.16289027 0.06039503 0.028458208 0.18884864 -0.014918851 -0.06326825 0.0060348473
0.036937647 -0.0061809323 -0.023397978 0.046183188 0.050453953 0.011880652 0.0067350687 0.08536662
0.0024174636 -0.012996223 0.11459862 0.10000712 0.14322378 0.108390264 0.019261332 0.33417094
0.14199781 0.034733772 0.078866325 0.13588242 0.07427527 0.118885405 0.06383532 0.15044197
0.2381851 0.09046671 -0.010000716 0.044487443 0.028574029 0.1507286 0.011079826 0.16943164
0.107400954 0.07591241 0.0265096 0.042808477 0.0035339112 0.07971313 0.09354034 0.030387018
0.052119106 0.14590183 -0.018058516 0.09936101 0.08946123 0.044074625 0.056788906 0.072626285
0.011514612 0.053232796 0.2545441 0.10970155 -0.003798674 0.09797206 0.0902303 0.31072426
0.16446757 0.14325969 -0.0050516706 0.058802914 -0.01427199 0.041077532 0.1310059 0.052890133
-0.05947385 -0.010644232 -0.022462549 -0.067426644 -0.041509777 -0.006718887 -0.028129878 -0.03966548
-0.0069231377 -0.043433838 -0.06644514 -0.05637558 -0.0037553064 0.107161075 0.13064706 0.07504098
0.07032478 0.1630142 0.10784931 0.014627639 0.017320603 0.008113677 0.051372383 0.07363608
0.032801446 0.10557783 0.16988668 0.011218214 0.0122028645 -0.035977922 -0.046461083 -0.021701656
-0.048762374 -0.053659353 -0.039832223 -0.044896815 -0.07359848 -0.05650502 -0.0010657229 -0.0055087577
0.004398718 -0.01798376 0.038629543 0.029297544 0.065152355 0.079974696 0.0606008 0.1260485
0.050990332 0.09477198 0.12452646 0.09151448 0.07182902 0.07356842 0.08327963 0.066978686
0.0846265 0.04109163 -0.012305195 -0.0037733554 -0.0011233625 -0.029020445 -0.004059966 -0.0028239589
-0.010646222 -0.03743259 -0.028954836 0.026782077 0.017870434 0.038625933 0.047784295 -0.04875695
0.06054731 0.052821852 0.009301341 0.057501733 0.028233986 0.01762235 0.005005811 -0.012345308
0.02009443 0.0010819607 -0.010949311 -0.0068777385 0.014405874 0.045385912 -0.007718905 0.048861913
-0.036342513 0.0007080803 -0.012593973 -0.0036869838 -0.017499026 -0.008385715 0.0360534 -0.02904164
0.0040378603 -0.024935663 -0.014272611 0.038501564 0.08111519 -0.02734836 -0.026087083 -0.022609325
-0.023979312 0.04932452 -0.038648427 0.0011457335 -0.0066261743 -0.0179626 0.018028697 -0.019719284
0.023634547 -0.0028860893 0.013866524 -0.017912973 0.023934754 0.0075948667 -0.0069305385 0.009331273
0.020860197 0.0063658766 0.0387493 -0.016755765 -0.006704031 0.014943195 -0.015088991 -0.013236141
-0.0013405257 0.016968511 0.014110625 -0.031060573 -0.020526256 0.0067263837 0.020011833 0.03305068
0.03304978 0.0039782147 0.031987645 0.052294996 0.017664053 0.034021687 0.044120826 0.024455747
0.012041743 0.004703112 0.032692093 0.044046372 0.016770968 0.0007171262 0.038707957 0.04028939
0.012538125 0.019188853 0.02152135 0.031066537 0.039988525 -0.009458064 -0.0009711875 0.012484072
0.0008422978 -0.002572042 -0.01905986 -0.014312139 0.016950203 0.013545999 0.050120153 0.021957183
0.03753277 0.027496472 0.020332888 0.053241756 0.035972003 0.039639056 0.030399509 0.025615608
0.034565173 0.026667662 0.020221794 0.021639276 0.012296887 0.010852297 0.011912729 0.02656694
00000000: 4f5d cf3d b5cc 263e c760 773d 3021 e93c
00000010: 8a61 413e 326e 74bc c992 81bd f8bf c53b
00000020: ee4b 173d 6b89 cabb 1ead bfbc 952a 3d3d
00000030: cea8 4e3d 11a7 423c dab1 dc3b b2d4 ae3d
00000040: 4f6e 1e3b 1cee 54bc aeb2 ea3d 88d0 cc3d
00000050: 41a9 123e b7fb dd3d f1c9 9d3c 7418 ab3e
00000060: e067 113e 0045 0e3d ab84 a13d c324 0b3e
00000070: a21d 983d 317a f33d 18bc 823d 760d 1a3e
00000080: cbe6 733e 9c46 b93d 0bda 23bc 7738 363d
00000090: 1514 ea3c 9958 1a3e 2988 353c 7d7f 2d3e
000000a0: 08f5 db3d f777 9b3d a92a d93c f157 2f3d
000000b0: 3199 673b a340 a33d 1492 bf3d 32ee f83c
000000c0: d87a 553d 4a67 153e 74ef 93bc c97d cb3d
000000d0: 7337 b73d 9887 343d 7c9b 683d 17bd 943d
000000e0: c8a7 3c3c a20a 5a3d 9b53 823e 35ab e03d
000000f0: 2df3 78bb 93a5 c83d aaca b83d 4017 9f3e
00000100: 306a 283e abb2 123e 7c88 a5bb 53db 703d
00000110: 11d5 69bc ea40 283d 6926 063e 53a3 583d
00000120: da9a 73bd 2565 2ebc 6103 b8bc fb16 8abd
00000130: 2806 2abd 1c2a dcbb a170 e6bc 4578 22bd
00000140: 7ddb e2bb aee7 31bd 6414 88bd 15ea 66bd
00000150: 961b 76bb 4477 db3d 58c8 053e 16af 993d
00000160: 7006 903d 32ed 263e 19e0 dc3d c4a8 6f3c
00000170: f0e3 8d3c 3aef 043c d96b 523d 83ce 963d
00000180: cf5a 063d 3039 d83d c6f6 2d3e 9acc 373c
00000190: 86ee 473c 965d 13bd fa4d 3ebd acc7 b1bc
000001a0: 0ebb 47bd e9c9 5bbd 1d27 23bd b9e5 37bd
000001b0: cdba 96bd cf71 67bd baaf 8bba cf82 b4bb
000001c0: 1f23 903b ae52 93bc 033a 1e3d 6701 f03c
000001d0: 996e 853d c6c9 a33d 8b38 783d dc12 013e
000001e0: 3ddb 503d d017 c23d bb07 ff3d f26b bb3d
000001f0: 181b 933d 0aab 963d 838e aa3d 1f2c 893d
00000200: a950 ad3d b24f 283d bb9b 49bc 664a 77bb
00000210: ca3d 93ba 49bc edbc 7709 85bb 2b12 39bb
00000220: 7e6d 2ebc ea52 19bd b132 edbc 1666 db3c
00000230: 0465 923c 3a36 1e3d 77b9 433d 5eb5 47bd
00000240: 7500 783d ba5b 583d a764 183c f086 6b3d
00000250: f64a e73c bf5c 903c c907 a43b fa43 4abc
00000260: 139d a43c 94d0 8d3a bd64 33bc a75e e1bb
00000270: 9d06 6c3c 94e6 393d deee fcbb 6e23 483d
00000280: e3db 14bd 779e 393a f456 4ebc 53a1 71bb
00000290: 1e5a 8fbc 3d64 09bc bbac 133d bce8 edbc
000002a0: 0750 843b e045 ccbc abd7 69bc d1b3 1d3d
000002b0: b91f a63d ab09 e0bc 94b4 d5bc 3137 b9bc
000002c0: 4370 c4bc 8208 4a3d d04d 1ebd 702c 963a
000002d0: 6120 d9bb 4d26 93bc ebb0 933c 568a a1bc
000002e0: 3d9d c13c 8b24 3dbb 6b30 633c 3abe 92bc
000002f0: d112 c43c 5cde f83b 9219 e3bb 32e2 183c
00000300: 01e3 aa3c d898 d03b 96b7 1e3d 6343 89bc
00000310: 7dad dbbb 4dd4 743c d137 77bc 66dc 58bc
00000320: 94b4 afba 8c01 8b3c 4030 673c be72 febc
00000330: ae26 a8bc ff68 dc3b dbef a33c 2660 073d
00000340: 355f 073d af5b 823b 7a05 033d 4733 563d
00000350: 34b4 903c 535a 0b3d 0ab8 343d 6b57 c83c
00000360: bb4a 453c 901c 9a3b 25e8 053d f869 343d
00000370: 4563 893c 86fd 3b3a 3c8c 1e3d 7d06 253d
00000380: b56c 4d3c f131 9d3c 8b4d b03c 407f fe3c
00000390: 02cb 233d fff5 1abc 4a97 7eba fe89 4c3c
000003a0: a6cd 5c3a b48f 28bb 6c23 9cbc 767d 6abc
000003b0: 27db 8a3c 0af0 5d3c ca4a 4d3d 8ddf b33c
000003c0: f6bb 193d 4840 e13c 2891 a63c 0714 5a3d
000003d0: 6157 133d 905c 223d 6408 f93c d3d7 d13c
000003e0: 3694 0d3d 2476 da3c 2da8 a53c da44 b13c
000003f0: e278 493c d5cd 313c 9b2d 433c e9a2 d93c
