TrainedModel/Dueling DQN-1/26500_0-05_DuelingDQN.pth (torch, 291221 bytes, 33 tensors)

conv1.weight f4 [1, 6, 1, 4]
1.4070296 0.48307085 0.30398965 0.51406133 0.19742918 0.18163618 0.288373 0.27084154
0.13070147 0.06496902 -0.2919776 -0.3785432 -0.0045327386 0.3243945 -0.48143262 -0.14739043
-0.044196878 -0.07083445 -0.13460137 -0.45007846 0.05579566 0.067379534 -0.32508 -0.46260977
00000000: 8c19 b43f 1055 f73e 88a4 9b3e 8699 033f
00000010: e02a 4a3e d6fe 393e a0a5 933e beab 8a3e
00000020: 9bd6 053e 7a0e 853d 177e 95be 6ad0 c1be
00000030: 5e87 94bb 0917 a63e 567e f6be 84ed 16be
00000040: c907 35bd a711 91bd f1d4 09be af70 e6be
00000050: fd89 643d 48fe 893d e370 a6be 30db ecbe

conv2.weight f4 [1, 6, 2, 4]
-0.073240764 0.027424997 0.19126858 0.40047222 -0.19353072 0.67397755 0.6043166 -0.6256431
0.19426838 0.5018723 0.34308726 -0.20596682 -0.02293394 -0.5327701 -0.5123794 -0.11943343
0.7028933 0.44197497 0.42879793 -0.32356596 0.20825405 -0.15196091 0.41888386 -1.0537026
-0.089881666 -0.2210049 0.20952113 0.14358331 -0.0053258734 -0.24400876 0.33175716 -0.07410561
-0.023484599 -0.21990776 0.3489327 0.2693292 -0.062627025 0.20397362 -0.055806197 -0.29511225
0.21685061 0.1526457 -0.12954548 0.2808951 -0.120419666 -0.015981305 -0.036145706 -0.15400149
00000000: 41ff 95bd 63aa e03c e9db 433e b20a cd3e
00000010: eb2c 46be cb89 2c3f 7eb4 1a3f 252a 20bf
00000020: 4aee 463e b47a 003f 22a9 af3e f7e8 52be
00000030: f5df bbbc 9f63 08bf 4c2b 03bf 8499 f4bd
00000040: d1f0 333f 8b4a e23e 678b db3e 70aa a5be
00000050: 8d40 553e a49b 1bbe f277 d63e badf 86bf
00000060: e113 b8bd 1c4f 62be b58c 563e 8107 133e
00000070: aa84 aebb 6fdd 79be 13dc a93e afc4 97bd
00000080: c662 c0bc 802f 61be 4fa7 b23e 84e5 893e
00000090: 9942 80bd 76de 503e 0a95 64bd f418 97be
000000a0: 160e 5e3e 284f 1c3e 92a7 04be 7cd1 8f3e
000000b0: 969e f6bd 3aeb 82bc 850d 14bd 91b2 1dbe

conv3.weight f4 [1, 6, 3, 4]
0.36986822 0.32812583 -0.006494465 0.10678398 0.43869162 0.8385071 -0.06117301 0.5242433
0.117351435 0.66190267 0.21529493 0.4268951 -0.15295042 -0.21717411 -0.11469531 -0.06306782
-0.029748889 -0.077189445 -0.055936072 -0.062407278 0.0966625 0.21074143 0.020489845 -0.035203014
0.051631797 -0.08310451 -0.08185048 0.20860673 -0.19542111 0.091686055 -0.013335172 0.10086807
0.16494302 -0.21637778 0.13581033 0.4063082 -0.17237033 0.09830356 0.16326864 0.034441255
0.12362445 0.14972839 -0.15725635 -0.041462332 0.0015699858 -0.15588741 0.1030212 0.17159106
-0.018319521 0.06404633 0.09143159 -0.19302812 0.08139213 -0.31552377 0.17537346 0.052660152
-0.052018557 0.23616943 -0.12724923 -0.016446836 -0.06553098 0.0028334055 0.030021647 0.049609277
-0.12868959 0.051111713 0.10230295 -0.3431588 0.127314 -0.09775089 0.15163134 0.3265191
00000000: 5e5f bd3e 1c00 a83e 85cf d4bb 8fb1 da3d
00000010: 309c e03e 67a8 563f 8d90 7abd cf34 063f
00000020: f355 f03d 7472 293f 4676 5c3e ff91 da3e
00000030: 099f 1cbe e462 5ebe 60e5 eabd b429 81bd
00000040: f1b3 f3bc 8015 9ebd 391d 65bd c69e 7fbd
00000050: fdf6 c53d 9acc 573e 52da a73c 0931 10bd
00000060: dd7b 533d b332 aabd 39a1 a7bd 019d 553e
00000070: 791c 48be e6c5 bb3d c47b 5abc eb93 ce3d
00000080: d3e6 283e 2392 5dbe dd11 0b3e a107 d03e
00000090: d981 30be 6053 c93d e52f 273e 4612 0d3d
000000a0: d12e fd3d 6652 193e cf07 21be 68d4 29bd
000000b0: fbc7 cd3a f3a0 1fbe c7fc d23d 91b5 2f3e
000000c0: d212 96bc b92a 833d 7c40 bb3d 2aa9 45be
000000d0: ebb0 a63d 558c a1be 1a95 333e 2cb2 573d
000000e0: 6911 55bd 66d6 713e 9f4d 02be 84bb 86bc
000000f0: 1b35 86bd a8b0 393b f5ef f53c 1933 4b3d
00000100: 34c7 03be 845a 513d 3684 d13d 83b2 afbe
00000110: 9a5e 023e 9e31 c8bd 3f45 1b3e 832d a73e

conv4.weight f4 [1, 6, 4, 4]
0.35512006 -0.09164563 0.16511305 0.09751354 0.3952529 -0.49920106 -0.120066576 -0.0429193
0.07880864 -0.12689859 -0.030341616 0.12816961 0.34953776 -0.416026 -0.14366388 0.1966949
0.10800812 0.1405157 0.05452006 -0.019295149 -0.079910964 -0.048240595 0.026092852 0.030545453
-0.034709778 -0.09194208 -0.054564536 -0.025591185 -0.06548587 -0.072666325 -0.07991806 -0.0878481
0.054618236 -0.11921087 0.11942627 0.06854404 0.13445257 -0.0042265924 -0.10076802 0.10503158
0.2350716 -0.2029902 -0.024793804 0.09528112 -0.2681955 0.14402226 0.029918753 0.30404183
-0.017712295 -0.11024057 0.0076475185 0.20942557 -0.0960456 0.093725525 -0.073375106 0.01933337
0.14636934 0.0029117381 -0.019266266 -0.165156 0.06712751 0.014523079 0.12090998 0.044942252
-0.07236127 -0.106106214 0.04835614 -0.10979784 -0.03963474 -0.052218378 0.03516384 -0.15873693
-0.013477118 -0.108233236 0.1328134 0.2157465 0.061369196 -0.04485253 0.18523195 -0.23431428
-0.003418457 0.063034795 -0.0287419 0.017310275 0.12676357 -0.035838667 -0.21534303 0.046959605
-0.10635675 -0.0538144 0.13328838 0.05862062 -0.09612161 0.037735928 0.041766014 0.0040110806
00000000: 4cd2 b53e b4b0 bbbd 6513 293e 2eb5 c73d
00000010: 975e ca3e 4897 ffbe 77e5 f5bd 26cc 2fbd
00000020: 6d66 a13d b4f1 01be fb8e f8bc e53e 033e
00000030: 9df6 b23e 5c01 d5be a01c 13be 636a 493e
00000040: 5c33 dd3d 59e3 0f3e 6d50 5f3d dc10 9ebc
00000050: 5ca8 a3bd ee97 45bd adc0 d53c 753a fa3c
00000060: d72b 0ebd 214c bcbd 107f 5fbd 9ba4 d1bc
00000070: 751d 86bd 15d2 94bd 14ac a3bd b4e9 b3bd
00000080: 5fb7 5f3d d424 f4bd c395 f43d d160 8c3d
00000090: efad 093e 3a7f 8abb 775f cebd cc1a d73d
000000a0: 9cb6 703e aadc 4fbe 601c cbbc bf22 c33d
000000b0: ec50 89be 927a 133e 2c18 f53c 5fab 9b3e
000000c0: 6019 91bc cfc5 e1bd 0998 fa3b a873 563e
000000d0: 8eb3 c4bd 2bf3 bf3d b045 96bd 0461 9e3c
000000e0: d8e1 153e dcd2 3e3b 4ad4 9dbc a81e 29be
000000f0: 267a 893d 35f2 6d3c a79f f73d 5e15 383d
00000100: 2532 94bd 374e d9bd 1611 463d b1dd e0bd
00000110: 0a58 22bd f0e2 55bd f507 103d ef8b 22be
00000120: 21cf 5cbc 63a9 ddbd 3c00 083e a7ec 5c3e
00000130: 445e 7b3d 49b7 37bd 72ad 3d3e 15f0 6fbe
00000140: 3108 60bb 6318 813d 2274 ebbc 47ce 8d3c
00000150: 4fce 013e 91cb 12bd e282 5cbe b758 403d
00000160: 91d1 d9bd 7d6c 5cbd c07c 083e 2d1c 703d
00000170: 68db c4bd fd90 1a3d d712 2b3d 626f 833b

fc3_adv.weight f4 [76, 130]
0.099251814 -0.016864866 -0.080308914 -0.16591823 -0.15900175 -0.1246656 0.20164812 0.060167868
0.13513592 0.02570376 -0.08198009 -0.018142909 0.24100469 0.17056537 0.05739579 0.007434478
0.029009638 -0.028829485 0.19694509 0.16778553 0.44285068 -0.36597633 -1.4023448 -0.81686
-0.9144337 -0.8518489 -0.35202354 0.16300945 0.18423055 -0.0169963 0.1004873 -0.029101143
0.21287303 0.071330205 -0.1027828 0.23426874 0.46789074 0.34762028 0.05467283 0.4154051
0.14093481 0.45174918 0.2351538 0.71274924 0.2444015 0.42243525 0.27979204 0.7357292
0.5344284 0.21261773 0.15006875 0.22466393 -0.04415411 -0.11480552 0.31829104 0.3098367
-0.032510158 0.08271653 0.22839212 0.22379793 0.57237387 0.43769842 0.117975876 -0.032632697
-0.076283686 0.1684861 0.51676315 0.36529976 0.17804521 0.20043157 0.28160313 0.0153318215
0.00150056 0.37050378 0.23760507 0.033941966 0.28301203 0.2147307 -0.030435588 0.2650975
-6.062378e-05 0.08841358 -0.051048707 0.27778623 0.054145746 -0.07401112 0.19265726 0.15623854
-0.8203711 -1.2865988 -1.0339595 -0.90631706 -0.7793507 -0.048322283 0.038243823 0.17655006
-0.069249794 0.13722983 0.035587274 0.07027712 0.30404297 0.0085178 0.050216597 -0.037000887
0.1839464 0.16073267 0.039930865 0.041986093 0.24856158 0.0077440515 0.10503939 -0.08880707
0.054690327 -0.18089704 0.13845624 0.44474268 0.5040917 -0.07966697 0.12649912 -0.051435497
-0.51801497 -0.3769895 -0.37563774 -0.3817031 -0.4790368 0.049628627 0.1258831 0.15545335
0.023946848 0.30008295 0.18773556 0.3721076 0.107494235 0.24787958 0.16482167 0.21400566
-0.070076644 0.13600703 0.39407584 0.22811665 0.28371748 0.29417887 0.47087866 0.15339765
-0.052076828 0.27648017 0.27702275 0.41894642 0.06771433 0.13620211 0.45205882 0.28557214
-0.02990695 0.089889176 0.32838833 0.4145567 0.17322011 0.04477482 0.16846955 0.13420816
0.5996964 0.24053904 0.2654572 0.15205713 -0.010336497 -0.15601811 -0.12215262 0.011353414
0.022756586 -0.18574464 -0.068479076 0.005307802 0.008552531 -0.047534645 0.063602105 0.08716476
0.29108745 0.072655186 -0.031261463 -0.1805653 0.0588259 -0.2511429 -0.27248898 -0.061140023
-0.14792514 -0.1323326 0.073607974 0.126753 -0.071113735 -0.0061074644 -0.15396802 0.22620843
-0.3023491 0.00479101 -0.011137385 0.09004101 0.24221382 0.033688553 0.007933499 0.23820259
0.08168605 0.23195438 0.010506988 -0.11757303 -0.0019871164 0.11511282 0.08601097 -0.034080777
-0.009798598 0.4002341 0.09908447 -0.18229374 -0.0596316 0.020109754 -0.005628104 0.1420931
0.01660945 0.16038609 0.18086287 -0.040707294 0.20224977 0.31889576 0.00594538 -0.13454048
-0.22886014 -0.084334716 -0.13691676 0.103309795 0.13160065 -0.0147491945 -0.27299148 0.040895294
-0.20464258 -0.11149043 -0.17809778 0.060925033 -0.111621134 -0.024788836 -0.037241016 -0.04655495
-0.23220788 -0.021186486 0.0611375 -0.06862338 -0.115996026 -0.13989295 0.24480261 0.02631497
-0.049174227 -0.10059248 -0.19109668 -0.11228618 -0.18601246 0.20568603 0.030472293 0.2788605
00000000: 8944 cb3d 3028 8abc 0079 a4bd 78e6 29be
00000010: 5bd1 22be ae50 ffbd d87c 4e3e 9572 763d
00000020: 1261 0a3e b190 d23c 2de5 a7bd 70a0 94bc
00000030: efc9 763e b0a8 2e3e d917 6b3d ec9c f33b
00000040: 9fa5 ed3c d02b ecbc f9ab 493e f8cf 2b3e
00000050: 53bd e23e 4061 bbbe 0980 b3bf bd1d 51bf
00000060: 5418 6abf c512 5abf 6e3c b4be f3eb 263e
00000070: efa6 3c3e d33b 8bbc 49cc cd3d 8565 eebc
00000080: 63fb 593e 9215 923d ca7f d2bd 25e4 6f3e
00000090: 608f ef3e 49fb b13e 9ef0 5f3d faaf d43e
000000a0: 3751 103e ab4b e73e 28cc 703e bc76 363f
000000b0: 6344 7a3e 6f49 d83e e740 8f3e c058 3c3f
000000c0: 4dd0 083f 76b8 593e 9fab 193e 4d0e 663e
000000d0: f1da 34bd 281f ebbd 0bf7 a23e eaa2 9e3e
000000e0: 5f29 05bd 4967 a93d a0df 693e 492b 653e
000000f0: 1887 123f 021a e03e 569d f13d dda9 05bd
00000100: 9f3a 9cbd 9f87 2c3e 974a 043f 9208 bb3e
00000110: 7c51 363e ef3d 4d3e 492e 903e 5232 7b3c
00000120: 70ae c43a acb2 bd3e be4e 733e bb06 0b3d
00000130: f4e6 903e 5de2 5b3e 0e54 f9bc dcba 873e
00000140: 4a46 7eb8 2e12 b53d 7318 51bd ff39 8e3e
00000150: eec7 5d3d 2493 97bd f247 453e fffc 1f3e
00000160: d703 52bf 45af a4bf c958 84bf 6504 68bf
00000170: 8783 47bf 96ed 45bd 8ea5 1c3d 8ac9 343e
00000180: d6d2 8dbd fa85 0c3e f6c3 113d 73ed 8f3d
00000190: 85ab 9b3e 3e8e 0b3c ebaf 4d3d 3e8e 17bd
000001a0: 725c 3c3e 1b97 243e 8c8e 233d 9cf9 2b3d
000001b0: ed86 7e3e d0c1 fd3b e41e d73d 7be0 b5bd
000001c0: f702 603d 133d 39be 79c7 0d3e 50b5 e33e
000001d0: 270c 013f 7028 a3bd fc88 013e 07ae 52bd
000001e0: a19c 04bf c504 c1be 9753 c0be 976e c3be
000001f0: 5044 f5be 6347 4b3d 80e7 003e 2a2f 1f3e
00000200: 2e2c c43c 79a4 993e c03d 403e e384 be3e
00000210: f025 dc3d 25d4 7d3e 03c7 283e 4d24 5b3e
00000220: 5884 8fbd 6d45 0b3e 4fc4 c93e 6997 693e
00000230: 6b43 913e 9d9e 963e 0217 f13e 4614 1d3e
00000240: 834e 55bd cf8e 8d3e edd5 8d3e 2580 d63e
00000250: d0ad 8a3d 9178 0b3e 4174 e73e 8336 923e
00000260: 6cff f4bc d117 b83d 8422 a83e c740 d43e
00000270: 9d60 313e cd65 373d 4883 2c3e dd6d 093e
00000280: b485 193f de4f 763e 02ea 873e ddb4 1b3e
00000290: 695a 29bc 36c3 1fbe 272b fabd ab03 3a3c
000002a0: 056c ba3c d833 3ebe c23e 8cbd 12ed ad3b
000002b0: ea1f 0c3c b0b3 42bd d241 823d 7083 b23d
000002c0: 6a09 953e 3ecc 943d 050c 00bd 1ce6 38be
000002d0: 6df3 703d cd95 80be ad83 8bbe f66d 7abd
000002e0: b079 17be 3282 07be c7bf 963d 8acb 013e
000002f0: 14a4 91bd 2021 c8bb cba9 1dbe 2fa3 673e
00000300: 80cd 9abe e8fd 9c3b 9479 36bc 6c67 b83d
00000310: e606 783e 02fd 093d 82fb 013c 61eb 733e
00000320: 044b a73d 7385 6d3e 8025 2c3c 21ca f0bd
00000330: 483a 02bb 45c0 eb3d 8526 b03d 4998 0bbd
00000340: 4c8a 20bc 7ceb cc3e ccec ca3d 36ab 3abe
00000350: 4440 74bd 36bd a43c f56b b8bb db80 113e
00000360: 8b10 883c 403c 243e 1e34 393e b1bc 26bd
00000370: 901a 4f3e 4e46 a33e 76d1 c23b fbc4 09be
00000380: 505a 6abe aeb7 acbd e833 0cbe 1694 d33d
00000390: 52c2 063e 9ba6 71bc 8ac5 8bbe d381 273d
000003a0: d38d 51be 1855 e4bd 445f 36be 878c 793d
000003b0: 9f99 e4bd f511 cbbc 098a 18bd 67b0 3ebd
000003c0: e7c7 6dbe 488f adbc 516b 7a3d 6a8a 8cbd
000003d0: 538f edbd 1940 0fbe 89ad 7a3e 7e92 d73c
000003e0: ea6a 49bd 6e03 cebd d9ae 43be 4cf6 e5bd
000003f0: 0d7a 3ebe 5c9f 523e 08a1 f93c cec6 8e3e

fc3_adv.bias f4 [76]
0.18792434 0.09561958 -0.10293336 0.22773154 0.1744147 0.29135382 0.13752529 0.045104377
0.08715185 0.120799005 0.0033092184 0.06783062 0.07063866 0.07806402 1.0232925 0.100568786
0.10359555 0.18049051 0.06746027 0.22281344 0.048430003 -0.0076414584 0.29533538 0.15985367
0.03659685 0.112951696 0.06744821 -0.1244635 0.09971842 0.06877213 0.22573262 -0.009677453
0.25359914 0.15460695 0.029439364 -0.01319933 0.06419254 0.029892234 0.0988177 0.07618575
0.15998022 0.05176165 0.034383126 0.018391958 0.10047533 0.117805846 0.19012892 0.17367263
0.14153215 0.18764438 0.2698796 0.15135264 -0.051345747 0.06034112 0.07457116 0.048284825
0.06102121 0.04355954 0.1365543 0.06566404 -0.034321573 0.104172505 0.039463732 0.106633216
0.18142635 0.11781868 0.03419131 0.028502556 0.015111621 0.006632906 0.08901788 -0.02618713
0.13182692 0.044386767 0.21095183 0.13987233
00000000: 3d6f 403e 33d4 c33d bace d2bd 7532 693e
00000010: c499 323e 542c 953e 6ed3 0c3e 5ebf 383d
00000020: ab7c b23d 7865 f73d 79df 583b c8ea 8a3d
00000030: 00ab 903d 07e0 9f3d 40fb 823f 02f7 cd3d
00000040: e729 d43d 81d2 383e 9c28 8a3d 3529 643e
00000050: 8a5e 463d 3365 fabb 3336 973e aeb0 233e
00000060: 94e6 153d 3853 e73d 4a22 8a3d b8e6 febd
00000070: 2c39 cc3d 67d8 8c3d 7426 673e 2e8e 1ebc
00000080: bfd7 813e 4951 1e3e d22a f13c 0142 58bc
00000090: 6177 833d 8fe0 f43c ef60 ca3d 4607 9c3d
000000a0: dbd1 233e 0604 543d 52d5 0c3d bbaa 963c
000000b0: 03c6 cd3d 3144 f13d 28b1 423e 3dd7 313e
000000c0: ceed 103e d925 403e a92d 8a3e 30fc 1a3e
000000d0: eb4f 52bd 4028 773d c4b8 983d 4fc6 453d
000000e0: 60f1 793d 7d6b 323d e4d4 0b3e de7a 863d
000000f0: c794 0cbd 6558 d53d b9a4 213d 8462 da3d
00000100: d4c7 393e ec4a f13d 300c 0c3d 317e e93c
00000110: bb96 773c d958 d93b 024f b63d 6486 d6bc
00000120: a3fd 063e e6ce 353d c203 583e b13a 0f3e

fc3_val.weight f4 [76, 130]
0.11215275 -0.005076011 0.0034648806 0.048368923 0.07390588 0.084578775 -0.073464565 0.01215367
0.15591338 0.2116143 0.064722314 -0.098837644 0.03863249 -0.044529844 0.047823977 -0.12278237
0.25836763 -0.10665604 0.062147506 -0.15158819 -0.1438569 0.056814697 -0.040044054 -0.007131238
0.052621216 0.11991878 0.08288499 -0.09850226 0.22865793 0.22521883 0.07656055 -0.020616358
0.32570457 0.13005713 0.1889485 0.1841953 0.06524715 0.23823106 0.0440066 0.11709755
0.16618352 0.24199344 0.09973929 0.018821387 0.32824436 0.06610996 -0.0024320132 0.15217759
0.22919987 0.17984174 0.12931065 0.28577083 0.025810953 0.22696932 0.14026465 0.10776668
-0.009056771 0.13914041 0.083693855 0.07669705 0.06954685 0.2517607 0.012751066 0.15603568
0.08044569 0.1409209 0.13011259 0.044578698 0.0397951 0.18815209 -0.05564116 0.006597192
0.09714808 0.31051925 0.16794376 0.19981186 0.1413146 0.2572967 0.05904116 0.045388773
-0.020363478 0.0052548186 -0.019729383 0.052961677 0.15172204 0.12092314 0.1703235 0.10386898
0.23891507 0.048823044 0.14756116 0.0731722 -0.027633533 0.025644932 0.04884084 0.07520703
0.21025497 0.17781928 0.11860036 0.29357663 0.166508 0.22336437 -0.027039835 0.058697436
0.31691688 0.17358424 0.15493774 0.25580832 0.098736286 0.08654529 0.20370051 0.06262925
0.16471428 0.2102272 0.14839719 0.011301078 0.35100007 0.2654539 0.27473384 0.4028098
0.20640795 0.27543768 0.1724668 0.29993334 0.22522338 0.44247097 0.34924188 0.24295409
0.35309604 0.21436138 -0.060843874 0.09507703 0.12631908 -0.02325946 0.041212622 -0.090472504
0.0740091 -0.031910647 -0.05606107 0.009577528 0.16697806 0.014558679 0.14069706 0.14557923
-0.16529742 0.16776928 0.16018291 0.20022671 0.047558803 -0.16786498 -0.037054908 -0.06408809
0.17215374 0.03909059 0.036474332 -0.072792396 -0.07163631 0.1784061 -0.052331075 -0.0231888
0.1560753 0.14485055 0.036002286 -0.06310096 0.12687182 0.077285446 0.18516128 0.21838738
0.025430223 0.30710065 0.0817335 0.037643436 0.096059166 -0.030108908 0.13405088 0.2991584
0.21298817 0.021995764 0.26964203 0.19530028 0.280066 0.1346392 0.22869769 -0.029165931
0.12803803 0.018096948 0.21236205 -0.035707798 0.24425411 0.14887987 0.2779764 0.24634926
0.15438601 -0.0026666494 -0.014568995 0.0949526 -0.0121164685 0.27075878 0.22862194 0.21822909
0.14223199 0.0072931675 0.051089972 0.32265824 0.20539778 0.13989368 0.08046797 0.009995294
0.03306741 -0.00095377193 0.21912788 0.11694108 0.17444094 0.20408702 0.13553299 0.19543847
0.050663047 0.032780085 -0.013955597 -0.068941034 0.22296408 0.08559653 -0.06030459 0.04527847
0.10685637 0.06872727 0.17842913 0.1864204 0.00761371 0.1282999 0.36537597 0.05319627
0.02243568 0.1720912 0.23619653 0.14667696 0.26029804 0.099451296 0.33230895 0.2415249
0.12539005 0.27249783 -0.008425876 0.08330697 0.16016434 0.23379004 0.33317032 0.19994473
0.1371464 0.3360516 0.17173065 0.18807377 0.19389437 0.14814204 0.35276797 0.13238357
00000000: 57b0 e53d ab54 a6bb 0d13 633b 7e1e 463d
00000010: f75b 973d a337 ad3d 9774 96bd 3020 473c
00000020: c2a7 1f3e 6bb1 583e 228d 843d 646b cabd
00000030: 1a3d 1e3d ed64 36bd 13e3 433d 5375 fbbd
00000040: c348 843e 7b6e dabd 628e 7e3d ef39 1bbe
00000050: 394f 13be 87b6 683d 3c05 24bd 29ad e9bb
00000060: 5889 573d fa97 f53d 9bbf a93d 8ebb c9bd
00000070: 4e25 6a3e c49f 663e c7cb 9c3d a3e3 a8bc
00000080: c0c2 a63e b22d 053e b77b 413e b19d 3c3e
00000090: 4ca0 853d d8f2 733e 4440 343d d7d0 ef3d
000000a0: 032c 2a3e 21cd 773e 1d44 cc3d 4f2f 9a3c
000000b0: a50f a83e a964 873d 6962 1fbb 71d4 1b3e
000000c0: 5fb3 6a3e 6f28 383e 036a 043e 8e50 923e
000000d0: 7e71 d33c a56a 683e 89a1 0f3e c7b4 dc3d
000000e0: da62 14bc d37a 0e3e af67 ab3d 5813 9d3d
000000f0: 946e 8e3d c7e6 803e d9e9 503c d1c7 1f3e
00000100: b6c0 a43d 924d 103e 3c3c 053e 2798 363d
00000110: 3000 233d f1aa 403e fce7 63bd 422d d83b
00000120: 93f5 c63d 61fc 9e3e 73f9 2b3e 7b9b 4c3e
00000130: c6b4 103e 65bc 833e 25d5 713d 94e9 393d
00000140: 4fd1 a6bc 9d30 ac3b 849f a1bc 58ee 583d
00000150: 065d 1b3e 8da6 f73d 4969 2e3e 43b9 d43d
00000160: 27a6 743e acfa 473d 461a 173e 4edb 953d
00000170: b85f e2bc 5215 d23c 550d 483d 2506 9a3d
00000180: 144d 573e 4216 363e bfe4 f23d ad4f 963e
00000190: 1381 2a3e a1b9 643e a582 ddbc b96c 703d
000001a0: ee42 a23e 11c0 313e 00a8 1e3e 4ff9 823e
000001b0: 4036 ca3d a83e b13d de96 503e c443 803d
000001c0: dcaa 283e cd45 573e 6ff5 173e 2828 393c
000001d0: 48b6 b33e 93e9 873e eaa9 8c3e 163d ce3e
000001e0: 9b5c 533e 2b06 8d3e 239b 303e dd90 993e
000001f0: f5a0 663e 8e8b e23e d5cf b23e f5c8 783e
00000200: 01c9 b43e 8d81 5b3e 6d37 79bd bfb7 c23d
00000210: ca59 013e a08a bebc 91ce 283d a649 b9bd
00000220: 1592 973d bdb4 02bd 4ba0 65bd 10eb 1c3c
00000230: 4cfc 2a3e 8787 6e3c e412 103e b912 153e
00000240: ba43 29be b6cb 2b3e fd06 243e 3b08 4d3e
00000250: 05cd 423d cce4 2bbe e3c6 17bd 9e40 83bd
00000260: 1249 303e 741d 203d 1c66 153d 2e14 95bd
00000270: 0fb6 92bd 17b0 363e 1c59 56bd 70f6 bdbc
00000280: 34d2 1f3e b453 143e 2277 133d 133b 81bd
00000290: b0ea 013e d547 9e3d eb9a 3d3e f1a0 5f3e
000002a0: 0b53 d03c 4c3c 9d3e e563 a73d 0130 1a3d
000002b0: abba c43d f5a6 f6bc a244 093e 4a2b 993e
000002c0: 9219 5a3e 7630 b43c 850e 8a3e ccfc 473e
000002d0: d064 8f3e dcde 093e ba2f 6a3e 64ed eebc
000002e0: 671c 033e 0d40 943c 7075 593e 5742 12bd
000002f0: c01d 7a3e f773 183e ec52 8e3e fb42 7c3e
00000300: 5e17 1e3e f4c2 2ebb cbb2 6ebc 8276 c23d
00000310: 2784 46bc e5a0 8a3e df1b 6a3e 7277 5f3e
00000320: 43a5 113e 86fb ee3b b843 513d 7633 a53e
00000330: cc53 523e 4a40 0f3e 64cc a43d 4dc3 233c
00000340: b171 073d 8d06 7aba 0f63 603e ce7e ef3d
00000350: a5a0 323e 30fc 503e 29c9 0a3e 0621 483e
00000360: 0e84 4f3d 6944 063d 04a6 64bc f530 8dbd
00000370: b250 643e 3c4d af3d f201 77bd eb75 393d
00000380: 83d7 da3d e2c0 8c3d 20b6 363e fde4 3e3e
00000390: 6e7c f93b 0d61 033e 8f12 bb3e 55e4 593d
000003a0: 08cb b73c ad38 303e 81dd 713e 7c32 163e
000003b0: c945 853e 1fad cb3d 6624 aa3e 4e52 773e
000003c0: 4066 003e d684 8b3e af0c 0abc d89c aa3d
000003d0: 1f02 243e a866 6f3e 4d95 aa3e 50be 4c3e
000003e0: 1b70 0c3e f50e ac3e 29da 2f3e 6996 403e
000003f0: 3f8c 463e 8cb2 173e 019e b43e 8f8f 073e

fc3_val.bias f4 [76]
-0.21803962 -0.35297897 0.3772139 0.50237346 0.45617402 -0.24662617 -0.20715657 0.37794432
-0.3051186 -0.22209637 -0.2796394 -0.2967374 0.249762 -0.2559585 -0.3172251 0.4884813
0.42028388 -0.3200104 -0.24442276 -0.28601518 -0.30905512 -0.3182711 0.38001144 -0.19826443
-0.3292229 -0.27725953 -0.18948346 0.469147 0.5077614 -0.2845153 -0.33662665 0.37019724
0.7971951 0.40329143 -0.24500482 -0.23323093 0.44311285 -0.35131493 0.39992824 -0.2586246
-0.34307298 -0.35908082 1.4768229 0.44965225 -0.27063918 0.4630209 0.7048614 -0.37188777
0.38549694 -0.28296614 0.46094602 -0.21196309 -0.31734487 -0.18349938 0.5113624 -0.34903884
0.39813605 0.38828343 -0.20636332 -0.21109694 -0.1936012 -0.21748208 0.36469108 -0.34464553
-0.2244366 -0.25821888 -0.31085002 0.4356499 -0.28126565 -0.33817258 0.36285135 -0.28913867
-0.26474538 -0.20142856 -0.24241203 0.6351004
00000000: c745 5fbe a9b9 b4be 2e22 c13e 8c9b 003f
00000010: a48f e93e 928b 7cbe da20 54be eb81 c13e
00000020: 8138 9cbe 3b6d 63be e52c 8fbe f7ed 97be
00000030: 9cc1 7f3e fe0c 83be 546b a2be 391a fa3e
00000040: 732f d73e 67d8 a3be f649 7abe 9570 92be
00000050: 793c 9ebe 6ef4 a2be dc90 c23e d505 4bbe
00000060: e78f a8be f6f4 8dbe f407 42be 0934 f03e
00000070: a7fc 013f fdab 91be 545a acbe 7e8a bd3e
00000080: fa14 4c3f 377c ce3e 8be2 7abe 17d4 6ebe
00000090: b0df e23e 8ddf b3be 65c3 cc3e 726a 84be
000000a0: 43a7 afbe 71d9 b7be 8808 bd3f d238 e63e
000000b0: 3891 8abe 1311 ed3e cc71 343f 1368 bebe
000000c0: db5f c53e f0e0 90be 1e01 ec3e da0c 59be
000000d0: 077b a2be 43e7 3bbe a5e8 023f 38b5 b2be
000000e0: 7dd8 cb3e 16cd c63e e850 53be cc29 58be
000000f0: 653f 46be 9fb3 5ebe cab8 ba3e 6175 b0be
00000100: b5d2 65be 4435 84be bc27 9fbe 810d df3e
00000110: 0d02 90be f524 adbe a7c7 b93e fc09 94be
00000120: b58c 87be 4a43 4ebe dc3a 78be f195 223f

fc4_adv.weight f4 [38, 76]
-0.21374655 -0.13365738 0.28046784 0.4153403 0.10910248 -0.019451799 0.16621882 0.16366832
0.2583289 0.14953655 0.0018485531 0.16494948 -0.071046345 -0.0392917 1.3559382 -0.13118647
0.1650457 0.17105952 0.19821692 0.16812968 0.12464761 -0.2724211 0.20193078 0.614042
0.060054272 0.041801546 0.06522006 0.020433515 0.018160192 -0.10890456 -0.030820988 0.22807163
0.063191734 0.11595705 -0.019765766 0.03552939 0.18313052 0.2986309 -0.03163967 0.08790854
0.08339165 0.07147604 0.19426925 0.060217608 -0.06928644 0.17276381 -0.043225825 0.42235225
-0.18546858 0.23338088 0.57118815 0.29475906 -0.066712976 -0.27552235 0.24954157 -0.10946245
-0.0031414123 -0.09755767 -0.083770916 0.13587764 0.18190736 0.25309512 0.20225091 0.22474921
0.15996107 0.20654489 -0.13265258 0.08900828 -0.14277504 -0.05638642 0.011785918 -0.12244297
0.28341985 0.1114839 0.12229879 -0.1899322 -0.12056302 -0.06925819 0.13316494 0.45516288
0.23373805 0.086764246 0.38224083 0.27130786 0.38069105 0.26787677 0.2266387 -0.28760722
-0.10074191 -0.11448055 1.439231 -0.037908487 0.16041249 0.16330153 -0.08604623 -0.14898722
0.23343936 0.055135407 0.13866815 0.24456711 0.17539462 -0.001052505 -0.028351367 0.16242823
0.07220104 0.21444675 0.05935183 0.4368378 0.03984346 -0.11945485 0.14670187 0.1990146
-0.10228349 -0.06626925 -0.14113893 0.21986224 0.14959107 0.19944686 0.081777886 -0.06703264
0.02652563 0.04959201 0.22854875 0.20427462 -0.05675223 -0.059793465 0.57562643 0.1920078
0.17380214 -0.17459148 0.4076347 0.13587822 -0.18536596 -0.18328743 0.1854277 0.06774434
0.15152808 0.06433196 -0.14649999 0.106774956 0.07295204 -0.03151854 0.36692685 -0.055837546
0.048865702 -0.09444926 0.2766378 0.03335103 0.028455285 -0.14452682 -0.15369006 0.044817384
-0.07972625 -0.084497266 0.30995417 0.22067216 0.3318743 0.11044493 0.2738342 0.07737912
0.09119723 -0.10211387 0.23886368 0.023315638 0.021799386 0.22224104 1.2423846 -0.42253375
0.1485124 -0.07837619 -0.15882502 0.01583511 0.22065791 -0.17482589 0.27453274 0.24505611
0.49107745 0.21587174 0.17223132 0.08564266 -0.12589204 0.38987297 0.043045852 0.31810552
0.07665623 0.26644418 -0.0035324981 -0.10283113 0.20129925 0.033161175 0.27699813 -0.08535278
0.19246925 0.1461746 0.23223361 -0.030947078 0.17529127 0.0015867428 -0.050114132 0.37061077
-0.11040571 -0.12292509 1.4671787 0.51326954 0.13805902 -0.08388202 0.2364359 0.32246548
0.2576672 0.084028706 0.638573 0.3839038 0.08231588 -0.0793 -0.17265558 0.3235237
0.2139112 0.16528465 -0.11076006 -0.15509678 -0.1500162 0.08651159 0.19905926 -0.22429751
0.21400245 -0.31518328 -0.026110958 -0.34838507 0.0414607 -0.096102215 0.23116721 0.11532657
0.18156736 0.20918044 0.3047799 0.24729209 -0.16644709 0.03709382 0.19568078 0.15529844
-0.021754479 0.035940647 1.2993699 -0.36935228 0.34984624 -0.11041942 -0.17204909 0.054567575
0.10330584 0.08808788 0.34459966 0.36195752 0.3702788 0.070517264 0.34919217 0.15897962
00000000: 60e0 5abe 7bdd 08be 7b99 8f3e 7ca7 d43e
00000010: 1f71 df3d 6159 9fbc 4435 2a3e ab98 273e
00000020: b043 843e 1c20 193e 264b f23a 84e8 283e
00000030: bf80 91bd 55f0 20bd 628f ad3f bf55 06be
00000040: bd01 293e 3a2a 2f3e 60f9 4a3e 302a 2c3e
00000050: 3f47 ff3d c77a 8bbe f1c6 4e3e db31 1d3f
00000060: 78fb 753d 1938 2b3d 1892 853d 3064 a73c
00000070: afc4 943c 5b09 dfbd 4c7c fcbc 9c8b 693e
00000080: ab6a 813d e47a ed3d d1eb a1bc 4487 113d
00000090: 9186 3b3e 26e6 983e 9998 01bd 6509 b43d
000000a0: 3ec9 aa3d 0862 923d 85ee 463e bda6 763d
000000b0: 0de6 8dbd ffe8 303e 900d 31bd 8e3e d83e
000000c0: 7aeb 3dbe 66fb 6e3e 6339 123f a9ea 963e
000000d0: d0a0 88bd 4411 8dbe d387 7f3e d92d e0bd
000000e0: 27e0 4dbb 51cc c7bd 1690 abbd 8223 0b3e
000000f0: ec45 3a3e af95 813e dd1a 4f3e a824 663e
00000100: d6cc 233e 8180 533e 14d6 07be f949 b63d
00000110: 9f33 12be 72f5 66bd b919 413c 61c3 fabd
00000120: 681c 913e ac51 e43d ca77 fa3d 967d 42be
00000130: bfe9 f6bd 3dd7 8dbd 645c 083e 1c0b e93e
00000140: 0759 6f3e 74b1 b13d 12b5 c33e dde8 8a3e
00000150: f0e9 c23e 2527 893e fa13 683e 4141 93be
00000160: c651 cebd c774 eabd b938 b83f ee45 1bbd
00000170: 2c43 243e 8438 273e 0139 b0bd 1b90 18be
00000180: ba0a 6f3e aad5 613d 06ff 0d3e cd6f 7a3e
00000190: a69a 333e 35f4 89ba 2041 e8bc 9653 263e
000001a0: 24de 933d ee97 5b3e e81a 733d 34a9 df3e
000001b0: e532 233d bfa4 f4bd 0439 163e 7cca 4b3e
000001c0: 027a d1bd 2cb8 87bd b986 10be 9123 613e
000001d0: 672e 193e cc3b 4c3e 2a7b a73d 6948 89bd
000001e0: 474c d93c fe20 4b3d af08 6a3e 5e2d 513e
000001f0: 0775 68bd fee9 74bd 415c 133f b19d 443e
00000200: 30f9 313e 1cc8 32be 7fb5 d03e a923 0b3e
00000210: 93d0 3dbe b3af 3bbe c2e0 3d3e 8bbd 8a3d
00000220: 2d2a 1b3e 7ac0 833d 1804 16be d4ac da3d
00000230: e167 953d 9619 01bd d6dd bb3e e9b5 64bd
00000240: 6727 483d 9d6e c1bd 78a3 8d3e 179b 083d
00000250: 0f1b e93c d7fe 13be ed60 1dbe 6f92 373d
00000260: 8447 a3bd e70c adbd 50b2 9e3e e2f7 613e
00000270: 6eeb a93e f430 e23d ff33 8c3e f278 9e3d
00000280: 9dc5 ba3d 1421 d1bd ae98 743e 7000 bf3c
00000290: a094 b23c 2893 633e 7506 9f3f 5856 d8be
000002a0: a213 183e b283 a0bd 07a3 22be a2b8 813c
000002b0: 26f4 613e 8f05 33be 8e8f 8c3e fdef 7a3e
000002c0: 816e fb3e 7b0d 5d3e 685d 303e 6b65 af3d
000002d0: d8e9 00be 6e9d c73e d950 303d bade a23e
000002e0: f1fd 9c3d 5f6b 883e 7c81 67bb 2199 d2bd
000002f0: 6421 4e3e 03d4 073d b3d2 8d3e 70cd aebd
00000300: a916 453e cbae 153e a6ce 6d3e ba84 fdbc
00000310: 8e7f 333e 41fa cf3a 7a44 4dbd b2c0 bd3e
00000320: 641c e2bd 26c0 fbbd 83cc bb3f a265 033f
00000330: 585f 0d3e 56ca abbd 411c 723e 321a a53e
00000340: f5ec 833e 3e17 ac3d 8579 233f 0a8f c43e
00000350: 3a95 a83d 0a68 a2bd a0cc 30be e6a4 a53e
00000360: 8a0b 5b3e 6140 293e 2cd6 e2bd b1d1 1ebe
00000370: d99d 19be fd2c b13d 31d6 4b3e 3fae 65be
00000380: 7523 5b3e b45f a1be a6e6 d5bc 875f b2be
00000390: b2d2 293d 3dd1 c4bd 19b7 6c3e 5630 ec3d
000003a0: cbec 393e 6633 563e 1c0c 9c3e 233a 7d3e
000003b0: 1b71 2abe b0ef 173d 8b60 483e 8e06 1f3e
000003c0: 7336 b2bc 8036 133d c151 a63f be1b bdbe
000003d0: 0c1f b33e 9423 e2bd a32d 30be 4082 5f3d
000003e0: 0392 d33d 6b67 b43d 5e6f b03e 7f52 b93e
000003f0: 2f95 bd3e 5b6b 903d 51c9 b23e 8ecb 223e

fc4_adv.bias f4 [38]
0.13774961 -0.025927076 0.14857711 -0.07613617 -0.03749823 -0.022234011 0.17329669 -0.10706065
-0.12570623 -0.16909675 -0.09437366 0.1578708 0.027370814 0.037830077 0.11232037 0.11042446
0.15044488 -0.17008802 0.19533892 0.036442306 0.13865878 0.21489142 0.19182606 0.20932524
0.20329711 0.008993532 -0.13084145 -0.06240041 -0.011224978 0.015372263 -0.0006517058 -8.5292195e-05
0.100192994 0.2051603 -0.13623643 0.19977306 -0.14038402 0.22903763
00000000: 3c0e 0d3e 0565 d4bc 9924 183e 48ed 9bbd
00000010: be97 19bd 1a24 b6bc b074 313e 9d42 dbbd
00000020: 22b9 00be b327 2dbe fa46 c1bd e2a8 213e
00000030: c238 e03c b6f3 1a3d 3908 e63d 3826 e23d
00000040: 390e 1a3e 8e2b 2ebe ed06 483e 8744 153d
00000050: 91fc 0d3e 7f0c 5c3e 0d6e 443e 5b59 563e
00000060: 1e2d 503e 9b59 133c 4dfb 05be 9397 7fbd
00000070: f8e8 37bc f2db 7b3c 3cd7 2aba e6de b2b8
00000080: fc31 cd3d 8b15 523e 9081 0bbe 4f91 4c3e
00000090: d4c0 0fbe d788 6a3e

fc4_val.weight f4 [1, 76]
0.19872342 0.32437524 -0.27890158 -0.46684632 -0.26529726 0.2396147 0.45116562 -0.39202195
0.358612 0.33123168 0.4072955 0.27535117 -0.4505106 0.194395 0.29510248 -0.28946623
-0.32564422 0.33455572 0.26977035 0.30918613 0.3238229 0.34093556 -0.8295842 0.24686842
0.24834342 0.2005069 0.37509644 -0.5112296 -0.51044136 0.17276749 0.23844722 -0.5876405
-2.3414974 -0.42073062 0.22770993 0.31799868 -0.43576655 0.34736407 -0.38979423 0.28601652
0.28851184 0.38378218 -2.5085392 -0.44293267 0.44330108 -1.1947021 -2.4842248 0.42314374
-1.5249509 0.18339169 -0.4648252 0.3245498 0.23850259 0.17269059 -0.30119827 0.40730098
-0.3190905 -0.9812294 0.42685935 0.21065547 0.28513995 0.15822794 -0.37587667 0.29414165
0.18440275 0.2591043 0.40289342 -0.36470425 0.21765342 0.20099501 -0.5922759 0.23972215
0.32833895 0.21676745 0.17485744 -1.494363
00000000: 277e 4b3e 8314 a63e 30cc 8ebe 7b06 efbe
00000010: 0bd5 87be 8e5d 753e 2eff e63e 1ab7 c8be
00000020: fe9b b73e 3397 a93e 0989 d03e d4fa 8c3e
00000030: 53a9 e6be 7c0f 473e ac17 973e eb34 94be
00000040: d7ba a6be e34a ab3e 571f 8a3e a54d 9e3e
00000050: 1dcc a53e 1b8f ae3e a15f 54bf 13cb 7c3e
00000060: bd4d 7e3e ae51 4d3e a40c c03e f1df 02bf
00000070: 49ac 02bf f6e9 303e 822b 743e 9c6f 16bf
00000080: 18db 15c0 016a d7be cb2c 693e b9d0 a23e
00000090: cb1c dfbe b4d9 b13e 1c93 c7be c270 923e
000000a0: d3b7 933e 197f c43e e88b 20c0 12c8 e2be
000000b0: 5cf8 e23e 00ec 98bf 8afd 1ec0 4ca6 d83e
000000c0: 9731 c3bf 08cb 3b3e 92fd edbe 642b a63e
000000d0: 063a 743e cdd5 303e a936 9abe c189 d03e
000000e0: d45f a3be da31 7bbf 4f8d da3e 11b6 573e
000000f0: ddfd 913e 8106 223e e872 c0be bc99 963e
00000100: 13d4 3c3e 52a9 843e 0c48 ce3e 84ba babe
00000110: 8ae0 5e3e a3d1 4d3e 659f 17bf b979 753e
00000120: 0b1c a83e 49f8 5d3e d40d 333e 4947 bfbf

exp_avg f4 [1, 6, 1, 4]
3.5493312 -0.20695186 0.60600555 0.009964885 12.344772 4.059724 0.2849215 -0.83380866
1.3134872 1.3134872 1.3134872 0.0 0.6508622 0.6526797 0.6526797 6e-45
-0.4506142 -0.15805593 -0.15805593 0.0 -0.41208708 -0.39658117 -0.39658117 6e-45
00000000: 3e28 6340 30eb 53be 2e23 1b3f c243 233c
00000010: 3084 4541 42e9 8140 3be1 913e 7c74 55bf
00000020: 5920 a83f 5920 a83f 5920 a83f 0000 0000
00000030: e89e 263f 0416 273f 0416 273f 0400 0000
00000040: e8b6 e6be 6ad9 21be 6ad9 21be 0000 0000
00000050: 14fd d2be b00c cbbe b00c cbbe 0400 0000

exp_avg_sq f4 [1, 6, 1, 4]
360.6386 23.626343 3.1152794 0.22429845 3803.5186 1730.5378 433.53094 61.41795
17.78684 17.78684 17.78684 0.0 6.975476 5.947115 5.947115 7e-43
3.5185897 1.7727714 1.7727714 0.0 2.2510414 2.0602853 2.0602853 7e-43
00000000: be51 b443 c002 bd41 bd60 4740 7eae 653e
00000010: 4cb8 6d45 3651 d844 f6c3 d843 fbab 7542
00000020: 734b 8e41 734b 8e41 734b 8e41 0000 0000
00000030: 1937 df40 c44e be40 c44e be40 f401 0000
00000040: 9330 6140 2cea e23f 2cea e23f 0000 0000
00000050: 1011 1040 b7db 0340 b7db 0340 f401 0000

exp_avg f4 [1, 6, 2, 4]
-3.48623 -0.3337667 -0.0009343115 0.0057638027 -2.5946734 -0.2454181 -0.25004917 -0.014305877
-10.693893 -4.781068 -1.2496778 -0.12118917 -9.83174 -1.017001 -0.1756956 -0.14355773
-1.0229789 -1.0229789 -1.0229789 -0.051475316 -0.99926084 -0.99926084 -0.99926084 -0.03169473
-0.35499638 -0.3545569 -0.3545569 -0.021532532 -0.192068 -0.18700506 -0.18700506 0.032426175
-0.2695937 -0.27850416 -0.27850416 -0.07535007 -0.12833177 -0.10538851 -0.10538851 -0.09006286
0.2002993 0.19777203 0.19777203 0.021195786 -0.11841725 -0.13772254 -0.13772254 -0.018870162
00000000: 641e 5fc0 78e3 aabe 95ec 74ba 48de bc3b
00000010: 210f 26c0 e24e 7bbe 7206 80be 3263 6abc
00000020: 301a 2bc1 82fe 98c0 71f5 9fbf 0732 f8bd
00000030: cf4e 1dc1 172d 82bf 8ce9 33be cc00 13be
00000040: f9f0 82bf f9f0 82bf f9f0 82bf c8d7 52bd
00000050: 8fcf 7fbf 8fcf 7fbf 8fcf 7fbf 55d2 01bd
00000060: 16c2 b5be 7b88 b5be 7b88 b5be fe64 b0bc
00000070: 79ad 44be 417e 3fbe 417e 3fbe 4fd1 043d
00000080: 2f08 8abe 1998 8ebe 1998 8ebe 2351 9abd
00000090: 6769 03be eed5 d7bd eed5 d7bd e072 b8bd
000000a0: 421b 4d3e c084 4a3e c084 4a3e c9a2 ad3c
000000b0: be84 f2bd 2307 0dbe 2307 0dbe 9995 9abc

exp_avg_sq f4 [1, 6, 2, 4]
158.72845 9.239836 0.9766963 0.04265176 172.65279 13.7480135 1.5598134 0.034065533
1410.2358 671.9395 208.26057 22.57863 1179.9628 330.02078 55.92799 6.182812
10.126027 10.126027 10.126027 0.40655145 11.074426 11.074426 11.074426 0.226607
1.9833716 1.6943773 1.6943773 0.019556182 3.685975 3.3103929 3.3103929 0.087673776
2.1596437 1.7888882 1.7888882 0.056445614 2.7785492 2.535223 2.535223 0.099763915
2.140172 2.0261655 2.0261655 0.07534471 2.0447392 1.9393687 1.9393687 0.065071486
00000000: 7cba 1e43 5ed6 1341 c508 7a3f 9db3 2e3d
00000010: 1da7 2c43 ddf7 5b41 f7a7 c73f 4d88 0b3d
00000020: 8c47 b044 21fc 2744 b542 5043 09a1 b441
00000030: cf7e 9344 a902 a543 43b6 5f42 99d9 c540
00000040: 3504 2241 3504 2241 3504 2241 8327 d03e
00000050: d930 3141 d930 3141 d930 3141 aa0b 683e
00000060: 1fdf fd3f 5be1 d83f 5be1 d83f 4934 a03c
00000070: 04e7 6b40 7add 5340 7add 5340 4f8e b33d
00000080: 9a37 0a40 4afa e43f 4afa e43f 8433 673d
00000090: c0d3 3140 1841 2240 1841 2240 0651 cc3d
000000a0: 94f8 0840 b2ac 0140 b2ac 0140 544e 9a3d
000000b0: 02dd 0240 3c3d f83f 3c3d f83f 3344 853d

exp_avg f4 [1, 6, 3, 4]
-3.2420635 -0.30596027 -0.4922144 -0.0017365192 -1.8193194 0.3772016 -0.34061673 -0.007212662
-2.405117 -0.30069125 -0.5383677 -0.021036915 -4.8527474 -0.9697263 0.11133905 0.5475373
-4.575976 -1.4380757 -0.1596845 0.13277963 -4.640468 -0.72741103 0.21789405 0.13554955
0.1837082 0.18370822 0.18370809 0.011773317 -0.20997055 -0.20997068 -0.20997065 0.16507599
-0.24359234 -0.24359246 -0.24359228 0.13139407 -0.8707285 -0.8070347 -0.8070346 0.088480376
-1.0506103 -0.93989724 -0.9398972 0.12115345 -0.34222674 -0.26843438 -0.26843432 0.08884245
0.31126425 -0.24049634 -0.24049635 -0.22966525 0.6358095 0.01905653 0.019056497 -0.08769608
0.089148246 -0.31949887 -0.3194989 -0.11865984 0.0528804 0.032231264 0.03223136 -0.15572023
0.6310752 0.6181949 0.6181949 -0.0074429014 0.26051387 0.25110853 0.2511086 -0.059348103
00000000: f87d 4fc0 d3a6 9cbe 8703 fcbe ea9b e3ba
00000010: 75df e8bf 9120 c13e 5165 aebe 3258 ecbb
00000020: 70ed 19c0 34f4 99be 77d2 09bf 9c55 acbc
00000030: b549 9bc0 fc3f 78bf ba05 e43d 682b 0c3f
00000040: 656e 92c0 dd12 b8bf 5584 23be 62f7 073e
00000050: b77e 94c0 9c37 3abf 9e1f 5f3e 80cd 0a3e
00000060: 011e 3c3e 021e 3c3e f91d 3c3e dfe4 403c
00000070: 8502 57be 8e02 57be 8c02 57be ae09 293e
00000080: 4570 79be 4d70 79be 4170 79be 2b8c 063e
00000090: 10e8 5ebf d399 4ebf d299 4ebf 3335 b53d
000000a0: 667a 86bf 1b9d 70bf 1a9d 70bf 4d1f f83d
000000b0: 5838 afbe 3b70 89be 3970 89be 08f3 b53d
000000c0: 075e 9f3e ac44 76be ad44 76be 5e2d 6bbe
000000d0: 69c4 223f 711c 9c3c 5f1c 9c3c 019a b3bd
000000e0: 5b93 b63d 5b95 a3be 5c95 a3be ee03 f3bd
000000f0: 1e99 583d ee04 043d 0805 043d 2075 1fbe
00000100: 258e 213f 0542 1e3f 0542 1e3f 95e3 f3bb
00000110: 1362 853e 4c91 803e 4e91 803e ff16 73bd

exp_avg_sq f4 [1, 6, 3, 4]
204.71234 19.390142 2.3378983 0.037218794 192.31618 18.907557 2.6285956 0.1567179
187.49919 18.533157 2.2090955 0.03901348 2714.4385 878.45013 146.71643 12.423949
2709.5225 968.09753 169.15062 15.02307 2862.9731 1237.8263 259.8183 29.965641
17.52441 17.52441 17.52441 0.44514436 12.879193 12.879193 12.879193 0.44065723
16.272614 16.272614 16.272614 0.4258968 5.7529864 5.048922 5.048922 0.11914485
7.4464803 6.8355913 6.835592 0.32746765 3.7924974 3.143978 3.143978 0.08771183
5.4564137 4.2856765 4.2856765 0.3037715 6.3557024 4.0161986 4.016198 0.1314128
4.941545 3.6439807 3.643981 0.1754147 4.4088893 4.104991 4.1049905 0.13655026
3.8242157 3.6091528 3.609153 0.012988904 4.686325 4.5054746 4.505474 0.13606326
00000000: 5cb6 4c43 031f 9b41 20a0 1540 bc72 183d
00000010: f150 4043 ad42 9741 e93a 2840 a87a 203e
00000020: cb7f 3b43 e843 9441 d261 0d40 99cc 1f3d
00000030: 04a7 2945 cf9c 5b44 68b7 1243 7fc8 4641
00000040: 5c58 2945 3e06 7244 8f26 2943 7f5e 7041
00000050: 92ef 3245 71ba 9a44 bee8 8143 a2b9 ef41
00000060: fe31 8c41 fe31 8c41 fe31 8c41 f6e9 e33e
00000070: 2d11 4e41 2d11 4e41 2d11 4e41 d39d e13e
00000080: 502e 8241 502e 8241 502e 8241 250f da3e
00000090: 7718 b840 c590 a140 c590 a140 3702 f43d
000000a0: 9149 ee40 2abd da40 2bbd da40 d7a9 a73e
000000b0: 47b8 7240 f036 4940 f036 4940 43a2 b33d
000000c0: f19a ae40 4324 8940 4324 8940 f087 9b3e
000000d0: ea61 cb40 b384 8040 b284 8040 1491 063e
000000e0: 2321 9e40 fb36 6940 fc36 6940 e99f 333e
000000f0: 9f15 8d40 165c 8340 155c 8340 d5d3 0b3e
00000100: f3bf 7440 5cfc 6640 5dfc 6640 69cf 543c
00000110: 60f6 9540 d92c 9040 d82c 9040 2b54 0b3e

exp_avg f4 [1, 6, 4, 4]
-5.366194 -0.9029512 -0.95020676 -0.001555721 -4.8934474 -0.18769442 -0.6386059 -0.013027936
-4.115247 -0.5358222 -0.56586295 -0.023145305 -4.2748265 -0.96523404 -0.6779317 -0.06505656
-14.745393 -4.079094 0.4439756 0.58561784 -14.262587 -4.772958 -0.45461473 0.22144717
-14.065948 -5.29761 -2.3735862 -0.33187866 -14.259558 -2.3353088 -1.6855993 -0.3655045
-1.418698 -1.4186981 -1.4186977 -0.035015248 -0.91691893 -0.91691893 -0.91691905 0.124830104
-0.52067953 -0.5206796 -0.52067965 0.07482813 -0.8907677 -0.8907676 -0.89076746 -0.054974712
-1.1303934 -1.048212 -1.0482119 0.16206975 -1.1386201 -1.0684484 -1.0684484 0.10862515
-1.1298176 -1.0336813 -1.0336812 0.099768944 -0.68579465 -0.59970397 -0.5997038 0.009795395
0.021568578 -0.26317802 -0.26317808 -0.12940516 0.39454213 -0.09003374 -0.090033695 -0.1559492
0.26609406 -0.15487503 -0.15487507 -0.10854852 0.21429971 0.008592874 0.008592872 -0.053548034
0.3147045 0.32032296 0.32032302 -0.16908436 0.3757292 0.37745503 0.37745506 -0.077481784
-0.07963078 -0.084536776 -0.084536776 -0.06158843 0.29061404 0.25306776 0.25306785 -0.05890989
00000000: dcb7 abc0 cf27 67bf c040 73bf 56e9 cbba
00000010: 1f97 9cc0 f732 40be ad7b 23bf 2073 55bc
00000020: 1ab0 83c0 a52b 09bf 65dc 10bf 399b bdbc
00000030: 61cb 88c0 9419 77bf ef8c 2dbf 603c 85bd
00000040: 21ed 6bc1 f087 82c0 c550 e33e 0deb 153f
00000050: 8e33 64c1 12bc 98c0 43c3 e8be 0cc3 623e
00000060: 1f0e 61c1 0586 a9c0 d6e8 17c0 00ec a9be
00000070: 2627 64c1 b375 15c0 b8c1 d7bf 6823 bbbe
00000080: e597 b5bf e697 b5bf e397 b5bf 266c 0fbd
00000090: 33bb 6abf 33bb 6abf 35bb 6abf eda6 ff3d
000000a0: 414b 05bf 424b 05bf 434b 05bf 7e3f 993d
000000b0: 5a09 64bf 5809 64bf 5609 64bf 2a2d 61bd
000000c0: bbb0 90bf d02b 86bf cf2b 86bf 9df5 253e
000000d0: 4ebe 91bf ebc2 88bf ebc2 88bf dd76 de3d
000000e0: dd9d 90bf ab4f 84bf aa4f 84bf a953 cc3d
000000f0: 3d90 2fbf 3386 19bf 3086 19bf dd7c 203c
00000100: 96b0 b03c 45bf 86be 47bf 86be c982 04be
00000110: 6d01 ca3e 9c63 b8bd 9663 b8bd 26b1 1fbe
00000120: 7b3d 883e 8f97 1ebe 9297 1ebe b04e debd
00000130: 6271 5b3e 20c9 0c3c 1ec9 0c3c 2f55 5bbd
00000140: f320 a13e 5f01 a43e 6101 a43e 7324 2dbe
00000150: 945f c03e c941 c13e ca41 c13e c5ae 9ebd
00000160: 7615 a3bd 9e21 adbd 9e21 adbd 2644 7cbd
00000170: 5dcb 943e 1992 813e 1c92 813e 7f4b 71bd

exp_avg_sq f4 [1, 6, 4, 4]
432.87274 34.753292 4.3947706 0.4270122 439.86078 34.713608 4.4622946 0.36586708
425.6703 38.289722 4.6679835 0.089336686 439.1826 36.99397 5.362317 0.15542458
6103.755 2339.0828 533.5466 66.38003 5971.045 2294.4155 509.6289 62.843937
5979.6504 2302.415 496.21136 60.819157 5946.005 2279.8455 484.93503 59.052467
31.829123 31.829123 31.829126 0.6912524 29.10588 29.105886 29.105883 0.65096956
36.019268 36.01926 36.01926 0.623314 34.174526 34.174526 34.174526 0.62757045
11.840199 10.351412 10.351412 0.33285266 11.288288 9.264798 9.264796 0.25206912
10.590918 8.99348 8.99348 0.21425337 11.766334 10.312829 10.312829 0.4003147
9.137631 7.04267 7.04267 0.14420238 10.795488 7.978214 7.978214 0.30466318
9.158263 7.2590375 7.2590375 0.24464552 7.720605 6.900447 6.9004464 0.20203891
7.8550286 7.611204 7.6112037 0.14331144 6.9476647 6.743726 6.7437253 0.24100997
7.7107706 7.5287313 7.528731 0.23595925 7.521267 7.2280836 7.2280836 0.16287151
00000000: b66f d843 5f03 0b42 f6a1 8c40 58a1 da3e
00000010: 2eee db43 bcda 0a42 1ecb 8e40 ee52 bb3e
00000020: ccd5 d443 ad28 1942 1f60 9540 27f6 b63d
00000030: 5f97 db43 d3f9 1342 1a98 ab40 9f27 1f3e
00000040: 0abe be45 5331 1245 fb62 0544 93c2 8442
00000050: 5c98 ba45 a666 0f45 80d0 fe43 3160 7b42
00000060: 34dd ba45 a4e6 0f45 0e1b f843 d146 7342
00000070: 0ad0 b945 877d 0e45 af77 f243 ba35 6c42
00000080: 0ba2 fe41 0ba2 fe41 0da2 fe41 ebf5 303f
00000090: d8d8 e841 dbd8 e841 d9d8 e841 f1a5 263f
000000a0: bb13 1042 b913 1042 b913 1042 8291 1f3f
000000b0: b7b2 0842 b7b2 0842 b7b2 0842 75a8 203f
000000c0: 7571 3d41 629f 2541 629f 2541 aa6b aa3e
000000d0: d49c 3441 9d3c 1441 9b3c 1441 340f 813e
000000e0: 6674 2941 4be5 0f41 4be5 0f41 3c65 5b3e
000000f0: e742 3c41 5901 2541 5901 2541 0cf6 cc3e
00000100: bd33 1241 8d5d e140 8d5d e140 caa9 133e
00000110: 52ba 2c41 874d ff40 874d ff40 d0fc 9b3e
00000120: 3f88 1241 094a e840 094a e840 5b84 7a3e
00000130: 320f f740 76d0 dc40 75d0 dc40 4ae3 4e3e
00000140: 655c fb40 fc8e f340 fb8e f340 3cc0 123e
00000150: 4553 de40 9acc d740 99cc d740 51cb 763e
00000160: a2be f640 5eeb f040 5deb f040 4d9f 713e
00000170: 38ae f040 764c e740 764c e740 cac7 263e

exp_avg f4 [76, 130]
0.052401695 0.06452149 -0.0933076 -0.06659799 -0.02128279 -0.019234113 0.010512831 -0.005891461
-0.0024135967 -0.006280944 -0.0029615492 -0.019716179 -0.062847964 -0.00349923 0.12287563 0.03580646
-0.012954856 0.03314305 -0.076445796 -0.009762224 -0.015955165 -0.0015880208 -0.003205627 -0.0449399
0.009839388 -0.02003549 -0.016201448 -0.05391672 -0.027671741 -0.028035745 -0.021142714 0.03452531
-0.021213153 -0.014259977 -0.055136647 -0.013068927 -0.012892496 -0.031018114 -0.034898613 -0.039237533
-0.015863739 -0.034324996 0.060898043 0.044078555 -0.029497264 0.007383041 0.016984781 0.052231386
0.00023387493 -0.094519794 0.010817052 0.021271853 -0.00010168943 -0.057459466 -0.017581116 0.018654186
-0.067555815 -0.045556135 -0.03698929 -0.035355844 -0.056205537 -0.037105512 -0.010963178 -0.030764326
0.0029903208 -0.027931891 0.023893747 0.012416313 -0.063876666 -0.08070974 -0.059857868 0.009350538
0.057519875 0.028497638 -0.037770282 -0.042108126 0.0018163068 -0.006981146 -0.029977107 0.039756257
0.061776448 0.05459024 -0.002676018 -0.02676584 0.013800509 0.03715257 0.016225165 -0.030104326
0.018061677 0.020369282 -0.022940593 -0.0059241713 -0.004975095 -0.026221802 -0.059572395 -0.050541617
-0.02302449 0.034784812 0.03873306 0.009337419 -0.00346206 -0.018319296 -0.010203826 -0.022554643
-0.039816663 -0.02832998 -0.008288235 0.02341852 0.009711619 0.004614885 -0.012070852 0.0146071315
-0.010782451 0.036514204 -0.0059017288 0.016697109 -0.015859859 -0.029230861 -0.0009767786 -0.00049286295
0.015401117 -0.024900647 0.0036068633 -0.012524946 -0.004244168 -0.023775771 -0.00063846016 0.010876612
0.0031328052 -0.0030057211 0.039618813 0.105676584 0.07254385 0.023562126 0.026027171 0.058304165
0.096915916 0.018754097 0.050983075 0.03576738 0.015342462 -0.0071750525 0.027466554 0.06893514
-0.003777294 -0.025858661 -0.0029564402 -0.0017394158 -0.018433044 0.0370385 0.028346527 0.048149258
0.03829137 0.0036453106 0.009570865 0.00027189744 0.013879303 0.08708917 -0.0007570061 -0.019552696
-0.008816242 0.008078915 0.0021433774 0.028473636 0.07476789 0.023657428 0.016544504 0.023702756
0.02667457 -0.017449962 0.016553292 0.008322242 0.03414717 0.047921285 0.006124178 0.051880263
0.0876491 0.06808487 0.042611193 0.060363412 0.0073214555 0.031369284 0.027572239 -0.0012482994
0.018353576 0.030672392 0.028058587 0.012704614 0.023464631 0.046617273 0.014825572 0.017474422
0.058744367 -0.011058368 0.06818283 0.0458726 0.042656355 0.085452065 0.09962537 0.037825063
0.03157274 0.080669574 0.082391135 0.046717845 0.012341174 0.017176414 0.02976784 0.024721958
0.041833553 0.05635462 0.0473599 -0.009387158 -0.01567515 -0.012171204 0.0013950919 0.034955014
0.029676849 0.016983904 0.021869438 0.01207384 0.0033209806 -0.0007263233 0.0061249747 0.027674101
0.0012992563 -0.0026967428 -0.01405164 -0.014706987 0.02493045 0.029649284 0.053708524 0.05271782
0.066556975 0.04887052 0.052045822 0.05693934 0.036139224 0.056806672 0.015155701 0.012417078
0.007972597 0.011324193 0.015561527 0.0075581386 0.012688972 0.012622083 0.023768237 0.012748073
0.03249073 0.024258079 0.035695553 0.018697236 0.013723187 0.025639417 0.026024709 0.04362946
00000000: 29a3 563d d823 843d 0e18 bfbd 8764 88bd
00000010: 3f59 aebc dc90 9dbc 023e 2c3c 280d c1bb
00000020: 6f2d 1ebb 61d0 cdbb 8d16 42bb d383 a1bc
00000030: 6fb6 80bd 5653 65bb 38a6 fb3d cba9 123d
00000040: 9b40 54bc 02c1 073d 9d8f 9cbd bcf1 1fbc
00000050: 68b4 82bc 2325 d0ba 7f15 52bb e712 38bd
00000060: 6235 213c 7821 a4bc e6b8 84bc c7d7 5cbd
00000070: d9af e2bc 38ab e5bc 7c33 adbc 696a 0d3d
00000080: 35c7 adbc aea2 69bc f7d6 61bd 0e1f 56bc
00000090: 0c3b 53bc b319 febc d9f1 0ebd 89b7 20bd
000000a0: acf4 81bc 5e98 0cbd 3a70 793d b78b 343d
000000b0: 3fa4 f1bc 70ed f13b ab23 8b3c 94f0 553d
000000c0: 533c 7539 9893 c1bd 013a 313c 4f42 ae3c
000000d0: 1942 d5b8 9e5a 6bbd 4606 90bc aad0 983c
000000e0: b45a 8abd 1299 3abd 1582 17bd 4ad1 10bd
000000f0: c737 66bd f3fb 17bd e79e 33bc 7805 fcbc
00000100: 42f9 433b 6cd1 e4bc d2bc c33c cb6d 4b3c
00000110: c5d1 82bd 264b a5bd 862d 75bd 0033 193c
00000120: f699 6b3d e173 e93c 03b5 1abd 9279 2cbd
00000130: 2511 ee3a 19c2 e4bb 8d92 f5bc 75d7 223d
00000140: 4d09 7d3d 049a 5f3d 2260 2fbb 0944 dbbc
00000150: 881b 623c 4b2d 183d a3ea 843c 599d f6bc
00000160: 15f6 933c 7bdd a63c e9ed bbbc 8d1f c2bb
00000170: 1f06 a3bb 1bcf d6bc 2f02 74bd ba04 4fbd
00000180: db9d bcbc 857a 0e3d 8fa6 1e3d f9fb 183c
00000190: bae3 62bb 5912 96bc f32d 27bc 84c4 b8bc
000001a0: cc16 23bd 4614 e8bc 61cb 07bc 32d8 bf3c
000001b0: 7b1d 1f3c 7638 973b d3c4 45bc c052 6f3c
000001c0: e1a8 30bc eb8f 153d 4a63 c1bb 60c8 883c
000001d0: 89ec 81bc 8f75 efbc 4007 80ba 7933 01ba
000001e0: f754 7c3c 71fc cbbc 2061 6c3b 6e35 4dbc
000001f0: a912 8bbb 68c5 c2bc 565e 27ba d133 323c
00000200: c04f 4d3b a2fb 44bb 5647 223d f76c d83d
00000210: df91 943d 5c05 c13c ef36 d53c 59d0 6e3d
00000220: da7b c63d 31a2 993c a1d3 503d d180 123d
00000230: f35e 7b3c b41c ebbb 8a01 e13c de2d 8d3d
00000240: 7a8c 77bb 8bd5 d3bc d6c0 41bb 1cfd e3ba
00000250: e500 97bc afb5 173d fa36 e83c 2838 453d
00000260: 69d7 1c3d 2ae6 6e3b 1ecf 1c3c 758d 8e39
00000270: 0466 633c cf5b b23d d271 46ba fa2c a0bc
00000280: 0072 10bc 6d5d 043c e877 0c3b 8b41 e93c
00000290: e81f 993d 39cd c13c 5788 873c 482c c23c
000002a0: a184 da3c 39f3 8ebc c59a 873c 035a 083c
000002b0: e7dd 0b3d 1c49 443d 54ad c83b 6680 543d
000002c0: 5f81 b33d 1570 8b3d 1389 2e3d a03f 773d
000002d0: d2e8 ef3b 147d 003d 2ddf e13c fa9d a3ba
000002e0: 3d5a 963c ab44 fb3c 1fdb e53c 0327 503c
000002f0: e638 c03c c1f1 3e3d f5e6 723c 8526 8f3c
00000300: ef9d 703d 282e 35bc 71a3 8b3d e8e4 3b3d
00000310: 6eb8 2e3d 7e01 af3d 6308 cc3d 74ee 1a3d
00000320: 6b52 013d 1736 a53d afbc a83d 365b 3f3d
00000330: a332 4a3c 8db5 8c3c afdb f33c b485 ca3c
00000340: a959 2b3d 1ad4 663d 74fc 413d 98cc 19bc
00000350: 2c69 80bc bb69 47bc 84db b63a fd2c 0f3d
00000360: dd1c f33c d421 8b3c 8927 b33c 5bd1 453c
00000370: cfa4 593b bb66 3eba 03b4 c83b ccb4 e23c
00000380: cf4b aa3a d6bb 30bb da38 66bc 93f5 70bc
00000390: f13a cc3c 0ee3 f23c 78fd 5b3d a4ee 573d
000003a0: 064f 883d 742c 483d 002e 553d 3a39 693d
000003b0: b906 143d 1dae 683d 9e4f 783c 0071 4b3c
000003c0: 7f9f 023c 1c89 393c c6f5 7e3c 43aa f73b
000003d0: 68e5 4f3c dacc 4e3c 9bb5 c23c 4bdd 503c
000003e0: 0015 053d e1b8 c63c 8035 123d f22a 993c
000003f0: 38d7 603c c109 d23c c531 d53c ceb4 323d
