TrainedModel/Dueling DQN-1/3000_0-08_DuelingDQN.pth (torch, 291157 bytes, 33 tensors)

conv1.weight f4 [1, 6, 1, 4]
000000 72 8f 87 3f fb 18 0a 3e d5 3e c4 bd ee 36 3d be
       1.0590651 0.13486092 -0.09582297 -0.18477985
000010 b5 06 38 3e 54 f9 7c bd 02 3b c9 3d 5e bd ab be
       0.17971309 -0.061761215 0.09825708 -0.33542913
000020 b9 1f af 3d b0 ff a1 3c c9 a0 ac be 6a d0 c1 be
       0.085509725 0.019775242 -0.3371642 -0.3785432
000030 d4 fa 55 bd b6 09 db 3e cb 8a c1 be 63 c5 cf bd
       -0.05224116 0.42780846 -0.37801203 -0.101450704
000040 66 3b 26 be bc f0 06 3d 69 81 fc bc af 70 e6 be
       -0.16233596 0.032944426 -0.030823426 -0.45007846
000050 98 7d 58 3c be 53 8d 3e 52 73 ee bd 30 db ec be
       0.013213538 0.27602953 -0.11643089 -0.46260977

conv2.weight f4 [1, 6, 2, 4]
000000 e2 8d c4 3d ed e2 82 bd 8f 78 8a 3e 34 78 eb bd
       0.095973745 -0.06390939 0.27045104 -0.11497536
000010 21 7b 05 be d3 4e b3 3e 8c 13 46 3e a6 56 c5 bd
       -0.13035251 0.35021076 0.19343394 -0.096356675
000020 22 ab f6 3d bc 7a 7b 3e 80 b2 dd bd 5e e7 a1 be
       0.1204436 0.24558538 -0.10825062 -0.31621832
000030 4b ea 02 3e e0 5c f5 be 0b 29 fd be d4 91 48 be
       0.12784688 -0.4792242 -0.49445376 -0.19586879
000040 ec d9 78 3e 10 cb 92 bc cc b9 fe bc 19 36 fc 3c
       0.2430188 -0.017919093 -0.031094454 0.030787515
000050 56 0e 34 3e 76 cd 3c be c1 de c5 3e 79 79 50 be
       0.17583594 -0.18437752 0.3864651 -0.20358838
000060 9a 90 f2 bd 30 3d 78 be 66 9d 40 3e 23 54 1c 3e
       -0.11843987 -0.24242091 0.18810043 0.1526647
000070 d0 df 43 39 e0 b1 84 be 40 18 a2 3e e6 07 bf 3c
       0.00018680026 -0.25916958 0.31659126 0.023319196
000080 15 b9 c7 bd bf ef 80 be 46 4f a2 3e c0 ed 50 3e
       -0.097520985 -0.25182912 0.31701106 0.20403194
000090 44 a3 58 be 85 84 f6 3d 99 c1 0e be f1 19 ad bd
       -0.21156031 0.12036995 -0.13941039 -0.084522136
0000a0 51 09 ac 3d ca 6b 2f bd b8 68 a6 be 75 1b e5 bd
       0.084002145 -0.042827405 -0.3250177 -0.11186878
0000b0 06 48 c3 3c 75 ba 76 3d 1d 23 24 3d a4 21 12 3e
       0.023838054 0.060236413 0.04007255 0.14270645

conv3.weight f4 [1, 6, 3, 4]
000000 f1 17 58 3d 6e 2f 35 3e 16 58 c1 3d 9e d7 af 3e
       0.052757207 0.17693874 0.09440629 0.3434419
000010 0e fe 83 3e e6 d0 8a 3e dc b1 87 be fc 8b 22 3e
       0.25779766 0.27112502 -0.26502883 0.15873712
000020 61 01 83 3e a2 f5 13 3e 4a 18 29 bc f1 e5 37 3e
       0.2558699 0.1444917 -0.010320732 0.1795881
000030 f9 18 67 bd b8 60 7d be b0 e3 8c bd 6f 44 7e be
       -0.0564203 -0.24743927 -0.068793654 -0.24830793
000040 05 29 45 bc 54 37 6a be 33 33 f4 bd 28 c7 4a be
       -0.012033706 -0.22872669 -0.11923828 -0.19802535
000050 c9 ae 01 3d e3 a3 87 3e 3e 2f 26 3e 55 a8 6d bd
       0.03166083 0.26492223 0.16228959 -0.058021862
000060 37 7b 2b 3d bb 34 be bd 36 a3 bb bd 52 b5 d0 3d
       0.041865554 -0.09287401 -0.091619894 0.10190834
000070 25 49 61 be 6c 70 89 3d 16 4a 1b bd 59 e4 62 3b
       -0.22000559 0.06710896 -0.03791245 0.003462097
000080 9f 9a 42 3e 5b de 43 be d3 c6 24 3e 37 dc 91 3e
       0.19004296 -0.1912779 0.1609147 0.28488323
000090 2d 00 6c be a3 62 30 3d a7 3c dd 3d 30 ae 21 bd
       -0.23046942 0.043062817 0.10802584 -0.03947276
0000a0 aa f1 d3 3d 3e 1f a5 3d 99 c9 67 be 48 7c 82 be
       0.10348828 0.080625996 -0.22635497 -0.25485444
0000b0 39 4a 09 3d 35 0e 0c be 19 23 fa 3d bc b2 df bd
       0.03351805 -0.13677295 0.122137256 -0.10922763
0000c0 43 16 5d bd 36 62 4e bd 1b 6f bc bc f3 e8 26 bd
       -0.05397631 -0.05038663 -0.023002198 -0.0407495
0000d0 d8 4c 94 3d 6b dc c6 be 8e e5 d1 3d b4 f0 58 3e
       0.07241219 -0.3884004 0.10248862 0.21185571
0000e0 c1 39 63 3a 92 1c 93 3e c9 d1 9b bd 4d ac e8 bd
       0.0008667969 0.28732735 -0.07608373 -0.11360989
0000f0 25 a3 00 be 7d 2f 1a bc 81 a6 91 3c 32 5d 7e 3e
       -0.12562235 -0.009410736 0.01777959 0.24840239
000100 63 5b 0e be b9 18 d1 3c 83 1c 9d 3d f1 8c a1 3c
       -0.13902049 0.025524484 0.07671454 0.019720526
000110 ce 29 37 3e 7a 16 d0 bd 6e 51 17 3e 48 c3 64 3e
       0.17887041 -0.10160537 0.14777157 0.22340119

conv4.weight f4 [1, 6, 4, 4]
000000 fc a1 74 3e d3 1f 4e 3d ca ae 7c 3c f6 76 25 3e
       0.23889917 0.05032332 0.015422532 0.16158661
000010 5a 7b 56 3e 1f f0 29 be e8 34 20 be f1 98 02 3e
       0.20945492 -0.16595505 -0.15645182 0.12753655
000020 1b a4 f8 bd 29 77 be bd 12 6b a3 3d ca e4 13 3e
       -0.12140676 -0.09300072 0.079794064 0.14442745
000030 a8 7a 5b 3e 11 c2 d3 bd 42 d2 78 3c 11 2b 05 3c
       0.21433508 -0.103397496 0.015186848 0.008127944
000040 40 62 fd 3d 33 6c 82 3e 8f c8 8a bd 80 fc ee bd
       0.12372255 0.25473174 -0.06776535 -0.11669254
000050 3d 3b 18 be e5 8b 54 bb 96 35 b4 bd 13 f0 d9 bd
       -0.14866348 -0.0032432016 -0.08799283 -0.10641494
000060 f6 9a 06 bd 69 6e 15 be 2c 7a 57 bc bd 5e 2c be
       -0.032862626 -0.145929 -0.013151687 -0.16833015
000070 08 6e a3 3b 9e e9 08 be 1e 99 38 be ea b8 72 be
       0.004987482 -0.13370368 -0.1802716 -0.23703352
000080 cb 19 8a 3d 10 e8 d9 bd 5b 6a 07 3e e0 c8 1e 3e
       0.06743201 -0.106399655 0.13224165 0.15506315
000090 b7 54 13 3e 00 5f aa 3b a3 12 bb bd 7b a7 5e 3d
       0.14387785 0.005199313 -0.09134414 0.05435894
0000a0 7a 96 5d 3e d3 fc 62 be 2f 0d 32 bd b8 1a 9b 3c
       0.21639434 -0.22166757 -0.043469604 0.018933639
0000b0 e6 18 90 be e3 e5 05 3e dd 77 88 3c b0 fe cd 3d
       -0.28143996 0.13075976 0.016658718 0.100583434
0000c0 ca 28 7b 3d 66 16 9a bd b3 b0 2e 3d 78 3b 0a bd
       0.061318196 -0.075238034 0.042648982 -0.03374812
0000d0 b6 35 d7 3c 1e 8c 01 3e 44 40 26 bd b8 a3 3a bd
       0.026270729 0.12651107 -0.040588632 -0.04556629
0000e0 04 f2 09 3e 68 e4 92 bd 0e 50 c0 bd 9e d3 29 bd
       0.13471228 -0.07172471 -0.09390269 -0.04146158
0000f0 b2 57 cb bc bc f8 8a bd f9 d1 1d 3d 13 e1 c4 3b
       -0.02482209 -0.067857236 0.038530324 0.0060082763
000100 43 de 54 3d f2 92 57 bd 5b 8e d0 3d 0b d7 ca 3d
       0.051969778 -0.052630372 0.10183402 0.099042974
000110 af 6b 2f 3d 7f ad 67 bd 1a 7c fc 3c 45 04 b1 bd
       0.042827304 -0.056561943 0.030820895 -0.086433925
000120 b2 be b6 3c e4 41 12 be 94 22 c9 3d bf 56 09 3d
       0.022307727 -0.14282948 0.098210484 0.033529993
000130 15 d9 e5 3c 67 c5 1e be d3 aa 99 3d 29 c6 40 bd
       0.028057614 -0.1550499 0.07503285 -0.04706398
000140 b7 7d 12 3d 44 5e 9d 3d d4 b1 74 bc 09 2a 34 3e
       0.035764422 0.07683995 -0.014934976 0.1759416
000150 e6 80 25 3e ab c4 5e bd 8f 82 6f be 8b 3c 2a be
       0.16162452 -0.054386776 -0.23389648 -0.16624658
000160 fc df 70 bd 2a 0e fc bc 60 15 20 3e 06 66 7e 39
       -0.05880736 -0.030768473 0.15633154 0.00024261334
000170 58 30 db bd 6f ed e1 3c 30 78 01 3d c7 49 39 be
       -0.1070258 0.027579037 0.03160876 -0.1809455

fc3_adv.weight f4 [76, 130]
000000 4a 4c a9 3c 8c 96 2e 3e 96 d0 f4 3d 02 cf 04 3e
       0.02066626 0.17049617 0.11953847 0.12969592
000010 e7 f2 29 3d 8e 0b a5 3c e2 d6 ba 3e ed c2 51 3e
       0.041491415 0.020147111 0.36492068 0.20484515
000020 0f d3 db 3c 75 64 c4 3d e0 56 97 be 9a 86 45 be
       0.026834039 0.09589473 -0.29558468 -0.19289628
000030 ea 18 9f 3e 72 d2 5f 3e a3 c8 54 3e 33 4b 46 3c
       0.31073695 0.21857622 0.20779662 0.01210289
000040 6c f0 44 3e ed a5 12 3e 06 ab c0 3c 66 04 50 be
       0.19232339 0.14321108 0.02351905 -0.20314178
000050 0a ca 3e 3e 7a 08 67 3e 45 ef 04 be fa 4c 2e be
       0.1863176 0.22561827 -0.12981899 -0.17021552
000060 ba 53 47 be 1e 6b b1 bd 7b 7c 73 3d ce c6 3a 3d
       -0.19465533 -0.08663009 0.059444886 0.04559975
000070 5a 42 d2 3d 17 2f 13 3e 10 09 2e bd 18 c6 4e 3e
       0.10266562 0.14373432 -0.04248911 0.20192754
000080 ea d4 24 3e fe 9c b6 bd 1a 18 09 3d a1 26 7c 3e
       0.16096845 -0.08916663 0.03347025 0.24624111
000090 6b a6 3a 3e a2 94 48 3b 5f 81 4d 3d bc 56 e1 3d
       0.18227546 0.003060617 0.050172206 0.110028714
0000a0 35 9c 45 bd f8 c4 87 bd 2b 95 f0 3d 34 82 61 3d
       -0.048244674 -0.06629366 0.117472015 0.055055812
0000b0 45 24 3c bd ad 60 10 3e 9c 60 86 3e 00 ef 32 3e
       -0.045933027 0.14099379 0.26245582 0.17473984
0000c0 a3 85 38 3e fb 4b 55 3d c3 0f 6e bd d7 50 8e 3a
       0.18019728 0.052074414 -0.0581205 0.0010857832
0000d0 bc bf 5e be 4f bc 7e 3c 86 82 c8 3d b0 47 96 ba
       -0.21752828 0.015547826 0.0979052 -0.0011465456
0000e0 88 5a 96 be 59 b0 74 be 99 16 fd bc 14 ad 2d bd
       -0.29365945 -0.23895396 -0.030894564 -0.04240139
0000f0 69 2b d5 bc 6e 0b 02 3e f0 89 4a bc 1d 32 f0 bd
       -0.026021676 0.12699673 -0.012361988 -0.11728308
000100 dc 73 35 be 9f a4 34 bd 25 38 4e 3e 94 b0 aa 3e
       -0.17719978 -0.044102307 0.20138605 0.33337843
000110 b9 b6 5f 3e 6e 57 4e 3e fd 69 72 3e 92 ee 31 3e
       0.21847047 0.2015054 0.23673244 0.17376164
000120 86 3e 28 3e 73 43 91 3e 99 4d 7b bd 16 82 88 bd
       0.16430101 0.28371772 -0.0613533 -0.06665437
000130 e3 27 0e 3e 62 0a 7f bd fe f5 58 bd 58 39 c0 3e
       0.13882403 -0.06226576 -0.05296897 0.3754375
000140 49 8a ec bc 17 c7 c8 3d a9 18 fc 3d 3c da 8c 3e
       -0.028874533 0.098035984 0.12309391 0.2751025
000150 4e ea bc bd 48 34 28 be cf f0 8e 3c cf af 3e 3e
       -0.092243776 -0.16426194 0.01744881 0.18621753
000160 85 46 0b bd 51 c1 13 bd e4 c4 48 be 2a da 91 be
       -0.0340028 -0.036073033 -0.19606358 -0.28486758
000170 cf 99 5d 3d 2f 65 ad 3a df 65 1b 3d 05 82 c0 3e
       0.05410176 0.0013229008 0.03793895 0.37599197
000180 d8 03 45 bc 76 80 a0 3d aa 80 03 be c4 f3 27 3e
       -0.012024842 0.07837002 -0.1284205 0.16401583
000190 2b db 86 3e 2d 9b 92 3e 3a 2b 82 3e a2 e1 f7 bd
       0.26339087 0.28634015 0.25423604 -0.12103583
0001a0 28 cb a4 bc 88 be c8 3d 37 8b 03 3e 5a 40 74 bc
       -0.020116404 0.09801966 0.12846075 -0.014907921
0001b0 b9 15 c5 bb 03 bd 70 bd 35 c2 dd 3d ec 10 ba 3b
       -0.0060145524 -0.058774006 0.10828058 0.005678287
0001c0 d0 5c ee 3d 4e cd 9f bd f9 aa 34 be bd f2 c6 bc
       0.11638796 -0.07802831 -0.17643346 -0.024285669
0001d0 11 5d 0e be 82 ab 8d be f5 66 c4 bd d4 46 bb 3d
       -0.1390269 -0.27669913 -0.0958995 0.09144369
0001e0 13 99 04 be 0d fa 6f be 22 c8 f3 bd 7e ec 03 bd
       -0.12949018 -0.2343523 -0.11903407 -0.03220796
0001f0 ac a2 0b 3d 30 06 ca 3d 6b d0 1d 3e c4 e2 35 3d
       0.034090683 0.098644614 0.15411536 0.044405714
000200 66 15 45 bd 83 71 be 3d fc 5a 8d 3e 0a b6 5a 3e
       -0.04811611 0.092989944 0.27608478 0.21358505
000210 68 c7 7f 3e c0 cf a7 3e 22 de ac 3e 32 a4 98 3e
       0.24978411 0.32775688 0.33763224 0.2981277
000220 80 63 44 bc 13 65 80 3e 01 2c 7f 3e 04 32 a9 3e
       -0.011986613 0.25077114 0.2491913 0.3304597
000230 6f 8c a3 3e 7f c3 ad 3e 8a a7 98 3e d8 d9 3f 3e
       0.3194308 0.33938214 0.29815322 0.18735445
000240 77 fc e6 3d d0 ea 95 3e d0 1e 09 3e 0e 88 95 3e
       0.112786226 0.2928071 0.1339066 0.29205364
000250 d1 93 1a 3d 9b ba 90 3d 43 16 aa 3e 48 8b 88 3d
       0.037738625 0.07066842 0.3322011 0.06667191
000260 91 3f 85 3d ea d0 2b 3e ac cb c4 3e f2 11 8a 3e
       0.06506265 0.16778913 0.3843664 0.26966816
000270 e0 7d c4 3e 1b 9b 38 3e c7 05 af 3c 5c 72 81 3e
       0.38377285 0.18027918 0.02136506 0.25282562
000280 c9 dc 75 3e 7f 28 81 3e c6 f1 16 3d 60 91 d1 3d
       0.24010004 0.2522621 0.036851667 0.10232806
000290 1d 81 9b bd d0 d9 45 be 58 27 1d bd 19 0e b7 3c
       -0.07592986 -0.1932137 -0.0383676 0.02234559
0002a0 31 75 52 3e ed 19 75 be f9 50 ca bd f6 c1 1f 3d
       0.20552517 -0.23935671 -0.098787256 0.039003335
0002b0 fb 75 1e be 4a ec 18 bd 3f 53 a0 3d 74 c2 41 3e
       -0.15474693 -0.037334718 0.07828378 0.18921834
0002c0 ec be 11 3e c0 23 4b 3d 89 be 57 3e f6 8c 29 bd
       0.14232987 0.04959464 0.21068777 -0.041394196
0002d0 9c 23 e9 3c d6 50 31 be 5d 9a 42 bd d9 98 7f 3d
       0.028459363 -0.17315993 -0.047510494 0.062401626
0002e0 fc dc 4f bd a7 70 00 be e1 1a ce 3d f2 bf ec ba
       -0.050747856 -0.12542973 0.100637205 -0.0018062575
0002f0 53 7f a0 3d 1f fd 90 bc 73 13 aa bd 99 c3 67 3d
       0.07836785 -0.017698823 -0.08304491 0.05658302
000300 4a 42 b7 be a8 a5 d0 bd c2 e3 a8 bd ef 59 2b be
       -0.35792762 -0.101878464 -0.08246566 -0.16733526
000310 33 e3 b1 3c 55 70 94 3e 9b ed 95 3d a4 c1 47 3e
       0.021714782 0.28991953 0.0732071 0.19507462
000320 08 32 15 3d 0f d0 86 3d d9 88 94 bd 1b 50 c8 bb
       0.036424667 0.06582653 -0.07252664 -0.006113065
000330 ba 17 0c 3e 5f f6 72 bc 13 4f b1 3d b7 68 2d bd
       0.13680926 -0.014829247 0.0865766 -0.042336192
000340 5a 5e 9b 3d 7d 25 ba 3e 4f 27 f5 3d 7f 3a 15 bd
       0.075863555 0.36356726 0.11970388 -0.03643274
000350 21 ba d6 3d 31 b9 90 bd c2 81 aa bd 02 8f a7 3d
       0.1048472 -0.070665725 -0.083255306 0.081815735
000360 e7 b5 31 bc d2 0b 0c bd 75 47 9a 3d fd 7a 0e 3e
       -0.010846592 -0.03419096 0.075331606 0.13914104
000370 1b 2b 76 3e e5 24 23 3d 8c 27 42 bd 0d 51 39 be
       0.24039881 0.039830107 -0.047400996 -0.18097325
000380 c1 90 1e be 71 48 f2 bd 54 c5 76 bd d8 9b cd 3d
       -0.15484907 -0.11830223 -0.06024678 0.100394905
000390 35 fe 46 bd e8 ff 2d 3c 5e cc dd bd b0 c6 63 3d
       -0.048582274 0.010620095 -0.108299956 0.055609405
0003a0 7b 71 4e 3d 4d b3 da bc b2 62 65 be c9 cb bb 3c
       0.050401192 -0.026696825 -0.2240093 0.02292432
0003b0 c7 7c 3b be cc b3 8e 3d c6 15 34 bd d1 28 58 3d
       -0.18309318 0.06967887 -0.043966077 0.0527733
0003c0 98 a2 26 be ec 76 3f 3d f1 4b a6 3d 7d 0b e1 bd
       -0.16272962 0.046744272 0.081199534 -0.10988519
0003d0 4c 51 39 be bf 8f 7b be 47 7a 3a 3e 36 3e 97 3b
       -0.18097419 -0.24566554 0.18210708 0.0046155704
0003e0 66 97 04 3d 48 12 7f bd 08 09 45 be 27 2e a2 bc
       0.032370947 -0.062273294 -0.19241726 -0.019797398
0003f0 ba 1a 2e 3c 45 11 05 3e d3 71 e4 3d 0f f4 e2 3d
       0.010626489 0.12994869 0.11154523 0.11081707

fc3_adv.bias f4 [76]
000000 3e 9a 88 3d 19 ef d4 3d f9 9e 66 bd 2f df 92 3d
       0.06670044 0.10397167 -0.056303952 0.07171475
000010 c7 c8 d5 3d 0c a5 5f 3e ff bb 94 3d c3 84 1a 3e
       0.10438686 0.21840304 0.0726242 0.15089707
000020 89 93 2e 3d 42 5c 13 3e f0 35 34 3d 34 10 ca 3d
       0.04262117 0.14390662 0.04399675 0.09866372
000030 f4 41 13 3e 19 4a e5 3d 53 3e 0a 3e 19 82 0c 3d
       0.14380628 0.11195774 0.13500337 0.03430376
000040 61 eb 3c 3e 9b 92 3d 3d d3 12 a3 3d 85 8f 0c 3e
       0.18449165 0.046282392 0.07962575 0.13726623
000050 e3 04 c3 3d 02 08 16 3d 35 80 21 3e 6d 87 ad 3d
       0.095224164 0.03662873 0.15771563 0.08473096
000060 55 a8 d2 3d 9d ce df 3d e3 df c3 3c 61 60 1e 3d
       0.10286013 0.1092808 0.023910468 0.038666133
000070 cb 35 0f 3e 00 27 1e bd 5f 60 30 3e 02 a5 66 3d
       0.13985364 -0.038611412 0.17224263 0.056309707
000080 1d bc 53 3e 0f 7d 2f 3e e8 b6 70 3d d9 38 76 bd
       0.20677228 0.1713755 0.058768183 -0.060112808
000090 b3 ca a0 3d 8b ba b7 3d 06 64 7c 3d 73 d7 8f 3d
       0.07851162 0.08971127 0.061618827 0.070235156
0000a0 1d 36 14 3e 60 13 2a 3d ba c1 d2 3c 49 56 40 3d
       0.14473768 0.041522384 0.025727142 0.046957288
0000b0 51 8e 44 3e 06 44 15 3e c7 e5 2c 3e b0 78 0d 3e
       0.19194914 0.1457673 0.16884528 0.1381557
0000c0 ca ff c0 3c 5a 63 4a 3e 70 f7 e3 3c d4 e0 e3 3d
       0.02355947 0.19764462 0.027827948 0.11126867
0000d0 c7 bd 21 3d d5 31 98 bc 80 61 18 3e 92 6b 42 3d
       0.039487626 -0.01857845 0.14880943 0.04746587
0000e0 7c 18 02 bd e3 90 3d 3b 82 6c 08 3e 12 63 50 3d
       -0.03176163 0.002892547 0.13322642 0.05087573
0000f0 76 12 1e bd 67 ad f8 3d 54 a1 0d 3d be d4 54 3e
       -0.038591824 0.12142449 0.034577683 0.2078428
000100 dd c1 47 3e 44 12 6e 3d fe 3d 10 3e b2 67 06 3d
       0.19507547 0.05812289 0.14086148 0.032813735
000110 15 59 86 3c 1a 03 1f 3d 21 b1 36 3d f4 8f 3b 3d
       0.0163999 0.038821317 0.044602517 0.04579158
000120 1d 5c 23 3e f6 a4 7d 3d 86 61 22 3e 38 96 95 bb
       0.15953107 0.061924897 0.15857515 -0.0045650266

fc3_val.weight f4 [76, 130]
000000 b3 01 20 3e 49 9e 2b 3d 4f 4b 44 3d cf a1 b0 3d
       0.15625648 0.041899 0.047923382 0.086246125
000010 73 a2 50 3d f5 0b bc 3d 66 ce 8e bd fb eb 48 3d
       0.050936174 0.09181968 -0.06972961 0.049053174
000020 3c dd 1b 3e 3e dd 3e 3e ee e2 97 3d cc 10 cf bd
       0.15221113 0.18639085 0.0741633 -0.101106256
000030 cb 8f 0c 3d 94 17 38 bd 4f d9 4a 3d 8d 5b fa bd
       0.03431682 -0.04494436 0.049523648 -0.12224493
000040 b2 5b 31 3e 51 1c 07 be 84 15 87 3d 4c 94 08 be
       0.17320135 -0.13194396 0.06595901 -0.13337821
000050 bd 56 e3 bd 06 b7 d9 3d 14 02 d5 bd c2 c7 b1 bd
       -0.111005284 0.10630612 -0.10400787 -0.08680679
000060 4a d3 ca 3c 3d 91 53 3e 90 13 01 3e f6 e5 bb bd
       0.024758954 0.20660873 0.12605119 -0.09174721
000070 61 aa 80 3e b8 53 88 3e 09 2d e7 3d 3b dd 5f bd
       0.2512999 0.26626372 0.11287887 -0.05465434
000080 15 54 9e 3e 8f 42 21 3e 6f 4e 49 3e 8e f1 59 3e
       0.30923524 0.15748046 0.19658826 0.21283552
000090 76 92 8a bc 39 96 bd 3d 6c 97 14 bd d2 ae 92 3d
       -0.016915541 0.09257168 -0.03627722 0.071622506
0000a0 2d 1c 02 3e bc ba 53 3e a1 6a f4 3c e5 f5 b4 bc
       0.1270606 0.20676702 0.029836 -0.022089908
0000b0 4f 0a 9a 3e 31 3c 6e 3b 0f 03 8c bd 54 17 b7 3d
       0.3008599 0.0036351795 -0.06836521 0.08939996
0000c0 83 4c 17 3e 0c 6b 24 3e b3 83 ce 3d 1e 03 81 3e
       0.1477528 0.1605646 0.100837134 0.2519769
0000d0 2e 5d 25 bb c6 83 49 3e 27 e7 c0 3d d8 12 06 3e
       -0.0025232541 0.19679174 0.09419089 0.13093126
0000e0 27 db 23 bd 88 50 ce 3d 7d b3 6d 3d 8e 90 5f 3d
       -0.04000392 0.10073954 0.0580325 0.054581217
0000f0 9c ed 0d 3d 6c ca 58 3e 2f 22 8c bd 27 c3 87 3d
       0.03465043 0.21170968 -0.068424575 0.06629019
000100 ae ae aa 3c a4 96 f5 3d cb 47 1a 3e 21 6f 17 3d
       0.020835247 0.11991623 0.1506645 0.036971215
000110 ff 55 81 3d 93 1f 22 3e 5f 05 8f ba c5 d2 68 bc
       0.063152306 0.15832357 -0.0010911635 -0.014210408
000120 4c ab 97 3d 4f dc 71 3e 6e ac 63 3e 09 ad 35 3e
       0.07405719 0.23619197 0.22233745 0.17741789
000130 c1 aa 2a 3e 21 cd 69 3e 14 82 16 3d aa 9a 21 3d
       0.166667 0.22832157 0.036745146 0.03945414
000140 c1 14 7a 3c 66 c8 f2 bc 14 8d 0f 3d 69 93 c4 3d
       0.015263737 -0.029636573 0.035046652 0.09598429
000150 0a 2c 45 3e 13 11 02 3e 74 82 57 3e bf d0 0b 3e
       0.19255081 0.12701826 0.21045858 0.13653849
000160 4d e7 63 3e 4b fd 8c 3d 58 4a 28 3e eb ed b1 3d
       0.22256203 0.06884249 0.1643461 0.086879574
000170 d6 cc 1c bd a5 61 25 3c 0b b3 5d 3d 2e fc c5 3d
       -0.038281284 0.010094081 0.054125827 0.0966724
000180 78 f4 03 3e 01 e8 a0 3e ad 9e 68 3e df b6 90 3e
       0.12886226 0.31427005 0.2271678 0.2826452
000190 5f 0c 9b 3d 6e 9a 92 3e 0c 54 95 3d d8 fc f6 3d
       0.07570719 0.28633446 0.07291421 0.12059945
0001a0 1c 5e 8f 3e b6 e5 39 3e 9b b1 80 3e 1a 7b a2 3e
       0.28001487 0.18154034 0.25135502 0.31734544
0001b0 6a d5 a8 3d ef 3f cb 3d ca 4b 55 3e 49 d1 d7 3d
       0.082438305 0.09924304 0.20829692 0.10537965
0001c0 0f 9f 57 3e 6f 48 5a 3e 25 15 2d 3e e8 81 90 3d
       0.2105677 0.21316694 0.16902597 0.07056028
0001d0 f6 cf c0 3e 44 b8 9d 3e 45 c0 5e 3e ac 1f 98 3e
       0.37658662 0.30804646 0.21753033 0.29711664
0001e0 d3 26 ac 3d 13 4a 76 3e 74 9d 0f 3e 51 b9 94 3e
       0.08405843 0.24051695 0.14024907 0.29047635
0001f0 48 37 78 3e 40 50 ec 3e 26 4d bb 3e b9 0e 95 3e
       0.24239838 0.46154976 0.36582297 0.29112795
000200 20 da 87 3e 69 02 20 3e 41 4d 8f bc c4 b0 10 3e
       0.26533604 0.1562592 -0.017492892 0.1412993
000210 1f 1a 2e 3e db 16 64 3c d8 f7 8e 3c f0 ce ab bd
       0.17002152 0.013921465 0.017452165 -0.083890796
000220 b9 7e 9d 3d f3 cc 8b 3b d3 c2 77 bd 89 e0 85 bc
       0.07690186 0.004266375 -0.060488533 -0.016342418
000230 33 da 33 3e 24 ac 3c 3c a3 ea 0a 3e 29 f2 13 3e
       0.17563705 0.011515651 0.1356607 0.14447846
000240 e9 2f 28 be da 93 2b 3e b8 58 98 3d 47 4a 32 3e
       -0.16424526 0.1675562 0.07438797 0.17411147
000250 94 4e 4f 3d 83 fa 19 be 8a 8c a2 bb 89 8b 7a bc
       0.050612047 -0.15036969 -0.004960601 -0.015292057
000260 36 fc db 3d d1 8d 29 bd 28 51 01 3c 4b 6c 57 3c
       0.10741465 -0.041395012 0.007892884 0.013148378
000270 c7 5c ef bc cf ab 3c 3e 23 56 fa bc 95 35 8c 3c
       -0.029219044 0.18424915 -0.030558651 0.017115394
000280 12 2a 44 3e a1 47 e1 3d 35 59 99 3c f2 86 15 bd
       0.19156674 0.1099999 0.018719295 -0.036505647
000290 95 16 09 3e 78 8c d7 3d 1e 73 d1 3d e2 8d 93 3d
       0.1338752 0.10524839 0.10227035 0.072047964
0002a0 f5 e7 63 bd ff 93 85 3e db cb 2b 3d 90 41 f5 3a
       -0.055641133 0.26089475 0.04194246 0.0018711556
0002b0 3d 8e d0 3c 5e cd 92 bd 23 ff d8 3d 0a a1 71 3e
       0.02545845 -0.07168077 0.105955385 0.23596588
0002c0 16 d8 15 3e 5b cf 29 bd 3b 05 40 3e a4 92 33 3e
       0.14633211 -0.041457515 0.18751995 0.17536408
0002d0 50 76 80 3e 55 32 cd 3d a6 59 4c 3e e5 9a 75 bd
       0.25090265 0.10019366 0.19956073 -0.059962172
0002e0 8f 1e a6 3d 3e 3d 26 3d 19 08 39 3e d0 1d 99 bd
       0.08111297 0.04058575 0.18069495 -0.074763894
0002f0 ff 25 5f 3e a4 12 01 3e 53 29 78 3e d8 87 52 3e
       0.21791838 0.12604767 0.24234514 0.20559633
000300 83 7c 94 3d cf 9d be bd 8c 6f 99 bd 5d 24 96 3d
       0.07250311 -0.09307443 -0.07491979 0.073311545
000310 19 e3 00 3c 86 41 86 3e 30 8d 80 3e 9f f8 3f 3e
       0.007866644 0.26221865 0.25107718 0.18747185
000320 3a a0 48 3e bf 28 6c bc 54 f0 dd 3c ab 6b 7d 3e
       0.19592372 -0.0144140115 0.027092136 0.24748103
000330 0b 8c 84 3e 90 e0 ee 3d d5 0d d7 3d f4 dd a1 bc
       0.25888094 0.11663926 0.10500685 -0.019759156
000340 db 5c 22 3c 2a a4 fd bb 62 f8 81 3e 45 51 a6 3d
       0.009909834 -0.007740517 0.25384814 0.0812097
000350 74 d1 69 3e 85 11 7c 3e 64 c1 33 3e 3a 7f 4d 3e
       0.22833806 0.24616058 0.17554241 0.20068064
000360 20 27 b8 3d 7d 1a 84 3d 15 a1 ff bc 93 de 4b bd
       0.089918375 0.06450365 -0.03120474 -0.04977281
000370 cb 83 74 3e 4f 90 c9 3d 8a 13 93 bd 42 a6 ea 3c
       0.238784 0.09841978 -0.07181461 0.028643731
000380 a3 c5 e3 3d 5a 9f b6 3d 54 99 c4 3d e7 d6 a4 3e
       0.111216806 0.08917113 0.095995575 0.32195207
000390 70 19 ec 3d 33 7f ee 3d da 12 8c 3e b8 1e ec 3d
       0.11528289 0.11645355 0.27358133 0.11529297
0003a0 0a c3 f8 3d fc 99 6e 3e 29 02 4b 3e d4 47 1d 3e
       0.12146576 0.23300928 0.19825043 0.15359432
0003b0 16 2a b6 3e d7 e1 23 3e d5 4b a1 3e ba a2 81 3e
       0.35578984 0.1600412 0.31503168 0.25319463
0003c0 78 18 04 3e ed ee a0 3e 23 9e 15 3d 02 af ae 3d
       0.12899959 0.31432286 0.036527764 0.08529474
0003d0 79 2e 38 3e 2f 85 95 3e d1 2f b7 3e 4c 5a 77 3e
       0.17986478 0.29203174 0.3577867 0.2415554
0003e0 09 e9 a1 3d b3 d8 6a 3e 9e 6c 46 3d 47 d9 1b 3e
       0.07905776 0.22934227 0.04844343 0.15219603
0003f0 6e a5 24 3e 6a 12 0d 3e ae e9 bc 3e 64 f0 19 3e
       0.16078731 0.13776556 0.36897033 0.15033108

fc3_val.bias f4 [76]
000000 f7 58 5c bd 82 42 42 be 57 47 5f 3e 32 e4 ae 3e
       -0.05379578 -0.18970683 0.21804558 0.34158474
000010 fc 91 97 3e d5 71 a9 bd f1 a4 35 bd ca 8e 5e 3e
       0.29603565 -0.08273665 -0.044346754 0.21734157
000020 35 5d 11 be 91 2e 71 bd a9 e9 ee bd f9 48 08 be
       -0.14195712 -0.0588823 -0.11665661 -0.13309087
000030 11 8b af 3d 4e 74 bb bd 2f 7c 1d be ce f3 a7 3e
       0.08571447 -0.09153043 -0.15379404 0.32803196
000040 85 17 85 3e 7c 8a 20 be 57 67 a5 bd 79 3f fb bd
       0.25994506 -0.15677828 -0.08076351 -0.12267966
000050 a8 40 15 be 26 ce 1e be 36 e3 42 3e 55 6f 0d bd
       -0.14575446 -0.15508327 0.19031987 -0.034530003
000060 85 58 29 be 3c 67 e7 bd 39 a2 d8 bc 67 8d 9a 3e
       -0.16537674 -0.11298987 -0.026444541 0.30186006
000070 e1 bc b1 3e c6 5e f5 bd 62 f1 30 be 2f 45 67 3e
       0.34714416 -0.11980967 -0.1727958 0.22584985
000080 2e 82 d4 3e 98 f0 77 3e b8 fb a5 bd ce 24 8f bd
       0.4150557 0.24212873 -0.08104652 -0.06989442
000090 08 95 90 3e 2b a8 40 be 5a 2a 74 3e 06 da c2 bd
       0.28238702 -0.18814151 0.23844281 -0.09514241
0000a0 5c d8 37 be 42 c0 48 be 1e 48 0a 3f e6 f3 93 3e
       -0.17953628 -0.1960459 0.5401629 0.28897017
0000b0 fe dd dc bd eb 70 20 3e 78 fd d4 3d 1d 01 56 be
       -0.10784529 0.15668075 0.10399908 -0.20898862
0000c0 63 be 87 3e 67 5c f2 bd 2a b1 99 3e 49 83 47 bd
       0.2651244 -0.118340306 0.30017978 -0.048709188
0000d0 d8 13 1d be 31 14 9a bc 50 af b3 3e 76 9a 3e be
       -0.15339601 -0.018808456 0.3509469 -0.1861361
0000e0 ad ce 74 3e 2e 66 3d 3e ae 0c 32 bd 12 1e 40 bd
       0.23906966 0.1849601 -0.043469124 -0.046903677
0000f0 97 ba f6 bc 3b b8 56 bd 95 a6 4d 3e 50 83 39 be
       -0.03011827 -0.05242179 0.20083077 -0.18116498
000100 80 d8 75 bd 74 a1 c1 bd e1 64 17 be a6 84 8d 3e
       -0.060020924 -0.09454623 -0.14784576 0.27640265
000110 69 ed ef bd 07 27 32 be c3 48 76 3e 53 36 00 be
       -0.11715204 -0.173977 0.24051194 -0.12520723
000120 65 ab cf bd af af 18 bd ba 1c 9f bd d0 d4 7f 3e
       -0.10140113 -0.03727692 -0.07769151 0.24983525

fc4_adv.weight f4 [38, 76]
000000 dd b9 95 be 4e 93 b3 bd 9d f1 3d 3e cb e9 80 3e
       -0.29243365 -0.087683305 0.185492 0.2517837
000010 78 ec 62 3d fb 79 be bd 12 67 88 3d 34 f4 c8 3d
       0.055401295 -0.0930061 0.06660284 0.09812203
000020 a9 73 4c 3e fe 87 00 3e 74 55 52 bc 59 58 e1 3d
       0.19965996 0.12551877 -0.012837756 0.11003179
000030 6b dc ed bc 0e bb fc bd bc 2c e6 bd ad 18 63 be
       -0.029035768 -0.12340365 -0.11239001 -0.22177382
000040 5b d1 32 3e d9 ec a7 3d 93 36 74 3d c8 1b a3 3d
       0.17462675 0.08199472 0.05962236 0.07964283
000050 4b 7a 95 bc 2f e8 a9 be 58 b1 62 3d eb 8f 66 3e
       -0.01824679 -0.33184955 0.05534491 0.22515838
000060 c4 73 82 bc 78 3e 55 3e 08 e2 59 3d e2 64 bc 3d
       -0.015924342 0.20824611 0.053194076 0.09198929
000070 24 f4 e9 bd 7d d2 64 be aa 52 05 be e5 a8 03 3e
       -0.11423519 -0.2234592 -0.13019815 0.12857397
000080 46 c5 8c 3d 00 aa 2b 3e bf d9 a9 3d 02 dc 6a 3c
       0.068735644 0.16764069 0.08293485 0.0143346805
000090 c3 30 37 3e ab 20 30 3e 2e 0f 1a be 75 70 0e 3d
       0.17889695 0.17199962 -0.15044853 0.034775216
0000a0 54 98 7b 3d 95 5e 72 3d fe cd e3 bc 92 98 3d b9
       0.06142457 0.05917223 -0.027808186 -0.00018081281
0000b0 d6 32 eb bd 27 8d 17 3e 5c 9f 19 be 91 d0 8f 3e
       -0.114843056 0.14799939 -0.15002197 0.2808881
0000c0 5a 5f 8b be 1c 3a 78 3e 8b 98 7d 3e a6 99 fc 3d
       -0.27221185 0.24240917 0.24765222 0.123339936
0000d0 45 a2 ed bd df 74 97 be 71 36 13 3e ec f0 32 be
       -0.11603216 -0.29581353 0.14376236 -0.17474717
0000e0 1f 41 45 bd 40 e2 df bd 6b 7e 07 be 28 59 ed 3d
       -0.048157807 -0.10931826 -0.13231818 0.11589271
0000f0 c8 45 7d bb fc 5f 7c 3e 9d ba 45 3e 1c 17 5d 3e
       -0.003864633 0.2464599 0.19309469 0.21590847
000100 a5 fe 0c 3e 0d 50 25 bb 69 c6 6e be 01 a4 a4 3d
       0.13769014 -0.0025224716 -0.23317875 0.08039094
000110 a3 40 48 be 53 f4 9a 3c b5 0d f3 bd 53 3a ae bd
       -0.19555907 0.018915331 -0.11867849 -0.08507218
000120 71 8e 89 3e b1 20 2d 3d fe 74 09 3e ad f3 42 be
       0.26866487 0.042267505 0.13423535 -0.19038267
000130 1b 39 74 be ff 6f e0 ba 77 bb 7b 3d 80 d1 19 3e
       -0.23849909 -0.0017123221 0.061458077 0.15021324
000140 e2 da 16 3e 6e 19 79 bb 02 fd 92 3e fc 8a 35 3e
       0.14731935 -0.0038009542 0.28708655 0.177288
000150 b6 ea 50 3e d3 b8 36 3e 6e 03 67 3e 7c 68 8e be
       0.20402035 0.17843942 0.22559902 -0.2781409
000160 b8 9f 43 be 46 9a 32 be d1 9a b6 3d 88 b8 c0 bd
       -0.19103897 -0.17441663 0.08916248 -0.094101965
000170 c9 81 60 3c 1d 74 e7 3d cf b4 11 be ea d1 49 be
       0.013702818 0.11301444 -0.14229129 -0.19708982
000180 34 f3 74 3e 82 8d 78 3d 1f e9 37 bd 61 1e 3a 3e
       0.239209 0.060681827 -0.044900056 0.18175651
000190 88 c5 0d 3e 23 b6 17 3c 50 0a a1 bd 66 d3 52 3e
       0.13844883 0.009259733 -0.07863295 0.20588455
0001a0 1b 5d bf 3d 79 28 93 3c e6 e9 a5 bd fa 83 7c 3e
       0.0934393 0.017963635 -0.08101253 0.2465972
0001b0 94 d3 3e bd 2f 5f 37 be 6d 8f 02 bc 70 b0 82 3d
       -0.046588495 -0.17907403 -0.007968766 0.06381309
0001c0 1c 80 ba bd 09 3f ea bd 01 0b 34 3e 39 a4 37 3e
       -0.09106466 -0.11437804 0.17582323 0.1793374
0001d0 76 00 d3 bc 04 b5 1d 3d b8 a8 2d bd 28 57 11 bd
       -0.025757056 0.038502708 -0.04239723 -0.03548351
0001e0 e7 52 03 bc 0d 44 1a 3d 5a ce 5e 3e 1d 35 1c 3e
       -0.008015371 0.037662555 0.21758404 0.15254636
0001f0 b8 d7 59 bd 8e 95 cc bd 11 92 93 3d f9 58 84 bd
       -0.05318424 -0.09989463 0.07205594 -0.06462283
000200 37 3b dc 3d 63 a6 3c be bf 74 61 3e 12 51 fa 3d
       0.10753482 -0.18422846 0.22017191 0.12222494
000210 25 e9 84 bd 99 93 5a be 9d 4b e9 3d f5 86 8c 3d
       -0.06489781 -0.21345367 0.11391375 0.068616785
000220 01 1e 05 3e b9 d8 d8 3c c9 17 46 be 92 2b 2d 3e
       0.12999727 0.026470529 -0.19345011 0.16911152
000230 76 a0 f1 bd 86 5a 86 bc 97 3e b1 3e 07 ee 2f be
       -0.117981836 -0.016400587 0.34618065 -0.17180644
000240 f4 de 3c bd 77 86 0f be 54 cf 8c 3e 6b 27 37 3d
       -0.046111062 -0.14016138 0.2750193 0.044715326
000250 b3 f4 80 3b 32 5c 56 bd 98 7e e3 bd ff 40 27 3c
       0.0039354204 -0.052334018 -0.1110813 0.010208367
000260 1b b8 81 be 2d 16 f3 ba 8d ff 80 3e cc 56 a3 bd
       -0.25335774 -0.0018546038 0.2519497 -0.079755396
000270 2e 3e 4f 3e c7 1c cf 3d 62 15 90 bd 3b 4e d3 bd
       0.20238563 0.10112911 -0.070353284 -0.10317656
000280 46 e7 d4 3d a5 02 3c be 63 2c 3c 3e 67 5a a6 bd
       0.103956744 -0.18360384 0.18376307 -0.08122712
000290 74 14 e7 bc 63 98 23 3e 7c 54 e5 3d 7c c3 9f be
       -0.028207995 0.159761 0.11197755 -0.3120383
0002a0 fa b7 ee 3c 8f 5a d8 bd 3a f7 ee bd 66 2b 4d bc
       0.029140461 -0.10564148 -0.116682485 -0.012522554
0002b0 7b 04 cb 3d 1a a1 44 be ed 6f 1c 3b 19 ab 09 3e
       0.09912964 -0.1920208 0.0023870424 0.13444175
0002c0 55 f6 6f 3e 43 f8 87 3c ce 79 26 3d 3f b3 62 3d
       0.23433812 0.016597873 0.040643506 0.055346724
0002d0 36 01 49 be 5a af 64 3e 3f 41 d6 bd 6d 20 5c 3e
       -0.19629368 0.22332516 -0.104616635 0.21496744
0002e0 a4 c5 be 3d 5b 15 94 3e 3e a3 9e 3d 8a c9 1e be
       0.09315041 0.28922543 0.0774598 -0.15506569
0002f0 85 49 3d 3e c6 bc c7 bd 8c e8 28 3e a0 57 38 be
       0.18485077 -0.097528026 0.1649496 -0.18002176
000300 98 69 8e bd 78 0d 33 3e f6 ea 9e 3e 56 13 fe bc
       -0.06953734 0.17485607 0.31038636 -0.03101508
000310 c2 34 1d 3e b4 fd 52 bd d0 2a 45 bd fa 51 31 3e
       0.15352157 -0.05151148 -0.048136532 0.17316428
000320 57 7f b6 bd 76 c7 71 be f8 d7 7a 3e b8 13 16 3d
       -0.08911007 -0.23611245 0.24496448 0.0366399
000330 8c a8 5e 3d b7 c8 5a 3d d2 eb e5 3d d0 bb 33 3e
       0.054359958 0.053414073 0.1122662 0.17552114
000340 e6 75 52 3e 90 21 e5 3d 0c 0c 19 3f 2b 82 70 3e
       0.20552787 0.11188042 0.5978401 0.23487155
000350 81 16 fe bd 24 78 02 bd 08 a8 29 be 95 b9 66 3e
       -0.12406636 -0.031852856 -0.16568005 0.22531731
000360 00 db 2c 3e 22 13 3f 3e e5 a7 cb bd ee 59 54 be
       0.16880417 0.18659642 -0.09944133 -0.2073743
000370 8b ce 20 be 36 d1 05 3d ed 0f b8 3d fc da 2e be
       -0.1570379 0.032670222 0.089874126 -0.17075723
000380 f3 64 b7 3d d2 4c 5a be b0 65 e7 bd 60 26 4e be
       0.089548014 -0.21318367 -0.11298692 -0.20131826
000390 62 1b 69 be 1b 30 9b bd 6c 8a c1 3e a4 70 9c 3c
       -0.22764352 -0.07577535 0.3780092 0.01909668
0003a0 be 2e 9b 3e e1 77 0a 3e 86 ab a3 bc 32 b9 d3 3d
       0.303091 0.13522293 -0.01997925 0.103380576
0003b0 82 29 48 be 6a 52 a5 bd c0 56 48 3e f8 3f e0 3d
       -0.19547084 -0.0807236 0.19564342 0.10949701
0003c0 71 86 0b bd 9e 0d 8f bd d8 d8 0c 3f 20 ec a7 be
       -0.03406376 -0.06985019 0.5501838 -0.32797337
0003d0 5b 75 5e 3e 82 c7 ad bd f2 4d 78 be 4b b5 77 3d
       0.21724455 -0.08485319 -0.24248484 0.06047563
0003e0 83 ef da 3c 25 e2 9a 3a b5 e1 3c be 8e d1 03 3e
       0.026725536 0.0011816664 -0.18445475 0.12872908
0003f0 3b 06 a5 3e 7f 9a a7 3d a7 f8 6a 3e 38 32 7a 3e
       0.32231316 0.08183765 0.22946416 0.2443322

fc4_adv.bias f4 [38]
000000 89 a1 f0 3d 87 e5 2a bd 0e f4 e3 3d 8c 80 03 bd
       0.117495604 -0.0417228 0.11130534 -0.032105014
000010 c0 e4 04 bc 73 a6 92 bc 2a 0c 2f 3e d1 dd 12 be
       -0.008111179 -0.017901635 0.17094484 -0.14342429
000020 71 8e e0 bd 7f 99 b5 bd 7b 53 28 be 4c c2 36 3e
       -0.109646685 -0.08867168 -0.16438095 0.17847556
000030 f7 3d 10 3d b2 f3 0d bd 15 00 5e 3d 7b 70 18 3e
       0.035215344 -0.034656234 0.054199297 0.14886658
000040 cc 2e b1 3d e6 96 13 be 5b 55 23 3e a2 8a 8b 3d
       0.08651504 -0.14413032 0.1595053 0.068135515
000050 9e 40 b0 3d 22 3a 17 3e f0 da 9c 3d 2f d6 c9 3d
       0.08606075 0.1476827 0.076589465 0.098553054
000060 5b ed 20 3e 76 d6 2d bc 75 4c d6 bd a6 63 a0 bd
       0.15715544 -0.0106102135 -0.10463802 -0.078315064
000070 e5 cd 23 3d b5 ca 13 3e 84 50 bf 3d 20 48 76 3d
       0.03999128 0.14432795 0.09341529 0.060127378
000080 43 52 b3 bb 71 02 ba 3d 04 e9 62 be 0d af 1c 3d
       -0.005472453 0.09082497 -0.22159201 0.03825288
000090 ba dd cf bd b0 47 8a 3d
       -0.10149713 0.067519546

fc4_val.weight f4 [1, 76]
000000 c7 51 51 3e 63 98 a4 3e f0 2d 79 be f1 59 d6 be
       0.20441352 0.32147512 -0.2433393 -0.41865495
000010 65 1e 71 be f7 a4 71 3e 56 56 e1 3e fe 85 bc be
       -0.23546751 0.23598085 0.44011182 -0.36820978
000020 51 4b b3 3e ed 53 a4 3e 7c ca c6 3e 57 b7 85 3e
       0.350184 0.3209528 0.38826358 0.2611644
000030 0f 23 c4 be dc cb 3d 3e c6 ed 95 3e e2 c9 62 be
       -0.38307998 0.18534797 0.2928297 -0.22147325
000040 94 ef 98 be 3b 75 a6 3e f1 55 86 3e 6f 26 9f 3e
       -0.29870284 0.32511315 0.26237443 0.3108401
000050 23 55 9e 3e 5a d1 ac 3e 5c 89 a7 be 86 44 82 3e
       0.3092433 0.33753473 -0.32721984 0.25442904
000060 43 38 77 3e c7 7b 4c 3e 79 e8 bd 3e 3b 13 f1 be
       0.24142556 0.19969092 0.37091425 -0.47084984
000070 e2 93 ee be 72 4b 33 3e be 99 7b 3e 15 a6 00 bf
       -0.465972 0.17509249 0.24570367 -0.5025342
000080 76 db 19 bf b6 17 c5 be 5f c2 65 3e 7e 32 9e 3e
       -0.60100496 -0.38494653 0.22437428 0.30897897
000090 2c 5b cc be 51 5f af 3e 7c 95 c1 be ba b5 91 3e
       -0.3991331 0.34252408 -0.3780936 0.2845896
0000a0 2e c6 8e 3e 56 48 c2 3e b5 b6 40 bf 46 0e d4 be
       0.27885574 0.37945813 -0.7527879 -0.4141714
0000b0 8e 08 e5 3e dc d8 ec be 68 d4 03 bf 1c 00 d4 3e
       0.4473309 -0.462592 -0.5149598 0.41406333
0000c0 ed 9b 03 bf c5 f3 33 3e 06 98 d8 be 58 bd a3 3e
       -0.514098 0.1757346 -0.42303485 0.31980395
0000d0 3d ce 68 3e 8b 36 30 3e 3d 2f 86 be 66 a5 ce 3e
       0.22734924 0.17208306 -0.26207915 0.40360564
0000e0 37 6a 8e be d8 63 c7 be 33 ab d5 3e f8 ef 55 3e
       -0.2781541 -0.38943362 0.41732177 0.20892322
0000f0 cb b4 95 3e 31 ed 1a 3e dc 07 b9 be 27 65 91 3e
       0.29239497 0.15129544 -0.3613881 0.28397486
000100 76 98 46 3e 86 ec 84 3e 69 ea c5 3e 30 c0 a9 be
       0.19394097 0.25961703 0.38655403 -0.3315444
000110 24 74 5b 3e 47 a4 54 3e 63 4f ac be 1e 8f 6c 3e
       0.21431023 0.20765792 -0.33654317 0.2310147
000120 44 24 9d 3e b6 b0 55 3e 43 4c 2f 3e 23 ea e2 be
       0.3069173 0.20868191 0.17118935 -0.44319257

exp_avg f4 [1, 6, 1, 4]
000000 a4 29 2a bf 04 ad 63 3e 0c f5 cc bb 3a c6 74 bd
       -0.6646979 0.22233969 -0.006254798 -0.059759356
000010 d6 12 1c 3d ca 29 65 3f 46 42 80 3f 04 00 00 00
       0.0381039 0.8951689 1.0020225 6e-45
000020 4e 34 92 3c 4e 34 92 3c 4e 34 92 3c 00 00 00 00
       0.017847206 0.017847206 0.017847206 0.0
000030 53 5a 21 3e a1 77 1e 3e a1 77 1e 3e 43 55 45 bd
       0.15757112 0.15475322 0.15475322 -0.048177015
000040 7f 17 7c 39 33 80 5e bc 33 80 5e bc 00 00 00 00
       0.00024041346 -0.01358037 -0.01358037 0.0
000050 ea d2 7a bb 85 e0 eb bc 85 e0 eb bc 04 00 00 00
       -0.0038272687 -0.028793583 -0.028793583 6e-45

exp_avg_sq f4 [1, 6, 1, 4]
000000 b3 49 c3 41 3b 21 28 40 09 39 d6 3e 4b 1f b2 3c
       24.410986 2.6270282 0.4184039 0.021743437
000010 33 31 58 43 05 3e b1 42 9c fa 98 41 6f 9a 32 19
       216.19218 88.62113 19.122368 9.233572e-24
000020 99 92 ed 3c 99 92 ed 3c 99 92 ed 3c 00 00 00 00
       0.029000567 0.029000567 0.029000567 0.0
000030 2c 42 35 3f 08 53 10 3f 08 53 10 3f f4 28 af 3c
       0.70804095 0.56376696 0.56376696 0.021381833
000040 7f e6 61 3d ff 2e f7 3c ff 2e f7 3c 00 00 00 00
       0.05515146 0.030173777 0.030173777 0.0
000050 52 3a 32 3f b5 27 1c 3f b5 27 1c 3f e5 99 cf 16
       0.6962024 0.6099809 0.6099809 3.3539775e-25

exp_avg f4 [1, 6, 2, 4]
000000 42 90 31 3f e3 63 1e be 6b c9 d3 bd c9 5b 9e 3c
       0.69360745 -0.15467791 -0.10341152 0.019330876
000010 c2 52 a0 3e 4f 7f 1e be 48 fb 5c 3d 5f 6a 20 3c
       0.3131314 -0.15478252 0.053950578 0.009790986
000020 0f f7 ff 3d a7 f9 ae bf c3 f0 3c bf 4f 3f 66 be
       0.124982946 -1.3669938 -0.73804873 -0.22485088
000030 3e 74 e0 3e 35 0e 32 bf e8 a4 6b 3d 04 00 00 80
       0.43838686 -0.6955293 0.057530314 -6e-45
000040 5b c1 09 be 5b c1 09 be 5b c1 09 be 04 75 11 3e
       -0.13452666 -0.13452666 -0.13452666 0.14204794
000050 2d 63 5f 3c 2d 63 5f 3c 2d 63 5f 3c dd 3b de 3d
       0.013634485 0.013634485 0.013634485 0.10851262
000060 84 db a1 3d 2f 65 a5 3d 2f 65 a5 3d 98 cf 9c 3d
       0.079031974 0.0807594 0.0807594 0.07656783
000070 61 ed 02 bc 52 e7 42 3c 52 e7 42 3c 27 7e a4 3d
       -0.007991166 0.011895971 0.011895971 0.08031874
000080 e5 08 96 be 10 b9 8f be 10 b9 8f be b1 b7 e4 bc
       -0.2930366 -0.2807088 -0.2807088 -0.027919622
000090 e8 e7 6a be 54 d5 61 be 54 d5 61 be 00 fd cf bc
       -0.22940028 -0.22054034 -0.22054034 -0.025389194
0000a0 97 8c 10 bd b4 91 bb bb b4 91 bb bb 58 e7 c8 3c
       -0.035290327 -0.0057241563 -0.0057241563 0.024524376
0000b0 26 73 5e 3a 07 63 12 3d 07 63 12 3d 26 84 53 3c
       0.00084857864 0.03573897 0.03573897 0.012909925

exp_avg_sq f4 [1, 6, 2, 4]
000000 4b dd 84 41 17 8e c6 3f 40 89 75 3e 99 d4 ea 3b
       16.608053 1.5512112 0.23978138 0.007166457
000010 3a fb 93 41 a8 52 1e 40 b7 a3 d6 3e 31 13 56 3c
       18.49767 2.473795 0.4192178 0.013066099
000020 bf b1 2e 43 e4 31 86 42 d4 26 53 41 90 48 88 3f
       174.69432 67.09744 13.1969795 1.0647144
000030 4c 4e 19 43 35 2b 09 42 81 13 78 3d f3 71 28 2a
       153.30585 34.292194 0.060565475 1.4960932e-13
000040 f6 cf b1 3f f6 cf b1 3f f6 cf b1 3f 38 1f 73 3d
       1.389159 1.389159 1.389159 0.059355944
000050 c3 c1 1a 40 c3 c1 1a 40 c3 c1 1a 40 a2 5b d9 3d
       2.4180763 2.4180763 2.4180763 0.10613181
000060 6f cf 9b 3e 7c 41 81 3e 7c 41 81 3e 17 8a c6 3c
       0.30431697 0.25245273 0.25245273 0.024235768
000070 21 09 0e 3f c2 da fc 3e c2 da fc 3e ef c1 07 3d
       0.5548268 0.4938565 0.4938565 0.033143934
000080 60 32 a5 3e 11 8e 99 3e 11 8e 99 3e 9a eb 16 3c
       0.32264996 0.299912 0.299912 0.009211445
000090 6e 76 c4 3e 42 85 ad 3e 42 85 ad 3e 9d a7 85 3c
       0.38371605 0.3389073 0.3389073 0.016315276
0000a0 ef 22 cb 3e a1 0c 8b 3e a1 0c 8b 3e 93 09 9b 3c
       0.3967509 0.27158073 0.27158073 0.018925464
0000b0 7b 4e 1b 3f 9a e1 06 3f 9a e1 06 3f b5 df 99 3c
       0.60666627 0.5268799 0.5268799 0.01878343

exp_avg f4 [1, 6, 3, 4]
000000 0c 16 0c 3f 52 b5 fe bd 4c 82 8c bc 13 4c c6 bb
       0.5472114 -0.12436928 -0.017151974 -0.006051549
000010 06 d7 e6 3e d3 a3 d7 be ce c4 56 3b f8 21 1b 3b
       0.45085925 -0.42117175 0.0032771113 0.002367137
000020 68 9c 25 3f b5 37 95 be 41 35 61 3e 9a f3 e6 bc
       0.6469178 -0.29144064 0.21992971 -0.02819233
000030 dd c5 11 bf b9 d9 bc bf 8e 74 97 bf 2b db 9d be
       -0.5694254 -1.4753944 -1.1832445 -0.30831274
000040 1a b6 5d bf 59 d9 93 bf c8 39 0c bf 63 42 d0 be
       -0.8660599 -1.1550704 -0.5477567 -0.4067565
000050 8e 27 9b bf 24 54 0d c0 5d 34 e3 bf a8 36 44 bf
       -1.2121446 -2.2082605 -1.7750355 -0.766459
000060 92 4a 0e bf 93 4a 0e bf 93 4a 0e bf 87 a7 e1 3d
       -0.55582535 -0.5558254 -0.5558254 0.110182814
000070 64 c7 5d be 66 c7 5d be 66 c7 5d be 5b 7f 38 3d
       -0.21658093 -0.21658096 -0.21658096 0.04504333
000080 93 34 bd be 94 34 bd be 92 34 bd be 79 c9 f5 bb
       -0.36954173 -0.36954176 -0.3695417 -0.007500824
000090 8e e1 9d bd 58 f4 ed bb 8a f4 ed bb 75 40 75 3d
       -0.07709037 -0.007261794 -0.0072618173 0.059875924
0000a0 6c 6e 01 be 65 6d 3e bd 63 6d 3e bd 84 ff 23 bc
       -0.12639779 -0.046491046 -0.046491038 -0.01000965
0000b0 99 81 9a 3c 21 8c e5 3d 21 8c e5 3d 0d f1 ef 3b
       0.018860625 0.11208368 0.11208368 0.0073224367
0000c0 f8 41 0e be 8a 88 11 be 89 88 11 be 87 fe 95 3c
       -0.13892353 -0.14212242 -0.1421224 0.018309845
0000d0 24 bb 8c 3d d2 78 c0 3d d8 78 c0 3d 12 3c 8a bd
       0.06871632 0.09398045 0.09398049 -0.06749739
0000e0 3d fb 0f be 75 49 f8 bd 76 49 f8 bd 79 1e 33 bd
       -0.14060684 -0.12123386 -0.121233866 -0.043730233
0000f0 c8 45 4b 3e b2 19 5e 3e b2 19 5e 3e c0 32 56 3d
       0.19850838 0.2168949 0.2168949 0.052294493
000100 e3 6a 34 bd fb 57 14 bd fd 57 14 bd 45 30 ca 3a
       -0.044047248 -0.036216717 -0.036216725 0.0015425762
000110 3f b8 3a 3b 4c a6 7f 3c 41 a6 7f 3c 89 8f 75 bd
       0.0028491167 0.015603613 0.015603603 -0.05995134

exp_avg_sq f4 [1, 6, 3, 4]
000000 c9 23 6d 42 99 43 db 40 2e ce 86 3f 97 19 e1 3c
       59.284946 6.8520017 1.0531671 0.027478023
000010 b1 b8 74 42 58 15 de 40 d5 c7 80 3f 32 5d de 3c
       61.180363 6.9401054 1.0060984 0.027144048
000020 7f f7 4c 42 3a bd b2 40 d6 a6 65 3f 2e c9 c2 3c
       51.241695 5.585599 0.89707696 0.02377757
000030 93 e6 f4 43 fb 1e 01 43 f2 64 a6 41 48 0d 9d 3f
       489.80136 129.12102 20.79929 1.2269678
000040 2f d5 f6 43 cc 0c 0c 43 ca 5a 8b 41 0a 28 5f 3f
       493.6655 140.04999 17.41933 0.8717047
000050 31 50 0f 44 ff 63 87 43 a8 95 92 42 4f ce 0c 41
       573.253 270.78122 73.2923 8.800368
000060 55 f8 52 40 54 f8 52 40 53 f8 52 40 3d 8a 4c 3e
       3.296407 3.2964067 3.2964065 0.19974609
000070 60 ac 31 40 60 ac 31 40 62 ac 31 40 9f d2 32 3e
       2.776146 2.776146 2.7761464 0.17463158
000080 ae 7a 7d 40 b2 7a 7d 40 ad 7a 7d 40 a0 56 52 3e
       3.9606128 3.9606137 3.9606125 0.20540857
000090 9c c2 51 3f 9f f1 3a 3f a0 f1 3a 3f e4 2e 45 3d
       0.81937575 0.73024935 0.7302494 0.04814042
0000a0 73 63 88 3f bd 2f 58 3f bd 2f 58 3f 28 79 93 3c
       1.065535 0.8444784 0.8444784 0.018002108
0000b0 40 99 3c 3f 09 4d 05 3f 09 4d 05 3f 2b 98 d2 3b
       0.7367134 0.5207067 0.5207067 0.0064268312
0000c0 24 cf 73 3f c2 55 3e 3f c2 55 3e 3f 7c 7f 24 3d
       0.95237947 0.74349606 0.74349606 0.04016064
0000d0 d2 06 3e 3f 18 e9 1e 3f 18 e9 1e 3f 54 ad 33 3d
       0.74229157 0.6207442 0.6207442 0.04386647
0000e0 62 80 74 3f 19 53 59 3f 1a 53 59 3f 64 e4 85 3c
       0.95508397 0.8489242 0.8489243 0.016344257
0000f0 ae 79 81 3f d1 4a 5b 3f d0 4a 5b 3f 09 8a 90 3d
       1.0115259 0.85661036 0.8566103 0.07057578
000100 07 f1 8b 3f 32 2d 6b 3f 32 2d 6b 3f f7 7d 5a 3d
       1.0932931 0.9186584 0.9186584 0.053342786
000110 56 e9 8b 3f 5c 7c 75 3f 5d 7c 75 3f b8 f1 5a 3d
       1.0930583 0.9589288 0.9589289 0.053453177

exp_avg f4 [1, 6, 4, 4]
000000 e9 29 b5 3f bb ba c1 3d cf 03 a9 3d 67 53 a0 3c
       1.4153415 0.09459444 0.082526796 0.01957102
000010 c1 f8 ac 3f 86 d6 d4 3d 13 63 3b 3e 4d 6d be 3b
       1.3513414 0.103924796 0.18299513 0.0058113695
000020 83 2c ba 3f 6e 5d ea bd 23 5d 29 ba 5d f3 b6 bc
       1.4544834 -0.114436015 -0.0006460717 -0.022332842
000030 3d ca ca 3f 39 8e 18 3f 3e dc 1a 3f 2f 25 de 3c
       1.5842968 0.59592015 0.6049231 0.02711734
000040 ba 6f 0c c0 14 19 98 c0 ca d0 5f c0 71 54 6a bf
       -2.1943192 -4.7530613 -3.4971185 -0.915351
000050 af 2b 0f c0 66 4e a0 c0 6e 6f 24 c0 2c a9 88 bf
       -2.2370412 -5.00957 -2.5693011 -1.0676627
000060 a3 da af bf 30 39 a9 c0 9d eb 57 c0 5b 85 62 bf
       -1.3738598 -5.288231 -3.3737557 -0.88484734
000070 38 c3 da bf c9 75 57 c0 f0 96 77 bf c9 de 4e 3e
       -1.7090826 -3.366564 -0.9671469 0.20202173
000080 9c 78 4d bf 9e 78 4d bf 9e 78 4d bf 74 61 2f 3d
       -0.8026216 -0.8026217 -0.8026217 0.042817548
000090 66 df 6c bf 65 df 6c bf 64 df 6c bf 54 59 f1 3d
       -0.9252838 -0.92528373 -0.9252837 0.11784616
0000a0 e0 95 11 bf e1 95 11 bf df 95 11 bf 74 61 21 3e
       -0.56869316 -0.5686932 -0.5686931 0.15759832
0000b0 47 9b 65 bf 48 9b 65 bf 47 9b 65 bf 37 10 f6 3d
       -0.8969006 -0.89690065 -0.8969006 0.120148115
0000c0 b8 2c f2 3d fb df 44 3e fa df 44 3e 42 37 e3 3d
       0.11824936 0.19226067 0.19226065 0.11094524
0000d0 a5 58 a2 bd 53 09 4d 3c 43 09 4d 3c f1 44 32 3e
       -0.07927064 0.01251443 0.012514415 0.17409112
0000e0 0b 73 8b 3d 31 79 0e 3e 31 79 0e 3e ba 05 f3 3d
       0.06809052 0.13913418 0.13913418 0.11866327
0000f0 ae 80 75 be c3 8d 24 be c3 8d 24 be 5b 40 c7 3d
       -0.23974869 -0.16069703 -0.16069703 0.09729072
000100 20 51 65 be 30 6e 50 be 30 6e 50 be 7e d7 1c bd
       -0.22394228 -0.20354533 -0.20354533 -0.038291447
000110 d4 53 a0 be 08 37 8f be 0a 37 8f be e7 51 d0 bd
       -0.31313956 -0.27971673 -0.2797168 -0.10171872
000120 b3 54 e5 be e3 77 c7 be e3 77 c7 be 01 99 44 bd
       -0.44791183 -0.38958654 -0.38958654 -0.04799748
000130 f2 24 24 bf 71 bc 18 bf 71 bc 18 bf 98 8b b1 bd
       -0.64118874 -0.5966254 -0.5966254 -0.086692035
000140 ac ee 41 3e b5 25 86 3e b5 25 86 3e 75 b5 58 3d
       0.18938702 0.26200643 0.26200643 0.052907426
000150 a5 43 46 bd 85 d3 1f 3d 97 d3 1f 3d ff 68 0e bd
       -0.048404355 0.03902008 0.039020147 -0.0347681
000160 80 8f d8 3d 58 17 3e 3e 58 17 3e 3e a4 eb 7a 3d
       0.105742455 0.18563592 0.18563592 0.06125988
000170 7c 2a 1c 3e 20 f5 5b 3e 20 f5 5b 3e f7 44 95 bc
       0.15250582 0.21480227 0.21480227 -0.018221362

exp_avg_sq f4 [1, 6, 4, 4]
000000 28 6e 21 43 b3 8d 69 41 fe 1a 24 40 a3 6f 97 3d
       161.4303 14.597095 2.5641475 0.0739434
000010 a0 bb 20 43 7b ee 7b 41 08 b4 3c 40 15 b6 87 3d
       160.73291 15.745723 2.9484882 0.06626526
000020 2d 54 0b 43 ea ef 59 41 7e 9e 27 40 97 4d 9d 3d
       139.32881 13.621073 2.6190486 0.07680815
000030 cd 89 1f 43 b5 91 82 41 28 02 37 40 53 7c 99 3d
       159.53828 16.321146 2.8595066 0.07494416
000040 4c 85 02 45 43 80 69 44 a5 99 41 43 db e4 a4 41
       2088.331 934.0041 193.60017 20.611746
000050 b2 cb f6 44 2c 77 46 44 64 be 16 43 f6 2f 7a 41
       1974.3655 793.86206 150.74371 15.636709
000060 06 61 fa 44 7c 88 40 44 e8 32 28 43 f6 7a 7a 41
       2003.032 770.13257 168.19885 15.65502
000070 c7 75 f6 44 b3 ad 31 44 5c 44 be 42 78 22 63 40
       1971.6805 710.71405 95.133514 3.5489788
000080 3b 74 4c 41 3a 74 4c 41 3a 74 4c 41 e9 6e 0b 3f
       12.778377 12.778376 12.778376 0.5446611
000090 ba df 52 41 ba df 52 41 ba df 52 41 d6 33 19 3f
       13.179621 13.179621 13.179621 0.5984472
0000a0 f5 5a 34 41 f5 5a 34 41 f6 5a 34 41 19 95 f5 3e
       11.272206 11.272206 11.272207 0.47965315
0000b0 a3 3a 4e 41 a4 3a 4e 41 a3 3a 4e 41 7c 44 09 3f
       12.889316 12.889317 12.889316 0.53620124
0000c0 82 ea 42 40 e9 17 25 40 e9 17 25 40 97 2a b9 3d
       3.0455632 2.5795844 2.5795844 0.090413265
0000d0 f9 a2 7f 40 b7 1c 51 40 b7 1c 51 40 95 a9 26 3e
       3.994322 3.2673776 3.2673776 0.16275628
0000e0 70 88 59 40 e9 a0 26 40 e9 a0 26 40 c7 63 ed 3d
       3.3989525 2.6035712 2.6035712 0.11591297
0000f0 45 94 67 40 93 15 36 40 95 15 36 40 97 59 e5 3d
       3.6184247 2.8450668 2.8450673 0.111987285
000100 cb 5e 5c 40 ef 06 3a 40 ef 06 3a 40 46 d5 a4 3d
       3.4432857 2.9066732 2.9066732 0.08048491
000110 22 a6 4c 40 b4 6c 27 40 b4 6c 27 40 49 18 a7 3d
       3.19764 2.6160097 2.6160097 0.08158929
000120 a1 d7 5d 40 63 e9 35 40 64 e9 35 40 71 41 ca 3d
       3.466286 2.8423698 2.84237 0.09875763
000130 ab 64 67 40 6e bc 45 40 6e bc 45 40 c6 52 cf 3d
       3.6155193 3.0896258 3.0896258 0.1012321
000140 c4 92 6f 40 79 6a 4c 40 78 6a 4c 40 93 df e3 3d
       3.7433329 3.1939986 3.1939983 0.11126628
000150 9f ae 4a 40 1a aa 25 40 1a aa 25 40 cd d6 7f 3d
       3.166908 2.5885072 2.5885072 0.06246071
000160 91 e5 7c 40 31 4e 5c 40 31 4e 5c 40 ed e6 06 3e
       3.9515116 3.4422724 3.4422724 0.13174029
000170 70 c2 76 40 5e c7 5a 40 5e c7 5a 40 eb 16 02 3e
       3.8556175 3.4184184 3.4184184 0.12704055
