TrainedModel/Dueling DQN-1/9500_0-12_DuelingDQN.pth (torch, 291221 bytes, 33 tensors)

conv1.weight f4 [1, 6, 1, 4]
00000000: 2d3c 9d3f 8903 8f3e 76ea 4d3e 805c 763e
00000010: 12da 563e d419 8c3d 88b3 553e 6674 32bd
00000020: ae63 a03d ba1e 4e3c f94f b0be 6ad0 c1be
00000030: 553e 69bc 39f5 da3e 489f c1be 83e9 35be
00000040: e962 bebd 0ede 223c c379 5cbd af70 e6be
00000050: 2899 87bc 17b9 1e3e 3e28 73be 30db ecbe
1.2283989 0.27932385 0.20108971 0.24058723 0.20981625 0.06840864 0.20869267 -0.043568037
0.078315124 0.012580568 -0.34436014 -0.3785432 -0.0142360525 0.42765215 -0.37816834 -0.17764859
-0.09296209 0.009940637 -0.05382706 -0.45007846 -0.016552523 0.15500294 -0.2374582 -0.46260977

conv2.weight f4 [1, 6, 2, 4]
00000000: 1bcc a2bd f824 b5bd c9fe 2c3e 2569 8a3c
00000010: c628 1cbe 0d3c 033f 032f ac3e bad5 2cbe
00000020: 0bfc 173e fe3f ed3e ebcb 983e bfcb 80be
00000030: e201 813c 0386 09bf 3489 48bf d491 48be
00000040: 7ff4 b53e 2a68 c13d 526c a63d 1a13 ea3b
00000050: bab9 4b3d fff6 9ebe b94e 853e 3acb 3cbf
00000060: 5000 f4ba c586 b4bd 154c af3e dde6 993d
00000070: 3b15 7fbd 3a85 8abe 2d45 9c3e f6aa 6dbd
00000080: 0e65 cdbb a658 0bbe d492 dd3e 88e1 503e
00000090: 101c 21be e709 233e 18f3 cdbd cc1d 6bbe
000000a0: d0bb 963e 31d5 2e3e 0843 e4bd b6be eb3d
000000b0: 644b 59bd c78a a83b 8a19 76bc b026 c13d
-0.07949086 -0.08844942 0.16894068 0.01689584 -0.15249929 0.51263505 0.33629617 -0.16878405
0.1484224 0.46337885 0.29843077 -0.25155446 0.015747968 -0.5372011 -0.78334355 -0.19586879
0.35538098 0.09443696 0.08126129 0.0071433904 0.04973767 -0.31047818 0.26036623 -0.737476
-0.0018615816 -0.08814768 0.34237733 0.07514737 -0.062276106 -0.2705477 0.30521527 -0.05802437
-0.00626815 -0.13608035 0.43276083 0.20398533 -0.15733361 0.15921746 -0.10056132 -0.22960585
0.29440165 0.17073514 -0.11145598 0.115109846 -0.053050414 0.0051434967 -0.015020737 0.09431207

conv3.weight f4 [1, 6, 3, 4]
00000000: b416 843d d39a 9d3e 79e9 db3c 25cf a33e
00000010: 401e 903e 0abd fa3e 0e45 50be 8bb6 cf3e
00000020: 8f3a f73d 2ac3 b93e 14f6 583c 9e70 033f
00000030: 4f2c d0bd d896 83be aa57 b4bd f9a6 8cbd
00000040: ea6d 83bc b6b9 4bbe af45 abbd 1365 26be
00000050: efe8 d93d 4366 923e f4d7 f73d 9030 74bc
00000060: c574 db3c 5c13 ddbd db81 dabd ed2e fb3d
00000070: fa1d 41be c1c6 c93d fcec d4bb 604b 9f3d
00000080: e78d 403e 14eb 45be 15ba 223e d917 113f
00000090: 6482 39be c552 603d 3234 f53d 78ba cc3d
000000a0: 426c 023e 2418 b63d d84d 5fbe cdd2 2bbe
000000b0: f16c aa3d 8ec0 edbd 0740 123e 6ccc 6f3e
000000c0: ced7 f6bc c010 163d 881d 833d 7942 a1ba
000000d0: b4e0 cd3d 947f 9fbe a3a9 373e 7756 b43e
000000e0: 4bfa 30bd 0432 803e 737d e7bd 6689 6cbe
000000f0: fda7 7cbd f2d6 ad3b 5119 053d 4161 5b3e
00000100: db6f c8bd b682 7b3d da96 e63d 0317 5cbd
00000110: 89a0 0e3e f051 00be 2616 fe3d 6c69 c93e
0.06449643 0.30782184 0.026844727 0.31993976 0.2814808 0.4897235 -0.20338842 0.40568957
0.12071716 0.3628171 0.013242263 0.51343715 -0.10164701 -0.25701022 -0.08805783 -0.06867785
-0.016043622 -0.19895062 -0.083629005 -0.16249494 0.10640132 0.28593644 0.12101737 -0.014904156
0.026789078 -0.10794708 -0.10669299 0.1226481 -0.18859091 0.098523624 -0.0064979773 0.077780485
0.18804131 -0.19327956 0.15891297 0.56677014 -0.18116146 0.054766435 0.11972846 0.099965036
0.1273661 0.08891323 -0.21807039 -0.16779633 0.0832156 -0.116089925 0.14282237 0.23417825
-0.0301322 0.036637068 0.06402117 -0.0012303136 0.10052624 -0.31152022 0.17935805 0.35222217
-0.043207448 0.2503816 -0.113032244 -0.23099288 -0.061683644 0.0053051645 0.032494847 0.21423818
-0.0978696 0.061403953 0.112592414 -0.053732883 0.13928427 -0.12531257 0.12406568 0.39338243

conv4.weight f4 [1, 6, 4, 4]
00000000: 8dd5 953e b26b 33bd e062 8e3d 5672 15bd
00000010: cecf 993e b43c 9dbe d501 21be 3578 b5bc
00000020: 805d 5c3c 82d2 f9bd ca9f cd3c 188f a33c
00000030: 5fa3 933e fb74 b6be 5a1f 04be 69be 21be
00000040: 938a 093e bf70 5c3e fb60 5fba 972f 02be
00000050: c0f0 e9bd c73a 09bd c416 94bc add1 b1bd
00000060: 4a5d 10bd afa1 08be c632 73bd 44cf 4fbd
00000070: 9705 dbbc a74e e9bd 499d e8bd a915 c7bd
00000080: 86e7 af3c 8703 1cbe 93b4 b03d cb39 683e
00000090: b029 d83d 41b3 07bd 76c8 04be 1d42 3a3c
000000a0: eb7a 623e 6218 5ebe b07b 1ebd 1e2b d5bd
000000b0: 2acc 8abe 0381 103e 664f dd3c fc98 10bd
000000c0: 85b4 943d 8644 7dbd be99 653d e532 013e
000000d0: 217e 71bc e402 cb3d 6435 8bbd 6d3f d73d
000000e0: 91f7 143e 05c6 0fbd 4a9c 6abd f169 cbbd
000000f0: cafc 8abc b44e 80bd b225 333d 61c2 0b3d
00000100: 0a53 46bd 1057 00be 63a6 ee3c 9638 6f3e
00000110: ffc6 823c 69ac 41bd e03e 243d 4b26 1fbd
00000120: 691f 233b e1cc f9bd ced9 f33d a14e f53d
00000130: 2ba7 4c3d a284 9fbd 52d8 1b3e 6a83 1dbd
00000140: 7315 d7bc fbb1 723d d637 05bd 166b 1e3d
00000150: d8f9 213e 6a07 34ba 1a85 38be f7bb 2fbe
00000160: 5055 debd 595e 64bd 0080 063e ce6e d83a
00000170: e8c3 17be 12ae 8f3c 07b1 b03c ce97 8cbd
0.2926449 -0.043803878 0.06952453 -0.036485992 0.30041355 -0.30710375 -0.15723355 -0.022152046
0.0134500265 -0.12198354 0.025100607 0.019965693 0.2883558 -0.35636124 -0.12902585 -0.15795292
0.13431768 0.21527384 -0.0008521226 -0.12713467 -0.114228725 -0.03350332 -0.018077262 -0.086825706
-0.035245217 -0.13342927 -0.059374593 -0.050734773 -0.026736064 -0.11391955 -0.11358125 -0.09720928
0.021472704 -0.1523572 0.08628192 0.22678296 0.10554826 -0.033129934 -0.12967095 0.011368302
0.22117202 -0.21688989 -0.038692176 -0.104086146 -0.2710889 0.14111714 0.0270154 -0.035302147
0.07260994 -0.061832927 0.056054823 0.12617071 -0.014739544 0.09912661 -0.06797293 0.105101444
0.14547564 -0.035100956 -0.057277955 -0.09932316 -0.016966242 -0.062650114 0.04373712 0.03412092
-0.048419036 -0.12533212 0.029132074 0.2336143 0.01596403 -0.047283564 0.040099025 -0.03885488
0.0024890548 -0.12197281 0.11906777 0.11977888 0.04996411 -0.077889696 0.15219238 -0.038455404
-0.026255345 0.059251767 -0.032523952 0.038676344 0.15817964 -0.000686756 -0.18019524 -0.17161547
-0.10856116 -0.05575404 0.13134766 0.0016512515 -0.14820826 0.017539058 0.021568788 -0.06864892

fc3_adv.weight f4 [76, 130]
00000000: 6285 a63e e3fa 253e 109f 8d3e 5baa 09bc
00000010: 6236 6b3d c8ba 80bb 7f3d a63e 1b5e 0d3e
00000020: af2c 4c3e 85f5 673d 6c52 aabd 75a8 09be
00000030: 99d0 a53e 3e4e b63e 939f 1f3e 5a4f 9bbd
00000040: f051 d63d 5e15 173e 096d 953d 4643 4bbe
00000050: af05 943e 371d ef3d 4412 c1be 96f7 96be
00000060: 4c0a 9abe 9e7c c9be ca0d 02be 2fec 14bc
00000070: f379 7d3e 7c1f b23d 52d1 24bc d52f 5e3e
00000080: 2d6c 593e 364e 4abc b769 4bbe 724a 473e
00000090: 05a4 753e ad58 11be 8eee a0bc ac32 053e
000000a0: e3ba d9b9 e443 293e 7187 783c 2f62 ce3d
000000b0: d9c6 e2bd a7b7 613e a6a8 433e 73ba 873e
000000c0: 894f b43e 7f20 5c3d e69a 1b3e c48d 91bd
000000d0: 5798 4ebe bb85 e7bc 9d70 283e b706 733d
000000e0: f2a2 6abd 1b9a 57be ed47 3abd 01dc 1c3d
000000f0: d42f e83d ae07 283e 8129 dabd 65d2 ce3d
00000100: 9eaf d8be b868 0b3d 40f3 ad3e 7e0c ab3e
00000110: 3d35 4c3e 5b13 863e cfc3 8a3e ffc7 a43b
00000120: 3582 803d b3df 863e b3c4 5ebd c85e 9bbd
00000130: f5d4 1c3e e585 863c 47de 843d 353d cf3e
00000140: 3a1b b93d 6b4f 463d b32f ecbc 00b2 753e
00000150: 4588 c4bd b736 88be 93a5 bdbd 806a 073e
00000160: 83e4 3abe a249 08be 9a68 a8be e121 15bf
00000170: d164 5cbe e07f 543e e243 3b3e aee4 313e
00000180: f55a e2bd 3215 9b3d 6f2f 27be 3917 993d
00000190: 9b65 8c3e 7245 1b3e 8a7f c63b 8764 d0bd
000001a0: 54d2 be3b 3399 be3d 6934 e83d f72a c43d
000001b0: eb05 d93d a15b 2fbd 1f07 0c3d 4572 f7bd
000001c0: 821a fb3c 73cb 46be 3de4 56bd 009a af3d
000001d0: 478e d5bd 08b7 65be 27e7 d6bd 77de 183e
000001e0: f3f6 eabd 7bf7 48be 4e4c a8bd 252a 88bd
000001f0: cacc 33be d8c5 04be 23ba e53c 3262 95bc
00000200: 18e9 63bd 9a1e 423d a7ba b33e c106 353e
00000210: a2a5 853e 51ac c03e 7007 583e bb5d c43e
00000220: 93dd 19bc eaba 683e 004e 9e3e 0afc b13e
00000230: 8fc7 a23e 6720 cf3e 5f0e ce3e 6d5c 533e
00000240: e0b9 ec3c 33c6 9c3e 65b4 643e a667 c33e
00000250: 7d1b 193d 8b4c 303e 409d 953e 2921 883e
00000260: d7a9 213d 8f3d d03d 623f b03e 1738 c13e
00000270: 6f45 d23e 9c34 8a3d 1467 5d3e 77b7 533e
00000280: 4768 e33e cb97 3b3e 0926 493e b53f 1e3e
00000290: 5c07 f9bd f33c 82be b779 56be 3a96 e63d
000002a0: db4c c03d 3c2a 0ebe 05f0 32be 4bd8 ea3b
000002b0: 577d 53bd ebff 42be 0460 9fbb 940d 72bd
000002c0: b964 243e a82a bd3b e318 d1bd 478a 8ebe
000002d0: 1815 613c 4155 94be 3a73 c0bd 2a57 a8bd
000002e0: 2278 14be a4f8 80be 5f5b b03d 5365 c5bd
000002f0: b8cb 8d3d eb6b f3bd 76d8 03be 9188 81bd
00000300: 9cda b1be 3e58 5c3d 88fb d3bd 8a16 16be
00000310: 4e4c d63c 2e9e 5d3e de02 9d3d 9e46 293e
00000320: f193 f63c 7f7e 5c3e 9849 213d e63b 533c
00000330: 5937 003e e17b 2f3d 09fb f13d 5ac6 b43d
00000340: 4872 fc3d 1458 b73e 46fb 403e 6495 a3bc
00000350: e2bc 9cbc f1dd 6ebd fe4c e43c 5012 5c3e
00000360: d625 9f3b c53a fa3c d8d7 fe3d e49f b93d
00000370: d78a 4c3e f041 1f3e d681 473d f253 26be
00000380: a9b6 73be c508 b3bc 19a5 debd 52bc 273e
00000390: a142 683d eee0 27bc e473 54be a739 9b3d
000003a0: 61b5 15bd a23d 9abd 92fa 69be 03a3 a03c
000003b0: 7649 4dbe 055b 9abb 38a7 f4bc dd6b 12bc
000003c0: 909d 5bbe f46d 223c a385 0e3d f4f5 1cbe
000003d0: a448 83be 3803 70be 8c83 183e 41fe cabd
000003e0: ba89 a1bd ddcc b6bd 515f 68be 71fb 20be
000003f0: f9d8 0abe f252 5a3c 4a22 2f3d 8166 363e
0.32523638 0.16208987 0.27660418 -0.008402432 0.05742491 -0.003928516 0.32468793 0.1380543
0.1993892 0.05663063 -0.08316502 -0.13443168 0.3238571 0.3560657 0.15588216 -0.075834945
0.10464847 0.14754245 0.072961874 -0.19849882 0.28910586 0.11675494 -0.37709248 -0.29485768
-0.3008598 -0.39352888 -0.12700573 -0.009089514 0.24753551 0.086974114 -0.0100596715 0.21697934
0.21232672 -0.0123477485 -0.19864546 0.19461992 0.2398835 -0.14193983 -0.019645002 0.13007611
-0.00041528707 0.16529804 0.0151690105 0.10077321 -0.110730834 0.22042714 0.19107303 0.26509437
0.3521693 0.05374193 0.15195808 -0.07107118 -0.201753 -0.02826201 0.16449209 0.059332576
-0.057284303 -0.2105488 -0.04547875 0.03829575 0.113372475 0.1640918 -0.106524475 0.10098723
-0.42321485 0.034035414 0.33974648 0.33407968 0.19942184 0.26186642 0.27102515 0.005028724
0.06274835 0.26342544 -0.054386806 -0.075864375 0.15315612 0.016421268 0.064877085 0.40476385
0.09038396 0.048415583 -0.028831339 0.23993683 -0.09596304 -0.26604244 -0.092600964 0.1322422
-0.18251233 -0.13309339 -0.32892305 -0.5825482 -0.21522833 0.20751905 0.18287614 0.1737239
-0.11052505 0.07572402 -0.16326688 0.074751325 0.2742127 0.1516321 0.0060576843 -0.10175424
0.005823413 0.09306564 0.113381214 0.095785074 0.10596832 -0.042811994 0.03418648 -0.12082342
0.030652288 -0.19413547 -0.05246376 0.08574295 -0.10427528 -0.22433102 -0.104933076 0.14928614
-0.11472883 -0.19625656 -0.08217679 -0.066486634 -0.1755859 -0.12966096 0.028042858 -0.0182353
-0.055642217 0.047392465 0.35103342 0.17678358 0.2610293 0.37631467 0.21096587 0.3835276
-0.009391206 0.22727552 0.30918884 0.34762603 0.31792876 0.4045441 0.4024534 0.20640726
0.028897226 0.30619964 0.2233444 0.38165015 0.03737973 0.17216699 0.29221535 0.265878
0.039468613 0.10167991 0.34423357 0.37738106 0.410686 0.06748316 0.21621352 0.20675455
0.44415495 0.18319623 0.19643416 0.1545399 -0.12159607 -0.25437126 -0.20944868 0.11259122
0.09389659 -0.13883299 -0.17474373 0.0071668974 -0.051633205 -0.19042937 -0.004863741 -0.05909498
0.16054048 0.0057729073 -0.10209825 -0.27839872 0.013737939 -0.28971294 -0.09396978 -0.0821975
-0.14498952 -0.25189698 0.08611178 -0.09638467 0.06923622 -0.11885818 -0.12875542 -0.06324876
-0.34737098 0.05379509 -0.1035071 -0.14657035 0.026159432 0.21642372 0.076665625 0.16530845
0.03009984 0.2153263 0.039376825 0.012892699 0.12521113 0.04284275 0.11815459 0.08826895
0.12326485 0.35809386 0.18845853 -0.019968696 -0.019133035 -0.05831713 0.027868744 0.2149136
0.0048568053 0.030545602 0.12443513 0.090637 0.19974838 0.15552497 0.048707806 -0.1624296
-0.23800148 -0.021854768 -0.10871334 0.16380432 0.056704167 -0.0102464985 -0.20747334 0.07579356
-0.03654993 -0.07531287 -0.22849491 0.01960898 -0.20047554 -0.0047105574 -0.029864892 -0.008936849
-0.21446824 0.00991391 0.034795415 -0.15328199 -0.25641358 -0.23438728 0.14893931 -0.09911776
-0.078875974 -0.08925793 -0.2269261 -0.15720917 -0.13559331 0.01332544 0.04275731 0.1781254

fc3_adv.bias f4 [76]
00000000: 1387 ac3d 1a61 963d c086 6fbd 17ae 1a3e
00000010: 86ce 393e 710c 8f3e 5358 123e 1e1d 0c3e
00000020: e146 793d 88f2 a53d d496 31bc 4116 893d
00000030: 0d02 023e e56e c73d 4b64 1e3f 6536 793d
00000040: 347b 313e c68d 113e 20f1 e13c 3b27 fa3d
00000050: e171 df3d 04f8 0dbc 79b6 853e fa2d 383e
00000060: 6db8 d73d 1b53 093e 10f2 cb3d 691a b5bd
00000070: 0bd2 d73d 1127 213d 46b0 453e 6bbb ab3d
00000080: 30af 873e 8e2e 303e 1be1 913d 298e 2c3c
00000090: 3e90 843d 61bc 683d 381f 2f3e 06a0 a03d
000000a0: 909c 483e 18ab b83d d8f7 923d 6ecc 253d
000000b0: f1e4 0d3e f687 1f3e 74a6 2a3e 91bc 443e
000000c0: 7485 a73d 2d68 503e 9de1 583e 319d 393e
000000d0: e0cf d2bc 09aa 003d 0b6a 543e 5a2f b93d
000000e0: c16d f7bc 7a4a 4d3d e674 223e 1c6b 943d
000000f0: debe a3bc 69eb f23d 8a9d 9d3c a847 1e3e
00000100: 528b 3e3e fa7a 8b3d 0d11 8f3d b2d7 033c
00000110: 4791 503c 3671 273b a589 793d de23 e03c
00000120: 857d 433e 5c15 98ba 7616 683e 94e9 7b3d
0.08424201 0.073427394 -0.058478117 0.15105473 0.18145189 0.2793918 0.14291506 0.13682982
0.06085861 0.081029 -0.010839183 0.06693698 0.12696095 0.09737948 0.61871785 0.06084289
0.17332155 0.14214239 0.027580798 0.12214514 0.109103926 -0.008665089 0.26115778 0.17986289
0.10533223 0.13410608 0.09958279 -0.08842928 0.105381094 0.039343897 0.19305524 0.083853565
0.26500845 0.17205259 0.071230136 0.0105319405 0.064728245 0.056820277 0.17101753 0.07843022
0.19590974 0.090170085 0.07176179 0.040478162 0.13856865 0.15579209 0.1666506 0.19212557
0.08179751 0.2035224 0.21179815 0.1812637 -0.025733888 0.03141216 0.20743577 0.09042235
-0.030203702 0.050119855 0.15864906 0.07246992 -0.019988474 0.11861307 0.01924016 0.15457022
0.18607834 0.06810565 0.06985674 0.008047031 0.012729949 0.0025549657 0.060922284 0.027360853
0.1909085 -0.0011603045 0.22664818 0.061502054

fc3_val.weight f4 [76, 130]
00000000: afc0 b03d 9467 cc3b dd52 003c 8094 843d
00000010: d852 0a3d c17e 9d3d 74a0 9fbd e23e 463c
00000020: cef9 0e3e 8de6 3d3e 1cc9 893d 9ef1 ecbd
00000030: e498 143b 29d8 c6bd 292e 1e3d ec2b 0dbe
00000040: 2737 323e 8f7e 1ebe 55ac 563d 4d77 0fbe
00000050: b1d7 e7bd cdb2 b03d 8168 05be 2bb4 2bbe
00000060: ac0c c6b8 dcfe 363e e7b6 643d d1f6 e3bd
00000070: b94f 493e 869f 623e 1120 ab3d eb92 48bd
00000080: 407b 9d3e 2e8c 333e 2fc4 2d3e 2882 2f3e
00000090: 5e76 b5bc 04a5 0a3e 457f b2bb 6419 fa3d
000000a0: 974a 1e3e ae09 6a3e 8f58 d93d 251c 6abc
000000b0: 63ca 913e 85ff 4e3c 7e05 84bd 447a b33d
000000c0: aef8 303e 46a6 1f3e c8cd 973d 5150 773e
000000d0: adf4 d3bb 72ec 553e 59d2 073e 11f9 f53d
000000e0: dfc5 96bc 44f3 d63d 4f63 a23d 143d a73d
000000f0: adfc 523d f85e 603e 7a38 05bd 1450 fb3d
00000100: b10f 5f3d 9add e73d ff82 f13d 6182 833d
00000110: 868e ac3d 9ebe 3e3e 7ae4 23bc 09ce 4c3d
00000120: 5f81 d13d 427c 913e dc5e 553e cacb 3b3e
00000130: ed62 0a3e b832 893e 1aeb ea3d 0ce2 943d
00000140: 9364 343c adc5 d63c dfa2 b93c afb0 013e
00000150: c4e3 503e 4e47 0b3e c282 6f3e 57dd 3b3e
00000160: dfe3 613e c7a1 d13d fdbb 573e 1303 e03d
00000170: 1b46 9cbc fab7 113c dc6e 253d 7e22 793d
00000180: 8436 113e 95e9 5a3e 320c 083e 2931 9b3e
00000190: 4e33 0f3e 264e 743e 6916 053d f7d9 bb3d
000001a0: 1738 a03e 5f86 3f3e acb7 743e 1e54 973e
000001b0: 78d3 8e3d e3e8 cd3d 9f66 483e 6624 b83d
000001c0: 666a 453e d187 6c3e 1e74 1a3e 903b c23c
000001d0: 2539 b13e 0f03 a13e 5311 4f3e c2d0 b33e
000001e0: b461 d03d 1d6f 603e c25e 2d3e 9f54 a63e
000001f0: 8bef 8c3e 4fa6 e43e 4515 bb3e c637 ad3e
00000200: 7c83 a93e 8abc 3a3e 2fbf b2bd 1abf d83d
00000210: 2d3c 053e 2c6f f2bb 9217 013a da06 cabd
00000220: 9827 8d3d 3f34 05bd f743 95bd bdf4 8bbc
00000230: 790e 2d3e 4b7a 3dbb a789 d43d 717f bd3d
00000240: e033 33be d6c6 1b3e 225e 9a3d f025 1b3e
00000250: 6b59 183d d5b0 20be 19ed e4bb ecc1 0fbd
00000260: ec93 a63d 7302 fabd 2c5c 89bc 3a22 6ebc
00000270: 5747 cbbd d5d3 283e 463a aebd 382d e2bc
00000280: 2960 263e 7551 ed3d 8b90 8d3c 3301 97bc
00000290: cc60 db3d 8404 833d 6f2d c73d 1fb0 eb3d
000002a0: c589 c9bc ec87 9f3e 2392 8e3d a9f7 c23c
000002b0: 9be4 d03d 0366 82bd 0267 b83d 6f0d 7b3e
000002c0: b20b 1a3e 74fd 2fbd 2be4 593e edfc 2e3e
000002d0: ddc5 653e 1324 b83d 3591 483e f534 43bd
000002e0: 0253 f53d 3d5b f53c 836b 4f3e 0315 90bd
000002f0: 0013 753e 8cff 1c3e c1d3 843e e251 5a3e
00000300: 8068 de3d 69f8 14bd 213b 28bd f5ce 883d
00000310: a33a cabc a759 943e 807c 8b3e e7d7 5c3e
00000320: 19bc 3f3e 330e 4d3d 81b0 633d a365 973e
00000330: d015 7b3e 3fa3 fb3d 93eb 963d 14ab a43c
00000340: 7172 b43d 3089 d23c d1db 7f3e 2898 0c3e
00000350: 6f61 5d3e 00e1 8d3e 9bc0 3f3e 2801 573e
00000360: e2ac e83d cfc2 e43d 6ef0 06bd fe61 83bc
00000370: a820 923e 5b23 f83d 306d 56bd 1f8f e33c
00000380: da1e c83d e291 5b3d 2bc7 df3d 1b02 633e
00000390: dba8 ad3c 4a75 0c3e 4b0f ad3e 5cc5 8a3d
000003a0: b582 a63d 894b 513e 7b0e 6d3e 222b 233e
000003b0: d9f2 af3e 52df 0d3e 1af4 9a3e 9475 823e
000003c0: 6bf2 ee3d 7f26 993e ac8e 9b3c 8ec7 d33d
000003d0: 82d7 253e b05e 7b3e 25be a73e c92c 7e3e
000003e0: 3d06 833d 7c45 913e 2003 883d ab42 063e
000003f0: ba9f 423e 5796 303e b4dd cd3e 0fe8 0a3e
0.086305015 0.0062379334 0.007832256 0.064736366 0.033770412 0.07690192 -0.07794276 0.012099953
0.1396248 0.1854498 0.06727812 -0.11569522 0.0022674138 -0.09709198 0.03861824 -0.13786286
0.17403851 -0.15477966 0.052410442 -0.14010353 -0.11320437 0.086278535 -0.13028146 -0.16767947
-9.443736e-05 0.17870659 0.05583849 -0.11131061 0.19659318 0.22131166 0.083557256 -0.048968237
0.30758095 0.17533943 0.1696937 0.17139494 -0.022151168 0.13539511 -0.0054473006 0.12211874
0.15458141 0.22855255 0.10612594 -0.014288937 0.2847472 0.012634163 -0.0644636 0.08763555
0.17282364 0.15590772 0.074122965 0.24151732 -0.0064683766 0.20890978 0.13263835 0.12010396
-0.0184049 0.10495618 0.07929098 0.081659466 0.0515105 0.21911228 -0.032524563 0.12271133
0.054458324 0.11321564 0.11792564 0.06421352 0.08425622 0.18627402 -0.0100032035 0.050001178
0.10229754 0.28415114 0.20836967 0.18339458 0.135143 0.26796508 0.11470623 0.072696775
0.011010307 0.026217306 0.02266067 0.12665056 0.20399386 0.1360142 0.23389724 0.18346153
0.22059582 0.10235935 0.21067806 0.10938086 -0.019076398 0.008893961 0.040388927 0.06082391
0.14180952 0.21378167 0.13285902 0.30310944 0.13984415 0.23857936 0.032492075 0.09172433
0.31292793 0.18703602 0.2389819 0.29556364 0.06973928 0.10054185 0.19570397 0.089913175
0.19278869 0.23098685 0.15083358 0.023710042 0.3461391 0.31447646 0.20221452 0.35120207
0.101748854 0.21917386 0.16930678 0.32486436 0.27526507 0.44658133 0.36539665 0.33831614
0.33108127 0.18235984 -0.087278716 0.10583325 0.13011236 -0.0073985066 0.0004924472 -0.09864588
0.068923175 -0.03252053 -0.07288354 -0.017084474 0.16900052 -0.0028912004 0.103778176 0.09252823
-0.17500257 0.15212569 0.07537486 0.15151191 0.03719465 -0.15692456 -0.006986272 -0.035097048
0.081336826 -0.122074984 -0.016767584 -0.014534527 -0.09925716 0.16487058 -0.085072085 -0.027609453
0.1624762 0.11587802 0.017280838 -0.018433189 0.10711822 0.06397346 0.09725463 0.11508202
-0.024601826 0.31158388 0.06961467 0.023799734 0.10199853 -0.063671134 0.09004022 0.24516843
0.15043524 -0.04296632 0.21278445 0.17088671 0.2243876 0.089912556 0.19586642 -0.047657926
0.11978723 0.029950732 0.20255856 -0.07035258 0.23933029 0.15331858 0.25942805 0.21320298
0.108597755 -0.036369715 -0.041072015 0.06680099 -0.024686163 0.2897465 0.27243423 0.21566735
0.18724097 0.05006237 0.05558825 0.2956973 0.2452004 0.12286996 0.07369151 0.020101108
0.088108905 0.025700182 0.24986197 0.13729918 0.21619199 0.27710724 0.18725817 0.20996535
0.113611 0.11169969 -0.032944135 -0.016037937 0.2854054 0.121161185 -0.052350223 0.027778206
0.097715095 0.05360592 0.1092666 0.22168772 0.02119868 0.13716617 0.3380073 0.067759246
0.08130399 0.2043897 0.23150055 0.15934423 0.34364966 0.13854721 0.3026436 0.2548033
0.11667331 0.29912183 0.01898893 0.103407964 0.16195491 0.24547839 0.32762256 0.24821772
0.06397674 0.28373325 0.06641221 0.1311137 0.19006243 0.1724485 0.4020821 0.13565086

fc3_val.bias f4 [76]
00000000: 0c1c 87be 4194 ccbe 85de da3e 370b 0d3f
00000010: f957 013f fae6 95be fc16 82be 796b da3e
00000020: 3b21 b4be b194 89be 0425 a7be 3aad afbe
00000030: f16f 9d3e 9d7d 9abe 7535 babe 049c 093f
00000040: cc38 f03e 24b6 bbbe c1d8 94be 7641 aabe
00000050: fb17 b6be 43d7 babe 04ce cf3e ac58 7abe
00000060: e936 c0be 586f a5be dae5 71be 297d 033f
00000070: 5674 0e3f d2f9 a8be b5ff c3be 41a0 d93e
00000080: 9b8f 493f c722 e73e f408 95be 7f3e 8fbe
00000090: bec2 fb3e 1fc6 cbbe bbf2 e43e 522e 9cbe
000000a0: 626f c7be 48cd cfbe dc7f a83f 601e ff3e
000000b0: 8d94 a2be 69b6 c63e 7143 d53e cf64 d6be
000000c0: a465 f93e 0144 a8be d070 023f 6361 84be
000000d0: b31a babe 308a 6abe d672 0f3f 3db2 cabe
000000e0: 1d8c e53e 57b6 bc3e a9a8 81be 589c 83be
000000f0: 28c1 75be 6d8c 86be 0af1 d13e 1642 c8be
00000100: 6653 8abe a0e7 9bbe f81f b7be 03b6 f83e
00000110: 138f a7be 54a2 c4be 178d dc3e 02ab abbe
00000120: 8667 9fbe 124c 7dbe ea70 93be e913 fe3e
-0.26388586 -0.3995686 0.42747894 0.5509524 0.5052486 -0.29277784 -0.2540816 0.4266012
-0.35181603 -0.26871255 -0.32645428 -0.3431185 0.30749467 -0.3017396 -0.3636891 0.53753686
0.46918333 -0.366624 -0.2907162 -0.33253068 -0.3556517 -0.36492357 0.40586865 -0.24447888
-0.37541893 -0.3231151 -0.23622838 0.51362854 0.55646265 -0.33003098 -0.38281026 0.42505077
0.7873475 0.4514372 -0.29108393 -0.27977368 0.49172014 -0.39799592 0.4471644 -0.3050409
-0.38952166 -0.40586305 1.316402 0.49827862 -0.3175396 0.38811043 0.41653016 -0.41873786
0.48710358 -0.32864383 0.5095339 -0.2585555 -0.36348495 -0.22904277 0.560346 -0.3958911
0.4483346 0.36857864 -0.2532399 -0.25705218 -0.23999465 -0.2627901 0.4100421 -0.3911292
-0.27016753 -0.30450153 -0.35766578 0.48576364 -0.32726344 -0.38405097 0.43076393 -0.33528906
-0.3113367 -0.2473605 -0.28797084 0.49624565

fc4_adv.weight f4 [38, 76]
00000000: c9dc a4be f058 08be 2319 813e 87ef 973e
00000010: a21a ac3d b8e8 05bc 6755 d33d c32d ae3d
00000020: 8052 743e e4c0 093e 20a1 7bbd 32b2 253e
00000030: 687a 60bd fb6c c5bd e2f5 bd3e 3aed 54be
00000040: f0ec 543e 1931 fa3d f0d7 3f3d 3f46 b53d
00000050: 42aa ba3c baff a4be e304 9f3d 6379 6d3e
00000060: 4525 e93c 415e 4d3e 9b10 f23d 1384 be3d
00000070: df3f 4cbd 922b 0ebe 7d84 e13c 9ef1 3c3e
00000080: 6396 983d d3b6 203e b2a5 633c af0f 863d
00000090: 6d8c 413e 0e2f 773e 5440 c0bd 6f55 0f3d
000000a0: 41c6 f03d 2b65 fb3d 5baa 9d3d dc72 a33c
000000b0: bf6d c3bd 5042 3d3e 73be d5bd 3bc8 d33e
000000c0: 9931 c7be 98c9 803e 0d5d be3e ad26 0e3e
000000d0: ec0a bbbd 633d 7dbe 3655 363e 2402 ffbd
000000e0: dcd2 0abd 5302 c0bd 797d 9ebd 610d 203e
000000f0: 3f21 173d 0ee9 983e 34c1 2d3e 2d6c 7f3e
00000100: 6f96 323e b862 c13d 6ad0 62be d16c 0f3e
00000110: 6e5a 7bbe e449 43bd 54d6 5ebd f6e1 c3bd
00000120: e5c1 893e 6fde 6b3e 13fb 0c3e 5e12 80be
00000130: 298e a5be 6d05 73bd 629f 663d 72b8 f63d
00000140: 9d5e 133e e16e 903d 0f1f bf3e 874d 873e
00000150: 18bd 443e 3e8a 843e 6770 363e 22ba a7be
00000160: d1fc 32be 24c4 fabd 7739 883f 02e6 cebd
00000170: 4227 203d e8ce ea3d 7c8f d7bd 6acc 62be
00000180: a4cd 963e 541a 6a3d f0f8 55be 5575 c53e
00000190: 1cae 1c3e 1d07 35bd 9ff8 88bd 6b07 503e
000001a0: 2199 053e e0c4 353e f35e 25bd a474 ad3e
000001b0: b3d6 20bd 75c4 28be a9c2 093c f9ae 123e
000001c0: f5ac f8bd d932 adbd cdd7 e23d 767a 563e
000001d0: bede 81bd 3e5f b63d 9edc 6abd 900d 65bd
000001e0: 06da 83bb 1d5a a73d 0830 893e aa57 803e
000001f0: 88ab abbd 02ba 02be 0434 423e 2860 473d
00000200: a128 353e eec6 85be 69d5 863e cf6d 613e
00000210: f7ed 49be 2d1c 85be 9523 693e 166c f73d
00000220: a91d 603e f39f 9f3d 3bac 26be 35fb 2e3e
00000230: 04f3 36bd 1116 87bd 85b1 c93e 0cb2 54be
00000240: 3d47 8fba 11cb 2fbe 13cd 893e dd71 103d
00000250: ac3f 7bbc 9f42 bcbd 830e 9ebd f976 563d
00000260: fc5c 4cbe 6a32 cfbd 26ae 913e 1b09 093d
00000270: a274 613e 6c6f b93d 5d86 303d 0ad1 babc
00000280: a4b7 c73d 0663 ffbd 8542 933e a5c3 84bd
00000290: 92ca 1e3d 5922 4f3e cf6d 233f 0c89 d1be
000002a0: f290 f63d fbd4 c2bd 25ac 1dbe 7ab7 05bd
000002b0: 4a9f 413e 708e 63be 1487 d63d 5e11 183e
000002c0: 5f2f dd3e d748 a33d 3528 41bc 5fb4 8c3d
000002d0: 3ca2 16be 780e 373e 949e afbd 32f9 9d3e
000002e0: d7a6 b33d 396e a03e b5fe 343d 5537 10be
000002f0: 5170 263e 45fc 33bd 5a34 753e 4df3 0fbe
00000300: 46c4 f43c 3405 e13d e44b 703e 3bc7 5abd
00000310: ef35 2f3e 0420 9fbd 00a5 59bd c956 813e
00000320: 57d6 c0bd 0771 39be dc33 083f 2b75 3b3e
00000330: cec3 fd3d 1716 45bd f796 ec3d cd65 743e
00000340: a834 503e efe3 123d b93e 2d3f f535 b93e
00000350: 6408 29be f09a a0bd aaae 3fbe 528a 793e
00000360: 24d1 2d3e 030a 0a3e e0d4 37bd 02fb 5fbe
00000370: f2ac 59be 8eb0 e63a fd17 853c a777 5fbe
00000380: 3364 1b3e ca54 b2be 157b 07bd abbe aabe
00000390: 45d0 61be 4460 edbd 47c4 ae3e 5166 bd3d
000003a0: 72a7 943e 5d0f 363e af42 89bd f2b4 2b3e
000003b0: 479d 0ebe d851 08bd 9718 433e f9e7 183e
000003c0: c144 a5bd 9171 10bd 1e08 563f 491e acbe
000003d0: ea75 6e3e 85bd f7bd 56b3 54be b2c2 583e
000003e0: 90e2 3d3d 0fd0 863d ae58 5d3e 3dc3 3f3e
000003f0: ca7a a23e 01be 013e 1ade 8b3e 996a 853e
-0.32199696 -0.13315177 0.2521449 0.29674932 0.08403517 -0.00817316 0.103190236 0.08504822
0.23859596 0.13452488 -0.061432958 0.16181257 -0.054804236 -0.09639927 0.37101656 -0.2079362
0.2079351 0.12216396 0.046836793 0.08851289 0.022786263 -0.32226354 0.07764604 0.23190837
0.028460154 0.20055486 0.118195735 0.09302535 -0.0498656 -0.13883808 0.027528996 0.18451545
0.07450559 0.15694742 0.013894485 0.0654596 0.18901224 0.24139044 -0.093872696 0.034993585
0.11756564 0.12275156 0.07698508 0.01995223 -0.09542417 0.18482327 -0.10436716 0.413637
-0.38905028 0.25153804 0.37180367 0.13881941 -0.091329426 -0.24730448 0.17805943 -0.1245158
-0.033892497 -0.09375443 -0.07738776 0.15630104 0.03689694 0.29865307 0.16968232 0.2494361
0.17440198 0.09442657 -0.22149816 0.14006354 -0.24546215 -0.04767789 -0.054403618 -0.09564583
0.26905742 0.2303407 0.13767652 -0.25014013 -0.32335022 -0.059331346 0.056304343 0.12046899
0.14391561 0.070523985 0.37328383 0.26426336 0.19212759 0.2588672 0.17816316 -0.32759196
-0.17479254 -0.12244442 1.0642537 -0.10102464 0.03909994 0.114652455 -0.10525414 -0.2214829
0.29453766 0.057154015 -0.20895743 0.3856608 0.15300792 -0.044196237 -0.06688046 0.2031533
0.13046695 0.17750883 -0.040373754 0.33878052 -0.039267253 -0.16481192 0.008408227 0.1432456
-0.12142364 -0.08456964 0.11076317 0.20945153 -0.06341313 0.08904885 -0.057339303 -0.055921137
-0.004023793 0.081714846 0.26794457 0.25066882 -0.08382326 -0.12766269 0.18965155 0.048675686
0.1769128 -0.26128334 0.26334694 0.22014545 -0.19719683 -0.2599806 0.2276748 0.12081163
0.21886314 0.0779418 -0.16276638 0.17088015 -0.04466535 -0.06596006 0.3939325 -0.20771044
-0.0010931265 -0.17167307 0.26914272 0.03526484 -0.015335005 -0.091923945 -0.07717612 0.052359555
-0.19957346 -0.101170376 0.28453177 0.03345595 0.22017148 0.09054455 0.04309689 -0.022804756
0.097518235 -0.12470059 0.28761688 -0.06482629 0.038767405 0.20227946 0.6383943 -0.4092487
0.12039365 -0.09513279 -0.15397699 -0.03264568 0.1890842 -0.22222304 0.10474983 0.14850375
0.43200204 0.079728775 -0.011789371 0.068703406 -0.14710325 0.17876613 -0.08575168 0.30854183
0.087720565 0.31334093 0.04418822 -0.14083607 0.16253783 -0.043941755 0.23945752 -0.14057656
0.029878747 0.109873205 0.2346645 -0.053412657 0.17110418 -0.07769778 -0.053135872 0.25261524
-0.09415882 -0.18109523 0.5320413 0.18306415 0.123908624 -0.04811677 0.11552232 0.23866959
0.20332587 0.035861906 0.6767383 0.36173978 -0.16507107 -0.07842052 -0.18718973 0.24369171
0.16974312 0.13480382 -0.044880748 -0.21873096 -0.2125738 0.0017600225 0.01624679 -0.21822987
0.15174942 -0.34830314 -0.033076365 -0.33348593 -0.22052105 -0.11590627 0.34134123 0.09248031
0.29034 0.17779298 -0.06702172 0.16768244 -0.13927184 -0.033281177 0.19052349 0.1493224
-0.080697544 -0.035264555 0.83606136 -0.33616856 0.23287168 -0.12096695 -0.20771536 0.2116802
0.046358645 0.06582653 0.2161586 0.18726821 0.31734306 0.12670137 0.27317888 0.2605789

fc4_adv.bias f4 [38]
00000000: 7797 133e 8175 d93c bb4f 2f3e 676c 73bd
00000010: 0ca5 2abc e81a f0bb 8bd2 613e 3b98 dbbd
00000020: 53f6 15be e9df 08be 6251 f0bd 3b7f 0c3e
00000030: aacd 263d 47d2 873c 4225 303e 5edb ff3d
00000040: 36da fe3d dfad 2cbe 4cea 1c3e 75fe 313d
00000050: ebc0 af3d 8048 343e 518b 223e ce04 223e
00000060: 3986 3f3e c316 593b 12c5 07be 643c f6bd
00000070: d74d 7abd ec63 073d 2a72 26bc 7631 ec3b
00000080: ec1b 023d e963 ef3d a9b1 4dbe cd7f 7d3e
00000090: 0bfd 40bd 16bc 8d3e
0.14413248 0.026545288 0.17120259 -0.059429552 -0.010415327 -0.007327426 0.22052972 -0.10722395
-0.14644746 -0.13366665 -0.117342725 0.1372041 0.04072348 0.01657976 0.17201713 0.12493013
0.12443964 -0.16863202 0.15323752 0.04345556 0.08581718 0.17605782 0.15873457 0.15822145
0.18703546 0.003312514 -0.1325877 -0.12023237 -0.06110939 0.033054277 -0.010159055 0.0072080446
0.03176491 0.11688978 -0.20087303 0.24755783 -0.04711632 0.2768256

fc4_val.weight f4 [1, 76]
00000000: 23a6 563e d4c5 ab3e 2154 a2be 8ada f9be
00000010: e828 92be 689a 7c3e 51f8 e93e 7119 d8be
00000020: 4e11 bd3e e95e a93e 718c d13e f10b 903e
00000030: 0a15 eebe 6f6e 4a3e a84c 9c3e b1ca 99be
00000040: f0f9 b5be 1e53 ad3e dc73 8d3e 4c87 a33e
00000050: 9e33 a73e 9799 b53e e16d c7be cac9 843e
00000060: d6e9 813e d23e 533e b083 c33e 838a 0bbf
00000070: d7a8 08bf 0ef5 383e d20c 853e 4e3a 18bf
00000080: 5594 cdbf 29cc e8be e0eb 6d3e fe98 a43e
00000090: 3928 f1be 547a b93e 3226 d8be c21c 963e
000000a0: 56fb 973e ca83 cb3e 6ca9 1bc0 5947 f3be
000000b0: f820 ed3e e268 0abf 9739 c7bf cb58 dd3e
000000c0: dc18 70bf 55a6 433e 06ac fcbe 0896 a73e
000000d0: 0ecc 783e caca 353e c141 abbe 8999 d73e
000000e0: d112 aebe c7f8 f8be d627 e23e 8f6e 623e
000000f0: 0587 9a3e 4f9a 253e aaf5 d2be fce1 993e
00000100: 1d63 4f3e d87f 893e 17b2 cf3e 5c5d c9be
00000110: 9131 643e d38d 5b3e 7c17 e8be a260 7c3e
00000120: 6fbe a73e 638f 5a3e 5acf 3b3e 0b64 4ebf
0.20961814 0.33549368 -0.3170481 -0.48799545 -0.28546834 0.24668276 0.45697263 -0.4220691
0.36927265 0.33080223 0.4092746 0.2813411 -0.46500427 0.1976869 0.30527234 -0.30037454
-0.3554225 0.33852476 0.27627456 0.3193916 0.32656568 0.35468742 -0.38951018 0.25935203
0.25373715 0.20629433 0.38186407 -0.5450823 -0.5338263 0.18062231 0.25986344 -0.59463966
-1.6060892 -0.45468262 0.2323451 0.32147974 -0.47101 0.3622614 -0.4221664 0.29318815
0.29683942 0.39748985 -2.4322157 -0.4751537 0.46314216 -0.5406629 -1.556445 0.43231806
-0.9378793 0.1910642 -0.49349993 0.32731652 0.2429659 0.17753139 -0.33448604 0.42109326
-0.3399873 -0.48627302 0.44171017 0.22112487 0.30181137 0.16172145 -0.41203052 0.30055225
0.20252652 0.2685535 0.4056556 -0.3932904 0.22284533 0.2144082 -0.45330417 0.24646237
0.32762477 0.2134376 0.18340817 -0.80621403

exp_avg f4 [1, 6, 1, 4]
00000000: e79f 0240 907a 1fbd 128b cebd eadb b0bd
00000010: a93a 8cc0 505f 90c0 38af 10c0 0a48 06c0
00000020: 1633 a4be 1633 a4be 1633 a4be 0000 0000
00000030: 11b4 37bd 47f2 dabd 47f2 dabd daf7 05bd
00000040: a49a a0be 46f2 96be 46f2 96be 0000 0000
00000050: dd3b 79bf 5def 59bf 5def 59bf 0400 0000
2.0410097 -0.038935244 -0.10085119 -0.08635695 -4.3821607 -4.511635 -2.2606945 -2.098147
-0.32070225 -0.32070225 -0.32070225 0.0 -0.04484946 -0.10690742 -0.10690742 -0.032707073
-0.3136798 -0.29481715 -0.29481715 0.0 -0.9735697 -0.85130864 -0.85130864 6e-45

exp_avg_sq f4 [1, 6, 1, 4]
00000000: 4d47 f442 8702 f440 3e3d aa3f 8094 213d
00000010: cf9e 8844 e85a 0244 4036 1943 5ddc b341
00000020: 1d75 003f 1d75 003f 1d75 003f 0000 0000
00000030: 1d55 d13f a8e7 bd3f a8e7 bd3f 4fa9 843d
00000040: 7664 ed3f 80c1 a93f 80c1 a93f 0000 0000
00000050: 0ae5 d13f a692 bb3f a692 bb3f f401 0000
122.13926 7.6253085 1.329994 0.03944826 1092.9628 521.4204 153.21191 22.4826
0.501787 0.501787 0.501787 0.0 1.63541 1.4836321 1.4836321 0.064776056
1.8546283 1.3262177 1.3262177 0.0 1.6398022 1.4654129 1.4654129 7e-43

exp_avg f4 [1, 6, 2, 4]
00000000: f49c 93bf 409f 043e 86fa 473e a737 a03c
00000010: 19e0 b5bf 2f06 40bd b113 453d dfab a33b
00000020: b7b8 1140 a7eb 0a40 d369 0e3f bdf9 433f
00000030: 0a16 1b40 b0d2 9b3f 1ef0 753e 0400 0080
00000040: 2481 923e 2481 923e 2481 923e f296 b53d
00000050: 30b6 253f 30b6 253f 30b6 253f 2845 423e
00000060: 6752 fd3d 2592 1d3e 2592 1d3e 1224 4e3d
00000070: 865f 30be 37de 01be 37de 01be c068 213d
00000080: 7973 88bb 8b9a 53bc 8b9a 53bc 1af1 bcbc
00000090: 7048 d4bc bbb1 c1bc bbb1 c1bc 2be0 c6bc
000000a0: 2a57 413f ea8e 333f ea8e 333f a549 de3c
000000b0: 967d 173f 35b1 fa3e 35b1 fa3e 8ea1 c43c
-1.1532273 0.12951374 0.19529161 0.019557787 -1.4209014 -0.046880897 0.048114482 0.004994854
2.276899 2.170633 0.55630225 0.76552945 2.4232202 1.2173672 0.24017379 -6e-45
0.2861415 0.2861415 0.2861415 0.08866681 0.6473112 0.6473112 0.6473112 0.18971694
0.123692326 0.15387781 0.15387781 0.050327368 -0.1722394 -0.12682424 -0.12682424 0.039406538
-0.004164156 -0.012915264 -0.012915264 -0.023064185 -0.025913447 -0.023644319 -0.023644319 -0.024276813
0.75523627 0.70139945 0.70139945 0.027134726 0.59176004 0.48963323 0.48963323 0.024002817

exp_avg_sq f4 [1, 6, 2, 4]
00000000: 162b 2042 bb12 0140 4c33 c73e 7679 d83b
00000010: fb50 4042 f769 9040 3e76 213f 5433 6d3c
00000020: d19f bb43 5bf8 1c43 9057 0142 e4c8 9340
00000030: 82e9 9a43 8ce8 4642 27f4 1d3e f401 0000
00000040: e5dc 3140 e5dc 3140 e5dc 3140 9a9d 9e3d
00000050: 53a3 4b40 53a3 4b40 53a3 4b40 67d1 fe3d
00000060: 4071 243f 1e9b 133f 1e9b 133f c3ce 063d
00000070: 7433 4a3f c030 353f c030 353f 482b 0e3d
00000080: 0e78 2d3f 5ebd 003f 5ebd 003f ada6 993c
00000090: 9ca2 6c3f 7d1e 463f 7d1e 463f c7c4 c43c
000000a0: 6511 383f 5495 213f 5495 213f edb7 403d
000000b0: ab1c 793f 29de 5f3f 29de 5f3f b89c 183d
40.042076 2.0167682 0.38906324 0.006606276 48.079082 4.512935 0.6307105 0.01447757
375.24857 156.97014 32.33551 4.618273 309.82428 49.727097 0.15425168 7e-43
2.7791073 2.7791073 2.7791073 0.07744904 3.1818435 3.1818435 3.1818435 0.12442284
0.64235306 0.57658565 0.57658565 0.032912027 0.7898476 0.7077751 0.7077751 0.034709245
0.67761314 0.5028895 0.5028895 0.018756235 0.9243562 0.7739027 0.7739027 0.024019612
0.7190154 0.6311848 0.6311848 0.047050405 0.9730937 0.87448364 0.87448364 0.037258834

exp_avg f4 [1, 6, 3, 4]
00000000: cccb 4fc0 d7e9 c6be 9c53 a8be bf84 b23d
00000010: 7dbe 4dc0 2069 13bf 3814 50be 6440 ce3c
00000020: 6247 53c0 1460 4fbf 00e9 7fbe e7df 173a
00000030: 4555 d43f 7f60 3440 1957 da3f 9cba 953f
00000040: 6fec e03f 2309 2440 8070 e53e f71c 143f
00000050: 159f 853f e2d6 9640 9860 0b40 f008 843f
00000060: 1a3e 32bc 9d3d 32bc 553d 32bc 0c53 063f
00000070: 8b71 623f 8c71 623f 8b71 623f a222 933e
00000080: 79ff f53e 78ff f53e 78ff f53e 537f e33e
00000090: 484e e03d f5f9 723e f7f9 723e 0aa7 1fbd
000000a0: 2bd1 8ebd 03f7 893d 03f7 893d dda6 69bd
000000b0: e285 d63d 9b01 443e 9c01 443e 5e72 48bd
000000c0: b1d0 17be 3d90 2bbe 4290 2bbe c1d9 b1bd
000000d0: 2fd9 a53e 2461 9c3e 2561 9c3e 38b7 c2bd
000000e0: 75f9 113f dfe2 0e3f dfe2 0e3f c2d0 02bd
000000f0: 2f8a 983f 8921 7d3f 8921 7d3f 0b6a 743d
00000100: 96a6 963f b508 813f b508 813f 6fc0 393d
00000110: 6dc1 6a3f 46b5 463f 46b5 463f 38e5 993d
-3.2468138 -0.3885028 -0.3287629 0.087167256 -3.2147515 -0.57582283 -0.20320213 0.025177188
-3.3012319 -0.8100598 -0.24991226 0.0005793557 1.6588522 2.8183897 1.705783 1.1697574
1.7572154 2.5630577 0.44812393 0.57856697 1.0439173 4.713731 2.1777706 1.0315228
-0.010879064 -0.010878948 -0.0108788805 0.5247047 0.884545 0.8845451 0.884545 0.2873736
0.48046473 0.4804647 0.4804647 0.44433078 0.10952431 0.23728164 0.23728167 -0.03897766
-0.069734894 0.06736567 0.06736567 -0.0570439 0.10474755 0.19141237 0.19141239 -0.048937194
-0.14825703 -0.16754241 -0.16754249 -0.086841114 0.3239226 0.30542862 0.30542865 -0.095076025
0.57021266 0.5581493 0.5581493 -0.03193737 1.191717 0.98879296 0.98879296 0.059671443
1.1769588 1.0080782 1.0080782 0.045349535 0.91701394 0.7762035 0.7762035 0.07514423

exp_avg_sq f4 [1, 6, 3, 4]
00000000: f107 0843 2603 2d41 dabd c23f 6edb 183d
00000010: e7df 0243 b78e 2241 ab0d b23f 3b0a b73c
00000020: 49f8 f042 dbae 1941 c717 a93f e23a b73c
00000030: 8d5e 8844 c9b5 a843 4fa6 8642 8d0e 0941
00000040: 3583 8b44 ad27 b543 1e52 8342 433d 7440
00000050: 1c7c 9944 4d41 0c44 b49d 1443 e540 9441
00000060: 8888 bf40 8788 bf40 8788 bf40 4758 b23e
00000070: 3c3b d140 3c3b d140 3c3b d140 4491 8b3e
00000080: 7403 e940 7403 e940 7403 e940 5e60 a43e
00000090: 10c2 ee3f f9b8 d43f f9b8 d43f 66d4 973d
000000a0: 8e5b 0a40 7f2d fa3f 7f2d fa3f 224e af3d
000000b0: 47f2 e73f 9dad d03f 9cad d03f d761 6f3d
000000c0: fdef 0840 d4b9 ec3f d5b9 ec3f 5696 4e3d
000000d0: 6e4c f03f 01a7 d33f 02a7 d33f 85aa 3c3d
000000e0: c9e9 a03f 2e8a 883f 2e8a 883f e6d0 903c
000000f0: 0a25 0140 de81 e63f de81 e63f 2173 893d
00000100: 1e04 1840 7bdc 0a40 7bdc 0a40 1455 963d
00000110: 029f 0740 4d44 f73f 4d44 f73f c5a6 863d
136.03102 10.813269 1.5214188 0.03731864 130.87462 10.1598425 1.3910421 0.022343745
120.48493 9.605189 1.3210381 0.022366945 1090.9547 337.4202 67.32482 8.566052
1116.1002 362.30997 65.660385 3.816239 1227.8784 561.0203 148.61603 18.531687
5.9854164 5.985416 5.985416 0.34832975 6.5384808 6.5384808 6.5384808 0.27259266
7.2816715 7.2816715 7.2816715 0.32104772 1.8652973 1.6618949 1.6618949 0.07413559
2.161838 1.9545134 1.9545134 0.085598245 1.8120812 1.6302983 1.6302981 0.058442917
2.1396477 1.849421 1.8494211 0.05043634 1.8773324 1.653534 1.6535342 0.046061058
1.2571346 1.0667169 1.0667169 0.017677736 2.0178857 1.8008382 1.8008382 0.06711412
2.3752513 2.169707 2.169707 0.07340446 2.11908 1.9317719 1.9317719 0.065747775

exp_avg f4 [1, 6, 4, 4]
00000000: 1d06 76c0 320a 7dbe 2c42 5bbc 3248 433e
00000010: 86da 82c0 69a3 0abf 3544 8e3d bf23 363e
00000020: 914d 8ec0 ff01 4ebf 9c64 95bb 9bfc 293e
00000030: f318 58c0 9494 b5bc ebd2 0bbe 06ec 263d
00000040: 3de0 e440 4f9e e740 caeb 5240 bf6a 1540
00000050: e5f8 de40 a7a9 b240 cc6d 0940 0975 c83f
00000060: 462b 0041 888b bc40 e60b 5340 ace3 ab3f
00000070: 087a ff40 2ed7 b840 e679 f13f 9c96 1e3f
00000080: 215e fe3e 165e fe3e 195e fe3e 84ac 273f
00000090: 5897 c53f 5997 c53f 5897 c53f 2a79 0e3f
000000a0: 66bc 863f 66bc 863f 66bc 863f 4246 003f
000000b0: a18a b33f a28a b33f a28a b33f 5341 be3d
000000c0: 4e3e 59be fa7d debc 0a7e debc 84ca dcbc
000000d0: c68d 4c3d 801a 473e 7c1a 473e 0286 3dbb
000000e0: 1ea2 8e3e f6a2 cc3e f7a2 cc3e 07b3 073d
000000f0: edcf f23e 482b 0d3f 482b 0d3f b463 a23d
00000100: d73c bd3d 1db2 6e3d 27b2 6e3d 5d45 bdbd
00000110: e714 b83e 864a a93e 854a a93e d362 ccbd
00000120: 310e 9b3e 1d00 8d3e 1b00 8d3e a871 bdbd
00000130: 6f9c 0e3e 3d23 e23d 3e23 e23d 4d0b c8bd
00000140: 9767 e33f e2fc cd3f e3fc cd3f afe2 1dbd
00000150: 3f41 ef3f 742d d83f 752d d83f b7ce 0f3d
00000160: 9f6b d93f d1ff ca3f d0ff ca3f ff69 473d
00000170: 3568 e83f cff5 d73f cef5 d73f 74fd ac3d
-3.8441231 -0.2471092 -0.013382476 0.19070509 -4.089175 -0.54155594 0.06946603 0.17787074
-4.4469686 -0.80471796 -0.0045591127 0.16600268 -3.3765228 -0.022165574 -0.13654678 0.040752433
7.152373 7.238075 3.2956414 2.3346403 6.9678826 5.5832095 2.1473265 1.5660716
8.010565 5.8920326 3.2976012 1.3428855 7.9836464 5.776267 1.8865325 0.6194856
0.4968119 0.49681157 0.49681166 0.6549761 1.5436811 1.5436813 1.5436811 0.5565363
1.0526245 1.0526245 1.0526245 0.50107205 1.4026681 1.4026682 1.4026682 0.09289803
-0.21215174 -0.02715968 -0.02715971 -0.026952036 0.049939893 0.19443703 0.19443697 -0.0028918986
0.2785806 0.3996808 0.39968082 0.03312972 0.4742426 0.55144167 0.55144167 0.07929173
0.0924012 0.05827533 0.058275368 -0.092417456 0.35953447 0.3306467 0.33064666 -0.09979787
0.30284265 0.2753915 0.27539143 -0.09250194 0.13926862 0.110418774 0.11041878 -0.097677805
1.7765988 1.6092799 1.60928 -0.03854626 1.8691787 1.6888871 1.6888872 0.035109248
1.6985968 1.5859319 1.5859318 0.04868507 1.8156801 1.687189 1.6871889 0.0844678

exp_avg_sq f4 [1, 6, 4, 4]
00000000: 4711 7e43 aec3 a041 6bd8 6040 a0e0 e43d
00000010: 319f 7843 a36c 8b41 2b78 3140 6402 eb3d
00000020: 88f5 6943 92b8 8b41 f13d 2940 18a2 de3d
00000030: 8bde 5e43 88ef 8c41 dde1 2c40 b698 db3d
00000040: 8268 3f45 96b8 a444 94c5 a043 50c7 0942
00000050: f92a 3b45 79e0 9244 d894 8943 3c2c fc41
00000060: f9af 3a45 771d 9044 accf 8643 5a17 0b42
00000070: f404 3b45 b5d0 9044 df7c 7943 6107 d841
00000080: 9ac7 5441 99c7 5441 99c7 5441 6bda 153f
00000090: c94d 6b41 c94d 6b41 c94d 6b41 0b52 063f
000000a0: 3a21 7041 3921 7041 3921 7041 a762 003f
000000b0: b833 6641 b933 6641 b733 6641 6b01 063f
000000c0: 4a51 7240 88bb 5a40 85bb 5a40 fbb1 053e
000000d0: ce7b 6640 6c77 5040 6e77 5040 158e 063e
000000e0: 9f75 7940 1c3e 6440 1b3e 6440 a9b0 013e
000000f0: 8488 7340 7cd1 5f40 7cd1 5f40 9206 133e
00000100: 6c72 4840 941b 2b40 931b 2b40 a0be 903d
00000110: 6089 7e40 3873 4d40 3673 4d40 852f db3d
00000120: e1eb 7640 0b6d 4740 0c6d 4740 79f1 b63d
00000130: caa1 8940 b280 5740 b280 5740 e530 a23d
00000140: 2966 8a40 f799 8040 f799 8040 fc06 283e
00000150: ce33 8f40 18b7 8240 18b7 8240 eb94 fd3d
00000160: 644d a040 e65b 9740 e65b 9740 1f7a 153e
00000170: e549 9640 79e9 8e40 79e9 8e40 d168 0e3e
254.06749 20.095547 3.513209 0.11175656 248.62184 17.428045 2.7729595 0.11475065
233.9591 17.465122 2.6444056 0.10870761 222.86931 17.616959 2.7012856 0.10722487
3062.5317 1317.7683 321.54358 34.44464 2994.6858 1175.0148 275.16284 31.521599
2986.9983 1152.9208 269.62244 34.772804 2992.3096 1158.5221 249.48778 27.003603
13.298731 13.29873 13.29873 0.58536404 14.7064905 14.7064905 14.7064905 0.5246894
15.008112 15.008111 15.008111 0.5015053 14.387627 14.387628 14.387626 0.52345914
3.7862115 3.417696 3.4176953 0.13056175 3.6013064 3.257289 3.2572894 0.13140137
3.897804 3.5662909 3.5662906 0.12665047 3.8052073 3.497161 3.497161 0.14357975
3.1319838 2.6735582 2.673558 0.07067609 3.9771347 3.2101574 3.210157 0.10702423
3.858147 3.1160305 3.1160307 0.08932776 4.3009996 3.36723 3.36723 0.07919482
4.3249707 4.0187945 4.0187945 0.16408914 4.475074 4.0848503 4.0848503 0.123819195
5.009447 4.729968 4.729968 0.14597367 4.6965203 4.466 4.466 0.13907172

exp_avg f4 [76, 130]
00000000: 278d 9dbb 2ee7 833c a65b 38ba 8427 a8ba
00000010: bbac 20bc de49 133d 0a91 fd3b 93df c73c
00000020: cf5f 983a 68b4 2c3c d73e d13c 587f a83c
00000030: 79f7 a83c 5f89 af3c 6a1c 033c 3f0c 133c
00000040: ecc4 69bc 26ac 34bc 9e47 2ebb 496d d1b9
00000050: 9a9c a93c d38b 813c 8609 703c 288e 163d
00000060: 4ce0 2b3d 13de 5a3c 590e 2dbb 0287 093c
00000070: eca8 083c 3606 26bc 0313 28bc 2282 a1bb
00000080: 458e 0dbb cbed 293b e671 0e3d 9c3d 58bb
00000090: 1ce1 94ba 5916 d93c 95f0 173c 4e3a 6f3c
000000a0: f068 463c d3c9 93bc 56ff 8f3b 78de 8e3b
000000b0: 12bb b83c 04a6 843b 2bc4 a5bc a7c0 d43c
000000c0: 39ad bbbb 96a2 103d cc2d 053c 096d a33c
000000d0: 96ad 01bd f40c 023d 2591 45bc 7639 87bb
000000e0: 89ba d2bb 2403 503a def5 7a3c a0e1 c93b
000000f0: 4ce1 81bc 2993 bc3c d3c4 12bc 4f24 e7bb
00000100: 4990 0d3c 9762 a239 3cf7 a3bb 4784 43bb
00000110: 2207 8f3c fc47 0f3b 10a9 f43b b07a 763c
00000120: 927e 393c b259 f53c 6b2f 703c 89e3 07bc
00000130: 9214 0dbb 42b5 bc3c a6f7 ee3c fce0 c6bb
00000140: b9b1 943a 9e8a d0bb f983 573a c9a7 e5b9
00000150: f7f3 853c a5b1 323c 0a00 08ba 4ebd 3b3c
00000160: 5fc8 093c 6894 b73c be1b 283c 151c 093c
00000170: 7a47 a63c c9f0 183b ff3e 083c bb9f 473c
00000180: 296d 0cbb 6d9e 0ebc 41d0 ed3b b8a9 50bb
00000190: 8df7 003c fd34 83bb 3067 173c 6853 5e3c
000001a0: 2461 bf3c e6ed e13a 7ab9 6d3a 9ae7 4c3c
000001b0: 9a8f 853c 5339 a43c de1d 84bb 29f3 073c
000001c0: f8fc 6f3c 4f72 863c ea33 903c 670a 7c3a
000001d0: d933 26bc 4fab aabb e92f 853c 021d 223c
000001e0: 1649 d43c 13b5 9b3c 29c6 033d 7836 c53c
000001f0: 6ee6 523c e471 d83b 8feb 683c da1b 9dbb
00000200: b4cb 2139 d41d 2139 d539 d03a 9f48 17bb
00000210: e514 903c c3ee 9abc bd6d fbbb 0b09 acbc
00000220: 22b8 50bc 31e3 d6ba 04ee 3c3b 5bf5 963c
00000230: 50b4 c1bc f264 81bd 9c06 13bd 17a0 80bc
00000240: f919 743c 1ca1 de3b 5c80 87ba a49a f4bc
00000250: 65e8 e0bc 3d03 6ebb 699d f2bc 7116 983c
00000260: 1d5e 893b b1e5 dcbb a0c8 cebb c554 75bc
00000270: 1678 edbb 7c1f f23a 72d7 ecbb 4e33 863c
00000280: 96f3 683b b305 663b 7327 15bc 737a 083c
00000290: ece5 d6bb 5afa 32bc c04a b6bb 69cf fabc
000002a0: 2a1f 82bc b2b3 eabb 640b 1c3b 0957 e8bb
000002b0: f4bd 82bb dbe0 07bd 8940 aabb 12d1 403c
000002c0: 1ff2 a6bc b0cf 8fbc f7cd 27bc 50d8 aabc
000002d0: 3d84 0cbc 02f4 f1bc c763 f5bb 5630 aabc
000002e0: 7054 afbc 394e f2bc f588 5abc 8b1f bcbc
000002f0: 6cac d03b db30 14bc d8f7 ecbc 310d f1b9
00000300: 5021 16bd d0cb 24ba 07ea 953b 1e4e d1bc
00000310: eaea 253c 1c55 d3bc fe25 e7bb ed9d 4bbc
00000320: 88f7 31bc 3c5f cd3a 775e 01bc 1fe3 f4bb
00000330: 4212 a33b ea40 093c cb17 51bc 2c34 2dbd
00000340: 15fa b9bb 1855 193c f0ef 04bc 2649 44bc
00000350: e7e1 9ebc 19b4 a2bc 7270 a9bc 0bf5 01bc
00000360: 72d2 adbb 84e5 0e3c a370 a1ba fe4b 95bc
00000370: 7d23 eabc 6fe9 c5bc 7292 a53b 9712 21bc
00000380: c497 b73a 7205 9cbb 9ca7 90bc 63b8 253c
00000390: 5b2a 993b 0c13 a93b ee7c 043b 2404 33bc
000003a0: e172 77bc 17c9 90bc 31cf cbbc 41ed d7bb
000003b0: 379a 97bc bbf2 12bc aaf2 9ebb 0cee 44bc
000003c0: 14cb c7bc 0688 e9bc c583 a5bb 08e3 e03b
000003d0: f62c 0e3a a960 f8ba 08f8 babc 2c83 44bc
000003e0: df56 87bc 196d 96bc 5bfc e9bb e5e1 b2bb
000003f0: b385 29bb 25e3 04bc 8cbc 66bc a0df d7bc
-0.0048080864 0.016101446 -0.00070326997 -0.0012829159 -0.009806807 0.035959117 0.0077382373 0.0243986
0.0011625233 0.010541059 0.02554266 0.020568535 0.020625817 0.021427808 0.00800238 0.008975088
-0.014268141 -0.0110273715 -0.002659298 -0.0003994501 0.020704556 0.015813744 0.014650708 0.036756665
0.041961953 0.013358611 -0.0026406257 0.008394005 0.008341055 -0.010133317 -0.010258439 -0.004928843
-0.0021599692 0.002592909 0.03477659 -0.0032995706 -0.0011358592 0.026499914 0.009273668 0.014601303
0.01210998 -0.018040573 0.004394452 0.0043600164 0.02255014 0.004048111 -0.020235142 0.02597077
-0.005727437 0.035311304 0.008128595 0.019949453 -0.031659685 0.031750634 -0.012058531 -0.004126723
-0.006430928 0.00079350383 0.015317408 0.00616093 -0.0158545 0.02301939 -0.008958059 -0.007053889
0.008640357 0.00030972503 -0.005003838 -0.0029833482 0.017459456 0.0021862974 0.007466443 0.015043899
0.011321681 0.029949997 0.014659743 -0.008293995 -0.0021527153 0.02303565 0.029170822 -0.0060693007
0.0011344469 -0.0063641807 0.00082212646 -0.00043803293 0.016351683 0.010906612 -0.0005187994 0.011458708
0.008409589 0.022409633 0.0102605205 0.008368512 0.020297755 0.0023336879 0.008315801 0.012184079
-0.002142737 -0.008704764 0.007257492 -0.0031839442 0.007871521 -0.0040041194 0.00924091 0.01356969
0.02336175 0.0017237037 0.00090684707 0.01250639 0.016303826 0.020046866 -0.0040318808 0.00829772
0.014647715 0.016411928 0.01760288 0.0009614587 -0.010144197 -0.00520841 0.016258197 0.009894611
0.025913756 0.019007241 0.032171402 0.024073824 0.0128723215 0.0066053737 0.014216318 -0.00479458
0.00015430042 0.00015365268 0.0015886376 -0.0023084057 0.017588088 -0.018912679 -0.007672994 -0.021000406
-0.012739213 -0.0016394613 0.0028828392 0.018427541 -0.02364555 -0.06318082 -0.035894975 -0.015701337
0.0148987705 0.006794108 -0.0010337937 -0.029858895 -0.027454564 -0.0036317848 -0.029616075 0.018565388
0.0041921274 -0.0067412485 -0.0063105375 -0.014973824 -0.0072469814 0.0018472518 -0.0072278315 0.016381886
0.003554558 0.0035098612 -0.009103644 0.008329975 -0.0065581705 -0.010923946 -0.00556311 -0.030616479
-0.015884 -0.0071625346 0.00238105 -0.0070904535 -0.0039899293 -0.033173423 -0.0051956815 0.011768596
-0.020379124 -0.017555088 -0.010241977 -0.020855099 -0.00857645 -0.029535297 -0.007488701 -0.020775001
-0.021402568 -0.029578315 -0.013338317 -0.02296426 0.0063682105 -0.009044851 -0.028926775 -0.0004597693
-0.036652863 -0.0006286474 0.0045750174 -0.025549944 0.010126809 -0.02579742 -0.0070540896 -0.012427789
-0.010862239 0.0015668641 -0.007896057 -0.007473364 0.0049765417 0.008377293 -0.01276202 -0.042286083
-0.005675564 0.009358667 -0.008113846 -0.011980331 -0.019394828 -0.019861268 -0.0206835 -0.007931958
-0.005304628 0.008721713 -0.0012316894 -0.018224712 -0.028581375 -0.024159161 0.005052858 -0.009831092
0.0014007022 -0.0047613913 -0.017658047 0.010114762 0.0046742386 0.0051597413 0.0020216065 -0.01092628
-0.015103073 -0.017674012 -0.02487907 -0.006589562 -0.018506153 -0.008969004 -0.004850705 -0.012019645
-0.024388827 -0.028507244 -0.0050511085 0.0068630017 0.000542357 -0.0018949705 -0.022823349 -0.011994164
-0.016520916 -0.018362569 -0.007140679 -0.0054590576 -0.0025867044 -0.008110796 -0.014083039 -0.02635175
