TrainedModel/Others/4200_0-048_DQNwithreward.pth (torch, 740564 bytes, 26 tensors)

fc_layers.1.weight f4 [816]
0.9834945 1.0136403 1.0405602 1.1078067 0.9989858 0.9366154 1.1108117 0.9609076
0.9465189 0.9390283 1.0272928 0.9873412 0.9790627 0.96275455 1.0230029 0.9612654
1.0295674 0.9920212 1.0646142 1.0989854 0.94811773 0.9583096 1.0630618 1.0134478
1.0146395 1.0141673 1.0384625 1.0230343 0.9701795 0.9804063 1.0057809 1.0895666
0.9714478 0.97018427 1.0845909 1.0473891 1.0368736 0.9605631 1.108556 1.0305859
0.9804692 0.9780647 1.0938402 1.0213162 0.9939878 0.9215817 1.0401406 1.0955603
0.9390579 0.95215875 1.0248969 1.1211374 0.99041843 0.9168364 1.0662087 1.0580344
0.9818618 1.0137738 1.0669761 1.082215 0.9960182 0.9121584 1.0361264 1.067916
0.98706245 1.0090529 1.0520598 0.99789625 1.0231304 0.9725494 1.0989429 0.99328995
1.015557 0.97826445 0.9809157 1.0483109 1.0237283 0.95034385 1.0306385 1.0806867
1.0194753 1.005485 0.94935405 1.03581 0.9875197 1.0046268 1.0492026 1.0840056
0.96185154 0.9725284 1.0863835 1.0447721 0.9674614 0.98325926 1.1177536 1.0139512
0.99137396 0.9726911 1.0034794 1.0185332 0.9784519 0.99622846 1.0283201 1.0812442
0.9422901 0.91716164 1.0453508 1.0666788 1.0225745 1.0170817 1.0439817 0.9965417
0.97828335 0.9947978 1.0599302 1.0153599 0.9795014 1.0413038 1.1146485 1.0645376
0.99080086 0.9960098 1.126447 1.0562679 1.0216393 1.0220848 1.0670898 1.0209547
1.0130386 1.0598615 1.0894052 1.044798 0.9806638 1.089125 1.1238838 0.9905447
0.942317 1.0157777 1.0590507 1.0377663 1.0041283 1.0301646 1.0703491 1.1178967
0.9081024 0.9348263 0.9859245 1.0664439 0.9723914 0.97814316 0.99341995 1.112432
0.99546033 0.996295 1.0237184 1.0446255 0.9811355 1.0293732 1.0697381 1.0939202
0.9539227 1.0093564 1.0229114 1.1175954 0.96850276 1.0184047 1.0451131 1.0217396
0.99698067 0.973377 1.0146779 1.0544572 0.92912555 0.99054027 1.0451007 1.027646
0.97926676 0.916637 1.0631993 0.99635047 0.9979516 0.96416235 1.0247902 1.0459313
0.9772873 1.0131232 1.0362996 1.0781417 0.9778735 1.0447534 1.0324862 1.1287456
0.91895187 0.9670428 1.0515819 1.0484122 0.92539024 1.0299011 1.0332044 1.0632557
0.99909425 0.9875382 0.99614495 0.9888039 1.0260378 0.9371156 1.0407847 1.089709
0.96696883 1.0294974 1.087366 1.0777973 0.9951709 0.9777033 0.9928804 1.0845648
1.0214869 0.960567 1.0522267 1.1117904 0.9551411 0.95656115 1.0737638 1.0869398
0.9308257 0.9703928 1.019512 1.0746398 0.9375194 0.92480457 1.003563 1.058233
0.98216677 0.9710443 0.97633123 1.0345255 1.0307121 0.99000245 1.0861493 1.019102
1.0253503 1.0362675 1.0621524 1.0943283 0.9949846 0.9332742 1.0531387 1.043704
0.94413114 0.99073136 1.0207541 1.0543169 0.92811525 0.99114347 1.017296 1.137028
00000000: 4cc6 7b3f f7be 813f 1431 853f 9ccc 8d3f
00000010: 89bd 7f3f 07c6 6f3f 142f 8e3f 0afe 753f
00000020: 104f 723f 2964 703f 557e 833f 65c2 7c3f
00000030: daa3 7a3f 1577 763f c2f1 823f 7d15 763f
00000040: ddc8 833f 1af5 7d3f 4745 883f 8eab 8c3f
00000050: d8b7 723f c753 753f 6912 883f a8b8 813f
00000060: b5df 813f 3cd0 813f 57ec 843f caf2 823f
00000070: af5d 783f e8fb 7a3f 6ebd 803f eb76 8b3f
00000080: ceb0 783f ff5d 783f e0d3 8a3f d910 863f
00000090: 46b8 843f 77e7 753f 2ae5 8d3f 3dea 833f
000000a0: 0800 7b3f 7362 7a3f f502 8c3f 7dba 823f
000000b0: fc75 7e3f c7ec 6b3f 5423 853f 523b 8c3f
000000c0: 1966 703f adc0 733f d22f 833f 6e81 8f3f
000000d0: 108c 7d3f cab5 6a3f 8779 883f ac6d 873f
000000e0: 4c5b 7b3f 57c3 813f ac92 883f 0586 8a3f
000000f0: 0cfb 7e3f 3783 693f ca9f 843f 79b1 883f
00000100: 20b0 7c3f a528 813f e5a9 863f 2176 7f3f
00000110: f0f5 823f fff8 783f 29aa 8c3f 4048 7e3f
00000120: c6fd 813f 8a6f 7a3f 4b1d 7b3f 0d2f 863f
00000130: 8709 833f bc49 733f f6eb 833f f153 8a3f
00000140: 2b7e 823f bcb3 803f de08 733f 6c95 843f
00000150: 17ce 7c3f 9c97 803f 454c 863f b2c0 8a3f
00000160: e73b 763f 9ff7 783f 9d0e 8b3f 18bb 853f
00000170: 8dab 773f e1b6 7b3f 8d12 8f3f 27c9 813f
00000180: afca 7d3f 4902 793f 0372 803f 4c5f 823f
00000190: d37b 7a3f d408 7f3f fe9f 833f 3666 8a3f
000001a0: ed39 713f 1bcb 6a3f 0ece 853f ee88 883f
000001b0: b9e3 823f bc2f 823f 31a1 853f 5b1d 7f3f
000001c0: c770 7a3f 12ab 7e3f cbab 873f 50f7 813f
000001d0: 9bc0 7a3f 7149 853f cdac 8e3f c542 883f
000001e0: 20a5 7d3f 80fa 7e3f 6a2f 903f c933 873f
000001f0: 14c5 823f add3 823f 6696 883f a5ae 823f
00000200: 40ab 813f 8ba9 873f a171 8b3f f1bb 853f
00000210: c80c 7b3f 7368 8b3f 6ddb 8f3f 5694 7d3f
00000220: b03b 713f 0105 823f f98e 873f 87d5 843f
00000230: 4787 803f 6fdc 833f 3301 893f 3d17 8f3f
00000240: 6679 683f c750 6f3f 8c65 7c3f 3c81 883f
00000250: a5ee 783f 9767 7a3f c550 7e3f 2c64 8e3f
00000260: 7dd6 7e3f 300d 7f3f 3409 833f 4ab6 853f
00000270: b22b 7b3f 80c2 833f 2eed 883f 9405 8c3f
00000280: 4734 743f 9732 813f c3ee 823f 5e0d 8f3f
00000290: ccef 773f 165b 823f 44c6 853f 5dc8 823f
000002a0: 203a 7f3f 3c2f 793f f7e0 813f 74f8 863f
000002b0: 2cdb 6d3f 0c94 7d3f dcc5 853f e789 833f
000002c0: 3ab1 7a3f b9a8 6a3f ea16 883f d310 7f3f
000002d0: c279 7f3f 58d3 763f 532c 833f 14e1 853f
000002e0: 802f 7a3f 05ae 813f 77a5 843f 8c00 8a3f
000002f0: eb55 7a3f 7bba 853f 8228 843f bc7a 903f
00000300: 6e40 6b3f 1e90 773f 3c9a 863f 5f32 863f
00000310: 60e6 6c3f cdd3 833f 0b40 843f c318 883f
00000320: a4c4 7f3f 4ecf 7c3f 5b03 7f3f 4122 7d3f
00000330: 3555 833f cfe6 6f3f 6f38 853f 967b 8b3f
00000340: 458b 773f 92c6 833f cf2e 8b3f 43f5 893f
00000350: 85c3 7e3f c34a 7a3f 692d 7e3f 05d3 8a3f
00000360: 15c0 823f b8e7 753f 5daf 863f 264f 8e3f
00000370: 2184 743f 31e1 743f 1871 893f d820 8b3f
00000380: 984a 6e3f aa6b 783f 5f7f 823f cc8d 893f
00000390: 4501 703f febf 6c3f c174 803f 2e74 873f
000003a0: 486f 7b3f 5c96 783f d8f0 793f 556b 843f
000003b0: 60ee 833f cd70 7d3f f106 8b3f ef71 823f
000003c0: ae3e 833f 6aa4 843f 9cf4 873f f312 8c3f
000003d0: 50b7 7e3f 0feb 6e3f 40cd 863f 1898 853f
000003e0: 94b2 713f 92a0 7d3f 12a8 823f dbf3 863f
000003f0: f698 6d3f 94bb 7d3f c136 823f 228a 913f

fc_layers.1.bias f4 [816]
-0.09543509 -0.11889423 -0.024784701 0.027174927 -0.21504122 -0.08458064 -0.042144854 0.117216155
0.0707455 -0.037687603 -0.043099996 0.06927025 -0.014034597 -0.049592905 -0.0067421147 -0.11855117
-0.06457586 0.021334222 -0.007487356 0.029822662 -0.055248786 0.001861319 -0.059060756 0.024078643
-0.036163095 -0.08898496 -0.048286907 0.015197357 -0.09332727 -0.025443824 -0.029478284 -0.032379907
-0.1240099 0.07254066 0.0063828425 -0.02974431 -0.049389463 0.09810465 -0.013956778 -0.028860852
0.08418259 -0.10302907 -0.05457359 0.031023465 -0.11130355 -0.16104557 -0.082406014 -0.019852068
-0.030016752 0.0034470279 -0.03240098 -0.061020184 -0.18136488 0.006009273 -0.13340685 -0.023848198
-0.054008216 0.039420117 -0.002896419 0.039881814 -0.067815885 0.09639003 0.020032108 -0.032292034
-0.0305693 -0.028327271 -0.074519195 0.07336629 0.028208394 -0.07274913 -0.021604614 -0.03975112
-0.009687551 -0.0047947727 -0.019928822 0.05315507 -0.03984607 -0.015292474 -0.004252097 0.032964107
-0.0926491 0.03566596 0.007859822 0.047675814 -0.11483343 -0.09672348 -0.026536046 0.023631211
-0.100559734 -0.12014957 -0.0022688159 -0.01806726 -0.027930213 -0.053616762 0.07082004 -0.024720429
0.04393152 -0.057620496 0.029872462 -0.061855435 -0.03612106 -0.030468432 -0.08461545 -0.02126529
-0.043416392 0.051638275 -0.014771646 -0.048324607 -0.016946638 0.029117972 0.011220155 0.056259062
-0.023357453 -0.010574908 0.112785906 -0.027109202 -0.079819106 -0.0066629224 0.054905202 -0.05861336
-0.028659707 0.027238883 0.14788026 0.06446541 -0.17770907 -0.019105483 0.094182454 -0.05085839
-0.041597635 0.079176694 0.039147332 0.053692855 -0.09400846 -0.035450373 0.01888957 -0.04119257
0.04304769 0.06593716 0.10881149 -0.04781135 -0.019743292 0.053865876 0.08494836 0.122970685
0.012877555 -0.009666495 0.09294215 0.09400179 0.06817616 0.09783421 0.060022518 0.13161157
0.02236938 -0.058529466 0.0772567 0.045651477 0.0043625887 0.13503762 0.06991966 0.07822999
0.015893066 0.063796796 0.019897256 0.051481314 0.06154677 -0.073383234 0.034283653 -0.009047116
-0.10224606 -0.097339824 -0.019045388 0.024646416 0.1422201 0.10738535 0.034799747 0.09099735
-0.0004513241 0.012019562 0.08504105 0.05693686 0.09139925 0.21240708 0.06125759 0.078739196
0.091110386 0.017218515 0.06561579 0.09412322 -0.014614031 0.014815349 0.20369147 0.16807553
0.06374049 -0.012689557 0.039224777 -0.039345853 0.084161915 0.065628976 0.067340374 0.13862422
-0.034521163 0.004673239 0.063214056 0.11562953 0.106878296 0.13738193 0.015670178 0.14872593
-0.05321094 -0.042773176 0.065913305 -0.008833567 0.023287838 0.003537054 0.09550722 0.16157918
0.09518774 0.21216927 0.058465213 0.066124804 0.039063174 0.0872406 0.14078617 0.012230415
0.056730412 0.044072654 0.14728285 0.103449106 0.070081696 0.09938919 -0.04057301 0.019196259
-0.043059416 -0.012607016 0.060580418 0.03899628 0.06942315 0.036782097 0.023210702 0.088548675
0.14149533 0.14503086 0.027036777 0.099256 0.017624302 0.09666084 0.10629781 0.07811496
0.009581132 0.00744748 0.119419776 0.09559724 -0.007701255 -0.032507643 0.06692486 0.06022263
00000000: 7973 c3bd d17e f3bd 4909 cbbc f49d de3c
00000010: c433 5cbe 9d38 adbd 15a0 2cbd 060f f03d
00000020: 04e3 903d 515e 1abd 9f89 30bd 90dd 8d3d
00000030: 5ef1 65bc ee21 4bbd f5ec dcbb f5ca f2bd
00000040: 5940 84bd 1bc5 ae3c 7f58 f5bb a84e f43c
00000050: 8d4c 62bd 80f7 f33a b1e9 71bd 9340 c53c
00000060: c11f 14bd bf3d b6bd 7ec8 45bd 56fe 783c
00000070: 5e22 bfbd 916f d0bc 717c f1bc cba0 04bd
00000080: e7f8 fdbd 3390 943d 2a27 d13b 57aa f3bc
00000090: 9b4c 4abd 17eb c83d f8aa 64bc 986d ecbc
000000a0: ec67 ac3d e800 d3bd 8f88 5fbd ec24 fe3c
000000b0: 1ef3 e3bd 21e9 24be 7cc4 a8bd cea0 a2bc
000000c0: b1e5 f5bc 88e7 613b e4b6 04bd 4df0 79bd
000000d0: b7b7 39be 70e9 c43b ce9b 08be 4c5d c3bc
000000e0: b837 5dbd fd76 213d d9d1 3dbb 1d5b 233d
000000f0: 0ee3 8abd 2368 c53d 601a a43c a744 04bd
00000100: 786c fabc 980e e8bc 859d 98bd 1141 963d
00000110: 4a15 e73c 7ffd 94bd 29fc b0bc 12d2 22bd
00000120: 89b8 1ebc 781d 9dbb c541 a3bc 21b9 593d
00000130: a235 23bd 498d 7abc 2d55 8bbb 5f05 073d
00000140: d0be bdbd 7816 123d 7cc6 003c b747 433d
00000150: ca2d ebbd f616 c6bd 1f62 d9bc 3e96 c13c
00000160: 43f2 cdbd fa10 f6bd 6ab0 14bb ca01 94bc
00000170: e7cd e4bc 409d 5bbd 190a 913d 7f82 cabc
00000180: 8af1 333d 7803 6cbd 18b7 f43c 205c 7dbd
00000190: adf3 13bd ef98 f9bc dd4a adbd 8c34 aebc
000001a0: 63d5 31bd a882 533d c604 72bc 06f0 45bd
000001b0: add3 8abc d088 ee3c bed4 373c e76f 663d
000001c0: 2158 bfbc 6142 2dbc 4cfc e63d 1e14 debc
000001d0: 3378 a3bd a554 dabb 47e4 603d 9014 70bd
000001e0: c3c7 eabc 1424 df3c ec6d 173e 7106 843d
000001f0: 5ef9 35be 1a83 9cbc bbe2 c03d e350 50bd
00000200: 4862 2abd 6427 a23d f458 203d 0aed 5b3d
00000210: 8287 c0bd 6934 11bd 4dbe 9a3c 8ab9 28bd
00000220: c652 303d 100a 873d 8fd8 de3d d6d5 43bd
00000230: afbc a1bc 77a2 5c3d 68f9 ad3d 0ed8 fb3d
00000240: 61fc 523c 3860 1ebc 7458 be3d 0384 c03d
00000250: f19f 8b3d 4d5d c83d 2cda 753d 2fc5 063e
00000260: fd3f b73c 98bc 6fbd c338 9e3d 0bfd 3a3d
00000270: 0cf4 8e3b 4d47 0a3e 0a32 8f3d 0c37 a03d
00000280: 2d32 823c e5a7 823d 92ff a23c 12de 523d
00000290: 7718 7c3d f349 96bd 046d 0c3d 5b3a 14bc
000002a0: 6266 d1bd 1a5a c7bd 1305 9cbc 48e7 c93c
000002b0: 25a2 113e daec db3d 2e8a 0e3d d25c ba3d
000002c0: b29f ecb9 b2ed 443c 012a ae3d a036 693d
000002d0: 882f bb3d 3e81 593e 3de9 7a3d 0442 a13d
000002e0: 1598 ba3d d80d 8d3c 9261 863d adc3 c03d
000002f0: b06f 6fbc 14bc 723c 7f94 503e fe1b 2c3e
00000300: 608a 823d dce7 4fbc 29aa 203d 1e29 21bd
00000310: 155d ac3d 7c68 863d c0e9 893d 82f3 0d3e
00000320: 1066 0dbd f821 993b 5f76 813d 2dcf ec3d
00000330: 02e3 da3d d9ad 0c3e bf5e 803c 9c4b 183e
00000340: b7f3 59bd ed32 2fbd 8efd 863d aaba 10bc
00000350: 23c6 be3c ebcd 673b 4a99 c33d 0375 253e
00000360: caf1 c23d e742 593e 3879 6f3d 716c 873d
00000370: b500 203d 33ab b23d 402a 103e 1462 483c
00000380: 265e 683d 8785 343d 51d1 163e 20dd d33d
00000390: fe86 8f3d 8f8c cb3d e22f 26bd 7941 9d3c
000003a0: 125f 30bd a88d 4ebc 2c23 783d 90ba 1f3d
000003b0: b92d 8e3d d3a8 163d 5f24 be3c 0259 b53d
000003c0: 27e4 103e f882 143e 3b7c dd3c bb46 cb3d
000003d0: d760 903c 1ef6 c53d abb2 d93d bcfa 9f3d
000003e0: 2efa 1c3c fe09 f43b 5b92 f43d 7cc8 c33d
000003f0: cf5a fcbb bc26 05bd e70f 893d 01ac 763d

fc_layers.1.running_mean f4 [816]
0.3750487 0.061495356 0.001432302 6e-45 0.42200506 0.08684576 0.0054658717 0.0018560933
0.26028267 0.04657876 0.004496687 1.7442e-41 0.31827226 0.051431302 0.0058030165 0.00021235479
0.28113687 0.042006265 0.0010985836 6e-45 0.28438753 0.0454242 0.0015202346 6e-45
0.38708872 0.069622375 0.0064889058 0.0005791405 0.25953162 0.041276056 0.0037062785 0.00134521
0.17466225 0.037652303 0.0022737824 1.5761161e-05 0.17587979 0.02366068 0.0009901186 6e-45
0.23933625 0.047032475 0.0044504968 6e-45 0.27487028 0.04711886 0.002854159 9.365333e-07
0.36694828 0.085041486 0.008843092 7.3805924e-13 0.3919425 0.08701381 0.011335747 0.000888053
0.33157983 0.058181353 0.009378975 6e-45 0.38630226 0.11101506 0.021446321 6e-45
0.21751574 0.031305924 5.5301416e-07 6e-45 0.18274549 0.03212808 0.002183591 0.0009806583
0.35260063 0.07399836 0.00658724 6e-45 0.3107816 0.06091099 0.0071518156 0.00052136066
0.37761858 0.083111115 0.015148502 1.0566857e-05 0.35093603 0.0809854 0.004058656 0.00015576444
0.3757757 0.071331784 0.0028578949 6e-45 0.39076412 0.099683695 0.0019297488 8.0495444e-10
0.39647034 0.095276035 0.0025291836 2.960306e-29 0.37804013 0.06519717 0.016215995 6e-45
0.37252718 0.08908912 0.016328627 3.6957872e-13 0.20313643 0.028212037 6.310431e-05 6e-45
0.11683764 0.015833965 0.0020254394 3.3390558e-07 0.12151686 0.011988279 0.0074820397 0.00025024157
0.08871252 0.009408174 0.0045706443 6e-45 0.15401393 0.020379132 0.004119028 0.00011615026
0.1198001 0.012535526 1.3372331e-06 6e-45 0.12251662 0.014254873 0.00095515704 6e-45
0.620186 0.3213569 0.1104723 0.019594014 0.61112726 0.28748155 0.09708955 0.012900675
0.6365346 0.37512016 0.1673598 0.035973735 0.6268455 0.3272725 0.13532203 0.038608033
0.6508465 0.38933697 0.18907073 0.03719364 0.63925904 0.34058294 0.12863232 0.02693817
0.6042406 0.32880846 0.11666437 0.029873583 0.6295377 0.3697064 0.17685644 0.048336126
0.66551775 0.37837082 0.1736405 0.04980942 0.6764465 0.4169517 0.1918549 0.044020467
0.6645449 0.38703924 0.18317734 0.04884538 0.6528382 0.37139758 0.16412777 0.035803027
0.6060527 0.2837543 0.09835293 0.016840667 0.5781783 0.3092774 0.11314485 0.01986096
0.6011696 0.3258125 0.13024127 0.030032782 0.60992306 0.31505334 0.10021809 0.013310008
0.66786253 0.416272 0.170865 0.06103769 0.6640241 0.40558147 0.17588852 0.05452341
0.6136904 0.32644638 0.1279094 0.030980473 0.6274345 0.34137708 0.12721695 0.02774234
0.59544957 0.2994856 0.094501965 0.018617345 0.5940812 0.28479978 0.09487416 0.016752228
0.638315 0.33606353 0.1093187 0.018741941 0.62524265 0.2639246 0.09241458 0.031903733
0.60667604 0.30251598 0.0691692 0.0067094 0.63071704 0.32637486 0.11659503 0.017522145
0.62818944 0.32757092 0.119265586 0.031674378 0.7059639 0.44217554 0.20586474 0.050044153
0.75985837 0.4690564 0.19867623 0.048705067 0.74987805 0.44723684 0.1622417 0.052677996
00000000: 6206 c03e 8ee2 7b3d 14bc bb3a 0400 0000
00000010: 0c11 d83e 31dc b13d 0e1b b33b 2848 f33a
00000020: c543 853e 5fc9 3e3d f258 933b 9f30 0000
00000030: 95f4 a23e a1a9 523d 3b27 be3b 8eab 5e39
00000040: 2cf1 8f3e c30e 2c3d 59fe 8f3a 0400 0000
00000050: 3e9b 913e ba0e 3a3d 9c42 c73a 0400 0000
00000060: 7e30 c63e 2d96 8e3d e3a0 d43b 76d1 173a
00000070: 54e1 843e 1511 293d 09e5 723b c251 b03a
00000080: a9da 323e 4d39 1a3d bd03 153b d636 8437
00000090: d519 343e 0bd4 c13c dec6 813a 0400 0000
000000a0: 9014 753e 20a5 403d 79d5 913b 0400 0000
000000b0: ccbb 8c3e b5ff 403d d80c 3b3b 1466 7b35
000000c0: a5e0 bb3e 3b2a ae3d 9ee2 103c c6be 4f2b
000000d0: b0ac c83e 4c34 b23d 92b9 393c 3acc 683a
000000e0: d5c4 a93e 924f 6e3d 46aa 193c 0400 0000
000000f0: 69c9 c53e dd5b e33d 32b0 af3c 0400 0000
00000100: 72bc 5e3e a43a 003d d872 1435 0400 0000
00000110: a221 3b3e bc98 033d 941a 0f3b 6f89 803a
00000120: 1288 b43e 748c 973d c6d9 d73b 0400 0000
00000130: c41e 9f3e cd7d 793d c759 ea3b ecab 083a
00000140: 3957 c13e 2936 aa3d 6c31 783c 4e48 3137
00000150: e3ad b33e acdb a53d 79fe 843b b354 2339
00000160: ac65 c03e 6616 923d 854b 3b3b 0400 0000
00000170: 3c12 c83e f726 cc3d a0ef fc3a a243 5d30
00000180: 29fe ca3e 1520 c33d a9c0 253b f81a 1610
00000190: 7a8e c13e 1886 853d 68d7 843c 0400 0000
000001a0: e2bb be3e 5b74 b63d 9dc3 853c e80d d02a
000001b0: ff02 503e ee1c e73c de56 8438 0400 0000
000001c0: 9348 ef3d 3bb6 813c 3cbd 043b a243 b334
000001d0: d5dd f83d 7d6a 443c e62b f53b db32 8339
000001e0: e9ae b53d be24 1a3c 58c5 953b 0400 0000
000001f0: d4b5 1d3e 23f2 a63c e9f8 863b b295 f338
00000200: c159 f53d cf61 4d3c fb7a b335 0400 0000
00000210: fee9 fa3d 458d 693c 8163 7a3a 0400 0000
00000220: 82c4 1e3f e488 a43e 4d3f e23d a083 a03c
00000230: d672 1c3f c830 933e e3d6 c63d 5a5d 533c
00000240: eef3 223f c00f c03e 5e60 2b3e 3259 133d
00000250: f278 203f 4390 a73e dc91 0a3e 7523 1e3d
00000260: e09d 263f 2d57 c73e c29b 413e 5c58 183d
00000270: 7ba6 233f e360 ae3e 31b8 033e 70ad dc3c
00000280: 83af 1a3f 9559 a83e bbed ee3d 72b9 f43c
00000290: 6229 213f 284a bd3e db19 353e 1afc 453d
000002a0: 5f5f 2a3f d2b9 c13e d1ce 313e f604 4c3d
000002b0: 992b 2d3f b17a d53e 9c75 443e ce4e 343d
000002c0: 9d1f 2a3f 022a c63e d792 3b3e 1812 483d
000002d0: 6720 273f d327 be3e 1c11 283e 32a6 123d
000002e0: 4526 1b3f 3e48 913e 436d c93d 70f5 893c
000002f0: 7e03 143f 9b59 9e3e 7db8 e73d 74b3 a23c
00000300: 40e6 193f e5d0 a63e f85d 053e 4f07 f63c
00000310: eb23 1c3f ac4e a13e 243f cd3d 3812 5a3c
00000320: 0af9 2a3f 9b21 d53e 3cf7 2e3e a802 7a3d
00000330: 7cfd 293f 60a8 cf3e 1f1c 343e f053 5f3d
00000340: d01a 1d3f fb23 a73e affa 023e c3ca fd3c
00000350: 8c9f 203f fac8 ae3e 2945 023e e743 e33c
00000360: 626f 183f 2d56 993e 3f8a c13d 6783 983c
00000370: b515 183f 47d1 913e 624d c23d f83b 893c
00000380: 9d68 233f 8510 ac3e 7ce2 df3d b388 993c
00000390: e70f 203f 2021 873e db43 bd3d 7dad 023d
000003a0: 1f4f 1b3f 60e3 9a3e 95a8 8d3d 87da db3b
000003b0: ac76 213f 9b1a a73e 60c9 ee3d 9a8a 8f3c
000003c0: 06d1 203f 60b7 a73e 8441 f43d febc 013d
000003d0: 0dba 343f d564 e23e 35ce 523e 19fb 4c3d
000003e0: 1486 423f 2928 f03e c871 4b3e f77e 473d
000003f0: 02f8 3f3f 3afc e43e b022 263e e2c4 573d

fc_layers.1.running_var f4 [816]
0.23422913 0.057358313 0.0014322784 6e-45 0.24480568 0.079130985 0.0054494673 0.0018560933
0.19295849 0.044710264 0.004496687 1.7442e-41 0.21908864 0.049120106 0.005791017 0.00021235479
0.20265004 0.04024191 0.0010923522 6e-45 0.20363441 0.04360723 0.0015202346 6e-45
0.24086003 0.06523835 0.00647037 0.0005791405 0.19085668 0.040070534 0.0036993562 0.00134521
0.14411151 0.036252964 0.002273778 1.5761161e-05 0.14632374 0.023340454 0.0009901186 6e-45
0.1817863 0.045554172 0.0044504968 6e-45 0.20174316 0.04531257 0.002854159 9.365333e-07
0.23345828 0.07781693 0.008710803 7.3805924e-13 0.24050869 0.07873915 0.0112534575 0.000888053
0.22370403 0.055247694 0.009300865 6e-45 0.23948742 0.09964001 0.021144137 6e-45
0.17158844 0.030139567 5.5301416e-07 6e-45 0.14951584 0.031306066 0.0021200588 0.0009806583
0.22583288 0.068907596 0.00658724 6e-45 0.21227957 0.057890896 0.0071518156 0.00052136066
0.23041245 0.07712171 0.014924215 1.0566857e-05 0.22468384 0.07427172 0.0040491596 0.00015576444
0.23340392 0.066279024 0.0028578949 6e-45 0.23984934 0.09058888 0.0019292503 8.0495444e-10
0.23752032 0.08717306 0.0025291834 2.960306e-29 0.2324188 0.061215527 0.016038181 6e-45
0.23130967 0.08089849 0.016156925 3.6957872e-13 0.16211389 0.026495816 6.310431e-05 6e-45
0.10302693 0.015421633 0.002025439 3.3390558e-07 0.10830501 0.011785209 0.0074621835 0.00025024157
0.08109425 0.00940733 0.0045706443 6e-45 0.13047513 0.019960126 0.004119028 0.00011615026
0.10670613 0.01253061 1.3372331e-06 6e-45 0.10700934 0.014157007 0.00095515704 6e-45
0.23546126 0.21760263 0.09837185 0.018664379 0.23966959 0.20556487 0.08731701 0.012609705
0.2323399 0.23403771 0.13922092 0.034848567 0.2342957 0.21985865 0.117237054 0.03733868
0.22889362 0.24040076 0.15442675 0.034574095 0.22904247 0.2249823 0.110594034 0.026570808
0.23985764 0.2215434 0.10125142 0.029281002 0.23452292 0.2331248 0.1463198 0.045884833
0.22455156 0.23610716 0.14407456 0.04640916 0.22216825 0.24398482 0.15463838 0.04212413
0.22465402 0.23140155 0.146233 0.046730667 0.22832897 0.23487985 0.13883133 0.03437322
0.23824596 0.20278382 0.08905155 0.01660623 0.24081142 0.21076189 0.10014799 0.019550307
0.23994793 0.22363618 0.11354839 0.029040016 0.24029993 0.21847497 0.089329526 0.012888349
0.2218489 0.23965295 0.14065813 0.057230834 0.22421455 0.24146073 0.1448805 0.052096684
0.2371282 0.22044235 0.11266759 0.030020202 0.2355481 0.22534704 0.11215342 0.027253978
0.24206077 0.2116991 0.08653466 0.018170267 0.24194682 0.20526509 0.08566451 0.016598038
0.22977279 0.22211578 0.09781197 0.018436112 0.23517318 0.19500364 0.084727004 0.031177064
0.23713133 0.21111444 0.065187536 0.0065976316 0.2327377 0.22167934 0.103294395 0.01716352
0.22956854 0.22024474 0.105717294 0.030862518 0.20966603 0.24416275 0.16281272 0.047469687
0.1813212 0.24797866 0.15794006 0.04684051 0.19023395 0.2493681 0.13623956 0.050648384
00000000: c3d9 6f3e 8df0 6a3d 4abb bb3a 0400 0000
00000010: 57ae 7a3e 6d0f a23d 7291 b23b 2848 f33a
00000020: e996 453e 1c22 373d f258 933b 9f30 0000
00000030: c658 603e 2a32 493d 92c2 bd3b 8eab 5e39
00000040: 7e83 4f3e b3d4 243d 422d 8f3a 0400 0000
00000050: 8a85 503e 7f9d 323d 9c42 c73a 0400 0000
00000060: 03a4 763e af9b 853d 6605 d43b 76d1 173a
00000070: ef6f 433e 0021 243d e670 723b c251 b03a
00000080: f891 133e fd7d 143d aa03 153b d636 8437
00000090: e4d5 153e 7b34 bf3c dec6 813a 0400 0000
000000a0: 3026 3a3e 0397 3a3d 79d5 913b 0400 0000
000000b0: c295 4e3e ac99 393d d80c 3b3b 1466 7b35
000000c0: b00f 6f3e 7c5e 9f3d c2b7 0e3c c6be 4f2b
000000d0: e947 763e fe41 a13d 6c60 383c 3acc 683a
000000e0: ab12 653e 684b 623d a862 183c 0400 0000
000000f0: 313c 753e 1010 cc3d 7836 ad3c 0400 0000
00000100: e1b4 2f3e 41e7 f63c d872 1435 0400 0000
00000110: ae1a 193e ca3a 003d aff0 0a3b 6f89 803a
00000120: bc40 673e 6d1f 8d3d c6d9 d73b 0400 0000
00000130: d15f 593e 011f 6d3d c759 ea3b ecab 083a
00000140: 3ef1 6b3e fdf1 9d3d b284 743c 4e48 3137
00000150: 8513 663e c61b 983d d0ae 843b b354 2339
00000160: 7001 6f3e 4cbd 873d 854b 3b3b 0400 0000
00000170: 119b 753e aa86 b93d e6de fc3a a243 5d30
00000180: 8738 733e ca87 b23d a8c0 253b f81a 1610
00000190: 32ff 6d3e 22bd 7a3d 8162 833c 0400 0000
000001a0: 71dc 6c3e 1cae a53d 875b 843c e80d d02a
000001b0: 2f01 263e c10d d93c de56 8438 0400 0000
000001c0: c8ff d23d 04ab 7c3c 3abd 043b a243 b334
000001d0: 04cf dd3d c016 413c 5585 f43b db32 8339
000001e0: be14 a63d 3421 1a3c 58c5 953b 0400 0000
000001f0: 469b 053e 6b83 a33c e9f8 863b b295 f338
00000200: be88 da3d 304d 4d3c fb7a b335 0400 0000
00000210: b627 db3d cbf2 673c 8163 7a3a 0400 0000
00000220: c21c 713e 39d3 5e3e 2e77 c93d 0ae6 983c
00000230: f26b 753e 997f 523e 43d3 b23d f098 4e3c
00000240: 83ea 6d3e 95a7 6f3e ee8f 0e3e 5fbd 0e3d
00000250: 36eb 6f3e a022 613e fb19 f03d 72f0 183d
00000260: 1763 6a3e 9e2b 763e 0c22 1e3e 919d 0d3d
00000270: 1c8a 6a3e c361 663e 207f e23d 06ab d93c
00000280: 3e9d 753e 46dc 623e e85c cf3d b6de ef3c
00000290: c726 703e 44b8 6e3e dcd4 153e bcf1 3b3d
000002a0: d8f0 653e 13c6 713e 4888 133e 8817 3e3d
000002b0: 1380 633e 28d7 793e 8659 1e3e 5a8a 2c3d
000002c0: b40b 663e 87f4 6c3e 1bbe 153e a868 3f3d
000002d0: 12cf 693e 5884 703e cd29 0e3e efca 0c3d
000002e0: c0f6 733e 90a6 4f3e a960 b63d ca09 883c
000002f0: 4597 763e f7d1 573e 641a cd3d f727 a03c
00000300: e9b4 753e e200 653e 0f8c e83d 54e5 ed3c
00000310: 2f11 763e e7b7 5f3e 66f2 b63d a729 533c
00000320: 5c2c 633e 9567 753e af08 103e e16a 6a3d
00000330: 8098 653e 7b41 773e 8e5b 143e 5563 553d
00000340: bcd1 723e a4bb 613e 44be e63d edec f53c
00000350: 8533 713e 60c1 663e b1b0 e53d bc43 df3c
00000360: c7de 773e a6c7 583e 1539 b13d d0d9 943c
00000370: e8c0 773e 0331 523e e070 af3d 9cf8 873c
00000380: 8f49 6b3e 5272 633e a451 c83d 5407 973c
00000390: 3dd1 703e 09af 473e 5a85 ad3d 0b67 ff3c
000003a0: 8ed2 723e 622e 583e 0b81 853d f230 d83b
000003b0: cb52 6e3e e9ff 623e 038c d33d 839a 8c3c
000003c0: 0414 6b3e d687 613e 4f82 d83d 64d3 fc3c
000003d0: b1b2 563e cd05 7a3e 61b8 263e 936f 423d
000003e0: 44ac 393e 1eee 7d3e 0abb 213e d6db 3f3d
000003f0: b0cc 423e 5a5a 7f3e 6282 0b3e ae74 4f3d

fc_layers.2.weight f4 [64, 816]
-0.00115296 -1.010384e-05 -0.05208246 -0.16762377 0.06191928 0.0015543037 0.17688684 0.04942506
-0.06217143 -0.057516593 -0.003106123 -0.10045895 0.03448856 -0.091375306 0.101642445 -0.06729972
-0.048032716 0.0053197555 0.115188055 -0.071195655 -0.036452405 0.015093817 -0.07191086 0.032225978
0.081819445 -0.08093225 0.03556819 -0.12587251 -0.04445071 0.027008358 0.007241635 0.033519782
0.009631211 -0.053170018 0.12024361 0.13156486 0.003191972 -0.08855479 -0.011621557 0.06902008
-0.0072735567 0.045063205 -0.04054306 -0.056859814 0.098042645 0.04120647 -0.085667096 0.07079796
0.018440137 -0.08395324 -0.00716992 0.09501714 0.013104377 0.049066752 0.14858331 0.12829633
-0.09152649 -0.11067518 0.17613211 -0.102194175 0.06777556 -0.012535489 -0.12532012 -0.00546117
0.06457639 -0.04396984 -0.15516855 -0.014696634 0.08769513 0.048126157 0.14393955 0.11078544
-0.05947488 -0.041848406 -0.011295362 -0.13524717 0.004353366 -0.023668468 -0.08175517 -0.008333913
-0.040518228 -0.029612172 0.053316522 -0.022754624 0.024265567 -0.030489909 0.017218392 -0.17445415
0.009475282 -0.013229512 -0.044249322 0.03313977 -0.020101923 0.08971744 0.09548944 0.07231712
-0.05640655 -0.03919472 -0.023806851 0.05660317 0.029461188 0.019088702 -0.01666533 0.031747438
0.038546752 0.01642915 -0.05631495 0.111142285 -0.02681685 -0.008964255 -0.07722308 -0.124423556
0.045896396 0.028797243 -0.021310728 0.09856381 -0.004748336 0.044626962 -0.045313537 0.11460881
0.024314372 -0.008473429 0.04250326 0.033784296 0.057298835 0.03375253 -0.023752954 -0.020272225
-0.016084878 0.022516992 0.024305448 -0.12045554 -0.018518668 0.0800057 0.2422706 0.07941233
0.053647574 -0.112292565 -0.13883395 -0.103490666 -0.04149263 -0.016278172 0.0063616526 -0.079898596
-0.038047183 -0.01904175 0.07456351 0.0098423865 0.0059614577 -0.08137924 -0.0031921058 -0.022794439
0.0106914835 -0.018024715 0.028494736 0.01223534 0.033968832 -0.13599221 0.0073464694 -0.028412877
0.060984362 -0.014107373 -0.046261296 -0.10398287 0.06042892 -0.0044960296 -0.04599761 0.042096786
-0.059089765 0.10635578 0.013051226 -0.009940046 -0.06660291 0.066903956 0.021193242 -0.1258847
0.007937761 0.09457099 -0.004297668 -0.023299424 -0.027195519 0.0030567413 0.025743056 -0.0591329
-0.037485037 0.085384004 -0.04457687 -0.109580144 0.016737863 0.038861316 -0.055215944 -0.09413932
0.050663263 0.04354167 0.058603346 -0.08239444 0.039772093 0.04448689 0.016132366 -0.055108834
0.060626768 -0.029138932 1.42004255e-05 -0.059050884 -0.08032588 -0.07504676 -0.106305346 -0.058446407
0.08608301 0.06339159 -0.004483065 -0.06963275 -0.013580238 -0.08249639 0.023962326 -0.01059489
-0.029883081 0.03437591 -0.10240305 -0.037327137 -0.053227 -0.08388113 0.014202713 0.04283031
0.08717463 -0.002784586 -0.016318088 -0.12395604 -0.09037677 0.034010325 -0.038369566 -0.049509116
-0.009300786 -0.01616602 0.034840174 0.06198065 0.03576553 0.0777734 0.062202748 0.07239731
-0.06459569 -0.0034557325 -0.10906365 -0.101836324 -0.050576627 0.016433904 -0.10584803 -0.10635239
-0.0015503146 0.07331306 -0.08428998 -0.04082303 0.11070709 0.040882714 0.05526593 -0.016363684
00000000: eb1e 97ba aa83 29b7 6b54 55bd 91a5 2bbe
00000010: 129f 7d3d c7b9 cb3a d321 353e ef71 4a3d
00000020: 78a7 7ebd 8596 6bbd 1990 4bbb 6cbd cdbd
00000030: e043 0d3d fa22 bbbd ea29 d03d 70d4 89bd
00000040: f4bd 44bd 5851 ae3b b7e7 eb3d 07cf 91bd
00000050: 1e4f 15bd 0f4c 773c 0046 93bd 63ff 033d
00000060: f490 a73d cfbf a5bd f3af 113d b9e4 00be
00000070: f311 36bd a240 dd3c 3d4b ed3b 0a4c 093d
00000080: 3acc 1d3c cec8 59bd 4842 f63d f0b8 063e
00000090: 6730 513b 375c b5bd 5868 3ebc 665a 8d3d
000000a0: 0457 eebb 3294 383d 7b10 26bd d6e5 68bd
000000b0: 95ca c83d 1ec8 283d 3b72 afbd 85fe 903d
000000c0: c50f 973c adef abbd a6f1 eabb 5998 c23d
000000d0: beb3 563c 38fa 483d 3926 183e 1d60 033e
000000e0: 3e72 bbbd aba9 e2bd fa5b 343e 2e4b d1bd
000000f0: eacd 8a3d a761 4dbc eb53 00be 9df3 b2bb
00000100: a040 843d b819 34bd 81e4 1ebe 27ca 70bc
00000110: 8199 b33d ef1f 453d e464 133e 7ae3 e23d
00000120: ef9b 73bd 3c69 2bbd 2f10 39bc 3c7e 0abe
00000130: aea6 8e3b 60e4 c1bc 416f a7bd f78a 08bc
00000140: 71f6 25bd 3a95 f2bc 6d62 5a3d e867 babc
00000150: 95c8 c63c f9c5 f9bc 960d 8d3c 1ca4 32be
00000160: 373e 1b3c 98c0 58bc c73e 35bd 91bd 073d
00000170: caac a4bc c7bd b73d f88f c33d 001b 943d
00000180: 8e0a 67bd a58a 20bd 9606 c3bc bad8 673d
00000190: 9758 f13c e95f 9c3c bb85 88bc 9a09 023d
000001a0: 33e3 1d3d 6d96 863c 81aa 66bd 919e e33d
000001b0: 03af dbbc d0de 12bc 2227 9ebd c7d1 febd
000001c0: dcfd 3b3d 32e8 eb3c d693 aebc d3db c93d
000001d0: ee97 9bbb c3ca 363d b09a 39bd 06b8 ea3d
000001e0: ef2e c73c 23d4 0abc e617 2e3d 6761 0a3d
000001f0: 2fb2 6a3d 1840 0a3d 8e95 c2bc f011 a6bc
00000200: 6fc4 83bc 8e75 b83c 381c c73c 65b1 f6bd
00000210: 76b4 97bc 07da a33d c915 783e efa2 a23d
00000220: 8fbd 5b3d a5f9 e5bd 7d2a 0ebe eaf2 d3bd
00000230: 2df4 29bd cd59 85bc 6975 d03b e0a1 a3bd
00000240: 5dd7 1bbd 72fd 9bbc c1b4 983d f641 213c
00000250: 5558 c33b 29aa a6bd a632 51bb 67bb babc
00000260: 552b 2f3c 91a8 93bc cb6d e93c bc76 483c
00000270: e722 0b3d 8b41 0bbe a7ba f03b 1fc2 e8bc
00000280: bdca 793d 9c22 67bc 7c7c 3dbd f9f4 d4bd
00000290: 5184 773d 6e53 93bb fd67 3cbd ae6d 2c3d
000002a0: 1c08 72bd 0fd1 d93d cfd4 553c 93db 22bc
000002b0: 1b67 88bd f104 893d 739d ad3c ebe7 00be
000002c0: 620d 023c 6fae c13d 74d3 8cbb 6fde bebc
000002d0: 23c9 debc 9c53 483b 1ae3 d23c 5735 72bd
000002e0: e989 19bd cfdd ae3d 3c96 36bd 8e6b e0bd
000002f0: d81d 893c 0b2d 1f3d 1d2a 62bd 1ecc c0bd
00000300: 4884 4f3d c058 323d 100a 703d 6bbe a8bd
00000310: 10e8 223d e337 363d 0628 843c cdb9 61bd
00000320: c653 783d c5b4 eebc 5d3e 6e37 57df 71bd
00000330: e581 a4bd 1eb2 99bd 9eb6 d9bd 8065 6fbd
00000340: 4a4c b03d 73d3 813d ade6 92bb 9d9b 8ebd
00000350: a67f 5ebc def3 a8bd a44c c43c 3196 2dbc
00000360: 5dcd f4bc c1cd 0c3d b1b8 d1bd 57e4 18bd
00000370: 8e04 5abd dfc9 abbd 7fb2 683c d66e 2f3d
00000380: 9d88 b23d 9a7d 36bb 83ad 85bc aadc fdbd
00000390: 7517 b9bd 694e 0b3d 6829 1dbd 12ca 4abd
000003a0: 5362 18bc 9a6e 84bc 92b4 0e3d 6cdf 7d3d
000003b0: e07e 123d a947 9f3d 4fc8 7e3d 0a45 943d
000003c0: bf4a 84bd 9279 62bb c35c dfbd 908f d0bd
000003d0: 7029 4fbd 65a0 863c dac6 d8bd 48cf d9bd
000003e0: ed33 cbba 2825 963d 3aa0 acbd 0d36 27bd
000003f0: 66ba e23d a274 273d 875e 623d 220d 86bc

fc_layers.2.bias f4 [64]
-0.020172028 0.012726033 0.09555804 -0.0067113973 0.001876598 0.009060024 -0.029983917 -0.015960846
-0.02079204 -0.094547495 -0.0387287 -0.008788569 0.007021718 0.032638434 -0.059444048 0.06547509
0.1362243 0.0003777967 0.0058612707 -0.0063858307 0.031732343 0.07075591 -4.9871447e-05 -0.009962588
-0.005983991 0.04542138 0.15683767 -0.08979846 0.10609136 -0.009058031 0.06339574 0.046939366
0.07758748 0.019969683 0.04242205 0.0980555 -0.045368582 0.026956977 -0.053926583 -0.0377373
0.0053814477 0.025711343 0.03933952 0.050930362 -0.055052567 0.034416962 0.012795768 0.025941463
0.0038003908 -0.047256894 -0.045073997 -0.008986564 -0.0049949246 0.005717008 0.024008071 -0.03123457
0.14062285 -0.048111238 -0.01903664 -0.026303923 -0.0024817 0.042645812 -0.03048405 0.034384586
00000000: cf3f a5bc da80 503c efb3 c33d 48eb dbbb
00000010: 2ef8 f53a 7f70 143c d5a0 f5bc 52c0 82bc
00000020: 1154 aabc 1ea2 c1bd fca1 1ebd eefd 0fbc
00000030: 7116 e63b e1af 053d 9a7b 73bd ce17 863d
00000040: 627e 0b3e 0413 c639 e70f c03b 3b40 d1bb
00000050: c6f9 013d 79e8 903d 0f2d 51b8 1f3a 23bc
00000060: 5b15 c4bb c50b 3a3d 0e9a 203e 41e8 b7bd
00000070: 6d46 d93d 2368 14bc a0d5 813d 7e43 403d
00000080: 2fe6 9e3d 7697 a33c bec2 2d3d 52d1 c83d
00000090: 68d4 39bd e1d4 dc3c 1fe2 5cbd 6d92 1abd
000000a0: db56 b03b 98a0 d23c 7a22 213d 5b9c 503d
000000b0: cd7e 61bd cdf8 0c3d 57a5 513c 3183 d43c
000000c0: fa0f 793b 7290 41bd 839f 38bd 623c 13bc
000000d0: 77ac a3bb bd55 bb3b 93ac c43c a4df ffbc
000000e0: 70ff 0f3e 4a10 45bd baf2 9bbc 537b d7bc
000000f0: 04a4 22bb 60ad 2e3d b0b9 f9bc dad6 0c3d

fc_layers.4.weight f4 [64, 64]
0.26007587 0.0031132023 0.11463401 0.5766965 -0.3589124 0.26006174 -0.0006367182 -0.27929232
0.040125035 -0.13131872 -0.21998324 -0.10196334 0.13769273 -0.5293424 -0.104419425 0.120452896
0.0029779559 0.012111273 -0.22782953 -0.26301527 -0.10050885 0.24902667 0.35743603 0.19875018
-0.28511792 -0.36195982 0.10375207 0.17737721 0.17806698 -0.461765 -0.041705385 0.34418553
-0.09789223 0.18035251 -0.2691585 -0.058706574 -0.2841911 0.13978267 0.17647707 -0.41867787
-0.20257583 0.22232929 0.108446784 -0.062426902 -0.16703501 -0.49931425 -0.19351467 -0.04173779
-0.012526635 0.18214835 -0.2175735 -0.16208363 -0.4080286 0.3254059 -0.023464313 -0.17283916
-0.07938718 0.048566256 0.32623947 0.20608243 -0.12625438 0.23588105 -0.29467526 -0.058367748
-0.351526 -0.09796502 -0.14834784 -0.3160389 0.47189242 -0.2846051 0.09505206 0.13399202
0.33625567 0.4119377 0.0099959355 0.11770477 -0.09537198 0.41042566 0.1800156 -0.29872218
-0.35129842 0.30031276 0.048042204 0.20378181 0.44991252 -0.32639632 -0.056896698 -0.37052965
0.25760463 0.36991304 -0.17389715 0.054760545 -0.15472233 0.4319615 -0.11374876 -0.19128703
-0.056711223 -0.21474397 0.2666213 -0.28288105 0.1429109 -0.3435505 -0.2289292 0.40538645
0.18163209 -0.18149203 0.22663242 -0.22959954 0.35840252 0.06146702 0.35594437 0.5110896
-0.3149739 -0.13171558 0.16670114 0.3232962 0.112761036 -0.17845887 0.40383697 0.24462982
-0.31435454 -0.18357721 -0.18404971 -0.23451309 0.35161227 -0.23790897 0.3070382 -0.010417212
-0.33575848 -0.21941069 -0.28250897 -0.080304146 0.30618066 -0.29658294 0.34544143 0.27215979
0.23154797 0.110821396 0.26204824 0.16548194 -0.27806404 0.3764438 0.15190607 -0.12958427
-0.3523206 0.27895153 0.19661614 0.4066506 0.17344125 -0.33300072 -0.1769221 -0.24781
0.42003408 0.32689276 -0.20789447 0.16400994 -0.35655063 0.27245152 -0.31096905 -0.13759238
-0.059634153 -0.25789472 0.4389969 -0.28472927 0.36057132 -0.3615417 -0.09709693 0.10115154
0.33262 -0.42108876 0.12122555 -0.20161173 0.31746122 0.30038702 0.25730065 0.41161802
-0.25542367 -0.3804235 0.18905485 0.09246673 0.09810733 -0.30152336 0.087603904 0.2294399
-0.37672353 -0.3314648 -0.17747232 -0.25299823 0.23252714 -0.12389427 0.35285485 -0.17341964
-0.35323226 -0.31696582 -0.11873572 -0.31181633 0.15527825 -0.12233875 0.12020063 0.08895208
0.22733994 0.239273 0.10885088 0.10001169 -0.3301074 0.27947748 0.26601574 -0.3478755
-0.3616327 0.223268 0.33344248 0.15604576 0.4273329 -0.106954604 -0.14842983 -0.27133605
0.22034599 0.3113245 -0.017638708 0.12770185 -0.32727614 0.31826848 -0.2795386 -0.33511248
-0.26674253 -0.31743538 0.14043705 -0.18924485 0.20389497 -0.34820065 -0.29439408 0.06651166
0.2327002 -0.24406153 0.241405 -0.32284328 0.29588348 0.13015245 0.3939959 0.40002212
-0.24954212 -0.29116917 0.11793231 0.33981222 0.28233334 -0.32142684 0.055123445 0.2758377
-0.22469494 -0.1402851 -0.39372244 -0.29243666 0.27758983 -0.34531745 0.22386625 -0.1688665
00000000: aa28 853e de06 4c3b 3cc5 ea3d 62a2 133f
00000010: 5ec3 b7be d026 853e 6fe9 26ba 67ff 8ebe
00000020: 265a 243d 6a78 06be 4943 61be 28d2 d0bd
00000030: 53ff 0c3e fc82 07bf dad9 d5bd 02b0 f63d
00000040: cf29 433b 5c6e 463c 254c 69be f0a9 86be
00000050: 95d7 cdbd d900 7f3e db01 b73e 2b85 4b3e
00000060: fafa 91be cc52 b9be f77b d43d 5fa2 353e
00000070: 3157 363e 766c ecbe 44d3 2abd 1639 b03e
00000080: b97b c8bd 54ae 383e 25cf 89be 4e76 70bd
00000090: 7f81 91be 3023 0f3e 68b6 343e f25c d6be
000000a0: 0a70 4fbe 4aaa 633e 5919 de3d 5ab3 7fbd
000000b0: 3a0b 2bbe 1ea6 ffbe b628 46be 3ff5 2abd
000000c0: 843c 4dbc 1985 3a3e 96cb 5ebe 40f9 25be
000000d0: 20e9 d0be 9a9b a63e 3b38 c0bc c0fc 30be
000000e0: bf95 a2bd 69ed 463d dc08 a73e 4607 533e
000000f0: d448 01be cd8a 713e addf 96be 0513 6fbd
00000100: 37fb b3be e2a1 c8bd 7fe8 17be dacf a1be
00000110: e29b f13e c2b7 91be a8aa c23d 3435 093e
00000120: b429 ac3e 80e9 d23e fec5 233c 330f f13d
00000130: 6252 c3bd 5023 d23e 0256 383e 1df2 98be
00000140: 63dd b3be 98c2 993e e7c7 443d 2eac 503e
00000150: ef5a e63e 6b1d a7be 830c 69bd 10b6 bdbe
00000160: c1e4 833e 3e65 bd3e 1812 32be 984c 603d
00000170: 886f 1ebe 0f2a dd3e 1cf5 e8bd bfe0 43be
00000180: 074a 68bd d8e5 5bbe 9682 883e c9d5 90be
00000190: 3c57 123e dae5 afbe 6b6c 6abe d08e cf3e
000001a0: c3fd 393e 0cd9 39be 5412 683e 241c 6bbe
000001b0: 8980 b73e d8c4 7b3d 573e b63e c5d6 023f
000001c0: 4244 a1be 73e0 06be b4b3 2a3e 1487 a53e
000001d0: 42ef e63d ecbd 36be b8c3 ce3e 3d80 7a3e
000001e0: 14f3 a0be aafb 3bbe 8777 3cbe 3324 70be
000001f0: 8606 b43e 699e 73be 1c34 9d3e f4ac 2abc
00000200: 89e8 abbe 32ad 60be 04a5 90be 8076 a4bd
00000210: b6c3 9c3e b8d9 97be b3dd b03e 8758 8b3e
00000220: e91a 6d3e 54f6 e23d 302b 863e 1974 293e
00000230: 695e 8ebe 3ebd c03e 448d 1b3e bdb1 04be
00000240: 5e63 b4be bcd2 8e3e be55 493e 8234 d03e
00000250: 959a 313e 127f aabe 112b 35be e8c1 7dbe
00000260: b50e d73e 7d5e a73e 4ae2 54be 39f2 273e
00000270: ce8d b6be c47e 8b3e 5637 9fbe 04e5 0cbe
00000280: f142 74bd c70a 84be 34c4 e03e 09c8 91be
00000290: ce9c b83e fe1b b9be c1da c6bd 8a28 cf3d
000002a0: 2b4d aa3e f298 d7be 1a45 f83d 4e73 4ebe
000002b0: 478a a23e 54cc 993e e9bc 833e 99bf d23e
000002c0: e4c6 82be dec6 c2be 9897 413e 325f bd3d
000002d0: 7fec c83d 4561 9abe ad69 b33d 4bf2 6a3e
000002e0: e8e1 c0be c1b5 a9be 4ebb 35be fc88 81be
000002f0: 981b 6e3e 47bc fdbd 64a9 b43e eb94 31be
00000300: dcda b4be 5849 a2be b72b f3bd 64a6 9fbe
00000310: 4301 1f3e bd8c fabd bf2b f63d 822c b63d
00000320: cdcb 683e fb03 753e 36ed de3d eed2 cc3d
00000330: d603 a9be ac17 8f3e 3733 883e bd1c b2be
00000340: ec27 b9be 5ea0 643e f9b8 aa3e 76ca 1f3e
00000350: 61cb da3e 040b dbbd fdfd 17be 8fec 8abe
00000360: 61a2 613e ed65 9f3e 0d7f 90bc 46c4 023e
00000370: bd90 a7be 16f4 a23e af1f 8fbe dd93 abbe
00000380: 7a92 88be e486 a2be bbce 0f3e 67c9 41be
00000390: d8c9 503e 5b47 b2be d2ba 96be 4437 883d
000003a0: f648 6e3e 44eb 79be df32 773e b74b a5be
000003b0: 0a7e 973e af46 053e d5b9 c93e b3cf cc3e
000003c0: f887 7fbe 2014 95be 7f86 f13d defb ad3e
000003d0: ff8d 903e 0f92 a4be 1fc9 613d 993a 8d3e
000003e0: 6e16 66be e6a6 0fbe fd95 c9be 42ba 95be
000003f0: 4120 8e3e 73cd b0be 323d 653e 57eb 2cbe

fc_layers.4.bias f4 [64]
0.03827741 -0.11496601 -0.014938379 -0.011659981 0.105984785 -0.4116018 0.058871653 -0.069465406
0.090221494 -0.07735162 0.13160563 0.009518229 0.1810666 0.16594474 -0.10946113 0.052169334
0.027302882 0.16971137 -0.102799304 -0.031766523 0.09974379 -0.006951558 -0.2734932 0.06572676
-0.034285672 -0.6269026 -0.6058454 -0.025251668 -0.1289693 -0.07476967 -0.13437206 0.1771799
0.028937586 -0.057696182 -0.056707054 -0.0034682378 0.117220424 -0.014828442 0.09535976 -0.32793528
-0.016333755 0.61608076 0.0025101497 0.03791019 -0.051215786 0.06421571 0.14154598 -0.09387948
0.21833627 0.111541666 0.55542606 -0.16488132 -0.09579613 -0.17222397 -0.08568236 0.34240878
0.23956752 0.014592681 0.3503546 -0.55001175 -0.10385643 -0.04919973 -0.04453223 -0.16945012
00000000: c6c8 1c3d 4d73 ebbd 1ac0 74bc 8109 3fbc
00000010: 8d0e d93d 79bd d2be 6723 713d e143 8ebd
00000020: 0cc6 b83d 876a 9ebd a0c3 063e 59f2 1b3c
00000030: 8669 393e 6bed 293e 282d e0bd 83af 553d
00000040: 4baa df3c d1c8 2d3e 7188 d2bd 9d1d 02bd
00000050: 7946 cc3d e5c9 e3bb 4d07 8cbe c09b 863d
00000060: 226f 0cbd b07c 20bf af18 1bbf 96dc cebc
00000070: 8710 04be d720 99bd d498 09be a66e 353e
00000080: 840e ed3c d552 6cbd a845 68bd 604b 63bb
00000090: 4311 f03d fef2 72bc fa4b c33d 22e7 a7be
000000a0: 5ece 85bc 78b7 1d3f 5381 243b b747 1b3d
000000b0: a5c7 51bd 8783 833d 6ef1 103e e343 c0bd
000000c0: 8b93 5f3e f56f e43d 6730 0e3f a6d6 28be
000000d0: c330 c4bd 7b5b 30be 3c7a afbd 3450 af3e
000000e0: 3051 753e 2416 6f3c ae61 b33e 92cd 0cbf
000000f0: aeb2 d4bd a885 49bd 6d67 36bd 5584 2dbe

fc_layers.6.weight f4 [38, 64]
-0.67686605 0.7851432 1.021393 0.9126659 -0.8547173 -0.6451502 -0.6220895 -0.80160755
0.7054142 -0.8937487 -1.0755315 -0.80679065 0.59267175 0.86049014 -0.63790435 0.76063675
-0.9313379 0.52816135 1.113987 -0.60243547 -0.9317216 -0.8582437 -0.6863593 -0.7303211
-1.004675 -0.50863534 -0.46991843 0.8631497 0.70799315 -0.879329 -0.7395149 -0.97590435
-0.6757161 0.8041743 -0.9524895 -0.98365927 -1.0059396 1.0840348 -0.69711626 -0.8094338
-0.92746145 0.4918542 -0.911498 -1.053849 0.6641347 1.0218754 0.95387304 0.8596092
0.9270017 -1.1142598 0.7028475 0.8822039 -0.822204 -0.7859752 -1.0549505 0.7040596
0.819827 0.8860594 0.5311523 -0.63511604 -0.96577823 1.0994705 -0.6879948 -0.6502625
-0.9141906 0.95439214 1.0877053 1.0663764 -0.8894902 -0.5025058 -1.0110413 -1.1140277
0.8023452 -0.6850907 -1.0567354 -0.6673188 0.78318274 0.9969243 -1.0848827 0.51772475
-0.7049496 1.0249879 0.9218744 -0.9672285 -1.0670462 -0.84399474 -0.5991317 -0.96007407
-0.8056562 -0.61592335 -0.7596622 0.7536195 0.9459054 -0.6577924 -0.8233542 -0.97807115
-0.8616793 1.0404333 -0.7011175 -1.0413871 -1.0931066 0.9828528 -0.8975939 -0.49110597
-0.95374805 0.50628495 -0.7079489 -0.89188254 0.8309996 0.9577289 0.69460404 0.80058193
0.95700145 -1.0270722 0.7328511 1.0939362 -0.73702794 -1.1080616 -0.6991345 0.70814174
0.50258166 0.63699865 0.92845803 -0.9002288 -0.65882635 0.6673322 -0.82038575 -0.6669424
-0.80070233 0.9287799 1.0092183 0.74664986 -0.9414244 -0.9703121 -0.7496734 -1.1524224
0.9741138 -0.7726257 -0.9216391 -1.0931686 0.9693714 0.7184448 -1.0453254 0.66018265
-0.65067077 0.6551156 1.0397978 -1.0716729 -1.0539988 -1.0373492 -0.8993198 -0.886668
-1.0010693 -0.578203 -0.78217804 1.0476122 0.7050208 -0.749625 -0.9295856 -0.8210847
-0.9884621 0.75610536 -0.8286445 -0.918207 -0.72533584 1.0366868 -1.0870439 -0.7176545
-1.0006369 0.59255177 -0.93604714 -0.9941113 1.1354916 0.6829661 0.697868 0.60510916
0.9652114 -0.7224777 0.940565 0.7913818 -0.7380528 -0.9373838 -1.0426334 0.64402455
0.7376308 1.1311198 0.6290294 -0.943549 -0.6149655 1.0049162 -0.79533714 -0.68334544
-0.91447043 0.65286165 0.77999204 0.7472629 -0.79229707 -0.7926749 -0.8086667 -0.73440224
0.96350574 -0.7760661 -0.71830446 -0.7713477 0.9792354 0.76986814 -0.83370996 0.8124522
-0.85836726 0.700058 0.73770887 -0.9084559 -0.6836741 -0.7160151 -0.6154326 -0.76513374
-0.9718328 -0.8627982 -0.74468154 0.5952315 0.8870151 -0.72684157 -0.89833915 -0.9892713
-0.98550564 0.8252309 -1.0478611 -0.9711069 -1.1246316 1.0861914 -1.1014259 -0.952889
-0.96916085 0.83710176 -1.14544 -0.90422064 0.9702352 0.9248597 0.7617889 0.7220202
0.7958105 -0.8521605 0.6824095 0.95683163 -1.028815 -0.99328846 -1.0657797 0.98585284
0.92000586 0.78175163 0.84536564 -0.7156391 -0.93308216 0.75983816 -0.9400442 -0.9452134
00000000: 1847 2dbf 25ff 483f 01bd 823f 79a4 693f
00000010: c1ce 5abf 9028 25bf 4241 1fbf 2736 4dbf
00000020: 0696 343f b7cc 64bf 04ab 89bf d589 4ebf
00000030: 56b9 173f 1549 5c3f b34d 23bf 17b9 423f
00000040: 296c 6ebf 9535 073f 2097 8e3f 3639 1abf
00000050: 4f85 6ebf dcb5 5bbf 3eb5 2fbf 53f6 3abf
00000060: 3199 80bf ed35 02bf 2699 f0be 61f7 5c3f
00000070: 0a3f 353f b51b 61bf d950 3dbf ded4 79bf
00000080: bbfb 2cbf 5ede 4d3f 5ad6 73bf 18d1 7bbf
00000090: a1c2 80bf a7c1 8a3f 3676 32bf 0e37 4fbf
000000a0: 1d6e 6dbf 50d4 fb3e ef57 69bf 86e4 86bf
000000b0: bb04 2a3f d0cc 823f 0631 743f 590f 5c3f
000000c0: fc4f 6d3f 11a0 8ebf d0ed 333f 1dd8 613f
000000d0: f67b 52bf ac35 49bf 9e08 87bf 403d 343f
000000e0: 2fe0 513f cad4 623f 99f9 073f f796 22bf
000000f0: 3e3d 77bf 73bb 8c3f 6d20 30bf 9a77 26bf
00000100: 6508 6abf 0b53 743f ed39 8b3f 067f 883f
00000110: a1b5 63bf 38a4 00bf cd69 81bf 7698 8ebf
00000120: 7f66 4d3f 1b62 2fbf 1b43 87bf 68d5 2abf
00000130: aa7e 483f 6e36 7f3f 70dd 8abf 9c89 043f
00000140: 9477 34bf ce32 833f f6ff 6b3f 499c 77bf
00000150: f894 88bf 0a10 58bf b260 19bf 6ac7 75bf
00000160: 7c3f 4ebf 27ad 1dbf 3979 42bf 35ed 403f
00000170: db26 723f 1565 28bf 57c7 52bf df62 7abf
00000180: 0497 5cbf eb2c 853f 707c 33bf 2c4c 85bf
00000190: ebea 8bbf 3e9c 7b3f b7c8 65bf 3e72 fbbe
000001a0: d528 74bf e49b 013f 243c 35bf 6a52 64bf
000001b0: 64bc 543f b92d 753f 92d1 313f f0f2 4c3f
000001c0: 0cfe 743f 1a77 83bf 219c 3b3f 1a06 8c3f
000001d0: ddad 3cbf f6d4 8dbf 7bfa 32bf c748 353f
000001e0: 31a9 003f 5812 233f 6daf 6d3f 6575 66bf
000001f0: d8a8 28bf 48d6 2a3f cd04 52bf bdbc 2abf
00000200: d4fa 4cbf 85c4 6d3f 112e 813f 7224 3f3f
00000210: 3101 71bf 6066 78bf 99ea 3fbf 9482 93bf
00000220: 865f 793f ccca 45bf 8af0 6bbf f3ec 8bbf
00000230: b928 783f 00ec 373f 39cd 85bf bb01 293f
00000240: 5c92 26bf a8b5 273f 1818 853f 942c 89bf
00000250: 6fe9 86bf dcc7 84bf d339 66bf adfc 62bf
00000260: 0a23 80bf 1d05 14bf d23c 48bf 2818 863f
00000270: 3e7c 343f 6de7 3fbf 52f9 6dbf 9b32 52bf
00000280: da0b 7dbf 1f90 413f 0c22 54bf 9d0f 6bbf
00000290: 9caf 39bf 27b2 843f 4124 8bbf 35b8 37bf
000002a0: df14 80bf 79b1 173f c9a0 6fbf 147e 7ebf
000002b0: ca57 913f ded6 2e3f 7aa7 323f 6fe8 1a3f
000002c0: 1818 773f 4cf4 38bf dec8 703f ff97 4a3f
000002d0: 07f1 3cbf 62f8 6fbf 0375 85bf cbde 243f
000002e0: 5fd5 3c3f 89c8 903f 1208 213f 6d8c 71bf
000002f0: 616e 1dbf 18a1 803f 379b 4bbf baef 2ebf
00000300: bc1a 6abf f121 273f 8fad 473f 9f4c 3f3f
00000310: fbd3 4abf beec 4abf c804 4fbf c901 3cbf
00000320: 50a8 763f 45ac 46bf cde2 37bf 0b77 45bf
00000330: 2caf 7a3f 1416 453f 046e 55bf defc 4f3f
00000340: f5bd 5bbf 0037 333f 7dda 3c3f 9190 68bf
00000350: 4405 2fbf c44c 37bf fe8c 1dbf cedf 43bf
00000360: 09ca 78bf 58e0 5cbf 73a3 3ebf 1761 183f
00000370: 6c13 633f 4a12 3abf 8ef9 65bf e240 7dbf
00000380: 194a 7cbf 5542 533f 5020 86bf 769a 78bf
00000390: eef3 8fbf 5208 8b3f 86fb 8cbf 89f0 73bf
000003a0: ed1a 78bf 4d4c 563f c79d 92bf 017b 67bf
000003b0: 5661 783f 9bc3 6c3f 9904 433f 51d6 383f
000003c0: 3dba 4b3f 3127 5abf 64b2 2e3f ebf2 743f
000003d0: 36b0 83bf 2748 7ebf 786b 88bf da60 7c3f
000003e0: 8185 6b3f e020 483f e269 583f 2034 37bf
000003f0: 79de 6ebf c184 423f bda6 70bf 81f9 71bf

fc_layers.6.bias f4 [38]
0.5649367 0.62720776 0.752026 0.7148986 0.80591756 0.6201879 0.47098145 0.78082806
0.9273372 0.8350087 0.778687 0.7462392 0.68741953 0.6883665 0.6914784 0.7438636
0.83718044 0.9103261 0.72030467 0.66784585 0.62820154 0.52702075 0.48731488 0.5890988
0.48340616 0.68674695 0.55899066 1.2748821 1.5127368 1.7241988 1.4771472 1.5935276
1.6599311 1.6644313 2.0975604 -0.1162903 0.953477 0.6246648
00000000: b19f 103f b090 203f c784 403f 9803 373f
00000010: 9d50 4e3f a2c4 1e3f 7b24 f13e 59e4 473f
00000020: f965 6d3f 21c3 553f 0858 473f 8809 3f3f
00000030: bafa 2f3f c938 303f ba04 313f d86d 3e3f
00000040: 7551 563f 220b 693f e365 383f f2f7 2a3f
00000050: d1d1 203f d5ea 063f 5681 f93e 2ecf 163f
00000060: 0381 f73e a6ce 2f3f 031a 0f3f 562f a33f
00000070: 5ca1 c13f 8cb2 dc3f 2913 bd3f b6f8 cb3f
00000080: 9f78 d43f 160c d53f 6e3e 0640 9c29 eebd
00000090: 1217 743f 08ea 1f3f
